independent_train_1000.0/client93/checkpoint_1000.0.pth (torch, 225067 bytes, 29 tensors)

conv1.weight f4 [24, 3, 3, 3]
00000000: eb08 863e 9faa 093f 3e36 813e 0c69 273f
00000010: 143d 7e3f d3db 283f 18dc 043e 507b eb3e
00000020: 7e98 203e 4557 adbb 0dad 59bd 1564 393d
00000030: 3fe0 debd cadb 43be 099a a0bd 673c 69bd
00000040: 73c0 19be 4da1 92bd 67c4 13be fc7d ddbe
00000050: 486f 39be 7ca3 b7be 5fa8 2ebf 3df5 c7be
00000060: fdef c13c 6f5d 8bbe fbb1 1abc 6ffa bcbf
00000070: 3241 d9bf c731 b9bf e475 163f 7fb9 6f3f
00000080: 9a20 313f 8614 4e3f 34b0 983f 27ab 3f3f
00000090: 8755 75bf 41f8 9cbf c58a 7abf 152d b03e
000000a0: 910c 203f bd5c f03e e5a6 c13e a387 353f
000000b0: a1ac dd3e 44be 213b 0076 dfbe e4f6 e8bd
000000c0: a946 813e b2a0 813e a0af a03e 6e10 fbbd
000000d0: 51c3 f6bd 5707 b9bd a8d8 7dbd 17fa 8f3e
000000e0: 5071 08bd 8c2c ae3d a7b4 dc3e a23b 653e
000000f0: 334c 85bd 887d 7d3e a9d9 063e 2a38 4a3e
00000100: 37a7 7b3e aa16 383e b312 f8bd 7a9f d3bd
00000110: 4efe a5bd 965d 11be 78c7 34be 8813 a4bd
00000120: 063b 113e 2ce0 55bd 5847 853c 7bac bebe
00000130: 40d9 28bf 775a f0be 4c7b 8cbe 4a3c 14bf
00000140: 677a b3be 8ed1 a1bc c1ba 86bd cb88 793e
00000150: 90d0 9e3f c674 2dbe c5d1 9fbf 9bca d33e
00000160: 59d9 d3bd 1d08 23be dc93 393f 9653 9fbe
00000170: a313 19bf 73b5 0e40 977a 6dbe 7763 03c0
00000180: 8804 9b3f 2d25 1bbe ab14 48bf 6447 733e
00000190: e412 a1be 8032 50be f715 ea3f 6a24 14be
000001a0: 89ef d4bf 18c3 823f e178 eabd 9c9c 3cbf
000001b0: 15ce 4ebf 3bb8 783d 5457 313f 30a8 623f
000001c0: dece 0f40 8629 b2bf f076 81bf ec3b 643f
000001d0: 1a0d 06bf 7246 26bf e355 95bd eb2a 823e
000001e0: efe4 db3e 5a08 d13f bafc 06c0 6f40 8cbf
000001f0: 52e2 4d3f 83b3 adbe 0802 13bf 721e 9dbe
00000200: e2bd 173f ede9 a23e a54b a93f fb64 b8bf
00000210: 9db9 3abf 530f 533f 925e 9c3e 9dc3 6e3e
00000220: b4a7 ba3b c2a3 203e 3de0 ffbd 9ed4 a1be
00000230: c4ec 56be 98a2 013d f6cf cfbd 3736 92bd
00000240: efe3 c8be 484c 06bf f130 cdbe d6e9 0dbf
00000250: c7f6 1bbf c425 0ebf c68b 21bf 0859 2ebf
00000260: 1c1d 27bf 656d 903d 8f19 cd3e aa13 433e
00000270: a444 533f bfde a43f ca6c 763f 9833 db3e
00000280: 248c 633f 7fa9 093f a917 b6be 979c 533c
00000290: 0006 e2be 132e 3b3f 968d ab3f bed7 3c3f
000002a0: 69d1 d43e bc35 823f 3e10 d53e 3bd4 e3bd
000002b0: d933 cfbe 863d 57bd ada1 56bf 7223 97bf
000002c0: 64d7 30bf 429f 26bf 55f3 81bf fd64 12bf
000002d0: d945 1e3f 9f16 e43e 3af1 183f 44bd 6a3e
000002e0: 4aba b03c eb0e 893e 27ed 173e 2c5a d4bd
000002f0: 166f 133e 70eb 9c3e b23b 063f 32f0 bd3e
00000300: 8c43 c53e 60e6 2c3f ff1f 183f ecc3 82be
00000310: 7165 34bd d831 1bbc d312 1a3e 4e16 903e
00000320: 3d03 9a3e 025b b7bc 271e c23d 277e 453e
00000330: c959 d7be 8937 d0be 8bca 85be 792e 4dbc
00000340: 79d6 a7bc a5d5 c13d 4a59 74be d70f 82be
00000350: 94e6 9abd 18c0 a1be 12ae b5be 9985 32be
00000360: 66bd 923c 89f6 773f 1184 6c3d 664e 843f
00000370: a124 babf 4562 273f 275b 623e 271f 4ebf
00000380: fe00 f93e a718 083e 1233 a63e 1301 f73d
00000390: 4ba1 de3e 45e6 2ec0 c5f9 94bd 0f5c 253f
000003a0: bf27 3dbf b672 813f 4706 29be b46c 0e3f
000003b0: df22 2f3e 7a55 a33e 8685 ffbf a4d3 313e
000003c0: 8ca9 b13e 0ca0 d7be d084 833f 5804 74be
000003d0: 82bb 0fbf 3eab 7cbe ff58 0bbf 5c25 67bf
000003e0: 27c3 17bf a0f7 16bf 5c57 75bf dd67 1cbf
000003f0: c38d 163f 23f3 433f ca66 283f a09a 813f
0.2617868 0.5377597 0.25236696 0.65394664 0.9931195 0.65960425 0.12974584 0.45992517
0.15683171 -0.0052899444 -0.05314355 0.04526146 -0.10882615 -0.19126812 -0.0784188 -0.05694237
-0.1501482 -0.07159672 -0.1443039 -0.4326018 -0.18108857 -0.35866916 -0.68225664 -0.3905429
0.023674006 -0.27219722 -0.009441848 -1.4763926 -1.6973021 -1.4468316 0.58773637 0.9364242
0.6919037 0.80500066 1.1928773 0.7487053 -0.9583363 -1.2263261 -0.97867996 0.34409395
0.62519175 0.46945754 0.37822643 0.7091009 0.43295768 0.0024680058 -0.43644714 -0.11375216
0.25249222 0.25317913 0.3138399 -0.12258993 -0.120489724 -0.09034603 -0.061974198 0.2812049
-0.03331119 0.085045904 0.43106577 0.2238603 -0.065086745 0.24754918 0.13168968 0.19747987
0.24575506 0.17977396 -0.121129416 -0.10333152 -0.081051454 -0.14195856 -0.17654216 -0.08011538
0.14182672 -0.05221574 0.01626937 -0.37240967 -0.659565 -0.4694402 -0.27437818 -0.57904494
-0.35054323 -0.019753244 -0.06578589 0.24368589 1.2407398 -0.16939077 -1.2485892 0.41365513
-0.1034419 -0.15921064 0.7249124 -0.31118459 -0.5979559 2.2298248 -0.23191296 -2.0529459
1.2110758 -0.151509 -0.78156537 0.23757702 -0.31459725 -0.20331764 1.8287953 -0.14467016
-1.66356 1.0215788 -0.11448837 -0.73676467 -0.80783206 0.06072257 0.6927388 0.88537884
2.2470012 -1.3918922 -1.0114422 0.89153934 -0.5236374 -0.6495124 -0.07291772 0.2542337
0.429481 1.6330674 -2.1091752 -1.0957164 0.8042346 -0.3392602 -0.57424974 -0.3068729
0.59274113 0.31819096 1.322621 -1.4405817 -0.72939473 0.8244526 0.305409 0.23316808
0.0056962613 0.15687469 -0.12493942 -0.31607527 -0.20988756 0.031649202 -0.10147087 -0.07139247
-0.392364 -0.52460146 -0.40076402 -0.5543493 -0.6092343 -0.55526376 -0.631039 -0.681046
-0.6527879 0.07052115 0.40058562 0.1905047 0.8252661 1.2880477 0.9625975 0.428128
0.8888571 0.53774256 -0.35564926 0.012915752 -0.44145203 0.7311718 1.3402584 0.73766696
0.41566017 1.0172648 0.41613954 -0.11124464 -0.40469244 -0.052548908 -0.8384045 -1.1807692
-0.6907866 -0.6508676 -1.0152384 -0.57185346 0.6182533 0.4454851 0.5974308 0.22923762
0.021573205 0.26769194 0.1483656 -0.103687614 0.14397845 0.30648375 0.5243484 0.37097317
0.38528097 0.67539024 0.5942382 -0.25540102 -0.044042055 -0.009472333 0.15046243 0.28142017
0.30080596 -0.022382263 0.09478407 0.19286405 -0.42060688 -0.4066737 -0.2613109 -0.012523287
-0.02048801 0.094645776 -0.23862186 -0.2540271 -0.075635105 -0.31591868 -0.35484368 -0.17433776
0.017912578 0.9686056 0.057743136 1.0336425 -1.4542428 0.6538432 0.22105084 -0.80516285
0.4863357 0.13290654 0.3246084 0.12060752 0.43482432 -2.7328045 -0.07274202 0.64593595
-0.7388877 1.0113132 -0.16506301 0.5563462 0.17103146 0.3190115 -1.9962623 0.1736589
0.34699667 -0.42114294 1.0274906 -0.23829782 -0.5614549 -0.24674699 -0.5443267 -0.9029138
-0.59282154 -0.58971596 -0.95836425 -0.6109598 0.5881006 0.7654287 0.65781844 1.0125313

dense1.0.bn1.weight f4 [24]
00000000: d7a4 553f ccb0 da3e b7dd f23e d7ba 593f
00000010: bf52 f63f 78d4 aa3e e73a 9e3f c369 373f
00000020: 0363 0140 5316 b33e 43c5 013f f190 073f
00000030: 2f7e 9f3e 3528 2b3f 23a9 613f f2f0 873f
00000040: a9a9 a23e e1ca ba3e 58be 893e b92d 243f
00000050: a4f8 203f 95c9 823f c17b d13e 087c 113f
0.8345465 0.4271301 0.4743478 0.8505072 1.9244002 0.33365226 1.2361726 0.71645755
2.0216682 0.3497797 0.5069162 0.5295554 0.31150958 0.66858226 0.8814871 1.0620406
0.31770065 0.3648291 0.26903033 0.6413227 0.62879395 1.0217768 0.4091473 0.5682988

dense1.0.bn1.bias f4 [24]
00000000: 1420 febe 0825 c1be 0c74 1abe f276 0f3f
00000010: 95cf 193f 239b 8bbe bae8 a2bf bfed cdbe
00000020: 927d 1a3f 8ee4 24be 976f 64be 3151 fa3d
00000030: a70b 1b3e ec9d a13e 13ab 903e e699 183e
00000040: d768 5fbe a04b adbe e2d5 a2be a2dd af3e
00000050: a843 d9be 1062 083f 8443 ab3d 2dd4 3fbe
-0.4963385 -0.37723565 -0.15083331 0.5604087 0.6008237 -0.27266797 -1.2727273 -0.40220448
0.60347855 -0.16102812 -0.22308193 0.12222517 0.15141164 0.31565797 0.2825552 0.14902458
-0.21817337 -0.3384676 -0.31803805 0.3434878 -0.4243443 0.5327463 0.08362487 -0.18733282

dense1.0.conv1.weight f4 [12, 24, 3, 3]
00000000: 13fd 0d3d c734 4cbd 75e7 e63d 9906 1bbd
00000010: c4c8 2dbe dc6b 92bb 32dc 0539 e70c 43be
00000020: ffce 28bd f820 773d b947 11be deb2 1c3e
00000030: 6174 1ebd 0e5d 2cbe fdc4 353d 7e9e 323d
00000040: 7d78 db3c c5c8 883c d8cf 753d 1c38 59bd
00000050: 3467 623e c9ac 233d 4e85 d9bd 7c61 4d3e
00000060: d709 0abd d7a2 73be 1433 363d 84d8 643e
00000070: fa4a 42be 28c0 9cbe d27b 8d3f d6a6 bfbc
00000080: ae44 6dbf 5d7c 0fbe dc7e 05be f01f a2be
00000090: 4a21 0b3f 59fd a3bf 0f6c 213f 19ca bc3f
000000a0: 078f dbbf 9423 a83e e4a3 b73e d0fd 40bf
000000b0: bd93 d33e 714e 23bd 52a2 eabc 4036 273d
000000c0: 42f1 b6bd f71f e6bd f294 29bd de9f cf3b
000000d0: 5072 8ebc 4930 003d 1e98 11be 452e 1ebe
000000e0: bf86 323c 0f43 9cbd cf72 18be 35d7 46bc
000000f0: b7f8 a93d 26e6 38bd ee13 3fbc fcc3 26bb
00000100: 857e 093d 95ac ad3d b066 ebbd 1552 c4bd
00000110: 1830 a33d 012c 13bd e979 a7bb 28d3 333e
00000120: 9ecf 9ebe f47e 503f c464 1ebf f040 19bf
00000130: e078 b83f d894 89bf f847 46be c4c0 c03d
00000140: ee07 54be b4ad e03c 484f 64bd 553e 6c3d
00000150: 5688 6f3d c43f 13bd 6619 1e3d 89e3 c83d
00000160: 123a e4bc 9575 e63c 9e7d e53d 63f4 8aba
00000170: 8aa6 1c3d cefb 8a3d f4a5 90bd a653 0ebb
00000180: 8186 e33d 7aa4 aa3b 2e2f 6a3d 0d38 393b
00000190: 2dd1 adbd 988e d23d 145f 4cbd bed8 05be
000001a0: 588b 8b3d 8b5b ad3d 38ed a4bc 6497 053e
000001b0: 5b39 163e 2c6b 6cbc 3b74 b53d e795 5c3d
000001c0: cdc1 8ebd 7a15 0dbc c5a5 c03d 70ee ecbc
000001d0: 372c 2c3d 1b92 6bbd 5590 84bd 795b 3b3d
000001e0: 274c a13a e7a8 f6bd cea5 0c3e 218f 3f3e
000001f0: 431f 76bb 5b24 993e e8ee 8d3e aec6 ffbd
00000200: 8320 8f3e 775b 873e 58b5 58be 7a88 8e3d
00000210: 604b 173d bd8d 4bbe 104a 1ebd 2608 063d
00000220: 2769 d03d d3e1 0a3e 49c2 08be abce de3d
00000230: c4d3 253e eff0 1abe 8a94 c13c ef36 2d3e
00000240: 5d6f ee3b 1375 2abd a1e8 18bc a253 373d
00000250: 36d7 0f3c e5a9 78bc 9488 9c3d 369a 4c3d
00000260: 2c1d 483c ed20 c83c 55b6 cabc 43d7 193c
00000270: 4d9f 08bc 9abf 89bd c459 95bc 693c 81bd
00000280: 9d4a fdbd 8c56 c7bd bd01 41bd 163f 6abd
00000290: a843 bdbc 8722 6bbd 974c acbd 5e29 11bd
000002a0: 835c fe3c 81b5 46bc b1b8 473c 0d12 423c
000002b0: e837 05be 8ff7 39bd 36e7 e03e bdbd b9bd
000002c0: 0e4b 36be a56f 953e 7064 37be 1c4c 82be
000002d0: 5b74 3fbd 7816 2cbe 376f edbc 73d0 a43c
000002e0: ce56 8bbd 7afa 3f3d 3faa ee3d e830 e03d
000002f0: d608 1f3e c47e 4ebf 6e2b 2e3d f5bc 1f3f
00000300: 8f5b 66bf eb79 b6be 483f e03f 8565 14be
00000310: e0b6 51bf 3657 863e 268f e73c 23e4 98bd
00000320: 1d37 05bc fa32 133d 6ca8 20bc 3be4 3e3d
00000330: e8ff b3bd 1747 12be f0f6 e7bc fb6a 093e
00000340: 4290 133e 81c4 673e a957 033e 9058 ef3d
00000350: bf35 8e3e 1b04 25be 471f 8abe 7d0f bdbd
00000360: 0eef 95be c978 2cbe 15a4 5fbe 4a2d 2dbe
00000370: f982 9fbc 8da2 cbbd c1ee 6fbe 7864 e5bd
00000380: edac 4cbe 5eea 203e 86c4 283e 82a0 523e
00000390: 938b 9d3d fb59 833d 74d6 813d 303a 133d
000003a0: 8fbf a7ba 429d f7bc 799a af3d 8e28 173e
000003b0: e90e 8c3d 6d87 3e3e c011 873e 8015 363e
000003c0: 1185 993d 785a 283e 5943 873d 020c 87bc
000003d0: 7796 1a3e db4a 9dbc 0191 253d 3c12 4e3e
000003e0: 8f04 16bd 8e0c f3bc f0fc 173e 83c4 0c3c
000003f0: 8898 9ebe b044 bebd e360 97be ab11 043e
0.03466518 -0.04985502 0.11274616 -0.03784809 -0.16971117 -0.0044684242 0.00012765898 -0.1904789
-0.04121303 0.060334176 -0.14187516 0.15302607 -0.038685206 -0.16832373 0.044377316 0.04360818
0.026790852 0.016697297 0.06001267 -0.053032026 0.22109681 0.039959703 -0.10621129 0.20056719
-0.03370079 -0.23792587 0.044482306 0.22348219 -0.18973914 -0.30615354 1.1053412 -0.023394983
-0.9268292 -0.14012285 -0.13036674 -0.3166499 0.5434767 -1.281169 0.6305551 1.4749175
-1.7153023 0.32839644 0.35867226 -0.7538729 0.41323653 -0.03986973 -0.028641853 0.04082322
-0.08932735 -0.112365656 -0.04140181 0.0063361963 -0.017388493 0.03129605 -0.14218184 -0.15447338
0.010896384 -0.07629978 -0.14887546 -0.01213627 0.08299392 -0.04514136 -0.011662466 -0.0025446406
0.033567924 0.08480183 -0.114941955 -0.095859684 0.079681575 -0.035930637 -0.0051109684 0.17561018
-0.31017774 0.81443715 -0.61872506 -0.5986471 1.4411888 -1.0748549 -0.19363391 0.09411767
-0.2070615 0.027426578 -0.05573967 0.057676632 0.05847963 -0.035949484 0.03859844 0.09809024
-0.027859721 0.02813224 0.112056 -0.0010601397 0.03824476 0.06786309 -0.07062903 -0.0021717339
0.11109639 0.0052075954 0.0571739 0.0028262169 -0.08487163 0.10281104 -0.04989536 -0.13070962
0.06813687 0.08464726 -0.020132646 0.13046032 0.14670317 -0.014429849 0.0886006 0.053853896
-0.06970558 -0.008611077 0.09406618 -0.02892229 0.042034354 -0.057512384 -0.06472842 0.045741532
0.001230602 -0.12043934 0.13735124 0.18706943 -0.0037555255 0.2991055 0.27721334 -0.12489067
0.27954492 0.2643697 -0.21162927 0.069596246 0.036937118 -0.19878288 -0.03864485 0.032722615
0.10176306 0.13562708 -0.13355364 0.108792625 0.16194063 -0.15130971 0.0236304 0.16915487
0.007276459 -0.041615557 -0.009332807 0.044757493 0.008779338 -0.015177225 0.07643238 0.049951755
0.012213986 0.024429763 -0.024745146 0.009389701 -0.0083387615 -0.06725998 -0.01823128 -0.063103504
-0.12367747 -0.097333044 -0.0471208 -0.05718907 -0.02310355 -0.057405975 -0.08413046 -0.03543984
0.031049972 -0.012128235 0.01219003 0.011845124 -0.13009608 -0.045402106 0.439264 -0.09069393
-0.17802069 0.2918674 -0.17909408 -0.25448692 -0.046741825 -0.16805446 -0.028983695 0.020118928
-0.06803666 0.046869732 0.116535656 0.10946828 0.15530714 -0.8066218 0.042521887 0.623977
-0.8998346 -0.3563989 1.7519312 -0.14491852 -0.8191967 0.26238412 0.0282665 -0.074653886
-0.008130816 0.035937287 -0.00980578 0.046604376 -0.087890446 -0.14284931 -0.028315991 0.13419716
0.14410499 0.22633554 0.12826408 0.11686814 0.2777538 -0.16114847 -0.26976988 -0.0923147
-0.29283947 -0.16842951 -0.21839936 -0.16911808 -0.019471632 -0.099431135 -0.23430921 -0.112008035
-0.19987841 0.15714404 0.16481218 0.20569041 0.07692637 0.06413647 0.06339732 0.035944164
-0.0012798178 -0.030226354 0.08574385 0.14761564 0.068387814 0.18606348 0.2638073 0.17781639
0.074960835 0.16440761 0.066046424 -0.016485218 0.1509646 -0.019200733 0.04042149 0.20124143
-0.03662544 -0.029669072 0.14842582 0.008591774 -0.30975747 -0.09290445 -0.29566106 0.12897365

dense1.1.bn1.weight f4 [36]
00000000: cf0e 0d3f c614 553f 7211 933e 4969 463f
00000010: c983 4a3f 7bf3 253f 991c 583e 16cb 323f
00000020: ea10 043f 76e0 c73e e898 b93e c984 c53e
00000030: 556b 023f 3227 413f cb18 e33e 7a8c 6c3d
00000040: 635e c13e 8ded 2a3f 09b3 fa3e e8d3 0740
00000050: aae2 a03f fdba 0540 efb9 1e3f 75e0 543f
00000060: f9c5 be3f 7b88 563e fc9d c93f f583 be3f
00000070: 8461 e73e c414 cd3e 6a97 b33f e979 3d3f
00000080: 4ba5 fc3e a8c5 783f 4357 a83f 427d d93f
0.5510072 0.8323482 0.28724247 0.775044 0.7910734 0.64824647 0.21104659 0.69841135
0.5158831 0.39038438 0.3624947 0.3857787 0.50945026 0.7545043 0.44354853 0.057751156
0.37767324 0.66768724 0.48964718 2.1223087 1.2569172 2.0895379 0.6200246 0.83154994
1.4904166 0.209505 1.5751338 1.488402 0.45191586 0.40054905 1.4030583 0.74014145
0.4934486 0.971766 1.315163 1.6991351

dense1.1.bn1.bias f4 [36]
00000000: 5ae5 aabe b0ad 293e 35eb 58be be7b fbbe
00000010: 6c4a 22bd aa39 97be 1387 293d 0a6f 00bf
00000020: b62e 1dbe a343 d1bd 7198 82be e645 48be
00000030: 5104 b2be 0222 033d 55b5 1fbe 4ad3 d3bc
00000040: 71d8 9bbe 45fa 4fbf b508 2fbe 66de 2bbf
00000050: c5cc 07bf 5cc6 2abf 6994 acbd 18b8 13bf
00000060: 7d4c b4bd 5257 d5bb ca7b 84be 0613 173e
00000070: a6ac de3c 42ef 3ebe 2b48 7f3e 6531 d7be
00000080: 1c3d 05be ddce 9ebe c667 53bc d22a d63e
-0.33378106 0.16570163 -0.21183474 -0.49117845 -0.039621755 -0.29536182 0.041388582 -0.5016943
-0.1534985 -0.10217979 -0.2550693 -0.19557914 -0.34768918 0.032014854 -0.15596516 -0.025857586
-0.3043857 -0.81241256 -0.17093165 -0.6713623 -0.5304683 -0.6670892 -0.084267445 -0.5770278
-0.088036515 -0.0065106535 -0.25875694 0.1475335 0.027181935 -0.18645957 0.24929874 -0.42029873
-0.13011593 -0.310172 -0.0129031595 0.41829544

dense1.1.conv1.weight f4 [12, 36, 3, 3]
00000000: 1f3f c6bd a9c7 8abd 88a3 96bd cbc1 843b
00000010: 8ff7 2b3c 07ad 6c3a 4d84 ae3d 2ab7 d63d
00000020: 7639 d83d 26e4 0f3d 01cd b3bb 79aa a73d
00000030: 7a1b 973d 7d42 853d d043 023e 0e1c ff3c
00000040: 93e9 89bc a13d 013d 8ec6 06bc 27db 26bd
00000050: 1f90 d0bc 380d 52bb 2c8e b1bc 2d22 86bc
00000060: 1715 473b e6db 1cbb d27b 01bc fba5 a13d
00000070: 75b9 993d 1cc1 123d 0498 2dbd 43f4 eb3c
00000080: 40cf c23b bc79 f9bd 053a 91bd 38d6 2ebd
00000090: 4179 853c 36ab 57bc 1469 42bd e4a7 f9bc
000000a0: 35cb 4bbd 2e92 a5bd 3f10 a3bd 65f1 c5bd
000000b0: 7320 d6bd b8e4 2ebd 52fc 85bd c288 5abd
000000c0: e6f9 23bc 44f3 03bd 05e9 44bc f547 a83c
000000d0: 2ed9 6b3a 3d0a 833c 09c9 403d 2f9f ff3c
000000e0: 533b 7d3d d79c b63d a864 c93d 4fe4 bd3d
000000f0: b9fd ce3d a094 d43d 59ab d33d 7f80 af3d
00000100: 24b5 b93d 824c d53d 7be8 373c f5a0 313d
00000110: 669f 693d 6b64 a73d 58a4 b23d ccf2 fd3d
00000120: 8346 743b a39f 22bd 135b c3bc 5f8f 77bd
00000130: 9463 8abd 5629 03bd f2c5 13bd 40e9 39bd
00000140: 1f1e 36bd be70 7ebd 475a b8bd 37a9 e8bc
00000150: 254b 25be 709e 36be 2e47 01be 0313 9cbd
00000160: 942e c5bd 932c 5cbd b6c2 993d a836 b03d
00000170: 23fd c43d 7404 933d 954e 8e3d cecc b13d
00000180: 1917 9f3d 6fa1 973d 746c bf3d ee98 6cbd
00000190: 4dbd 82bd 0104 86bd 7708 4dbc 7c11 cabb
000001a0: 913f 9cbc 6590 c43b 3023 b73c 1363 bc3c
000001b0: bb08 983c f628 ec3b 025f c53c 5b0a 47bc
000001c0: 0bc2 d1bc fe8a 13bb 9b09 933b be98 95bc
000001d0: 572f 1b3b 711c 8a3e 94dc c73d c1f9 083e
000001e0: e802 c73c 280b e6bd d883 81bd 25f4 963e
000001f0: ca1e 233e 9a38 473e 91f5 7d3c 0f45 e43b
00000200: 6d7a 0e3d 4669 0cbd c145 e7bc 7d1e 2cbc
00000210: 5799 3dbd 1cf8 93bd da8a acbc 9b1f 803b
00000220: 3187 aabb 4308 4e3b 30e3 903b 07ac 94bb
00000230: 53e2 80b8 5810 18bc 9096 8bbc 4070 c63b
00000240: c874 e53c 8bbd 353d 5953 153d 3d39 30ba
00000250: 9530 203c 2676 373c e137 403d d8d6 153d
00000260: 70b2 0a3d 462b e83d 5a89 db3d 6792 de3d
00000270: 7960 2d3e 8c4b 513e 1fff 503e a2a7 763e
00000280: c127 873e 8008 833e 17f7 b43c ceae 7e3c
00000290: 36d9 843d 0f0e 523d 2ee9 583d 5c62 9d3d
000002a0: c81d be3d a2ca c63d 3dd0 053e 1823 453e
000002b0: 0b87 043e b8b8 053e 85c8 7abd 1da9 01be
000002c0: 5753 3ebe 1ccc f53d c907 233c b403 14be
000002d0: c51a e93d 25bc 963d 5948 983d df06 113e
000002e0: 9e68 b63d 5933 e13d ce27 ccbc 1aca 59bd
000002f0: 6f2a 23bd 247d 363e 1fc2 383e d91c 223e
00000300: 861b 753c 7deb 933d 7737 9abd 2878 d7bd
00000310: 311e ecbd f47b 63be b471 a73d 75f8 563d
00000320: 1f4d 8d3d fc09 a83d 8eef 763d b981 873d
00000330: d696 2b3e 28b2 293e eb22 343e f6ea 9c3d
00000340: ccf0 5d3d 40a0 8f3d e24d 933d 893b 253d
00000350: 9b4e 203d 0fb0 243e 2c9f 0b3e bd4c 153e
00000360: 803a 23be 15c5 12be b0e8 8abe 9128 19bf
00000370: bb3e 10bf 773c 1dbf bedb 2ebf d7b3 20bf
00000380: 8c23 2bbf fe35 75bc be59 e0bc 731f b9bc
00000390: 45cb 06ba 597c 483c 5f79 a73b 6484 2e3c
000003a0: 425c 403c e51e 633c 693e fcbe 1a65 d0be
000003b0: df35 fabe bb9f 11bf e667 0cbf 4426 17bf
000003c0: 57a7 fabe 0c13 cabe e571 fabe f64a e23e
000003d0: 2585 a83e fd54 8e3e 4124 543c f527 97bd
000003e0: ad6e 70bd b4f4 4d3e 7510 9b3c a448 79bd
000003f0: 5abd bebc 2d83 13bd 26bb 30bd 6df5 b53c
-0.09680008 -0.067763634 -0.0735541 0.0040514222 0.010496034 0.00090284686 0.08521328 0.104841545
0.10557835 0.03512969 -0.005487085 0.08186812 0.073782876 0.06506822 0.12721181 0.031141307
-0.01683501 0.031552915 -0.00822605 -0.040736344 -0.025459347 -0.0032051336 -0.021674238 -0.016373718
0.003037756 -0.002393478 -0.007903056 0.078929864 0.07506076 0.035828695 -0.0423813 0.028802997
0.0059451163 -0.12181422 -0.070911445 -0.042684764 0.01629317 -0.013163378 -0.04746349 -0.030475564
-0.04975434 -0.08084522 -0.07962083 -0.09665183 -0.10455408 -0.042698592 -0.06542267 -0.05335308
-0.010008311 -0.032214418 -0.012018447 0.020542124 0.0008996901 0.015996093 0.047066722 0.031203834
0.061824154 0.089166336 0.09833652 0.09272062 0.101069875 0.103799105 0.10335416 0.085694306
0.09067753 0.10414983 0.011224861 0.04336639 0.05703678 0.0817345 0.08722752 0.123998255
0.0037273474 -0.039703023 -0.023847139 -0.060439464 -0.06757274 -0.032021843 -0.036077447 -0.04538846
-0.04446232 -0.062119238 -0.09001594 -0.028401 -0.16141947 -0.17833877 -0.12624809 -0.07620814
-0.09628025 -0.053753447 0.07507841 0.08604175 0.096185945 0.07178584 0.06948582 0.086816415
0.077680774 0.07403838 0.09346858 -0.057763033 -0.063837625 -0.065437324 -0.012514225 -0.006166635
-0.01907328 0.0059986585 0.022355646 0.022996461 0.01855885 0.0072070314 0.024093155 -0.012148465
-0.025605222 -0.0022513266 0.004487229 -0.01826131 0.002367934 0.26974824 0.09758869 0.13376524
0.024293378 -0.11232597 -0.06323975 0.29483142 0.15929714 0.19455186 0.015500442 0.0069662402
0.034784723 -0.034280084 -0.028231503 -0.010505316 -0.046288814 -0.072250575 -0.021062303 0.0039100177
-0.0052041044 0.003143803 0.004421614 -0.004537109 -6.145672e-05 -0.00928124 -0.017039567 0.0060558617
0.028009787 0.044370215 0.03645644 -0.00067223964 0.009777208 0.011197602 0.04692829 0.036581844
0.033861578 0.11336379 0.10719557 0.10867768 0.16931333 0.20438975 0.20409821 0.24087384
0.26397517 0.25592422 0.022090478 0.015544606 0.06486742 0.05128294 0.052956752 0.07684776
0.09283024 0.09706618 0.13067718 0.19251668 0.1294214 0.13058746 -0.061226387 -0.12662168
-0.18586479 0.120018214 0.009950587 -0.14454538 0.11382059 0.073601045 0.07435674 0.14162777
0.08906673 0.10996122 -0.024921324 -0.053171255 -0.03983539 0.17821175 0.18042801 0.15831317
0.014960175 0.0722265 -0.0753011 -0.10520965 -0.11529196 -0.22215253 0.08175984 0.05248304
0.06899475 0.08205029 0.06028705 0.066165395 0.16756758 0.16571867 0.17591445 0.07662003
0.05418472 0.07012987 0.07192589 0.04033998 0.039137464 0.16082786 0.13634938 0.14580055
-0.15940285 -0.14332993 -0.2713065 -0.59827524 -0.5634572 -0.6142039 -0.6830405 -0.62774414
-0.66851115 -0.014966486 -0.027386542 -0.022598004 -0.0005141984 0.012236678 0.005110904 0.010651682
0.011740746 0.013862346 -0.49266365 -0.40702134 -0.48869225 -0.56884354 -0.54846036 -0.59042764
-0.48955795 -0.39467657 -0.4891502 0.44197816 0.3291408 0.27799216 0.012948097 -0.07380668
-0.0586993 0.20112878 0.018928746 -0.06086029 -0.02328365 -0.03601377 -0.04314723 0.022211755

trans1.bn1.weight f4 [48]
00000000: b641 423f 2543 ad3f 77d2 733f 3d24 a83f
00000010: e7ff 983f 7121 a03f fdd2 863f bf94 703f
00000020: 5b70 373f ca69 8b3f 8e42 723f e2c0 a23f
00000030: a65a a63f cde7 8c3f 03ca a63f d5f8 463d
00000040: d73b 523f 0336 963f 1fd5 833f 6976 643f
00000050: 7c4e 9a3f 2f60 803f 5319 7f3f 6004 7f3f
00000060: a928 bd3f 206f b53f 3f1e c23f 7c50 ed3f
00000070: 511c c63f 7ded 9c3f 384d e73f 9138 7a3f
00000080: fc15 ca3f 1a15 bc3f 8b04 0040 f4f0 0440
00000090: 7718 983f 9e85 0d40 0179 e23f 6fba c23f
000000a0: 6e7c 0e40 0eeb 0140 c36f 9e3f 4220 1040
000000b0: ddad c33f 64d8 0d40 9afc 983f 1b4a ae3f
0.75881517 1.3536116 0.9524302 1.3136059 1.1953095 1.2510206 1.0533139 0.9397697
0.71655816 1.0891659 0.94632804 1.2715113 1.2996414 1.100824 1.3030399 0.04857715
0.8212256 1.1735233 1.0299414 0.8924318 1.2055202 1.0029353 0.99648017 0.9961605
1.4778033 1.4174538 1.516548 1.8540187 1.5477391 1.2259976 1.807044 0.97742563
1.5787959 1.469394 2.0002773 2.0772066 1.1882466 2.2112803 1.7693177 1.5213145
2.2263446 2.0299716 1.2377857 2.2519689 1.5287434 2.2163324 1.1952088 1.3616365

trans1.bn1.bias f4 [48]
00000000: bb03 903d 8f0d 4fbe 31ab 90be 03bc 20be
00000010: 09a8 a4be 2e82 fe3d 2142 0c3e dddd a2be
00000020: c63e d6bd 3019 023e ccd8 68bd 6db8 0a3e
00000030: af4b aa3d b003 d2bd f252 b8be 1410 d2bc
00000040: f5d2 f23d 6c22 9c3e 01a2 573e e5bf 26bf
00000050: ab06 81be 8806 41be ebee 98be d49a d0be
00000060: 1a8c 51be adf6 de3e 7d4f 9ebe 496a 76be
00000070: ad36 2cbf 5211 7ebe ca18 4cbf 32f8 c5be
00000080: 197d 96be d550 0bbe 4f2d e6bd 7f8d 4bbf
00000090: 4c16 bd3d a202 72bd dec6 cbbe 923b a2be
000000a0: 3edf 0b3c 8d6f 69be f864 7ebf 89f1 48bd
000000b0: d8ec 49bf 32db c5bd f703 a2bf f2b6 a23e
0.070319615 -0.20220016 -0.2825561 -0.15696721 -0.3215945 0.124271736 0.13697101 -0.31809893
-0.10461192 0.12704921 -0.05684738 0.13546915 0.08315217 -0.102546096 -0.36000782 -0.025642432
0.11856643 0.30495012 0.21057893 -0.6513656 -0.252004 -0.18850148 -0.2986978 -0.40743124
-0.20463601 0.43547574 -0.3092002 -0.24063982 -0.6727093 -0.24811295 -0.79725325 -0.3866592
-0.29392317 -0.13605054 -0.11239111 -0.7951278 0.092327684 -0.059084542 -0.3980016 -0.31686074
0.008537112 -0.2279646 -0.99372816 -0.04905847 -0.7887702 -0.09660949 -1.265746 0.317802

trans1.conv1.weight f4 [48, 48, 1, 1]
00000000: 217a 253e 82db 1b3f 773d 5fbd 2101 b9be
00000010: 7b0a b4bc eb99 5abe 77c7 f53e 14b2 eabc
00000020: bca6 42bd 4241 67be 1349 963d 1c5b c13e
00000030: d755 183d a230 adbe 64e0 38be 99a9 9d3b
00000040: 4d54 df3c 68b0 a3be 8160 a4be be5b 353d
00000050: 39c8 b6bd f06f de3e 5fe5 2d3d d9eb 49be
00000060: 9b07 bf3d c586 003e 8ec8 3ebe 9eb5 933e
00000070: 742b c13e cd1d 103e 0bff 8a3e 4e70 2bbd
00000080: 5ea7 d43e d148 543f 0c0d 553e ece1 023e
00000090: 058a 543e 35d1 e2bc 33ba a23d e83f 94be
000000a0: 2cd5 523e b12e 9b3e c650 b3be 88f4 64be
000000b0: 96f9 3b3e f500 f3bd 8939 9a3e af16 2b3e
000000c0: 1da3 d43e cd38 9ebe 27db ca3d 30fa 66bc
000000d0: 1379 d5ba 0332 fdbc 457f 803e ce7b 2f3d
000000e0: a7a1 b13a 6d15 57bf c77d 84bc 27c7 a33e
000000f0: a42d dcbe 507d 8abd c199 3abe 83bc afb9
00000100: a426 92bd c824 e8bc e5c0 2cbf 4494 af3c
00000110: c9e1 133d a8fa bd3d a7b5 debd d651 f03d
00000120: 80e0 cfbe 5a8a b43e ff3b 84be 20e8 d5be
00000130: 7c01 febe 20a3 5e3e c1e5 93be 4ba9 98bd
00000140: a91c 4ebe fe38 31be 1630 1cbf 0499 8cbe
00000150: 69eb 4c3e 6cbb b23e 820e 6b3d 7f49 b3be
00000160: f1c4 c8bd c317 ecbd d525 26bd 03ab 273f
00000170: 5a51 2e3c a352 38bb 13a3 12bf 7046 a13e
00000180: 85dd e33e 54ea f9bd dbb1 99be 59da 51bd
00000190: 1b22 8a3e bdd7 7b3f b0e8 623f 98cf c23d
000001a0: 2b38 9a3d 6365 01bf eb7b f7bc e85d a03f
000001b0: e61e b13e a00b c6bd ff99 903d feea 693c
000001c0: 85fc 62be 7434 54bf 4564 75be a99d 8d3e
000001d0: 205e 973e c008 1d3e e09b 73be aa11 70be
000001e0: a80f 97bd b84c 8c3e 2f9a 68be 9ce2 c83a
000001f0: 7863 763e c580 74be 323e db3d d731 a3be
00000200: 6752 86be 5a0c 91be 33c1 03be 6187 7abd
00000210: 7914 38be 2b89 c5bb 74e0 d7ba b1f7 91be
00000220: 442e 883d 304f 85bd f676 49be a32e ecbd
00000230: 2b3d 90bd d970 b6bd 8233 6f3d 3f5a b9bd
00000240: 912a af3e d54d a43e 7981 873e c7e5 eabe
00000250: b7b5 c7bd 1a41 203e d99d 073f f942 443e
00000260: 1fa5 213d 98e5 f0bd 194a 5c3e 5ef7 ff3e
00000270: f59f 613d 7a13 703e 19f1 f73c 45ba c4bb
00000280: 68e2 02bd 2fa7 efbe 32f8 0e3f fd8f 92be
00000290: 065d f0be 151a 2cbf 3162 e63d 93dc 97bc
000002a0: f07c a1be e196 e93e e326 9bbc 2e4c d13e
000002b0: dc15 5c3f 981d 433e c67b a43e c851 bcbd
000002c0: aeb5 073f b4a0 13be bab0 eb3e ee3f 8dbd
000002d0: 211b 9b3e 8d00 79be f196 90be a326 0ebf
000002e0: fd69 873f 322f 9cbe 8129 c1be b91b 92be
000002f0: 1776 913c f1d9 ba3c ae00 15bd dfc8 25bf
00000300: 0690 7dbe 8b87 34bf af4f 06be 0e0b 403d
00000310: 892e cfbd 9103 af3e 11d6 70bb c357 33be
00000320: 0343 8a3d abe3 593e db78 4dbd c59d f33d
00000330: c8c4 32bd 408c 1abf 9766 89be 66cf c9b9
00000340: 700d ee39 c06e fcbe ad63 f93e 9caa 6bbe
00000350: c7b5 d5be 3817 abbd ec6a bd3d f571 52be
00000360: f062 3a3f 39e1 cbbd 0189 703e e214 d43e
00000370: 3c38 313e f0a8 0f3e 1d4d 2ebf 92f3 ee3d
00000380: 6591 cebe d365 74be 7386 b83d a9fa f43b
00000390: 9f61 e7be 2cae d03e 07c2 0abf 11a9 003f
000003a0: 64e5 90bf 19a0 073f 23b7 5ebc d8ee 6bbe
000003b0: a2d4 823e fa59 82bf f923 2cbc 50ed f13d
000003c0: 6c0a f2be d22a 803d a7e0 d2be 9dca 49be
000003d0: c8fa e03d e418 913e c758 b6bc f65d 58bd
000003e0: bbf5 553d 0604 3abc 4bac 76be 2933 503e
000003f0: 4df2 423f c940 83be 3de3 85bd 933a d139
0.1615987 0.6088182 -0.054501977 -0.36133674 -0.021977654 -0.21347778 0.48003742 -0.028649367
-0.04752229 -0.22583488 0.073381566 0.37764823 0.03719124 -0.33826166 -0.18054348 0.0048114774
0.027261877 -0.31970525 -0.32104877 0.044276945 -0.08924908 0.43444777 0.042455073 -0.19718875
0.093276225 0.1255141 -0.18631193 0.288495 0.37728465 0.14073868 0.27147707 -0.04185515
0.4153394 0.8292361 0.20805758 0.12781495 0.20755775 -0.027687648 0.07945671 -0.28955007
0.20589131 0.3030906 -0.35022563 -0.22358906 0.18356928 -0.11865417 0.3012202 0.16707872
0.41530696 -0.3090271 0.09905081 -0.014097735 -0.0016286693 -0.030907637 0.250971 0.04284268
0.0013552204 -0.8401707 -0.016173257 0.3198788 -0.4300357 -0.06762183 -0.18222715 -0.00033519053
-0.07136276 -0.028337851 -0.67481834 0.021433003 0.036103997 0.092763245 -0.10874491 0.11734359
-0.40600967 0.35261804 -0.25827023 -0.4177866 -0.49610507 0.21741915 -0.28886226 -0.07454165
-0.2012812 -0.17306897 -0.61010873 -0.27460492 0.20011677 0.34908617 0.057386883 -0.3501701
-0.098031886 -0.1152797 -0.040563423 0.6549532 0.010639513 -0.0028125427 -0.5728008 0.31499052
0.44504943 -0.12202898 -0.30018505 -0.051233623 0.26979145 0.98376065 0.886363 0.095122516
0.075302444 -0.5054533 -0.030210456 1.2528658 0.34593886 -0.09670186 0.070606224 0.014277218
-0.22166641 -0.8289254 -0.23964031 0.27659348 0.29564 0.15335369 -0.2378993 -0.23444238
-0.07376033 0.27402282 -0.22715066 0.0015326324 0.24061382 -0.23877247 0.10705222 -0.31873962
-0.26234743 -0.28329736 -0.12866668 -0.061164264 -0.1797656 -0.0060283146 -0.001647009 -0.28509286
0.066494495 -0.065092444 -0.19674286 -0.11532333 -0.07042917 -0.08908243 0.05839873 -0.09050416
0.34212163 0.3209063 0.26465967 -0.4587843 -0.09751456 0.15649834 0.5297523 0.19166173
0.039464112 -0.117625415 0.21512641 0.49993414 0.055084188 0.2344493 0.030266332 -0.0060036504
-0.0319542 -0.46807238 0.55847466 -0.2862548 -0.4694597 -0.672273 0.11249197 -0.018537795
-0.31540632 0.45622924 -0.018939441 0.40878433 0.85970855 0.19054258 0.32125682 -0.09195286
0.53011596 -0.14416772 0.4603327 -0.06896959 0.30294135 -0.24316616 -0.2824016 -0.55527705
1.057922 -0.30504757 -0.37726977 -0.28536776 0.017756505 0.022809 -0.0363776 -0.6475963
-0.24761972 -0.7051932 -0.13116334 0.046885543 -0.10116298 0.34182408 -0.0036748687 -0.17513947
0.06751063 0.21278255 -0.050164085 0.118953265 -0.043644696 -0.60370255 -0.26836082 -0.0003849223
0.0004540491 -0.49303246 0.4870886 -0.23014301 -0.41740248 -0.08354038 0.09248909 -0.20551284
0.72807217 -0.09955067 0.23489763 0.41422182 0.17306608 0.14029288 -0.68086416 0.11667551
-0.40345302 -0.23866968 0.09010019 0.00747617 -0.45191666 0.40757883 -0.5420231 0.50257975
-1.1320004 0.52978665 -0.013593468 -0.2304033 0.2555285 -1.0183709 -0.010506623 0.11812842
-0.47273576 0.06258167 -0.4118702 -0.19706197 0.10985333 0.28339303 -0.02225913 -0.052823983
0.0522363 -0.011353498 -0.24089162 0.20332016 0.7615097 -0.25635365 -0.06537483 0.00039907228

dense2.0.bn1.weight f4 [48]
00000000: 67a6 4b3f 0973 423f d38d 743f c894 733f
00000010: 6d73 6f3f 3ca7 113f d574 833f baef 763f
00000020: 2fe0 2c3f bb11 4b3f cc4e 923f 2ebe 2b3f
00000030: c48d f93e 259b 3d3f 5a95 383f a25c 603f
00000040: fe13 603f f669 3f3f 8fcb 323f e41d 5a3f
00000050: be8e 433f 45a2 5f3f 51ae 183f 9d8c 993f
00000060: 633f 593f 7cd5 8a3f 0ffb 6f3f 9b78 3b3f
00000070: 47ef 0f3f dc47 933f 439d 8f3f 1327 803f
00000080: 3d6f ba3f 16f1 6a3f fc84 6c3f 74ef b43e
00000090: 1fb5 e83e 8eb6 7b3f 6ddb 493f 8444 733f
000000a0: bca5 603f 2542 933f dbce 0d3f e017 ad3f
000000b0: a6f0 4f3f 687f 763f cc4d 2a3f e26e 843f
0.79550785 0.7595678 0.95528907 0.951489 0.935355 0.56895804 1.0270029 0.96459544
0.67529577 0.7932393 1.1430297 0.67087066 0.4874097 0.74064857 0.7210289 0.87641346
0.87530506 0.7477106 0.69841856 0.8520186 0.7638968 0.8735698 0.59640986 1.1996037
0.84862345 1.08464 0.9374246 0.73230904 0.56224483 1.1506305 1.1219867 1.0011925
1.4565197 0.9177412 0.9239042 0.35338938 0.45450684 0.9832543 0.7885044 0.9502642
0.8775289 1.1504561 0.5539376 1.3522911 0.81226575 0.96288157 0.6652496 1.0346339

dense2.0.bn1.bias f4 [48]
00000000: 3917 eebe fbbf 393e b128 c7be cfa0 e3be
00000010: 96fb f13e f58c a03d 07b1 0fbc 3730 86be
00000020: 8adf a5be a169 a1be 69ec 973f 871b 81be
00000030: c8c2 32be 2c65 973c 4abc 02be 11d9 77be
00000040: 5212 cdbc 1a60 45ba 5dcb d4be 482d b3bd
00000050: 4197 1bbf c68f 06be 538e 2c3f 0b93 6ebe
00000060: ecfc bebe b3ec 293e 7c2f 31bf f061 b2be
00000070: 060c b3be fe77 623a 58f3 dd3e 598d 25be
00000080: db51 7e3f bc1e 3dbf 71b6 ebbe 171a 5dbe
00000090: 6519 8bbe 12af 09be eb00 e2be 683c 2d3f
000000a0: 1a3e d5bd 0732 b7be c4fd 9fbe a3ab ad3b
000000b0: a04e 42ba c7d3 2d3e fbf2 c03d d564 a4be
-0.46502092 0.18139641 -0.38898233 -0.44458625 0.47262257 0.078393854 -0.008770234 -0.2620866
-0.3239711 -0.315259 1.1869022 -0.25216314 -0.17457116 0.01848086 -0.12767139 -0.24203898
-0.02503315 -0.0007529274 -0.41561404 -0.08748871 -0.6077767 -0.13140783 0.6740467 -0.2329828
-0.3730234 0.165942 -0.6921308 -0.34840345 -0.3497011 0.0008639096 0.4334972 -0.16167201
0.9934365 -0.7387502 -0.4603763 -0.21591984 -0.27167812 -0.1344569 -0.44141325 0.676703
-0.104122356 -0.35780355 -0.31248295 0.0053000017 -0.0007412229 0.16975318 0.09421345 -0.3210818

dense2.0.conv1.weight f4 [12, 48, 3, 3]
00000000: 485e 573d 468f 10be 886c a6be 932b 43bd
00000010: 82a6 933d 3a8e 48bd b0d0 1fbe abab 9c3d
00000020: b101 78be a08b a5bd 6efd e3bd 5c00 bbbd
00000030: 2edb 373b 67c6 20bc 9d91 bc3c bb87 683e
00000040: 0f70 ff3d 1c66 253e 643c b53d 5750 61bd
00000050: 58d0 493e a3fa a1be 797e c5be a3cd fe3c
00000060: de95 773d 2361 3fbe dfb4 1d3d 4690 ec3e
00000070: 2a07 733e c0cb 25be d79e 8d3e 35c1 9e3c
00000080: a2f3 d2be 5ff4 8f3e 2300 4e3d 4f4e aabe
00000090: 0300 03bf b997 aabe c1f9 893e b39f d3be
000000a0: 6abd 0bbe c5a1 eb3e 7d77 e2be 652c b1be
000000b0: e3f0 bc3e bad7 de3d f35b 1fbe 73ac fcbd
000000c0: efc6 2e3d 98b7 e4bd a180 f6bc af7e 3d3d
000000d0: 72df 1dbd 4d5c d7bc e8ee 69be 239b 3a3e
000000e0: 715e 423e 0752 c6be 7d5c 893d 97cb 613e
000000f0: 228c 45be d661 a9bc 6f83 0e3e d620 86be
00000100: 519c d8bd 7658 3dbe 100b 8a3d d87d a5bd
00000110: e1df a5bd 0e1f 42be 0dce e9bd 3d8e 00be
00000120: 6b74 27be 2e89 8e3a 7618 6fbe 8bf1 493e
00000130: ff5d 5bbc 9132 1abe 4771 ad3e 1ff0 b7bb
00000140: b586 9bbe 1cf4 603e a070 093e f637 a1be
00000150: c625 9c3e b7ff a43e 18b3 11bf c4c6 7e3e
00000160: c341 5e3d dc63 16bf 4211 89be 0445 9abc
00000170: 1470 c93e f1b1 f1be c800 eabd 91c5 073f
00000180: ef10 b8be 66f3 46bd 419d 433f 3ece 243e
00000190: 5f8d cabd 53e7 73be c632 8f3e 53e3 e0bc
000001a0: b10c 73be 9207 473e 1cfb e4bd d1e2 89be
000001b0: 0b3f 8a3e 2f73 163d ff02 68be b9d3 6d3e
000001c0: b9bd ff3c c10d 37be a9f5 6a3e 6281 a53d
000001d0: a115 e7bd 66b8 1d3e 3dc0 74bd e47a bebd
000001e0: 9df7 0b3e e9ce 48be 39ec 50be 5588 b73e
000001f0: facf 8bbd 9ef2 57bd 90c5 443e 50cf 48bd
00000200: 31d0 d5be c8c4 983e 0bc3 d33d 69b7 d9be
00000210: 40e6 2e3e 349c 483c 1d8d b3be f04e 153f
00000220: 7e69 d3bd 5387 c4be 088d 053f 7975 bcbe
00000230: a91d 06bf 7d75 ef3e dbc8 31be 4edc a6be
00000240: 0c7b 19be f056 5bbd 38cc 3b3e 8756 d1bd
00000250: ad9a 093d 127a 9a3e 371c 8abe fe2c cfbd
00000260: 440c 2b3e 6f60 4f3e 7837 42bd 418e 58be
00000270: dcc0 273e 74c0 323b 1cf3 2cbe 6add 453e
00000280: b7b8 153e b5d0 d0bd 8dae 093e d00e 8e3c
00000290: 203f 883d 1b65 4f3e 1881 50bd 6008 8cbd
000002a0: 53b4 043e 2d8d 82bd 47bc 82bd 8213 283f
000002b0: 9b0d 683d 55f3 e4be fe4f ae3e 2e6b 16be
000002c0: 87cc 04bf 1b8e a13e 0db5 4abd 7b50 d7be
000002d0: f335 4cbc dbe1 ab3d c528 f13d 8ebd 193d
000002e0: 17fd a63d d2d1 a33d e1a1 40bd d9ff 50be
000002f0: e845 e4be b965 bfbe bd1d 463c 5be6 803d
00000300: 6703 91be a6ec a83c 8cda 9d3e eb72 4fbe
00000310: 5dac 773d e104 dd3d 0f9f e7bc aed8 31bc
00000320: 242c c73d 3406 14be 59a1 84bc 3c87 5e3e
00000330: 3a74 02be 6bd0 29bc a508 a13e aa8e e7ba
00000340: aec8 44be 8077 093d b683 ba3d bbe3 00be
00000350: 5d0a 9cbd c025 f53d 8a88 f6bc 23ff 95bd
00000360: 2e22 82bd 7bcd 2cbe e619 5dbe 036b 0c3d
00000370: 913c b33c f8ff b7be 61e0 803e 50da e23d
00000380: 03b7 b6be a945 d8be 41a5 60be db43 6f3e
00000390: 3b09 ddbe 89b8 40be e1ac 943e 37b2 ddbe
000003a0: 9427 42be 52f5 d33d 878b eb3b 46ca 823c
000003b0: c778 9c3e 62f9 92be 4d81 11be 2c20 593e
000003c0: 1024 7fbe 5717 14be bc3c 3c3e 58d3 36be
000003d0: a6f6 4cbe a32b eb3d ea4f 43be e886 68be
000003e0: f0ed 063e f3d4 fd3d 03f2 edbd 8256 b03c
000003f0: cef0 30be 0ab7 7cbc 321b d53d d743 b6bd
0.052580148 -0.14117154 -0.32504678 -0.047648977 0.07209493 -0.048963763 -0.15606952 0.076499306
-0.24219395 -0.08083272 -0.11132322 -0.09130928 0.0028054225 -0.009812928 0.023018653 0.22708027
0.12472545 0.16152233 0.08849409 -0.05500826 0.19708383 -0.31636533 -0.38573053 0.031103915
0.06044566 -0.18689398 0.03850257 0.46203822 0.23733202 -0.16191006 0.27660248 0.019379238
-0.41201502 0.28116128 0.0502931 -0.3326287 -0.5117189 -0.3331888 0.2694836 -0.41332778
-0.13646474 0.46021858 -0.44231787 -0.34604183 0.36902532 0.1088099 -0.1556242 -0.123375796
0.042670187 -0.1116783 -0.030090632 0.046263393 -0.038543172 -0.02628913 -0.22845042 0.18223242
0.18981339 -0.38734457 0.06707094 0.2205032 -0.19291738 -0.020676535 0.13917325 -0.26196927
-0.1057669 -0.18490776 0.06740391 -0.080806434 -0.08099342 -0.18957159 -0.11416254 -0.1255426
-0.16353004 0.0010874623 -0.23349175 0.19721048 -0.01338911 -0.15058352 0.33875486 -0.0056133415
-0.3037621 0.2196812 0.1342187 -0.31488007 0.3049757 0.32226345 -0.569139 0.2488051
0.054261934 -0.58746123 -0.2677098 -0.018831737 0.3934332 -0.4720607 -0.1142593 0.5303584
-0.3595042 -0.048571967 0.76411825 0.160943 -0.09890246 -0.23818712 0.27968425 -0.027452147
-0.2373531 0.19436482 -0.11180708 -0.2693086 0.27001223 0.03673094 -0.22657393 0.23225297
0.031218396 -0.1787634 0.22945274 0.080813184 -0.11283422 0.15402374 -0.059753645 -0.09300783
0.13668676 -0.1961018 -0.20402612 0.358462 -0.06826778 -0.052721612 0.19215989 -0.049025834
-0.417604 0.29837632 0.10339936 -0.42522743 0.17080021 0.012244273 -0.35068598 0.58323574
-0.103228554 -0.38384494 0.5216832 -0.36808375 -0.5238901 0.46769324 -0.17361777 -0.32589954
-0.14988345 -0.053549707 0.18339622 -0.10221582 0.033594776 0.30171257 -0.2697465 -0.101160035
0.16703898 0.2025163 -0.04741618 -0.21148016 0.16382164 0.0027275356 -0.16889614 0.19322744
0.14621244 -0.10196058 0.13445492 0.017341048 0.06652665 0.20253412 -0.050904363 -0.06837535
0.12959413 -0.063745834 -0.06383567 0.65654767 0.0566536 -0.44716898 0.34045404 -0.14689323
-0.51874584 0.3155373 -0.04948907 -0.4205359 -0.012464034 0.08392688 0.11775354 0.03753429
0.08153742 0.079990044 -0.04702938 -0.20410098 -0.44584584 -0.37382296 0.012092051 0.06293937
-0.28322908 0.020620655 0.308308 -0.20258681 0.060467113 0.10791946 -0.028274087 -0.010854883
0.09725216 -0.14455491 -0.016190218 0.21731275 -0.1273965 -0.010364632 0.31451908 -0.0017666419
-0.19217178 0.03356123 0.09107153 -0.12586872 -0.07619164 0.11970091 -0.030094404 -0.07324054
-0.063541755 -0.1687526 -0.2159191 0.03428174 0.021879466 -0.35937476 0.25171188 0.11076796
-0.35686502 -0.42240646 -0.2193804 0.23365729 -0.43171105 -0.18820395 0.29038146 -0.4330003
-0.1896041 0.103495255 0.007188264 0.015965592 0.30560896 -0.2870589 -0.1420948 0.21203679
-0.249161 -0.14462028 0.18382543 -0.17854059 -0.20015964 0.114829324 -0.19073454 -0.22707713
0.13176703 0.123941325 -0.11618426 0.021525625 -0.1727936 -0.015424499 0.10405578 -0.08899658

dense2.1.bn1.weight f4 [60]
00000000: 7a74 463f 93ec 693f b943 883f 2e61 7b3f
00000010: 116b 1f3f 8483 1e3f e7be 4b3f 6532 453f
00000020: 04ea 073f f3b2 e63e 4504 713f 6a12 353f
00000030: 283e 7b3f 456e 593f 83ee 043f 3d25 463f
00000040: 0bee 0a3f 7d07 3a3f 054a 153f e930 123f
00000050: 5ea8 f93e f022 413f 6e9e f83e e959 6c3f
00000060: 380c 0b3f 06e6 273f fea1 833f 9eba a23f
00000070: 87f5 303f 0a71 343f 5c5c 573f 1c3a 2d3f
00000080: 4ee3 353f b16f 723f 5dd0 7d3f 6503 3f3f
00000090: 83ef 3c3f 79d4 603f 7f43 663f 5f0e 443f
000000a0: f917 943f b256 5b3f dda5 4c3f 33e8 7a3f
000000b0: cd06 983f 7973 563f beda f03e 4f7a 623f
000000c0: 56fd aa3f dc6e 293f e3db 183f a25d 573f
000000d0: 00c2 7c3f 062e 683f dbec 5f3f 6ffe ff3e
000000e0: c648 863f 41a7 1a3f 7082 853f b467 233f
0.7752148 0.9137661 1.0645667 0.9819516 0.62272745 0.61919427 0.7958817 0.7703002
0.53091455 0.45058402 0.9414714 0.7073122 0.9814172 0.8493388 0.5192644 0.7740057
0.54269475 0.72667676 0.5831607 0.5710588 0.48761266 0.75443935 0.48558372 0.9232469
0.5431552 0.6558536 1.0283811 1.2713201 0.69124645 0.70484984 0.84125304 0.6766679
0.71049964 0.9470168 0.9914606 0.74614555 0.73802966 0.8782421 0.8994674 0.7658443
1.1569816 0.8567916 0.7994059 0.9801056 1.1877075 0.8376995 0.47041887 0.8846788
1.3358562 0.66184783 0.5971052 0.8412725 0.9873352 0.90695226 0.8747079 0.49998805
1.0490959 0.6041146 1.0430431 0.63830113

dense2.1.bn1.bias f4 [60]
00000000: 1914 23bf e589 eb3c 65eb 72be d427 13bf
00000010: ea91 d73e 0767 aabd 0b9b 7ebe 3587 e6be
00000020: afd8 02be a413 3dbe 268d e13e d54e 20bf
00000030: cfa9 3cbf 1fa9 f8bd 4b33 fdbc b60f 8bbe
00000040: 12dd 27be 5eb9 95ba d5e5 dfbe 42ec d2bd
00000050: 1ccc 36bf 9ea2 24bd 0543 423f 31c6 dabe
00000060: 101b cbbe 4921 353e 2c8b 96be e0f3 d2be
00000070: 0121 a2bd adbf ba3e 2d18 9e3e f794 00bf
00000080: 612f 2a3f 28de fabe 909c f7be 6f20 b4be
00000090: f04a d1be d897 57be 1043 69be 5056 a1be
000000a0: 1254 17bf b877 e8be e054 2fbe 6f2e e33e
000000b0: d509 2dbf e49d 2a3d 0067 2d3c 307d e3be
000000c0: 74d9 473d a803 9cbe a3d2 b63d 7a19 ecbe
000000d0: 69ac 76be bed4 2d3e 8452 29be a24b 213f
000000e0: 58b4 113d 3227 27be ca4c edbc 25d1 92be
-0.6370254 0.028752277 -0.23722608 -0.5748265 0.4210351 -0.08320432 -0.24863832 -0.4502503
-0.1277797 -0.18464524 0.44053 -0.6262029 -0.7369661 -0.12141632 -0.030908247 -0.27160424
-0.16392925 -0.0011423042 -0.43730035 -0.10298969 -0.71405196 -0.040194146 0.75883514 -0.42729333
-0.39669085 0.17688479 -0.29403055 -0.41201687 -0.07916451 0.36474362 0.3087782 -0.502273
0.66478544 -0.48997617 -0.48361635 -0.35180995 -0.40877485 -0.21054018 -0.22779489 -0.31511164
-0.59112656 -0.45403838 -0.17122221 0.44371364 -0.6759313 0.041654482 0.010583639 -0.44431448
0.048791364 -0.3047154 0.089268945 -0.46113187 -0.24089207 0.16975686 -0.16535383 0.6300603
0.03557238 -0.16323546 -0.02896728 -0.2867519

dense2.1.conv1.weight f4 [12, 60, 3, 3]
00000000: e453 0b3e 51bd 71bd 637e 9abe 6772 883e
00000010: de71 39be 2a08 abbe 441b 053f 2b86 e63c
00000020: e9b2 a5bc f277 9dbc 981f d8bb 82b1 1cbc
00000030: b65b 0ebe ef4b 2abe 8bc6 03be 17a1 5f3e
00000040: 9867 6e3e 259f 4f3e 8459 243e 5d50 e33d
00000050: 3b62 983d 4d9a 39be 45f7 8ebe 9f62 fbbd
00000060: 17b5 2cbd fa68 54be af39 813d 109b 1fbc
00000070: 00d8 2c3e bb3a 5b3e 7e6a 27bd a277 863d
00000080: 039f 4e3d 68fa 71be 217d 00be 38e8 f1bd
00000090: 0d8b aa3e de8d b43e 611c d63e eb7c 2cbe
000000a0: 8849 a5be 40b2 31be 9bdd 6abe 9124 1fbf
000000b0: 8dd5 83be 85d6 083e 9f89 f53c b01a a93d
000000c0: 240d 793d 008f acbc 0c12 343d b551 3ebd
000000d0: 333e 91bd 14b6 92bb af8e 063e 5af5 9b3d
000000e0: 6ee8 93bd ef87 94bd c9f2 18be 56c9 1ebe
000000f0: c1b0 d1bc 47a2 5fbd 605b a23d 271d 98be
00000100: ceec 72bd 2ada 6fbd 50bf 34be f1ce 37bd
00000110: 5d99 73bd 9ae1 b23d e0ed 1abc 8240 f5bd
00000120: 4483 abbe a03a 64be dc58 a0be 9308 ccbe
00000130: e416 a4be af60 acbe 7c99 ad3e 4ce3 c93e
00000140: ea12 f03e e7e7 1dbd a223 ee3b aa92 863d
00000150: 939c 323d 1ecd 3a3e ac06 1a3e b02b 99be
00000160: d6cd 46be 1603 29be 3bef 0c3e 17f7 013e
00000170: e713 363e c6ec a0bd aee4 9dbd 9e0f 01bd
00000180: 2162 0fbe 46b7 41be 4a8f 12be 4452 803e
00000190: f5eb a33e 2e50 943e 2f43 0ebe 5695 9dbd
000001a0: d049 4cbe ab40 e23d f04c 873e 63e4 823d
000001b0: 06bb 8abc 1f4c 3cbd 5efb b1bd c521 7b3d
000001c0: 370b 103e af39 243d d31c 8f3e af52 b33e
000001d0: 3726 063e 807f c33c 2796 033e 2036 893e
000001e0: 523b f0be 3c85 9bbe dc17 7cbe 60ee c83d
000001f0: 36f2 113c 72de bcbc db30 6a3e 6bda 053e
00000200: 9f31 2e3e 18cf ecbc b74a 8abd 03c7 a6bd
00000210: 80f0 41be 16f1 f6bd 518a 98bd 2817 4bbe
00000220: f610 88be 1e08 1abe de5e 173e bbf9 d83c
00000230: dee1 5c3e 0467 b03d ead9 193d e191 833e
00000240: 529d 113e a2b8 2d3e a0c3 1c3e 18be 913d
00000250: 2d74 a43d a152 b43d c681 24be 583f d6bd
00000260: 5a43 f7bd 8b10 4fbd 731b 8cbd d01d eebd
00000270: 7229 033e c8f7 a63d 3ddc 8c3d 229a 933d
00000280: 9cd4 823c 6540 363d 8f1b 0fbe 8b07 d7bd
00000290: 6ac5 21be 4387 27bd e634 56bc a679 9f3d
000002a0: b7b4 143e be08 403e 32d6 883e 8c7f 08be
000002b0: a6ba 33bc 0b84 97bd 19aa e73d 68ff 853e
000002c0: bf9c 1b3e 5501 65bd 3e58 b73d 1a30 80bc
000002d0: a6e1 dcbd f784 3e3d 2fdc dbbd 69c7 b8bc
000002e0: 365c be3e de9e 6b3e b57f 81be c127 2bbe
000002f0: 1da2 273e 8468 26be 14bf e7bd 2866 f6bc
00000300: 7cad 53bd a53e 57bd 7129 203d 88a9 a3bc
00000310: b48d 38be 4c2d 103c 91c3 533e 1df9 c13d
00000320: 7e0b 3d3e f555 47be 6f0d 32be 2ee0 3bbe
00000330: 8b14 b4bd 9e35 0ebe a28c 23be 2ff9 3ebc
00000340: adf0 1dbd 09ab 2b3d dedf cebe 2ed7 f0be
00000350: ae7d c3be 6c81 583e 8518 193e d335 583e
00000360: 2579 fe3d 6bf0 f13d ee42 36bd 7740 453e
00000370: 4992 3e3e e2d9 233c 81fc 6abe 75c5 bfbe
00000380: cbb0 59be ee45 323d c09f 3a3d 30aa 9f3d
00000390: 41b3 4bbd ff63 9dbd b4b2 93bc 324d 0d3d
000003a0: 0028 2bbd 0442 aa3c 7684 ee3e 3120 953e
000003b0: 60d7 e03e 339b 14be 05b0 51be 890e 10be
000003c0: ec63 5dbe 4fe7 15be 37ef 13be 3a30 563e
000003d0: b773 e53d cb7c 843d 7d48 a4be c467 07bf
000003e0: b5e2 c7be 9155 b73e 2316 f43d 83e7 ba3e
000003f0: bfc3 82be 4964 5dbe 7683 5ebe 36f9 39be
0.1360622 -0.059018437 -0.3017455 0.26649782 -0.18109843 -0.33404666 0.5199473 0.028140148
-0.020226913 -0.019222233 -0.006595563 -0.009563806 -0.13902172 -0.16630529 -0.12868707 0.21838795
0.23281705 0.20275553 0.16049773 0.110993125 0.07440611 -0.18125267 -0.27923027 -0.1227467
-0.04216489 -0.2074317 0.063098304 -0.00974156 0.16879272 0.21409123 -0.040873043 0.06565787
0.050444614 -0.23630679 -0.12547733 -0.1181187 0.33309212 0.35264486 0.41818526 -0.16844527
-0.32282662 -0.17353153 -0.22936098 -0.6216517 -0.25748864 0.13363083 0.02997285 0.08257043
0.060803548 -0.021064281 0.043962523 -0.04646464 -0.07091942 -0.004477272 0.13140367 0.076151565
-0.07222067 -0.0725249 -0.14936365 -0.15506491 -0.025596978 -0.05459812 0.07927585 -0.2970974
-0.059307866 -0.058557667 -0.17651105 -0.04487509 -0.05947243 0.08734436 -0.009456128 -0.119751945
-0.33498585 -0.22287989 -0.31317794 -0.39850292 -0.32048714 -0.33667514 0.33906162 0.39431226
0.4688943 -0.038551237 0.0072674314 0.06570943 0.043606352 0.18242308 0.15041608 -0.29916143
-0.19414458 -0.16505083 0.13763134 0.12691914 0.1778103 -0.07857661 -0.07709633 -0.031509034
-0.14002277 -0.1891757 -0.14312473 0.25062764 0.32015958 0.28967422 -0.13892816 -0.07694499
-0.19950032 0.11047491 0.26425886 0.063912176 -0.016934883 -0.045971032 -0.086905226 0.061311502
0.14066778 0.040094074 0.2795168 0.3502402 0.13100515 0.023864508 0.12850247 0.26799107
-0.46920258 -0.30375087 -0.24618477 0.098110914 0.008907845 -0.023055289 0.228702 0.13071601
0.17011116 -0.028907344 -0.06752532 -0.08143427 -0.189394 -0.12057702 -0.07448257 -0.19833052
-0.2657544 -0.15042159 0.14782283 0.026486268 0.21570536 0.08613399 0.037561335 0.25697234
0.14220169 0.16964963 0.15309 0.07116336 0.08029971 0.08804823 -0.1606513 -0.104613006
-0.12073393 -0.050552886 -0.06841173 -0.1162678 0.12808779 0.08152729 0.068779446 0.07207133
0.01597052 0.044495005 -0.13975357 -0.104994856 -0.15797964 -0.04090048 -0.013074135 0.077868745
0.14522062 0.18753335 0.26725918 -0.13329905 -0.010969793 -0.07398232 0.113117404 0.26171422
0.15196513 -0.055909473 0.08952378 -0.015647937 -0.107852265 0.046513524 -0.10735356 -0.022556024
0.37179726 0.23009822 -0.25292745 -0.16714384 0.16370435 -0.16250807 -0.11315742 -0.030078009
-0.05167912 -0.052549977 0.03910202 -0.0199783 -0.18022805 0.008799862 0.20680071 0.09471343
0.18461415 -0.19466384 -0.17387937 -0.18347237 -0.08792981 -0.13887641 -0.15971616 -0.01165609
-0.038559604 0.04191116 -0.40405172 -0.4703917 -0.38181823 0.2114312 0.1495076 0.21114282
0.1242545 0.11813434 -0.044497423 0.19262873 0.18610491 0.010000678 -0.22947885 -0.37455335
-0.21258847 0.04352372 0.045562506 0.077961326 -0.049731497 -0.07685088 -0.018029548 0.034497447
-0.041786194 0.020783432 0.46585435 0.29126123 0.43914318 -0.14512329 -0.20477302 -0.14068045
-0.21620148 -0.14639018 -0.14446722 0.20916834 0.112037115 0.06469115 -0.32086554 -0.5289271
-0.3904015 0.3580747 0.11918285 0.36504754 -0.25539967 -0.21620287 -0.21729836 -0.18161473

trans2.bn1.weight f4 [72]
00000000: 9825 943f 6c6b a43f 6b85 923f 2ea2 9d3f
00000010: ab5f ad3f 6b2c a33f 32b8 933f 7ee3 973f
00000020: 256a 863f 3dec 7f3f 657f c53f a4ed c43f
00000030: 6b96 b53f 2eb3 973f 7c2d bb3f 7b5e 6c3f
00000040: b70b 8d3f e4c6 903f 4dc7 813f 9a6f bd3f
00000050: b4f7 913f 28ff 9a3f e75e be3f c427 913f
00000060: 54f8 8e3f 0c73 9f3f 26cf 6f3f 43e4 a13f
00000070: 7136 8d3f b4ce a53f 6f33 af3f 9f92 8d3f
00000080: 5bf1 df3f 77c7 823f dc1a 8c3f 8e63 a43f
00000090: 313c df3f b676 ab3f 2a93 d53f 37ca 953f
000000a0: caa3 923f 9d33 8c3f 9066 893f bee7 ae3f
000000b0: c59e 953f 92a7 af3f 8f57 d83f 4618 ab3f
000000c0: 4b81 b03f 550c a33f 552b a73f ddbd 903f
000000d0: 11c3 a03f 533b a13f c773 9b3f ac71 ca3f
000000e0: c183 bb3f 6f70 943f e442 d33f 9848 ab3f
000000f0: dec7 dc3f c399 dd3f 2e03 883f 90cc 993f
00000100: 73aa ab3f 1df9 bd3f d3f9 b93f c1ea d83f
00000110: 75d8 af3f 8ddd d63f f1af 1340 3bb6 af3f
1.1573973 1.2845283 1.1446966 1.2315118 1.354482 1.274793 1.1540587 1.18663
1.0501143 0.99969846 1.5429503 1.5385022 1.4186529 1.1851556 1.4623256 0.92331666
1.10192 1.1310697 1.0138947 1.4799683 1.1403718 1.2109118 1.4872712 1.134026
1.1169534 1.2456985 0.9367546 1.2647785 1.1032239 1.2953706 1.3687571 1.106037
1.7495531 1.0217122 1.0945697 1.2842882 1.7440244 1.3395603 1.6685536 1.1702336
1.1456234 1.0953251 1.0734425 1.3664472 1.1689078 1.3723013 1.6901721 1.3366783
1.3789457 1.2738138 1.3060099 1.1307942 1.255953 1.2596229 1.2144707 1.581594
1.4649583 1.1596812 1.6504788 1.3381529 1.7248495 1.7312549 1.062597 1.2015553
1.3411392 1.4841648 1.4529365 1.6946641 1.3737932 1.6786362 2.3076136 1.3727487
