independent_train_0.0/client38/checkpoint_0.0.pth (torch, 420139 bytes, 98 tensors)

conv1.0.weight f4 [16, 3, 3, 3]
0	0x3d79c3e9	0.06097785
1	0xbd8e1742	-0.0693803
2	0x3ec60539	0.3867586
3	0xbebeda20	-0.3727579
4	0xbf53624b	-0.8257186
5	0xbe9bce5e	-0.30430883
6	0xbe303a35	-0.17209704
7	0xbf2430f1	-0.6413718
8	0xbe43c2a9	-0.19117226
9	0x3cc40d19	0.023932027
10	0xbe8bebd8	-0.27328372
11	0x3d923ffe	0.07141112
12	0xbda0b068	-0.07846147
13	0xbf213711	-0.6297465
14	0xbe5c1296	-0.21491465
15	0x3eb4adbf	0.35288808
16	0xbe3a6293	-0.18201666
17	0x3e382e12	0.17986324
18	0xbcc5ba92	-0.024136815
19	0xbd714f70	-0.058913648
20	0x3e760973	0.24027042
21	0xbeaedaaf	-0.34151217
22	0xbf1b53a5	-0.60674506
23	0xbe511caa	-0.2042109
24	0xbe85ad52	-0.26108795
25	0xbf06f1ec	-0.52712893
26	0xbe1ca1b3	-0.15296058
27	0xbf35b61f	-0.7098102
28	0xbf202b68	-0.6256623
29	0xbf209597	-0.62728256
30	0xbf8a0704	-1.0783391
31	0xbf82ec4e	-1.0228364
32	0xbf6a0af1	-0.91422945
33	0xbf89a314	-1.0752892
34	0xbf9e03ff	-1.234497
35	0xbf821244	-1.0161824
36	0x3f56229e	0.8364657
37	0x3f850dc6	1.0394828
38	0x3f4b46cb	0.79404896
39	0x3f69705d	0.9118708
40	0x3f97e7fe	1.1867673
41	0x3f808cd6	1.004298
42	0x3f602895	0.87561923
43	0x3f6dbad8	0.92863226
44	0x3f4e7722	0.8065053
45	0xbe655b14	-0.22398025
46	0xbe0af0c8	-0.13568413
47	0xbead11f9	-0.33802775
48	0x3d8f3792	0.06993021
49	0x3e865d01	0.2624283
50	0x3cf21e79	0.029555546
51	0x3e951916	0.29120702
52	0x3e9a231c	0.3010491
53	0x3dce319e	0.100680575
54	0xbebaab4d	-0.36458817
55	0x3e8d70b9	0.27625063
56	0xbeb9a9a7	-0.36262247
57	0xbe4c3312	-0.19941357
58	0x3f59fdfa	0.8515316
59	0xbf135a3e	-0.57559574
60	0x3eac5626	0.33659476
61	0x3f897596	1.0739009
62	0xbf5bebce	-0.85906684
63	0xbedaab9e	-0.4270906
64	0x3f2b8c60	0.6701107
65	0xbf4d794b	-0.80263203
66	0xbe75f389	-0.24018683
67	0x3f9a670e	1.20627
68	0xbf96c26b	-1.1778082
69	0x3e35c13c	0.17749494
70	0x3fa319d7	1.2742261
71	0xbfc78026	-1.5585983
72	0xbe568dba	-0.20952502
73	0x3ef7314e	0.48279804
74	0xbe65c862	-0.22439721
75	0xbc62de13	-0.013846892
76	0x3f8a54ec	1.0807166
77	0xbf24b546	-0.643391
78	0x3ead89ef	0.33894297
79	0x3f8987df	1.074459
80	0xbf9262a6	-1.1436355
81	0x3e0da2e0	0.13831663
82	0xbcb69d65	-0.022291848
83	0x3dbca244	0.09210637
84	0x3d14a735	0.036292274
85	0xbd3bb442	-0.045826204
86	0x3e1f52d0	0.15558934
87	0x3ec62d16	0.38706273
88	0x3e5d95ac	0.21639127
89	0x3f010040	0.50391006
90	0xbf375926	-0.71620405
91	0xbf807518	-1.0035734
92	0xbf3f52ce	-0.74735725
93	0xbf889e49	-1.0673305
94	0xbfb0bd23	-1.380772
95	0xbf8f3f6f	-1.1191233
96	0xbf55e0ab	-0.8354594
97	0xbfa0df75	-1.2568194
98	0xbf76385c	-0.9617975
99	0x3f5142a7	0.8174233
100	0x3f6d72f3	0.92753524
101	0x3f650b26	0.89470136
102	0x3f6e65d6	0.9312414
103	0x3f8f4ff1	1.1196271
104	0x3f79792e	0.9745053
105	0x3f65c8ef	0.89759725
106	0x3f6919f5	0.9105523
107	0x3f41e360	0.7573757
108	0xbee3e984	-0.44514096
109	0x3e40d2d3	0.18830423
110	0x3eb495ce	0.35270542
111	0x3fb78a7d	1.4339138
112	0x3cf19100	0.029488087
113	0xbf895676	-1.0729511
114	0x3ff31294	1.8990045
115	0xbf2c216b	-0.6723849
116	0xbfcb3941	-1.5876848
117	0xbeadb5e1	-0.33927825
118	0x3ca8d001	0.020606996
119	0x3ca6563a	0.020304788
120	0x3fd3f420	1.6558876
121	0xbcccd1cd	-0.025002385
122	0xbfa75150	-1.307169
123	0x400cb27c	2.1983938
124	0xbf16ce18	-0.58908224
125	0xbfce6fcf	-1.6127871
126	0xbebb3bc5	-0.36569038
127	0xbcded387	-0.027200473
128	0x3e92f850	0.28705072
129	0x3fc145a6	1.509938
130	0xbe2bdd57	-0.16783653
131	0xbf913ecc	-1.1347289
132	0x400130a5	2.018594
133	0xbf4e22d6	-0.80521905
134	0xbfcf4ffa	-1.6196282
135	0x3d62ea32	0.055399127
136	0x3dac6a53	0.08418717
137	0x3d0e44e5	0.03473367
138	0x3ed1cad0	0.40975046
139	0x3f215f3a	0.6303593
140	0x3ee04db8	0.43809295
141	0x3df0bdde	0.11754964
142	0x3ebbe935	0.3670136
143	0x3e8b85c5	0.27250496
144	0xbdcba60b	-0.099437796
145	0xbdc78ebf	-0.097440235
146	0xbdf38a5a	-0.11891623
147	0x3e918ac7	0.2842619
148	0x3ef4d855	0.47821298
149	0x3e9a99f5	0.30195585
150	0xbce3ba2d	-0.027798736
151	0x3e38a99c	0.18033451
152	0x3dce160e	0.100628
153	0x3d9ab137	0.07553332
154	0x3cb47b32	0.0220314
155	0x3cbc5083	0.02298761
156	0x3ecc0b98	0.39852595
157	0x3f0b7e25	0.54489356
158	0x3ed730eb	0.4202951
159	0xbdfd15fb	-0.12357708
160	0x3d11d3a4	0.035602227
161	0x3c80d345	0.015725741
162	0x3f11a521	0.5689259
163	0x3f0ba45c	0.5454767
164	0x3e2e4619	0.17018928
165	0x3f6a1eb8	0.91453123
166	0x3f8f665f	1.1203116
167	0x3f370632	0.7149383
168	0x3f0efbbb	0.5585286
169	0x3f75536e	0.9583043
170	0x3f183e3a	0.5946995
171	0x3dbe1b99	0.092826076
172	0xbdb5d146	-0.08877806
173	0xbbec83db	-0.007217867
174	0xbdbf2637	-0.09333461
175	0xbe87cd5d	-0.26523867
176	0xbe164c8c	-0.14677638
177	0xbeaf53bb	-0.3424357
178	0xbeb729a9	-0.35773972
179	0xbe2e6860	-0.17032003
180	0xbee40e83	-0.44542322
181	0xbf171c41	-0.5902749
182	0xbea5795d	-0.32319155
183	0xbf33c6bf	-0.7022514
184	0xbf7d651c	-0.98982406
185	0xbf1b60b5	-0.6069444
186	0xbf425fa5	-0.7592719
187	0xbf78026b	-0.9687869
188	0xbf04d990	-0.51894474
189	0xbf901b57	-1.1258343
190	0x3f563265	0.83670646
191	0x3f8fe922	1.1243021
192	0x3f8cdfb9	1.1005775
193	0x3fbb386f	1.4626597
194	0x3f12c5a2	0.57332814
195	0xbca80893	-0.020511901
196	0xbfe11342	-1.7584002
197	0xc02435c5	-2.5657818
198	0xbf76d597	-0.9641966
199	0x3f589453	0.84601325
200	0x3fa2614b	1.2685941
201	0x3f92c928	1.1467638
202	0x3fba75d3	1.4567207
203	0x3f499890	0.78748417
204	0xbdf32db7	-0.11873954
205	0xbfede675	-1.8585955
206	0xc018ab71	-2.385464
207	0xbfbe997f	-1.4890593
208	0x3bfc9b80	0.0077089667
209	0x3f027c77	0.5097117
210	0x3f8539ca	1.0408261
211	0x3fae89b8	1.3635778
212	0x3f5d1901	0.8636628
213	0x3ed79893	0.42108592
214	0xbf81a2bf	-1.0127791
215	0xbfb12fc1	-1.3842698
216	0x3f1e1e36	0.6176485
217	0x3f51d4f5	0.8196557
218	0x3ef33ee1	0.4750891
219	0x3f62b10a	0.8855139
220	0x3fa71874	1.3054338
221	0x3f51fd11	0.82026774
222	0x3f0496bb	0.51792496
223	0x3f72b5ee	0.9480885
224	0x3ed2d066	0.4117462
225	0xbf818a84	-1.0120397
226	0xbf9d6e48	-1.229928
227	0xbf8aca1a	-1.0842927
228	0xbfaf7aa6	-1.3709304
229	0xbfc0eb86	-1.5071876
230	0xbfab5a27	-1.3386887
231	0xbf9f2ea4	-1.2436109
232	0xbfa634af	-1.2984828
233	0xbf8cb602	-1.0993044
234	0x3ef9d5a4	0.48795807
235	0x3f06380f	0.5242929
236	0x3edd06b9	0.4316919
237	0x3ef75b3f	0.48311803
238	0x3f32b005	0.69799834
239	0x3f135412	0.57550156
240	0x3e988554	0.2978922
241	0x3f048491	0.5176478
242	0x3ec4abfe	0.3841247
243	0xbeff5359	-0.49868277
244	0xbfa5e1af	-1.2959498
245	0xbf2f1280	-0.68387604
246	0xbf1bc07b	-0.60840577
247	0xbf1895eb	-0.59603757
248	0xbef72d92	-0.48276955
249	0x3f9e19f4	1.235167
250	0x40035bf9	2.0524886
251	0x3fa1feb8	1.2655859
252	0xbedf9d82	-0.43674856
253	0xbfa675bd	-1.3004681
254	0xbf2018ea	-0.62538016
255	0xbf098758	-0.53722143

conv1.1.weight f4 [16]
0	0x3fd0d8d3	1.631617
1	0x3fd48ab6	1.6604831
2	0x3fe66791	1.8000356
3	0x3fdb232b	1.7120107
4	0x40098e94	2.1493273
5	0x3faf7d08	1.3710032
6	0x3fd484f8	1.6603079
7	0x400cd372	2.2004056
8	0x3fc1c344	1.5137715
9	0x3fd5ba2c	1.669744
10	0x3fdd8600	1.7306519
11	0x3fd68d3d	1.6761853
12	0x3fbedafc	1.4910579
13	0x3fbf1386	1.4927833
14	0x3fc0ea1b	1.5071443
15	0x3fd0a8c2	1.6301501

conv1.1.bias f4 [16]
0	0xbe48d5fa	-0.19612876
1	0x3f132b96	0.5748838
2	0x3f8139f9	1.0095817
3	0x3f04b5ba	0.5183979
4	0xbdf21898	-0.11821097
5	0x3ea2268f	0.31670043
6	0x3f2a59d9	0.66543347
7	0xbeeb5dbf	-0.4596996
8	0x3f2b7dc1	0.6698876
9	0xbe7aa23b	-0.24475949
10	0x3f031c37	0.5121493
11	0xbd5960c7	-0.05307081
12	0x3e437a23	0.1908956
13	0x3f62f625	0.88656837
14	0xbc36aa47	-0.011148996
15	0x3e372b75	0.17887671

stage2.0.branch1.0.weight f4 [16, 1, 3, 3]
0	0xbd613342	-0.054980524
1	0xbddac7b3	-0.10682621
2	0x3f0efc7c	0.5585401
3	0x3eccc755	0.39995828
4	0xbebca32a	-0.36843234
5	0x3ed6d22c	0.41957223
6	0x3e4bc9bc	0.19901174
7	0xbf263191	-0.6491938
8	0xbd82a57a	-0.063792184
9	0x3ea1ef78	0.31628013
10	0xbe6efc77	-0.23338495
11	0xbf2a77d3	-0.6658909
12	0xbf057220	-0.52127266
13	0x3e1164ff	0.14198683
14	0x3f4d4b2b	0.8019282
15	0xbf2942db	-0.6611764
16	0x3f667564	0.90022874
17	0x3fe85317	1.8150357
18	0x3c684834	0.014177371
19	0xba30f210	-0.00067499373
20	0xbd8d177e	-0.068892464
21	0x3e70b128	0.2350508
22	0xbfa41df6	-1.2821643
23	0x3f5ec34d	0.87016755
24	0x3f84b20a	1.0366833
25	0xc0314bf7	-2.7702615
26	0x3ff68864	1.9260373
27	0x3e91b109	0.2845538
28	0xbeeea979	-0.46613672
29	0xbec44c3b	-0.3833941
30	0xbf099d64	-0.53755784
31	0xbe1c10d1	-0.1524079
32	0x3f044476	0.51666963
33	0xbf05b4f2	-0.52229226
34	0x3f1e4447	0.6182293
35	0x3fba5467	1.4557008
36	0xbcb75e6d	-0.022383893
37	0x3d95ec2a	0.07320435
38	0xbce7dfff	-0.028305052
39	0x3f0e5592	0.5559932
40	0x3f277850	0.6541796
41	0x3ef8e660	0.48613262
42	0x3e4476f1	0.19185998
43	0x3eecbc80	0.46237564
44	0x3f8e91d4	1.1138253
45	0xbd2245e0	-0.03961742
46	0xbe580ee5	-0.21099432
47	0xbf154cf3	-0.5832054
48	0xbd322890	-0.043495715
49	0x3eba1d7a	0.36350614
50	0x3e17816f	0.14795469
51	0xbe8023fc	-0.25027454
52	0x3f0a5ab5	0.5404466
53	0x3f7674cb	0.9627196
54	0xbf0b131e	-0.54326046
55	0x3f0046e3	0.50108165
56	0x3f5668b5	0.8375352
57	0x3e2ce4e7	0.16884194
58	0xbf0c3d21	-0.54780775
59	0xbf87e70f	-1.0617388
60	0x3f7e5862	0.9935361
61	0xbf0fdafa	-0.56193507
62	0xbfa4c3fd	-1.2872311
63	0xbe0a041c	-0.1347813
64	0x3d1d0e29	0.038343582
65	0x3ed8afb4	0.4232155
66	0x3ebbee2a	0.36705142
67	0x3f8e7aa2	1.1131175
68	0x3f3c454d	0.73543245
69	0x3ed636e9	0.41838768
70	0x3f9c3500	1.2203674
71	0x3f3a4f6d	0.72777444
72	0xbeb82f3d	-0.3597354
73	0x3e9d3719	0.307061
74	0x3f37b19e	0.717554
75	0x3f090064	0.5351622
76	0x3d084d73	0.033276986
77	0xbf0d50dd	-0.5520151
78	0x3f69953b	0.9124333
79	0xbf4b26ad	-0.7935589
80	0xbffe5f41	-1.9872819
81	0x3e678907	0.22610866
82	0xbe6938f6	-0.22775635
83	0xbf3fc814	-0.7491467
84	0x3ee05741	0.4381657
85	0xbf4842f0	-0.7822714
86	0xbf95216f	-1.1650828
87	0x3bc9dae0	0.006160125
88	0xbfad5e03	-1.3544315
89	0xbf9769b7	-1.1829137
90	0x3d2ab5b3	0.041677188
91	0x3f97ee30	1.1869564
92	0xbfbe5c59	-1.4871932
93	0xbfeac3fd	-1.8341061
94	0x3f122736	0.5709108
95	0x3fa58d0c	1.2933669
96	0x3fc49894	1.5359063
97	0xbfeb34e8	-1.8375521
98	0x3e437263	0.19086604
99	0xbdea2a38	-0.11433834
100	0x3e01b30e	0.1266596
101	0x3e203ea8	0.15648901
102	0xbf1e44e1	-0.6182385
103	0xbf19b542	-0.600422
104	0xbe53bfb7	-0.20678602
105	0xbefe9849	-0.4972556
106	0xbf0ddeda	-0.5541817
107	0xbf4fd61a	-0.8118607
108	0xbcaf5ba1	-0.021405997
109	0xbd7bdf79	-0.061492417
110	0xbc1d138e	-0.009587182
111	0x3df88660	0.12135005
112	0x3de7e938	0.1132378
113	0x3e070c85	0.1318837
114	0xbd3d6a99	-0.046244238
115	0xbcc0fcbd	-0.023558015
116	0x3b57c6b2	0.0032924828
117	0x3f45f3d7	0.77325195
118	0x3db7ec4b	0.08980616
119	0xbf07d409	-0.53057915
120	0x3f8e5547	1.1119775
121	0x3dadbc83	0.084832214
122	0xbf500f5a	-0.81273425
123	0x3f0707d7	0.5274634
124	0xbe9b6ce7	-0.30356523
125	0xbf5a7ba9	-0.8534494
126	0xbeb13170	-0.3460803
127	0x3f2bebc9	0.67156655
128	0x3f715676	0.94272554
129	0x3f0aabbf	0.54168314
130	0x3bddf94f	0.0067741047
131	0xbedf5dfd	-0.43626395
132	0x3f3262f4	0.6968224
133	0xbf80762a	-1.0036061
134	0xbfc0201b	-1.5009798
135	0xbcda25c4	-0.026629336
136	0x3e3b1457	0.18269478
137	0x3e445a05	0.19174965
138	0x3e434b17	0.19071613
139	0xbeffc31a	-0.49953538
140	0xbf56222a	-0.8364588
141	0x3f27a221	0.65481764
142	0xbed45730	-0.4147277
143	0xbf578061	-0.84180266

stage2.0.branch1.1.weight f4 [16]
0	0x3f948627	1.160344
1	0x3fdf645d	1.7452503
2	0x3ffeb684	1.9899449
3	0x3fd577fd	1.6677243
4	0x3fbc6a17	1.4719876
5	0x3fa0b964	1.2556577
6	0x3fd7c956	1.6858318
7	0x3faf1b61	1.368023
8	0x3fe70d16	1.8050869
9	0x3f9937f8	1.1970205
10	0x40116a26	2.2721038
11	0x3fbb972e	1.4655511
12	0x3ebb5480	0.36587906
13	0x3f828fd7	1.0200146
14	0x3fbdac35	1.4818178
15	0x3fbc4aa7	1.4710282

stage2.0.branch1.1.bias f4 [16]
0	0x3de197c7	0.11015277
1	0xbeb6fad6	-0.35738248
2	0x3f6db85f	0.9285945
3	0x3d436dbb	0.04771207
4	0xbeb4befd	-0.35301962
5	0xbe32488a	-0.17410484
6	0x3fb14318	1.38486
7	0xbee14cd7	-0.44003937
8	0xbdc6a4c5	-0.09699396
9	0x3f42edb0	0.7614393
10	0xbf8861c4	-1.0654836
11	0x3ea1bc75	0.31589094
12	0xbe3a303c	-0.18182462
13	0xbea034cc	-0.3129028
14	0xbeb4171c	-0.3517388
15	0x3dd7056b	0.1049908

stage2.0.branch1.2.weight f4 [16, 16, 1, 1]
0	0x3e59ceec	0.2127034
1	0x3f2b4e2f	0.66916174
2	0x3c100e32	0.008792447
3	0x3f8319ed	1.0242287
4	0xbe204edc	-0.15655082
5	0x3ee85b7c	0.45382297
6	0x3f394c63	0.7238218
7	0x3eef6998	0.4676025
8	0x3ec55fee	0.3854975
9	0xbf621a36	-0.88321245
10	0x3db786d7	0.089612655
11	0xbddfa332	-0.10919799
12	0xbe09c1cc	-0.13452834
13	0xbf00a97e	-0.50258625
14	0xbfacfb58	-1.3514204
15	0x3fa80f4e	1.3129671
16	0xbf1bb54a	-0.608235
17	0xbdde9d11	-0.10869802
18	0x3da88090	0.08227646
19	0x3e103221	0.14081623
20	0xbe15ad1c	-0.14616817
21	0xbdd478fc	-0.103746384
22	0x3dacfb15	0.084463276
23	0x400b746f	2.1789815
24	0xbde35c4f	-0.11101591
25	0xbf58281f	-0.8443622
26	0xbe115c88	-0.14195454
27	0x3c001dc1	0.007819594
28	0x3d64b603	0.055837642
29	0x3da31648	0.07963234
30	0x3edc0d05	0.42978683
31	0xbe5384f2	-0.20656183
32	0xbc4156d8	-0.01180049
33	0x3f187656	0.59555566
34	0x3d5102fc	0.051028237
35	0xbf9a74cb	-1.2066892
36	0x3d0b5292	0.034014292
37	0xbec3d22f	-0.38246295
38	0xbf00abd3	-0.5026218
39	0x3e5eed1d	0.21770139
40	0x4004bb96	2.0739493
41	0x3d98a927	0.07454138
42	0x3dc6d37a	0.09708305
43	0x3d63f874	0.055656865
44	0x3e06183b	0.1309518
45	0xbce6fc46	-0.028196465
46	0x3e4244e1	0.18971588
47	0xbf6af99f	-0.9178714
48	0xbe91df9d	-0.28490916
49	0xbf9440b1	-1.1582242
50	0x3c2bafb6	0.0104789045
51	0xbf64ead9	-0.8942085
52	0xbd4ae12a	-0.04953114
53	0xbf9a5445	-1.2056967
54	0xbf8a3f53	-1.0800575
55	0xbda915cb	-0.0825611
56	0x3e975874	0.29559672
57	0x3f187c98	0.59565115
58	0x3de3aa42	0.111164585
59	0x3e915941	0.28388408
60	0xbd137977	-0.03600451
61	0x3e1e7331	0.1547363
62	0x3ceccd2c	0.028906427
63	0x3f63597a	0.88808405
64	0x3eb65ad1	0.35616162
65	0x3e4393d4	0.1909936
66	0xbe49cb80	-0.19706535
67	0x3e81a2f6	0.25319642
68	0x3f48208e	0.78174675
69	0x3e88eefd	0.26744834
70	0x3e885dc5	0.2663404
71	0x3d638e2c	0.055555508
72	0x3a360306	0.00069431996
73	0x400f1859	2.235861
74	0x3ec123c8	0.3772261
75	0xbeca8db0	-0.39561224
76	0xbdd6142c	-0.10453066
77	0x3ebe5f8c	0.3718227
78	0xbd99f46a	-0.075173214
79	0xbe07404f	-0.13208126
80	0xbe89bb51	-0.26900724
81	0xbe447e0b	-0.19188707
82	0x4002b2c6	2.0421615
83	0xbd7181c3	-0.05896164
84	0xbdbdd7b4	-0.09269658
85	0xbe3bf286	-0.18354234
86	0x3e578176	0.21045479
87	0xbe2757ab	-0.16342036
88	0x3dc61208	0.09671408
89	0x3d1c9e2d	0.038236786
90	0xbe46b920	-0.19406557
91	0xbde8e132	-0.113710776
92	0x3d5cf994	0.053948954
93	0xbfada0b8	-1.3564672
94	0xbe609e2b	-0.21935336
95	0x3d8db883	0.069199584
96	0x3e6ccce7	0.23125039
97	0x3be707ea	0.007050504
98	0x3e506d94	0.203543
99	0x3e5c6eac	0.21526593
100	0x3d9ae035	0.07562295
101	0x3ed7afe6	0.42126387
102	0xbdf2395b	-0.11827346
103	0xbe23bb97	-0.15989529
104	0x3d089368	0.033343703
105	0x3d688489	0.05676702
106	0x402c5cb9	2.6931593
107	0x3e22b692	0.15889958
108	0x3db39dd2	0.08770336
109	0x3b490c33	0.0030677437
110	0xbb567298	-0.0032722112
111	0x3d908f3f	0.07058572
112	0x3da8e42e	0.08246647
113	0xbfdf8b18	-1.7464323
114	0xbc20130a	-0.009770164
115	0x3ca1a324	0.019731112
116	0xbd5a8822	-0.053352483
117	0x3ecb1a8c	0.3966869
118	0xbfb20e91	-1.3910695
119	0x3e478f9e	0.1948838
120	0xbf4e068f	-0.8047876
121	0xbda7a533	-0.08185806
122	0x3daaf392	0.083472386
123	0xbdde3948	-0.10850769
124	0x3cc2b1ef	0.023766486
125	0xbc8904e9	-0.016725974
126	0x3f41d028	0.75708246
127	0xbe44410e	-0.19165441
128	0xbed63064	-0.41833794
129	0x3def0049	0.11669976
130	0xbe8479b7	-0.2587411
131	0xbd53defe	-0.051726334
132	0x3e6e71ff	0.23285674
133	0xbf51d112	-0.8195964
134	0xbe4f64b9	-0.20253266
135	0x3dd20b23	0.102560304
136	0x3f305c31	0.6889067
137	0x3f884285	1.06453
138	0xbd0b298c	-0.03397517
139	0x3df07dd8	0.11742753
140	0xbc4a415c	-0.012344684
141	0x3e0f07b5	0.13967784
142	0x3dfb71cf	0.12277567
143	0xbe1370fd	-0.1439857
144	0xbe34374c	-0.17599219
145	0xbcd483fd	-0.025941843
146	0xbf1fb418	-0.62384176
147	0xbdf9126b	-0.12161716
148	0xbef8667f	-0.48515698
149	0xbdc6780c	-0.09690866
150	0x3e0772a1	0.13227321
151	0x3dbf9bd8	0.09355897
152	0x3b6d16c5	0.0036176902
153	0xbe6f4936	-0.23367772
154	0x3caa7542	0.020807866
155	0x402198ae	2.5249438
156	0xbdf6f321	-0.12058092
157	0xbea0f6fa	-0.31438428
158	0xbec8c09b	-0.39209446
159	0xbdb969c5	-0.09053377
160	0xbe182887	-0.1485921
161	0xbe918aa3	-0.28426084
162	0xbeb7d23b	-0.3590258
163	0x3dfd430d	0.123663045
164	0x3f4647bb	0.774532
165	0xbe2deab2	-0.1698406
166	0x3e3e8310	0.18604684
167	0xbf76d2ed	-0.964156
168	0x3e9f626f	0.31129786
169	0xbe6baf30	-0.23016047
170	0xbea2f0b9	-0.31824282
171	0x3d40d26c	0.047075674
172	0xbd060c05	-0.032726306
173	0xbf3ee3df	-0.74566454
174	0x3e046d1b	0.12932245
175	0x3f055e96	0.5209745
176	0xbebda5ae	-0.37040466
177	0xbf43bcbd	-0.76459867
178	0x3e0578fd	0.13034435
179	0xbe1b5753	-0.1517003
180	0xbdd78406	-0.10523228
181	0xbf160cbc	-0.5861318
182	0xbf85443b	-1.0411447
183	0xbed052f2	-0.40688282
184	0xbeea68af	-0.45782992
185	0x3e67add8	0.2262491
186	0x3d23fd3f	0.040036436
187	0x3a987bcd	0.0011633575
188	0x3c16e591	0.009210006
189	0x3e45dadc	0.1932177
190	0x3f1f907e	0.6232985
191	0xbec8f321	-0.39247993
192	0xbe217b55	-0.15769704
193	0x3f32cf85	0.698479
194	0x3ee1b67c	0.44084537
195	0x3edf3981	0.4359856
196	0x3e5f7002	0.21820071
197	0x3ec7ade5	0.38999858
198	0x3f20c8ab	0.62806195
199	0xbed0b1c9	-0.4076064
200	0x3f00092a	0.50013983
201	0x3e9ce8ae	0.3064627
202	0xbca6dc9a	-0.020368863
203	0xbf0faa2f	-0.56119055
204	0x3d4d6a31	0.0501501
205	0x3de1fad6	0.11034171
206	0xbf6537b9	-0.8953815
207	0x3d8e4735	0.069471754
208	0x3f02a725	0.5103629
209	0x3dc3523e	0.09537171
210	0xc00cd281	-2.2003481
211	0x3e0bb721	0.13644077
212	0xbec313df	-0.38101098
213	0x3ea68688	0.32524514
214	0xbcb3c1ff	-0.02194309
215	0xbd959fbe	-0.07305859
216	0x3d042fd8	0.03227219
217	0x3e10327b	0.14081757
218	0xbd615568	-0.05501309
219	0xbd89c2ec	-0.067266315
220	0x3dc69236	0.09695856
221	0xbd8d0325	-0.068853654
222	0xbdc4ae51	-0.09603561
223	0xbdeffa98	-0.11717719
224	0x3ebe8425	0.37210193
225	0x3d2c50b6	0.04206916
226	0xbee3f550	-0.44523096
227	0x3ee6105a	0.4493435
228	0xc02a1d38	-2.6580334
229	0x3e36f645	0.17867382
230	0xbcefd240	-0.02927506
231	0x3e4d328b	0.20038812
232	0xbe92b75f	-0.28655526
233	0x3d58329d	0.052782644
234	0x3d8e4f54	0.069487244
235	0x3dad812b	0.084719025
236	0x3c3c7de5	0.011504625
237	0x3e0ac59b	0.13551943
238	0x3e192690	0.14956117
239	0xbe7e478c	-0.2483198
240	0x3ec91b4b	0.39278635
241	0x3f66043f	0.8985023
242	0x3d2c36f4	0.042044595
243	0xbf18061f	-0.5938434
244	0xbe121ab4	-0.14267999
245	0x3d015078	0.03157088
246	0x3f5f3f38	0.8720584
247	0xbe8625bd	-0.26200667
248	0x3eea679b	0.4578217
249	0xbea908cc	-0.33014524
250	0xbb6bbb0b	-0.003596964
251	0x3db077a0	0.08616567
252	0xbcb93743	-0.022609359
253	0xbe3ab49b	-0.18232958
254	0xbef8036c	-0.4844011
255	0xbf36ee1d	-0.7145708

stage2.0.branch1.3.weight f4 [16]
0	0x3fd37217	1.6519192
1	0x3fb676c1	1.4254991
2	0x3fffcdd5	1.998469
3	0x40062791	2.096165
4	0x3fd2f1c9	1.6480037
5	0x3ff705af	1.929861
6	0x3ff6b603	1.9274296
7	0x3fdc6632	1.7218688
8	0x3f873f25	1.0566145
9	0x3fa50647	1.2892541
10	0x3f6df5f0	0.92953396
11	0x3f8df4ab	1.1090292
12	0x3f6d4c50	0.9269457
13	0x3fca11fa	1.5786736
14	0x3faaac13	1.3333763
15	0x3f8d96f2	1.106169

stage2.0.branch1.3.bias f4 [16]
0	0xbcdcd528	-0.02695711
1	0x3f6bd22c	0.9211757
2	0x3d294131	0.041321937
3	0x3f14f24f	0.58182234
4	0x3e850969	0.25983742
5	0xbed7a43d	-0.4211749
6	0xbe21d3f1	-0.15803505
7	0x3d961b76	0.073294565
8	0x3eff07e0	0.49810696
9	0x3e9b160e	0.30290264
10	0x3f12d42e	0.5735501
11	0x3e956012	0.29174858
12	0x3ea3e679	0.32011774
13	0xbd1fa099	-0.038971517
14	0x3dd27260	0.102757215
15	0x3ef718a7	0.48260996

stage2.0.branch2.0.weight f4 [16, 16, 1, 1]
0	0x3d5ad8ad	0.053429294
1	0xbe91c8f9	-0.28473642
2	0x3e062f43	0.13103966
3	0x3e79bde1	0.2438884
4	0xbcab628e	-0.020921018
5	0x3fc31b53	1.5242714
6	0x3efc912a	0.493295
7	0xbeecb6ca	-0.46233207
8	0xbed21e41	-0.41038707
9	0x3d3f4bdd	0.04670321
10	0xbced256d	-0.02894851
11	0xbd3b32b8	-0.045702666
12	0x3f6d9ca8	0.92817163
13	0x3f103a97	0.563394
14	0x3f2e7db3	0.6816055
15	0xbe96fcf6	-0.2948987
16	0x3ef3aec8	0.47594285
17	0x3de9ad5a	0.11410017
18	0xbf855f6e	-1.0419748
19	0xbddd74b5	-0.10813276
20	0xbf45616c	-0.7710178
21	0x3ca56ee2	0.020194475
22	0x3edae953	0.42756137
23	0x3f5dc01b	0.86621255
24	0x3ebc7bf4	0.3681332
25	0x3ed2868c	0.41118276
26	0x3ec8b4a6	0.39200324
27	0xbebe6ef4	-0.37194026
28	0x3efb717f	0.49110028
29	0x3efaad46	0.48960322
30	0x3eb6afff	0.3568115
31	0xbdc06f5a	-0.093962386
32	0x3fae3920	1.3611183
33	0xbe4f224d	-0.20227928
34	0x3e5309c7	0.20609199
35	0x3dd61d29	0.104547806
36	0x3d93182c	0.07182345
37	0xbd9d2a7d	-0.076741196
38	0xbf41aa0d	-0.756501
39	0x3ef5b9c9	0.47993305
40	0x3da76179	0.08172888
41	0x3f234f0f	0.6379251
42	0xbe6f6e9d	-0.2338204
43	0x3c3088a7	0.010774768
44	0x3d528d76	0.05140444
45	0xbe145dba	-0.14488879
46	0xbd9a2fdd	-0.075286604
47	0x3ea48e27	0.32139704
48	0x3f8adf92	1.0849478
49	0x3dcba16d	0.09942899
50	0xbc1d6787	-0.009607202
51	0x3eb59958	0.35468554
52	0x3e701f92	0.23449543
53	0xbd17323e	-0.03691315
54	0xbf3c551e	-0.7356738
55	0xbf0e20cb	-0.5551879
56	0xbee6bc2a	-0.45065433
57	0xbec2cbb5	-0.3804604
58	0x3e2dc9a2	0.16971448
59	0x3f1a2d13	0.6022503
60	0xbe4e7dc5	-0.20165165
61	0xbca02a90	-0.019551545
62	0x3f220381	0.63286597
63	0xbe5ec512	-0.21754864
64	0x3fb11aa8	1.383626
65	0xbedaad23	-0.42710218
66	0xbf3b2da9	-0.73116547
67	0xbd84bc54	-0.06481233
68	0x3f7421e8	0.95364237
69	0x3dd3399c	0.103137225
70	0x3f22cc11	0.6359263
71	0x3d8aa4ae	0.067696914
72	0x3e904fdd	0.2818593
73	0x3e39bba6	0.18137988
74	0xbda991d4	-0.08279768
75	0x3f7474ca	0.95490706
76	0x3da33a41	0.079700954
77	0xbeae9b46	-0.3410284
78	0xbe01c7dc	-0.12673897
79	0x3ecfae89	0.40562847
80	0x3d1e120c	0.03859143
81	0x3eae224a	0.34010535
82	0x3f027a79	0.5096813
83	0xbdd29123	-0.10281589
84	0x3f70f7b8	0.9412799
85	0x3f1ba6dd	0.6080149
86	0x3e427b41	0.1899233
87	0x3dac001c	0.08398458
88	0x3f2b6385	0.6694873
89	0x3c0b4db7	0.008502415
90	0xbe5fdf76	-0.21862587
91	0x3f536345	0.8257335
92	0x3f3a75e0	0.7283611
93	0x3e8ad100	0.2711258
94	0xbe60477d	-0.2190227
95	0x3e6cb6b2	0.23116568
96	0x3e4ff78e	0.20309278
97	0x3ea4663c	0.3210925
98	0x3e645e13	0.22301511
99	0xbef46f5e	-0.47741216
100	0x3e60e108	0.21960843
101	0x3f882224	1.0635419
102	0x3f8dd505	1.1080633
103	0x3be56cd9	0.007001501
104	0x3ef365c0	0.47538567
105	0x3e3b8080	0.18310738
106	0x3e5b1e8f	0.21398376
107	0x3d9f5a42	0.07780887
108	0x3f79a2e0	0.9751415
109	0xbcfdc5c3	-0.03097809
110	0xbf065c94	-0.52485013
111	0x3f575d46	0.841267
112	0x3f525301	0.82157904
113	0xbf33a99e	-0.7018069
114	0x3e7639fb	0.24045555
115	0xbd190755	-0.037360508
116	0x3ebff9bd	0.37495223
117	0xbf8de601	-1.1085817
118	0x3f1b9ac7	0.60783046
119	0x3f3a1e04	0.7270205
120	0xbdab6378	-0.083685815
121	0x3ce0b771	0.027431222
122	0x3e453cf2	0.1926153
123	0xbd487c32	-0.048946567
124	0xbf3d756f	-0.74007314
125	0xbf4f0222	-0.8086263
126	0x3e44346e	0.19160625
127	0xbf5f23b6	-0.87163866
128	0xbe22a576	-0.15883431
129	0xbe29e749	-0.16592135
130	0xbf339cc4	-0.7016108
131	0xbea380bb	-0.3193415
132	0xbff544c5	-1.9161612
133	0xbe6ed70e	-0.23324224
134	0x3eee0aac	0.46492517
135	0x3fb06ece	1.3783815
136	0xbe02ced9	-0.12774219
137	0xbe238f2d	-0.15972586
138	0xbebad7f2	-0.36492878
139	0xbfb6171e	-1.4225805
140	0x3ed6854d	0.41898575
141	0xbec7884e	-0.3897118
142	0xbdd5f166	-0.10446434
143	0x3ea6d5c3	0.32584962
144	0x3f708bda	0.93963397
145	0x3dd1b46b	0.1023949
146	0x3df584af	0.11988198
147	0xbec7ec75	-0.3904759
148	0xbeab263b	-0.33427605
149	0xbf138232	-0.5762054
150	0x3de343d0	0.110969186
151	0xbd16cdce	-0.036817364
152	0xbf41bb63	-0.75676554
153	0x3f13753b	0.57600754
154	0x3e76e12d	0.24109335
155	0xbee08671	-0.4385257
156	0xbdb70fd6	-0.08938567
157	0x3cc3bb6d	0.023893083
158	0x3e75191c	0.2393536
159	0x3f784eb9	0.9699512
160	0x3ed402aa	0.41408283
161	0xbbada1dd	-0.0052988366
162	0xbb4f6c91	-0.0031650404
163	0x3e3959db	0.18100683
164	0xbdf09464	-0.11747053
165	0x3f003b34	0.50090337
166	0x3dd4a303	0.103826545
167	0xbe88347f	-0.2660255
168	0x3dc56646	0.09638648
169	0xbe1ad57b	-0.15120499
170	0x3ef26d9a	0.47349244
171	0xbd8a3d7a	-0.06750007
172	0x3e88eced	0.2674326
173	0xbd078055	-0.03308137
174	0xbef3eeaa	-0.47643024
175	0xbe580fb6	-0.21099743
176	0x3da3e88c	0.08003339
177	0xbe1b7a10	-0.15183282
178	0xbe23b679	-0.15987577
179	0xbfbcaeb2	-1.4740813
180	0x3d5776e0	0.052603602
181	0x3e738241	0.23780157
182	0x3f5ae3b8	0.8550372
183	0xbd5f575b	-0.054526668
184	0xbf5d3867	-0.8641419
185	0x3e8b9be3	0.2726737
186	0xbe19a629	-0.15004791
187	0xbdd4f86d	-0.10398946
188	0x3eb5d54b	0.35514292
189	0x3dc51e72	0.096249476
190	0xbf9334fc	-1.1500545
191	0x3f9575d2	1.1676581
192	0xbe31dbcf	-0.17369007
193	0x3fb5fbda	1.4217484
194	0xbd795080	-0.060867786
195	0x3e69f432	0.2284706
196	0xbe4d34ab	-0.20039622
197	0x3cf1d81b	0.029521992
198	0xbe089292	-0.13337162
199	0xbe697693	-0.22799139
200	0xbf63f058	-0.8903861
201	0xbe185d17	-0.14879261
202	0x3dbdfd08	0.092767775
203	0xbcdc70d1	-0.026909264
204	0xbe9338af	-0.28754184
205	0xbe5ec83b	-0.2175607
206	0x3f903fe5	1.1269499
207	0x3eb332e4	0.34999764
208	0x3ebd4702	0.36968237
209	0x3ee47ec0	0.44627953
210	0x3f36b3a5	0.71367866
211	0x3a7d4056	0.0009660771
212	0xbd5041a8	-0.050843865
213	0x3a2afff0	0.0006523123
214	0x3f031efc	0.51219153
215	0x3d5c4d56	0.05378469
216	0x3ec12ce4	0.3772956
217	0x3ef0e970	0.470531
218	0x3e0cdd6c	0.1375634
219	0xbec264d6	-0.37967557
220	0x3eb3aac6	0.35091227
221	0xbfdf245b	-1.743297
222	0xbdbce97e	-0.092242226
223	0x3e8a012a	0.26954013
224	0x3e1fea82	0.15616801
225	0xbee7c36d	-0.45266286
226	0x38e7dd85	0.000110561996
227	0x3fe93abd	1.822105
228	0x3de8be8d	0.1136447
229	0xbe68f0bd	-0.22748084
230	0x3f85bc71	1.0448133
231	0xbd20ab14	-0.039225653
232	0x3fa456b9	1.2838966
233	0x3dd7de3a	0.10540433
234	0xbd896f11	-0.06710637
235	0xbe71da24	-0.2361837
236	0xbf29f212	-0.66384995
237	0x3d939824	0.07206753
238	0x3eed8918	0.46393657
239	0xbf308473	-0.689521
240	0xbd89246d	-0.06696401
241	0x3e8f2c8e	0.2796368
242	0xbcb450c7	-0.022011174
243	0xbf35379c	-0.7078798
244	0x3f1aec53	0.6051685
245	0xbedc240f	-0.4299626
246	0x3f36e913	0.71449393
247	0xbedb76a6	-0.4286396
248	0xbf866d6c	-1.0502143
249	0xbeee451c	-0.465371
250	0xbef50414	-0.47854674
251	0x3f1eb27b	0.6199109
252	0xbe3b643a	-0.18299952
253	0xbdc4b0e0	-0.09604049
254	0xbe6cbf2a	-0.23119798
255	0xbeae440c	-0.3403629

stage2.0.branch2.1.weight f4 [16]
0	0x3f8a7108	1.0815744
1	0x3f8255f0	1.0182476
2	0x3f8a7cc3	1.0819324
3	0x3f7df75e	0.9920558
4	0x3fe1fce6	1.7655303
5	0x3f9246bd	1.1427838
6	0x3f553100	0.83277893
7	0x3f8e3510	1.1109943
8	0x3fd7e0be	1.6865461
9	0x3f909365	1.1294981
10	0x3eb7f20e	0.3592686
11	0x3fa47a5a	1.2849839
12	0x3fb29c78	1.3954
13	0x3f831c32	1.024298
14	0x3fb94887	1.4475259
15	0x3f929fff	1.1455077

stage2.0.branch2.1.bias f4 [16]
0	0xbf92455d	-1.1427418
1	0x3f107a05	0.5643619
2	0x3ee2c3d2	0.44290024
3	0x3e9fcfbb	0.31213173
4	0x3e4a160f	0.19734977
5	0xbe667d61	-0.22508766
6	0xbdc0db9e	-0.09416889
7	0x3f9d98f6	1.2312305
8	0x3e9750e4	0.29553902
9	0x3ea89761	0.32927993
10	0x3f83420a	1.0254529
11	0x3f663452	0.89923584
12	0xbf1f7625	-0.6228965
13	0x3e08500c	0.13311785
14	0xbf92e2b2	-1.1475432
15	0x3f9bd65b	1.2174791

stage2.0.branch2.3.weight f4 [16, 1, 3, 3]
0	0xbd95c293	-0.07312503
1	0x3eb6a1e3	0.35670385
2	0x3ecbdeb5	0.3981835
3	0x3e1bc1e2	0.15210679
4	0xbec0efd4	-0.37682974
5	0xbf12e3e7	-0.57379
6	0x3dede644	0.11616185
7	0xbf73a823	-0.9517843
8	0xbf57994b	-0.8421828
9	0x3ed53dba	0.41648656
10	0x3f1b80b8	0.60743284
11	0x3e960888	0.29303384
12	0xbee7ac63	-0.45248708
13	0xbe444ec4	-0.19170672
14	0x3e202d18	0.15642202
15	0xbf25ad4f	-0.6471757
16	0xbf697531	-0.91194445
17	0xbef2518c	-0.4732784
18	0x3d3393d3	0.043842148
19	0xbe853f0b	-0.2602466
20	0xbef033a4	-0.469144
21	0xbe29c797	-0.16580044
22	0x3eca9677	0.3956792
23	0x3eeaddc0	0.45872307
24	0xbec30ac1	-0.38094142
25	0x3f5f99e5	0.873442
26	0x3f67e024	0.90576386
27	0xbe09d74b	-0.13461034
28	0xbdfffb10	-0.12499058
29	0xbe36305d	-0.17791887
30	0x3c818731	0.015811535
31	0x3eb781b4	0.35841143
32	0x3f1c0ab0	0.6095381
33	0xbd16ebc9	-0.036845956
34	0x3ef8f35c	0.48623168
35	0x3f5604b4	0.83600926
36	0xbd099206	-0.033586524
37	0x3ea71b55	0.3263804
38	0x3eb6df9f	0.35717484
39	0x3dac7c2d	0.08422122
40	0xbed10f03	-0.40831766
41	0xbf512a03	-0.8170473
42	0xbe7d5922	-0.24741033
43	0xbf2f0826	-0.6837181
44	0xbfba077a	-1.4533532
45	0xbe02345f	-0.1271529
46	0x3d88314f	0.0665003
47	0xbf0f4e30	-0.5597868
48	0xbe05e39d	-0.13075109
49	0xbf2d6834	-0.67737126
50	0xbf789f3d	-0.9711798
51	0x3e3a3e74	0.18187886
52	0x3d6c1842	0.05764032
53	0xbe04520e	-0.12921926
54	0xbe9e6fe5	-0.30944744
55	0x3e02460e	0.12722036
56	0x3f2e1469	0.67999893
57	0x3ebf13dd	0.37319842
58	0xbd6760c8	-0.056488782
59	0xbef75b61	-0.48311904
60	0x3f461edc	0.7739084
61	0xbea0fcea	-0.31442958
62	0xbfcc6044	-1.5966878
63	0xbd5876ad	-0.052847553
64	0x3e47a7f6	0.19497666
65	0xbeb6f4a3	-0.35733518
66	0xbe61b970	-0.22043395
67	0xbf006e3c	-0.50168204
68	0xbee77063	-0.45202932
69	0xbf093bf6	-0.5360712
70	0xbf511de4	-0.81686234
71	0xbf105e66	-0.5639404
72	0xbe58986e	-0.21151897
73	0x3e577397	0.21040188
74	0x3ed6ff14	0.41991484
75	0xbe24b6be	-0.16085336
76	0x3f1af42d	0.6052883
77	0x3f7d70e5	0.9900039
78	0x3e2e04a0	0.16993952
79	0x3f1a516f	0.6028051
80	0x3f670653	0.90244025
81	0xbe33fd48	-0.17577088
82	0x3db17db6	0.086665556
83	0xbe06f749	-0.1318027
84	0xbe65f676	-0.22457299
85	0x3f073966	0.5282196
86	0x3f13024c	0.5742538
87	0xbd1f6329	-0.038912926
88	0x3f237259	0.63846356
89	0x3f840077	1.0312642
90	0x3f460a9b	0.7735993
91	0x3e2081d9	0.15674533
92	0x3e6f49fe	0.2336807
93	0x3f328cc6	0.69746053
94	0xbea72d6e	-0.32651848
95	0xbe5c913e	-0.2153978
96	0x3f36b755	0.7137349
97	0xbed28fe1	-0.41125396
98	0xbe457932	-0.19284514
99	0xbdf5359e	-0.11973117
100	0xbe84f47d	-0.2596778
101	0xbf3d7c1b	-0.74017495
102	0xbee0fc45	-0.43942466
103	0x3e4b19ff	0.19834135
104	0x3e8cd9bf	0.27509877
105	0xbebf8f7f	-0.37414166
106	0x3f907254	1.128489
107	0x3fdf1648	1.7428675
108	0x3d3b22bf	0.045687433
109	0xbe387315	-0.1801265
110	0xbf79f714	-0.97642636
111	0xbe9272b1	-0.28603128
112	0x3e8853c8	0.2662642
113	0x3ee0071a	0.43755418
114	0xbee0b0b2	-0.43884808
115	0x3f136b0e	0.5758523
116	0x3fcc38e2	1.5954859
117	0x3e8b93e8	0.2726128
118	0x3f101e3f	0.5629615
119	0x3ece470f	0.40288588
120	0xbec2f15a	-0.38074762
121	0xbe77dafe	-0.24204633
122	0xbba8ec87	-0.0051551494
123	0xbeb4439f	-0.3520784
124	0xbf7f2a3b	-0.99673814
125	0xbf7b0237	-0.98050255
126	0xbe3a83b7	-0.18214308
127	0x3e4fe298	0.20301282
128	0x3f523f7c	0.8212812
129	0x3e8ef11f	0.27918336
130	0xbed4f6a8	-0.41594434
131	0xbf1956f8	-0.5989833
132	0x3f45c4da	0.77253497
133	0xbf1ff69c	-0.6248567
134	0xbfbd6ef3	-1.4799484
135	0xbdf63e90	-0.120236516
136	0xbe3f3dc8	-0.18675911
137	0xbf0d58ae	-0.5521344
138	0xbe3751dc	-0.1790232
139	0x3e772159	0.24133815
140	0x3f24e706	0.64415014
141	0xbcadaca2	-0.021200482
142	0x3f1ec948	0.6202588
143	0x3fb580ac	1.4179893

stage2.0.branch2.4.weight f4 [16]
0	0x3fae23a1	1.3604623
1	0x3f9dee4c	1.2338347
2	0x3fa801a0	1.3125496
3	0x3fc1258f	1.5089587
4	0x3f4977bf	0.78698343
5	0x3f8f11e3	1.1177334
6	0x3fbd2188	1.4775858
7	0x3f8f0ecb	1.117639
8	0x3fb7f65f	1.4372061
9	0x3f93eeb6	1.1557224
10	0x3f87f7f7	1.0622548
11	0x3fa8f64c	1.3200164
12	0x3fba2d35	1.4545046
13	0x3fa11958	1.2585859
14	0x3fb00e3e	1.3754346
15	0x3f9582ef	1.1680583

stage2.0.branch2.4.bias f4 [16]
0	0xbdb1d6db	-0.086835586
1	0x3d43329f	0.047655698
2	0xbf8687d1	-1.0510198
3	0xbfb6327e	-1.4234159
4	0x3f424aa9	0.7589517
5	0x3edcf2f4	0.4315411
6	0xbd8ff80b	-0.07029732
7	0x3f4686ea	0.7754961
8	0xbe8da7c1	-0.2766705
9	0xbf4c5f49	-0.79832894
10	0xbf0fb6fb	-0.5613858
11	0xbeeb2fc1	-0.4593487
12	0xbc6cde59	-0.014457309
13	0x3f8430d6	1.0327404
14	0x3f63a08c	0.8891685
15	0xbe8ac314	-0.27101958

stage2.0.branch2.5.weight f4 [16, 16, 1, 1]
0	0x3ea6c3d9	0.32571295
1	0x3efb9de4	0.49143898
2	0x3f4b3554	0.7937825
3	0x3f4ff487	0.81232494
4	0xbeb6b077	-0.35681507
5	0xbd2dfefb	-0.042479496
6	0x3fa1c05e	1.2636831
7	0xbf57516f	-0.8410863
8	0x3d8e49c2	0.06947662
9	0xbd6efc65	-0.05834617
10	0xbef5418e	-0.47901577
11	0xbf433177	-0.7624735
12	0xbf482a4e	-0.7818955
13	0x3e60e3ce	0.219619
14	0x3f069d5d	0.5258387
15	0xbe475dd9	-0.19469394
16	0x3f390324	0.7227042
17	0xbd2f0fde	-0.04273974
18	0xbe96288b	-0.29327807
19	0xbedffaa0	-0.437459
20	0x3ea12317	0.31472084
21	0x3e88fc85	0.26755157
22	0x3f17f358	0.5935569
23	0xbe3a3642	-0.1818476
24	0xbedd3f86	-0.43212527
25	0xbf4f949e	-0.81086147
26	0xbf51a7f7	-0.8189692
27	0xbf1963b3	-0.59917754
28	0xbe2ffe7d	-0.17186923
29	0x3eb82f17	0.35973427
30	0x3e6d2ca9	0.23161568
31	0x3ea0e890	0.3142743
32	0x3d98ae3e	0.07455109
33	0x3e819906	0.2531206
34	0x3f3dfcde	0.7421397
35	0xbe0d4137	-0.13794409
36	0xbf2696e1	-0.6507397
37	0x3f37eaaf	0.71842474
38	0x3e5b2e8c	0.21404475
39	0xbf64b6f3	-0.8934166
40	0xbe548045	-0.20752056
41	0x3e525819	0.20541419
42	0xbe90005f	-0.28125283
43	0x3efc6361	0.4929457
44	0x3e185012	0.14874294
45	0xbeed59b2	-0.46357495
46	0x3e1d9b77	0.15391336
47	0x3dd5b429	0.104347534
48	0xbf909105	-1.1294256
49	0x3e047e8f	0.12938903
50	0x3ca8bf07	0.020598901
51	0xbf1c6557	-0.6109213
52	0x3e9b9c06	0.30392474
53	0xbe98b407	-0.2982485
54	0xbe3256cb	-0.17415921
55	0x3f306033	0.6889679
56	0xbe99e071	-0.30054048
57	0xbf7d0d2e	-0.98848236
58	0xbec4dd67	-0.38450167
59	0xbddd3da2	-0.10802771
60	0x3dba75ab	0.09104475
61	0x3dd9dfd6	0.106383964
62	0x3e627f44	0.2211886
63	0xbf0a4e4a	-0.5402571
64	0x3f000d17	0.50019974
65	0x3e72b536	0.23701939
66	0xbf5290fa	-0.82252467
67	0xbf7bcf2a	-0.9836298
68	0x3dd1fe16	0.10253541
69	0x3e3ba78a	0.1832563
70	0x3cf25d4a	0.0295855
71	0xbe9b50ec	-0.30335176
72	0x3dae642b	0.08515199
73	0x3eeee594	0.4665953
74	0xbeb8aefb	-0.36071
75	0x3f701ece	0.93797004
76	0xbf3362bd	-0.7007254
77	0xbd8a3535	-0.0674843
78	0x3f080a4f	0.5314073
79	0x3f097fb7	0.537105
80	0x3d204933	0.03913231
81	0x3e03afaf	0.12859987
82	0x3ecd5b52	0.40108734
83	0xbf097401	-0.5369263
84	0x3f8ac29d	1.0840641
85	0x3fa529fe	1.290344
86	0x3ef780e7	0.48340532
87	0x3f118c6c	0.5685489
88	0x3e8b6fa8	0.27233624
89	0x3f70b52d	0.9402645
90	0xbea48fc9	-0.3214095
91	0x3e4de729	0.20107712
92	0xbe37e42b	-0.17958133
93	0xbd2eb7ff	-0.04265594
94	0x3eb7dcd4	0.35910666
95	0xbedaab17	-0.42708656
96	0x3f0f5942	0.5599557
97	0x3d3ab974	0.045587018
98	0xbc125892	-0.00893225
99	0x3eaeb555	0.3412272
100	0x3efebef5	0.49755064
101	0x3e7dcfe4	0.24786335
102	0x3f286da6	0.6579231
103	0xbeb73ec5	-0.35790077
104	0xbf104fe6	-0.56371915
105	0xbe8d039a	-0.2754181
106	0xbe9a72dd	-0.3016576
107	0xbf379e74	-0.71726155
108	0x3f529fa0	0.8227482
109	0xbed425f4	-0.41435206
110	0xbfab562d	-1.3385674
111	0xbeee28d1	-0.46515515
112	0x3e9ca6b4	0.30595934
113	0xbf8ac628	-1.0841722
114	0xbdddb60d	-0.10825739
115	0xbee51530	-0.44742727
116	0x3e4e6bd4	0.2015832
117	0x3e4da7ca	0.20083538
118	0xbc22de6a	-0.009940723
119	0xbf072695	-0.52793247
120	0x3fb4e586	1.4132545
121	0xbe557f40	-0.20849323
122	0xbef7c297	-0.48390648
123	0xbf52316e	-0.82106674
124	0xbcf4d28e	-0.029885557
125	0xbe79080e	-0.24319479
126	0x3eb5b6ac	0.3549093
127	0xbecc22bd	-0.39870253
128	0xbe6365b8	-0.22206771
129	0x3df372e9	0.11887152
130	0x3b9989a5	0.004685598
131	0xbf47b5a2	-0.78011525
132	0x3a294c2f	0.00064581906
133	0xbf02a852	-0.51038086
134	0xbf1714c2	-0.5901605
135	0xbefde562	-0.49589068
136	0xbf0819cf	-0.5316438
137	0xbe5f84f3	-0.2182806
138	0x3d8f81e2	0.07007195
139	0xbe970835	-0.2949845
140	0xbf6fa51d	-0.9361132
141	0xbf85c4ac	-1.0450644
142	0xbed7c255	-0.4214045
143	0x3ef694ec	0.48160493
144	0x3ed259a6	0.4108402
145	0xbe0874c4	-0.13325793
146	0x3f69f021	0.9138203
147	0x3f14d661	0.58139616
148	0xbe9dd0c3	-0.30823335
149	0xbec19645	-0.3780996
150	0x3e08d2b7	0.13361631
151	0xbee5942c	-0.4483961
152	0xbec27b36	-0.37984627
153	0x3f0283cb	0.5098235
154	0x3e646126	0.22302684
155	0xbd074936	-0.033028804
156	0xbd7b134e	-0.061297707
157	0xbe9bc1b9	-0.30421236
158	0xbecb868d	-0.39751092
159	0xbf114d70	-0.56758785
160	0xbf1710f1	-0.59010226
161	0xbe1ac5f5	-0.15114577
162	0xbebb5f75	-0.36596265
163	0x3d94c531	0.07264174
164	0xbe2c4afd	-0.16825481
165	0xbe1e492f	-0.15457605
166	0xbe42e187	-0.19031344
167	0x3e89e56c	0.26932847
168	0x3e5d4a02	0.21610263
169	0x3eb2b238	0.34901595
170	0x3eb26fba	0.34850866
171	0x3f2b90a7	0.67017597
172	0x3f264be8	0.64959574
173	0x3ea94493	0.3306013
174	0x3e7a773f	0.24459551
175	0x3d17ca52	0.037058182
176	0xbf24acd0	-0.6432619
177	0xbdeaab9c	-0.11458513
178	0x3e097fd6	0.13427672
179	0x3c97049e	0.018434819
180	0xbe103a5f	-0.14084767
181	0x3d279ba3	0.04091991
182	0xbf40e1ef	-0.7534475
183	0xbe84bb91	-0.25924352
184	0x3e97681a	0.2957161
185	0xbe5fd48b	-0.21858422
186	0xbde2b1ea	-0.11069091
187	0xbf3a7c8f	-0.7284631
188	0x3cec66a5	0.028857538
189	0xbdefd656	-0.11710803
190	0xbf5ccc2e	-0.86249053
191	0xbf167b04	-0.58781457
192	0x3cc22714	0.023700275
193	0xbf666e1c	-0.90011764
194	0x3eb61e95	0.35570207
195	0xbef3874e	-0.47564167
196	0x3ebd8ece	0.37023014
197	0xbec2fd89	-0.38084057
198	0xbe2a1140	-0.16608143
199	0xbdfd2c86	-0.12362008
200	0xbecad68d	-0.39616814
201	0x3e3e9e29	0.18615021
202	0x3edaf873	0.42767677
203	0x3e4e0b98	0.2012161
204	0x3f02dfbf	0.5112266
205	0x3f70d495	0.94074374
206	0xbe00617a	-0.12537184
207	0xbedf9017	-0.4366462
208	0x3eec1a7e	0.46113962
209	0x3ed3d79c	0.41375434
210	0x3d97ab4c	0.07405719
211	0xbdbdd962	-0.09269978
212	0x3e6572db	0.22407095
213	0xbec612d1	-0.3868623
214	0x3e9300b1	0.28711465
215	0xbe7e2f40	-0.24822712
216	0xbf3ee17b	-0.74562806
217	0x3f02d217	0.5110182
218	0xbd1492b7	-0.03627273
219	0xbd93f2cb	-0.072240435
220	0x3f359711	0.70933634
221	0xbebba3b2	-0.36648327
222	0x3f0f5804	0.55993676
223	0x3f280b2f	0.65642065
224	0x3e77e1c6	0.2420722
225	0xbd4781e5	-0.04870786
226	0xbd65c873	-0.056099366
227	0xbb9a9079	-0.0047169295
228	0x3e6dea3f	0.23233889
229	0x3c5f32d9	0.013622963
230	0x3f387307	0.7205052
231	0x3e6484a6	0.22316226
232	0x3e3e417d	0.1857967
233	0x3e884b19	0.26619795
234	0x3d6d8acf	0.057993706
235	0xbf0a259e	-0.5396365
236	0x3e2346d5	0.15944989
237	0xbf4445d0	-0.76669025
238	0x3e9a1f91	0.30102208
239	0xbd74038e	-0.059573703
240	0x3e338220	0.17530107
241	0x3edd2c9d	0.431981
242	0x3e0d9178	0.13825023
243	0xbedda4c4	-0.4328977
244	0x3ee858dc	0.45380294
245	0x3c5633f9	0.013073915
246	0xbe808c73	-0.25107154
247	0x3d4ffd17	0.050778475
248	0x3ea9dd80	0.33176804
249	0x3ecc0383	0.3984643
250	0x3f52c4b5	0.823314
251	0x3f08c82c	0.5343044
252	0x3f03b48a	0.51447356
253	0xbf517629	-0.81820923
254	0xbe804e2c	-0.2505964
255	0xbf0df308	-0.5544896

stage2.0.branch2.6.weight f4 [16]
0	0x3fd2f383	1.6480564
1	0x3fc4d75f	1.5378226
2	0x3fdb3158	1.7124434
3	0x3faaddec	1.3348975
4	0x3fc2c4cb	1.5216306
5	0x3f987b05	1.1912543
6	0x3fc7305d	1.5561634
7	0x3fac1064	1.3442502
8	0x3f288c7b	0.65839356
9	0x3f7b5989	0.98183495
10	0x3f84fc18	1.0389433
11	0x3f7bfc42	0.9843179
12	0x3f4efcf8	0.8085475
13	0x3f3adb5c	0.72990966
14	0x3f41f57b	0.757652
15	0x3f4cb684	0.79965997

stage2.0.branch2.6.bias f4 [16]
0	0xbe382160	-0.17981482
1	0x3f0d2a9c	0.5514314
2	0x3d5793ca	0.052631177
3	0x3eb6ded8	0.3571689
4	0xbd9e762d	-0.07737384
5	0x3f9160a6	1.135762
6	0x3f1fe2a4	0.624552
7	0x3d0fd095	0.03511103
8	0x3f2cf089	0.6755453
9	0xbdb7b309	-0.08969695
10	0xbf2c2fd5	-0.67260486
11	0xbdd5f508	-0.104471266
12	0x3f3ee793	0.74572104
13	0x3eef6ce5	0.46762767
14	0x3ef85ad1	0.48506787
15	0x3f167fd9	0.5878883

stage2.1.branch2.0.weight f4 [16, 16, 1, 1]
0	0xbd320c02	-0.043468483
1	0xbe84ef77	-0.25963947
2	0x3fb342a4	1.4004712
3	0x3ee6c341	0.45070842
4	0xbdd3e964	-0.1034725
5	0xbccd0baa	-0.025029976
6	0xbe79c99e	-0.24393317
7	0x3e2dc05e	0.16967914
8	0xbececeb8	-0.4039209
9	0x3d47aa58	0.048746437
10	0xbfeb6b47	-1.8392113
11	0xbe5b67f8	-0.2142638
12	0x3fafa0eb	1.3720983
13	0x3d583dff	0.0527935
14	0x3ea8a3fa	0.32937604
15	0x3d3076c9	0.043082032
16	0xbf71ed7b	-0.9450299
17	0x3f1c861b	0.6114213
18	0xbef1dd7e	-0.47239298
19	0xbed2764e	-0.41105884
20	0xbe062658	-0.13100564
21	0x3f2b89ef	0.67007345
22	0x3e273b54	0.16331226
23	0x3f232237	0.6372408
24	0x3ec38c66	0.38193053
25	0x3d16d0eb	0.036820333
26	0xbb9e3991	-0.00482864
27	0xbebcfd7d	-0.36912146
28	0xbe7e8db1	-0.24858738
29	0xbe577c45	-0.21043499
30	0x3d3f2d5c	0.046674117
31	0x3dcd9309	0.1003781
32	0xbe86d6a9	-0.26335648
33	0x3ef3331a	0.47499925
34	0x3d0903d5	0.03345092
35	0x3e9cb8a7	0.3060963
36	0xbe586142	-0.21130851
37	0x3f128605	0.5723575
38	0x3f90fcb2	1.1327116
39	0x3e439810	0.19100976
40	0xbee8ecde	-0.45493215
41	0x3a3e572c	0.00072609144
42	0x3e49edf9	0.19719686
43	0xbf028ab3	-0.5099289
44	0xbde391b8	-0.11111778
45	0xbdc5cffd	-0.09658811
46	0xbefdbc19	-0.4955757
47	0xbed25399	-0.41079405
48	0xbea0b576	-0.31388444
49	0xbeb9da1e	-0.36299223
50	0xbf2447d4	-0.641721
51	0xbddf5d76	-0.10906498
52	0x3e1f1445	0.15535076
53	0x3e909f6a	0.28246623
54	0x3e971599	0.29508665
55	0x3eecec3f	0.4627399
56	0x3f09f045	0.5388225
57	0x3f8f0a3b	1.1174997
58	0xbe9af56c	-0.30265367
59	0x3db24329	0.08704216
60	0x3f013ea5	0.5048621
61	0xbef79ba4	-0.48360932
62	0x3f0e926c	0.5569217
63	0x3e6f9c27	0.23399411
64	0xbe4162aa	-0.18885294
65	0xbe5bf627	-0.21480618
66	0xbe089c8b	-0.13340966
67	0xbd6b9432	-0.057514377
68	0xbd1d091a	-0.038338758
69	0xbd9c4f08	-0.076322615
70	0xbdda005b	-0.10644599
71	0x3d3db113	0.04631145
72	0xbd02c221	-0.031923417
73	0xbc53432d	-0.012894434
74	0x3dfd4a4f	0.12367689
75	0xbd91d6c2	-0.0712104
76	0xbd96fc9f	-0.073724024
77	0xbda74895	-0.08168141
78	0x3d587416	0.052845083
79	0xbd40756f	-0.046986993
80	0xbe42b8b6	-0.19015774
81	0xbe5c1995	-0.21494134
82	0xbe0932c8	-0.13398278
83	0xbd6e39a3	-0.058160435
84	0xbd1e34f8	-0.038624734
85	0xbd9ba18c	-0.07599172
86	0xbdda2b30	-0.106527686
87	0x3d39ee89	0.0453935
88	0xbd030856	-0.03199037
89	0xbc56bb86	-0.0131062325
90	0x3dfe2de9	0.124111004
91	0xbd928fe8	-0.07156354
92	0xbd9657c2	-0.07340957
93	0xbda7d606	-0.081951186
94	0x3d5886f2	0.05286307
95	0xbd3bf5fd	-0.04588889
96	0xbd72a79b	-0.059241872
97	0xbd905322	-0.07047106
98	0xbe218e7b	-0.15777008
99	0xbea24c09	-0.31698635
100	0x3d1d6fd9	0.038436744
101	0x3ed350e9	0.41272667
102	0x3e7c6387	0.24647342
103	0x3ef13628	0.4711163
104	0x3f46633e	0.7749518
105	0x3f472bba	0.77801096
106	0xbf58d1d4	-0.8469517
107	0x3e37a0c9	0.17932428
108	0x3f36088e	0.71106803
109	0xbf18e72e	-0.5972775
110	0x3ecf8900	0.4053421
111	0xbe9e7e3a	-0.30955678
112	0xbe43d036	-0.19122395
113	0xbe5d8118	-0.21631277
114	0xbe0b4696	-0.13601145
115	0xbd722306	-0.059115432
116	0xbd23e5d5	-0.040014107
117	0xbd9c2733	-0.07624664
118	0xbddd0dd8	-0.10793656
119	0x3d3cb0e8	0.04606715
120	0xbcfb4142	-0.030670766
121	0xbc42877b	-0.011873121
122	0x3dff749b	0.124734126
123	0xbd943233	-0.07236137
124	0xbd91b89f	-0.07115292
125	0xbda68da0	-0.081324816
126	0x3d55df92	0.052215166
127	0xbd41ac78	-0.04728362
128	0xbd90dc28	-0.070732415
129	0xbebeb89b	-0.37250218
130	0xbde3bf42	-0.11120464
131	0xbe71a930	-0.23599696
132	0xbe4c5e83	-0.19957928
133	0x3e2df618	0.16988409
134	0xbd93bdf7	-0.07213967
135	0xbe4291f5	-0.1900099
136	0xbe6596f6	-0.22420868
137	0xbe4fb842	-0.20285133
138	0xbf3b1ea3	-0.7309362
139	0xbdc07453	-0.09397187
140	0xbc80121a	-0.015633631
141	0xbd022b3a	-0.031779505
142	0x3d468942	0.048470743
143	0xbe4c7cfe	-0.19969556
144	0x3d7a2688	0.061071903
145	0x3ed3f7ad	0.413999
146	0x3f13a38c	0.5767143
147	0x3ee3ad44	0.4446813
148	0x3f8d347e	1.1031644
149	0xbe385b97	-0.18003689
150	0x3e8d89a2	0.27644068
151	0xbd0a08b6	-0.033699714
152	0xbd25b293	-0.040453505
153	0xbf3540cd	-0.70802003
154	0xbe0da094	-0.13830787
155	0x3ee91357	0.45522568
156	0xbe48ce02	-0.19609836
157	0x3edfc962	0.4370833
158	0xbe3bc311	-0.1833613
159	0x3f12587d	0.5716627
160	0x3f33e1c3	0.7026636
161	0x3f6b759c	0.9197633
162	0x3c7e5b81	0.015524746
163	0x3f23304b	0.63745564
164	0xbf6fe418	-0.9370742
165	0xbe986923	-0.29767713
166	0x3e60279c	0.2189011
167	0xbe959c06	-0.292206
168	0xbdc62dad	-0.09676681
169	0x3eb18930	0.34674978
170	0xbda5064c	-0.08057842
171	0x3f3eeaa2	0.7457677
172	0xbe1fc44e	-0.15602228
173	0xbdb609fd	-0.08888624
174	0xbf2f897c	-0.6856916
175	0x3e9232a9	0.28554276
176	0x3f92d1e9	1.147031
177	0xbed15ee8	-0.4089272
178	0xbe4d08a4	-0.20022827
179	0x3f6d692a	0.9273859
180	0xbe526016	-0.20544466
181	0xbe9ca7ef	-0.30596873
182	0x3ea6fa98	0.32613063
183	0xbe814646	-0.25248927
184	0x3d1802e4	0.03711213
185	0xbf1cf020	-0.613039
186	0x3cd4b015	0.025962869
187	0x3e71e591	0.23622729
188	0xbdab2dd8	-0.083583534
189	0xbe12e4f7	-0.14345156
190	0xbe35b424	-0.177445
191	0xbeab3ce2	-0.33444887
192	0xbe8da3d1	-0.27664044
193	0xbe24e610	-0.16103387
194	0xbe4471a2	-0.19183972
195	0xbe8660dc	-0.26245773
196	0x3de33321	0.110937364
197	0xbe1e8296	-0.15479502
198	0x3cc6ea8c	0.024281763
199	0x3c9a5167	0.018837644
200	0xbe9a4a8f	-0.3013501
201	0xbe714163	-0.235601
202	0x3fc0303a	1.5014718
203	0xbf0358ca	-0.51307356
204	0xbe57080a	-0.2099916
205	0xbdb8382c	-0.08995089
206	0x3e0190d2	0.12652901
207	0xbe8aa897	-0.2708175
208	0x3d9df1de	0.07712148
209	0xbf243913	-0.6414959
210	0xbe033da4	-0.12816483
211	0x3ece989d	0.4035081
212	0xbcdb1d56	-0.026747387
213	0xbe98ef9c	-0.29870307
214	0xbf3c57c7	-0.7357144
215	0x3e8fc8f7	0.28083012
216	0x3f1d0bb9	0.6134601
217	0x3d033d9f	0.03204119
218	0xbd65d2ef	-0.056109365
219	0x3e9ee0e5	0.31030956
220	0x3dffb304	0.124853164
221	0x3f05d373	0.5227577
222	0x3f935ed0	1.151331
223	0x3f2ae903	0.667618
224	0xbc77aa75	-0.015116324
225	0xbf6bb3fa	-0.920715
226	0xbe854213	-0.26026973
227	0xbf241f0b	-0.6410987
228	0xbede3875	-0.43402448
229	0xbe953a0d	-0.29145852
230	0xbe0a584c	-0.13510245
231	0xbe1507d9	-0.14553775
232	0x3f49be58	0.78806067
233	0xbd890b17	-0.06691568
234	0x3ec3b75e	0.38225836
235	0x3f77bcdb	0.96772546
236	0xbe8920fc	-0.26782978
237	0x3e97c746	0.2964422
238	0x3e72db13	0.23716383
239	0xbee3b4f3	-0.4447399
240	0x3ec9d9c1	0.39423946
241	0x3e1577db	0.14596502
242	0xbe8b5ea5	-0.27220646
243	0x3e0146f5	0.12624724
244	0xbe3e741b	-0.18598978
245	0x3f34b329	0.70585877
246	0x3f5f91d0	0.8733187
247	0x3f679167	0.9045624
248	0x3bcb9147	0.006212387
249	0xbe9c6c2a	-0.30551273
250	0xbcfeb1a5	-0.031090567
251	0xbe05f3e1	-0.13081314
252	0x3e87d142	0.2652684
253	0xbf51710f	-0.8181314
254	0x3eee58e1	0.46552184
255	0x3fa68918	1.3010588

stage2.1.branch2.1.weight f4 [16]
0	0x3f6bc4d5	0.92097217
1	0x3f8a2d35	1.0795046
2	0x3f96e835	1.1789614
3	0x3fb0a89c	1.3801455
4	0x3b60e8c4	0.0034318427
5	0x3b5abb64	0.0033375854
6	0x3fa2a792	1.2707388
7	0x3baaeceb	0.005216231
8	0x3c4b40f6	0.012405625
9	0x3f914b50	1.1351109
10	0x3fa18e10	1.2621479
11	0x3f8c9598	1.0983152
12	0x3f58d66b	0.84702176
13	0x3f93269a	1.1496155
14	0x3f8bd8f7	1.0925587
15	0x3fa2e2c9	1.2725459

stage2.1.branch2.1.bias f4 [16]
0	0x3ea3e3da	0.32009774
1	0x3f47ef08	0.7809911
2	0x3f353463	0.7078306
3	0x3f0a61e6	0.5405563
4	0xb9a706e3	-0.00031857853
5	0xb9b32b3b	-0.0003417375
6	0x3eb82ce8	0.3597176
7	0xba6a4487	-0.0008936603
8	0x3bb77f78	0.0055999123
9	0x3ee4f22f	0.4471602
10	0x3ea450b9	0.32092836
11	0x3f836c80	1.0267487
12	0x3eecf4ae	0.46280426
13	0x3f2e9dfa	0.68209803
14	0x3f937f3d	1.1523205
15	0x3da35637	0.079754286

stage2.1.branch2.3.weight f4 [16, 1, 3, 3]
0	0x3ec8858a	0.39164382
1	0xbec3c302	-0.38234717
2	0x3e95a999	0.29230955
3	0x3e13793a	0.14401713
4	0xbfc9aa1d	-1.575504
5	0xbf4e627f	-0.80619043
6	0x3f1520ee	0.5825337
7	0xbf13ed41	-0.57783896
8	0x3d22358b	0.039601844
9	0xbc8f6378	-0.017503485
10	0xbd7a2d1f	-0.061078187
11	0xbea48bc6	-0.3213789
12	0x3b9face7	0.0048729065
13	0xbfb187fd	-1.3869625
14	0x3ec6166e	0.38688987
15	0x3e7b5723	0.24544959
16	0x3fba2958	1.4543867
17	0xbe2b59b2	-0.16733435
18	0xbe6fdae4	-0.23423344
19	0xbe7e9b1a	-0.24863854
20	0xbe1970de	-0.14984462
21	0xbea50583	-0.32230768
22	0xbfb8f7e0	-1.4450645
23	0xbd359c71	-0.044338647
24	0x3efe19eb	0.4962915
25	0x3fb64154	1.4238687
26	0x3b47115d	0.003037534
27	0x3e0c819b	0.13721316
28	0xbf088488	-0.53327227
29	0x3e8e2a02	0.27766424
30	0x3f402d19	0.75068814
31	0xbf956368	-1.1670961
32	0xbe54bd2a	-0.20775285
33	0xbec300d0	-0.38086557
34	0xbf60d898	-0.87830496
35	0x3fb801e7	1.437558
36	0x3a90347d	0.0011001971
37	0xb96dad77	-0.00022666702
38	0x39a6ad4b	0.000317911
39	0xba4b07af	-0.00077449804
40	0xba6d0d7a	-0.00090428407
41	0x3a84c619	0.0010129838
42	0x39df7b7a	0.00042625872
43	0x399776b7	0.00028889414
44	0x3a87c31f	0.0010357833
45	0xba871bf5	-0.0010308014
46	0x3a093d12	0.00052352354
47	0xba23ff11	-0.00062559644
48	0x3a547bea	0.0008105623
49	0x3a8c3238	0.0010696119
50	0x3a9a89a0	0.0011790283
51	0x39579127	0.00020558071
52	0xb9e70fc5	-0.00044071503
53	0xba6698da	-0.00087965804
54	0xbea90c1c	-0.3301705
55	0x3e132724	0.143704
56	0x3e5ebd11	0.2175181
57	0x3cb2293a	0.021748174
58	0xbf9bba6e	-1.2166269
59	0x3fce7609	1.6129771
60	0x3e5b9ae3	0.21445803
61	0x3e4c3a0b	0.19944017
62	0xbf7238a7	-0.94617695
63	0x3b1ba123	0.0023747168
64	0x3a22e476	0.0006213853
65	0x3aa744fb	0.0012761647
66	0x3b022a98	0.0019861814
67	0xb9141f79	-0.00014126104
68	0x3b0e60a7	0.002172509
69	0xb93f9701	-0.00018271433
70	0x3a8d6d2b	0.0010789981
71	0x3ab4a595	0.0013782257
72	0x398fd72e	0.00027435407
73	0x3b47ef8f	0.0030507778
74	0x3b42557c	0.0029653003
75	0x3b408710	0.0029377379
76	0x3b9bb90d	0.0047522844
77	0x3b9ab811	0.0047216495
78	0x3b28f928	0.0025783274
79	0x3bb57268	0.00553732
80	0x3b340ef7	0.002747474
81	0x3e72a9c1	0.23697568
82	0xbed4a3d8	-0.41531253
83	0xbe610b62	-0.21976998
84	0x3e8b7553	0.2723795
85	0x3f9d6d5d	1.2299
86	0xc0009c24	-2.00953
87	0xbec7c635	-0.39018407
88	0xbded3b0d	-0.11583529
89	0x3f8f17f3	1.1179184
90	0xbbd23b11	-0.0064157327
91	0x3ee46aee	0.4461283
92	0xbe85fb31	-0.26168206
93	0x3f0f4f29	0.55980164
94	0xbb8109da	-0.003937942
95	0xbf8b598c	-1.0886703
96	0xbea6e527	-0.32596704
97	0xbf9d53f5	-1.2291247
98	0x3fccc45e	1.5997427
99	0x3cfcf685	0.030879268
100	0xbe714fcc	-0.23565596
101	0xbe24cf86	-0.16094789
102	0x3f477c3c	0.7792394
103	0x3f657036	0.89624345
104	0x3f67ff45	0.90623885
105	0xbf84ce30	-1.0375423
106	0xbf756840	-0.958622
107	0xbf2dc908	-0.67884874
108	0xbdb82ce5	-0.08992938
109	0xbb8223e1	-0.0039715623
110	0xbe6c287e	-0.23062322
111	0xbe294f94	-0.16534263
112	0xbf6147f3	-0.8800041
113	0xbf13d398	-0.5774474
114	0xbe4cf25d	-0.20014329
115	0xbdb19867	-0.086716466
116	0xbe8f9c0a	-0.28048736
117	0xbe2f8f5a	-0.17144528
118	0x3ef65edc	0.48119247
119	0xbe864e51	-0.26231626
120	0xbf27f83f	-0.6561317
121	0x400d0e11	2.2039835
122	0xbfaef47d	-1.3668362
123	0xbbdfbea8	-0.006828148
124	0x3e7d2cbe	0.24724099
125	0xbd9d9cc4	-0.07695916
126	0x3e20cdc4	0.15703493
127	0xbdea61b9	-0.1144442
128	0xbd8d128c	-0.06888303
129	0x3e866b9c	0.26253974
130	0x3fcc2b5c	1.5950732
131	0x3e752d87	0.23943149
132	0xbf1ad3e7	-0.6047959
133	0xbfab5c25	-1.3387495
134	0xbef43e2c	-0.47703683
135	0xbcb6da51	-0.022320898
136	0xbea7b86f	-0.327579
137	0x3e92ea10	0.286942
138	0x3f090f52	0.53539
139	0xbfeb386d	-1.8376595
140	0x3f9a8f0d	1.2074906
141	0x3e6eb9f3	0.23313121
142	0xbf13492d	-0.5753353
143	0x3e3d40f6	0.18481812

stage2.1.branch2.4.weight f4 [16]
0	0x3fb3941c	1.4029574
1	0x3fa407b0	1.2814846
2	0x3f9df73a	1.2341073
3	0x3f89a7b9	1.075431
4	0x3c540b20	0.0129421055
5	0x3c89604a	0.016769547
6	0x3fa8d02d	1.318853
7	0x3cba9976	0.022778254
8	0x3d1e1d06	0.038601898
9	0x3fafca5d	1.3733631
10	0x3fbefeb9	1.4921485
11	0x3faed8f4	1.3659959
12	0x3fa753b6	1.3072422
13	0x3fb7da24	1.4363446
14	0x3fb4aea8	1.4115801
15	0x3fb453be	1.4088056
