independent_train_1000.0/client34/checkpoint_1000.0.pth (torch, 225067 bytes, 29 tensors)

conv1.weight f4 [24, 3, 3, 3]
000000 7d 40 61 3e 3e 92 f9 3e f0 d9 52 3e 23 d4 19 3f
       0.21997257 0.48744386 0.20590949 0.6008932
000010 56 ec 6e 3f 0e 15 1b 3f 27 3e 8a 3d 63 4e c8 3e
       0.9332937 0.60579 0.06750136 0.39122304
000020 fc 19 c4 3d f4 34 0c bd 9f 91 b1 bd 33 62 65 3c
       0.095752686 -0.034230188 -0.08670353 0.014000463
000030 89 61 12 be 58 57 6a be de bf e5 bd b0 70 c3 bd
       -0.14295019 -0.22884881 -0.112182364 -0.09542978
000040 a0 df 44 be fa 40 df bd 6a d1 1b be 48 77 e2 be
       -0.19225931 -0.10901065 -0.15216604 -0.4423163
000050 87 a8 41 be d0 5a bc be cb 3e 31 bf 9c ac cb be
       -0.18911944 -0.36788034 -0.6923644 -0.39780128
000060 6f 78 4d 3c 50 bf 91 be e6 0c 90 bc f3 9e bb bf
       0.012540921 -0.28466272 -0.017584275 -1.4657882
000070 b6 4b da bf 7c f4 ba bf ba 0b 1e 3f ee 99 72 3f
       -1.7054355 -1.4605861 0.61736643 0.9476613
000080 70 21 32 3f dc 04 55 3f c5 75 99 3f b6 54 3f 3f
       0.6958227 0.8321054 1.1989065 0.74738634
000090 b7 fb 75 bf 73 17 9f bf b3 2f 7f bf 4c 67 ba 3e
       -0.9608721 -1.2429031 -0.9968216 0.36406934
0000a0 f6 59 21 3f 86 46 f1 3e 3c 62 ca 3e 9a 08 35 3f
       0.63027894 0.47124118 0.39528072 0.7071625
0000b0 18 f8 d9 3e 46 ad 96 bd 79 93 07 bf d9 46 4a be
       0.42572093 -0.07357268 -0.529594 -0.19753589
0000c0 6f 6b 64 3e 8c 1a 55 3e 3c a3 8c 3e b5 7a 04 be
       0.22306608 0.20810908 0.27468288 -0.12937434
0000d0 d1 ba 12 be 4e c5 e0 bd 93 46 37 bd 21 b7 97 3e
       -0.14329077 -0.10975133 -0.04474504 0.29631904
0000e0 e5 6c 5f bc ab e0 c9 3d 5e 5f e3 3e b6 cb 78 3e
       -0.013636802 0.09857305 0.44408697 0.2429646
0000f0 a7 d8 65 bd f9 5f 83 3e 65 fd 16 3e f4 e8 56 3e
       -0.05611482 0.2565916 0.147451 0.20987302
000100 f5 ad 83 3e af ab 47 3e 55 03 c8 bd 1e 9d a2 bd
       0.25718656 0.19499086 -0.097662605 -0.07940124
000110 15 6d 59 bd bb 8f e8 bd 6b f6 16 be 7b 6a 41 bd
       -0.053082544 -0.113555394 -0.14742438 -0.04722069
000120 78 e5 18 3e e5 72 3b bd da d6 bd 3c 2d 7e b4 be
       0.14931285 -0.04576387 0.023173738 -0.35252514
000130 4b a0 23 bf cf 9f e5 be 09 ea 80 be 93 30 0e bf
       -0.6391646 -0.44848487 -0.25178555 -0.5554287
000140 42 c6 a6 be 87 0e a0 3c c9 0a 33 bd ed 6f 76 3e
       -0.32573134 0.019538177 -0.043711457 0.24066134
000150 dc 19 9f 3f 84 d6 2b be 52 34 a1 bf 6f 41 bd 3e
       1.2429767 -0.1678105 -1.2594092 0.36963984
000160 8f f9 1c be f3 25 64 be 17 50 37 3f 5e 45 a4 be
       -0.15329574 -0.22280101 0.7160658 -0.32084173
000170 76 a4 1f bf ce 95 0b 40 45 a5 88 be 15 fa 05 c0
       -0.6236032 2.1810184 -0.2668859 -2.0933888
000180 70 d0 8f 3f c0 df 6a be 2f 62 5d bf fa 6d 85 3e
       1.1235485 -0.22936916 -0.8647794 0.26060468
000190 39 90 85 be d2 7d 0f be 84 7e e6 3f b5 74 05 be
       -0.26086596 -0.1401284 1.800736 -0.13032801
0001a0 c7 0a d1 bf f6 8a 74 3f 2f 9c 0f be 2a 7d 3f bf
       -1.6331414 0.9552454 -0.14024423 -0.7480036
0001b0 00 fa 40 bf 9e 90 d1 3d 76 59 3c 3f 50 19 66 3f
       -0.7538147 0.10232662 0.73574007 0.89882374
0001c0 87 42 10 40 92 91 b0 bf 90 c0 79 bf fb 70 65 3f
       2.2540605 -1.3794425 -0.9755945 0.8962552
0001d0 91 b2 06 bf 40 54 1d bf b2 e7 82 bd 8e bc 84 3e
       -0.5261622 -0.6145668 -0.063918486 0.25925106
0001e0 89 47 dd 3e 8b 8b ce 3f 99 7c 08 c0 ad 0a 88 bf
       0.4321864 1.6136335 -2.1326048 -1.0628258
0001f0 24 03 4b 3f d7 e0 bc be 4d a9 13 bf 19 d3 a8 be
       0.7930167 -0.3689029 -0.5768021 -0.32973555
000200 db 3d 0d 3f f8 1d 9b 3e ee e0 a5 3f 52 d1 bf bf
       0.5517251 0.30296302 1.2959268 -1.4985754
000210 5e d6 38 bf 94 89 4f 3f a2 af 81 3e aa 0d 61 3e
       -0.722021 0.810693 0.2532931 0.21977869
000220 53 46 5e bc 5e 1a 03 3e 95 41 fd bd 8b 1b a4 be
       -0.013566571 0.12803027 -0.123660244 -0.32052264
000230 ce db 66 be b3 29 33 3d 7b 42 c0 bd 6a 59 9f bd
       -0.22544786 0.04374094 -0.0938768 -0.07780726
000240 3d 2e dc be 21 eb 11 bf ff d6 ea be b6 c8 13 bf
       -0.43004027 -0.56999403 -0.45867154 -0.57728136
000250 04 9a 23 bf 88 45 19 bf 29 eb 25 bf be 0e 34 bf
       -0.63906884 -0.5987172 -0.6481195 -0.70334995
000260 f1 cc 30 bf b8 1d bf 3c 91 07 b3 3e 1b cb fe 3d
       -0.69062716 0.0233296 0.3496671 0.12441083
000270 25 87 4c 3f 44 22 a1 3f 24 ae 6a 3f fe 64 d1 3e
       0.79893714 1.2588582 0.9167197 0.40897363
000280 a8 07 5e 3f 52 ba fe 3e 33 d5 cb be 2a 72 2c bd
       0.8673043 0.49751526 -0.39811096 -0.042101063
000290 ab d0 fa be 91 f0 2f 3f 5b 5d a4 3f 7d 87 30 3f
       -0.48987326 0.6872645 1.284099 0.6895674
0002a0 14 9c b7 3e c5 65 73 3f 61 ce b5 3e 08 d0 1f be
       0.35861266 0.95077163 0.35509017 -0.15606701
0002b0 8b 6b eb be 2e 55 db bd f4 26 62 bf 26 73 9e bf
       -0.45980486 -0.10709606 -0.8834069 -1.237889
0002c0 b8 9e 3f bf 16 93 35 bf 8f ef 8a bf 99 66 25 bf
       -0.7485156 -0.7092756 -1.0854357 -0.64609677
0002d0 9a 0e 13 3f 2a 6e cb 3e d2 d2 0b 3f a2 aa 48 3e
       0.57444155 0.39732486 0.5461856 0.19596341
0002e0 61 24 9b bc 48 0b 63 3e fa d4 f5 3d 00 fa 0f be
       -0.018938245 0.22172272 0.12003513 -0.14060211
0002f0 81 aa c8 3d 54 80 9e 3e 80 5d 05 3f 66 09 bf 3e
       0.09798146 0.30957282 0.52095795 0.37311858
000300 16 57 cd 3e a6 2c 2f 3f f4 ca 1b 3f 31 0d 5b be
       0.40105504 0.68427503 0.60856557 -0.21391751
000310 65 4e 2b bc ab ef e6 3c 2c db 0d 3e 31 14 89 3e
       -0.010455702 0.028190454 0.13853139 0.26773217
000320 33 a6 96 3e 5b ae 8c bc 33 75 c8 3d 64 d9 4f 3e
       0.29423675 -0.017172983 0.09787979 0.20297772
000330 2c 7e c5 be 90 fe bf be fe 92 65 be c0 5d 64 b9
       -0.38572824 -0.37498903 -0.22419354 -0.00021778699
000340 9e 1f fa bb 44 fb e4 3d 4d f2 51 be bc 1c 61 be
       -0.0076331636 0.111807376 -0.20502587 -0.21983618
000350 64 1b 19 bd f6 20 82 be 64 71 96 be dd 3d e2 bd
       -0.037379637 -0.25415772 -0.29383385 -0.11046956
000360 d1 83 52 bd 6a f5 74 3f 85 e4 a1 3d 4f d8 78 3f
       -0.05139524 0.9568697 0.07904915 0.9720506
000370 8e 79 bd bf da 2d 2b 3f 36 61 45 3e c4 4c 4d bf
       -1.480272 0.6686684 0.19275364 -0.8019526
000380 46 a5 0a 3f 4a ce a8 3d 22 7a 9b 3e 73 eb de 3d
       0.5415844 0.082424715 0.30366617 0.10884752
000390 36 b4 cb 3e 36 18 31 c0 29 dd ad bd 04 c9 25 3f
       0.39785928 -2.7671027 -0.084894486 0.6475985
0003a0 b2 b5 3e bf 82 e8 84 3f a3 06 2f be 4b 08 0e 3f
       -0.74495995 1.0383456 -0.17092375 0.55481404
0003b0 8c 57 39 3e ea 03 ac 3e 90 c3 00 c0 04 0e 3d 3e
       0.18099803 0.33596736 -2.0119362 0.18462378
0003c0 c7 af ca 3e ae 4a d7 be dd a4 87 3f 3a 8f 8b be
       0.39587232 -0.42049164 1.0597187 -0.2725771
0003d0 dd b5 1d bf 15 72 a4 be d7 e7 0a bf e9 0f 6b bf
       -0.61605626 -0.32118288 -0.5426001 -0.9182115
0003e0 57 25 20 bf ff d8 0b bf cf 54 6d bf bf 0f 18 bf
       -0.62556976 -0.54627985 -0.9270753 -0.59399027
0003f0 f6 5f 1d 3f 6c af 45 3f 17 be 25 3f 6f f0 88 3f
       0.6147455 0.772208 0.6474318 1.0698375

dense1.0.bn1.weight f4 [24]
000000 62 fa 30 3f b2 f9 dc 3e 16 bc 11 3f de 60 4c 3f
       0.69132054 0.43159252 0.5692762 0.7983531
000010 ea 05 f5 3f 4d b9 be 3e 1f 61 a9 3f bd b6 18 3f
       1.914243 0.37250748 1.3232764 0.59653836
000020 b5 89 06 40 8f 91 b6 3e 26 f7 f0 3e 9f ce f1 3e
       2.102155 0.35657927 0.4706356 0.47227952
000030 84 b0 b6 3e 06 b9 e5 3e 5c c7 77 3f 71 52 83 3f
       0.35681546 0.44867724 0.96788573 1.0259534
000040 d3 9b a1 3e 31 7d c8 3e 50 ea 97 3e ca c0 0e 3f
       0.31564197 0.39158013 0.29670954 0.5576292
000050 87 9e d9 3e 24 fc 6a 3f bc 8a aa 3e 72 6c 09 3f
       0.4250376 0.91790986 0.3330897 0.536811

dense1.0.bn1.bias f4 [24]
000000 f9 9d 0b bf 84 6d c2 be d0 0b 21 bd c5 2d 09 3f
       -0.5453792 -0.3797418 -0.039317906 0.53585464
000010 1a 34 22 3f 87 bf 84 be ec e6 99 bf 52 89 f1 be
       0.6336075 -0.25927374 -1.2023597 -0.4717508
000020 f6 47 1c 3f 3c b8 15 be 7e 1f 43 be 54 f2 a5 3d
       0.61047304 -0.14621061 -0.19054982 0.08102861
000030 10 a4 e5 3d 17 bf a6 3e 64 fe a4 3e 4c df 38 3e
       0.11212933 0.32567665 0.32225335 0.18053931
000040 da 65 67 be f2 69 93 be c8 90 9d be 56 db 84 3e
       -0.22597447 -0.28791767 -0.30774522 0.2594859
000050 4b b7 03 bf a6 0a 1b 3f e6 91 b7 3d 16 f2 6e be
       -0.5145156 0.60563123 0.08963375 -0.23334536

dense1.0.conv1.weight f4 [12, 24, 3, 3]
000000 7c d8 8b 3d c5 1e 1e bc 49 33 21 3e 92 63 02 bb
       0.068284005 -0.009650891 0.1574222 -0.0019895774
000010 5e d6 02 be da c5 2b 3d e6 c2 0e 3d 23 07 19 be
       -0.12777087 0.041936733 0.03485384 -0.14944129
000020 ee 94 7e 3b 36 be c9 3c 9b 12 34 be d9 e1 f3 3d
       0.0038846093 0.024626832 -0.17585222 0.119083114
000030 3b 75 8f bd 1b c6 48 be 4a fd 8c 3c 3b 03 d6 3c
       -0.07004782 -0.19606821 0.017210621 0.026124587
000040 fa d8 40 3c c5 6f 80 3b ca 6c ad 3d 01 76 aa bc
       0.011770481 0.003919574 0.084680155 -0.020808222
000050 ca 0b 83 3e 2f c6 88 3d da 01 91 bd 1e db 72 3e
       0.25594932 0.066784255 -0.07080431 0.23716399
000060 f4 48 d9 bb 66 03 4f be b9 3b a5 3d 13 c4 49 3e
       -0.006631011 -0.2021614 0.08068032 0.19703703
000070 47 f0 2f be bb 97 98 be 6c b7 89 3f 1e ab f1 bb
       -0.17181502 -0.2980326 1.0759101 -0.007375135
000080 51 b0 6c bf 66 fe 2a be 98 74 f9 bd 3f d2 a9 be
       -0.9245654 -0.16698608 -0.121804416 -0.33168218
000090 82 15 03 3f a2 6b a4 bf 41 a1 26 3f a8 e4 b4 3f
       0.51204693 -1.2845347 0.65089804 1.413228
0000a0 ca f0 df bf 03 a0 a2 3e 5b 83 98 3e 08 0b 4c bf
       -1.7495358 0.31762704 0.29787716 -0.7970433
0000b0 14 b3 c6 3e 0b a1 0d bd 62 e7 c2 bc 9c 81 35 3d
       0.388085 -0.03457741 -0.023791973 0.04431306
0000c0 7a ab b0 bd a0 e3 e0 bd 09 47 26 bd 25 10 df 3b
       -0.086264566 -0.10980916 -0.04059509 0.0068073445
0000d0 65 e1 90 bc 0c d3 ee 3c cd aa 2a be f4 cb 39 be
       -0.017685601 0.02915337 -0.16666718 -0.18144208
0000e0 db 65 21 bc f1 67 ce bd 27 2f 33 be e8 2b 08 bd
       -0.009850944 -0.10078419 -0.17498456 -0.033244997
0000f0 d4 a3 68 3d f2 c1 91 bd 08 97 06 bd 74 12 13 3b
       0.056796864 -0.0711707 -0.03285888 0.002244142
000100 2f 37 23 3d 6d a8 b4 3d 68 bb de bd 24 e7 b5 bd
       0.03984755 0.08821187 -0.10875589 -0.08881977
000110 87 9e ac 3d f4 5f 14 bd ec f8 b5 bb 16 a4 30 3e
       0.08428674 -0.03622432 -0.0055533554 0.17250094
000120 f0 fa 9e be b7 c4 5a 3f 1e 3b 1a bf 8a 9a 16 bf
       -0.31050825 0.85456413 -0.60246456 -0.5882956
000130 68 e5 be 3f f3 30 86 bf 32 a2 52 be 12 70 ff 3d
       1.4913759 -1.0483688 -0.20569685 0.124725476
000140 89 5a 4e be a9 10 58 3d 7e 4c 00 bd 70 d3 a0 3d
       -0.20151724 0.052750263 -0.03132295 0.078528285
000150 81 b3 a4 3d bd 6b 79 bc c2 d3 65 3d 43 de ec 3d
       0.0804205 -0.015223441 0.05611015 0.115658306
000160 24 b5 3e bc 71 6b 29 3d c1 18 fb 3d be e2 57 3c
       -0.011639867 0.04136223 0.12260581 0.013176618
000170 c2 23 4b 3d 93 91 8c 3d 2e ed 87 bd 79 e6 5b ba
       0.04959465 0.068637036 -0.06637035 -0.000838853
000180 61 66 cf 3d 19 ca 79 ba fd c2 43 3d d2 8b 3f bc
       0.10126949 -0.0009528711 0.047793377 -0.011691051
000190 c1 c8 bc bd 15 f2 cb 3d 86 16 8f bd d9 05 14 be
       -0.09217978 0.09958283 -0.06986718 -0.14455356
0001a0 22 31 6a 3d 76 95 73 3d 82 0b 25 bd 62 09 e5 3d
       0.057175763 0.05946871 -0.040294178 0.1118343
0001b0 fd c5 11 3e a0 9a b1 bc 7a 94 9d 3d a3 96 4e 3d
       0.14235683 -0.021680176 0.07694335 0.050436627
0001c0 40 6b 9d bd 7f 73 a7 bc c8 a2 be 3d 41 a9 0d bd
       -0.07686472 -0.020440815 0.09308392 -0.03458524
0001d0 a7 af 03 3d 3c c2 0e bd f5 72 13 bd 95 8c 90 3d
       0.032149937 -0.034853205 -0.035998303 0.07058064
0001e0 2e 28 21 3d 8f 74 9e bd c2 4d 2f 3e fd a3 5a 3e
       0.03934496 -0.077370755 0.17119506 0.21351619
0001f0 09 19 f1 3c 89 6e a4 3e 4d 38 82 3e b8 59 1f be
       0.029430883 0.32115582 0.2543358 -0.15561569
000200 01 31 7d 3e 31 40 79 3e 12 c5 74 be 93 61 24 3d
       0.24725725 0.24340893 -0.23903301 0.040132117
000210 4f ba f7 3c 32 08 5a be db ab 5f bd 70 87 61 ba
       0.030240206 -0.21292189 -0.054607254 -0.00086032506
000220 ff 4c 82 3d 0c 40 cc 3d 93 0a 30 be da dd 87 3d
       0.06362342 0.099731535 -0.17191534 0.06634112
000230 49 a3 f8 3d 23 1d 3f be 8d 1e 83 bc 15 90 06 3e
       0.12140519 -0.18663459 -0.016005779 0.131409
000240 b8 fe ec b8 36 6b 4c bd bb 79 92 bc c2 ef 23 3d
       -0.00011300802 -0.04990693 -0.017880311 0.040023573
000250 80 72 55 3b c3 13 ad bc 60 c0 96 3d 50 d1 3f 3d
       0.0032569468 -0.021127587 0.07360911 0.046830475
000260 a5 83 0c 3c f4 6b 77 3d aa 97 51 3c 16 cb 3e 3d
       0.008576308 0.060405686 0.012792507 0.046580397
000270 36 78 d2 3c df ae 00 bd 96 83 88 3c bb f7 01 bd
       0.025692087 -0.03141677 0.016664308 -0.031730395
000280 b0 38 b9 bd e1 c7 84 bd ff a7 54 bd bb c7 80 bd
       -0.090440154 -0.064834364 -0.051918026 -0.062880956
000290 2a e8 f4 bc 32 f1 82 bd 96 0f bc bd 85 29 36 bd
       -0.02989586 -0.063936606 -0.0918266 -0.04447319
0002a0 6f f9 c5 3c 71 7b a5 bc c5 5e 34 3b 69 99 8a bc
       0.02416679 -0.020200463 0.0027522307 -0.016918855
0002b0 33 ce 04 be d2 d7 04 bd f9 92 d2 3e 83 d8 b9 bd
       -0.12969284 -0.032432385 0.41127756 -0.090744995
0002c0 74 02 2d be 8c f8 82 3e 6d f3 43 be 3c 06 86 be
       -0.16895467 0.2558025 -0.19135828 -0.2617663
0002d0 ed ab 6a bd 63 45 33 be 49 e2 1a bd 38 d9 8a 3b
       -0.057292867 -0.17506938 -0.03781346 0.0042373203
0002e0 ae 70 a5 bd 81 9f 01 3d ff bf f0 3d 4d cf e6 3d
       -0.080781326 0.031646255 0.1175537 0.11270008
0002f0 90 af 1f 3e e3 96 4d bf 53 54 15 3d 71 27 17 3f
       0.15594316 -0.8030836 0.03645737 0.5904456
000300 11 31 66 bf 2d b9 bb be e4 30 dc 3f 89 87 19 be
       -0.8991862 -0.36664715 1.720242 -0.14993109
000310 24 b7 53 bf d7 cf 7a 3e 65 d0 2c 3d 6d fd 80 bd
       -0.82701325 0.24493347 0.042190928 -0.06298337
000320 a7 b9 35 bb 63 fa 62 3d 76 25 e5 3b 46 c5 66 3d
       -0.0027729066 0.05541457 0.006992991 0.05634048
000330 93 4e 8d bd a5 eb 00 be f5 8c 9c bc ca cc 09 3e
       -0.068997525 -0.12589891 -0.019110182 0.13457027
000340 02 5f 1d 3e ad 79 74 3e 4f 45 05 3e b2 7f 04 3e
       0.15368274 0.2387454 0.1301472 0.12939337
000350 52 1a 96 3e 2d 36 23 be 00 40 84 be 23 e6 9f bd
       0.29316956 -0.15938635 -0.25830078 -0.07807567
000360 8d cf 93 be 52 64 2b be 1e b9 5d be 27 54 36 be
       -0.28869286 -0.16737488 -0.21652648 -0.17805539
000370 de 3c f4 bc 42 bc da bd be ca 81 be ec d9 05 be
       -0.02981418 -0.106804386 -0.25349993 -0.13071412
000380 06 03 5b be 96 75 2c 3e 12 ca 37 3e a3 ac 62 3e
       -0.21387872 0.1684173 0.17948177 0.22136168
000390 86 aa 9f 3d 6f c2 8b 3d a6 a5 8c 3d a9 b9 d3 3c
       0.07796197 0.06824195 0.068675324 0.025845366
0003a0 fd fb 23 bc dc 49 1f bd 69 c4 a9 3d f1 54 15 3e
       -0.010008809 -0.038888797 0.082894154 0.14583184
0003b0 30 f4 88 3d b6 c5 39 3e ab 2b 85 3e 18 e6 32 3e
       0.066872 0.18141827 0.2600988 0.17470586
0003c0 f2 95 96 3d 65 7e 28 3e 7c 70 8a 3d ae f3 41 bd
       0.073528185 0.16454466 0.06759736 -0.04735153
0003d0 68 1a 0d 3e da 90 e4 bc c3 b1 58 3c fa 68 44 3e
       0.13779604 -0.027901102 0.013225975 0.1918067
0003e0 3e 35 21 bd 22 9a 5e bd 90 95 0f 3e 8e 52 08 3c
       -0.039357416 -0.05434621 0.14021897 0.008320464
0003f0 d9 7c 9d be fe f2 c4 bd 0c 2e 90 be 69 0c fb 3d
       -0.30759314 -0.096166596 -0.2816013 0.122582264

dense1.1.bn1.weight f4 [36]
000000 b5 c3 09 3f a0 a8 52 3f f0 04 98 3e 5e 10 41 3f
       0.5381425 0.8228855 0.29691267 0.754156
000010 ee c0 4a 3f 17 76 2b 3f 4c 59 74 3e 52 d8 47 3f
       0.7920064 0.66977066 0.23862189 0.78064454
000020 69 e1 09 3f a6 3b 03 3f e3 e2 c9 3e bc 0d db 3e
       0.53859574 0.5126289 0.39430913 0.42783916
000030 1f f5 da 3e 7b bf 05 3f 4c 01 e1 3e a4 e9 6e 3d
       0.42765138 0.522453 0.43946302 0.058328286
000040 bc 20 bc 3e 56 e9 2d 3f cc 82 9c 3e 05 9a 09 40
       0.36743724 0.6793417 0.3056854 2.1500256
000050 7f 54 a8 3f 0e 51 06 40 a5 87 29 3f ee aa 6f 3f
       1.3150786 2.0986972 0.662226 0.93620193
000060 bf d0 b8 3f 68 05 58 3e 7f da bd 3f 0a c9 c1 3f
       1.4438704 0.21095812 1.4832305 1.5139477
000070 92 5b 08 3f 14 26 cf 3e 52 8c ba 3f bf f1 3a 3f
       0.53264725 0.4045874 1.4574072 0.73025125
000080 f7 78 0b 3f 88 f6 80 3f bc f2 b0 3f e4 df d9 3f
       0.5448145 1.0075235 1.3824077 1.7021451

dense1.1.bn1.bias f4 [36]
000000 3c 06 ae be 13 72 50 3e fe 40 48 be 94 f8 f1 be
       -0.3398913 0.20356016 -0.19556043 -0.47259963
000010 37 85 6b bd e8 b4 8e be 4f 65 a2 3d 8d d8 cb be
       -0.05750009 -0.27872396 0.07929479 -0.39813653
000020 d9 a6 0c be 3a ae 2c 3c eb 81 54 be b8 53 2d be
       -0.13735522 0.010539586 -0.20752685 -0.16926467
000030 f4 15 c0 be a2 3f 40 3e bd af 16 be 6c 4c d0 bc
       -0.3751675 0.18774274 -0.14715476 -0.025427066
000040 98 cb 94 be c9 79 4f bf 12 cc 8f be 80 05 2c bf
       -0.2906158 -0.81045204 -0.2808538 -0.6719589
000050 cb 76 b5 be ce cd 22 bf 41 41 fe bd 23 9d f2 be
       -0.35442194 -0.63595283 -0.1241479 -0.4738551
000060 da 65 b2 bd 1c 14 bd 3b ac 01 8f be 10 47 06 3e
       -0.08710833 0.0057702195 -0.27930963 0.13113046
000070 e7 9f 94 bb ac 43 4e be d2 d6 41 3e 89 fc cf be
       -0.0045356634 -0.20143002 0.18929604 -0.40622357
000080 e1 f8 06 be dd b6 85 be db 3e 9d 3d 46 6a ad 3e
       -0.13180877 -0.26116076 0.07678004 0.33870143

dense1.1.conv1.weight f4 [12, 36, 3, 3]
000000 da 64 d5 bd a8 0a 9a bd 4f 69 a5 bd 0d 97 a7 bb
       -0.104196265 -0.07521564 -0.08076727 -0.005114442
000010 8a d7 b5 3a cd eb fc bb aa 45 97 3d 3c 99 bf 3d
       0.001387344 -0.0077185393 0.07386334 0.09355399
000020 51 5a c2 3d 76 04 8a 3d ee 17 dc 3c 58 f1 e7 3d
       0.09489883 0.06739132 0.02686688 0.113253295
000030 d0 0f be 3d 52 96 ac 3d fe dc 14 3e aa 95 24 3d
       0.0928036 0.08427109 0.14537427 0.040181793
000040 42 52 06 bc 6c 2e 1b 3d bb b6 17 bc b9 11 2b bd
       -0.008198323 0.03788607 -0.009259875 -0.04176495
000050 89 54 d8 bc e1 a6 81 bb 56 3b b7 bc c8 00 8b bc
       -0.026407497 -0.003956661 -0.02236716 -0.016968146
000060 af dc 04 3b f7 13 5c bb 20 a7 11 bc 49 10 a6 3d
       0.002027314 -0.0033581236 -0.008889943 0.08108575
000070 77 8f 9d 3d e1 a0 14 3d b7 10 19 bd 0b 44 02 3d
       0.07693379 0.03628624 -0.037369456 0.031803172
000080 a3 1c d9 3b a1 09 f1 bd 04 9a 8e bd 9a 95 31 bd
       0.006625728 -0.11769415 -0.0696297 -0.04335556
000090 c4 bf b3 3c 55 6a ef bb 7e 0e 2c bd d8 83 b3 bc
       0.021942027 -0.007306377 -0.04200601 -0.021913454
0000a0 af 45 29 bd 06 47 95 bd 97 a5 97 bd e4 12 ba bd
       -0.04132622 -0.07288937 -0.07404631 -0.09085634
0000b0 5f fb c9 bd 3e eb 48 bd d3 2d 92 bd 64 d9 71 bd
       -0.09862398 -0.04905247 -0.071376465 -0.05904521
0000c0 f4 02 84 bc b2 e7 1b bd f6 61 8e bc 5c f9 76 3c
       -0.01611469 -0.03806276 -0.017380696 0.0150741
0000d0 d9 f6 8d bb 9d 60 3a 3c f0 88 5f 3d 5e b2 1d 3d
       -0.004332405 0.011375573 0.054573953 0.038500182
0000e0 d3 25 8d 3d 02 06 c8 3d 03 3c da 3d d2 4e ce 3d
       0.0689198 0.09766771 0.106559776 0.100736275
0000f0 3f 90 e0 3d d9 78 e5 3d fb 10 e4 3d 42 b3 a8 3d
       0.10965013 0.112046905 0.11136051 0.08237316
000100 4d fc b2 3d 44 06 cf 3d 87 93 1d 3c c0 b2 2b 3d
       0.08739529 0.10108617 0.009617693 0.041918516
000110 fd 00 64 3d c0 73 a5 3d 46 41 b1 3d 29 ea fc 3d
       0.055665005 0.08078718 0.08655028 0.1234935
000120 9a 8c 7e 3b 1b 15 23 bd 42 08 c1 bc 46 c6 79 bd
       0.003884113 -0.03981505 -0.023563508 -0.060980104
000130 2a 5d 8c bd 38 a1 06 bd bc 1d 14 bd d8 be 3b bd
       -0.06853707 -0.032868594 -0.03616117 -0.0458363
000140 7b 60 38 bd ef 1e a1 bd 98 d8 d9 bd 32 ac 36 bd
       -0.045013886 -0.07867228 -0.10637015 -0.044597812
000150 e6 c7 36 be c7 c0 47 be 4e 60 12 be 41 64 be bd
       -0.17849693 -0.19507132 -0.1429455 -0.09296466
000160 f4 7f e6 bd a1 45 8f bd 1c a4 96 3d 64 44 ad 3d
       -0.11254874 -0.069957025 0.0735552 0.0846031
000170 c4 9a c2 3d b7 cd 8f 3d bd 81 8b 3d ac e0 af 3d
       0.095021755 0.07021659 0.06811855 0.08587775
000180 a2 47 9d 3d 5f 91 96 3d 78 76 bf 3d cb a3 57 bd
       0.076796785 0.07351946 0.09348768 -0.05264644
000190 9a 3d 70 bd 48 8c 75 bd e4 06 e7 bb f3 2d 1c ba
       -0.058652498 -0.059948236 -0.007050382 -0.00059577747
0001a0 07 52 56 bc 50 d5 3e 3c 48 0d e7 3c a9 8d f0 3c
       -0.01308108 0.011647537 0.028204575 0.029364424
0001b0 89 7a 8c 3c 24 37 bd 3b aa 67 b7 3c 20 86 53 bc
       0.017148273 0.0057743955 0.022388298 -0.012910396
0001c0 84 18 d8 bc 70 8f 4b bb dc 7e a9 3b 2b 1a 8f bc
       -0.026378877 -0.0031060837 0.0051725935 -0.017468533
0001d0 0a 39 58 3b 5e 84 7b 3e 3a 03 93 3d 10 14 dc 3d
       0.0032992982 0.24562213 0.0717835 0.10746014
0001e0 0e b7 df 3c 08 e2 e0 bd 5c 5f 80 bd 22 6f 9f 3e
       0.027308967 -0.10980612 -0.06268188 0.31139475
0001f0 c1 84 33 3e aa f7 55 3e 70 2b 64 3c 8d f3 a4 3b
       0.1753111 0.20895258 0.013926372 0.0050339163
000200 2e b1 04 3d 08 51 1b bd 26 ba 02 bd 4a ee 6b bc
       0.032395534 -0.037919074 -0.031915806 -0.014400074
000210 a8 4e 53 bd f0 9f 9e bd 23 30 d8 bc d7 68 6b 3b
       -0.051588684 -0.077453494 -0.02639014 0.0035920644
000220 d3 2d b4 bb 77 98 3b 3b a7 d6 86 3b 70 ea 9d bb
       -0.0054986267 0.0028624812 0.004114944 -0.004819207
000230 c3 10 ad b9 0e 54 1c bc d7 8b 8d bc 3e 04 bf 3b
       -0.0003300962 -0.009541525 -0.017278595 0.005829363
000240 4d 18 06 3d 4f aa 48 3d b2 52 27 3d e4 0f da 3a
       0.03273802 0.048990544 0.04085035 0.0016636816
000250 cc 9c 44 3c 53 a6 58 3c f5 26 4c 3d 91 2f 21 3d
       0.012000274 0.0132232485 0.04984184 0.039352003
000260 d8 13 15 3d e6 0c d9 3d ca b3 cd 3d 86 76 d2 3d
       0.036395878 0.10598163 0.10044058 0.10276513
000270 ce ed 22 3e 6f 8c 47 3e f1 fa 47 3e a9 db 69 3e
       0.15911028 0.19487165 0.1952932 0.228377
000280 0c ff 80 3e f4 15 7a 3e 14 bd ae 3c f7 c5 7b 3c
       0.25194585 0.24422437 0.021330394 0.015367023
000290 f2 2c 85 3d 0b 4d 56 3d 9d 8c 5f 3d 6c 37 a1 3d
       0.06502713 0.052319568 0.05457746 0.07871899
0002a0 af 51 c2 3d 8e 57 cc 3d 6a db 08 3e 8c 2e 28 3e
       0.09488236 0.09977637 0.1336495 0.16424006
0002b0 c3 68 d3 3d d0 be d8 3d 7f 31 9d bd 7e dd 0f be
       0.10322716 0.105832696 -0.07675456 -0.14049336
0002c0 74 7e 4b be 20 2d e7 3d d6 75 4d 3b a4 8f 1a be
       -0.19872457 0.11287904 0.0031350753 -0.15093857
0002d0 f8 0c 19 3e 00 0f e4 3d d8 09 e8 3d a6 e0 38 3e
       0.14946353 0.111356735 0.113300025 0.18054447
0002e0 e2 94 04 3e 11 0b 1b 3e 80 44 13 3c 9d 9a 92 bc
       0.1294742 0.1514094 0.0089885 -0.017895991
0002f0 9f ab 82 bb 6e 03 39 3e 41 af 3c 3e ae 99 1f 3e
       -0.003987744 0.18067715 0.18426229 0.15585968
000300 cb 1f be 3c 9d a3 a4 3d db f8 94 bd 5a 1b c8 bd
       0.02320852 0.08039019 -0.07274028 -0.09770842
000310 f3 a5 dc bd 08 e5 5f be e3 41 b2 3d 8e 54 6b 3d
       -0.1077384 -0.21864712 0.08703973 0.057453685
000320 2b 3c 98 3d bc 81 b7 3d 88 93 8a 3d ff 41 97 3d
       0.07433351 0.08960292 0.067664206 0.07385635
000330 a2 a5 36 3e 5e cc 34 3e ca 70 3f 3e 85 b3 a9 3d
       0.17836621 0.17656085 0.1869537 0.08286194
000340 5c bb 72 3d 5d 9a 98 3d 9b 58 a6 3d 41 2a 46 3d
       0.05926071 0.074513175 0.08122369 0.04838014
000350 46 26 3e 3d b2 20 31 3e a4 fa 16 3e cf 72 1f 3e
       0.04642322 0.17297629 0.1474405 0.1557114
000360 4f c2 1e be 4a 4b 12 be 8a 6e 89 be 78 78 17 bf
       -0.1550381 -0.14286533 -0.26842147 -0.59168196
000370 cc 19 0f bf 12 3a 1c bf d0 bb 2c bf 6e 45 1f bf
       -0.5589874 -0.6102611 -0.6747408 -0.62215316
000380 cf 5f 2a bf fc c7 80 bc ed d3 e6 bc 18 50 bf bc
       -0.6655244 -0.01572036 -0.028177226 -0.023353621
000390 37 5a 9d ba 5d 6d 3c 3c f8 e7 8f 3b 68 79 24 3c
       -0.0012005036 0.011500684 0.0043916665 0.010038711
0003a0 e2 af 35 3c 9c 7f 58 3c a2 19 fb be 2f e7 cd be
       0.011089297 0.013214018 -0.49042994 -0.40215442
0003b0 a6 02 f8 be 43 d9 0f bf 8d 52 0a bf f6 fa 14 bf
       -0.4843952 -0.5619089 -0.5403221 -0.58195436
0003c0 4b 85 f7 be 7a f4 c5 be b2 6a f5 be 76 ea e7 3e
       -0.48343882 -0.38663083 -0.47932965 0.45296067
0003d0 fe 58 b0 3e 76 ca 92 3e 27 4d f8 3c 96 f5 53 bd
       0.34442896 0.2867009 0.030310227 -0.05174788
0003e0 c6 57 2e bd dd f5 5f 3e cd cc 1a 3d e9 90 4c bd
       -0.042564176 0.21871133 0.03779297 -0.049942885
0003f0 37 30 be bc 14 ef 10 bd fc 71 2a bd 7e 53 aa 3c
       -0.02321635 -0.035384253 -0.04161261 0.020791765

trans1.bn1.weight f4 [48]
000000 f9 e6 50 3f 48 d9 b4 3f 0d e4 63 3f 70 ab 9b 3f
       0.81602436 1.4128809 0.8901985 1.2161694
000010 60 d6 93 3f 62 1e 8f 3f a4 38 76 3f d4 25 67 3f
       1.1549797 1.1181147 0.96180177 0.90292096
000020 78 f5 39 3f 10 66 a1 3f 01 aa 6a 3f 1c f6 92 3f
       0.7264018 1.2609272 0.91665655 1.1481357
000030 d7 64 a5 3f 94 12 94 3f bb 69 a4 3f 40 24 45 3d
       1.2921399 1.156817 1.2844766 0.048130274
000040 81 db 6a 3f 35 ea 89 3f 07 11 90 3f b4 92 59 3f
       0.91741186 1.0774599 1.1255196 0.84989476
000050 77 80 91 3f fa e2 86 3f 15 ff 85 3f da c7 66 3f
       1.1367329 1.0538018 1.046847 0.901487
000060 5c a6 bf 3f 4c ad b2 3f f2 6b bf 3f 44 f0 e7 3f
       1.4972644 1.3959136 1.4954817 1.8120198
000070 32 9c c8 3f a0 ae 97 3f f9 4e e6 3f b7 56 77 3f
       1.5672667 1.1850166 1.799285 0.9661669
000080 00 ec ba 3f 0d 7a b9 3f 43 d6 fa 3f 4c 6d ff 3f
       1.4603271 1.4490372 1.9596637 1.995523
000090 b3 d7 9b 3f f8 0f 0e 40 32 b5 e4 3f 25 fe b6 3f
       1.2175201 2.2197247 1.7867796 1.4296309
0000a0 79 e2 17 40 9c a7 03 40 00 a2 8f 3f a7 e4 10 40
       2.3731978 2.057105 1.1221313 2.2639558
0000b0 ba df c0 3f f1 49 0b 40 ef 19 9c 3f bc 41 ad 3f
       1.5068276 2.176388 1.2195414 1.3535686

trans1.bn1.bias f4 [48]
000000 cb 75 98 3d b1 88 16 be f0 98 ab be 26 b3 36 be
       0.07444342 -0.14700581 -0.3351512 -0.17841777
000010 70 5d b6 be 16 12 9d 3c 52 1e 13 3e c5 97 a4 be
       -0.35618162 0.019173663 0.14367035 -0.3214704
000020 cb ed 1a be c0 8c 87 3e 56 5c 24 bd 29 98 d6 3d
       -0.15129773 0.2647457 -0.04012712 0.10478241
000030 f1 4d cc bd d1 d0 8c bd 29 c4 c2 be 8e a1 d7 bc
       -0.09975804 -0.06875766 -0.38040283 -0.026322152
000040 98 ec 83 3e 88 6e 01 3f 76 de 18 3e cd d7 2b bf
       0.25766444 0.5055928 0.14928612 -0.6712616
000050 c9 62 af be 63 4a 23 be 0a f5 65 be c2 d5 c7 be
       -0.34255055 -0.15946345 -0.22456756 -0.39030272
000060 43 c8 89 be a0 15 9a 3e 83 6c 76 be af aa 5e be
       -0.269106 0.30094624 -0.24064831 -0.21744798
000070 68 d8 36 bf 74 66 83 be fe 82 4c bf 23 b8 e6 be
       -0.7142396 -0.25664103 -0.7988738 -0.4506236
000080 c4 d3 b4 be 7c a2 22 be d9 8b 83 be 2b 02 5f bf
       -0.35317814 -0.15882295 -0.25692633 -0.87112683
000090 17 3b 41 3e c4 50 8b bd 7b e1 bf be 05 8d a5 be
       0.18870197 -0.06802514 -0.37476715 -0.32334152
0000a0 73 14 cb bc 53 07 8d be db 54 84 bf 44 02 5f 3c
       -0.024790024 -0.2754465 -1.0338396 0.01361138
0000b0 a1 41 4f bf b8 77 c4 bd b7 40 a0 bf 50 b0 ad 3e
       -0.80959517 -0.09593147 -1.2519749 0.33923578

trans1.conv1.weight f4 [48, 48, 1, 1]
000000 d2 59 07 3e 85 a6 0c 3f 8d 85 b9 bd 25 27 c5 be
       0.13217857 0.5494159 -0.09058676 -0.38506427
000010 8e fc 87 bc 76 d4 33 be 57 99 e9 3e 02 86 e9 bc
       -0.01659992 -0.17561516 0.45624802 -0.028506283
000020 84 1b 77 bd cd 38 5c be d9 9b c2 3d 8f 02 d5 3e
       -0.060328975 -0.21506043 0.09502382 0.41603515
000030 da 75 f7 3c a6 e8 c2 be ef f4 54 be 93 24 9b 3b
       0.030207563 -0.38068122 -0.2079656 0.0047345846
000040 bc 86 ba 3b 16 be a0 be 93 31 9f be e6 e8 22 3d
       0.005692331 -0.31395024 -0.3109251 0.03977289
000050 f3 1b a6 bd 33 a9 d8 3e 7a 05 fb 3c e3 92 80 be
       -0.081108 0.4231659 0.03064226 -0.25112066
000060 78 61 7b 3d cd 5d 15 3e b9 ec 10 be 60 84 5c 3e
       0.06137225 0.14586563 -0.14152803 0.21534872
000070 cb ba bb 3e 2b d1 fe 3d 23 6c 6c 3e 4d ab 81 bd
       0.3666595 0.124422394 0.23088126 -0.06331501
000080 24 c9 c1 3e de 95 55 3f b6 b9 19 3e 59 16 c1 3d
       0.3784877 0.83431804 0.1501225 0.094280906
000090 71 51 3a 3e ec 04 92 bd f2 bd 8a 3c 8e 90 8d be
       0.1819513 -0.07129845 0.016936276 -0.2764935
0000a0 42 7e e9 3d 2a 06 80 3e eb 28 b0 be ed c1 61 be
       0.11401035 0.25004703 -0.34406218 -0.22046633
0000b0 42 c8 1f 3e 58 e1 10 be 5a 69 80 3e 24 0d 47 3e
       0.15603736 -0.14148462 0.25080377 0.19438607
0000c0 2a 67 a4 3e 11 6b 93 be 6d 10 41 3d 11 9f a2 3c
       0.32109958 -0.28792623 0.047134805 0.01985124
0000d0 11 da 3a bb e6 0a c2 bc a0 fb 29 3e 85 fd 36 bb
       -0.0028511325 -0.023686837 0.16599894 -0.0027922106
0000e0 47 f7 c0 bc c7 1a 4f bf 32 39 0c 3b 4f 69 66 3e
       -0.023555411 -0.80900234 0.0021396396 0.2250111
0000f0 03 85 f7 be 16 78 c2 bd 7c aa 3d be f8 b2 8b b9
       -0.48343667 -0.09495561 -0.18522066 -0.00026645488
000100 e2 66 d5 bd 7a ba a7 3b ef 86 30 bf 74 99 e9 3c
       -0.10420014 0.0051186653 -0.6895589 0.028515555
000110 a5 69 fc 3d ee 10 f2 3d e6 45 df bd 52 ff 11 3d
       0.123248376 0.11819635 -0.10902004 0.035643883
000120 98 cc cc be 3f a9 c5 3e c8 66 6d be 90 47 dc be
       -0.39999843 0.38605687 -0.23183739 -0.43023348
000130 84 6e 03 bf 4c 00 4b 3e 74 3e 8b be a9 6b 47 bd
       -0.5134051 0.19824332 -0.27196085 -0.048686657
000140 c6 39 65 be bc ea 38 be 50 48 19 bf 20 f2 82 be
       -0.2238532 -0.18058294 -0.59875965 -0.25575352
000150 f1 30 6a 3e df a3 a6 3e 6e 0e c5 3d 85 38 aa be
       0.22870232 0.325469 0.09621893 -0.33246246
000160 5c e5 b4 bd 34 d9 02 be 79 a4 c4 bc 77 55 24 3f
       -0.08832809 -0.12778169 -0.024004208 0.6419291
000170 86 00 8c 3c 75 64 62 3c 97 d5 14 bf fa c7 9a 3e
       0.017090093 0.013817896 -0.5813841 0.30230695
000180 4a e2 e7 3e 06 06 fe bd de 40 9c be 1c 68 fd bc
       0.45289832 -0.12403493 -0.3051824 -0.030933432
000190 ce ef 86 3e 07 7d 6c 3f 9b 35 5d 3f 70 b7 bb 3d
       0.2635483 0.92378277 0.8640992 0.09165847
0001a0 f6 10 a7 3d 62 03 f9 be 9a 31 81 bd 73 39 a1 3f
       0.08157532 -0.48635393 -0.06308289 1.2595657
0001b0 f1 e7 a7 3e 33 52 29 be 53 c1 54 3d b7 2a 6a 3c
       0.32794145 -0.16535263 0.05194218 0.014292411
0001c0 8a 14 71 be 58 84 4e bf 4a 99 95 be 32 15 8b 3e
       -0.23542991 -0.8067069 -0.29218513 0.27164608
0001d0 3a e1 2e 3e df b7 13 3e 33 72 74 be bd 27 85 be
       0.17078105 0.1442561 -0.23871689 -0.2600688
0001e0 13 90 e8 ba ad d2 99 3e 67 c1 51 be 4a 4e 49 ba
       -0.0017743133 0.30043545 -0.20483933 -0.00076792075
0001f0 8f 22 9c 3e a4 18 8b be 90 d2 dd 3d 07 4a a6 be
       0.30495116 -0.27167237 0.10831177 -0.32478353
000200 48 50 4c be 8c 06 a2 be 62 eb 02 be d8 17 2f bd
       -0.199525 -0.3164562 -0.12785104 -0.04274735
000210 52 d1 7e be be f8 4f 3c c4 63 55 bc 88 7b 81 be
       -0.24884537 0.012693582 -0.013024274 -0.2528956
000220 93 24 f0 3c c1 54 6d bd ba 2c 74 be 5c e7 d6 bc
       0.029314315 -0.057942156 -0.23845187 -0.026233368
000230 a6 ca 9d bd 77 e5 d5 bd a8 a5 e7 3d 90 69 d2 bd
       -0.07704668 -0.104441576 0.11310893 -0.10274041
000240 5d e9 8f 3e 3d 58 a7 3e 9c 3b 74 3e fe f8 d5 be
       0.2810773 0.32684508 0.23850864 -0.41791528
000250 59 fe c4 bd 23 de 49 3d 39 ae f7 3e 90 a3 25 3e
       -0.096188255 0.04928411 0.4837511 0.16175675
000260 9f aa 52 3d 29 8d f2 bd 21 17 5d 3e 93 14 01 3f
       0.05143225 -0.118433304 0.21590854 0.5042202
000270 39 bb 0c bd ad ea 1b 3e f7 a4 11 3d 86 ea c5 bb
       -0.034358237 0.1522624 0.035557713 -0.0060399203
000280 88 df 4f bd 5f a0 15 bf 7a 44 f7 3e f7 33 91 be
       -0.050750285 -0.5844783 0.4829443 -0.2835996
000290 13 d0 e0 be 54 5e 27 bf 3c 4e c9 3d 4d 7a 66 bb
       -0.43908748 -0.6537831 0.09829375 -0.0035168112
0002a0 99 a6 92 be 50 4e ca 3e 7f e3 ae 3c 35 e6 bf 3e
       -0.2864273 0.39512873 0.021348713 0.37480322
0002b0 7b 9b 5c 3f 5c 9a 1c 3e da 3c 91 3e 25 56 d1 bd
       0.86174744 0.15293258 0.2836674 -0.10221509
0002c0 05 a3 d6 3e bf 51 3b be d4 2a f4 3e 07 94 a5 bd
       0.4192125 -0.18292902 0.47688925 -0.080848746
0002d0 57 9d 64 3e b8 c6 89 be 34 bd c6 be ca 42 05 bf
       0.22325645 -0.26909423 -0.38816226 -0.5205504
0002e0 b9 c8 8b 3f ee d4 bf be 9b a1 bc be 79 dd 9f be
       1.0920631 -0.3746714 -0.36842045 -0.31223658
0002f0 0c b2 07 3d d0 d2 5a bd a7 61 43 bd 06 ed 2d bf
       0.033128783 -0.053423703 -0.04770055 -0.67939794
000300 ee 30 84 be 1f 0e 34 bf a1 4a e0 bd 7b ea 11 3d
       -0.2581858 -0.7033405 -0.10951734 0.03562401
000310 60 37 c2 bd 00 d1 8c 3e dd 76 b9 bb 81 87 38 be
       -0.09483218 0.27503204 -0.0056599216 -0.1802044
000320 22 8e 73 3d 30 2f 72 3e 0e e4 a2 bd df 15 1f 3d
       0.05946172 0.23650813 -0.07953654 0.038839217
000330 89 b1 73 bd 9a b7 10 bf 69 06 85 be 7d 5e 1f ba
       -0.059495483 -0.56530154 -0.25981453 -0.00060794485
000340 57 8a b2 3d cb 50 d0 be 76 8e cd 3e 9a 8e 69 be
       0.087177925 -0.4068664 0.40147752 -0.22808304
000350 eb 4f f5 be df a0 f9 bd 59 72 1a 3e bf 60 12 be
       -0.47912535 -0.12188887 0.15082683 -0.14294718
000360 60 e0 44 3f d7 53 9c bd d9 52 8c 3e f3 87 d7 3e
       0.7690487 -0.07633179 0.27406958 0.4209591
000370 71 84 56 3e 80 27 14 3e ec 56 34 bf fb bf c3 3d
       0.2094896 0.14468193 -0.7044513 0.09558102
000380 5b 18 b6 be a4 22 9b be 5e 52 fd 3c dd 5e a5 bc
       -0.35565457 -0.30299866 0.030923065 -0.020186836
000390 5b 31 dd be 2f 3f b6 3e c8 4a 06 bf e9 76 05 3f
       -0.43201718 0.3559508 -0.5245786 0.5213457
0003a0 09 39 93 bf 10 74 f9 3e b8 7c 66 bd 63 e2 98 be
       -1.1501781 0.4872136 -0.056271285 -0.2986022
0003b0 8a 84 70 3e af 5b 81 bf c9 ec c9 3c ad 03 c2 3b
       0.2348806 -1.0106105 0.02464904 0.0059208483
0003c0 2e 95 f8 be 00 c6 a7 3d eb e8 d4 be 2c 85 21 be
       -0.48551315 0.081920624 -0.41583952 -0.15773457
0003d0 0e 59 ce 3d eb 48 94 3e 61 91 5e bd c7 5d 68 bd
       0.100755796 0.28961882 -0.054337863 -0.056730058
0003e0 c8 4a 60 3d 07 0c 00 3e d2 74 6e be 4d a0 0a 3e
       0.054758817 0.12504588 -0.23286751 0.13537712
0003f0 c5 37 57 3f 94 63 8e be 94 4f d9 3c de ac 00 3a
       0.8406947 -0.27810347 0.026527204 0.0004908572

dense2.0.bn1.weight f4 [48]
000000 d4 9e 4a 3f 80 bd 41 3f 86 8c 60 3f 8a ca 5f 3f
       0.791486 0.7567978 0.8771442 0.87418425
000010 00 8b 6b 3f 5c 52 ee 3e bb 78 87 3f bc 17 83 3f
       0.9200897 0.4654721 1.0583719 1.0241618
000020 10 06 44 3f 77 33 34 3f 75 93 97 3f c9 c7 25 3f
       0.7657175 0.7039103 1.1841875 0.6475797
000030 03 8b f4 3e 33 15 38 3f 31 77 2a 3f b1 d8 62 3f
       0.47762308 0.7190735 0.6658812 0.88611895
000040 14 c7 50 3f cb 28 3a 3f d9 66 34 3f 45 a1 65 3f
       0.8155377 0.72718495 0.70469433 0.896992
000050 90 aa 49 3f e3 b7 5f 3f d8 41 13 3f ff 6d 97 3f
       0.7877588 0.87389964 0.57522345 1.1830443
000060 2c 8c 5a 3f 77 e4 8a 3f b5 5d 7f 3f 94 d0 1b 3f
       0.85370135 1.0850972 0.9975236 0.6086514
000070 ab bb 1d 3f 1c 97 93 3f 2b b8 91 3f e3 5c 83 3f
       0.61614484 1.153049 1.1384329 1.0262722
000080 59 29 bd 3f eb 17 68 3f a4 77 5c 3f 68 52 b1 3e
       1.4778243 0.90661496 0.8612006 0.34633183
000090 93 c1 f7 3e 6f 05 72 3f f4 be 5e 3f e7 31 6c 3f
       0.48389873 0.9453954 0.8701012 0.92263645
0000a0 45 89 57 3f 56 80 98 3f e4 41 0a 3f c9 e9 ac 3f
       0.8419383 1.1914165 0.5400679 1.3508846
0000b0 89 38 43 3f 0e 9e 80 3f 9c 54 31 3f 4a b2 83 3f
       0.7625814 1.0048234 0.6926973 1.0288785

dense2.0.bn1.bias f4 [48]
000000 dc 5b ee be b3 8c 9a 3d 06 bc 01 bf 34 6f f1 be
       -0.46554458 0.075463675 -0.50677526 -0.47155154
000010 c7 86 0b 3f de a0 2e bc 82 ee 97 3d f1 b9 3a be
       0.5450253 -0.010658471 0.07418539 -0.18234994
000020 65 bb 64 be 79 73 d2 be 32 fc 8d 3f 1d 05 8a be
       -0.2233711 -0.41103724 1.1092589 -0.26957026
000030 e1 5f 03 be 53 1e 06 3c 0a a3 1a be 72 5d 84 be
       -0.12829544 0.008185941 -0.15101257 -0.25852543
000040 34 a8 33 be ec e3 51 bd c3 52 d2 be 04 65 c7 bd
       -0.17544633 -0.051242754 -0.41078767 -0.09736064
000050 bf 11 15 bf d4 89 d5 bd 13 ee 2d 3f 8c 86 83 be
       -0.58230203 -0.10426679 0.679414 -0.2568859
000060 a6 7a d0 be 5e 92 53 3e ec 99 21 bf 43 cb d4 be
       -0.40718573 0.20661303 -0.6312549 -0.41561326
000070 4b c2 91 be 95 3a 43 3d 46 4f e7 3e b2 d7 37 be
       -0.28468546 0.04766329 0.45177668 -0.17953375
000080 d5 dd 84 3f 25 3a 42 bf 86 52 07 bf 72 d9 52 be
       1.0380198 -0.7586997 -0.52860296 -0.20590761
000090 c4 6a 89 be d8 88 08 be 90 bb b5 be b4 9a 39 3f
       -0.26839268 -0.13333452 -0.3549466 0.72501683
0000a0 2e 2b 9f bd f0 e0 cf be bd f1 9e be 5a 05 20 3c
       -0.07771908 -0.406013 -0.31043807 0.009766901
0000b0 5b 52 01 bd 27 e3 43 3e fc 0a fe 3d d0 ba 9a be
       -0.03157268 0.1912962 0.12404439 -0.30220652

dense2.0.conv1.weight f4 [12, 48, 3, 3]
000000 5c 3d 4b 3d 7b e8 15 be b9 21 af be dd b2 52 bd
       0.049619064 -0.14639466 -0.34205416 -0.05144011
000010 2b 88 66 3d b0 e9 8d bd 40 5f 2f be 34 67 58 3d
       0.056282204 -0.06929338 -0.17126179 0.052832797
000020 74 78 84 be 5c 49 af bd ec 3f f7 bd 81 b7 c2 bd
       -0.25873148 -0.08558914 -0.12072739 -0.09507657
000030 e1 ec 91 bb 38 51 b7 bc f2 cf 4a 3c 24 9c 5e 3e
       -0.004453287 -0.022377595 0.01237868 0.2173925
000040 a9 a9 e0 3d 7e 40 10 3e ec 5f a1 3d 89 28 82 bd
       0.1096986 0.14087102 0.07879624 -0.06355388
000050 2f c2 3a 3e 1e 16 b2 be e0 62 d2 be b7 53 4d 3a
       0.18238138 -0.347825 -0.4109106 0.0007832604
000060 5a e7 a5 3c da 0c 5e be 7c 4f 86 3b be ca f0 3e
       0.020251919 -0.2168459 0.0040988307 0.4702968
000070 88 a5 74 3e d8 17 33 be ae cb 81 3e 04 f8 b7 3b
       0.2389127 -0.17489564 0.25350708 0.0056142826
000080 8b 8a d8 be 40 73 8c 3e 73 51 79 3d e4 97 a7 be
       -0.422932 0.2743168 0.06086869 -0.3273307
000090 2b ab 01 bf 0e 07 aa be 44 a6 85 3e bb fe d5 be
       -0.50651807 -0.33208507 0.26103413 -0.41795906
0000a0 82 6a 04 be 86 d9 f1 3e d5 83 e9 be 58 05 b3 be
       -0.12931255 0.4723627 -0.45608392 -0.34965014
0000b0 22 00 bf 3e 71 34 df 3d a5 c1 13 be 52 21 d2 bd
       0.3730479 0.10898674 -0.14429338 -0.102602616
0000c0 fd 46 41 3d 09 b0 c0 bd a4 db 54 bb d1 e1 56 3d
       0.04718684 -0.09408576 -0.0032479549 0.05246145
0000d0 cf cb 8d bc 3e 84 94 3b 73 ea 82 be c1 9d 06 3e
       -0.017309098 0.004532366 -0.25569496 0.13146116
0000e0 ce e8 15 3e 7c 94 d0 be b6 42 19 3b d1 18 39 3e
       0.14639589 -0.40738285 0.002338571 0.18075873
0000f0 f9 49 58 be 5c c5 8d bd 00 1e c4 3d a3 7f 85 be
       -0.21121968 -0.06922409 0.095760345 -0.26073942
000100 72 d7 c7 bd c8 71 50 be 27 41 ab 3d 62 be 2e bd
       -0.0975789 -0.20355904 0.08362036 -0.042662032
000110 f9 66 bc bd f7 39 1a be da 5b 9e bd c2 b1 1a be
       -0.09199328 -0.15061174 -0.07732363 -0.15106872
000120 ae 1e 35 be 06 d8 b8 bc 36 53 83 be 03 09 49 3e
       -0.17687485 -0.022563946 -0.25649422 0.19632344
000130 f3 de 11 bd 8a f6 37 be 23 84 a7 3e e0 f7 a7 bc
       -0.03561301 -0.17965141 0.32718 -0.020503938
000140 5b f6 a9 be 60 f4 5c 3e f1 5d 08 3e a9 c7 9d be
       -0.33195767 0.21577597 0.13317086 -0.3081639
000150 99 91 92 3e 08 04 a4 3e d5 bb 0c bf 4a 62 7f 3e
       0.28626707 0.32034326 -0.5497411 0.24939838
000160 61 88 a0 3d c5 5a 0d bf 57 cc 6e be fe 44 a8 3b
       0.07838512 -0.5521663 -0.23320137 0.0051351776
000170 bb d1 c6 3e 69 d5 dc be 7f a3 a0 bd ad 96 07 3f
       0.38831887 -0.4313157 -0.078436844 0.5296429
000180 e7 82 a5 be 29 be ad bc 70 51 40 3f 78 fb 16 3e
       -0.32326433 -0.02120884 0.75124264 0.14744365
000190 fb 17 c5 bd d4 47 6f be 63 d8 85 3e b0 1f e5 bc
       -0.096237145 -0.23367244 0.26141652 -0.027969211
0001a0 e8 86 6e be 3c 47 3a 3e a6 4e da bd 70 d2 86 be
       -0.2329365 0.18191236 -0.10659532 -0.26332426
0001b0 b2 77 83 3e 41 4d e6 3c 77 71 72 be 72 db 68 3e
       0.25677258 0.02811301 -0.23676096 0.22739962
0001c0 13 e4 dc 3c e3 52 41 be 41 e4 6a 3e cb 89 9e 3d
       0.026964223 -0.18879275 0.22938634 0.07741126
0001d0 75 ae ff bd 46 d1 01 3e c8 9a 94 bd c2 19 c9 bd
       -0.12484447 0.12677488 -0.07256085 -0.09819366
0001e0 56 d6 f9 3d 3c cf 47 be c9 3a 4e be 9b e2 b4 3e
       0.121990845 -0.19512647 -0.20139612 0.35329136
0001f0 26 26 80 bd bf aa 53 bd 9a f7 50 3e 73 cc f0 bc
       -0.06257276 -0.051676508 0.20406953 -0.029394364
000200 30 24 ca be 2a c8 94 3e b2 e9 eb 3d 8c b1 cd be
       -0.39480734 0.29058963 0.11519183 -0.4017452
000210 98 1b 2b 3e 64 84 eb 3c 93 79 a3 be 0c c1 15 3f
       0.16709745 0.028749652 -0.3192869 0.5849769
000220 1c ba d8 bd 30 04 c9 be 50 2c 06 3f 5c f0 bc be
       -0.105823725 -0.39261007 0.52411366 -0.3690213
000230 1b 48 08 bf 93 3a f8 3e 3a 63 26 be 38 42 a6 be
       -0.53235024 0.4848219 -0.1624879 -0.32472396
000240 bf 19 10 be 8c 73 14 bd 5a ac 47 3e f4 e8 be bd
       -0.14072321 -0.036243007 0.1949934 -0.09321776
000250 10 59 4c 3d 69 b6 9f 3e 0f 2f 89 be c0 22 b5 bd
       0.049889624 0.31193855 -0.26793715 -0.08844519
000260 3d ca 2f 3e f2 ab 3e 3e 80 19 67 bd 31 f5 59 be
       0.17166992 0.1862028 -0.056420803 -0.2128494
000270 1d 07 19 3e c2 16 b4 bb 66 0c 32 be 7c fd 3c 3e
       0.1494412 -0.005495877 -0.17387542 0.18456072
000280 79 9a 13 3e 62 7f d3 bd 16 97 10 3e 99 70 9b 3c
       0.14414395 -0.10327031 0.14120135 0.01897459
000290 23 b9 67 3d 0a cc 51 3e e6 b2 63 bd 6f bd a3 bd
       0.056573045 0.20487991 -0.055590533 -0.07995116
0002a0 10 bf 11 3e a2 70 78 bd 30 19 8c bd 25 67 21 3f
       0.14233041 -0.06065429 -0.06840742 0.6304801
0002b0 dd a4 19 3d 70 a8 f1 be 8a 7a 9d 3e 03 80 36 be
       0.03751074 -0.4719882 0.30757552 -0.1782227
0002c0 73 de 0d bf 9f d0 98 3e 58 b8 82 bd 2e 99 e1 be
       -0.55417556 0.29846665 -0.06382817 -0.4406218
0002d0 98 36 32 bc 0d 56 9e 3d 4a 72 be 3d 10 96 1b 3d
       -0.010877274 0.07731257 0.09299143 0.037984908
0002e0 b7 dc 9f 3d 37 e6 66 3d 6c 40 17 bd 87 18 3d be
       0.0780577 0.056371894 -0.03692667 -0.18466388
0002f0 c9 91 e5 be 81 7b ca be 32 57 54 3c c2 3f 8e 3d
       -0.44837788 -0.3954735 0.012960242 0.069457546
000300 38 85 95 be 1f 15 0f 3d 6e 56 a1 3e af 98 55 be
       -0.292032 0.034932252 0.31511253 -0.20859025
000310 ff 02 a4 3d e1 69 fc 3d 92 ba 43 bd b4 80 af bc
       0.08008384 0.12324882 -0.04778535 -0.021423675
000320 72 52 bd 3d c8 4f 23 be aa aa ca bc ac 8a 5b 3e
       0.09244241 -0.15948403 -0.024739582 0.21439618
000330 94 1d 0a be 2a 54 6f bc 3e 67 a0 3e a4 ce 04 bd
       -0.13487846 -0.014607469 0.31328768 -0.03242363
000340 c2 44 49 be f7 5c 10 3d d5 16 36 3d 90 6a 15 be
       -0.19655135 0.03524491 0.044455368 -0.14591432
000350 f3 9d 97 bd a9 e3 9c 3d 6a 7c 48 bd b1 48 90 bd
       -0.07403173 0.0766061 -0.048946775 -0.07045115
000360 a8 f2 82 bc 86 60 16 be b7 54 56 be f0 ac 7f 3d
       -0.015984848 -0.14685258 -0.20930754 0.062420785
000370 dc 8e f6 3c d0 49 b1 be 2e a2 91 3e 0e 00 17 3e
       0.030097418 -0.34626627 0.28444046 0.14746115
000380 bb 6f a8 be fe 0f d5 be fb d9 50 be 0f 37 80 3e
       -0.32897744 -0.41613764 -0.20395653 0.25042006
000390 db a8 de be c8 54 35 be 08 e6 99 3e dc 5d e3 be
       -0.43488201 -0.17708123 0.30058312 -0.44407547
0003a0 78 c2 42 be 62 60 d5 3d 58 3f 1c 3c 68 e3 9d 3c
       -0.19019496 0.10418774 0.009536587 0.019273475
0003b0 66 62 9e 3e e3 29 94 be e8 78 0f be 14 a6 5b 3e
       0.30934447 -0.28938207 -0.14010966 0.21450073
0003c0 62 f0 81 be 84 23 13 be 29 6a 3e 3e 14 0c 32 be
       -0.2537871 -0.14369017 0.18595184 -0.1738742
0003d0 bc f5 4c be 16 b2 d0 3d 90 2a 4d be f4 4f 72 be
       -0.20015615 0.10190217 -0.20035768 -0.23663312
0003e0 e3 a1 e1 3d 0a 4c d5 3d d9 55 0b be ee 1b 40 bc
       0.110172056 0.10414894 -0.13606967 -0.011725409
0003f0 9d 48 28 be 65 2a b4 bb a5 ed d5 3d e9 74 a6 bd
       -0.1643395 -0.005498218 0.10445718 -0.081277676

dense2.1.bn1.weight f4 [60]
000000 03 73 34 3f 91 91 64 3f 83 5d 96 3f fb af 7c 3f
       0.70487994 0.89284617 1.1747288 0.98706025
000010 bc 61 0d 3f 40 a7 0c 3f 5b db 4e 3f 23 79 4c 3f
       0.55227256 0.54942703 0.8080346 0.7987234
000020 2b 0e f2 3e 8a 76 f7 3e 5f e7 77 3f 1c d7 47 3f
       0.47276434 0.48332626 0.9683742 0.78062606
000030 ca 90 5b 3f 83 05 4f 3f 8f c3 ff 3e 6c 0b 40 3f
       0.85767806 0.80867785 0.49953887 0.7501743
000040 3d e1 02 3f 08 25 38 3f bb 8f 1d 3f 7d 92 11 3f
       0.51124936 0.71931505 0.6154744 0.5686415
000050 02 2d aa 3e 1b 6e 3a 3f 8c 3f f0 3e cc 8d 63 3f
       0.33237463 0.7282426 0.46923482 0.8888824
000060 9a 48 16 3f 8c 19 21 3f a9 57 81 3f ae bf 9a 3f
       0.5870453 0.62929606 1.0104877 1.2089746
000070 bd 61 34 3f ef 87 39 3f 79 08 67 3f c1 a0 4f 3f
       0.70461637 0.72473043 0.90247303 0.81104666
000080 0c a8 28 3f ab 2c 69 3f 93 fd 6a 3f 5b e2 51 3f
       0.6588142 0.9108378 0.91793174 0.81986016
000090 00 09 3b 3f ee 00 52 3f 55 49 69 3f 33 be 50 3f
       0.7306061 0.8203267 0.9112752 0.8154022
0000a0 75 9f 88 3f 64 2a 69 3f c4 ac 4f 3f db 9d 6e 3f
       1.0673662 0.9108031 0.81122994 0.9320962
0000b0 df 4d a3 3f d6 7d 4b 3f b4 df f0 3e b3 b0 70 3f
       1.2758139 0.79488885 0.47045672 0.9401962
0000c0 ed e8 a3 3f 1b c7 38 3f 5d 96 2e 3f 0b c4 61 3f
       1.2805458 0.7217881 0.68198186 0.8818976
0000d0 a3 31 8b 3f ab e7 6d 3f 86 11 67 3f 14 8a f8 3e
       1.0874523 0.9293162 0.90261114 0.48542845
0000e0 39 01 7a 3f 2d ac 19 3f 0c 8f 8b 3f 71 72 3d 3f
       0.97658116 0.60028344 1.090303 0.7400275

dense2.1.bn1.bias f4 [60]
000000 42 7d 26 bf cc 88 e6 3c 7b a1 8c be a7 48 22 bf
       -0.6503488 0.028141402 -0.2746695 -0.6339211
000010 84 2d 16 3f 58 30 b4 bd 8c 39 88 be fb 42 fb be
       0.586632 -0.08798283 -0.26606405 -0.4907454
000020 17 b6 ba bd ce bb 58 be 0d ae f3 3e fd c5 14 bf
       -0.09116762 -0.21165392 0.47593728 -0.58114606
000030 44 cb 4a bf c0 d1 f2 bd 78 63 4b bd bf 43 af be
       -0.7921641 -0.11856413 -0.049655408 -0.34231374
000040 1a f2 5d be 3a df 82 bd 26 63 d3 be ff c8 94 bd
       -0.21674386 -0.06390233 -0.41286582 -0.072648995
000050 2b e0 44 bf e7 ee da bd f0 6f 46 3f 25 0a cd be
       -0.76904553 -0.10690098 0.77514553 -0.40046802
000060 55 e2 bb be 31 91 08 3e c4 ba b6 be 06 c2 07 bf
       -0.36696115 0.13336636 -0.35689366 -0.5303043
000070 a0 c7 6d bd 2f 10 b2 3e dd f0 aa 3e 50 f7 b6 be
       -0.058051705 0.34777972 0.3338689 -0.3573556
000080 3a 5c 07 3f 50 1f 08 bf ff 35 f8 be 4a e0 a6 be
       0.528751 -0.5317278 -0.48478696 -0.32592994
000090 68 a8 e0 be f7 13 84 be a1 85 a1 be e7 2e 81 be
       -0.43878484 -0.25796482 -0.31547263 -0.25231096
0000a0 23 1a 29 bf d4 01 dc be 07 af 37 be 2c c6 c6 3e
       -0.66055506 -0.42970145 -0.17937861 0.38823068
0000b0 23 9a 1a bf 3a 57 0d bc 7a 5f 48 3d a6 49 be be
       -0.60391444 -0.008626753 0.04891918 -0.37165564
0000c0 bb 10 a7 bc 7e a0 8a be 3d f2 28 3e b9 22 e6 be
       -0.02039372 -0.2707557 0.16498657 -0.44948366
0000d0 c6 f0 49 be c6 33 f6 3d 6e 7c 2c be b7 e9 13 3f
       -0.19720754 0.12021594 -0.16844341 0.57778496
0000e0 80 3a 9c bc a6 11 00 be b8 32 73 bc a2 9b 57 be
       -0.019070864 -0.12506732 -0.014843635 -0.21055463
