independent_train_0.0/client33/checkpoint_0.0.pth (torch, 420139 bytes, 98 tensors)

conv1.0.weight f4 [16, 3, 3, 3]
000000 8c 8c 80 3d 76 b5 89 bd f3 20 c7 3e 8d e3 bd be
       0.06276807 -0.06724064 0.38892326 -0.3708767
000010 c0 d0 52 bf 20 a0 9a be 23 17 2e be 04 92 23 bf
       -0.8234978 -0.3020029 -0.17001013 -0.6389468
000020 c4 31 41 be 35 03 d1 3c ee 05 8b be 6b ee 95 3d
       -0.1886664 0.025514225 -0.27152961 0.07320865
000030 e2 ae 9d bd 7b cd 20 bf 35 54 5a be 4d 77 b5 3e
       -0.07699372 -0.6281354 -0.21321185 0.35442582
000040 b8 a9 38 be 63 fc 39 3e f7 a1 bc bc 30 be 6b bd
       -0.18033493 0.18162684 -0.02302645 -0.057554424
000050 32 8f 77 3e 2e 48 ae be 45 fb 1a bf 33 8e 4f be
       0.24175718 -0.34039444 -0.60539657 -0.20269088
000060 1d 05 85 be 6a 8f 06 bf 93 ef 1a be 72 d1 35 bf
       -0.25980464 -0.5256258 -0.15130453 -0.71022713
000070 71 3f 20 bf 27 a9 20 bf 09 1a 8a bf c1 fa 82 bf
       -0.62596804 -0.62758106 -1.0789195 -1.0232774
000080 fd 25 6a bf 9f ba 89 bf 4f 16 9e bf 7f 23 82 bf
       -0.91464216 -1.0760077 -1.2350558 -1.0167083
000090 bd 0f 56 3f 0f 07 85 3f c0 36 4b 3f f9 56 69 3f
       0.83617765 1.0392779 0.79380417 0.91148335
0000a0 df dd 97 3f c2 81 80 3f 36 09 60 3f 44 a1 6d 3f
       1.1864585 1.0039599 0.87514055 0.92824197
0000b0 c1 5d 4e 3f 84 99 64 be 07 48 0a be f6 cc ac be
       0.8061181 -0.22324187 -0.13504039 -0.33750123
0000c0 33 74 90 3d 02 9f 86 3e d9 39 f5 3c ae 52 95 3e
       0.07053413 0.26293188 0.02993481 0.29164642
0000d0 4c 55 9a 3e 41 c0 ce 3d 74 f1 b9 be 45 18 8f 3e
       0.301432 0.10095263 -0.36317027 0.27948204
0000e0 33 45 b8 be ee 3b 4b be 24 b2 5a 3f 11 c6 12 bf
       -0.35990295 -0.1984708 0.8542807 -0.57333475
0000f0 d3 d1 ac 3e ad d0 89 3f 15 5c 5b bf 21 1f db be
       0.33753833 1.0766808 -0.8568738 -0.42797187
000100 11 83 2b 3f c8 a2 4d bf 42 50 77 be fd 56 9a 3f
       0.66996866 -0.8032651 -0.2415171 1.2057797
000110 57 e1 96 bf f3 55 34 3e ef 0c a3 3f a2 9c c7 bf
       -1.1787518 0.17610912 1.2738322 -1.5594676
000120 a0 93 58 be 25 bf f6 3e 10 e0 66 be b3 fc 88 bc
       -0.21150064 0.48192707 -0.2254641 -0.016722059
000130 c1 1f 8a 3f 99 2c 25 bf b6 f6 ab 3e eb 4e 89 3f
       1.079094 -0.64521176 0.33586663 1.0727209
000140 77 a7 92 bf 67 3e 0e 3e b0 c9 b4 bc 6d b2 bc 3d
       -1.1457356 0.13890992 -0.022068828 0.092137195
000150 97 20 15 3d 60 f0 3c bd 51 da 1e 3e 99 18 c6 3e
       0.036408033 -0.046127677 0.15512969 0.38690642
000160 4b fe 5c 3e 3c d0 00 3f 49 02 38 bf 3c d0 80 bf
       0.2158138 0.5031774 -0.71878487 -1.0063548
000170 71 0f 40 bf 69 f8 88 bf 2e 1f b1 bf 88 a4 8f bf
       -0.7502356 -1.0700809 -1.383764 -1.1222086
000180 4f 98 56 bf 2a 43 a1 bf 1b 07 77 bf 2d cc 50 3f
       -0.83826154 -1.2598622 -0.9649522 0.8156155
000190 ad f0 6c 3f 5e 7b 64 3f 3c ce 6d 3f 0a fd 8e 3f
       0.9255474 0.89250743 0.92892814 1.1170971
0001a0 94 c8 78 3f a1 1f 65 3f 0c 64 68 3f dd 24 41 3f
       0.9718106 0.89501387 0.9077766 0.75446874
0001b0 fc 91 ea be bd de 33 3e 05 23 ae 3e 84 a0 b5 3f
       -0.45814502 0.17565437 0.34011093 1.418961
0001c0 93 5e 74 3c a8 32 8b bf 25 17 f1 3f 21 ff 2f bf
       0.014915126 -1.0874834 1.8835188 -0.6874867
0001d0 c1 26 cd bf 36 9e af be 0e a2 8c 3c 6d e5 8b 3c
       -1.6027452 -0.34300393 0.017167117 0.017077172
0001e0 93 76 d3 3f 14 35 e9 bc b1 bb a7 bf 87 77 0c 40
       1.6520561 -0.028467692 -1.3104154 2.1947954
0001f0 6f a1 17 bf 86 d3 ce bf ae 83 b7 be 02 da 9f bc
       -0.59230703 -1.6158302 -0.3584265 -0.019513134
000200 0e 04 97 3e e0 47 c2 3f 39 50 23 be 63 26 90 bf
       0.2949528 1.5178185 -0.15948571 -1.1261715
000210 d8 b4 01 40 43 f6 4b bf 94 34 ce bf f8 41 80 3d
       2.0266628 -0.7967264 -1.6109796 0.062625825
000220 00 1f bb 3d 31 c6 2b 3d 60 6b d5 3e d2 27 23 3f
       0.09136772 0.041937057 0.41683483 0.63732636
000230 bd e0 e3 3e 18 0f ff 3d e1 6c bf 3e 0e 09 8f 3e
       0.445074 0.12454051 0.37387756 0.27936596
000240 05 bf c6 bd 40 c7 c2 bd fe c8 ee bd a0 c3 92 3e
       -0.09704403 -0.0951066 -0.1165943 0.28664875
000250 c9 fe f5 3e ed bb 9b 3e ef d0 ce bc 19 21 3b 3e
       0.48045948 0.30416813 -0.025246112 0.18274345
000260 52 ec d2 3d c8 89 90 3d c3 04 88 3c 71 2a 90 3c
       0.10298981 0.0705753 0.016603833 0.017598363
000270 66 16 c9 3e b8 dc 09 3f 40 ed d3 3e ae 49 04 be
       0.392749 0.53852415 0.41391945 -0.12918732
000280 80 0e f1 3c ec f7 1b 3c f0 4b 11 3f d3 6d 0b 3f
       0.02942586 0.009519558 0.56756496 0.54464453
000290 2c 9c 2d 3e b4 e9 69 3f 57 5f 8f 3f a5 02 37 3f
       0.16954106 0.9137223 1.120097 0.7148841
0002a0 f1 d0 0e 3f 06 51 75 3f 9b 40 18 3f f9 7d b8 3d
       0.5578757 0.95826757 0.5947358 0.090084024
0002b0 66 9e bc bd dc b0 26 bc d4 9c c4 bd 74 7b 89 be
       -0.092098996 -0.0101740025 -0.09600225 -0.26852
0002c0 7c 49 19 be 77 70 b0 be 29 96 b8 be 99 11 31 be
       -0.14969438 -0.34460804 -0.36052063 -0.17291869
0002d0 67 c6 e3 be 28 1d 17 bf 89 6a a5 be 1d 95 33 bf
       -0.44487306 -0.59028864 -0.32307842 -0.70149404
0002e0 5f 5b 7d bf 31 4e 1b bf fe 11 42 bf 62 dd 77 bf
       -0.98967546 -0.60666186 -0.75808704 -0.9682218
0002f0 76 b3 04 bf 76 bf 8f bf cb e6 56 3f 90 36 90 3f
       -0.51836336 -1.1230304 0.8394591 1.1266651
000300 ea 5e 8d 3f e5 b6 bb 3f 2a a5 13 3f 6a 6e 82 bc
       1.104459 1.466519 0.57673895 -0.01592179
000310 1e 7f e0 bf b2 f4 23 c0 a3 b7 76 bf 6a c3 58 3f
       -1.7538793 -2.56181 -0.9637396 0.8467318
000320 43 78 a2 3f 64 e7 92 3f 19 9c ba 3f 79 dd 49 3f
       1.2692951 1.1476865 1.4578887 0.78853565
000330 11 fa f0 bd 7b bf ed bf ab 9b 18 c0 38 92 be bf
       -0.117664464 -1.857406 -2.3845012 -1.4888372
000340 38 31 00 3c fc 7a 02 3f 7f 4e 85 3f fd 9b ae 3f
       0.007824235 0.5096891 1.041458 1.3641354
000350 83 2f 5d 3f 20 0a d8 3e 73 8b 81 bf 46 23 b1 bf
       0.8640062 0.42195225 -1.0120682 -1.383889
000360 eb 44 1e 3f 1c b7 51 3f 77 f9 f2 3e cb d9 62 3f
       0.6182391 0.8192003 0.47455952 0.88613576
000370 c9 08 a7 3f 69 d6 51 3f 82 b8 04 3f d1 8e 72 3f
       1.3049556 0.8196779 0.51844037 0.9474917
000380 86 6a d2 3e 3f 78 81 bf 7a 64 9d bf 99 bd 8a bf
       0.41096896 -1.0114821 -1.2296288 -1.0839111
000390 dd 60 af bf fc da c0 bf 73 48 ab bf 70 0b 9f bf
       -1.3701435 -1.5066829 -1.3381485 -1.2425365
0003a0 54 1a a6 bf 46 9e 8c bf 87 60 fa 3e 81 8f 06 3f
       -1.2976785 -1.0985801 0.4890177 0.5256272
0003b0 31 a7 dd 3e 51 88 f7 3e 60 d3 32 3f be 6f 13 3f
       0.4329162 0.4834619 0.6985378 0.5759238
0003c0 0a b8 98 3e 8d aa 04 3f a0 df c4 3e 78 e4 00 bf
       0.2982791 0.5182274 0.38451862 -0.50348616
0003d0 3e 95 a6 bf 05 89 30 bf 3a 87 1c bf 6c 81 19 bf
       -1.3014295 -0.68959075 -0.6114384 -0.5996311
0003e0 f7 29 f9 be 75 c9 9d 3f 68 2c 03 40 ff 95 a1 3f
       -0.4866483 1.2327105 2.0495853 1.26239
0003f0 97 2a e2 be 34 2f a7 bf 47 90 21 bf d9 ba 0a bf
       -0.44173118 -1.306128 -0.63110775 -0.54191357

conv1.1.weight f4 [16]
000000 a8 fe cf 3f 1a b1 d4 3f a0 9e e6 3f aa fc da 3f
       1.624959 1.6616547 1.8017159 1.7108357
000010 7e 1f 09 40 b4 2d b0 3f e3 93 d1 3f fe b1 0c 40
       2.1425471 1.3763947 1.6373256 2.1983638
000020 b8 38 c2 3f 09 1b d6 3f 99 a6 dd 3f ca 74 d6 3f
       1.5173559 1.6727 1.7316467 1.6754391
000030 96 d3 c0 3f 6e 7a be 3f 5c 84 c0 3f 5e 14 d2 3f
       1.5064571 1.4881113 1.5040393 1.6412466

conv1.1.bias f4 [16]
000000 39 8d 50 be c2 0b 12 3f ba a7 81 3f 4e 9e 04 3f
       -0.20366372 0.5704919 1.0129311 0.51804054
000010 bc 59 1a be be 86 a8 3e 49 e8 29 3f 33 88 e9 be
       -0.15073293 0.329153 0.66370064 -0.45611724
000020 5c 59 2b 3f 5e 8f 72 be c6 8d 03 3f 21 e9 88 bd
       0.66933227 -0.23687503 0.51388204 -0.06685091
000030 1c 5a 4d 3e a3 c1 63 3f f5 14 7b bc ca 35 4e 3e
       0.20053905 0.8896734 -0.015324821 0.20137706

stage2.0.branch1.0.weight f4 [16, 1, 3, 3]
000000 fd f2 69 bd 1d b3 df bd 7f 56 0e 3f a0 99 cb 3e
       -0.057116497 -0.10922835 0.5560073 0.39765644
000010 c9 fb bd be 05 7b d5 3e 82 76 49 3e 64 de 26 bf
       -0.3710616 0.4169542 0.19674113 -0.6518309
000020 5c f8 87 bd 6c 0a a1 3e da 36 71 be 21 10 2b bf
       -0.06639168 0.31453264 -0.2355608 -0.66821486
000030 85 fe 05 bf 7a 45 0f 3e 2b cc 4c 3f e1 e5 29 bf
       -0.5234149 0.13991347 0.79999036 -0.6636639
000040 3a ef 65 3f 8b 21 e8 3f ac 77 f2 3b a6 00 f1 bb
       0.89818156 1.8135237 0.00739952 -0.0073548136
000050 0f be 98 bd 2c 09 69 3e ed 21 a5 bf a5 2d 5d 3f
       -0.07458126 0.22757405 -1.2900978 0.86397773
000060 15 c7 83 3f 07 d2 31 c0 0a c2 f5 3f 8d be 93 3e
       1.029513 -2.778444 1.9199841 0.28856316
000070 a7 2f ed be 63 f3 c2 be fb cc 08 bf 67 86 1a be
       -0.46325418 -0.38076314 -0.53437775 -0.15090333
000080 f3 82 04 3f db fb 04 bf c8 89 1e 3f 49 61 ba 3f
       0.5176231 -0.519468 0.6192899 1.4560939
000090 83 07 c6 bc 22 b8 8e 3d b4 e6 f8 bc 86 d0 0d 3f
       -0.024173504 0.06968714 -0.030383445 0.55396307
0000a0 95 63 26 3f e9 b8 f7 3e 8a 93 42 3e 30 5c ea 3e
       0.649957 0.48383263 0.19001594 0.45773458
0000b0 e4 2b 8e 3f b0 57 0e bd 4a 1e 53 be fa 12 14 bf
       1.1107144 -0.034751594 -0.20617023 -0.57841456
0000c0 59 36 18 bd d0 47 bd 3e 04 aa 1d 3e 8e bf 79 be
       -0.037161205 0.3696885 0.15396887 -0.24389479
0000d0 7f f8 0b 3f 5b 02 78 3f 43 f9 09 bf ad d0 00 3f
       0.5467605 0.96878594 -0.5389597 0.50318414
0000e0 58 de 56 3f 57 7e 31 3e 80 f1 0b bf 28 d3 87 bf
       0.8393302 0.17333351 -0.54665375 -1.0611315
0000f0 97 73 7f 3f 92 ae 0f bf 97 cc a4 bf 0a 87 09 be
       0.9978575 -0.5612575 -1.2874936 -0.1343042
000100 4e 04 1e 3d 79 d7 d8 3e d4 c8 bb 3e 51 6a 8e 3f
       0.038578324 0.42351893 0.36676657 1.1126195
000110 e6 28 3c 3f d1 1d d6 3e 7d 2e 9c 3f 48 45 3a 3f
       0.73499906 0.41819623 1.2201687 0.72761965
000120 86 64 b7 be 72 b6 9e 3e 91 a3 38 3f a3 0d 09 3f
       -0.3581888 0.3099857 0.7212458 0.53536433
000130 cd 48 0d 3d 1a ce 0c bf e4 52 69 3f 9a 3d 4b bf
       0.034493256 -0.55001986 0.91142106 -0.7939087
000140 f5 51 fe bf 79 40 66 3e 2f 88 69 be 00 b7 3f bf
       -1.9868761 0.22485532 -0.22805856 -0.7488861
000150 8e c0 de 3e 84 b1 48 bf 09 49 95 bf 71 b9 bb 3b
       0.43506283 -0.7839587 -1.1662914 0.0057288934
000160 3b 56 ad bf a0 60 97 bf 86 d6 2a 3d c9 27 98 3f
       -1.354194 -1.1826363 0.04170849 1.1887141
000170 95 3b be bf 0e c5 ea bf d7 ba 12 3f 14 cc a5 3f
       -1.4861933 -1.8341386 0.57316345 1.2952905
000180 76 ae c4 3f 08 e3 ea bf c1 8a 45 3e 49 5b e7 bd
       1.5365741 -1.8350534 0.19291212 -0.11296708
000190 04 6d 01 3e ad 48 22 3e 70 d7 1d bf 50 7a 19 bf
       0.12639242 0.15848036 -0.61656857 -0.5995226
0001a0 e2 cc 51 be 5b ba fd be b5 88 0d bf 7c 66 4f bf
       -0.20488313 -0.4955624 -0.55286723 -0.81015754
0001b0 90 4b a5 bc 06 c1 75 bd 79 50 04 bc 63 73 fb 3d
       -0.020177633 -0.059998535 -0.008075827 0.12277868
0001c0 e2 7c eb 3d 14 e1 08 3e fe 0d 37 bd 58 70 b1 bc
       0.11498429 0.1336711 -0.04469108 -0.021660015
0001d0 e2 6b ab 3b 40 5f 46 3f 45 d9 be 3d 20 ba 06 bf
       0.0052313665 0.7748909 0.093187846 -0.52627754
0001e0 64 7d 8e 3f 36 39 b5 3d a1 d7 4e bf 75 78 07 3f
       1.1132016 0.08848803 -0.80797774 0.5291818
0001f0 47 50 99 be de 43 59 bf f8 5a b0 be 40 7a 2c 3f
       -0.2994406 -0.8486918 -0.34444404 0.6737404
000200 32 fd 71 3f 61 21 0b 3f a7 05 16 3c 4f ec dd be
       0.9452697 0.5434781 0.009156621 -0.43344352
000210 87 d6 32 3f f9 26 80 bf cd c5 bf bf 8e a7 fe bc
       0.6985859 -1.0011894 -1.4982239 -0.031085756
000220 ac 03 35 3e 72 a2 3d 3e e9 1e 3e 3e 7c 9f 01 bf
       0.17677182 0.18518999 0.18566479 -0.5063398
000230 f5 12 58 bf 20 97 26 3f 01 32 d7 be 35 1f 59 bf
       -0.84403926 0.6507435 -0.42030337 -0.84813243

stage2.0.branch1.1.weight f4 [16]
000000 68 b9 94 3f 39 8f df 3f b2 bf fe 3f fc e3 d5 3f
       1.1619081 1.7465583 1.9902251 1.67102
000010 bf 89 bb 3f 80 f0 a1 3f 47 56 d4 3f c1 0c af 3f
       1.4651412 1.265152 1.658883 1.3675767
000020 87 94 e9 3f d2 b4 99 3f 49 72 11 40 26 05 bc 3f
       1.8248452 1.2008307 2.2726004 1.4689071
000030 fc 5e bb 3e 37 6c 82 3f 6f 02 be 3f 71 53 bd 3f
       0.36595905 1.0189275 1.4844493 1.4791089

stage2.0.branch1.1.bias f4 [16]
000000 ef ec dc 3d 17 91 b3 be 55 d3 6c 3f dc 47 81 3d
       0.10787379 -0.35071632 0.9250997 0.06312534
000010 cd 21 b9 be 40 9e 1e be e6 47 b2 3f 12 47 d2 be
       -0.361586 -0.15490055 1.3928192 -0.41069847
000020 98 bc d8 bd 09 63 3c 3f 55 86 88 bf 35 e7 a1 3e
       -0.105828464 0.73588616 -1.0665995 0.3162171
000030 a3 8d 38 be 51 c1 a0 be 16 ff af be 9f 83 b8 3d
       -0.1802278 -0.3139749 -0.34374303 0.0900948

stage2.0.branch1.2.weight f4 [16, 16, 1, 1]
000000 50 6a 5b 3e 60 32 2b 3f b6 5e 3e 3c c7 d0 82 3f
       0.21427274 0.6687374 0.011619261 1.0219964
000010 36 b6 1f be b5 f8 e8 3e 47 d4 38 3f 5a bf ef 3e
       -0.15596852 0.45502248 0.7219891 0.46825677
000020 c3 36 c7 3e 19 92 62 bf ae cd b7 3d 50 c3 de bd
       0.38908967 -0.8850418 0.08974777 -0.10877097
000030 d5 89 09 be 6f a1 00 bf 90 d7 ac bf a8 10 a8 3f
       -0.13431485 -0.5024633 -1.3503284 1.3130083
000040 1a 6b 1b bf 8a ee d8 bd bc 29 af 3d d2 94 16 3e
       -0.607103 -0.10592373 0.08552882 0.14705208
000050 58 f8 12 be 43 ba cf bd c8 8f 89 3d be 12 0b 40
       -0.14352548 -0.101429485 0.06716877 2.173019
000060 dc 83 0c be ec c7 55 bf d0 ca 15 be e4 88 1c 3c
       -0.13722175 -0.8350818 -0.14628148 0.009554122
000070 1e 6d 64 3d 38 73 a0 3d 12 71 dd 3e c4 d2 52 be
       0.055768125 0.07834476 0.43250328 -0.20588213
000080 33 33 35 bc 16 d9 18 3f 88 31 51 3d d6 99 9a bf
       -0.01105957 0.59706247 0.051072627 -1.2078197
000090 5b 23 0b 3d 62 33 c3 be 63 47 01 bf da c1 5d 3e
       0.033969264 -0.3812514 -0.5049955 0.2165598
0000a0 44 fc 04 40 3e 83 95 3d 3c b2 c7 3d 43 22 61 3d
       2.077897 0.07300423 0.097507924 0.054964315
0000b0 e5 43 06 3e 91 fb f0 bc dc d6 42 3e b5 00 6c bf
       0.13111837 -0.029416831 0.19027275 -0.9218858
0000c0 d3 f4 93 be 07 00 94 bf 06 54 55 bb 34 11 67 bf
       -0.28897724 -1.1562508 -0.0032551303 -0.90260625
0000d0 cd 24 64 bd b3 0c 9b bf 17 8e 84 bf 6e 1f a5 bd
       -0.05569916 -1.211325 -1.0355862 -0.08062635
0000e0 2f a9 ad 3e d7 41 16 3f aa 16 ec 3d 8c df 8e 3e
       0.3391814 0.58694214 0.1152776 0.27904928
0000f0 bb 97 16 bd 48 08 1d 3e 78 15 c6 3c 7c e5 63 3f
       -0.036765795 0.1533519 0.024180159 0.8902204
000100 62 72 b7 3e 9e b3 3d 3e d0 fe 44 be 12 14 7c 3e
       0.35829455 0.1852555 -0.19237828 0.24617031
000110 f5 a2 47 3f 5f 85 8a 3e fd ba 83 3e 83 cc 73 3d
       0.7798303 0.2705488 0.25728598 0.05952121
000120 b4 c3 5c 3c a2 eb 0e 40 2d 32 c2 3e 4c c2 cb be
       0.013474394 2.233132 0.37928906 -0.39796674
000130 c0 87 d4 bd 93 b2 be 3e f7 c0 97 bd ba 3d 0c be
       -0.10377455 0.37245616 -0.07409852 -0.13695422
000140 25 35 8a be ed 05 42 be dd 98 02 40 70 8b 79 bd
       -0.2699367 -0.18947573 2.04058 -0.060923994
000150 b7 f3 bd bd b0 01 3e be 18 ca 5f 3e 83 07 27 be
       -0.092750005 -0.18555331 0.21854436 -0.16311459
000160 44 3d d0 3d 13 a8 24 3d ed 9f 45 be 47 0d e7 bd
       0.101679355 0.04019935 -0.19299288 -0.11281829
000170 98 9d 5b 3d cb 94 ad bf 18 5b 62 be f3 59 92 3d
       0.05361709 -1.3561033 -0.22105062 0.07146063
000180 bd f2 6a 3e 1e 68 36 3c f6 10 4c 3e 00 22 63 3e
       0.2294416 0.011133222 0.19928345 0.22180939
000190 80 65 a1 3d a4 b5 d6 3e f6 fb d3 bd 51 dd 25 be
       0.07880688 0.41935456 -0.10350792 -0.16197707
0001a0 51 72 b6 3c b7 47 6d 3d d6 60 2c 40 a4 9f 23 3e
       0.022271307 0.05792972 2.6934104 0.15978867
0001b0 e3 f5 b1 3d 02 fd 38 3b ca 4d a4 bb 8a 41 a6 3d
       0.08689477 0.0028226976 -0.005014156 0.08117969
0001c0 f8 6c ac 3d 66 c9 df bf 37 28 b0 bb ee c9 c2 3c
       0.08419222 -1.7483337 -0.0053758877 0.023777928
0001d0 b1 76 53 bd df 6b cd 3e 47 0c b4 bf ff 41 47 3e
       -0.051626865 0.40121362 -1.4066247 0.1945877
0001e0 cc ad 50 bf f2 b2 ad bd bc 1a a9 3d 89 99 df bd
       -0.81515193 -0.08481397 0.08257052 -0.109179564
0001f0 ef eb c6 3c d8 b0 8b bc 7c 74 42 3f 1f d9 4a be
       0.024282424 -0.0170521 0.7595899 -0.19809388
000200 da 12 d6 be a1 02 ef 3d 70 46 83 be 89 d8 51 bd
       -0.41811258 0.11670423 -0.25639677 -0.051231895
000210 36 c9 6d 3e e4 9a 51 bf 76 c2 4d be 7f 7c d1 3d
       0.23221287 -0.8187697 -0.20093712 0.10228824
000220 3d 17 31 3f 24 7a 88 3f 5f 62 0a bd 2a 87 ee 3d
       0.69176084 1.0662274 -0.03378522 0.11646874
000230 71 e6 47 bc 4c 7a 0f 3e bb a8 fb 3d 9b c5 14 be
       -0.012200938 0.14011496 0.12288042 -0.14528506
000240 3b 89 32 be a4 6b f1 bc 76 67 1e bf f8 c5 fc bd
       -0.17435162 -0.029470272 -0.6187662 -0.12342447
000250 1d a2 f7 be 8e 6b bf bd 5a 3d f0 3d 00 15 be 3d
       -0.4836587 -0.09346686 0.11730452 0.09281349
000260 46 65 b7 3a 14 3c 70 be ec 75 b1 3c 47 be 21 40
       0.0013991974 -0.23460418 0.021662675 2.5272386
000270 ee 5d f5 bd 30 42 a0 be 7a 84 c7 be dd 19 c7 bd
       -0.11980806 -0.31300497 -0.3896826 -0.0972173
000280 83 6b 18 be b6 d0 91 be 81 4f b8 be 28 b9 fc 3d
       -0.14884762 -0.28479546 -0.35998157 0.12340003
000290 bb a4 46 3f ed d1 2e be d6 60 3f 3e 5b bc 76 bf
       0.7759511 -0.17072268 0.18689284 -0.9638116
0002a0 2b ec 9d 3e 7c 9e 6a be f7 0a a3 be e0 12 46 3d
       0.30844244 -0.2291202 -0.31844303 0.048357844
0002b0 0c 8f 06 bd 85 fa 3e bf 7b 92 04 3e 33 f8 05 3f
       -0.032851264 -0.7460101 0.12946503 0.52331847
0002c0 f5 35 be be 1c a1 43 bf 8c b7 01 3e 4f 35 19 be
       -0.3715054 -0.7641771 0.12667674 -0.14961742
0002d0 d0 d3 d7 bd f7 bf 16 bf a1 9b 84 bf 79 20 d0 be
       -0.10538447 -0.58886665 -1.0359994 -0.40649775
0002e0 b4 7d ec be 4e f0 67 3e 85 aa 22 3d ed ca 9d 3a
       -0.46189654 0.22650263 0.0397134 0.0012038626
0002f0 45 d3 0f 3c 13 dd 44 3e 96 4b 1f 3f b4 c8 c6 be
       0.008778398 0.19224958 0.6222471 -0.38825
000300 5c 0b 22 be 73 d1 32 3f 5d 65 e1 3e 01 a2 df 3e
       -0.15824646 0.69850844 0.44022647 0.43678287
000310 2b 20 5f 3e 4e e6 c6 3e 1f 24 21 3f 87 d1 d0 be
       0.21789615 0.38847584 0.6294574 -0.40784857
000320 bc d3 fe 3e fd 75 9e 3e 05 53 ac bc 65 50 0f bf
       0.49770916 0.30949393 -0.02103568 -0.5598205
000330 8a 67 4c 3d 15 c7 e2 3d fb 4d 65 bf 74 ca 93 3d
       0.04990343 0.11073128 -0.89572114 0.07216349
000340 e4 74 02 3f 11 e9 c6 3d ca 02 0d c0 8b 6c 0d 3e
       0.5095961 0.09712423 -2.2032952 0.13810937
000350 76 28 c3 be 9f d1 a5 3e 78 89 7d bc 14 70 94 bd
       -0.38116807 0.3238649 -0.01547467 -0.0724794
000360 15 64 06 3d cb 5e 10 3e 20 56 60 bd 40 e4 8a bd
       0.03281029 0.1409866 -0.054769635 -0.067818165
000370 05 f1 c5 3d c1 5e 8e bd b2 44 c7 bd 88 e3 ea bd
       0.096651115 -0.069516666 -0.097298995 -0.114691794
000380 ad 16 bf 3e 5e 62 2b 3d 69 ac e3 be d7 4e e4 3e
       0.37321988 0.041841857 -0.44467476 0.445914
000390 c7 f8 29 c0 b2 dd 38 3e b4 c2 31 bd 9d 9c 4c 3e
       -2.6558092 0.1805332 -0.043398574 0.19981618
0003a0 ec 95 92 be 4c 08 5f 3d 5d ed 8c 3d 86 61 b4 3d
       -0.28630006 0.054451272 0.06881211 0.088076636
0003b0 b1 35 45 3c e1 35 0b 3e 8f ac 1a 3e 66 92 82 be
       0.012036727 0.13594772 0.15104888 -0.25502318
0003c0 fc df c8 3e a3 05 66 3f 2c 65 26 3d b5 1e 18 bf
       0.39233387 0.8985235 0.04062383 -0.59421855
0003d0 32 66 13 be 6e 9d fa 3c 23 5d 5f 3f cf 7b 86 be
       -0.14394453 0.030592646 0.8725149 -0.26266333
0003e0 8a 37 ea 3e 70 14 a8 be dd 92 65 bb d5 e0 b2 3d
       0.45745498 -0.32828093 -0.0035030164 0.087342896
0003f0 ea 4c ba bc ba 85 3a be 36 21 f8 be fa ef 36 bf
       -0.022741754 -0.18215075 -0.48462838 -0.71459925

stage2.0.branch1.3.weight f4 [16]
000000 e8 37 d3 3f 71 1e b5 3f cf e0 ff 3f 5c 4b 05 40
       1.6501436 1.4149915 1.9990481 2.0827246
000010 5c 83 d1 3f fe b8 f6 3f 13 b3 f6 3f 38 2a dd 3f
       1.6368213 1.9275205 1.9273399 1.7278509
000020 10 98 87 3f 6c 0a a5 3f 49 4d 6e 3f a6 39 8d 3f
       1.0593281 1.2893806 0.9308668 1.1033218
000030 dc 22 6d 3f 53 66 ca 3f bd 65 aa 3f da 78 8d 3f
       0.92631316 1.5812477 1.3312298 1.1052506

stage2.0.branch1.3.bias f4 [16]
000000 1f 5e f3 bc 7d f2 74 3f aa de 2e 3d 63 59 0c 3f
       -0.029707966 0.9568251 0.042692818 0.54823893
000010 8c 30 78 3e f9 5b da be d8 9d 1e be 24 81 a2 3d
       0.24237269 -0.42648295 -0.154899 0.07934788
000020 ac 29 00 3f e4 b4 9b 3e 1b 18 13 3f 13 10 93 3e
       0.50063586 0.30411446 0.5745866 0.287232
000030 37 b4 a5 3e b5 27 16 bd 9b e1 d9 3d f0 0e f6 3e
       0.32364056 -0.03665896 0.10638734 0.4805827

stage2.0.branch2.0.weight f4 [16, 16, 1, 1]
000000 8f 01 5b 3d 2a 5f 92 be 61 c5 04 3e a4 fb 74 3e
       0.053468283 -0.2858823 0.12965919 0.23924118
000010 18 86 a8 bc 9c cf c2 3f 4f f4 ff 3e da c8 ec be
       -0.020571753 1.5219607 0.4999108 -0.46246988
000020 05 ce d3 be bc 66 38 3d ca 8d ee bc e4 9e 41 bd
       -0.41368118 0.04501985 -0.029120345 -0.04727067
000030 81 4b 6e 3f a5 e7 0f 3f bc 64 2e 3f 58 bd 95 be
       0.9308396 0.56212837 0.6812246 -0.2924602
000040 1a eb f3 3e 0a 68 eb 3d 05 c2 84 bf 38 20 d7 bd
       0.47640306 0.11494453 -1.037171 -0.10504192
000050 a5 00 45 bf d2 29 c3 3c 20 5b df 3e 75 9f 5d 3f
       -0.7695411 0.023823652 0.4362421 0.8657144
000060 30 4f c0 3e 69 7f d3 3e 9e bd c9 3e 9f d7 be be
       0.37560415 0.41308144 0.3940248 -0.3727388
000070 a3 3b fd 3e 8f b4 fb 3e 54 d4 b6 3e 3f a6 bd bd
       0.49459562 0.49161193 0.35708869 -0.092602246
000080 59 d5 ad 3f 25 8d 50 be 2c 4a 53 3e 99 ff cc 3d
       1.3580734 -0.20366342 0.20633763 0.10009689
000090 03 6d 8e 3d 5a 09 96 bd c4 7a 3f bf 66 7c f5 3e
       0.06954386 -0.073260024 -0.747967 0.4794647
0000a0 ea 09 a3 3d 3b 59 23 3f a9 1d 71 be 63 ff 36 3c
       0.07960875 0.6380803 -0.2354647 0.011169287
0000b0 25 5f 6d 3d 3b 57 13 be 72 f8 9b bd d1 3a a5 3e
       0.057952065 -0.14388745 -0.076157466 0.32271436
0000c0 e5 91 8a 3f 4f 32 ca 3d e1 5b 03 bc 89 76 b3 3e
       1.0825773 0.09872877 -0.008017511 0.35051373
0000d0 47 46 6f 3e 10 2b 03 bd c5 af 39 bf 01 1f 0e bf
       0.23366652 -0.03202349 -0.7253383 -0.5551606
0000e0 be b4 e7 be e0 14 c2 be 62 1d 2d 3e cf 89 1a 3f
       -0.45255083 -0.3790655 0.1690574 0.6036653
0000f0 d9 66 46 be c5 f8 8c bc cc ec 21 3f 1e 20 5d be
       -0.19375171 -0.017208466 0.6325195 -0.21594283
000100 3e 07 b1 3f 7f 6c da be 37 68 3c bf 73 d7 7d bd
       1.3830335 -0.426609 -0.7359652 -0.061973047
000110 a3 4e 74 3f f1 82 c8 3d 37 06 1d 3f 5f ae 8a 3d
       0.9543249 0.097906 0.6133761 0.0677154
000120 e4 9b 8d 3e d2 70 39 3e 9c c3 ac bd ca bf 74 3f
       0.27657998 0.18109444 -0.08435747 0.95605147
000130 c4 21 8d 3d cf f0 b0 be 60 84 01 be 40 f1 cc 3e
       0.06891206 -0.34558722 -0.12648153 0.4002781
000140 5f f0 28 3d 35 40 ae 3e a0 5d 03 3f 13 fa cb bd
       0.04124486 0.3403336 0.51314735 -0.09959807
000150 9b c0 71 3f 29 f1 1b 3f 85 a5 4b 3e 12 59 af 3d
       0.9443452 0.60914856 0.1988736 0.08561911
000160 6b ea 2d 3f 55 b7 02 3c ec 9b 5d be a7 db 53 3f
       0.6793582 0.00797828 -0.2164151 0.8275704
000170 6a f2 3a 3f 3d 76 8c 3e f9 92 5f be e8 a9 6d 3e
       0.73026145 0.2743396 -0.2183341 0.23209345
000180 62 f7 50 3e 5d 92 a5 3e fa 4e 65 3e 93 70 f5 be
       0.20406869 0.3233823 0.22393408 -0.4793745
000190 6d 43 61 3e f0 29 88 3f c7 5d 8e 3f 8a 5d da 3b
       0.21998377 1.0637798 1.1122369 0.0066639828
0001a0 13 20 f3 3e 82 63 3d 3e ea 8b 5c 3e 25 4d a2 3d
       0.47485408 0.1849499 0.21537748 0.079248704
0001b0 9b 0a 7a 3f a9 c5 ef bc 28 37 06 bf e3 f1 57 3f
       0.9767243 -0.029269056 -0.5242791 0.84353465
0001c0 04 d5 51 3f a3 ad 33 bf 6f 33 73 3e b5 1b aa bc
       0.8196566 -0.70186824 0.23750089 -0.020765165
0001d0 d2 78 be 3e 19 80 8e bf a5 ba 15 3f 82 c7 39 3f
       0.37201554 -1.1132842 0.5848792 0.7257005
0001e0 8a 5c 99 bd 44 f3 d4 3c 45 87 44 3e 4e 3f 47 bd
       -0.074883536 0.025994904 0.19192226 -0.048644356
0001f0 79 45 41 bf a7 e1 4f bf 59 e4 43 3e de 55 60 bf
       -0.7549663 -0.81203693 0.19130076 -0.8763102
000200 fc 97 22 be 03 4f 2a be d3 76 33 bf 33 b7 a2 be
       -0.1587829 -0.16631703 -0.70103186 -0.31780395
000210 6e 55 f5 bf 2f 9a 6f be 8d 79 ef 3e 91 22 b0 3f
       -1.9166696 -0.2339866 0.46772423 1.3760549
000220 ac bf 01 be 3b 2b 24 be 38 9a ba be c0 32 b6 bf
       -0.12670773 -0.16032116 -0.36445785 -1.4234238
000230 0d 7c d6 3e ec 6f c7 be f8 0e d6 bd de 6f a7 3e
       0.41891518 -0.38952577 -0.10452074 0.32702535
000240 d2 7f 70 3f 7b 7a d4 3d 85 4f f8 3d 3d e0 c6 be
       0.9394504 0.10374924 0.12124542 -0.38842955
000250 e1 d6 aa be 8a 49 13 bf 06 95 e3 3d ba 16 17 bd
       -0.33367065 -0.57534087 0.11112408 -0.036886908
000260 b4 f5 40 bf 0d cd 13 3f 13 be 77 3e 4d 7c e0 be
       -0.75374913 0.5773476 0.24193601 -0.43844834
000270 43 d1 b7 bd 14 28 c9 3c ec 1c 75 3e 1a 58 78 3f
       -0.089754604 0.024555244 0.23936814 0.9700943
000280 d4 03 d4 3e c8 ae a9 bb 7b 81 5b bb 86 ee 38 3e
       0.4140917 -0.0051783063 -0.0033493924 0.1805974
000290 9b 5b f0 bd 7a 25 00 3f c2 fb d1 3d b1 29 88 be
       -0.11736222 0.50057185 0.10253097 -0.26594308
0002a0 78 3c c3 3d 62 f1 1a be be 5c f2 3e 2d e0 8a bd
       0.09533018 -0.15131143 0.47336382 -0.067810394
0002b0 f6 b6 88 3e 12 fb 08 bd 9b e9 f3 be 71 26 58 be
       0.26702088 -0.033442564 -0.47639164 -0.21108414
0002c0 16 cb a6 3d 81 6c 17 be c4 1f 1f be 9c cc bc bf
       0.08144204 -0.14787485 -0.15539461 -1.4749942
0002d0 6b 61 63 3d 33 28 78 3e fe e4 5d 3f f7 b1 5b bd
       0.055512827 0.24234085 0.8667754 -0.053636517
0002e0 f1 41 5c bf 6a b8 8c 3e 6c 2d 17 be 30 d7 ce bd
       -0.8603812 0.27484447 -0.14763421 -0.100996375
0002f0 2f 39 b9 3e d4 47 cf 3d 4a 11 93 bf 91 f7 95 3f
       0.3617644 0.10121122 -1.1489651 1.1716176
000300 5c a9 31 be d4 06 b6 3f a9 a7 74 bd 39 ca 6b 3e
       -0.17349762 1.4220834 -0.059730206 0.2302636
000310 b3 60 4d be 2b a7 f7 3c 99 36 06 be 1e 5e 69 be
       -0.20056419 0.03023108 -0.13106765 -0.22789809
000320 33 01 63 bf 84 57 18 be 9c 15 bf 3d 5c c7 dc bc
       -0.88673705 -0.14877135 0.093302935 -0.02695053
000330 c2 09 93 be 98 e1 5d be 98 37 90 3f 1b 4e b3 3e
       -0.28718382 -0.21668088 1.1266966 0.35020527
000340 aa 1f bd 3e 2f ca e4 3e ca c3 36 3f 8f d3 25 3b
       0.3693822 0.44685504 0.713925 0.00253031
000350 7b 69 53 bd b5 86 0b 3b 17 79 03 3f e6 4e 5c 3d
       -0.051614266 0.0021290008 0.51356643 0.05378618
000360 56 2e c2 3e 4f 56 f1 3e b2 1d 0d 3e 2d c8 c1 be
       0.37925977 0.4713616 0.13780859 -0.37848035
000370 ad ec b3 3e 0c f2 de bf 21 36 bd bd 97 2a 8a 3e
       0.35141507 -1.7417617 -0.0923884 0.26985618
000380 d2 4a 20 3e d4 a6 e7 be 0b 92 17 bb 7b 7d e9 3f
       0.15653542 -0.45244467 -0.002312782 1.8241419
000390 4d d3 e7 3d 81 dd 6b be 12 1f 84 3f e2 2a 21 bd
       0.11319599 -0.23033716 1.0321982 -0.039347537
0003a0 4d ed a3 3f b3 b6 d7 3d 88 48 8a bd cf ba 72 be
       1.2806793 0.10532894 -0.067521155 -0.23704074
0003b0 6d 9d 2b bf 91 61 8d 3d 07 aa ed 3e ea ca 30 bf
       -0.6703709 0.06903375 0.46418783 -0.6905962
0003c0 c2 43 89 bd 72 50 8f 3e 91 22 d8 bc 66 51 35 bf
       -0.06702377 0.27991062 -0.02638367 -0.7082733
0003d0 dd 94 1a 3f 1c 2b de be 94 df 31 3f 08 5e db be
       0.603834 -0.43392265 0.6948178 -0.42845178
0003e0 28 76 87 bf 22 8e ee be a6 e6 f5 be 1e aa 1e 3f
       -1.0582933 -0.46592814 -0.48027533 0.6197833
0003f0 c6 dc 43 be a5 d1 cb bd ab 5d 6c be 9c 63 b0 be
       -0.19127187 -0.09952096 -0.23082606 -0.34450996

stage2.0.branch2.1.weight f4 [16]
000000 98 64 8a 3f 2b 29 82 3f 57 67 8a 3f 3e ea 7d 3f
       1.0811949 1.0168813 1.0812787 0.9918555
000010 e1 d4 e1 3f 5f 1e 93 3f dd 6a 59 3f 96 7c 91 3f
       1.764309 1.1493644 0.84928685 1.1366146
000020 83 d6 d7 3f ee 78 90 3f 7d 3e b6 3e 4e cf a5 3f
       1.6862339 1.1286905 0.3559455 1.2953889
000030 74 93 b2 3f 58 cb 82 3f 34 77 b9 3f d1 80 93 3f
       1.3951249 1.0218306 1.4489503 1.1523687

stage2.0.branch2.1.bias f4 [16]
000000 64 40 92 bf 6c f7 11 3f ca 3b e0 3e 6a 97 9e 3e
       -1.14259 0.5701816 0.43795615 0.30974895
000010 3a 9d 39 3e ad b5 5f be cf 73 aa bd 4f 3f 99 3f
       0.18126383 -0.21846648 -0.0832287 1.1972445
000020 49 3f 97 3e 97 24 a8 3e 8b 4b 82 3f 66 16 67 3f
       0.2954047 0.32840416 1.0179304 0.9026855
000030 71 7a 1f bf d3 33 08 3e 6f 64 93 bf f4 ff 99 3f
       -0.62296206 0.1330102 -1.1515025 1.2031236

stage2.0.branch2.3.weight f4 [16, 1, 3, 3]
000000 59 1f 96 bd fe a6 b6 3e 81 d2 cb 3e ee f0 1b 3e
       -0.07330198 0.3567428 0.3980904 0.15228626
000010 69 bd c0 be 8d cc 12 bf 8c b7 ed 3d c0 9c 73 bf
       -0.37644508 -0.5734337 0.116072744 -0.95161057
000020 36 93 57 bf 2f 7f d5 3e b5 c3 1b 3f 26 a0 96 3e
       -0.84209 0.41698596 0.608455 0.2941906
000030 16 da e7 be 77 76 44 be 1d 73 1f 3e 66 bd 25 bf
       -0.45283574 -0.19185816 0.15571256 -0.64742124
000040 04 73 69 bf 47 e6 f2 be 91 8b 31 3d 3b be 85 be
       -0.91191125 -0.47441313 0.04334599 -0.26121697
000050 84 b8 f0 be 30 14 2a be 1f 12 ca 3e d4 5b ea 3e
       -0.47015774 -0.16609263 0.3946695 0.45773184
000060 79 80 c3 be 90 28 5f 3f 59 6a 67 3f 25 cd 09 be
       -0.38183954 0.8717127 0.9039665 -0.13457163
000070 f1 ad 00 be 65 ab 36 be 70 93 82 3c 29 4d b7 3e
       -0.12566353 -0.1783882 0.015939444 0.35801056
000080 d8 eb 1b 3f ab 8c 16 bd 29 bf f8 3e 29 df 55 3f
       0.60906744 -0.036755245 0.48583344 0.8354364
000090 0e e5 f4 bc 2c 19 a9 3e 30 c0 b8 3e 94 3a b2 3d
       -0.029894378 0.33027017 0.36084127 0.08702579
0000a0 d7 b6 cf be 51 93 50 bf fd ad 7a be 9d 71 2e bf
       -0.40569183 -0.81474787 -0.24480434 -0.6814211
0000b0 06 cb b9 bf 09 5f 08 be 64 74 7d 3d a4 6e 10 bf
       -1.4515083 -0.13317503 0.061878577 -0.56418824
0000c0 bb 68 0a be 26 f1 2d bf 2e 13 79 bf f3 cc 36 3e
       -0.13516514 -0.6794609 -0.9729489 0.1785162
0000d0 2e 4a 68 3d e4 d2 04 be 52 6d a0 be 3c f4 f9 3d
       0.05671137 -0.12971073 -0.31333405 0.12204787
0000e0 98 a5 2c 3f ce 4c bc 3e 4e 47 83 bd 2c c7 fb be
       0.67440176 0.36777347 -0.06410085 -0.49175394
0000f0 0d b1 44 3f 2e 10 a5 be 10 97 cd bf bc 8f 47 bd
       0.7683266 -0.32238907 -1.6061726 -0.04872106
000100 6d 5a 4b 3e 04 25 b5 be d3 c1 5d be 19 fe fe be
       0.19858713 -0.35379803 -0.2165597 -0.49803236
000110 a8 c1 e5 be 74 47 08 bf e5 36 50 bf 1b 92 0f bf
       -0.4487431 -0.5323403 -0.8133376 -0.56082314
000120 1b 45 59 be 38 23 57 3e 70 ff d6 3e 2a 32 25 be
       -0.21217768 0.21009529 0.41991758 -0.16132417
000130 8b db 1a 3f 70 6e 7d 3f 72 84 2d 3e b4 33 1a 3f
       0.60491246 0.9899664 0.16945055 0.6023514
000140 42 ff 66 3f fa 47 35 be 0d c2 af 3d bd a2 07 be
       0.9023324 -0.17703238 0.08581934 -0.13245673
000150 fb 50 66 be 0f 31 07 3f b2 0c 13 3f 41 74 24 bd
       -0.22491829 0.5280923 0.57441247 -0.04014993
000160 29 2d 23 3f 74 e3 83 3f 79 99 44 3f 18 17 1c 3e
       0.63740784 1.0303788 0.7679668 0.15243185
000170 d1 eb 6a 3e 7c 87 31 3f b0 6d a8 be 6f fa 5e be
       0.2294152 0.6934736 -0.32896185 -0.2177522
000180 ea b5 35 3f db c3 d3 be f3 c2 47 be 37 c3 e5 bd
       0.70980704 -0.41360363 -0.19507961 -0.11218875
000190 23 50 7d be d2 1f 3a bf 8a 92 dd be ac ca 56 3e
       -0.24737601 -0.72704804 -0.43275863 0.2097575
0001a0 5b 18 93 3e 98 c9 bc be 3b af 91 3f 98 67 e0 3f
       0.2872952 -0.36872554 1.1381601 1.7531614
0001b0 c8 4b 3c 3d cc 37 38 be 2d fc 79 bf 04 51 92 be
       0.045970708 -0.17990035 -0.97650415 -0.28577435
0001c0 c2 6e 88 3e 92 f0 df 3e 14 98 e0 be b1 72 13 3f
       0.26647002 0.43738228 -0.43866026 0.5759688
0001d0 0b 33 cc 3f 6d e4 8b 3e 72 60 10 3f 30 2e cf 3e
       1.5953077 0.27322713 0.56397164 0.40464926
0001e0 8e a2 c2 be df 31 76 be 2e 1d 7d bb 84 d8 b3 be
       -0.38014644 -0.24042462 -0.0038622129 -0.35126126
0001f0 fc b0 7e bf 20 b0 7a bf 6c 7f 40 be 67 53 4a 3e
       -0.99488807 -0.97924995 -0.18798608 0.19758378
000200 71 1a 51 3f 02 d4 8c 3e 13 9d d7 be 97 a5 1a bf
       0.8168097 0.275055 -0.42112026 -0.6040892
000210 5a 32 45 3f b6 da 20 bf c0 f3 bd bf fb b3 ff bd
       0.77029955 -0.62833726 -1.4840012 -0.124855004
000220 1e 53 43 be d1 7a 0e bf 20 04 3c be 9a 07 73 3e
       -0.19074675 -0.5565615 -0.18360949 0.23733369
000230 c9 b6 23 3f e5 dd db bc 08 8f 1d 3f bb d6 b4 3f
       0.63950783 -0.026839206 0.61546373 1.412803

stage2.0.branch2.4.weight f4 [16]
000000 b3 9e ad 3f 12 a9 9d 3f 24 ed a6 3f 9f 95 c0 3f
       1.3564056 1.2317221 1.304112 1.5045661
000010 f0 a2 44 3f c2 c7 8e 3f 0f 2b bd 3f 2e 41 8e 3f
       0.7681112 1.1154711 1.4778765 1.1113641
000020 bd 43 b8 3f 79 0e 94 3f 3a 71 87 3f 44 04 aa 3f
       1.4395672 1.1566917 1.0581429 1.3282552
000030 3d f1 b9 3f 76 f2 a0 3f dc 69 b2 3f 7b 11 95 3f
       1.4526745 1.2573993 1.3938556 1.164596

stage2.0.branch2.4.bias f4 [16]
000000 d6 b1 b8 bd de 49 3c 3d 5d 7f 87 bf 79 b1 b6 bf
       -0.090182945 0.045968883 -1.0585743 -1.427291
000010 7d 2d 46 3f c8 1b de 3e 1f 78 96 bd e7 9f 49 3f
       0.7741316 0.4338057 -0.0734713 0.78759617
000020 6d c9 8b be da 68 4a bf 87 08 0f bf e4 c6 ea be
       -0.27302113 -0.7906624 -0.55872387 -0.45854867
000030 1d 06 c3 bb fd 15 84 3f c5 c3 61 3f 6e 68 8e be
       -0.0059516565 1.031921 0.88189346 -0.2781405

stage2.0.branch2.5.weight f4 [16, 16, 1, 1]
000000 7a 61 a5 3e fd 60 fa 3e c5 c2 4a 3f 94 f0 4f 3f
       0.3230093 0.4890212 0.79203445 0.8122647
000010 20 59 b8 be 51 94 40 bd 10 6c a1 3f 97 fa 57 bf
       -0.36005497 -0.047016446 1.2611103 -0.84366745
000020 d1 a3 93 3d 27 32 65 bd 04 41 f3 be aa c9 42 bf
       0.0720898 -0.055956032 -0.4751054 -0.76088965
000030 e8 4e 47 bf 18 31 60 3e 48 7f 05 3f 02 7f 44 be
       -0.77854776 0.21893728 0.5214734 -0.19189075
000040 52 1f 37 3f 75 84 2f bd 90 5f 96 be 77 7a df be
       0.71532166 -0.04285093 -0.29369783 -0.4364812
000050 1f eb 9f 3e b4 07 8c 3e 97 b6 19 3f 76 01 3e be
       0.3123407 0.27349627 0.60044235 -0.18555245
000060 31 c1 dc be fc a1 4e bf 81 25 52 bf 75 2a 1a bf
       -0.43116143 -0.8071592 -0.82088476 -0.60221034
000070 0b fc 30 be 7d 86 b8 3e 0d f4 7a 3e 00 b6 9f 3e
       -0.17283647 0.36040106 0.2450716 0.31193542
000080 94 aa 88 3d 0f 6c 81 3e 3c 8e 3d 3f a8 af 0c be
       0.0667316 0.25277755 0.7404516 -0.13738883
000090 53 d7 25 bf ee a7 38 3f 9f 58 61 3e f2 cb 64 bf
       -0.64781684 0.7213124 0.22006463 -0.89373696
0000a0 53 cc 53 be e7 54 57 3e c4 93 90 be 3c 24 f5 3e
       -0.20683412 0.21028481 -0.28237736 0.47879207
0000b0 f1 35 1a 3e 81 9f ec be e8 d2 1d 3e 44 1a cd 3d
       0.1505964 -0.46215442 0.15412486 0.100147754
0000c0 f6 2f 90 bf d2 42 01 3e c1 81 a5 3c f8 5d 1c bf
       -1.1264637 0.12623146 0.020203473 -0.61080885
0000d0 59 90 97 3e b1 34 99 be d1 61 36 be 85 df 2f 3f
       0.29602316 -0.29923013 -0.17810751 0.6870044
0000e0 c2 9c 97 be 3f 02 7e bf ef ca c1 be 2b 9d b1 bd
       -0.29611784 -0.9922218 -0.3785014 -0.086725555
0000f0 fb 70 b0 3d b0 3d d2 3d 52 32 76 3e 45 22 09 bf
       0.08615299 0.10265672 0.24042633 -0.53567916
000100 03 7e 00 3f ac 82 75 3e bb 6f 52 bf 4d dc 7b bf
       0.5019228 0.23975629 -0.8220174 -0.9838303
000110 36 98 ce 3d 34 d4 37 3e af 65 be 3c e4 c8 9a be
       0.10087626 0.17952043 0.023241846 -0.30231392
000120 81 9c b1 3d bc 30 ef 3e f8 52 ba be 9a 2a 71 3f
       0.08672429 0.4671687 -0.36391425 0.9420563
000130 8e 3e 33 bf 88 a8 89 bd 17 b3 06 3f 7c 90 0a 3f
       -0.70017326 -0.06721598 0.5261702 0.54126716
000140 49 4a 39 3d 17 8b 01 3e 8f ce cd 3e 49 94 09 bf
       0.04523686 0.12650715 0.40196654 -0.5374189
000150 93 b6 8a 3f 80 23 a5 3f c6 5c f2 3e 4a 99 12 3f
       1.0836967 1.2901459 0.47336406 0.5726515
000160 c9 3c 8b 3e d5 05 6f 3f f8 30 a6 be d9 d8 58 3e
       0.27194813 0.93368274 -0.32459235 0.21176471
000170 1f 28 3b be de 01 3b bd c2 bb b4 3e 8f e5 da be
       -0.18277024 -0.045656078 0.35299498 -0.42753264
000180 bd b3 10 3f 9f 38 40 3d b8 b2 13 bc 88 74 ad 3e
       0.5652426 0.046928998 -0.009014778 0.3387797
000190 88 27 00 3f c9 9d 73 3e dc a1 28 3f bf e4 b5 be
       0.5006032 0.23790659 0.6587198 -0.35526082
0001a0 20 37 11 bf ee e0 8e be b1 cd 97 be 11 0a 3a bf
       -0.5672474 -0.27905983 -0.29649118 -0.7267161
0001b0 e0 a9 52 3f 9a 77 d3 be 73 f0 ac bf 2e 70 ef be
       0.8229046 -0.41302186 -1.3510879 -0.46765274
0001c0 b1 28 9d 3e 55 dd 8a bf 2d ec dd bd d6 28 e5 be
       0.30695108 -1.0848795 -0.108360626 -0.44757718
0001d0 8b 9b 4e 3e ea 73 4c 3e a2 d8 34 bc 0d f1 06 bf
       0.20176522 0.19966093 -0.011037977 -0.52711564
0001e0 77 00 b5 3f 27 2c 55 be 15 1d f7 be e5 67 52 bf
       1.4140767 -0.20817624 -0.48264375 -0.8218978
0001f0 ce f5 e8 bc 27 69 79 be 38 ea b2 3e 58 23 cb be
       -0.028437521 -0.24356519 0.3494432 -0.39675403
000200 f6 35 66 be a3 f2 ee 3d b6 3a 99 3b 1a 9f 47 bf
       -0.22481522 0.11667373 0.0046761883 -0.77977145
000210 ad 48 0f ba ef 25 02 bf 50 b7 16 bf 87 ae fe be
       -0.00054658466 -0.5083913 -0.5887346 -0.4974253
000220 a8 68 08 bf e4 dc 5c be bd 75 8e 3d ee b4 99 be
       -0.5328469 -0.21568638 0.069560505 -0.3002085
000230 2f 8c 6f bf 11 c9 85 bf eb e2 d9 be a2 53 f5 3e
       -0.9357328 -1.0451986 -0.42555937 0.4791537
000240 2f 5d d1 3e 7f 7b 09 be 83 cc 69 3f 1d d4 14 3f
       0.40891406 -0.13426016 0.91327685 0.5813616
000250 99 e1 9d be e2 76 bf be 05 06 0a 3e 92 4f e5 be
       -0.3083618 -0.37395388 0.13478859 -0.4478727
000260 37 48 c2 be 56 80 02 3f ba 70 62 3e 8b b2 03 bd
       -0.3794572 0.50977075 0.22113314 -0.032152694
000270 2a 25 80 bd 4f dd 9b be 79 59 c9 be c8 8e 11 bf
       -0.062570885 -0.30442283 -0.39326075 -0.5685849
000280 ec 4e 17 bf 08 3a 1b be 27 53 bb be b4 2f 95 3d
       -0.591048 -0.15158856 -0.36586878 0.07284489
000290 02 00 2c be 84 b6 1c be 86 ab 42 be 89 52 89 3e
       -0.16796878 -0.15303999 -0.19010743 0.26820782
0002a0 21 59 5b 3e 79 95 b3 3e 7e 03 b2 3e d5 7f 2b 3f
       0.21420719 0.35074976 0.3476829 0.6699193
0002b0 6d 89 26 3f df 0b a9 3e 8b 10 7b 3e 34 8e 18 3d
       0.65053445 0.3301687 0.2451803 0.03724499
0002c0 5e 22 24 bf 33 6e e9 bd a8 9d 09 3e e0 cc 94 3c
       -0.6411494 -0.11397972 0.13439047 0.018164098
0002d0 66 09 11 be e7 3b 16 3d 71 34 41 bf 88 23 85 be
       -0.14163741 0.03667822 -0.75470644 -0.2600367
0002e0 ab 2a 97 3e 53 6d 60 be b2 c3 dd bd b8 a7 3a bf
       0.2952474 -0.21916704 -0.108283415 -0.7291217
0002f0 2b f7 f4 3c 76 6d f0 bd 1b e1 5d bf 0c 43 16 bf
       0.029903015 -0.11739628 -0.8667161 -0.58696055
000300 05 74 c6 3c 4f 02 66 bf 07 12 b6 3e 64 a2 f3 be
       0.024225244 -0.8984727 0.3556063 -0.47584832
000310 a8 9c bd 3e 47 32 c3 be 38 40 2c be 7e 55 00 be
       0.37033582 -0.38124296 -0.16821373 -0.12532613
000320 29 8c cb be 00 cc 3e 3e 92 e9 da 3e cd 2b 4f 3e
       -0.3975537 0.18632507 0.42756325 0.20231552
000330 b1 0f 03 3f dc 74 70 3f 39 bf 01 be f3 2a df be
       0.5119582 0.93928313 -0.12670602 -0.43587455
000340 11 74 ed 3e 10 09 d4 3e 02 c0 97 3d 74 15 bf bd
       0.46377614 0.41413164 0.074096695 -0.09330264
000350 b9 46 66 3e b3 31 c7 be 62 18 93 3e c5 a4 7c be
       0.22487916 -0.38905105 0.2872954 -0.2467223
000360 3f 06 3f bf 69 08 02 3f 3a b3 13 bd 7f 79 8e bd
       -0.74618906 0.5079408 -0.036059596 -0.06956767
000370 dd 55 35 3f 7b 3f bb be f9 97 0f 3f f1 3b 28 3f
       0.7083414 -0.3657187 0.56091267 0.65716463
000380 e3 87 78 3e 2e e6 47 bd 2f 0d 65 bd c9 a9 97 bb
       0.24270587 -0.0488035 -0.055920776 -0.0046283943
000390 a8 9e 6d 3e 9b e1 32 3c 8b b9 38 3f c4 ed 62 3e
       0.23205054 0.010918046 0.72158116 0.22161013
0003a0 43 03 3f 3e f4 b3 87 3e 3c 2c 73 3d 14 9e 0a bf
       0.18653588 0.2650448 0.059368357 -0.5414746
0003b0 b6 60 23 3e 58 39 44 bf 94 35 99 3e 24 2f 76 bd
       0.15954861 -0.7665 0.2992369 -0.06010355
0003c0 cd e1 33 3e e8 3c dc 3e e7 c0 0d 3e 69 93 dd be
       0.17566605 0.43015218 0.13843118 -0.43276528
0003d0 db f2 e7 3e 2e a3 81 3c d9 08 82 be 77 b6 5b 3d
       0.45302472 0.01582488 -0.25397375 0.05364081
0003e0 42 94 a9 3e b1 1a cc 3e 0a f5 51 3f e3 d2 09 3f
       0.33120924 0.39864114 0.82014525 0.5383741
0003f0 5d 79 03 3f cd aa 51 bf b1 e5 7f be 4a 0c 0e bf
       0.5135706 -0.81901246 -0.24989964 -0.554875

stage2.0.branch2.6.weight f4 [16]
000000 08 fd d1 3f 44 aa c4 3f b2 7a da 3f 1c 6e aa 3f
       1.6405344 1.5364461 1.7068694 1.3314853
000010 75 dc c3 3f 11 fc 97 3f 11 4d c8 3f 31 10 ac 3f
       1.5301653 1.18738 1.5648519 1.3442441
000020 7f f9 28 3f 4a b8 7a 3f ee d9 84 3f f8 9a 7c 3f
       0.660057 0.9793745 1.0379007 0.98673964
000030 b4 92 4e 3f ed 38 3b 3f ba a7 41 3f d1 d0 4c 3f
       0.806926 0.73133737 0.75646555 0.8000613

stage2.0.branch2.6.bias f4 [16]
000000 a3 af 3e be a1 21 0a 3f 61 ad 30 3d 89 9e b9 3e
       -0.18621688 0.53957564 0.043134097 0.36253765
000010 26 70 90 bd 3c 12 93 3f 68 ce 21 3f 30 3a 16 3d
       -0.070526406 1.148994 0.63205576 0.036676586
000020 6f 8d 2b 3f 63 42 bd bd a9 77 2c bf 55 71 ce bd
       0.67012686 -0.09241178 -0.67370087 -0.1008021
000030 cb 6e 3f 3f 49 d0 f2 3e d0 95 f8 3e c0 8d 16 3f
       0.7477843 0.47424534 0.48551798 0.58810043

stage2.1.branch2.0.weight f4 [16, 16, 1, 1]
000000 d4 b6 26 bd e2 72 80 be e6 97 b3 3f 8e 5f e6 3e
       -0.040701702 -0.2508765 1.4030731 0.44994777
000010 04 3f d7 bd cb 1b a2 bc e0 c5 64 be 9d 9f 2d 3e
       -0.10510066 -0.019788643 -0.22341108 0.16955419
000020 16 94 d0 be 52 b6 50 3d 75 91 eb bf 3a f8 60 be
       -0.4073798 0.050955124 -1.8403765 -0.21969691
000030 4c 96 af 3f 8d 44 4f 3d d1 fe a6 3e 00 2f 60 3d
       1.3717742 0.050602484 0.32616284 0.054732323
000040 20 2f 72 bf 9e 55 1d 3f 14 52 f1 be 03 7f d1 be
       -0.9460316 0.61458766 -0.47132933 -0.40917215
000050 c8 17 06 be cf d4 2b 3f 4e 8d 2c 3e 81 f7 23 3f
       -0.1309501 0.67121595 0.16850778 0.64049536
000060 ed a0 c2 3e 62 e1 1a 3d 6c 36 82 bb d9 7e bd be
       0.38013402 0.037812598 -0.0039737727 -0.3701084
000070 ff 53 7c be 89 ca 57 be f1 be 3a 3d 98 b6 d1 3d
       -0.24641417 -0.21073355 0.045592252 0.10239905
000080 16 99 89 be 37 5a f2 3e f7 c2 f9 3c c9 08 9e 3e
       -0.26874608 0.47334453 0.030488474 0.30866078
000090 75 42 5b be 68 53 12 3f 3b 5d 90 3f 69 12 48 3e
       -0.2141207 0.5715852 1.1278452 0.19538273
0000a0 84 d9 e9 be 3a 87 87 ba 50 60 49 3e 0c 5c 03 bf
       -0.45673764 -0.0010339983 0.19665647 -0.5131233
0000b0 07 06 e4 bd 6c 03 c8 bd 5f 61 fe be 83 1c d4 be
       -0.11133962 -0.09766278 -0.49683663 -0.41428003
0000c0 24 57 9f be d4 56 b7 be 06 4d 23 bf 33 17 dc bd
       -0.3112117 -0.35808432 -0.63789403 -0.107466124
0000d0 15 e9 20 3e df dd 8f 3e 37 d8 99 3e c8 70 ed 3e
       0.15713914 0.28098962 0.3004777 0.46375108
0000e0 32 b5 09 3f df 1f 8f 3f ee 21 99 be e1 8c b7 3d
       0.5379211 1.1181601 -0.299087 0.089624174
0000f0 3b 62 01 3f 3f 84 f7 be 45 5c 0e 3f 0b 84 71 3e
       0.5054051 -0.48343083 0.5560954 0.23585527
000100 04 da 41 be 11 c0 5c be bb f2 08 be 83 a8 6b bd
       -0.18930823 -0.21557643 -0.13373844 -0.057533752
000110 09 af 1d bd 01 25 9d bd 64 1a dd bd ad 51 3e 3d
       -0.038497005 -0.076730736 -0.10796049 0.04646461
000120 05 75 03 bd d8 cd 5a bc 48 29 fd 3d 04 e3 91 bd
       -0.03209402 -0.013354741 0.123613894 -0.07123378
000130 61 0e 97 bd 0a 8d a7 bd de f6 57 3d 5f e6 43 bd
       -0.073757894 -0.08181198 0.052725665 -0.04782712
000140 10 30 43 be 7f e3 5c be f9 88 09 be f4 4d 6e bd
       -0.19061303 -0.21571158 -0.13431157 -0.05817981
000150 e4 da 1e bd 80 77 9c bd 43 45 dd bd 2d 8f 3a 3d
       -0.03878297 -0.0763998 -0.10804226 0.0455467
000160 39 bb 03 bd 28 46 5e bc e9 0c fe 3d 26 9c 92 bd
       -0.03216097 -0.013566531 0.12404806 -0.07158689
000170 80 69 96 bd 84 1a a8 bd c9 09 58 3d e7 66 3f bd
       -0.07344341 -0.082081825 0.052743707 -0.046728995
000180 c1 b7 70 bd a6 4f 90 bd 88 c0 1f be 36 2c a2 be
       -0.05876899 -0.07046442 -0.15600789 -0.31674355
000190 34 07 1e 3d ee 57 d3 3e b7 a5 7b 3e bb d7 f0 3e
       0.03858109 0.41278023 0.24574934 0.4703959
0001a0 01 4b 46 3f 88 c1 46 3f 48 7d 58 bf a5 60 38 3e
       0.77458197 0.77639055 -0.84566164 0.18005617
0001b0 9c a7 35 3f 36 e2 18 bf 21 a3 cf 3e 7a 46 9e be
       0.70958877 -0.5972017 0.40554145 -0.30913144
0001c0 b5 47 44 be 49 4b 5e be e7 9c 0b be 6e 37 72 bd
       -0.19167979 -0.21708407 -0.13634072 -0.059134893
0001d0 f0 8b 24 bd 66 fd 9c bd ea 28 e0 bd 7b 51 3d 3d
       -0.040172517 -0.076655194 -0.10945304 0.046220284
0001e0 e9 a6 fc bc 8c 14 4a bc 88 53 ff 3d 72 3e 94 bd
       -0.030841308 -0.012334 0.12467104 -0.07238473
0001f0 7a ca 91 bd 1d d2 a6 bd 73 62 55 3d 79 1e 45 bd
       -0.071186975 -0.08145545 0.05209584 -0.048124764
000200 48 4f 92 bd 96 4f bf be 8b d9 e4 bd e1 ec 71 be
       -0.07144028 -0.37365407 -0.111743055 -0.23625518
000210 8a fc 4c be e1 b9 2d 3e 69 c1 96 bd 5b ea 42 be
       -0.20018211 0.16965438 -0.07361109 -0.19034712
000220 48 f6 65 be 25 77 50 be ff 4e 3b bf e1 66 c1 bd
       -0.2245723 -0.2035795 -0.73167413 -0.09443451
000230 a1 ce 82 bc dc 50 03 bd 01 e0 44 3d 80 5f 4d be
       -0.015967669 -0.032059535 0.04806519 -0.20055962
000240 90 ea 7a 3d fb ea d5 3e 31 ab 13 3f 5b a8 e4 3e
       0.061258852 0.41780838 0.5768309 0.44659695
000250 61 51 8d 3f 94 0c 39 be 8a 60 8f 3e 12 47 03 bd
       1.104046 -0.18071204 0.2800334 -0.0320502
000260 fd 5f 2b bd 44 30 35 bf 37 dd 0e be 4d 07 e9 3e
       -0.04183959 -0.7077677 -0.13951574 0.45513383
000270 67 f4 47 be ef 02 e0 3e e1 e1 3d be f8 91 12 3f
       -0.19526826 0.43752238 -0.18543197 0.5725398
000280 af 74 33 3f 3e b4 6a 3f c2 4c 64 3c 3e e8 22 3f
       0.7009992 0.9168128 0.013934316 0.63635623
000290 e0 22 70 bf 30 60 98 be d7 38 5c 3e 33 61 95 be
       -0.93803215 -0.29760885 0.21506058 -0.2917572
0002a0 aa 03 c6 bd 0e 79 b1 3e 63 7d a5 bd f8 7a 3e 3f
       -0.096686676 0.3466267 -0.08080556 0.74406385
0002b0 c1 71 1f be d9 5c b6 bd 7c 8e 2f bf 57 11 91 3e
       -0.15570737 -0.08904428 -0.6857679 0.28333542
0002c0 21 48 93 3f d8 27 d2 be e7 58 4d be 65 18 6d 3f
       1.1506387 -0.41046023 -0.20053445 0.9261535
0002d0 23 79 52 be 71 ef 9c be 61 4a a6 3e 4b 19 83 be
       -0.20554022 -0.3065143 0.32478622 -0.25605235
0002e0 f7 54 1b 3d cd 75 1d bf 63 12 dd 3c 3f b9 72 3e
       0.037922826 -0.61507875 0.026986307 0.23703478
0002f0 27 a1 af bd 53 65 12 be 3c 1c 36 be 0b bf ab be
       -0.08575659 -0.14296465 -0.17784208 -0.33544192
000300 23 64 8d be 4f 46 25 be 95 06 44 be 77 52 86 be
       -0.2761546 -0.16140102 -0.19143136 -0.2623479
000310 10 eb e3 3d 72 9f 1e be aa 77 bd 3c fc 31 95 3c
       0.11128819 -0.15490511 0.02312835 0.018212311
000320 ff 45 9a be ed 74 71 be 37 65 c0 3f a6 2f 03 bf
       -0.30131528 -0.2357976 1.5030888 -0.5124458
000330 bd 15 57 be 7c e2 b7 bd e7 e7 01 3e 19 bd 8a be
       -0.21004386 -0.08978745 0.1268612 -0.27097395
000340 68 b1 9a 3d 0e 45 25 bf a4 bd 04 be 3a c3 cd 3e
       0.07553369 -0.64558494 -0.12962967 0.4018801
000350 cb 1f f1 bc 41 f0 98 be bf fb 3c bf 6a 3a 8f 3e
       -0.029434105 -0.298708 -0.73821634 0.27974254
000360 59 66 1c 3f 67 7a f1 3c 2a 26 70 bd 5e b1 9d 3e
       0.6109367 0.029477311 -0.058630146 0.30799383
000370 6d a2 fd 3d f1 5a 05 3f ce 06 93 3f ba 6a 2a 3f
       0.12384496 0.5209189 1.1486452 0.665691
000380 f1 6e 4c bc fc eb 6a bf 9a 7e 84 be 1e 23 24 bf
       -0.012477622 -0.91766334 -0.2587784 -0.64116085
000390 03 bc dc be 32 1f 95 be 7b 6f 05 be 41 72 15 be
       -0.43112192 -0.29125363 -0.13030808 -0.14594366
0003a0 ca 1c 4a 3f c2 b0 80 bd dc cd c4 3e 55 77 78 3f
       0.7895018 -0.06283714 0.38438308 0.97057086
0003b0 ce 03 88 be e5 4f 98 3e 6f ff 72 3e de 44 e2 be
       -0.26565403 0.29748455 0.23730253 -0.44193166
0003c0 55 78 c9 3e 8a b8 14 3e ee b4 8b be 51 17 01 3e
       0.3934962 0.14523521 -0.27286476 0.12606551
0003d0 f0 f7 3d be 24 89 34 3f 83 29 5f 3f 66 1f 67 3f
       -0.18551612 0.7052176 0.87172717 0.90282285
0003e0 9d 0c 00 3c 33 e3 9b be 3d b4 fb bc 20 e9 05 be
       0.007815507 -0.30446777 -0.030725593 -0.13077211
0003f0 80 ce 87 3e 21 68 51 bf ef e8 ef 3e 0d 84 a6 3f
       0.26524734 -0.81799513 0.46857402 1.3009049

stage2.1.branch2.1.weight f4 [16]
000000 38 91 6b 3f 6b c1 8a 3f 1c 45 97 3f 91 40 b0 3f
       0.9201846 1.0840276 1.1817966 1.3769704
000010 b7 e8 60 3b 5b bb 5a 3b 4f 3a a2 3f d4 ec aa 3b
       0.0034318396 0.0033375833 1.2674044 0.0052162204
000020 32 41 4b 3c cf cd 91 3f 41 e3 a0 3f 23 41 8d 3f
       0.0124056805 1.1390933 1.2569352 1.1035503
000030 98 18 59 3f 24 b6 92 3f 19 34 8b 3f a4 5a a2 3f
       0.8480315 1.1461835 1.0875274 1.2683911

stage2.1.branch2.1.bias f4 [16]
000000 57 85 a6 3e 8e 51 48 3f ce f0 33 3f 2d 3a 0b 3f
       0.32523605 0.7824944 0.70289314 0.54385644
000010 44 09 a7 b9 8a 2c b3 b9 70 12 b8 3e 56 47 6a ba
       -0.00031859626 -0.00034174725 0.35951567 -0.00089370215
000020 9c 7e b7 3b 7d 12 e6 3e c4 ef a2 3e e4 90 83 3f
       0.00559981 0.4493598 0.31823552 1.0278592
000030 1d a3 ed 3e 54 56 2d 3f 58 c7 94 3f 27 20 a4 3d
       0.46413508 0.6770985 1.1623335 0.08013945
