independent_train_0.0/client91/checkpoint_0.0.pth (torch, 930411 bytes, 56 tensors)

conv1.weight f4 [24, 3, 3, 3]
0	0x3e50b099	0.20379867
1	0xbec167fa	-0.3777464
2	0x3eb2bfce	0.3491196
3	0xbf865b63	-1.0496639
4	0xbfd67571	-1.675459
5	0xbf4afbdd	-0.7929056
6	0xbf4cce70	-0.800025
7	0xbfbd3ee7	-1.4784821
8	0xbf14eabb	-0.5817067
9	0x3e83778a	0.2567714
10	0x3ecd6b78	0.40121055
11	0x3e91c63f	0.28471562
12	0x3eea32b6	0.45741814
13	0x3f36f9bc	0.71474814
14	0x3f0fe3cc	0.56206965
15	0x3e88f8f9	0.2675245
16	0x3ee504f5	0.44730344
17	0x3ec8b1eb	0.3919824
18	0xbf1eb54f	-0.61995405
19	0xbe071ba7	-0.13194142
20	0xbf51d5e2	-0.81966984
21	0x3f01c0d7	0.50684875
22	0x3f9b14c7	1.2115716
23	0x3eb8f5cd	0.3612503
24	0x3ea3f66a	0.32023937
25	0x3f73f7ed	0.9530018
26	0x3e527c42	0.20555213
27	0x3def871a	0.116956905
28	0x3ed68299	0.41896513
29	0x3e26f944	0.16306025
30	0xbf6eb8ab	-0.9325053
31	0x3e8f6829	0.28009155
32	0x3e9f38ea	0.3109811
33	0xbf585b1f	-0.8451404
34	0x3c0ce8bd	0.008600411
35	0x3e973d2a	0.29538852
36	0xbe5f011a	-0.21777764
37	0x3ecb8c7f	0.39755628
38	0xbe3a9083	-0.1821919
39	0xbf528b00	-0.8224335
40	0x3f478f79	0.77953297
41	0x3eee0e2e	0.46495193
42	0xbf4f6c62	-0.81024754
43	0x3ef494b7	0.4776971
44	0x3ee83171	0.4535022
45	0xbe885d12	-0.26633507
46	0x3de91d65	0.1138256
47	0xbefc3c6b	-0.49264845
48	0xbef78a98	-0.48347926
49	0x3f43d6fe	0.7649993
50	0x3e815ed0	0.2526765
51	0xbedb2522	-0.42801768
52	0x3f2d22a5	0.6763099
53	0x3ec08fa9	0.37609604
54	0x3caf84ad	0.02142557
55	0xbe8369fe	-0.25666803
56	0xbc12491c	-0.008928563
57	0xbee68c7f	-0.45029065
58	0xbf3be5c3	-0.73397464
59	0xbee8ea68	-0.45491338
60	0xbe86ef5b	-0.2635449
61	0xbf0cd603	-0.55014056
62	0xbe992a26	-0.2991497
63	0x3e6a118f	0.2285826
64	0x3ea44279	0.32081965
65	0x3e7e6c82	0.2484608
66	0x3e493fd9	0.19653262
67	0x3eaad1b1	0.33363107
68	0x3e847ce5	0.25876537
69	0x3e422dac	0.18962735
70	0x3e9573fe	0.29190058
71	0x3e6f0bf9	0.23344411
72	0xbcfa5dbc	-0.030562274
73	0x3e768792	0.24075153
74	0xbd508d02	-0.050915726
75	0x3e887e62	0.26658922
76	0x3f2201c4	0.63283944
77	0x3e87648c	0.264439
78	0x3e04155d	0.12898774
79	0x3ee37f2a	0.44432956
80	0x3dc4b1fc	0.0960426
81	0xbe74d89c	-0.23910755
82	0xbf9945bd	-1.1974407
83	0xbf1a532e	-0.6028317
84	0x3d4ef4d1	0.050526444
85	0xbd13bcc7	-0.036068704
86	0x3e6d97ba	0.2320241
87	0xbd0dcf44	-0.034621492
88	0x3f1b64df	0.6070079
89	0x3ef2274c	0.47295606
90	0xbe6d512b	-0.23175494
91	0xbf996c74	-1.1986222
92	0xbf4b13c8	-0.7932706
93	0x3e9aa371	0.3020282
94	0x3e61adf4	0.22039014
95	0x3e909eb8	0.28246093
96	0x3e577aa3	0.21042876
97	0x3f65ae8f	0.8971948
98	0x3f0b0c84	0.5431597
99	0xbe580205	-0.2109452
100	0xbf9095a8	-1.1295671
101	0xbf46e8e4	-0.7769911
102	0x3e8fa2bc	0.28053844
103	0x3dca7ade	0.09886716
104	0x3e2bb125	0.16766794
105	0x3ed1d688	0.40983987
106	0x3f68c7e7	0.90930027
107	0x3f23b577	0.6394877
108	0xbf56451e	-0.83699214
109	0xbf37fe5c	-0.71872497
110	0xbf7b17a7	-0.98082966
111	0x3d382772	0.044959493
112	0x3f1c1ed5	0.60984546
113	0xbe251506	-0.16121301
114	0x3f1c8223	0.6113607
115	0x3f8e5bc0	1.112175
116	0x3ec39a8b	0.38203844
117	0x3e10b507	0.14131556
118	0x3ede2d42	0.43393904
119	0x3d3860bf	0.04501414
120	0x3ed3f812	0.414002
121	0x3f864dd8	1.0492506
122	0x3e856bdb	0.2605885
123	0x3e572a86	0.21012315
124	0x3f2f330c	0.68437266
125	0x3d934a90	0.07191956
126	0x3f1a1da2	0.60201466
127	0x3e63e924	0.22256905
128	0x3f63fa9f	0.8905429
129	0xbf3512ef	-0.70732015
130	0xbf75bd9e	-0.9599246
131	0xbe9c3054	-0.3050562
132	0xbf6dd61e	-0.9290484
133	0xbfadc30c	-1.3575149
134	0xbf08f2fe	-0.53495777
135	0xbd02a680	-0.031897068
136	0xbefc667b	-0.49296936
137	0xbd316567	-0.043309595
138	0xbd84d3f9	-0.06485743
139	0x3e377216	0.17914614
140	0x3e66cff7	0.2254027
141	0xbe81364e	-0.25236744
142	0xbeb24563	-0.34818563
143	0xbe882baf	-0.26595828
144	0xbe4264ae	-0.18983719
145	0xbebe82b6	-0.372091
146	0xbe8289cd	-0.2549576
147	0x3e80a427	0.25125238
148	0x3f657877	0.8963694
149	0x3f102930	0.5631285
150	0xbd914a5a	-0.070942596
151	0x3e7d90cd	0.24762268
152	0xbd495974	-0.049157575
153	0xbf0a4521	-0.5401173
154	0xbf370973	-0.71498793
155	0xbf389375	-0.721
156	0x3e1a133b	0.15046398
157	0x3f3ccabd	0.73746854
158	0x3ea0d83c	0.31414974
159	0x3dd4bbe6	0.10387401
160	0x3ee8019f	0.45313737
161	0x3dd34bbf	0.10317182
162	0x3f1e537f	0.61846155
163	0x3d9cf993	0.0766479
164	0xbea4b089	-0.32165936
165	0x3f9ad533	1.2096313
166	0xbe767f13	-0.24071912
167	0xbfc276c4	-1.5192494
168	0x3e01417b	0.12622635
169	0xbd9a77b0	-0.0754236
170	0xbe0406d2	-0.12893227
171	0x3f840b46	1.031594
172	0x3d5f560b	0.054525416
173	0xbf5ca4d9	-0.8618904
174	0x3fe7fffe	1.8124998
175	0xbd9989a3	-0.07496955
176	0xbff8dbf4	-1.9442124
177	0x3f23f9c9	0.64053017
178	0x3dd62011	0.10455335
179	0xbecbb804	-0.3978883
180	0x3ee55636	0.44792336
181	0x3ca14331	0.01968536
182	0xbeebc60c	-0.46049535
183	0x3f9594ed	1.1686074
184	0xbd9120d9	-0.07086343
185	0xbfb98ca2	-1.4496043
186	0x3e9e3c35	0.3090531
187	0x3decb015	0.115570225
188	0xbe2ef555	-0.17085774
189	0xbf1d967d	-0.6155775
190	0xbde565d4	-0.11201063
191	0xbeea36bd	-0.45744887
192	0xbe7d9fee	-0.2476804
193	0x3e363664	0.17794186
194	0x3deed12c	0.1166099
195	0xbe3babce	-0.18327257
196	0xbe8eda02	-0.27900702
197	0x3ed59df4	0.4172207
198	0x3e872200	0.26393127
199	0x3f622df6	0.8835138
200	0x3d9664c4	0.07343438
201	0x3e9269f0	0.2859645
202	0x3f53fff4	0.8281243
203	0x3eb88ff3	0.36047325
204	0xbf1f985d	-0.6234186
205	0xbf1ecda0	-0.6203251
206	0xbe18276e	-0.14858791
207	0x3e873eca	0.26415092
208	0x3f379efd	0.7172697
209	0xbdb109cc	-0.08644447
210	0x3ed1b4a8	0.40958142
211	0x3f44fd83	0.7694933
212	0x3e124bec	0.14286774
213	0xbf394185	-0.723656
214	0xbf555914	-0.8333905
215	0xbf266251	-0.6499377
216	0x3f5bfeb4	0.8593552
217	0x3fe91513	1.8209556
218	0x3f99faa1	1.2029611
219	0xbcf0e60b	-0.029406568
220	0xbe6f0b9a	-0.2334427
221	0xbd621ea1	-0.05520499
222	0xbf6186b8	-0.8809619
223	0xbff39c2c	-1.9032035
224	0xbf6bd71e	-0.9212512
225	0x3f105137	0.56373924
226	0x3fb30407	1.3985604
227	0x3f1ba0f7	0.6079249
228	0x3df6acc1	0.12044669
229	0xbe052c61	-0.1300521
230	0xbe3c6a78	-0.1839999
231	0xbf031fad	-0.5122021
232	0xbfc2d162	-1.5220149
233	0xbf3783e2	-0.7168561
234	0xbe589464	-0.21150357
235	0x3f2cadf9	0.6745296
236	0x3bbbdda8	0.0057332106
237	0x3ddb0819	0.10694904
238	0x3e43cf20	0.1912198
239	0x3db35ac7	0.08757549
240	0xbd71db57	-0.05904707
241	0xbf1a282d	-0.60217553
242	0xbcb68c01	-0.022283556
243	0xbebef800	-0.37298584
244	0xbd8c6605	-0.06855396
245	0x3f458e6b	0.7717044
246	0x3efd815b	0.49512753
247	0x3e841051	0.25793698
248	0xbfeee6bf	-1.8664168
249	0xbe0b6ac0	-0.1361494
250	0x3f52e2d6	0.82377374
251	0xbec8620d	-0.39137307
252	0xbf1e1013	-0.6174328
253	0x3e1e266d	0.15444346
254	0x3f5185f3	0.81845015
255	0x3f07bf41	0.53026205

dense1.0.bn1.weight f4 [24]
0	0x3eda5c09	0.42648342
1	0x3f79df31	0.9760619
2	0x3f1e6f82	0.618889
3	0x3f481e99	0.7817169
4	0x3f2d7ff9	0.67773396
5	0x3f87adae	1.0599878
6	0x3efd52c6	0.49477214
7	0x3f84f295	1.038653
8	0x3f3e52ee	0.7434529
9	0x3fe52d55	1.7904459
10	0x40013c8a	2.01932
11	0x3f25372c	0.6453731
12	0x3f80d892	1.0066092
13	0x3ec6b8d4	0.38812888
14	0x3f2e07be	0.67980564
15	0x3f0bb2f4	0.54569936
16	0x3edc01ef	0.42970225
17	0x3eb916ee	0.36150306
18	0x3f348bff	0.7052612
19	0x3eed0419	0.4629219
20	0x3f5b48be	0.8565787
21	0x3f2c208b	0.67237157
22	0x3edc5931	0.43036798
23	0x3f032fc3	0.51244754

dense1.0.bn1.bias f4 [24]
0	0xbe550a42	-0.20804694
1	0x3f15774c	0.5838516
2	0xbec44385	-0.38332763
3	0x3ee651b6	0.44984215
4	0x3e95eb8d	0.29281273
5	0x3ec1cfdd	0.378539
6	0x3f248171	0.6426001
7	0x3ed4a54c	0.41532362
8	0x3f134456	0.5752615
9	0x3f800b43	1.0003437
10	0x3f93ee1c	1.155704
11	0x3d79f6ef	0.06102651
12	0x3e6bb639	0.23018731
13	0x3e7ce192	0.24695423
14	0x3e6e9131	0.23297574
15	0xbf15821a	-0.58401644
16	0xbe635f4a	-0.22204319
17	0xbe5198c0	-0.20468426
18	0xbee0934f	-0.43862388
19	0xbe798b88	-0.24369633
20	0xbf2c3a94	-0.67276883
21	0xbf1082df	-0.56449693
22	0x3ea2fa92	0.31831795
23	0xbd2c95c0	-0.042135

dense1.0.conv1.weight f4 [12, 24, 3, 3]
0	0x3bfc31a6	0.0076963482
1	0x3e067847	0.1313182
2	0xbc6dd62d	-0.0145163955
3	0x3ce2f5b5	0.027705053
4	0x3e247514	0.16060287
5	0x3ce04f78	0.027381644
6	0xbd83becf	-0.06432878
7	0x3d2e0789	0.042487655
8	0xbd95ba75	-0.073109545
9	0x3e734a36	0.23758778
10	0x3eb76b81	0.35824206
11	0x3ea8fd0e	0.33005565
12	0x3db91f42	0.09039165
13	0x3e936cdd	0.28793994
14	0x3ea39c78	0.31955314
15	0xbe946a2f	-0.28987262
16	0xbdaaaf14	-0.08334175
17	0xbd9c19d7	-0.07622116
18	0x3cdd6c37	0.02702914
19	0x3df0a56d	0.117503025
20	0xbc09ca43	-0.008410039
21	0x3de9e4d9	0.11420602
22	0x3e39ef21	0.18157627
23	0x3d6ca31b	0.057772737
24	0x3ddef93f	0.10887384
25	0x3e339fe2	0.17541459
26	0x3db87378	0.09006399
27	0xbc4357fd	-0.0119228335
28	0x3dc62716	0.09675424
29	0x3e13917e	0.1441097
30	0xbd04277b	-0.032264214
31	0x3e165039	0.1467904
32	0x3e446cfb	0.19182198
33	0x3dbce036	0.09222452
34	0x3e74b8e7	0.2389866
35	0x3e64fd66	0.22362289
36	0xbccea72e	-0.025226202
37	0xbe6319a2	-0.22177747
38	0xbe5a761c	-0.21334118
39	0x3e9c5fde	0.3054189
40	0x3dfc201a	0.123108104
41	0x3d4bdbe0	0.049770236
42	0x3f1f69c8	0.62270784
43	0x3f027e9a	0.5097443
44	0x3ebe0f75	0.37121168
45	0x3e9a770d	0.30168954
46	0x3ef80c94	0.48447096
47	0x3e7c3efc	0.24633402
48	0x3e0fa46e	0.14027569
49	0x3eb94ee9	0.36193016
50	0x3e12b0a5	0.14325197
51	0xbe56bca5	-0.209704
52	0x3cf38230	0.029725164
53	0xbdd9fbae	-0.10643707
54	0x3df3f73f	0.11912393
55	0x3e0c8359	0.1372198
56	0x3e837d3b	0.2568148
57	0x3e6666e6	0.2250019
58	0x3e692641	0.22768499
59	0x3e4722cc	0.19446868
60	0x3d12a596	0.035802446
61	0xbe278bb5	-0.16361888
62	0xbe0bad55	-0.1364034
63	0xbf0890d2	-0.5334598
64	0xbe65fe7c	-0.2246036
65	0xbe4804da	-0.195331
66	0x3d3e221c	0.046419248
67	0x3ed8daa4	0.4235431
68	0x3eb927c1	0.36163142
69	0x3df2c713	0.11854377
70	0x3f05b97e	0.52236164
71	0x3ec62686	0.38701266
72	0x3d979580	0.07401562
73	0x3e80e3cf	0.25173804
74	0x3de171d0	0.11008036
75	0x3d6624bd	0.05618738
76	0x3e514f8f	0.20440505
77	0x3dbc413a	0.091921285
78	0xbe8ec3d0	-0.27883768
79	0xbe50acf2	-0.20378473
80	0xbe319f60	-0.17345953
81	0x3e0ad58a	0.13558021
82	0x3dd094b0	0.1018461
83	0xbeacda82	-0.33760458
84	0x3f03c73f	0.514759
85	0x3ef9b8a1	0.48773673
86	0xbe0a4172	-0.13501528
87	0x3e0d1b0e	0.13779852
88	0x3dc4edb3	0.0961565
89	0xbe4ff7a7	-0.20309316
90	0xbdbc2dbf	-0.09188413
91	0x3db32e6f	0.08749091
92	0xbda87981	-0.082263
93	0xbbab2f2e	-0.00522413
94	0x3e92a6c3	0.28642854
95	0x3d53be6f	0.051695284
96	0xbe65562b	-0.22396152
97	0x3e8a3900	0.26996613
98	0x3da5b20f	0.080906026
99	0xbedcd322	-0.43129832
100	0xbe85492d	-0.2603239
101	0x3cb4bd79	0.022063004
102	0xbe5b9d80	-0.214468
103	0xbc448828	-0.011995353
104	0x3e6756e6	0.22591743
105	0x3e4819f5	0.19541152
106	0x3eded578	0.4352224
107	0x3f0af3bd	0.54278165
108	0xbe97416b	-0.29542097
109	0xbea6afd0	-0.3255601
110	0xbd4e46f8	-0.05036065
111	0xbec3cdcd	-0.3824295
112	0xbed934ae	-0.42423004
113	0xbe0896a5	-0.13338716
114	0xbe460358	-0.19337213
115	0xbe6a5a15	-0.22885926
116	0xbb3c3dea	-0.0028723427
117	0xbe2d612f	-0.16931604
118	0xbe7b5ecb	-0.2454788
119	0xbcb7dea9	-0.02244504
120	0xbe8d381f	-0.2758188
121	0xbec5a980	-0.3860588
122	0xbe0bcc79	-0.13652219
123	0xbdd874e9	-0.10569174
124	0xbe44760e	-0.1918566
125	0x3a3fbf05	0.0007314536
126	0xbe279e08	-0.16368878
127	0xbe666a22	-0.22501424
128	0xbe8a50f3	-0.27014884
129	0xbe190100	-0.14941788
130	0xbe246746	-0.1605502
131	0xbe5e4aec	-0.21708268
132	0xbdafd61d	-0.08585761
133	0xbdeb2975	-0.11482517
134	0xbe6028a0	-0.21890497
135	0xbbb774d6	-0.0055986447
136	0xbb415d97	-0.0029505247
137	0x3c8df709	0.01732971
138	0xbdeb647e	-0.11493777
139	0xbdd6b80b	-0.10484322
140	0xbd8aa1f7	-0.067691736
141	0xbe101d37	-0.14073645
142	0xbdeba2e9	-0.11505682
143	0xbdb6f84f	-0.0893408
144	0x3cbc03e0	0.022951066
145	0xbdad3804	-0.0845795
146	0x3c96c21e	0.01840311
147	0xbd804c90	-0.06264603
148	0xbe621f56	-0.22082266
149	0xbe0fd26c	-0.14045113
150	0x3d3c8d66	0.046033286
151	0xbe03fba5	-0.12888964
152	0xbd964373	-0.07337084
153	0xbdb1450c	-0.08655748
154	0xbd3d1e53	-0.046171498
155	0xbe1607df	-0.1465144
156	0xbcdccb01	-0.026952269
157	0xbbeefc49	-0.0072932583
158	0xbddf1192	-0.10892023
159	0xbd9c9cd8	-0.07647103
160	0xbd614c88	-0.055004627
161	0xbe1d3a74	-0.1535433
162	0xbcd88ef2	-0.02643535
163	0xbe09fb10	-0.13474679
164	0xbdd6218c	-0.10455617
165	0xbe3b3aa9	-0.18284096
166	0xbe939f33	-0.28832397
167	0xbe8523fe	-0.26004022
168	0xbd51fb93	-0.05126531
169	0xbe064803	-0.13113408
170	0xbdc3bc7a	-0.095574334
171	0xbdcfd818	-0.101486385
172	0xbd8f1b56	-0.06987636
173	0xbc4b2a4c	-0.012400221
174	0xbe130840	-0.14358616
175	0xbde0bed5	-0.10973898
176	0xbd3a90be	-0.045548193
177	0xbd5fa1fe	-0.054597847
178	0xbd1c5362	-0.038165458
179	0x3ce7cf4c	0.028297089
180	0xbd386728	-0.045020252
181	0xbc6d8aa5	-0.014498387
182	0xbe1d9d3d	-0.15392013
183	0xbdb532e5	-0.08847598
184	0xbd0932fb	-0.033495884
185	0xbdaeec33	-0.08541145
186	0xbdefbf81	-0.11706448
187	0xbcb5cbc1	-0.022191884
188	0xbddc9638	-0.107708395
189	0xbe0363a7	-0.12830983
190	0xbd9b4796	-0.07582013
191	0xbe58dea8	-0.21178687
192	0xbd296d8e	-0.041364245
193	0x3c67938d	0.0141343
194	0xbe1ba917	-0.15201221
195	0xbd5bedec	-0.053693697
196	0x3a466742	0.0007568487
197	0xbe091f71	-0.133909
198	0xbdf04833	-0.11732521
199	0xbe2bbdd2	-0.1677163
200	0xbe849223	-0.25892743
201	0xbe0b97e4	-0.1363216
202	0xbe493341	-0.19648458
203	0xbea0cf7a	-0.31408292
204	0xbe7ae431	-0.2450111
205	0xbe997ab3	-0.29976425
206	0xbede2b8b	-0.43392596
207	0xbd644710	-0.055731833
208	0xbd599ce1	-0.053128127
209	0x3d726098	0.05917415
210	0xbdf5b41e	-0.11997245
211	0xbdf99001	-0.1218567
212	0x3c2b8eb0	0.010471031
213	0x3cd3fb97	0.025876803
214	0x3d2c63c8	0.042087346
215	0x3e09e47d	0.13466068
216	0xbc8edf0b	-0.01744034
217	0xbd5eb968	-0.054376036
218	0xbcb0fa97	-0.021603866
219	0xbc857aec	-0.016293965
220	0xbdcfa2cf	-0.10138475
221	0xbd491874	-0.049095586
222	0x3e0ab7a9	0.13546623
223	0x3db0251d	0.08600829
224	0x3db32e3e	0.08749054
225	0x3d137fe5	0.03601064
226	0x3d9e0d75	0.077174105
227	0x3e3cf64e	0.18453333
228	0xbe0d014b	-0.13770024
229	0xbcf19444	-0.029489644
230	0x3dc2bea4	0.09509018
231	0x3d62f8da	0.055413105
232	0x3bbf0400	0.0058293343
233	0xbe13b1ab	-0.14423244
234	0xbd5180b2	-0.051148124
235	0xbd4ba19b	-0.049714666
236	0xbc588c4a	-0.013217041
237	0xbd84d47c	-0.06485841
238	0xbdb2b118	-0.08725184
239	0xbd3c31f8	-0.04594609
240	0x3c4717bb	0.012151654
241	0xbc2582a4	-0.010101948
242	0x3cb4de4b	0.022078654
243	0xbf01f0f3	-0.50758284
244	0xbf287182	-0.657982
245	0xbebc1d5a	-0.36741143
246	0xbe334f3e	-0.17510697
247	0x3ac9e299	0.0015402614
248	0xbd84eeab	-0.06490835
249	0x3edbf2d3	0.42958698
250	0x3f2cc5bc	0.6748922
251	0x3e2a63e1	0.16639663
252	0xbe4fc63a	-0.20290461
253	0xbe9731ca	-0.29530174
254	0xbe1f7d6e	-0.15575191
255	0x3cbbe5ab	0.022936663

dense1.1.bn1.weight f4 [36]
0	0x3f170734	0.58995366
1	0x3ecbb1b4	0.39784014
2	0x3e8edc9b	0.27902684
3	0x3ea2ee7a	0.31822568
4	0x3f39ef59	0.7263084
5	0x3ec291ac	0.38001764
6	0x3eea6084	0.4577676
7	0x3e965408	0.29360986
8	0x3ec72f97	0.38903496
9	0x3ef57a04	0.47944653
10	0x3ebe67cf	0.37188575
11	0x3f978b2b	1.1839346
12	0x3e058ca0	0.13041925
13	0x3e0da83d	0.13833709
14	0x3e9b7764	0.30364525
15	0x3e49c02a	0.19702211
16	0x3f8f27a9	1.1183978
17	0x3f894d87	1.0726784
18	0x3f146b4b	0.57976216
19	0x3f35c3c7	0.7100186
20	0x3f217209	0.6306463
21	0x3f691dca	0.9106108
22	0x3ea2f90e	0.3183064
23	0x3ec703e3	0.38870153
24	0x3ee27080	0.44226456
25	0x3f428ff5	0.7600091
26	0x3f7999e0	0.9750042
27	0x3f9a5bba	1.2059243
28	0x3f0c09bf	0.5470237
29	0x3e2e8788	0.17043889
30	0x3f7636ef	0.9617757
31	0x3fa7d652	1.311228
32	0x3f4736e6	0.77818143
33	0x3f12af0b	0.57298344
34	0x3ec823ec	0.39089906
35	0x3f3c8af1	0.7364951

dense1.1.bn1.bias f4 [36]
0	0x3e31c0fa	0.17358771
1	0xbe31918c	-0.17340678
2	0xbe3d68e7	-0.18497048
3	0xbebdc45e	-0.3706388
4	0x3eae0adc	0.3399266
5	0xbe45dff8	-0.19323719
6	0x3cd6da57	0.02622716
7	0xbdbf59cd	-0.093433
8	0x3e035362	0.12824777
9	0x3d21b86c	0.03948252
10	0x3d744de2	0.059644587
11	0xbe07784e	-0.13229486
12	0xbc0464ff	-0.00808072
13	0xbe414fce	-0.188781
14	0xbe481a90	-0.19541383
15	0xbe2e9e5f	-0.17052601
16	0xbe4d8439	-0.2006997
17	0x3ea26cdb	0.31723675
18	0xbe7731fa	-0.24140158
19	0xbeb84b42	-0.35994917
20	0xbee4b385	-0.44668213
21	0xbefd2b77	-0.49447224
22	0x3d9f8881	0.07789708
23	0xbe59f397	-0.21284328
24	0xbe92c2a0	-0.28664112
25	0x3f4f674a	0.8101698
26	0x3ecc238f	0.3987088
27	0x3d922db5	0.07137624
28	0xbe8539f3	-0.26020774
29	0xbe3248c3	-0.17410569
30	0xbdefe88d	-0.117142774
31	0x3f24455d	0.6416834
32	0xbd16d618	-0.03682527
33	0xbe2df04b	-0.16986196
34	0xbde15f0d	-0.110044576
35	0x3e5277ac	0.20553464

dense1.1.conv1.weight f4 [12, 36, 3, 3]
0	0xbdebd20f	-0.11514675
1	0x3e28aa17	0.16471134
2	0x3eded586	0.4352228
3	0xbe90bd53	-0.28269443
4	0xbbe0491a	-0.006844652
5	0x3e99a7a1	0.30010703
6	0xbeaed259	-0.34144858
7	0xbe4a024e	-0.19727442
8	0x3db809dd	0.08986256
9	0xbcc56117	-0.024094148
10	0xbcbf67fd	-0.023365015
11	0xbe4c0b48	-0.19926178
12	0xbda15224	-0.07876995
13	0xbc434623	-0.011918577
14	0xbe0e4caf	-0.1389644
15	0xbd0617ae	-0.032737426
16	0xbd03c795	-0.032172758
17	0xbc56ddc3	-0.013114396
18	0xbd8bd3ba	-0.06827493
19	0x3d2af458	0.04173693
20	0x3e1252ab	0.14289348
21	0xbdacce3d	-0.08437774
22	0x3d2d6fdf	0.042343017
23	0x3e00f0bd	0.12591834
24	0xbd71619c	-0.05893098
25	0x3ce7e50d	0.028307462
26	0x3de99a45	0.11406378
27	0xbd727273	-0.05919118
28	0xbb83dd30	-0.0040241703
29	0x3d8713cd	0.065955736
30	0x3d1b7d2a	0.037961163
31	0xbc84dced	-0.016218627
32	0x3d9975a4	0.07493141
33	0x3def9d43	0.11699917
34	0x3d1cb911	0.03826243
35	0x3dfad527	0.12247687
36	0xbe144c44	-0.14482218
37	0x3ee2e235	0.44313207
38	0x3e705d05	0.23472984
39	0xbe4cebd8	-0.20011842
40	0x3e90b6e1	0.28264526
41	0x3daea4cd	0.08527527
42	0xbe3ef883	-0.18649487
43	0xbd58df37	-0.05294725
44	0xbe41526d	-0.18879099
45	0xbcfe3140	-0.031029344
46	0xbc1c4e86	-0.009540206
47	0x3be47611	0.0069720824
48	0xbd015c9f	-0.03158247
49	0xbd1ad90e	-0.037804656
50	0xbaec322f	-0.0018020327
51	0xbb9dee3c	-0.0048196595
52	0xbcd4464b	-0.025912425
53	0x3d026127	0.031830933
54	0xbe18a0cd	-0.1490509
55	0xbe41bec2	-0.18920425
56	0xbed97b57	-0.42476913
57	0xbe2aec54	-0.16691715
58	0xbd8ec7d4	-0.06971708
59	0xbe08a75d	-0.13345094
60	0x3ccadd7c	0.024763815
61	0x3e050a56	0.12992224
62	0xbebffec4	-0.37499058
63	0x3d208444	0.03918864
64	0x3d8045a8	0.06263286
65	0xbc427efe	-0.011871098
66	0xbc8ee4b5	-0.01744304
67	0x3d279637	0.04091474
68	0xbd4f967d	-0.050680626
69	0xbcd9a024	-0.026565619
70	0xbbd0fcb4	-0.006377781
71	0xbcbcb2b1	-0.023034425
72	0x3cdad4c7	0.026712788
73	0xbe24bad6	-0.16086897
74	0x3d545ae9	0.05184451
75	0xbe3ecf31	-0.18633725
76	0x3c6ae561	0.014336915
77	0x3db78ffb	0.08963009
78	0xbd834f93	-0.06411662
79	0x3df9bd98	0.12194365
80	0xbb1eebde	-0.0024249475
81	0xbde9384c	-0.11387691
82	0x3c2ab1b2	0.010418342
83	0xbdd741f4	-0.105106264
84	0xbe1cb731	-0.15304257
85	0xbcafb8cb	-0.02145042
86	0xbdb63a8e	-0.08897887
87	0xbd40a9bc	-0.04703687
88	0xbd5469b6	-0.051858626
89	0xbe662df3	-0.22478466
90	0xbe6fe62d	-0.23427649
91	0x3e00ca29	0.12577118
92	0xbcbfa84b	-0.023395678
93	0xbe50621a	-0.20349923
94	0x3d8e3115	0.069429554
95	0xbdfea4dc	-0.12433788
96	0xbae99882	-0.001782194
97	0xbe2054c5	-0.15657337
98	0x3c837e63	0.016051477
99	0xbbd97e90	-0.006637402
100	0x3d9fa746	0.07795577
101	0x3e42e7b1	0.19033696
102	0xbddd79e0	-0.108142614
103	0xbd1ed6c2	-0.038779028
104	0x3e06b997	0.13156734
105	0xbcaf90ca	-0.021431345
106	0xbda74f5f	-0.08169436
107	0x3d8f0235	0.06982843
108	0xbd243943	-0.04009367
109	0x393cd2bc	0.00018007582
110	0xbd56ff04	-0.052489296
111	0xbd3fc573	-0.04681916
112	0x3ccbb1b5	0.02486501
113	0xbce52e93	-0.02797631
114	0xbc2f6987	-0.010706312
115	0x3aad6adc	0.0013230699
116	0xbc74fbdf	-0.014952629
117	0xbb4b1c92	-0.003099237
118	0x3d1e546b	0.038654726
119	0xbaf8de71	-0.0018987191
120	0xbc1040a5	-0.008804475
121	0x3d368289	0.04455808
122	0xbbd74f47	-0.00657073
123	0xbc9d561d	-0.019206101
124	0xbb991bd5	-0.0046725073
125	0xbcce55da	-0.025187422
126	0xbd7b16c4	-0.061301008
127	0xbc04e0bb	-0.008110221
128	0x3d28d03c	0.041214213
129	0x3d25fc47	0.040523794
130	0xbbc64ea7	-0.0060518566
131	0x3d0b1279	0.033953164
132	0x3e04933a	0.12946787
133	0x3cb01137	0.021492584
134	0x3dadbd15	0.0848333
135	0x3d6c6b03	0.05771924
136	0x3cde8218	0.027161643
137	0x3ab2efef	0.0013651828
138	0x3d2748b1	0.04084081
139	0x3c6616be	0.014043508
140	0xbb6a4823	-0.0035748563
141	0x3ce4b275	0.027917126
142	0x3c87f643	0.016596919
143	0x3d01cd75	0.03169008
144	0xbe3a7b2d	-0.1821105
145	0xbd2dfcdd	-0.042477477
146	0xbe54ae6d	-0.20769663
147	0xbde6c46c	-0.11267933
148	0x3e63be15	0.2224048
149	0x3d25925f	0.040422793
150	0xbcc1d5c5	-0.023661504
151	0x3e2a0c83	0.16606335
152	0xbcfdb7a8	-0.030971363
153	0x3d62d6ac	0.05538051
154	0x3eb93c89	0.36178997
155	0x3e9fb426	0.3119213
156	0xbe336850	-0.17520261
157	0x3e260a41	0.16214849
158	0x3e426988	0.1898557
159	0xbebfcd9b	-0.37461552
160	0xbe3fa826	-0.18716487
161	0xbe386270	-0.18006301
162	0x3e0dc434	0.13844377
163	0x3e0e3dc2	0.13890746
164	0x3d0d12d0	0.03444177
165	0x3c209142	0.009800257
166	0x3dcf9135	0.10135118
167	0x3d93653c	0.07197043
168	0xbdb4c90a	-0.08827408
169	0x3cde56b8	0.02714096
170	0x3dc0d83f	0.09416246
171	0xbe08b67e	-0.13350865
172	0x3d7160da	0.058930255
173	0x3e2db73a	0.16964427
174	0xbcdd9d37	-0.027052505
175	0x3df4f56f	0.11960875
176	0x3e2f093d	0.17093368
177	0x3cbb24ab	0.022844633
178	0x3dd58a21	0.104267366
179	0x3dc2d1cb	0.09512671
180	0xbe038163	-0.12842326
181	0xbea1f2e8	-0.31630635
182	0xbe3908a2	-0.180697
183	0xbdedbd73	-0.116084
184	0xbe8a08b4	-0.26959765
185	0xbdbe7ba0	-0.09300923
186	0xbcb5c791	-0.022189887
187	0xbe618c65	-0.22026213
188	0x3e08a3f8	0.13343799
189	0xbdea1bd3	-0.11431088
190	0x3dec4f28	0.11538535
191	0x3e67e7cd	0.22647019
192	0xbe003898	-0.12521589
193	0x3dd7ca08	0.10536581
194	0x3e81c2b0	0.25343847
195	0xbd92d4d9	-0.07169504
196	0x3dca46b1	0.098767646
197	0x3e69a8b2	0.22818258
198	0x3c3398fc	0.010961767
199	0x3d6de58e	0.05808025
200	0x3bf7fd76	0.0075680567
201	0x3d4cb6ac	0.049978897
202	0x3d72b5c3	0.059255373
203	0x3beb58e5	0.007182228
204	0x3d3a62b8	0.0455043
205	0x3d72cf6a	0.059279837
206	0x3c977341	0.018487575
207	0xbdca17f9	-0.09867854
208	0x3cda8e97	0.02667932
209	0x3d83c956	0.06434886
210	0xbc83eff7	-0.016105635
211	0x3dbbe9d9	0.09175462
212	0x3de62a58	0.11238545
213	0x3c432742	0.011911215
214	0x3d952e53	0.07284226
215	0x3d5e5def	0.0542888
216	0x3de205a3	0.11036231
217	0x3cb2503a	0.02176677
218	0x3dcba8c3	0.09944298
219	0xbc608868	-0.013704397
220	0xbd6f16a0	-0.058371186
221	0x3e16a2b1	0.147105
222	0x3c819c6a	0.015821654
223	0xbd125ca0	-0.035732865
224	0x3cd66066	0.026169013
225	0x3d5a739a	0.053332902
226	0x3e042a79	0.12906827
227	0xbe85e7ee	-0.2615351
228	0x3ed29e65	0.4113647
229	0xbeb3b897	-0.35101768
230	0xbdf761b5	-0.12079183
231	0xbd3240fe	-0.043519013
232	0x3de664e6	0.112497136
233	0x3eb758fd	0.3581008
234	0x3d3af893	0.045647215
235	0xbeb3c9ed	-0.35114995
236	0x3d415db1	0.04720849
237	0xbef5dc46	-0.48019618
238	0x3e360c45	0.17778118
239	0x3ecf9541	0.4054356
240	0x3c18066a	0.009278873
241	0x3eb8f538	0.36124587
242	0xbd3e5a32	-0.046472736
243	0xbe8b5be3	-0.27218542
244	0xbea6df72	-0.3259235
245	0x3d637c48	0.055538446
246	0xbf80f483	-1.0074619
247	0x3f88aa6c	1.0677009
248	0x3ead665c	0.33867157
249	0x3ee29d75	0.44260755
250	0xbe80c77b	-0.25152192
251	0xbeba0c10	-0.36337328
252	0x3ce865f9	0.028368937
253	0x3d5e7c32	0.05431766
254	0x3dc6fd6a	0.09716304
255	0x3d838fd5	0.06423918

dense1.2.bn1.weight f4 [48]
0	0x3ed58931	0.4170623
1	0x3e34fb90	0.17674088
2	0x3ed078ac	0.40717065
3	0x3efefe5c	0.49803436
4	0x3f6353f8	0.888
5	0x3e1c85df	0.15285443
6	0x3ed103f9	0.40823343
7	0x3eadad60	0.33921337
8	0x3e80a612	0.25126702
9	0x3eaaeec8	0.333853
10	0x3e697392	0.22797993
11	0x3f1c6f00	0.6110687
12	0x3dc41bfa	0.095756486
13	0x3eb61ec5	0.3557035
14	0x3df0a69e	0.1175053
15	0x3ee8e976	0.45490617
16	0x3ead0445	0.3379232
17	0x3f0c41bb	0.54787797
18	0x3f138c32	0.57635796
19	0x3e87b502	0.26505286
20	0x3f34f42b	0.7068507
21	0x3d946bce	0.072471246
22	0x3ea86a41	0.32893565
23	0x3e4a7f5b	0.19775145
24	0x3f35a677	0.7095713
25	0x3ee1c76a	0.44097453
26	0x3e819e98	0.2531631
27	0x3f858909	1.0432445
28	0x3d462c9a	0.04838238
29	0x3e2e5f7c	0.17028612
30	0x3f26ddd5	0.6518224
31	0x3f6f0a03	0.9337465
32	0x3ea03b8d	0.31295434
33	0x3e631d15	0.22179063
34	0x3e9a142d	0.30093518
35	0x3f2c621d	0.6733721
36	0x3fbe59c2	1.4871142
37	0x3f813e57	1.009715
38	0x3e9c2043	0.30493364
39	0x3f28ba61	0.6590939
40	0x3f5b5c9c	0.85688186
41	0x3ee2c76d	0.44292775
42	0x3ebc8c72	0.368259
43	0x3f83e27a	1.030349
44	0x3faae5f6	1.3351429
45	0x3eeeca40	0.4663868
46	0x3e4f01c0	0.20215511
47	0x3f2c69bd	0.67348844

dense1.2.bn1.bias f4 [48]
0	0xbd2a77b0	-0.04161805
1	0xbd4b6037	-0.049652305
2	0xbeabf7e1	-0.33587554
3	0xbece1297	-0.40248558
4	0x3e95c16a	0.29249126
5	0xbd276aea	-0.040873446
6	0x3e1b1829	0.15145935
7	0xbe3f6c36	-0.18693623
8	0x3cc53a54	0.024075665
9	0x3d70e3ba	0.058810927
10	0xbcca3796	-0.024684709
11	0x3eb7ed7d	0.35923377
12	0xbd8255aa	-0.063639954
13	0xbdaefc8e	-0.08544265
14	0x3d01c8eb	0.03168575
15	0xbf0f1ce1	-0.5590344
16	0x3e8273bd	0.25478926
17	0xbee16035	-0.44018713
18	0xbe789b3e	-0.2427797
19	0xbe6df5f2	-0.23238352
20	0x3eeaf700	0.4589157
21	0xbd765c5e	-0.060146682
22	0xbde840ff	-0.11340522
23	0xbe327306	-0.1742669
24	0xbf08a0c3	-0.533703
25	0x3eb58cc1	0.3545895
26	0x3d2c80a3	0.042114865
27	0x3db605ed	0.08887849
28	0xbd8beca9	-0.06832249
29	0xbdfcac69	-0.12337572
30	0x3d9f166c	0.077679485
31	0x3ec49cf4	0.38400996
32	0xbd96ca57	-0.07362812
33	0x3da025f1	0.07819737
34	0xbe3fbd6e	-0.18724605
35	0xbe47c93b	-0.19510357
36	0x3f15602c	0.5834987
37	0xbc852de5	-0.016257236
38	0xbe844cdb	-0.25839886
39	0xbe1ddda3	-0.15416579
40	0xbf0496e8	-0.51792765
41	0xbea5b08c	-0.32361257
42	0xbdbcef3b	-0.09225317
43	0xbea44b0f	-0.32088515
44	0x3eb5aaaf	0.35481784
45	0xbd275492	-0.040852137
46	0xbd34da15	-0.04415329
47	0x3ec56da0	0.385602

dense1.2.conv1.weight f4 [12, 48, 3, 3]
0	0x3dc29bc9	0.0950237
1	0xbd830e87	-0.06399255
2	0xbddbccc5	-0.10732416
3	0x3dadc6a2	0.08485152
4	0xbd9f3f18	-0.07775706
5	0xbdf81111	-0.1211263
6	0x3dbad109	0.091219015
7	0xbd6ae3e8	-0.057346255
8	0xbd6474a2	-0.055775292
9	0x3b5406be	0.0032352651
10	0x3ce19104	0.02753497
11	0x3c9abfa9	0.018890219
12	0x3c1f8ce9	0.009738185
13	0x3cf4f48e	0.029901769
14	0x3cfd9c3d	0.03095829
15	0x3c9fb147	0.019493712
16	0x3c8412b3	0.016122198
17	0x3bba13ed	0.005678645
18	0x3cb15e05	0.021651277
19	0xbc78b882	-0.015180709
20	0xbcd63147	-0.026146544
21	0x3c5f34be	0.013623415
22	0xbd2eb592	-0.042653628
23	0xbd52ab20	-0.05143273
24	0x3c3df4bb	0.011593993
25	0xbd0142ae	-0.03155773
26	0xbd604816	-0.054756247
27	0xbd9be6ba	-0.07612367
28	0xbdbe3afa	-0.09288593
29	0xbdcdcdbe	-0.10049008
30	0x3d74a6d0	0.059729397
31	0x3d47b33e	0.048754923
32	0x3c32c36f	0.010910853
33	0x3cfd26c3	0.030902272
34	0x3d735fb0	0.059417427
35	0x3d5ed40d	0.054401446
36	0xbb870927	-0.004120964
37	0x3de6dc60	0.11272502
38	0x3e06f196	0.13178095
39	0xba85411c	-0.0010166499
40	0x3e07a43b	0.13246243
41	0x3e18352f	0.14864038
42	0xbd11215c	-0.035432205
43	0x3d86613d	0.065615155
44	0x3d8286c0	0.06373358
45	0xbc22072a	-0.009889403
46	0xbd0c00fa	-0.03418062
47	0xbd269a7d	-0.040674675
48	0x3aae0557	0.0013276738
49	0xbc7f66af	-0.0155884465
50	0xbd02249f	-0.031773206
51	0x39844910	0.00025231438
52	0xbcd7e0e4	-0.026352353
53	0xbc51cd11	-0.012805239
54	0x3daffb08	0.08592802
55	0xbe523da9	-0.20531334
56	0x3ba7843f	0.0051122005
57	0x3e8ed13a	0.27894002
58	0x3d869f6a	0.065733746
59	0x3ec60e3a	0.3868273
60	0x3e505510	0.20344949
61	0x3d342672	0.043981977
62	0x3eaa9227	0.3331463
63	0xbc8d4e8f	-0.017249374
64	0xbc634339	-0.013871008
65	0x3b888de5	0.004167306
66	0x3b845e0b	0.004039531
67	0xbcc71924	-0.02430398
68	0xbca54281	-0.020173313
69	0xbb97b242	-0.0046294043
70	0xbcba09d4	-0.022709765
71	0xbd36be39	-0.044615004
72	0xbdc58574	-0.09644595
73	0x3c55a27d	0.0130392285
74	0x3e41971e	0.18905303
75	0x3b0c7fda	0.002143851
76	0x3da8ff0a	0.0825177
77	0x3e18300b	0.14862077
78	0x3e182854	0.14859134
79	0x3def36f4	0.11680403
80	0x3d8791e3	0.066196226
81	0x3d5a6b52	0.053325005
82	0x3b6eb26e	0.003642227
83	0x3d741f27	0.05960002
84	0x3e00b2de	0.12568232
85	0x3dc0f894	0.094224125
86	0x3e087df4	0.13329297
87	0x3db0c29a	0.08630867
88	0x3d08061c	0.03320895
89	0x3ce08d99	0.027411269
90	0x3d187453	0.03722031
91	0x3c8f542f	0.017496197
92	0x3ba4e7f2	0.005032533
93	0x3cade92b	0.021229347
94	0xbcdea539	-0.027178394
95	0xbd4fbdc4	-0.050718084
96	0x3cafd8a0	0.0214656
97	0xbc61ec21	-0.013789208
98	0xbd112d67	-0.03544369
99	0x3daa24a6	0.083077714
100	0x3cafc2bd	0.021455163
101	0x3dad9bd5	0.08476988
102	0x3d8b4c80	0.068017006
103	0xbc63bde9	-0.013900259
104	0x3d2720c2	0.040802725
105	0x3d6a429b	0.057192426
106	0xbd30a1bf	-0.043123003
107	0xbd16aede	-0.03678786
108	0x3c016cf4	0.007899512
109	0x3bc2a9b7	0.0059406417
110	0x3bcf085b	0.0063181347
111	0xbb355975	-0.0027671729
112	0xbb22098d	-0.002472493
113	0x3a9ef8f9	0.0012128643
114	0xbc52a42a	-0.012856523
115	0xbc440f26	-0.011966502
116	0xbba09c9a	-0.004901481
117	0xbbe884d1	-0.007095911
118	0x3d863638	0.0655331
119	0x3dfb1514	0.1225988
120	0xbd0153fb	-0.03157423
121	0x3d07cc86	0.033154033
122	0x3dbe60a7	0.09295779
123	0xbd967111	-0.073457845
124	0xbcb2b877	-0.021816475
125	0x3d1f6a80	0.038919926
126	0xbbf51d50	-0.007480301
127	0xbba650ae	-0.0050755357
128	0xbc8f55a4	-0.017496891
129	0x3cc7af51	0.02437559
130	0x3cd57338	0.026055917
131	0x3cd38481	0.025820019
132	0x3ab20e8c	0.0013584658
133	0x3cf35a95	0.029706279
134	0x3cd21380	0.025644064
135	0xb90fd332	-0.00013716219
136	0x3cf12644	0.029437192
137	0x3dcfc72e	0.101454124
138	0xbca17403	-0.019708639
139	0x3b747fd3	0.0037307634
140	0x3debbb43	0.11510327
141	0xbcc4ffd5	-0.024047771
142	0x3ce9c8a7	0.028538061
143	0x3deafe61	0.114743
144	0x3bdd96d2	0.006762364
145	0x3dc89159	0.09793348
146	0x3e502216	0.20325503
147	0xbcf3f3cd	-0.02977934
148	0x3dba0947	0.09083801
149	0x3e55abaa	0.20866266
150	0xbd911c39	-0.07085461
151	0x3d7e6ae9	0.062113676
152	0x3e33ba5e	0.17551562
153	0x3e0462b9	0.12928285
154	0x3c543d55	0.012954076
155	0xbdf10df8	-0.117702425
156	0x3dc68222	0.096927896
157	0xbbe5f18f	-0.0070173214
158	0xbdf3229a	-0.11871834
159	0x3d109722	0.03530038
160	0xbd4e0f4c	-0.050307557
161	0xbddb536e	-0.10709272
162	0xbdc919ef	-0.098193996
163	0x3daafad6	0.083486244
164	0x3e8fd1c4	0.28089726
165	0xbe01e2bf	-0.12684153
166	0x3d6dd2ba	0.058062293
167	0x3e88a9d3	0.26692066
168	0xbdd04ae6	-0.10170536
169	0x3d730f08	0.059340507
170	0x3e584abd	0.2112226
171	0x3d33a30d	0.04385667
172	0x3d28c9d7	0.041208114
173	0x3cd38626	0.025820803
174	0x3d3213a0	0.043475747
175	0x3d4760ab	0.048676174
176	0x3c8ad521	0.01694733
177	0x3c9064d6	0.017626207
178	0x3c587eb3	0.013213801
179	0x3bd5da10	0.006526239
180	0xbeddc2e7	-0.4331276
181	0xbe8b8a96	-0.2725417
182	0xbeb9eda6	-0.36314124
183	0xbf29a35c	-0.6626489
184	0xbf03536c	-0.51299167
185	0xbf2b71db	-0.66970605
186	0xbee8bfec	-0.45458925
187	0xbeb1fb31	-0.34761956
188	0xbef75f1a	-0.48314744
189	0xbbde6ab3	-0.006787622
190	0xbbb17bb6	-0.005416359
191	0x3a14f66c	0.00056824717
192	0xbb78eda3	-0.003798344
193	0xbc0eef96	-0.008724114
194	0xbc41d741	-0.011831106
195	0xbbb50df2	-0.005525344
196	0xbb4a2775	-0.0030846272
197	0xbc9d7289	-0.019219654
198	0x3cf35fef	0.02970883
199	0x3d578c99	0.05262432
200	0x3d92bb04	0.07164577
201	0x3b1b9cac	0.0023744507
202	0x3d600410	0.054691374
203	0x3dbef026	0.093231484
204	0xb92e7a7b	-0.0001663956
205	0x3cd394df	0.025827823
206	0x3dced65f	0.10099482
207	0x3c4e6373	0.012596953
208	0x3cb3e5c2	0.021960143
209	0x3c1f942e	0.009739919
210	0x3c87bbad	0.016568983
211	0x3bbd1ee1	0.0057715033
212	0x3a58eebb	0.00082753197
213	0x3c84d46f	0.016214577
214	0x3c49884b	0.012300561
215	0xbbd40c94	-0.006471226
216	0x3e32ceb7	0.17461668
217	0x3c193493	0.009350914
218	0xbd4b6581	-0.04965735
219	0x3e49242f	0.19642709
220	0x3b08f7a2	0.0020899554
221	0xbdb26ef0	-0.08712566
222	0x3e1f1909	0.15536894
223	0xbd430fc9	-0.047622476
224	0xbe0dc176	-0.1384333
225	0xbcfc8603	-0.03082562
226	0x3b524a6b	0.0032087814
227	0x3d82b3e5	0.063819684
228	0xbdfacb42	-0.122457996
229	0xbbea432a	-0.00714912
230	0x3e6d4e24	0.2317434
231	0xbd827ec7	-0.06371837
232	0x3cc3076d	0.023807252
233	0x3e892480	0.2678566
234	0xbc5ae8d1	-0.013361172
235	0xbb79827b	-0.0038072157
236	0x3da62f43	0.08114483
237	0x3df62395	0.120185055
238	0x3d858cb9	0.06520981
239	0x3c1b236b	0.0094688935
240	0x3e1319c2	0.14365295
241	0x3d7d6c0b	0.061870616
242	0x3a6b5cac	0.0008978348
243	0x3da120e4	0.078676015
244	0xbd3b98cc	-0.045800015
245	0xbde9f601	-0.11423875
246	0x3f158270	0.58402157
247	0x3eb80261	0.35939315
248	0x3dba775d	0.09104798
249	0x3e4037d9	0.18771304
250	0x3e06a79d	0.13149877
251	0xbd9b4e47	-0.075832896
252	0x3bcfad9e	0.0063378355
253	0x3b195541	0.0023396763
254	0x3c1a149c	0.009404328
255	0xbc2b55ab	-0.010457437

dense1.3.bn1.weight f4 [60]
0	0x3e9930d0	0.29920053
1	0x3e7a72db	0.24457876
2	0x3e590fb3	0.21197395
3	0x3efff8b1	0.49994424
4	0x3f0fd846	0.5618938
5	0x3e54f65b	0.20797102
6	0x3f961423	1.1724895
7	0x3eac229f	0.33620164
8	0x3ef63027	0.48083612
9	0x3e8b1e80	0.27171707
10	0x3ddc8c60	0.10768962
11	0x3e636a99	0.22208633
12	0x3e38bd42	0.18040946
13	0x3e0f6e0d	0.14006825
14	0x3f315740	0.6927376
15	0x3e223d47	0.15843688
16	0x3e822942	0.25422102
17	0x3de8d95b	0.11369582
18	0x3e704241	0.23462774
19	0x3e2e29df	0.1700816
20	0x3f9ce1ad	1.2256371
21	0x3e628d33	0.22124176
22	0x3e107dec	0.14110535
23	0x3ddab02a	0.10678132
24	0x3e53a962	0.20670083
25	0x3f3c70b8	0.73609495
26	0x3ed2109c	0.41028297
27	0x3f39c369	0.725638
28	0x3e736c39	0.23771752
29	0x3ea83987	0.3285639
30	0x3f36713d	0.7126654
31	0x3f804e8e	1.0023973
32	0x3ec6e514	0.38846648
33	0x3ee55547	0.44791624
34	0x3e02476e	0.12722561
35	0x3f381188	0.7190175
36	0x3f6a56ce	0.91538703
37	0x3f768648	0.96298647
38	0x3e11ec4d	0.14250298
39	0x3f835cce	1.0262697
40	0x3f0f6655	0.5601552
41	0x3e2efaef	0.17087911
42	0x3e180212	0.1484454
43	0x3f0f7d33	0.56050414
44	0x3eeffdbf	0.4687328
45	0x3ed90768	0.42388463
46	0x3f9b1a91	1.2117482
47	0x3ec4e2cc	0.38454282
48	0x3f7496a7	0.9554238
49	0x3eb56e3c	0.35435665
50	0x3e2126be	0.15737435
51	0x3f040d28	0.51582575
52	0x3e976478	0.2956884
53	0x3e13519d	0.14386602
54	0x3fd23716	1.6423061
55	0x3f3d5193	0.739526
56	0x3f9f21d8	1.2432203
57	0x3e524251	0.2053311
58	0x3d47a2a4	0.04873909
59	0x3edb8207	0.4287264

dense1.3.bn1.bias f4 [60]
0	0xbdc69d91	-0.09698022
1	0xbc712a7b	-0.014719601
2	0xbde3781e	-0.11106895
3	0x3e2b7fce	0.16747972
4	0x3d204aec	0.03913395
5	0x3d1b1f9d	0.037871946
6	0xbd9b5365	-0.075842656
7	0x3d83d76b	0.06437572
8	0xbdf8457d	-0.12122629
9	0xbca949a2	-0.020664994
10	0xbccbacdf	-0.024862705
11	0xbd3e4d94	-0.046460703
12	0xbd374c86	-0.044750713
13	0xbd4f1456	-0.050556503
14	0x3e030f33	0.12798767
15	0xbe488217	-0.19580875
16	0xbe453aa2	-0.19260648
17	0xbdcb3641	-0.099224575
18	0xbcf8fd2b	-0.030394157
19	0xbd93c4d7	-0.072152786
20	0xbdab8705	-0.08375362
21	0x3d48f29d	0.0490595
22	0xbd9418b7	-0.072312765
23	0xbd43ef2e	-0.04783552
24	0xbe2308cd	-0.15921326
25	0xbe485aac	-0.19565839
26	0xbea9c84c	-0.33160627
27	0xbe90470c	-0.28179204
28	0xbe305064	-0.17218167
29	0xbe8120f8	-0.25220466
30	0xbe353452	-0.1769574
31	0xbf116e70	-0.5680914
32	0xbe82d251	-0.25551084
33	0x3d6081c1	0.054811243
34	0xbdd74f66	-0.10513191
35	0xbe43a6f0	-0.1910665
36	0xbe94088c	-0.2891277
37	0x3ec57b09	0.3857043
38	0xbe39b9c6	-0.18137273
39	0xbe739a9f	-0.23789452
40	0xbebb89f5	-0.3662869
41	0xbe364f04	-0.1780358
42	0xbd8c7233	-0.06857719
43	0x3ca24028	0.019805983
44	0xbe20338b	-0.15644662
45	0x3ce67ef6	0.028136712
46	0x3e61d8c1	0.22055341
47	0xbdf48be9	-0.11940748
48	0x3cd365ea	0.025805432
49	0x3dabfb06	0.08397488
50	0xbbd7092d	-0.006562373
51	0xbd70097e	-0.058602802
52	0x3dfb5e83	0.12273886
53	0xbd62b8cf	-0.05535203
54	0xbd0d412c	-0.03448598
55	0x3dcac6bf	0.09901189
56	0x3d8eedf8	0.06978983
57	0xbb0d2c29	-0.0021541214
58	0xbbc3c5cd	-0.0059745074
59	0x3dbdb298	0.0926258

dense1.3.conv1.weight f4 [12, 60, 3, 3]
0	0x3d4c4fca	0.04988078
1	0xbc635c8e	-0.013877047
2	0x3c3521fb	0.011055465
3	0x3d298d99	0.041394804
4	0xbd3350fe	-0.043778412
5	0xbd50c326	-0.050967358
6	0x3d316fac	0.04331939
7	0xbca92352	-0.020646725
8	0xbc2f5a64	-0.010702703
9	0x3bc1b920	0.005911961
10	0xbb2b95fc	-0.0026181927
11	0xbc8e165f	-0.017344652
12	0xbc3c8422	-0.011506112
13	0xbca51f07	-0.020156397
14	0xbc5fed79	-0.013667458
15	0xbc8b6949	-0.017017977
16	0xbc283a6b	-0.010267834
17	0xbb805f75	-0.0039176294
18	0x3c13a91b	0.009012486
19	0x3c8d2f39	0.017234432
20	0x3ca48404	0.020082481
21	0xbac89df8	-0.0015305867
22	0xbc315294	-0.010822911
23	0xbb1f41c6	-0.0024300679
24	0x3bf8c87a	0.007592258
25	0xbc6a8169	-0.01431308
26	0x3847277c	4.748207e-05
27	0x3cbdf0fd	0.023186201
28	0x3bbc7964	0.0057517756
29	0x3d274398	0.040835947
30	0x3db9c999	0.09071655
31	0x3d497d71	0.049191896
32	0x3de126d8	0.10993737
33	0xbbbb4232	-0.005714678
34	0xbd18b597	-0.037282553
35	0x3d46ec71	0.04856533
36	0x3e42715d	0.18988557
37	0x3e20c1f7	0.15698992
38	0x3cfe60b2	0.031051967
39	0x3e1a18b9	0.15048493
40	0x3dee211f	0.11627411
41	0xbc1e0fad	-0.009647292
42	0x3da74de4	0.08169153
43	0x3d64e032	0.05587787
44	0xbd45e43f	-0.048313376
45	0xbc609045	-0.013706272
46	0xbc0028d5	-0.007822235
47	0xbb3c5ad3	-0.002874066
48	0xbc2bf2fe	-0.010494946
49	0xbbc7acc5	-0.006093594
50	0xbc81a806	-0.01582719
51	0xbbdb4b3d	-0.0066923187
52	0xbbb84595	-0.005623529
53	0x3b5d3e7b	0.0033759165
54	0xbde74f2c	-0.11294398
55	0xbe3139b4	-0.17307168
56	0x3e072c4a	0.13200489
57	0xbd20f4b5	-0.03929587
58	0xbde3ab2e	-0.11116634
59	0x3e01dde5	0.12682302
60	0x3c41870e	0.011811985
61	0xbe057ab8	-0.13035095
62	0x3cc1e6ab	0.023669561
63	0x3db01c3e	0.08599137
64	0x3d59fa5a	0.05321727
65	0x3d3efa96	0.046625696
66	0x3cd57ffd	0.026062006
67	0x3c0b65f4	0.008508194
68	0x3c985fa6	0.018600296
69	0xbc1d8e15	-0.0096163945
70	0xbc973b95	-0.018461028
71	0xbc0d117f	-0.008610128
72	0x3db712df	0.08939146
73	0x3e000eca	0.12505642
74	0x3e51d211	0.2049029
75	0x3d077ec4	0.033079877
76	0x3d690e58	0.056898445
77	0x3dca2675	0.09870616
78	0xbc7551fb	-0.014973159
79	0x3c56ca5c	0.01310977
80	0x3d2205e5	0.039556403
81	0x3b6971b3	0.0035620749
82	0xbca93239	-0.02065383
83	0xbc891185	-0.016731987
84	0x3c963123	0.018333977
85	0xbca47192	-0.020073686
86	0xbd2d8ca6	-0.04237046
87	0xbb8f1414	-0.004366407
88	0xbcda4872	-0.026645873
89	0xbcc78b0a	-0.024358291
90	0x3cb7f01c	0.02245336
91	0xb9e7aaa1	-0.00044186882
92	0x3c20a7cb	0.00980563
93	0xbc1cf450	-0.009579733
94	0xbcdc990f	-0.026928453
95	0xbb32a52d	-0.0027259097
96	0xbc3bac11	-0.011454598
97	0xbce9160e	-0.0284529
98	0xbcb3a774	-0.021930434
99	0xbc33843e	-0.010956822
100	0xbc13f3f2	-0.009030329
101	0x3be8bdcb	0.007102703
102	0xbc948f92	-0.018134866
103	0xbcdd42c8	-0.027009383
104	0xbc9f0025	-0.019409249
105	0xbbc69b2f	-0.00606098
106	0xbd1a47b4	-0.037666038
107	0xbabbd612	-0.0014330766
108	0x3c488093	0.012237686
109	0x3bbe047b	0.005798874
110	0xbaafb61a	-0.0013405711
111	0x3bd75626	0.006571549
112	0xbbf5397d	-0.00748366
113	0x3b702177	0.003664104
114	0x3bd2b27a	0.0064299675
115	0x3afcb4d5	0.0019279966
116	0xba0c9665	-0.00053629867
117	0x3d01aeeb	0.031660955
118	0x3d145164	0.036210433
119	0x3d0e5e9e	0.034758203
120	0x3d06719b	0.032823186
121	0x3cc0ba45	0.02352632
122	0x3ca121e5	0.019669482
123	0x3cbb0181	0.022827866
124	0x3c1934bb	0.009350951
125	0xbafadcc0	-0.0019139275
126	0xbd884515	-0.06653801
127	0xbd4bc62a	-0.04974953
128	0x3d3483e0	0.04407108
129	0x3ceb8112	0.028748069
130	0x3c5904a4	0.013245735
131	0x3deeaaef	0.11653697
132	0xbd3f1b56	-0.04665693
133	0xbd57eb48	-0.052714616
134	0x3c7333de	0.014843909
135	0xba29eca1	-0.0006482099
136	0x3c3eef66	0.011653757
137	0x3d2d06c5	0.042242784
138	0xbb9be49a	-0.004757476
139	0x3b9d248d	0.004795617
140	0x3d2ee27d	0.042696465
141	0xbcc004c8	-0.02343978
142	0xbc398ae8	-0.011324622
143	0x3d1d4775	0.038398225
144	0x3cf7138e	0.030160692
145	0x3d0ea26c	0.034822866
146	0x3d61c6a5	0.055121083
147	0x3d08a2a7	0.033358242
148	0x3cd55633	0.02604208
149	0x3d5d23a7	0.05398908
150	0x3d684834	0.056709483
151	0x3d308987	0.043099906
152	0x3d0876f9	0.033316586
153	0x3d059ff1	0.032623235
154	0x3cac802d	0.021057213
155	0xbac50b31	-0.0015033243
156	0x3d091b70	0.033473432
157	0x3d1cf234	0.03831692
158	0xbc07b6d4	-0.008283336
159	0x3cc17834	0.023616888
160	0x3c42dd31	0.011893556
161	0xba9f9f22	-0.0012178163
162	0x3d979e0c	0.07403192
163	0x3d998a18	0.074970424
164	0x3d9fe5bd	0.07807491
165	0x3d917cf1	0.07103909
166	0x3d7ac6d5	0.061224777
167	0x3d5944b4	0.053044036
168	0x3d45c37f	0.048282143
169	0x3d11980b	0.03554539
170	0x3cefbec3	0.029265767
171	0x3cf7fe30	0.030272573
172	0x3ca720aa	0.020401318
173	0x3d262463	0.040562045
174	0x3d0963d2	0.03354246
175	0x3d078802	0.03308869
176	0x3cdb3634	0.026759245
177	0x3cf5baed	0.02999636
178	0x3cc49ace	0.023999598
179	0x3cf06322	0.029344145
180	0x3e2c8329	0.16846909
181	0xbe12be4d	-0.14330406
182	0xbe9bd498	-0.30435634
183	0x3d8ca334	0.06867066
184	0xbe2b28d8	-0.167148
185	0xbe757739	-0.23971261
186	0xbd42c57d	-0.04755162
187	0xbe4415f3	-0.19148998
188	0xbe4c4d5b	-0.19951384
189	0x3cc97b6c	0.024594985
190	0x3cc21722	0.023692671
191	0x3d92680c	0.071487516
192	0xbc9e4374	-0.019319274
193	0xbc527c52	-0.012847023
194	0x3d279bab	0.04091994
195	0x3979ecca	0.00023834701
196	0xbbdbf131	-0.006712102
197	0x3d48ea69	0.049051676
198	0x3c7524d4	0.014962394
199	0x3c5d3fc1	0.01350397
200	0x3b212097	0.0024586075
201	0x3c44aa19	0.012003445
202	0x3bc0614e	0.0058709746
203	0xbaf5c8ab	-0.001875182
204	0xbc511932	-0.012762355
205	0x3b8ede5d	0.004360004
206	0x3c330450	0.010926321
207	0x3b46ea46	0.003035204
208	0x3c87e2c3	0.01658762
209	0x3ca3140f	0.019907026
210	0xbbb03717	-0.005377661
211	0x3b82a9ee	0.0039875424
212	0x3cccb545	0.02498878
213	0x3c64d766	0.013967371
214	0x3c80c19b	0.015717318
215	0x3c83ef25	0.016105244
216	0x3c7a1a35	0.015265037
217	0xbc23fd7e	-0.010009168
218	0x3d4bcdcd	0.049756814
219	0xb9984cad	-0.00029048827
220	0xbbebe4b9	-0.0071988967
221	0x3cecc361	0.028901758
222	0xbc425339	-0.011860662
223	0xbc0f627b	-0.008751507
224	0x3d1940cd	0.037415314
225	0xbcf49e19	-0.029860543
226	0xbe122c9d	-0.14274831
227	0xbd845d17	-0.06463068
228	0xbd495785	-0.04915573
229	0xbd8843aa	-0.06653531
230	0x3cfb3004	0.030662544
231	0xbd813c45	-0.063103236
232	0xbd55f0d0	-0.05223161
233	0x3c01efc9	0.007930704
234	0xbbd49ea1	-0.0064886366
235	0xbb8ed9fb	-0.0043594814
236	0x3c0f58ba	0.008749181
237	0xbd0b8dd2	-0.034070797
238	0xbd5578d7	-0.052117195
239	0xbcfd72e0	-0.030938566
240	0xbd0d863b	-0.03455184
241	0xbd1be7e3	-0.03806294
242	0xbc3beca3	-0.011469993
243	0x3dca14d1	0.09867252
244	0xbbf3585d	-0.007426305
245	0xbddea3de	-0.10871099
246	0x3dce72fe	0.10080527
247	0xbcd0ecf1	-0.025503607
248	0xbe02ae2b	-0.12761752
249	0x3dda6661	0.106640585
250	0xbda27a31	-0.079334624
251	0xbe290bb1	-0.16508366
252	0xb940823f	-0.00018359067
253	0x3bbdec2d	0.0057959766
254	0x3cf28a93	0.029607093
255	0xbc0343af	-0.0080117425

dense1.4.bn1.weight f4 [72]
0	0x3f13204d	0.5747116
1	0x3ea3e0ae	0.32007354
2	0x3f16777d	0.58776075
3	0x3f79ebd1	0.9762545
4	0x3f800826	1.0002487
5	0x3e268f5b	0.16265623
6	0x3ed9a7d1	0.42510846
7	0x3f061977	0.52382606
8	0x3f93f8ba	1.156028
9	0x3e5a4dfb	0.2131881
10	0x3e3dcfad	0.18536253
11	0x3dcf7601	0.10129929
12	0x3df8299b	0.121173106
13	0x3ea5c0b4	0.32373583
14	0x3f40df62	0.75340855
15	0x3f00a431	0.50250536
16	0x3f2807bf	0.6563682
17	0x3eef318f	0.46717498
18	0x3e9c3897	0.30511925
19	0x3ec7c23b	0.39015374
20	0x3f065d68	0.52486277
21	0x3e659dda	0.22423497
22	0x3d92b42d	0.07163272
23	0x3dffe876	0.1249551
24	0x3e9449c4	0.2896253
25	0x3f7af0fd	0.9802397
26	0x3f0a2803	0.53967303
27	0x3e3a4f31	0.18194272
28	0x3e866b73	0.26253852
29	0x3e2acb3f	0.16679095
30	0x3ec27bb7	0.37985012
31	0x3e9a4676	0.30131882
32	0x3ecd58c8	0.40106797
33	0x3eebf6bd	0.46086684
34	0x3ec612dc	0.38686264
35	0x3f037f06	0.513657
36	0x3f1b5e46	0.60690725
37	0x3f8a0b22	1.0784647
38	0x3e9fb0f0	0.3118968
39	0x3e477555	0.19478352
40	0x3eb452a3	0.35219297
41	0x3da4e394	0.080512196
42	0x3eaadf07	0.3337328
43	0x3f10146a	0.5628115
44	0x3e9f2127	0.3107998
45	0x3f25c086	0.6474689
46	0x3f5c3f9b	0.86034554
47	0x3ee6cc8a	0.45077926
48	0x3eb352de	0.3502416
49	0x3e222007	0.1583253
50	0x3ea991c0	0.3311901
51	0x3edd1f71	0.4318805
52	0x3ea1c352	0.3159433
53	0x3e79b0ab	0.243838
54	0x3eab14de	0.33414358
55	0x3e9fa4df	0.31180474
56	0x3f9ee295	1.2412897
57	0x3e94f2e1	0.29091552
58	0x3e478ad8	0.19486558
59	0x3f249a39	0.64297825
60	0x3e51d7fb	0.20492546
61	0x3e304f58	0.17217767
62	0x3fc33a79	1.525222
63	0x3e6cc943	0.2312365
64	0x3e10ae36	0.14128956
65	0x3da44348	0.080206454
66	0x3dd4a0c2	0.103822246
67	0x3f5a618b	0.8530509
68	0x3d9a8489	0.0754481
69	0x3f25e498	0.6480193
70	0x3e9debd0	0.30843973
71	0x3e324b12	0.1741145

dense1.4.bn1.bias f4 [72]
0	0xbf0bee7a	-0.5466076
1	0xbd048535	-0.0323536
2	0xbea04a7a	-0.3130682
3	0x3a8d4be9	0.0010780069
4	0xbec176d0	-0.3778596
5	0xbc5dae7b	-0.013530369
6	0xbde0d310	-0.10977757
7	0xbacd4e19	-0.0015663534
8	0x3dbd5430	0.09244573
9	0xbba3aeaa	-0.004995187
10	0xbd0adce8	-0.03390208
11	0xbda9523a	-0.082676366
12	0xbd321f46	-0.043486856
13	0xbdedc327	-0.11609488
14	0x3d89e02e	0.06732212
15	0xbe8bd68c	-0.27312124
16	0xbee8eecd	-0.4549469
17	0xbec342a8	-0.38136792
18	0xbe68dda5	-0.227408
19	0xbeabc5c7	-0.3354933
20	0xbe978777	-0.2959554
21	0x3e140068	0.1445328
22	0x3c2a44af	0.010392352
23	0x3d69ec4a	0.05711011
24	0x3d5aadf4	0.05338855
25	0x3e067841	0.1313181
26	0xbe514454	-0.20436221
27	0xbe3985e4	-0.18117481
28	0x3d10441a	0.035221197
29	0xbd810bc7	-0.063010745
30	0xbcf894cb	-0.030344388
31	0xbd623cc1	-0.05523372
32	0xbe0cd3f8	-0.13752735
33	0xbe05e02f	-0.130738
34	0xbdaa529b	-0.08316537
35	0x3cd8be28	0.026457861
36	0xbe1fa8ce	-0.15591738
37	0xbdc4a6f0	-0.09602153
38	0xbee135cb	-0.43986353
39	0xbd08c003	-0.03338624
40	0xbe43a01f	-0.1910405
41	0xbda66895	-0.08125416
42	0xbd7c39d9	-0.061578605
43	0xbe13c1b0	-0.14429355
44	0xbce260da	-0.027634073
45	0x3d754b91	0.05988652
46	0xbddde11a	-0.1083395
47	0x3ed4d079	0.41565302
48	0x3ce76767	0.028247548
49	0x3d196972	0.037454076
50	0xbd27467a	-0.040838696
51	0xbc7dbbdd	-0.015486685
52	0x3d5b74fb	0.05357836
53	0xbd9dbf79	-0.07702536
54	0x3c0ad9d0	0.008474782
55	0xbda53d35	-0.08068315
56	0xbe2e324b	-0.17011373
57	0xbc464861	-0.012102217
58	0x3c8ac94a	0.016941685
59	0x3e0729c4	0.13199526
60	0xbd3ca26d	-0.04605334
61	0xbd4beb5e	-0.04978501
62	0xbe887bc5	-0.2665693
63	0x3cebd04e	0.02878585
64	0xbc556175	-0.013023724
65	0x3cc4c93b	0.024021735
66	0xbd0b8b00	-0.034068108
67	0x3c473df1	0.012160764
68	0xbda71d81	-0.08159924
69	0x3e094379	0.13404645
70	0x3d089e31	0.033353988
71	0x3d16d1c7	0.036821153
