independent_train_0.0/client25/checkpoint_0.0.pth (torch, 225067 bytes, 29 tensors)

conv1.weight f4 [24, 3, 3, 3]
000000 4b 8e 60 3e f9 f9 fd 3e d7 e8 59 3e 8c 99 1d 3f
       0.2192928 0.49604777 0.21280228 0.6156242
000010 1c e3 74 3f d9 25 20 3f e9 63 b0 3d 31 11 d5 3e
       0.9565904 0.6255775 0.08612806 0.41614679
000020 a2 5f ec 3d 35 81 53 bd 2c da c1 bd 1b a5 18 3c
       0.11541678 -0.051636893 -0.09465441 0.009316708
000030 66 67 1b be 95 6f 6a be 31 4a e1 bd bf f3 d1 bd
       -0.15176162 -0.22894128 -0.11000479 -0.10251569
000040 3b be 45 be c9 71 e0 bd d4 26 0f be 93 51 d7 be
       -0.19310848 -0.10959203 -0.13979656 -0.42054424
000050 49 46 27 be b7 fd b2 be 87 5e 2a bf b0 52 bc be
       -0.16335405 -0.34959194 -0.6655049 -0.36781836
000060 91 67 04 3d f2 57 84 be 26 ab 1c 3c 91 56 c4 bf
       0.03232533 -0.25848347 0.009562289 -1.5338918
000070 2d be e1 bf 92 b5 bf bf 80 f0 0d 3f 4f bf 66 3f
       -1.7636162 -1.4977286 0.554451 0.90135664
000080 af 95 2a 3f 72 3b 48 3f bb 8b 95 3f 15 04 3b 3f
       0.6663465 0.78215706 1.1683267 0.73053104
000090 34 0e 77 bf 6e 22 9e bf b3 95 78 bf c8 89 b5 3e
       -0.9650605 -1.2354257 -0.9710342 0.3545668
0000a0 b3 c8 23 3f 2f 79 fd 3e 00 f1 c8 3e 2b eb 39 3f
       0.6397812 0.49506518 0.39246368 0.7262446
0000b0 1f 8d ea 3e ea 5f 13 bc f2 74 e8 be b8 0c db bd
       0.45810792 -0.008995036 -0.45401722 -0.10695785
0000c0 a4 39 81 3e 45 94 81 3e 90 8d aa 3e f2 b7 f4 bd
       0.2523929 0.25308433 0.3331113 -0.11949147
0000d0 99 8a f1 bd 1a 02 8f bd c1 b3 97 bd 1e ac 88 3e
       -0.117940135 -0.06982823 -0.07407332 0.26693815
0000e0 56 31 37 bd 84 97 90 3d d6 d8 d3 3e 9e 82 58 3e
       -0.044724785 0.07060149 0.4137637 0.21143577
0000f0 b7 a6 a8 bd 69 73 67 3e 2d c6 ed 3d 29 9e 3c 3e
       -0.08234923 0.22602619 0.11610065 0.18419708
000100 3e df 6a 3e 37 6a 2c 3e bd b4 0b be 18 0c fb bd
       0.22936723 0.16837393 -0.13643165 -0.12258166
000110 82 6f bf bd 2d 01 23 be 22 2b 4c be 61 c6 c2 bd
       -0.0934744 -0.15918417 -0.19938329 -0.09510494
000120 a9 70 01 3e e2 f8 90 bd c2 b3 cd 3a a4 98 c7 be
       0.12640633 -0.07078721 0.0015693831 -0.38983643
000130 0d 6c 2e bf 45 78 f8 be ee 75 96 be 18 a5 1a bf
       -0.6813362 -0.48529258 -0.29386848 -0.60408163
000140 62 ae bc be 35 f6 6d bb 73 50 6f bd 6a 04 80 3e
       -0.36851794 -0.003631008 -0.05842633 0.25003368
000150 11 77 a1 3f 89 f6 26 be 7e fa a0 bf 56 c6 d8 3e
       1.2614461 -0.16304983 -1.2576444 0.42338818
000160 8c c2 bd bd a7 f5 1f be 1e ac 39 3f 80 12 ae be
       -0.092656225 -0.15621053 0.72528255 -0.3399849
000170 0d 08 25 bf 7b f7 0e 40 e7 18 88 be 7a e2 07 c0
       -0.6446541 2.233855 -0.265815 -2.123198
000180 80 93 99 3f 89 d1 37 be 1a 50 55 bf 4e c3 8d 3e
       1.1998138 -0.17951025 -0.8332535 0.27688068
000190 79 d3 8e be 68 0f 2d be e3 5a ee 3f f5 1f fd bd
       -0.27895716 -0.16900408 1.8621486 -0.12359611
0001a0 4f c1 d4 bf 69 d1 84 3f 50 04 bb bd 8c 0b 39 bf
       -1.6621493 1.0376407 -0.09131682 -0.72283244
0001b0 1f 2d 57 bf 20 36 ac 3c 2f bf 33 3f 7f 45 62 3f
       -0.84053224 0.021021903 0.702136 0.8838729
0001c0 c0 6b 0f 40 64 55 b3 bf 7c 13 7a bf 83 72 71 3f
       2.2409515 -1.4010434 -0.9768598 0.94315356
0001d0 b9 8e ed be 05 74 29 bf fb 4f bb bd 99 11 84 3e
       -0.4639795 -0.66192657 -0.091461144 0.25794676
0001e0 0a 57 e3 3e 2e 29 d2 3f fa e5 08 c0 7e 2a 86 bf
       0.44402343 1.6418817 -2.1390367 -1.0481718
0001f0 1b ac 5f 3f d1 27 92 be ab e5 1d bf b5 a5 b1 be
       0.8737199 -0.28546003 -0.6167857 -0.34696737
000200 d4 d5 11 3f e1 23 9e 3e e0 41 a9 3f 93 40 be bf
       0.569669 0.30886748 1.3223228 -1.4863456
000210 42 51 36 bf 59 63 62 3f 9a ee b0 3e be ae 85 3e
       -0.7121774 0.8843284 0.3455704 0.2610988
000220 33 40 2d 3d f9 ab 45 3e 36 3e c6 bd 4a ca 8f be
       0.042297553 0.19303884 -0.096798345 -0.28084022
000230 24 8f 34 be 80 62 40 3d a2 75 a1 bd 6a 0f 57 bd
       -0.17632729 0.046968937 -0.07883765 -0.052504934
000240 18 08 d8 be 43 51 0b bf 18 0a d8 be 3c 4e 16 bf
       -0.42193675 -0.5442087 -0.421952 -0.58713126
000250 d0 fe 21 bf c8 d5 14 bf 95 35 2e bf 08 97 38 bf
       -0.6327944 -0.58138704 -0.6805051 -0.72105455
000260 60 2c 32 bf ff 53 5a 3c e1 36 b8 3e 05 a9 14 3e
       -0.6959896 0.01332569 0.3597937 0.14517601
000270 4e 96 46 3f e1 a3 a0 3f e6 65 6c 3f 65 73 b9 3e
       0.77573097 1.2550012 0.92342985 0.36220852
000280 34 dc 56 3f f4 8f f6 3e a3 6f d5 be fa d9 4c bd
       0.83929753 0.48156703 -0.41686735 -0.050012566
000290 4e ce fa be 66 d5 2d 3f 2a b8 a4 3f 25 98 32 3f
       -0.48985523 0.67903745 1.2868702 0.69763404
0002a0 3c 31 bb 3e e7 c7 77 3f 15 5b c1 3e 44 82 14 be
       0.36561 0.967894 0.37764803 -0.14502817
0002b0 73 12 e1 be 44 88 99 bd 58 66 62 bf 91 77 9d bf
       -0.43959388 -0.07496694 -0.88437414 -1.2302114
0002c0 02 3f 3a bf 65 09 32 bf 70 14 88 bf 07 0d 1c bf
       -0.7275239 -0.69545585 -1.0631237 -0.6095738
0002d0 a3 f9 16 3f 35 f0 d6 3e fc b8 14 3f 04 33 43 3e
       0.58974665 0.41980138 0.58094764 0.1906243
0002e0 5c bd 92 bc 0a f0 72 3e b6 04 e9 3d 1c ca 0f be
       -0.01791256 0.2372438 0.11377852 -0.14041942
0002f0 1b 45 ea 3d 2c ae 99 3e 5f 5e 04 3f 3b e6 ba 3e
       0.11438962 0.30015695 0.517065 0.36503777
000300 b1 c1 c5 3e d3 19 2d 3f 79 17 19 3f cf ac 78 be
       0.38624337 0.6761753 0.5980144 -0.24284671
000310 06 2c 09 bd 01 a5 a7 3b a6 3f 08 3e 04 76 88 3e
       -0.03348925 0.0051161055 0.1330553 0.2665254
000320 db d7 93 3e ec 6b 00 bd 34 4f b4 3d 6f c4 42 3e
       0.28875622 -0.031352922 0.08804169 0.19020246
000330 69 81 d3 be cb 80 cc be 31 ff 7f be 38 07 57 3c
       -0.4130967 -0.3994201 -0.24999692 0.01312428
000340 50 c4 0a 3c c5 5c 00 3e 8d 80 4a be 68 c8 56 be
       0.008469656 0.12535389 -0.197756 -0.20974886
000350 30 24 eb bc 63 dd 82 be fb 15 96 be 3b e4 e1 bd
       -0.028703779 -0.2555953 -0.29313645 -0.1102986
000360 31 42 46 bd 52 01 79 3f 36 13 98 3d 58 1d 7c 3f
       -0.04840297 0.9726764 0.07425539 0.98482275
000370 f3 d4 bd bf 99 24 2b 3f 92 83 50 3e 15 37 4e bf
       -1.4830612 0.6685272 0.2036269 -0.805528
000380 90 ea 03 3f 35 e5 d1 3d b5 d0 ab 3e 7c 08 0c 3e
       0.5152979 0.10248796 0.33557668 0.13675112
000390 b1 4d d1 3e cc 8b 31 c0 74 b4 8c bd 86 c6 26 3f
       0.40879586 -2.7741575 -0.06870356 0.6514667
0003a0 3f 48 3e bf 5b 37 85 3f 80 45 41 be f7 ff 10 3f
       -0.7432899 1.0407518 -0.18874168 0.5664057
0003b0 9a f8 3a 3e 90 c4 9b 3e 02 4d 02 c0 66 c8 31 3e
       0.18258896 0.30423403 -2.0359502 0.17361602
0003c0 f0 ad b8 3e 5d 82 dc be 2e 8e 85 3f 61 dd 73 be
       0.36070204 -0.4306821 1.0434015 -0.23814918
0003d0 8d 06 13 bf eb 23 8b be 20 1a 06 bf 73 81 64 bf
       -0.5743187 -0.2717584 -0.52383614 -0.89260024
0003e0 a2 95 18 bf 71 2b 0c bf f4 c8 6c bf 08 86 17 bf
       -0.5960332 -0.54753786 -0.9249413 -0.5918889
0003f0 58 2d 1d 3f 6a 96 48 3f 2b f3 29 3f bd bd 89 3f
       0.61397314 0.78354514 0.6638667 1.0761029

dense1.0.bn1.weight f4 [24]
000000 66 50 40 3f c8 da e3 3e 19 b2 10 3f 63 41 6c 3f
       0.7512268 0.44502854 0.56521755 0.9228727
000010 9b 6d fb 3f 7a f6 c6 3e 7e 0c a0 3f 87 bc 25 3f
       1.9642824 0.38859922 1.2503812 0.64740795
000020 34 19 05 40 12 29 ca 3e c6 e7 fb 3e c9 a0 a1 3e
       2.0796633 0.3948446 0.49200267 0.31567982
000030 79 fa d7 3e 27 34 c2 3e fc eb 64 3f 4f 50 89 3f
       0.42183283 0.37930414 0.89422584 1.0727633
000040 25 23 9b 3e 3c c2 bf 3e 27 55 8c 3e ab bf 2a 3f
       0.3030025 0.37452877 0.27408716 0.6669871
000050 11 8f 05 3f 61 fa 6d 3f c9 a3 c7 3e a8 4f 05 3f
       0.52171427 0.9296017 0.38992146 0.5207467

dense1.0.bn1.bias f4 [24]
000000 b3 b1 0e bf dc 54 b6 be 47 05 ac bd fb d0 f6 3e
       -0.557399 -0.35611618 -0.08399444 0.48206314
000010 fe fb 30 3f f7 c2 74 be 34 bb a1 bf f8 6c ee be
       0.6913451 -0.23902498 -1.2635255 -0.46567512
000020 02 2c 38 3f 1f e2 27 be 28 00 6b be a7 fa 00 3e
       0.7194215 -0.16394852 -0.22949278 0.12595616
000030 93 01 ab 3c 23 8b ca 3e 35 f8 b1 3e 82 9b 60 3e
       0.020874774 0.39559278 0.3475968 0.21934322
000040 d7 42 72 be 22 1e 9e be 9e 6f a3 be 95 10 74 3e
       -0.2365831 -0.30882365 -0.31921095 0.2383445
000050 ed d7 ec be 07 8c 2e 3f d6 92 8b 3d 29 81 78 be
       -0.46258488 0.68182415 0.06815116 -0.2426802

dense1.0.conv1.weight f4 [12, 24, 3, 3]
000000 6d 12 a0 3d 35 55 fd 3a da 99 2b 3e 43 13 b4 3b
       0.078160144 0.0019327762 0.16757908 0.0054954602
000010 b8 58 f2 bd 3b dd 4d 3d 05 0a 16 3d 5e ed 15 be
       -0.11833328 0.05025981 0.03663065 -0.1464133
000020 97 a5 e7 3b 14 31 06 3d f1 bd 2e be e0 f6 02 3e
       0.0070693004 0.03276165 -0.17064644 0.12789488
000030 be 08 49 bd 59 6c 34 be fc 48 21 3d f0 0a 89 3d
       -0.049080603 -0.17619456 0.039376244 0.06691539
000040 7d fd 59 3d 88 8b 30 3d d0 e0 82 3d a8 c3 29 bd
       0.05322026 0.043101817 0.06390536 -0.041446358
000050 3a 1c 72 3e 1b b4 17 3d 57 6c d1 bd 7f 75 55 3e
       0.2364358 0.037036996 -0.10225742 0.20845602
000060 bd 79 2c bd fa f7 76 be 6f 13 38 3d f8 38 83 3e
       -0.042108286 -0.24118033 0.04494041 0.256294
000070 da 9f 1f be e8 53 95 be e7 78 92 3f 18 6f 32 3c
       -0.15588322 -0.29165578 1.1443146 0.010890745
000080 43 af 6b bf 9c 9e 09 be 43 c0 dc bd d7 7e 9f be
       -0.92064303 -0.13439411 -0.107788585 -0.3115146
000090 21 ba 0d 3f 16 de a4 bf 81 40 26 3f 7a 58 be 3f
       0.55362135 -1.2880275 0.64942175 1.4870751
0000a0 5c b7 dd bf 7d 75 b3 3e 7c b2 b2 3e 98 97 44 bf
       -1.7321582 0.35050574 0.34901798 -0.76793814
0000b0 43 16 da 3e 1f 54 c2 bb f4 17 f3 3b 8a af 9a 3d
       0.4259511 -0.005930438 0.007418627 0.07553013
0000c0 5f fb 61 bd 59 bf 9d bd 17 ba 02 bc bc 9b 20 3d
       -0.055171367 -0.07702512 -0.007978938 0.03921102
0000d0 3d 50 84 3c ad 84 7f 3d 3d 5f 13 be 8b a6 1e be
       0.016151542 0.06238239 -0.143918 -0.15493219
0000e0 e7 e8 50 3c 91 d4 a3 bd a6 b9 1b be a1 03 4f bc
       0.012750841 -0.07999528 -0.15207538 -0.012635143
0000f0 a3 14 9a 3d 6d cc 59 bd ae 44 89 bc 0f 24 83 3b
       0.075234674 -0.05317347 -0.016756382 0.0040021013
000100 52 21 2f 3d 4c 1b b9 3d 31 b0 dc bd 0b 73 b1 bd
       0.042756386 0.090384096 -0.10775793 -0.08664521
000110 bc 79 b1 3d ac fc 1e bd 3a e0 d8 bb 10 16 30 3e
       0.08665797 -0.038815185 -0.0066185268 0.17195916
000120 2a cb 89 be 3c f4 61 3f 26 b9 1b bf 35 67 0f bf
       -0.26912814 0.882633 -0.6082939 -0.56016856
000130 db af c1 3f af 66 89 bf 33 fb 36 be 84 2e ec 3d
       1.5131792 -1.0734462 -0.17869262 0.1153231
000140 e1 b7 63 be 23 2c 4b 3d 8c 66 19 bd 10 3d 9a 3d
       -0.22238113 0.04960264 -0.037451312 0.07531178
000150 14 a7 9c 3d b7 97 b3 bc c5 b7 53 3d 30 0f e4 3d
       0.07649055 -0.02192293 0.05168893 0.11135709
000160 d9 7e 98 bc c6 49 14 3d 43 70 02 3e 26 08 92 3c
       -0.018615173 0.03620317 0.12738137 0.017826151
000170 60 74 56 3d 4e e0 87 3d ad e8 8d bd 9c 19 96 bb
       0.052357078 0.066345796 -0.06929145 -0.0045806896
000180 2b c1 c5 3d 45 5a cc bb 8f 13 2d 3d cd d1 d3 3c
       0.096559845 -0.006236347 0.04225498 0.025856877
000190 9f 65 5f bd b4 21 0a 3e a7 73 fc bc 52 76 d6 bd
       -0.054540273 0.13489419 -0.030816866 -0.104717866
0001a0 30 6a c3 3d bb 19 c3 3d 5e 4a 87 bb 68 73 16 3e
       0.09541738 0.09526392 -0.0041287383 0.14692461
0001b0 dd ed 40 3e 2b e5 e6 3c ca 61 04 3e 44 41 c5 3d
       0.18840738 0.028185448 0.12927929 0.09631589
0001c0 8c d0 dc bc 56 2d fe 3c 7c 68 0c 3e 3f 25 51 3c
       -0.026954912 0.031027477 0.13711733 0.012765228
0001d0 d3 c0 a4 3d bc 8a 89 bd 02 dd 8d bd 7d ab 0e 3d
       0.08044591 -0.067159146 -0.069269195 0.034831513
0001e0 9a 02 fd 3a 06 1f f6 bd 1e ab 05 3e 12 c2 2f 3e
       0.0019303143 -0.12017636 0.13053557 0.17163876
0001f0 24 25 a5 bc 76 c2 8c 3e 84 8a 92 3e ba f3 f8 bd
       -0.020159312 0.27492112 0.28621304 -0.12155862
000200 83 13 94 3e 5e b2 8f 3e 88 1a 4d be b9 ed ad 3d
       0.28921136 0.2806577 -0.20029652 0.084926076
000210 e9 f0 87 3d 0a 95 2f be 0c 40 1b bc d1 16 93 3b
       0.06637747 -0.17146698 -0.009475719 0.004488804
000220 e8 d4 93 3d 26 7f db 3d c7 01 29 be 62 0a 9f 3d
       0.07218343 0.10717611 -0.16504584 0.07765652
000230 a1 26 06 3e 01 97 37 be e2 0e a2 bb 01 a7 10 3e
       0.13100673 -0.17928697 -0.004945622 0.14126207
000240 c8 16 c3 3b b4 df 2f bd 8b 0d 22 bc fd 2a 34 3d
       0.0059536435 -0.04293795 -0.009890924 0.04398631
000250 a8 ca 06 3c 35 a7 7e bc 0a 6a 99 3d 6d 9d 47 3d
       0.008227028 -0.015542795 0.074909285 0.048734117
000260 18 44 35 3c ca f6 8a 3d 6c 54 a5 3c d8 55 62 3d
       0.011063598 0.067853525 0.020181857 0.05525765
000270 d4 2f f9 3c 4d 03 db bc e2 22 be 3c 82 2a ed bc
       0.030418314 -0.026734972 0.023209993 -0.028950933
000280 f5 e0 b3 bd d6 d5 78 bd f9 db 1d bd d6 c8 49 bd
       -0.087831415 -0.060750805 -0.03853986 -0.049263798
000290 b0 b6 7d bc 85 39 49 bd 87 98 9d bd ca 39 ec bc
       -0.015485451 -0.04912712 -0.07695108 -0.02883615
0002a0 d8 7e 22 3d 6e 37 a3 bb ea aa 96 3c 24 88 48 bc
       0.03967175 -0.004980973 0.018392045 -0.01223949
0002b0 b8 9d 0f be 8f b9 45 bd bf 36 d5 3e a1 dc d3 bd
       -0.14025009 -0.048272666 0.4164333 -0.10344816
0002c0 99 33 3c be ee e0 7d 3e f0 64 58 be ae ff 8f be
       -0.18379058 0.24792835 -0.21132255 -0.28124756
0002d0 94 eb 83 bd 0e c6 3a be be a8 37 bd df 22 87 b8
       -0.06441417 -0.18239614 -0.04483866 -6.443797e-05
0002e0 47 b3 ae bd 5a 7e e3 3c 7a f9 f3 3d 39 e1 ea 3d
       -0.08530288 0.02777021 0.11912818 0.11468739
0002f0 b2 27 22 3e 29 9e 59 bf b2 12 4f bc f1 6e 0f 3f
       0.15835455 -0.8500696 -0.012638735 0.5602866
000300 79 77 70 bf e4 db d1 be e9 bd d9 3f 73 27 39 be
       -0.939323 -0.40988076 1.7011081 -0.18081455
000310 eb 70 60 bf a7 3e 42 3e 4e 94 20 3d 6f 47 84 bd
       -0.876723 0.18969212 0.039203934 -0.064589374
000320 ee c9 38 ba 34 e9 30 3d 9f b5 9c bb 88 49 47 3d
       -0.0007049133 0.04319115 -0.004782393 0.04865411
000330 90 41 b0 bd ad 79 13 be 68 b8 04 bd ab ad f0 3d
       -0.08606255 -0.14401884 -0.032402426 0.117518745
000340 e0 ea 0b 3e f3 8a 62 3e 43 3f d6 3d d7 35 cf 3d
       0.13663816 0.22123317 0.10461285 0.10117691
000350 9a 67 87 3e 12 cf 43 be 21 dd 96 be 26 29 ec bd
       0.2644623 -0.1912196 -0.29465583 -0.11531286
000360 b7 c7 93 be 44 a4 27 be 51 e5 59 be 47 ba 26 be
       -0.28863308 -0.16371256 -0.21278884 -0.16281997
000370 83 18 3c bc fe 2a b9 bd 3f dd 68 be 44 44 d2 bd
       -0.011480453 -0.09041403 -0.22740649 -0.10266927
000380 87 ca 41 be 68 b2 24 3e c3 44 2d 3e 3b 6a 57 3e
       -0.18924914 0.16083682 0.16920762 0.21036617
000390 96 b6 a4 3d af 39 8a 3d 68 ec 88 3d b3 63 01 3d
       0.08042638 0.067492835 0.06685716 0.03158922
0003a0 8e 83 c0 bb ac 01 0e bd 2f 5a c5 3d b8 a7 25 3e
       -0.0058750575 -0.034669563 0.09636342 0.16177261
0003b0 4c 1c aa 3d 9d 23 4b 3e a5 4f 8f 3e 89 c8 46 3e
       0.083061785 0.19837804 0.2799045 0.19412436
0003c0 d0 91 bb 3d 6a 92 3d 3e 53 94 b1 3d c6 86 a2 bc
       0.09158671 0.18512884 0.08670869 -0.019839656
0003d0 a1 36 26 3e 25 77 be bc 75 f5 47 3d b2 e6 63 3e
       0.16231777 -0.023250172 0.04881807 0.22255972
0003e0 2d 17 0a bd 63 fc 7b bc ec ba 2e 3e 4b 87 32 3c
       -0.03371351 -0.015379998 0.17063493 0.010896514
0003f0 d8 2e a2 be e9 f9 d1 bd 8b 40 99 be ad 7e 03 3e
       -0.31676364 -0.10252745 -0.29932055 0.12841292

dense1.1.bn1.weight f4 [36]
000000 bf 1b ee 3e b5 91 65 3f 25 1b 90 3e 1c 03 34 3f
       0.46505544 0.89675456 0.2814571 0.70317245
000010 5e f6 4b 3f 35 2d 27 3f 34 11 3e 3e c8 88 2f 3f
       0.796728 0.65303355 0.1856125 0.68568087
000020 03 bc 04 3f fc 4f e3 3e ee 4b b7 3e 70 3c c3 3e
       0.51849383 0.4439696 0.35800117 0.38132048
000030 3b 75 d5 3e 57 c1 31 3f b0 a3 e0 3e e4 1c 70 3d
       0.41691002 0.6943564 0.43874884 0.058621302
000040 e3 53 c6 3e d6 78 31 3f 51 f8 d9 3e f6 9f 05 40
       0.38735875 0.69325006 0.42572263 2.0878882
000050 e5 7c a0 3f ce 08 06 40 b2 42 21 3f 3b a0 65 3f
       1.2538115 2.0942874 0.62992394 0.8969762
000060 d0 2d bc 3f 85 98 57 3e 66 ce bf 3f 76 e3 c0 3f
       1.4701481 0.21054275 1.4984863 1.5069416
000070 84 f5 f2 3e 5c 7c d8 3e 26 59 ac 3f 78 f8 23 3f
       0.4745294 0.4228238 1.3464706 0.6405101
000080 bb 2e 04 3f ed 65 69 3f 96 1b af 3f 58 5e e2 3f
       0.51633805 0.9117115 1.3680294 1.7685041

dense1.1.bn1.bias f4 [36]
000000 08 a2 cc be 99 63 67 3e 6d 83 58 be 40 93 07 bf
       -0.3996737 0.22596587 -0.21143885 -0.5295906
000010 49 54 20 bd 56 66 a4 be c9 3e 32 3d 82 89 04 bf
       -0.03914288 -0.32109326 0.043516908 -0.5177232
000020 5f bd 1e be d5 da b4 bc 78 4e 8e be ae 25 51 be
       -0.15501927 -0.022077003 -0.27794242 -0.2042453
000030 62 dc c0 be 2f 6d ac 3e 81 e6 18 be 99 40 d3 bc
       -0.3766814 0.3367705 -0.1493168 -0.025787639
000040 3f 4f 96 be ff 25 4e bf 36 08 4d be b5 36 48 bf
       -0.29357335 -0.8052673 -0.20022663 -0.78208476
000050 14 75 06 bf 4d d0 35 bf 0a 4f e5 bd 1c 31 04 bf
       -0.525224 -0.71020967 -0.11196716 -0.51637435
000060 d0 e1 a9 bd 9c d1 e5 ba f0 25 85 be 52 3b ed 3d
       -0.082950234 -0.0017533782 -0.26005507 0.1158358
000070 a9 78 d3 3b fd 2a 32 be e4 b1 65 3e 0b 9b f3 be
       0.006453593 -0.17399211 0.22431141 -0.47579226
000080 fd 92 ce bd 48 2a bd be d9 12 6e 3d 97 04 df 3e
       -0.100866295 -0.3694632 0.058123443 0.4355819

dense1.1.conv1.weight f4 [12, 36, 3, 3]
000000 4c fc d7 bd f4 c3 9c bd 08 80 a9 bd 72 49 9e bb
       -0.10546169 -0.076545626 -0.08276373 -0.0048305327
000010 11 b3 a4 3a 0e 43 0e bc 0d 86 9d 3d 07 04 c5 3d
       0.0012565573 -0.008682979 0.07691584 0.09619909
000020 66 08 c6 3d 28 21 63 3d a4 11 7d 3c 16 11 d6 3d
       0.096695706 0.055451542 0.0154461 0.10452478
000030 75 d1 b3 3d ff a6 a1 3d 94 a7 10 3e 81 61 ed 3c
       0.08780185 0.0789318 0.14126426 0.028977158
000040 3c 4b aa bc 9e 71 d8 3c 1c 8f 09 bc e9 73 29 bd
       -0.020787828 0.026421364 -0.008395936 -0.041370306
000050 00 e6 d4 bc ec 81 34 bb 4b 4a b0 bc 33 41 85 bc
       -0.025988579 -0.002754326 -0.0215198 -0.016266441
000060 a0 69 7d 3b 34 8a e1 ba 1b aa f4 bb 47 f8 af 3d
       0.0038667694 -0.0017207325 -0.007466567 0.08592277
000070 66 b6 aa 3d 4f 7e 2e 3d 4d 13 0f bd 64 71 19 3d
       0.08335571 0.042600926 -0.034930516 0.037461653
000080 e7 29 4f 3c 7e 03 ea bd bc d6 81 bd f6 e0 15 bd
       0.012644268 -0.11426447 -0.063397855 -0.036591493
000090 11 01 b5 3c 77 c9 f1 bb b4 6c 2a bd 9d 7d ce bc
       0.022095235 -0.007378753 -0.041607574 -0.025206381
0000a0 eb 8d 35 bd 80 5b 9a bd 81 40 9e bd 1c d1 c0 bd
       -0.044324797 -0.075369835 -0.07727147 -0.094148844
0000b0 da a2 d0 bd 0f a8 7b bd 2e 69 ad bd e8 9f 94 bd
       -0.101873115 -0.06143957 -0.08467327 -0.07257062
0000c0 79 7c e9 bc 02 c2 51 bd 0d 90 fa bc 0f fb 09 3b
       -0.028501736 -0.05121041 -0.030586267 0.0021054184
0000d0 88 20 93 bc 87 0e 16 bb 40 4e 54 3d c9 0e 12 3d
       -0.017959848 -0.0022896843 0.051832438 0.03565863
0000e0 a3 5c 88 3d 9e 5a c3 3d 06 cf d5 3d 53 eb c9 3d
       0.06658294 0.09538768 0.10439877 0.09859338
0000f0 36 ca de 3d 68 c3 e3 3d 43 6c e2 3d 53 7d ac 3d
       0.108784124 0.11121255 0.110558055 0.08422341
000100 1a 5b b6 3d e4 3f d2 3d 2c c7 05 3c b4 16 26 3d
       0.08904095 0.102660924 0.008165162 0.040548995
000110 fd 64 5e 3d 76 47 a3 3d 60 7a ae 3d 80 b0 fa 3d
       0.05429553 0.079726145 0.08519435 0.12240696
000120 e2 bb 8f 3b 73 68 22 bd 5d 22 c0 bc 74 ac 7d bd
       0.004386411 -0.03965039 -0.023453886 -0.061932042
000130 36 44 8e bd e2 48 09 bd db 8f 17 bd d4 f9 3e bd
       -0.06946604 -0.033516772 -0.037002426 -0.046624973
000140 a1 91 3b bd 30 12 69 bd 6b 18 ae bd ae 72 bd bc
       -0.04579318 -0.05690211 -0.08500751 -0.023125973
000150 20 15 21 be f0 66 32 be 17 f3 f9 bd 4b dd 90 bd
       -0.15730715 -0.1742208 -0.12204569 -0.07073458
000160 d6 ee b9 bd 8b b4 45 bd b1 97 9a 3d 0f 93 b0 3d
       -0.090787575 -0.048267882 0.07548464 0.08621799
000170 5f 8f c5 3d 2e 17 95 3d 85 a4 8f 3d f7 8a b3 3d
       0.096464865 0.07279812 0.070138015 0.0876674
000180 83 5c a4 3d ee 1f 9c 3d ab 56 c4 3d 3c 76 54 bd
       0.08025458 0.076232776 0.09586843 -0.05187057
000190 83 c6 6c bd 22 dd 72 bd 9b dc b7 bb b9 6c 76 3a
       -0.057806503 -0.05929292 -0.005611015 0.0009400356
0001a0 7f fb 44 bc c8 99 63 3c 75 92 f9 3c 7a 5f ff 3c
       -0.012022852 0.013891645 0.030465344 0.031173456
0001b0 d8 bc 41 3c 97 1f b1 38 79 c4 89 3c 94 84 9f bc
       0.011824809 8.445902e-05 0.016817318 -0.019472398
0001c0 ac 5a 08 bd e1 e0 20 bc bf d7 0c bb 9f f9 ce bc
       -0.033289596 -0.00981924 -0.00214909 -0.025265513
0001d0 f7 73 8f bb 55 88 98 3e 4d aa fa 3d 6f a3 20 3e
       -0.0043778378 0.29791513 0.122395135 0.15687345
0001e0 73 65 66 3d c1 5a a8 bd c6 03 11 bd 36 be ab 3e
       0.056249093 -0.08220435 -0.03540399 0.33543557
0001f0 6e e1 4b 3e ff d0 6d 3e 40 18 8b 3c 6d b2 07 3c
       0.19910213 0.23224257 0.016979337 0.008282286
000200 ef cf 14 3d c1 ca 0b bd 70 b8 e5 bc 33 ad 27 bc
       0.036331113 -0.034128908 -0.028042048 -0.010234165
000210 c5 c6 4e bd dc 4d 9d bd 5b 19 ce bc d2 dd 81 3b
       -0.05048253 -0.07680866 -0.025158575 0.0039632106
000220 e2 f4 ab bb 86 4d 51 3b 85 f7 92 3b 00 c4 95 bb
       -0.005247698 0.0031937077 0.004485073 -0.004570484
000230 94 59 39 b8 16 9e 19 bc 18 0d 8d bc 0d 04 c9 3b
       -4.4190863e-05 -0.0093760695 -0.017218158 0.006134516
000240 62 0e f1 3c 2b 11 3c 3d a2 70 1b 3d 7e d2 c8 b8
       0.029425804 0.04591481 0.037949212 -9.5759504e-05
000250 db 05 2a 3c 36 fa 41 3c 7b d6 49 3d df 7e 1e 3d
       0.010377373 0.01183944 0.04927681 0.038695212
000260 06 32 13 3d 2f 90 e9 3d 8f f9 db 3d d4 20 de 3d
       0.035936378 0.11404454 0.10740959 0.10846105
000270 5e e5 2c 3e ca b5 50 3e 67 e8 4f 3e 67 fb 75 3e
       0.16884372 0.20381847 0.20303498 0.24021684
000280 bb 9c 86 3e e0 19 82 3e c4 53 51 3c 51 c1 c3 3b
       0.2629145 0.25410366 0.012776319 0.005973973
000290 a1 c8 62 3d 81 9f 33 3d ed 0a 3a 3d c9 9c 8d 3d
       0.055367116 0.043853287 0.045420576 0.0691467
0002a0 04 20 b1 3d a3 dc b9 3d 08 cc fe 3d d0 48 38 3e
       0.086486846 0.09075286 0.124412596 0.17996526
0002b0 71 80 f7 3d cf 00 00 3e 34 44 98 bd e9 9b 0b be
       0.12085045 0.12500308 -0.07434884 -0.13633694
0002c0 da 69 47 be 1c 62 ea 3d 98 93 b6 3b f0 38 1a be
       -0.19473973 0.11444494 0.0055717938 -0.15060782
0002d0 75 07 0b 3e c0 b9 c1 3d 21 bd c2 3d 89 00 30 3e
       0.13577063 0.09459257 0.0950873 0.17187704
0002e0 93 87 f2 3d 25 e7 0e 3e b5 85 d2 bb 82 63 11 bd
       0.11842265 0.13955362 -0.0064246305 -0.03549529
0002f0 e3 07 b6 bc 13 26 34 3e e4 87 37 3e db 46 22 3e
       -0.022220558 0.17592649 0.17922932 0.15847342
000300 b5 99 7e 3c ca 15 9c 3d ef 1c 91 bd a4 a8 d6 bd
       0.015539576 0.076213434 -0.07085597 -0.104813844
000310 07 c9 e1 bd cd 2e 5c be 93 e0 a3 3d 4a ff 4b 3d
       -0.11024671 -0.21502228 0.080018185 0.04980401
000320 06 fb 87 3d 9c 2c a9 3d 3a 06 76 3d 21 ec 86 3d
       0.06639676 0.08260462 0.060064532 0.06588007
000330 b9 cb 2f 3e 9d 94 2d 3e a3 10 38 3e b0 60 a8 3d
       0.17167558 0.16951223 0.17975096 0.08221567
000340 e2 ce 70 3d 38 cc 98 3d f7 05 aa 3d d3 1b 4e 3d
       0.05879105 0.07460827 0.08301919 0.050319504
000350 28 0f 47 3d f1 0c 36 3e 09 36 1c 3e a0 5a 25 3e
       0.04859844 0.17778374 0.15254988 0.16147852
000360 19 72 1e be 7b d0 0d be bd dd 87 be fa a0 18 bf
       -0.15473212 -0.1384906 -0.2653636 -0.5962063
000370 09 e4 0f bf 6a f7 1c bf 52 d2 2c bf b2 0b 1f bf
       -0.5620733 -0.61315024 -0.67508423 -0.6212722
000380 51 44 2a bf 02 c5 7d bc 41 d0 e5 bc c4 c4 bd bc
       -0.6651049 -0.015488865 -0.028053405 -0.023165114
000390 47 c4 9c ba e7 d2 3e 3c 43 f2 91 3b fd 69 26 3c
       -0.0011960351 0.011646963 0.0044539287 0.0101571055
0003a0 40 96 37 3c 3c 29 5a 3c a1 fc f9 be 3a cb ce be
       0.011205256 0.013315495 -0.48825553 -0.40389425
0003b0 1c fe f6 be bd 8d 10 bf 04 a9 0b bf fa 5a 15 bf
       -0.48240745 -0.56466275 -0.5455477 -0.58341944
0003c0 44 fb f7 be 21 e7 c6 be 2d bf f5 be 47 28 f7 3e
       -0.48433888 -0.38848212 -0.47997418 0.48272917
0003d0 25 74 c1 3e 29 37 a6 3e e0 7e 51 3d fb 7d e6 bc
       0.37783924 0.3246396 0.051146388 -0.028136244
0003e0 1d 0a 46 bc bb 71 76 3e 76 e0 83 3d a1 c0 70 bc
       -0.012087372 0.24066822 0.06439297 -0.014694364
0003f0 1c 0f a6 bc cf 5e 06 bd 42 27 24 bd b9 83 cd 3c
       -0.020270877 -0.03280526 -0.0400765 0.025087224

trans1.bn1.weight f4 [48]
000000 2a fe 32 3f e9 dc a9 3f 2c 5c 6a 3f 33 98 a4 3f
       0.69919074 1.3270541 0.91546893 1.2858948
000010 fc ac 96 3f 8f 93 81 3f 45 ae 84 3f db d2 62 3f
       1.1771541 1.0123156 1.0365683 0.8860299
000020 bb b6 3c 3f ab 9b 8b 3f 10 2a 3d 3f 52 a3 8e 3f
       0.73716325 1.0906881 0.7389231 1.1143591
000030 be 68 83 3f 25 7f 90 3f c9 38 a6 3f 16 98 49 3d
       1.026634 1.1288801 1.298608 0.049217306
000040 1a 05 42 3f f8 c7 54 3f f1 49 7e 3f 25 52 54 3f
       0.75789034 0.8311763 0.99331576 0.8293784
000050 de e8 84 3f 0b a1 6a 3f f7 78 86 3f cb 21 78 3f
       1.0383565 0.9165198 1.0505666 0.96926564
000060 e9 9a ce 3f 01 82 b3 3f 0d f4 d9 3f e0 e1 ee 3f
       1.6141025 1.4024049 1.7027603 1.8662682
000070 80 0e ca 3f 7b 44 a0 3f 85 4c ea 3f ad dc 83 3f
       1.5785675 1.2520899 1.8304602 1.030172
000080 c6 09 ba 3f 67 ac c2 3f 1b 86 fb 3f 4e 1a 02 40
       1.4534233 1.5208863 1.9650301 2.0328555
000090 8a bb a2 3f 8f b4 14 40 c7 9d ef 3f 29 37 be 3f
       1.2713482 2.3235204 1.8720025 1.4860584
0000a0 9b fb 14 40 20 d8 05 40 c3 a7 a0 3f c3 5b 0b 40
       2.3278568 2.0913162 1.2551197 2.1774757
0000b0 0e da c4 3f ef b5 10 40 f8 fe 99 3f 88 8e b5 3f
       1.5379045 2.2611043 1.2030935 1.4184122

trans1.bn1.bias f4 [48]
000000 63 8f f4 3d a0 1a 94 be a5 93 b7 be c8 7f 28 be
       0.11941411 -0.28926563 -0.3585483 -0.16454995
000010 db 8b aa be a6 7b 57 3e 81 a8 49 3e 9a 3a a7 be
       -0.33309826 0.21043262 0.19693185 -0.32661897
000020 04 c5 92 bd dc b6 b5 3d 3b ce 0f be ad 09 29 3e
       -0.07166484 0.08872768 -0.14043514 0.16507597
000030 fe 82 0a be 79 f6 6b be 58 54 b3 be 44 9e d2 bc
       -0.13526532 -0.2304324 -0.35025287 -0.025710233
000040 24 bf 55 3b 9f 3f 79 3e 02 8c 03 3e 3d 43 2f bf
       0.003261515 0.24340676 0.12846377 -0.6846197
000050 05 78 ac be 26 e8 58 be 17 9a 8f be 8e 03 db be
       -0.33685318 -0.21182308 -0.2804725 -0.4277615
000060 da f2 6a be aa ad c5 3e 5e 44 4b be d2 ac 65 be
       -0.22944203 0.38609058 -0.19850299 -0.22429207
000070 15 7c 31 bf dd 6a 24 be 46 40 49 bf 3d 8f cb be
       -0.6932996 -0.1605639 -0.786137 -0.3975772
000080 23 6b d3 be 1b 1a d6 bd 35 3b 88 be 97 d7 6f bf
       -0.41292676 -0.10454198 -0.2660767 -0.9368834
000090 b0 06 74 3e 28 b6 b1 bd 40 f1 d3 be 4b 4b a0 be
       0.23830676 -0.08677322 -0.41394997 -0.31307444
0000a0 a2 04 bd 3d 65 dd 9f be 41 22 76 bf 23 bd 8d bd
       0.09229399 -0.31223598 -0.9614602 -0.069208406
0000b0 58 63 51 bf e4 7a 18 bd 5c 1e a4 bf 0b df aa 3e
       -0.8179221 -0.037226573 -1.2821765 0.33373293

trans1.conv1.weight f4 [48, 48, 1, 1]
000000 b0 c7 a7 3d 04 67 20 3f ea 83 ad bd 3d 95 d5 be
       0.08192384 0.6265719 -0.08472426 -0.41715422
000010 b9 e6 1a bd f8 3e 3a be 57 cb cf 3e 95 aa 76 bd
       -0.03781769 -0.18188083 0.40584823 -0.060221273
000020 26 14 88 bd 46 d4 5f be ad 1e 1d 3d 80 e2 aa 3e
       -0.06644468 -0.2185832 0.038359333 0.3337593
000030 79 ee aa 3d 56 9f b4 be 85 3c 2d be e3 aa 9f 3b
       0.08346266 -0.35277814 -0.16917618 0.004872666
000040 63 7f 24 3d 02 ed b9 be 23 1a 8a be 72 21 16 3d
       0.040160548 -0.36313635 -0.26973066 0.03665299
000050 ad 76 ac bd 54 de f4 3e ea b0 5a 3d 34 a0 5d be
       -0.08421073 0.47825873 0.053391375 -0.21643144
000060 86 28 fe 3c 1c d2 bf 3d 6c 92 5d be 9e 53 76 3e
       0.031025182 0.09366247 -0.21637887 0.24055335
000070 3e bd b7 3e 9a 7e e6 3d fc 13 67 3e 05 a9 8c bd
       0.35886568 0.11254616 0.22566217 -0.068681754
000080 41 95 b1 3e 93 5d 5c 3f 38 26 0f 3e 7b d1 c7 3d
       0.34684184 0.8608028 0.13979423 0.09756752
000090 62 4e 48 3e fb a9 bc bd 69 36 68 3c 3c e7 9d be
       0.1956115 -0.09212109 0.014173129 -0.3084048
0000a0 17 3f 43 3e 03 7d 7f 3e b1 01 b7 be 41 6b 71 be
       0.19067036 0.24950032 -0.35743478 -0.2357607
0000b0 69 eb 2a 3e 8b 31 13 be 03 be 85 3e 83 5c 3c 3e
       0.16691364 -0.14374368 0.2612153 0.18394665
0000c0 5d d0 89 3e 20 a9 8b be 67 43 2a 3d be a2 aa 3c
       0.2691678 -0.2727747 0.041568186 0.020829555
0000d0 9d 33 2a bc bc f5 02 3d c4 d8 35 3e eb be ae bc
       -0.010388282 0.03197263 0.17758471 -0.021331271
0000e0 a5 e9 02 bd bc 9e 57 bf 28 52 cf bc f9 43 68 3e
       -0.031961102 -0.84226584 -0.02530773 0.2268218
0000f0 8c a8 d4 be 63 8e c2 bd 7e 2f 43 be b3 05 ae b9
       -0.4153484 -0.09499814 -0.19061086 -0.00033192112
000100 68 51 50 bd 43 4d 9c bd 14 60 2a bf 8e de c5 3c
       -0.050858885 -0.07631924 -0.66552854 0.024153974
000110 31 be e1 3d a3 f3 fc 3d af a0 ba bd 5d 0e 71 3d
       0.11022604 0.123511575 -0.09112679 0.05885159
000120 84 49 d0 be 4a 00 d1 3e 88 dc 6c be cf 88 dc be
       -0.40681088 0.40820533 -0.23131001 -0.43073127
000130 0a ca 04 bf df bc 36 3e ec 70 95 be e8 7b 47 bd
       -0.5187079 0.17845486 -0.29187715 -0.04870215
000140 11 46 78 be 2b dc 38 be 02 04 16 bf 91 3f 84 be
       -0.24245478 -0.18052737 -0.58599865 -0.25829747
000150 7a 54 6d 3e 68 27 a9 3e b4 8c 88 3d b0 f7 b5 be
       0.23176757 0.33037877 0.06667462 -0.35540533
000160 3d 68 16 be 31 61 14 be 74 a1 52 bd 12 6f 2e 3f
       -0.14688201 -0.144902 -0.051423505 0.6813823
000170 41 77 5c 3c 26 0f a4 bc 92 5c 15 bf 65 ab 93 3e
       0.013456167 -0.020026755 -0.58344376 0.288417
000180 8c fb e2 3e ca 5c 0b be 0b 20 a8 be a1 6d a6 bd
       0.4433254 -0.13609615 -0.32836947 -0.08126379
000190 94 e8 83 3e 12 4a 6d 3f 21 1b 62 3f a8 48 79 3d
       0.2576338 0.9269115 0.88322645 0.060860306
0001a0 68 c6 83 3d fb 4b 03 bf 80 ec ba bd af 15 a3 3f
       0.06434327 -0.5128781 -0.0912714 1.2740992
0001b0 70 9b a5 3e f8 03 f9 bd e1 bd 3c 3d db 84 6c 3c
       0.32345152 -0.1215896 0.04607952 0.014435972
0001c0 e2 49 56 be aa fc 59 bf 9a e0 94 be 06 7d 86 3e
       -0.20926622 -0.8515116 -0.29077607 0.2626726
0001d0 20 cd 1d 3e 2f 72 17 3e 00 aa 67 be 54 af 80 be
       0.1541028 0.14789651 -0.22623444 -0.25133765
0001e0 b3 61 87 bd fd 44 be 3e 26 47 57 be e6 d7 05 bd
       -0.066104315 0.3716201 -0.21023235 -0.0326766
0001f0 19 3d 57 3e 03 ae 86 be 75 46 a6 3d ea b2 ad be
       0.210194 -0.26304635 0.08118907 -0.33925563
000200 2e 47 6d be 81 51 97 be 89 ea 08 be 4a 0b e2 bd
       -0.23171684 -0.2955437 -0.13370718 -0.110373095
000210 39 8e 5d be 52 d3 0b bd f6 e6 8b bd 52 f7 7f be
       -0.21636285 -0.034137078 -0.06831162 -0.24996689
000220 37 e5 42 3d 97 ca b3 bd 37 e0 81 be b3 0e c5 3b
       0.047581878 -0.08778875 -0.25366375 0.006013715
000230 e9 12 8e bd 70 de df bd 66 20 5c 3d 60 65 bd bd
       -0.069372006 -0.109310985 0.053741835 -0.09247851
000240 1b 1a 90 3e f0 ac 96 3e 0f a3 80 3e 00 ca e0 be
       0.28144917 0.29428816 0.25124404 -0.43904114
000250 3b c4 da bd b8 fd 34 3e db f2 02 3f 88 3f 2c 3e
       -0.10681959 0.17674911 0.5115182 0.1682111
000260 b6 3c 0c 3d 0f 7c 91 bd 5b c5 52 3e 6b 7c 01 3f
       0.034237586 -0.071037404 0.20583098 0.5058047
000270 82 87 a2 3d 23 cd 93 3e a5 c2 75 3d c3 b5 c6 bb
       0.07936002 0.28867444 0.06000008 -0.006064148
000280 9b e8 01 bc 81 a0 09 bf f8 3b 1a 3f 7c 7b 91 be
       -0.007928993 -0.53760535 0.60247755 -0.28414524
000290 9d 9a ec be 1c 0a 25 bf ba 86 19 3e d0 de 15 3d
       -0.4621171 -0.6446855 0.149928 0.036589444
0002a0 0b d8 9a be aa ab e6 3e 5a 40 64 bc 58 30 cf 3e
       -0.30242953 0.45052844 -0.013931358 0.4046657
0002b0 cb bf 5d 3f db fe 28 3e d3 53 99 3e 79 7f 88 bd
       0.8662078 0.1650347 0.29946765 -0.066649385
0002c0 b4 65 f4 3e cd 30 14 be 8a a2 03 3f 41 91 98 bd
       0.47733843 -0.14471741 0.5141989 -0.0744958
0002d0 3b 9e 99 3e 3f d3 6a be fd 85 b3 be a7 53 09 bf
       0.30003533 -0.22932146 -0.35063162 -0.5364327
0002e0 14 0e 8a 3f d7 7a 9a be 8e ff b4 be 91 a3 7f be
       1.0785546 -0.30171844 -0.35351223 -0.2496474
0002f0 c6 4c ad 3d 0b 31 07 3d 7c b4 4b bd 51 8e 25 bf
       0.08461909 0.033005755 -0.04973267 -0.6467028
000300 31 6b 75 be 16 f1 3b bf 5e 3c 08 be 67 43 a8 bb
       -0.23966672 -0.7341474 -0.13304278 -0.005134988
000310 11 fe ba bd 58 ff a6 3e 4a f4 50 bc 83 1e 3a be
       -0.091304906 0.32616687 -0.012753556 -0.18175702
000320 39 4b 9b 3d 73 a7 fb 3d 1d a2 85 bd b7 7f 99 3d
       0.07582707 0.12287798 -0.06525061 0.07495063
000330 ce 4b 10 bc bf fa 1a bf ed ed 93 be d3 38 c4 b9
       -0.008807136 -0.6053886 -0.2889246 -0.0003742637
000340 61 71 af bc 5d d2 07 bf ec 48 f1 3e 21 70 69 be
       -0.021416368 -0.53055364 0.47125947 -0.2279668
000350 a5 1f de be 31 83 f9 bd 93 5f af 3d 51 da 4d be
       -0.43383518 -0.12183226 0.08563151 -0.20102812
000360 15 b9 49 3f 66 2d 1e bd 1c 10 9f 3e 25 4f be 3e
       0.7879804 -0.038617514 0.31066978 0.37169757
000370 ba 29 3b 3e 54 a2 dd 3d ec 05 32 bf 8f b6 84 3d
       0.18277636 0.10821977 -0.69540286 0.06480133
000380 f9 89 b6 be d0 77 a4 be 7b d7 96 3c ec 9f 9b bc
       -0.3565214 -0.3212266 0.018413296 -0.018997155
000390 0b 46 fa be f4 c3 b9 3e 74 0f 13 bf ce 8c 0b 3f
       -0.48881564 0.36282313 -0.57445455 0.54511726
0003a0 78 5c 96 bf 17 da e7 3e f9 f8 c4 bb 09 d5 93 be
       -1.1746969 0.45283577 -0.006011125 -0.2887347
0003b0 fa 9e 6f 3e c3 06 80 bf 00 e4 ae 3c e8 0c 6e 3d
       0.23400488 -1.0002064 0.021348953 0.058117777
0003c0 9d 62 f1 be dc cb 69 3d df f1 d4 be 3e 5e 37 be
       -0.47145548 0.05707918 -0.41590783 -0.17907044
0003d0 cf 52 e4 3d ea 81 a8 3e 4a 50 47 bc 8a ae 33 bd
       0.11148607 0.32911617 -0.0121651385 -0.043867625
0003e0 8c 97 84 3d 01 89 f5 bc 4e 8e 70 be c0 43 50 3e
       0.06474218 -0.029972555 -0.23491785 0.20338345
0003f0 40 40 4c 3f b4 00 8e be 00 70 7d bd 63 ef d6 39
       0.7978554 -0.2773491 -0.06187439 0.00040995618

dense2.0.bn1.weight f4 [48]
000000 78 6e 3c 3f 38 8b 48 3f d0 3a 82 3f 69 5c 69 3f
       0.7360606 0.7833743 1.0174198 0.9115663
000010 11 c3 73 3f 5d 03 fd 3e 1e f6 87 3f 14 64 80 3f
       0.9521952 0.49416628 1.0621984 1.0030541
000020 71 86 3a 3f 21 ab 40 3f 29 ec 94 3f f4 e7 24 3f
       0.7286139 0.7526112 1.163457 0.6441643
000030 47 22 f9 3e 8e 0e 41 3f 5b de 43 3f df 9d 67 3f
       0.48658964 0.75412834 0.7651116 0.9047527
000040 a0 c4 5b 3f 29 69 3f 3f 67 34 2d 3f eb c6 66 3f
       0.858469 0.74769837 0.67658085 0.90147275
000050 b2 f1 40 3f 6c 76 68 3f 3e 2b 12 3f 3e 6c 9e 3f
       0.753688 0.908057 0.5709723 1.2376783
000060 6a c5 61 3f 0e 23 89 3f f4 0f 80 3f 40 5e 29 3f
       0.88191855 1.0713823 1.0004869 0.6615944
000070 63 2c 1b 3f e1 b8 94 3f 41 cc 90 3f 2a 37 7e 3f
       0.60614604 1.161892 1.1312333 0.99302924
000080 28 59 bf 3f 18 e5 6c 3f 12 4b 5e 3f 90 ab bc 3e
       1.4949083 0.9253707 0.868333 0.36849642
000090 19 d8 09 3f 4d 42 75 3f 6d 52 6e 3f 01 bd 5f 3f
       0.53845364 0.9580429 0.9309452 0.8739777
0000a0 39 8a 75 3f fc 92 94 3f b9 6e 01 3f dc 0e ae 3f
       0.95914036 1.1607356 0.50559574 1.3598285
0000b0 91 55 62 3f 55 1b 79 3f 50 09 34 3f d8 1e 84 3f
       0.88411814 0.9730733 0.7032671 1.0321913

dense2.0.bn1.bias f4 [48]
000000 64 a2 05 bf 19 14 35 3e 7b 35 b9 be 3a 85 df be
       -0.52200913 0.17683448 -0.36173615 -0.4365633
000010 b3 dc d9 3e 45 6b 1f bd 98 73 6f 3d b4 06 56 be
       0.42551193 -0.03892066 0.05845985 -0.20900995
000020 a9 c8 89 be d2 0c b3 be da db 98 3f 0c 47 8b be
       -0.26910904 -0.3497072 1.1942093 -0.27202642
000030 19 69 06 be 82 61 a4 3c e4 5b dd bd 96 5c 71 be
       -0.13126029 0.020066027 -0.10808542 -0.23570475
000040 ef ef 01 be 9b e1 d2 bc 7c 06 e2 be 09 5a 15 bd
       -0.12689184 -0.025742343 -0.44145572 -0.036462817
000050 86 89 27 bf 18 7f b8 bd a1 a3 33 3f 9c 94 8d be
       -0.6544422 -0.09008616 0.7017155 -0.27652442
000060 c7 5f d4 be 60 5a 21 3e 17 1d 26 bf 6c 15 c6 be
       -0.41479322 0.15757132 -0.6488814 -0.3868822
000070 63 1e 97 be be 2d e2 bb 47 23 e3 3e d6 d0 57 be
       -0.2951537 -0.0069024255 0.44362852 -0.21075758
000080 cf 7f 85 3f c8 43 42 bf 8a cf 0d bf 39 ef 4f be
       1.0429629 -0.75884676 -0.55394804 -0.203061
000090 c6 ec 70 be cd d4 05 be d0 7a 96 be a6 b5 3b 3f
       -0.23527822 -0.13069458 -0.29390574 0.7332405
0000a0 e5 5e 73 bd 4b 91 d6 be 7f a1 b2 be 65 5c 60 bc
       -0.05941667 -0.41907725 -0.34888837 -0.013693904
0000b0 c9 5d 29 bc 1d 1b 06 3e 3b 49 0f 3e e5 ce b2 be
       -0.0103373015 0.1309628 0.13992779 -0.34923473

dense2.0.conv1.weight f4 [12, 48, 3, 3]
000000 cb e7 8f 3d a2 83 07 be fb d4 a6 be c1 dc db bc
       0.07026633 -0.13233808 -0.32584366 -0.026838662
000010 5a 89 b0 3d 1e c3 38 bd 96 de 0e be 93 af ba 3d
       0.08619948 -0.045107953 -0.13952097 0.091155194
000020 3d 73 77 be b8 cb dc bd f9 10 0f be 95 72 dc bd
       -0.24165054 -0.10781044 -0.13971318 -0.10764042
000030 a6 d4 f5 bc 2e 12 37 bd ed b4 a5 39 d5 f8 45 3e
       -0.030008625 -0.044695072 0.00031606053 0.19333203
000040 80 a7 b4 3d 2e 0b 08 3e 47 fb af 3d 66 70 6e bd
       0.088210106 0.13285515 0.08592849 -0.05821266
000050 44 21 50 3e 3f 17 a8 be 67 53 cc be 60 59 c7 3c
       0.2032519 -0.32830235 -0.3990738 0.02433461
000060 41 b4 55 3d ec f5 49 be 12 74 e7 3c af f0 f3 3e
       0.052173857 -0.19722718 0.028253589 0.47644565
000070 72 45 74 3e c8 23 2b be ba 72 92 3e d9 0e ca 3c
       0.23854616 -0.16712868 0.28603154 0.024665283
000080 2f 6a d2 be df 5a 91 3e 35 8d 5d 3d 49 ea a9 be
       -0.41096637 0.28389642 0.054089744 -0.33186558
000090 7c e4 05 bf 05 ec ad be 95 2d 8d 3e 61 16 d1 be
       -0.52301764 -0.3396913 0.2757384 -0.40837386
0000a0 64 5d fd bd 9d ee f1 3e f8 bb db be 5c 8e ad be
       -0.123713285 0.4725236 -0.42916846 -0.33897674
0000b0 a6 d6 bd 3e 91 7e fb 3d 63 db 0d be 38 23 c9 bd
       0.37077826 0.1228 -0.1385322 -0.098211706
0000c0 2d b6 8b 3d ed cf a8 bd 1b 31 f4 3a 80 36 a8 3d
       0.06821857 -0.08242784 0.0018630357 0.0821352
0000d0 4b 03 d7 ba 5b b8 e0 3b eb 29 71 be ee aa 36 3e
       -0.001640418 0.0068579144 -0.23551147 0.17838642
0000e0 4a e5 33 3e 07 2a d3 be da b1 13 3d 6d 05 51 3e
       0.17567936 -0.41243002 0.036058284 0.20412226
0000f0 2d 2c 57 be 5c 5a 4d bd ff 4d e8 3d ea 35 80 be
       -0.21012945 -0.050135 0.113430016 -0.25041133
000100 9d 45 a6 bd 23 03 33 be 25 2a e3 3d db 36 2b bd
       -0.081187464 -0.17481665 0.11092023 -0.04180036
000110 d7 3f 88 bd 6a a8 11 be 58 5e 99 bd 45 1a ed bd
       -0.066528015 -0.14224401 -0.07488698 -0.11577276
000120 0c 1d 35 be a0 e4 ed bb 5d ce 71 be 3c 5a 41 3e
       -0.17686862 -0.0072599202 -0.23613878 0.18882078
000130 b1 20 f3 bc f8 f3 22 be 89 17 ae 3e 0a 1c 65 bc
       -0.029678674 -0.15913379 0.3400233 -0.013983736
000140 15 3d 9f be 09 f2 6a 3e c7 33 0f 3e 7d 5a 9f be
       -0.3110129 0.22943892 0.13984595 -0.31123725
000150 23 c6 9d 3e b6 cf ab 3e 99 d3 0d bf e9 81 7e 3e
       0.3081523 0.33556908 -0.55401 0.24854244
000160 6f e5 8d 3d 92 59 11 bf 37 01 81 be 18 82 d7 bc
       0.069285266 -0.567773 -0.2519624 -0.02630715
000170 f9 b2 be 3e ea 4d e1 be 5a f5 c8 bd f2 58 08 3f
       0.3724592 -0.44004756 -0.09812422 0.5326072
000180 94 95 a6 be 3d a2 e6 bc fb b8 43 3f 95 14 17 3e
       -0.32535994 -0.028153533 0.7645413 0.14753945
000190 c5 91 d0 bd 3b 08 72 be ff 30 8f 3e 9e 7e 95 bc
       -0.10184053 -0.23635952 0.2796707 -0.018248852
0001a0 a2 3b 64 be c9 ee 51 3e e6 ef c5 bd 42 0b 82 be
       -0.22288373 0.20501246 -0.096648976 -0.25399214
0001b0 7a 94 83 3e 53 b9 b6 3c 03 a0 7a be bd 73 62 3e
       0.25699216 0.022305166 -0.24475102 0.22114463
0001c0 e8 5b 8c 3c f7 f8 48 be 0c e8 5c 3e 83 b1 84 3d
       0.017133668 -0.19626223 0.21572894 0.0647917
0001d0 af bc 07 be 6b 29 20 3e b2 09 72 bd ae c1 b3 bd
       -0.13255571 0.156408 -0.059091277 -0.08777176
0001e0 e2 c0 1a 3e 05 b0 3e be ff c1 44 be a2 00 c3 3e
       0.15112641 -0.18621834 -0.19214629 0.3808642
0001f0 7f 78 49 bd df 50 12 bd 95 17 6c 3e 59 f5 76 bc
       -0.04918718 -0.035721656 0.23055871 -0.015073144
000200 73 af c8 be 9f 36 aa 3e 84 fe 0f 3e 3e c7 ca be
       -0.39196357 0.33244798 0.14061934 -0.39605135
000210 82 0f 4d 3e df a5 43 3d ce 58 a3 be 87 56 17 3f
       0.20025447 0.04776561 -0.3190369 0.59116405
000220 52 bd db bd 72 ca c7 be 2e d8 0a 3f cb cd ba be
       -0.10729469 -0.3902164 0.54236114 -0.36485133
000230 cc 5f 06 bf 2d 6e fc 3e 71 8c 27 be dc cc a4 be
       -0.52489924 0.49302807 -0.16362168 -0.32187545
000240 ff a8 10 be 0c 0b 18 bd d5 4c 47 3e 11 39 b4 bd
       -0.14126967 -0.03711991 0.19462903 -0.08799947
000250 0e d5 50 3d 9e c0 a0 3e 2f 48 85 be 25 1a b5 bd
       0.050984435 0.31396955 -0.26031634 -0.08842877
000260 29 99 31 3e 0a 0a 37 3e 42 b4 85 bd 2b b6 62 be
       0.17343582 0.17874923 -0.06528522 -0.22139804
000270 62 a8 14 3e a9 d1 3d bc 17 7f 36 be 08 41 36 3e
       0.14517358 -0.011585631 -0.17821918 0.17798245
000280 12 ed 0b 3e ac 40 e2 bd 44 3d 06 3e 8c fd 54 3c
       0.13664654 -0.110474914 0.13109308 0.012999903
000290 9d 48 79 3d da 67 50 3e 57 ed 4c bd 47 d9 92 bd
       0.060860265 0.20352116 -0.050031032 -0.071703486
0002a0 8e b1 0b 3e 07 da 78 bd cf 3c 85 bd 5c a9 21 3f
       0.1364195 -0.060754802 -0.06505739 0.63149047
0002b0 c7 c4 16 3d 76 f9 ee be dc 9d 9d 3e 70 18 32 be
       0.036808755 -0.466747 0.307845 -0.17392135
0002c0 24 0f 0a bf 07 ae 8f 3e c2 38 96 bd 13 83 df be
       -0.5392935 0.2806246 -0.073350444 -0.4365469
0002d0 ab 9d 60 bb 8c 5a bd 3d d6 2e f3 3d 8a 81 50 3d
       -0.0034273665 0.09245786 0.118741676 0.050904788
0002e0 e1 89 a8 3d d9 53 ac 3d 13 f5 47 bd 92 71 52 be
       0.08229423 0.0841443 -0.048817705 -0.20551136
0002f0 3b 19 e3 be 23 33 c3 be b4 84 78 3b 5f f6 38 3d
       -0.44355187 -0.38124952 0.0037920894 0.045156833
000300 30 74 90 be 2d 78 9a 3c 3c 96 97 3e 91 a5 45 be
       -0.28213644 0.018856132 0.29606807 -0.1930144
000310 6a f4 8d 3d 6b f7 cb 3d b3 cd 27 bd 38 ba c1 bc
       0.06931384 0.099593006 -0.040967654 -0.023648366
000320 67 c0 ab 3d be d9 1b be ea 0b b3 bc 26 8a 5b 3e
       0.08386307 -0.15219781 -0.021856267 0.21439418
000330 40 43 07 be 5a d0 15 bc 62 09 a3 3e 43 4d cb bc
       -0.13209248 -0.009143913 0.31843096 -0.024817115
000340 af d8 4c be dc 86 16 3d 9d 2e c5 3d 0a 09 f3 bd
       -0.20004533 0.036749706 0.096280314 -0.118669584
000350 21 7b 79 bd 73 48 12 3e db b2 c7 3a ca d6 2a bd
       -0.06090844 0.1428545 0.0015235798 -0.041708745
000360 aa 80 4c bc ca 8d f9 bd 39 ac 38 be 96 42 9e 3d
       -0.012481848 -0.12185247 -0.18034448 0.07727544
000370 70 7e 67 3d 1f 93 a8 be 1f 9c 93 3e 0d 61 10 3e
       0.056517065 -0.32924744 0.28830048 0.14099522
000380 6f e1 aa be 22 96 d6 be 63 d7 61 be 29 bb 70 3e
       -0.33375117 -0.41911417 -0.2205482 0.23508896
000390 cc 94 dd be 66 02 45 be 5d e2 93 3e ab 4c de be
       -0.43277586 -0.19239196 0.2888364 -0.43417868
0003a0 01 e2 43 be 0f e9 c1 3d dd ff 98 3c 57 ac d8 3c
       -0.19129182 0.094682805 0.018676693 0.026449366
0003b0 79 b5 a3 3e 2f f0 8d be 05 1b 08 be c2 40 66 3e
       0.3197439 -0.27722308 -0.13291557 0.2248564
0003c0 71 ab 74 be 56 bc 08 be 2e 90 4b 3e b4 af 2d be
       -0.23893525 -0.13353094 0.19879219 -0.16961557
0003d0 52 5c 44 be 4c 8c f9 3d 6f c0 41 be 3e bd 66 be
       -0.19175842 0.12184963 -0.18921064 -0.22533128
0003e0 ce e2 05 3e 89 a8 f2 3d a2 97 fc bd 81 ec 06 3c
       0.130748 0.11848552 -0.12333609 0.008235098
0003f0 bc 93 2a be 5e 85 fe bb af 93 db 3d 9f b0 a1 bd
       -0.16657919 -0.0077673635 0.10721528 -0.07895016

dense2.1.bn1.weight f4 [60]
000000 f8 b6 43 3f e3 3e 6a 3f 7e ee 86 3f 3a cf 82 3f
       0.76451063 0.9150221 1.0541532 1.021949
000010 9f 10 2d 3f 92 8a 10 3f 2b 2d 5b 3f 0e 8a 43 3f
       0.67603487 0.5646144 0.85615796 0.7638253
000020 f6 31 00 3f 4c 8f e8 3e e7 83 71 3f b1 d5 34 3f
       0.50076234 0.45421827 0.9434189 0.7063857
000030 e5 43 84 3f 43 6d 5d 3f 81 df 13 3f 39 e5 3e 3f
       1.033322 0.86494845 0.57762915 0.74568516
000040 7b 16 06 3f e1 c6 3a 3f 68 71 19 3f 16 81 24 3f
       0.5237805 0.72959715 0.5993867 0.6425947
000050 33 74 05 3f 6f 2b 46 3f 58 f4 dc 3e a3 db 71 3f
       0.5213043 0.77410024 0.4315517 0.94475764
000060 d3 91 24 3f f6 d4 26 3f ae b6 7c 3f d5 d5 a1 3f
       0.6428501 0.651687 0.9871625 1.2643381
000070 67 0a 3c 3f e4 ce 35 3f bd fd 54 3f 24 94 37 3f
       0.7345337 0.71018815 0.83199674 0.7171042
000080 b1 64 2e 3f a2 fe 6d 3f df 7e 89 3f 2c 83 46 3f
       0.6812239 0.92966664 1.0741843 0.775439
000090 99 ac 4f 3f 14 b5 4e 3f 57 d8 68 3f 4a ec 51 3f
       0.8112274 0.80745053 0.9095511 0.82001173
0000a0 5e f1 8a 3f 9a e6 5d 3f 1b 69 44 3f e2 bb 67 3f
       1.085491 0.86679995 0.7672288 0.9052106
0000b0 c0 e6 92 3f 24 78 4c 3f 7d 49 ec 3e 0e 53 66 3f
       1.1476669 0.7987082 0.46149817 0.8997048
0000c0 e4 23 9f 3f a9 a9 42 3f 66 f3 23 3f aa 43 66 3f
       1.2432828 0.7604013 0.6404327 0.89947
0000d0 1e b8 81 3f dc 74 61 3f a9 e1 72 3f 7c 57 ff 3e
       1.0134313 0.8806894 0.9487558 0.49871433
0000e0 4f 3a 97 3f 89 ff 10 3f 0c e4 8c 3f d4 d0 30 3f
       1.1814669 0.56639916 1.1007094 0.69068646

dense2.1.bn1.bias f4 [60]
000000 17 b0 25 bf 39 25 54 3d f5 c5 b1 be db 0c 11 bf
       -0.64721817 0.05179331 -0.34721342 -0.5666024
000010 e8 26 e6 3e 4d 9b fe bd f0 84 5e be b2 fd f3 be
       0.44951558 -0.12431965 -0.21730399 -0.47654492
000020 ab fe d5 bd f6 9d 45 be 3e 8f ca 3e 1c 9a 1d bf
       -0.10448965 -0.19298539 0.3956241 -0.6156328
000030 eb ea 3a bf 86 6f e7 bd 93 e8 32 3c 78 ad aa be
       -0.73014706 -0.11300568 0.010919708 -0.3333547
000040 12 f2 46 be af 99 c2 bc 16 38 d3 be 49 1c f2 bc
       -0.1942828 -0.023754923 -0.41253728 -0.029554503
000050 32 0b 35 bf a6 e1 b4 bd 74 0d 52 3f 8e 6a c9 be
       -0.7072021 -0.088321015 0.8205178 -0.39339107
000060 fa 38 b0 be 24 c6 32 3e b2 64 c4 be 67 41 e5 be
       -0.3441847 0.17458397 -0.38358074 -0.4477646
000070 7f e2 b2 bd 3d 86 c2 3e 8f 7e 9d 3e a6 32 f1 be
       -0.08734607 0.3799304 0.3076062 -0.47108954
000080 59 98 23 3f 9b 97 f5 be 18 a2 d0 be 93 ac 9d be
       0.6390434 -0.47967228 -0.40748668 -0.30795726
000090 98 db cb be 3f b3 8f be bf b4 74 be f2 33 8e be
       -0.39815974 -0.2806644 -0.23897074 -0.27774006
0000a0 bb 76 2a bf 14 6a f0 be ef 7a 61 be f4 cd 9b 3e
       -0.6658742 -0.4695593 -0.22019552 0.30430567
0000b0 e2 50 3a bf e0 62 dc bb 00 8e 88 3b 13 4d de be
       -0.7277967 -0.006725654 0.0041673183 -0.43418178
0000c0 4f f8 f1 bc a0 f5 73 be fd 4e 15 3e 1a 31 dc be
       -0.029537348 -0.23824167 0.14580913 -0.43006212
0000d0 4d 72 81 be 12 48 cd 3d c7 92 3f be 59 62 29 3f
       -0.25282517 0.10023512 -0.18708335 0.6616569
0000e0 10 bf c2 3d 25 fb 1e be 18 5a 39 bd 38 2b 87 be
       0.095090985 -0.15525492 -0.045251936 -0.2640016
