independent_train_0.0/client32/checkpoint_0.0.pth (torch, 930411 bytes, 56 tensors)

conv1.weight f4 [24, 3, 3, 3]
00000000: 648e 493e c002 c5be 68fa ae3e 5205 87bf
00000010: b921 d7bf dc70 4cbf 920e 4ebf 67e0 bdbf
00000020: f145 16bf 9ca8 803e f32a ca3e 8571 8e3e
00000030: 9637 e83e dcbf 353f 9f9a 0e3f fc50 873e
00000040: 75ed e23e b67f c63e c6b2 1fbf b79e 0cbe
00000050: 9338 53bf b833 013f 7e9a 9a3f f802 b73e
00000060: d559 a33e 2349 733f 61b2 4f3e 6b45 e13d
00000070: 658b d23e 621c 1f3e 01eb 70bf 7db1 8a3e
00000080: 6ac7 9a3e 72d1 5abf 2a54 cfba 5c5b 923e
00000090: 5cf8 65be 01d3 c73e c4f5 41be bdb4 54bf
000000a0: 0247 453f 04a9 e93e 7dd8 51bf 4e86 ef3e
000000b0: ce52 e33e dd6a 8bbe 97b2 dc3d c260 ffbe
000000c0: 9c5b fbbe abe3 413f 710b 7b3e 9b71 dfbe
000000d0: 32f4 2a3f 0240 bc3e 5520 9a3c c3d0 84be
000000e0: 0806 42bc 98bf e7be 6d84 3cbf 403a eabe
000000f0: a756 88be 0f89 0dbf da95 9abe adcf 6a3e
00000100: 2e66 a43e f389 7e3e c35b 4a3e 6629 ab3e
00000110: 4fc6 843e 84f8 423e b8b3 953e f486 6f3e
00000120: e0da debc 2f2b 793e e191 46bd 2674 8a3e
00000130: 08cb 223f 3aec 883e b6d5 073e ee0d e53e
00000140: c5ed ca3d b090 6bbe 6618 98bf e728 18bf
00000150: e2df 773d 773c d7bc dbca 763e 8c8e c4bc
00000160: f909 1e3f 771b f73e b893 6cbe e84c 99bf
00000170: 75f4 4abf 3e5a 9b3e d6e6 623e b8f5 903e
00000180: 325c 593e 960b 663f c453 0b3f f637 61be
00000190: 9faf 91bf ec22 49bf 1441 8b3e e2bd b83d
000001a0: f1af 223e 2896 cd3e 1c8f 663f fb7e 213f
000001b0: c3d4 54bf 3dc4 36bf cdce 79bf c00e 503d
000001c0: 4f69 1d3f 16bb 1fbe 3ae2 1d3f 45f5 8e3f
000001d0: de1a c63e 4851 143e 7e7d df3e 31d9 433d
000001e0: 80c1 d53e 03a2 863f 14d7 863e d240 5a3e
000001f0: 23c5 2f3f b949 983d 6f72 1a3f 441a 643e
00000200: af17 643f a7ca 34bf 98bb 75bf 800e 9cbe
00000210: 3ba6 6dbf 7ec9 adbf a3f0 08bf 46dc 07bd
00000220: 1c22 fdbe 82f0 37bd 0c92 86bd b524 363e
00000230: fa65 653e 0fd3 81be 4323 b3be a50a 89be
00000240: e454 46be 8291 c0be 54b0 84be e8c2 7d3e
00000250: 8477 643f d620 0f3f 2035 99bd c301 793e
00000260: dea5 5bbd 27e3 0bbf abb1 38bf 1848 3abf
00000270: 702f 143e 1732 3b3f 2994 9d3e 3e1c c83d
00000280: 3c89 e43e 024f c53d af35 1f3f b828 a43d
00000290: 5011 a3be 1b34 9b3f d498 73be b82d c2bf
000002a0: 9b95 033e 767e 95bd c4e9 01be 2cdc 843f
000002b0: 564f 783d d337 5bbf 88c5 e83f 43e6 8dbd
000002c0: ec39 f8bf df58 253f 98c2 e03d 5553 c9be
000002d0: 060f ea3e 2897 e73c 0eb4 e7be 33bf 963f
000002e0: 99d9 7fbd 9393 b8bf 7a81 a23e 06b1 fc3d
000002f0: 428e 27be f7f1 1cbf 1817 e1bd d114 e9be
00000300: 5fea 7bbe 4fb4 373e f96a f23d dd2d 3bbe
00000310: cfb5 8ebe d204 d63e e898 883e 91d1 623f
00000320: a596 9b3d ae91 933e db88 543f d4b5 b93e
00000330: 2540 1fbf d07b 1ebf f599 16be 5bff 883e
00000340: 8c65 383f 6140 abbd 7827 d33e aea8 453f
00000350: 72dd 143e a6bc 38bf 40dc 54bf 5ae5 25bf
00000360: 40d7 5e3f 5c86 ea3f 3d6a 9b3f 25f2 a9bc
00000370: a108 66be 1ff5 3dbd 64cc 5fbf 38bd f2bf
00000380: 3413 6abf fe2a 113f 327d b33f d9a3 1c3f
00000390: de78 f93d d753 03be d04e 3abe d41a 03bf
000003a0: d4c1 c2bf af54 37bf 0ae6 5bbe e9fd 2b3f
000003b0: 66f9 623b 0048 d13d eb9a 3f3e 38c0 ab3d
000003c0: d351 84bd 8868 1bbf bd9c dbbc d50b bebe
000003d0: 4f0b 8cbd 7dbc 453f 012e fe3e 1066 833e
000003e0: 69ff eebf e848 0bbe ac69 523f ace4 c8be
000003f0: 1429 1dbf 9737 1c3e 7f00 513f 7d62 083f
0.19683224 -0.3847866 0.3417542 -1.0548499 -1.6807166 -0.7985971 -0.8049098 -1.4834107
-0.5870047 0.2512864 0.39485893 0.27820984 0.4535491 0.7099588 0.55704683 0.26428974
0.4432179 0.3876931 -0.6238216 -0.1373242 -0.825082 0.5046954 1.2078397 0.35744452
0.31904474 0.9503347 0.2028289 0.109995686 0.41121975 0.15538171 -0.9410859 0.27088538
0.30230266 -0.8547584 -0.001581793 0.28585327 -0.22458023 0.3902817 -0.18941408 -0.83088285
0.77061474 0.4563676 -0.8197096 0.46782154 0.44399112 -0.27229968 0.10776251 -0.49878508
-0.4909333 0.7573802 0.24516083 -0.43641362 0.6677886 0.36767584 0.018814245 -0.25940523
-0.011842258 -0.45263362 -0.73639566 -0.45747566 -0.2662861 -0.5528726 -0.30192453 0.22930785
0.32109207 0.24857311 0.19761567 0.33430022 0.25932547 0.19040114 0.29238677 0.23391324
-0.027203977 0.2433288 -0.048478965 0.2704174 0.6359105 0.26742727 0.13265118 0.4473719
0.09908632 -0.23004413 -1.1882446 -0.5943741 0.060516246 -0.02627395 0.2410082 -0.023993753
0.6173397 0.48263142 -0.23103225 -1.1976595 -0.7927926 0.30342287 0.2215837 0.2831247
0.21226576 0.8986143 0.5442469 -0.21994004 -1.138172 -0.7856891 0.27198088 0.09020592
0.15887429 0.40153623 0.9006212 0.6308438 -0.8313715 -0.71393186 -0.9758118 0.050795317
0.61488813 -0.15598711 0.6167332 1.11686 0.38692373 0.14484131 0.4365043 0.04781455
0.4174919 1.0518192 0.26335967 0.2131379 0.6866018 0.074359365 0.6033086 0.22275645
0.8909864 -0.7062172 -0.9598937 -0.30479813 -0.9283177 -1.3577116 -0.5349218 -0.033169053
-0.49440086 -0.0449071 -0.06570825 0.1778744 0.22402182 -0.25356337 -0.3498784 -0.26765934
-0.1936832 -0.37611014 -0.25915778 0.24781382 0.89244866 0.5590948 -0.07480836 0.24317078
-0.05362498 -0.5464348 -0.721461 -0.72766256 0.14471221 0.73123306 0.307771 0.09771012
0.44635952 0.0963421 0.6219129 0.08015579 -0.31849146 1.2125276 -0.23788768 -1.5170202
0.12850039 -0.07299511 -0.12686831 1.0379691 0.060622536 -0.85632056 1.8185282 -0.069286846
-1.9392676 0.6458873 0.10974616 -0.3932139 0.45714587 0.02827032 -0.45254558 1.1777099
-0.062463377 -1.4420036 0.31739408 0.12338452 -0.16362861 -0.6130671 -0.10990733 -0.45523694
-0.24601124 0.17939876 0.1183681 -0.18279214 -0.27873084 0.41800553 0.26679158 0.8860102
0.075970925 0.28822082 0.83021325 0.36271536 -0.6220725 -0.6190767 -0.14707167 0.2675732
0.7202995 -0.08361889 0.4124105 0.7721051 0.145376 -0.72162855 -0.83148575 -0.6480309
0.87047195 1.8322253 1.2141796 -0.020745346 -0.22464229 -0.046376344 -0.8742125 -1.8963995
-0.9143555 0.56706226 1.4022582 0.6118751 0.12181257 -0.12824951 -0.18194127 -0.5121281
-1.5215402 -0.7161359 -0.21474472 0.6718431 0.0034633516 0.10218811 0.1871144 0.08386272
-0.06460919 -0.6070638 -0.026808137 -0.37118402 -0.068380944 0.77240735 0.49644473 0.25663805
-1.8671695 -0.1360203 0.8219249 -0.39236963 -0.61390805 0.15255581 0.8164138 0.5327528

dense1.0.bn1.weight f4 [24]
00000000: 1fdb d93e 2424 773f 8c78 1e3f 4b04 493f
00000010: 2522 2d3f 4ebc 873f 9382 fc3e b544 853f
00000020: 37d4 3f3f be93 e43f 4b3f 0140 c8ff 243f
00000030: 01c3 803f 7622 c63e 769a 2e3f b309 0c3f
00000040: ba58 db3e 6284 b93e 4031 343f 1b9d ea3e
00000050: feab 5a3f 5202 2d3f 25d0 de3e c139 003f
0.4254999 0.9653952 0.6190269 0.78522176 0.67630225 1.0604341 0.4931837 1.0411593
0.7493319 1.7857587 2.019488 0.6445279 1.005951 0.38698167 0.6820444 0.547023
0.4284113 0.36233813 0.7038765 0.45822987 0.8541869 0.67581666 0.43518177 0.50088125

dense1.0.bn1.bias f4 [24]
00000000: 3c98 55be f118 163f 5748 c4be 88dc e63e
00000010: 622a 963e 5ec9 c13e 824d 283f eea0 d43e
00000020: f970 103f 9948 7f3f 7dfb 943f 9b4f 793d
00000030: c277 673e 2cf5 763e 5e95 6a3e 7856 15bf
00000040: 8f73 64be 54b5 50be 2c66 e1be cc2d 7dbe
00000050: 5426 2dbf 4ec3 0fbf ab6e a23e 30b6 4dbd
-0.20858854 0.5863181 -0.3833644 0.45090127 0.2932921 0.37848943 0.6574327 0.4152903
0.5642238 0.9972015 1.1639248 0.060866933 0.22604278 0.24116963 0.22908542 -0.58335066
-0.22309707 -0.20381671 -0.44023263 -0.24724501 -0.6763661 -0.56157386 0.31725058 -0.050222576

dense1.0.conv1.weight f4 [12, 24, 3, 3]
00000000: 2f45 fc3b ed51 063e 52d9 70bc cb27 e43c
00000010: 9c76 243e 39f4 df3c 5774 83bd 410d 2e3d
00000020: 51d4 95bd beea 733e febb b73e d131 a93e
00000030: 9ed2 ba3d 98d8 933e 61db a33e 170a 94be
00000040: a40b a9bd b71e 9bbd d9bb dd3c 2794 f03d
00000050: a88f 0bbc 1e42 ea3d d80e 3a3e 4fc2 6c3d
00000060: a067 df3d b9c9 333e a497 b83d 939a 32bc
00000070: 67d0 c73d 0414 143e 8a91 fdbc 2e81 173e
00000080: d75f 453e 7788 be3d c66e 753e ba99 653e
00000090: c5e4 ccbc c8dd 62be 7940 5abe 426b 9c3e
000000a0: 6757 fc3d 372d 4c3d 2a71 1f3f 1988 023f
000000b0: 481e be3e 68cf 9a3e 4962 f83e dcc1 7c3e
000000c0: ca78 103e c9b8 b93e e559 133e 524a 56be
000000d0: 81f6 f63c 014c d9bd 7816 f73d cbf6 0d3e
000000e0: ac0c 843e 7507 683e fcce 6a3e b67d 483e
000000f0: 1cca 183d c1ee 25be 985d 0abe d55d 08bf
00000100: 0935 65be 8a47 47be 1ffe 403d ef2e d93e
00000110: 3065 b93e 653d f43d 62e9 053f c266 c63e
00000120: 0f82 9c3d b21c 823e 0858 e63d 9991 6e3d
00000130: ec47 533e 8eec bf3d 77d2 8dbe 50f2 4ebe
00000140: b42e 30be 42a6 0c3e dd0b d53d d9d9 abbe
00000150: 1f42 043f 01f5 fa3e 4d1f 08be d801 0f3e
00000160: d995 c93d b60f 4ebe 4cf5 b6bd c4bc b83d
00000170: 65f4 a3bd 3dc8 24bb df15 943e 0b3e 5c3d
00000180: 3cfc 62be ee6d 8b3e dd5c a93d aa74 dcbe
00000190: 86f3 84be 9563 b93c f6ed 5abe dfb1 3abc
000001a0: 9fde 673e 9dd4 483e 622c df3e 1c1a 0b3f
000001b0: c9ca 96be a53a a6be f0de 4abd 0261 c3be
000001c0: cbc9 d8be 55d5 07be 3539 45be 4e91 69be
000001d0: e318 10bb b7b7 2cbe 75b1 7abe b4c1 b2bc
000001e0: f4e7 8cbe d357 c5be 2534 0bbe aa5d d7bd
000001f0: 3be6 43be 2a0a a23a 9ce1 26be 37d7 65be
00000200: 2c1c 8abe 9f47 18be 6bcf 23be f0cb 5dbe
00000210: 121d afbd 23a4 eabd e1e6 5fbe 37e6 b3bb
00000220: 4145 3bbb e0cd 8e3c 9337 ebbd 5790 d6bd
00000230: ec6f 8abd 2b00 10be ae6f ebbd 9bbc b6bd
00000240: 84a0 bd3c 6fd2 acbd 8341 983c a6cc 7fbd
00000250: 41ed 61be 00a3 0fbe 5a43 3d3d 07cf 03be
00000260: c3ee 95bd 4567 b1bd ff70 3dbd 441d 16be
00000270: 1658 ddbc 569e f1bb 463d dfbd 13ba 9cbd
00000280: 7893 61bd 064d 1dbe 5a1f d5bc 5c84 09be
00000290: 2a2e d5bd 8fde 3abe 396d 93be 99f0 84be
000002a0: 21be 50bd 92f2 05be 090f c3bd 8f44 d0bd
000002b0: 4695 8fbd 512c 4fbc 0a41 13be 363c e1bd
000002c0: 6398 3bbd 5b75 60bd 1837 1dbd ec03 e63c
000002d0: 0854 38bd 784b 6cbc 3594 1dbe 0ee8 b4bd
000002e0: 66a7 08bd f6f7 aebd 624c efbd f21f b4bc
000002f0: 8c94 dcbd 9f6a 03be fb84 9bbd b018 59be
00000300: 6311 29bd b9be 673c 5ccb 1bbe 8e80 5bbd
00000310: 6f09 513a 4836 09be dc4c eebd 38d0 2abe
00000320: 2322 84be 9f9e 0abe d247 48be 0e5e a0be
00000330: f7ef 79be 6a06 99be fdba ddbe e15c 64bd
00000340: 8cc5 59bd 0d0a 723d 23c7 f5bd 55a9 f9bd
00000350: 61a3 293c 46a7 d33c 603a 2c3d 3cc9 093e
00000360: 8320 94bc 7af0 60bd a6d8 b5bc 428a 8cbc
00000370: 1932 d1bd 5c5f 4cbd 3da9 093e fc35 ae3d
00000380: b03e b13d fe1c 223d e019 a33d 5638 3e3e
00000390: 2b2c 0abe a607 e5bc 29a3 c33d 867e 6c3d
000003a0: b641 e03b 878f 13be f647 4dbd 6535 47bd
000003b0: 0225 48bc 971c 83bd 75e7 b0bd 8fed 38bd
000003c0: c289 523c 6710 1abc 04d7 b93c 5af4 01bf
000003d0: 0980 28bf ea6e bcbe 4487 33be 72af 743a
000003e0: b70c 87bd 9b6e dc3e 20f5 2c3f 22df 2a3e
000003f0: 0fb6 4dbe 3227 96be 3078 1dbe 6125 ce3c
0.007698677 0.1311719 -0.014700251 0.027851006 0.16060871 0.027338134 -0.064186744 0.04249311
-0.07315887 0.23820016 0.35885614 0.3304582 0.09122203 0.28876185 0.3200331 -0.28913948
-0.082541734 -0.07574218 0.027067112 0.11747008 -0.008518137 0.11438392 0.18169725 0.057802495
0.10908437 0.1755742 0.09013298 -0.010901111 0.097565465 0.1446076 -0.030953187 0.14795372
0.19274841 0.09303372 0.23968038 0.22421923 -0.02501143 -0.22154915 -0.21313657 0.3055058
0.12321358 0.049847808 0.6228205 0.5098892 0.37132478 0.30236363 0.48512486 0.24683326
0.14108577 0.36273792 0.14389761 -0.20926788 0.03014684 -0.106102 0.120648324 0.13863675
0.25790918 0.22659095 0.22930521 0.19579205 0.03730212 -0.16204359 -0.13512266 -0.53268176
-0.22383513 -0.19460884 0.04711735 0.4241862 0.36210012 0.119257726 0.5230924 0.38750273
0.07641994 0.25412518 0.112472594 0.05824432 0.20632905 0.09371291 -0.27699634 -0.20209622
-0.17205316 0.13735297 0.10402653 -0.33564642 0.5166339 0.49015048 -0.1329319 0.13965547
0.09843034 -0.20123181 -0.089335054 0.09020379 -0.08005599 -0.0025143765 0.28922936 0.053770106
-0.22166532 0.27232307 0.082696654 -0.43057758 -0.25967044 0.022630492 -0.21379837 -0.011394947
0.22643517 0.19612356 0.4358855 0.54336715 -0.29451588 -0.32466617 -0.049529016 -0.3815995
-0.42341456 -0.13264973 -0.19260104 -0.22809336 -0.002198749 -0.16866957 -0.24481757 -0.02182088
-0.27520716 -0.38543567 -0.1359411 -0.10515912 -0.19130795 0.0012362648 -0.16297 -0.22445379
-0.26974618 -0.14871071 -0.15997092 -0.21659827 -0.085504666 -0.11457088 -0.21865417 -0.00549009
-0.0028575214 0.017432153 -0.11485209 -0.104767494 -0.06759629 -0.14062564 -0.114959106 -0.089226924
0.023147829 -0.084385745 0.018585926 -0.062451027 -0.22063161 -0.14027023 0.04620681 -0.12871943
-0.07320931 -0.08662275 -0.04625034 -0.14659601 -0.027019542 -0.0073736114 -0.10900359 -0.07652678
-0.055072278 -0.15361413 -0.026015926 -0.13429397 -0.10409196 -0.18248962 -0.28794268 -0.2596481
-0.05096257 -0.13080814 -0.09524352 -0.101693265 -0.070108935 -0.012644843 -0.14380279 -0.109978124
-0.045799624 -0.05479942 -0.03838262 0.028078042 -0.045002013 -0.01442229 -0.15388568 -0.088333234
-0.03336277 -0.085433885 -0.11684491 -0.021987889 -0.107705206 -0.12833641 -0.075937234 -0.21200824
-0.041276347 0.014144593 -0.15214294 -0.053589396 0.0007974123 -0.13399613 -0.116357535 -0.16680992
-0.25807294 -0.13537072 -0.19558647 -0.31321758 -0.24407946 -0.29887706 -0.43306723 -0.05575264
-0.05316691 0.059091616 -0.12000873 -0.12190501 0.010353894 0.025836598 0.04204786 0.13455671
-0.018081909 -0.054916836 -0.022198033 -0.01715577 -0.102146335 -0.04989563 0.13443466 0.085063905
0.08654535 0.03957843 0.0796392 0.18576178 -0.13493411 -0.027957749 0.09552605 0.05773785
0.006843771 -0.1441022 -0.050117455 -0.048634905 -0.012215855 -0.064019375 -0.08637897 -0.04514843
0.012850227 -0.009403325 0.022685535 -0.50763476 -0.65820366 -0.3680337 -0.17532068 0.0009334005
-0.06594222 0.43053135 0.6756153 0.16686681 -0.20088981 -0.2932678 -0.15377879 0.025164308

dense1.1.bn1.weight f4 [36]
00000000: 116c 163f 2930 cc3e ed53 8e3e e496 a13e
00000010: 2a44 3a3f 26f7 c13e 9a12 e93e b1dc 953e
00000020: e63c c53e 8da7 f53e 4e16 be3e 9728 973f
00000030: 867c 053e 4a8f 0e3e 510b 9b3e c33b 493e
00000040: cea1 8e3f efed 883f 0a20 153f 6f51 363f
00000050: 2a31 203f 36bd 683f df2c a23e 745c c73e
00000060: 3ce7 e03e ab13 463f 825e 7c3f 5608 9a3f
00000070: 2c4e 0c3f 63d6 2b3e 9208 763f 16ce a73f
00000080: d855 483f 2fc0 123f 8fd9 c83e 094c 3c3f
0.58758646 0.39880493 0.27798405 0.31560433 0.7276026 0.37883872 0.45522004 0.29269937
0.38523024 0.47979394 0.37126392 1.1809262 0.13035783 0.13921848 0.3028207 0.19651704
1.1143129 1.0697612 0.5825201 0.7121801 0.6257502 0.9091371 0.3167486 0.38937724
0.43926418 0.7737376 0.9858171 1.2033794 0.5480678 0.16781001 0.9610683 1.3109767
0.7825599 0.573245 0.39228484 0.7355352

dense1.1.bn1.bias f4 [36]
00000000: bf59 323e 12c1 30be 0c10 3ebe 0632 bebe
00000010: 32d0 ae3e b28b 46be 6783 063d f1f2 bfbd
00000020: df18 003e 8a54 263d f903 743d 9b46 08be
00000030: c76d 04bc bae4 40be d94e 48be a609 2fbe
00000040: 2e85 4fbe 4a92 9f3e 7977 75be 8ebc b7be
00000050: a02d e6be b949 fdbe 4c56 9b3d 86b2 59be
00000060: 4f54 93be d90a 523f f282 d13e 9ffa 8e3d
00000070: c58e 84be c5c7 33be d173 f5bd 35ac 243f
00000080: 0685 fdbc da2c 2dbe 4996 ddbd b1e8 543e
0.17417048 -0.1726115 -0.18560809 -0.3714754 0.34143215 -0.19389227 0.03284016 -0.09372509
0.12509488 0.040607966 0.0595741 -0.13308184 -0.008082814 -0.18837252 -0.19561328 -0.17093524
-0.20265648 0.31166297 -0.23971356 -0.35886043 -0.44956684 -0.49470308 0.07584819 -0.21259508
-0.2877526 0.820478 0.40920216 0.06981396 -0.25890175 -0.17556675 -0.11984981 0.6432527
-0.03094722 -0.16911641 -0.1081968 0.2079189

dense1.1.conv1.weight f4 [12, 36, 3, 3]
00000000: 669d e7bd f1da 2a3e ebdc df3e 8a50 8fbe
00000010: 2d31 84bb 2a05 9b3e 3768 adbe 5b1c 47be
00000020: 5556 bd3d 81be c4bc 8889 c1bc b029 4cbe
00000030: d087 a1bd e29e 48bc f758 0ebe d4ce 06bd
00000040: 59db 04bd 2788 58bc dc6c 8bbd 7229 2c3d
00000050: bd9b 123e f337 acbd 03d4 2e3d f545 013e
00000060: bc6c 70bd 9f0a ea3c 191a ea3d 0568 72bd
00000070: cbcb 86bb 65dd 863d 7313 1b3d c5e1 85bc
00000080: 1533 993d 1690 ef3d bbd8 1c3d cad8 fa3d
00000090: e6e3 12be 3c95 e33e 97d7 713e fbd1 4bbe
000000a0: 2739 913e 24da b03d 7693 3dbe 8ba9 53bd
000000b0: ca00 40be 6b44 fdbc 1f49 1cbc 2486 e43b
000000c0: ee22 01bd 58e3 1abd f1a5 e9ba bd43 9ebb
000000d0: 8e4c d4bc 6a5d 023d be0e 19be a2c9 41be
000000e0: e2c8 d9be 5d77 2bbe 2003 8fbd 2890 09be
000000f0: e302 c73c 4a08 053e 2a75 c0be a658 213d
00000100: ebbe 803d d69c 3fbc ac05 8dbc 2ca9 283d
00000110: 7c78 4ebd bbd9 d7bc c1c9 c9bb b1ff babc
00000120: e237 e73c 2751 23be 37e4 583d 3892 3cbe
00000130: 20b2 883c 1a0f bc3d 61cb 7dbd f798 fe3d
00000140: de96 0db9 d5c7 e8bd 4990 2c3c 563d d7bd
00000150: 3e73 1cbe d152 afbc e963 b6bd b1f0 3ebd
00000160: fc50 53bd 1b0b 66be da51 6fbe 7814 013e
00000170: 288c bcbc f8ef 4fbe cc04 8f3d 0fbb fdbd
00000180: fdda c2ba b4e6 1fbe 5b23 863c 3e73 e1bb
00000190: d928 a13d e6a2 433e 7941 debd 568d 1cbd
000001a0: 7818 073e 7300 aabc 5e53 a4bd c361 913d
000001b0: 30d9 23bd d912 9439 4891 56bd 5962 3fbd
000001c0: 849a cc3c b344 e4bc 0ee3 2dbc 914b bb3a
000001d0: 1746 73bc bbdc 46bb 7299 1e3d 1436 f0ba
000001e0: dc2e 0fbc 89c8 363d bf2d d5bb 81d7 9cbc
000001f0: 5c49 97bb 50e7 cdbc 2a10 7bbd 9923 06bc
00000200: f16c 283d 454e 253d 6f40 ccbb 2963 0a3d
00000210: 258d 043e 3346 b03c 63c5 ad3d d14b 6c3d
00000220: c342 de3c abaf a93a 3a6a 273d 2860 663c
00000230: 8c73 6cbb ed80 e53c e2ae 883c 67f1 013d
00000240: 9baf 38be 7646 26bd 498d 52be d112 e3bd
00000250: 67c1 653e f967 2e3d 37d1 b2bc 5312 2c3e
00000260: dd70 ecbc fdd3 663d 28c1 b93e e03a a03e
00000270: 3d33 32be a74b 273e 3bb1 433e ae04 bfbe
00000280: 6106 3ebe 55c2 36be e736 0e3e 2b9e 0e3e
00000290: 2591 0e3d 6c09 293c 5684 d03d 0e54 943d
000002a0: 2ab8 b3bd 6ca9 e23c 91fd c13d ed68 08be
000002b0: 3fb4 723d ac09 2e3e a3ec dbbc 2b66 f53d
000002c0: 9742 2f3e a7ac bb3c 3a98 d53d ebe8 c23d
000002d0: e128 04be 5b61 a2be 581c 39be dc96 efbd
000002e0: 4d78 8abe 8a6d bebd 4d2b bbbc bb1a 62be
000002f0: c78a 083e 775e e9bd 2e0e ed3d 0755 683e
00000300: 406a ffbd e975 d83d 3c03 823e ea03 92bd
00000310: 55ce ca3d e612 6a3e 8eac 323c 9f54 6d3d
00000320: 0a93 f23b ab8f 4c3d 7a30 723d 7fee e53b
00000330: 5ad8 3a3d 7be9 723d 8842 973c 91b9 c9bd
00000340: d615 dc3c 6824 843d fbf7 82bc fc27 bc3d
00000350: d46a e63d 29c8 433c b434 953d 7183 5e3d
00000360: a138 e23d 2291 b43c 250a cc3d ab11 5cbc
00000370: 4561 6dbd 0df1 163e 0854 833c c804 11bd
00000380: 375d d83c be7a 5b3d 7089 043e 87b3 85be
00000390: 0d3c d33e 3d2a b3be 6855 f6bd 66f1 26bd
000003a0: 0909 ed3d c1c4 b83e 8558 493d 4c0d b2be
000003b0: ca89 4d3d 1cc1 f3be 9139 3a3e 7bd6 d13e
000003c0: 25b3 513c 1f42 ba3e 7759 32bd cb24 8abe
000003d0: 62c2 a6be 6c57 6b3d 7dc2 80bf 9daa 883f
000003e0: 4800 ae3e 1027 e43e 5c4e 80be b7d7 b9be
000003f0: 5566 f53c e578 653d c82b ca3d 8c6a 873d
-0.11309318 0.16685082 0.43723235 -0.27991134 -0.0040341825 0.30277377 -0.33868572 -0.1944441
0.09244982 -0.02401662 -0.02362515 -0.19937778 -0.07887232 -0.012244912 -0.13901125 -0.03291209
-0.03243575 -0.013216055 -0.06807873 0.042031713 0.14317222 -0.08409109 0.04268266 0.12624343
-0.058697447 0.028569518 0.11430759 -0.059181232 -0.0041136495 0.065851964 0.037860345 -0.016343007
0.07480446 0.11697404 0.038292628 0.122483805 -0.14344749 0.44449794 0.23617397 -0.1990432
0.28363916 0.08635357 -0.18513283 -0.05167536 -0.18750301 -0.030916413 -0.009538918 0.0069739986
-0.031527452 -0.03781447 -0.0017825944 -0.0048298524 -0.02591541 0.031827368 -0.1494703 -0.18924573
-0.42536074 -0.16744752 -0.06983018 -0.13433897 0.024293369 0.12991443 -0.3758939 0.039391182
0.06286415 -0.011695107 -0.017214619 0.04117696 -0.05040787 -0.02634894 -0.006158084 -0.022827001
0.02822489 -0.15948926 0.052952018 -0.18415153 0.0166865 0.09182568 -0.061961535 0.124315195
-0.0001350301 -0.1136624 0.010532447 -0.10509746 -0.15278336 -0.021401795 -0.08905775 -0.04661626
-0.051590905 -0.22465174 -0.23371068 0.12605464 -0.02301605 -0.20306385 0.06983337 -0.12389194
-0.0014866289 -0.1561535 0.01637428 -0.006880193 0.07869119 0.1910511 -0.10852332 -0.038220726
0.13192928 -0.020752167 -0.080237135 0.07098725 -0.040002048 0.00028242802 -0.052384645 -0.04672465
0.024976023 -0.02786479 -0.010613216 0.0014289488 -0.014848254 -0.0030343968 0.038720556 -0.0018326663
-0.0087391995 0.04462484 -0.0065056975 -0.019145729 -0.0046168994 -0.025134712 -0.061294712 -0.008187198
0.04111952 0.040357847 -0.006233267 0.033785973 0.12944467 0.021517849 0.08484914 0.05768949
0.027131444 0.001294603 0.04087279 0.014061011 -0.0036079613 0.028015578 0.016684953 0.03172436
-0.18035738 -0.04059454 -0.20561709 -0.11087573 0.22437058 0.042579625 -0.021828277 0.16803865
-0.028862411 0.05635451 0.3628018 0.31294918 -0.17402358 0.16337453 0.19110577 -0.37308258
-0.18557121 -0.1784757 0.13888131 0.13927524 0.03480639 0.010317188 0.10181491 0.07242595
-0.08775361 0.027668677 0.09472192 -0.13321276 0.059253927 0.16995877 -0.026846236 0.119823776
0.17115246 0.022909475 0.104294255 0.09517082 -0.12906219 -0.317149 -0.18077219 -0.11698696
-0.27044907 -0.09298237 -0.022847796 -0.2208051 0.1333419 -0.11394971 0.1157497 0.22688685
-0.124714375 0.105693646 0.25393093 -0.07129653 0.09902636 0.22858772 0.010905398 0.05794203
0.0074027823 0.0499417 0.059128262 0.0070169563 0.045616485 0.059304696 0.018464342 -0.09849847
0.026865881 0.064522564 -0.015987387 0.09187314 0.112508446 0.011949577 0.07285443 0.05432457
0.11045957 0.022041861 0.099628724 -0.013431947 -0.05795409 0.14740391 0.01603128 -0.03540495
0.026411636 0.053583853 0.12943053 -0.2611353 0.41256753 -0.34993163 -0.12028009 -0.04075756
0.11573989 0.3608761 0.049156684 -0.3477577 0.050180234 -0.47608268 0.18186022 0.40983948
0.012799059 0.3637857 -0.04354235 -0.26981196 -0.32570177 0.05745642 -1.0059353 1.0677067
0.3398459 0.44561052 -0.25059783 -0.3629739 0.029956022 0.056023497 0.09871632 0.06612119

dense1.2.bn1.weight f4 [48]
00000000: d785 d03e b3a6 363e 249b d33e 118e fb3e
00000010: 9eb7 623f fb26 1c3e a3ff d13e f7be ad3e
00000020: 9a0a 813e 3355 ab3e d752 693e 8d7d 1b3f
00000030: 3266 c43d 315f b53e 88b1 f03d 3e00 ea3e
00000040: d5c4 aa3e 16ee 0c3f c7b3 123f 1fc9 883e
00000050: 1c7e 363f 796f 943d 6b97 a73e e503 4c3e
00000060: 1ec8 343f d548 e23e ea8f 813e 96e4 843f
00000070: ff35 473d 8464 2e3e cbb4 263f c2a8 6d3f
00000080: c9a3 9f3e 0db4 623e 0f5e 9b3e 7c65 2c3f
00000090: 0705 be3f 2818 813f 4114 9a3e 1955 283f
000000a0: d0c8 5a3f 57a9 e03e 689c bc3e 27f1 833f
000000b0: 29ce aa3f ba73 ef3e bb81 4f3e 7423 2c3f
0.40727112 0.17837028 0.413293 0.49131826 0.8856143 0.15249245 0.41015348 0.33934757
0.252034 0.3346344 0.22785507 0.6073845 0.09589805 0.35424188 0.117526114 0.4570331
0.33353296 0.5505079 0.5730557 0.26715943 0.7128618 0.07247824 0.3273271 0.1992336
0.70617855 0.4419619 0.2530511 1.0382259 0.04863548 0.17030531 0.6511962 0.9283563
0.31179646 0.22138996 0.303452 0.6734235 1.4845284 1.0085497 0.30093578 0.6575485
0.85462666 0.43879196 0.36838078 1.0307969 1.3344165 0.4676798 0.20264332 0.672416

dense1.2.bn1.bias f4 [48]
00000000: 46a9 3bbd e2bd 42bd b178 a9be b9b8 cfbe
00000010: 0e90 903e 96b3 28bd 4662 233e aa74 3fbe
00000020: 6b13 c53c d80e 773d ee18 d4bc f4ce bd3e
00000030: 7902 82bd a1f3 b0bd 88f4 fb3c e1c5 0ebf
00000040: 4cd3 853e b130 e0be 31a1 7cbe d211 6dbe
00000050: 6f3f e93e be44 76bd e46f ebbd f4eb 31be
00000060: 63c3 08bf 4730 b93e 7d9d 2f3d 695a be3d
00000070: 36c9 8bbd 4e5c fcbd cc46 9c3d 8cfa bf3e
00000080: 594b 96bd 08f2 a23d c3f9 3cbe 63d0 48be
00000090: c165 163f 1bb9 90bc 24dd 84be 296b 1fbe
000000a0: 7826 05bf ef35 a7be 6f6c bcbd 1d37 a4be
000000b0: f65c b53e 233f 1fbd 44cb 32bd 08fd c43e
-0.04581573 -0.047544368 -0.33099893 -0.4057062 0.28234905 -0.04118689 0.15955457 -0.18696848
0.02405711 0.06031689 -0.025890794 0.37071955 -0.06348128 -0.086402185 0.03075625 -0.5577069
0.2613777 -0.4378715 -0.24670865 -0.23151329 0.45556208 -0.06012415 -0.11495951 -0.17375165
-0.53423136 0.36169645 0.042874802 0.09294588 -0.06825487 -0.12322293 0.07630691 0.3749584
-0.0733859 0.0795632 -0.18454652 -0.19610743 0.58749014 -0.01766639 -0.25949967 -0.15568222
-0.52011824 -0.32658336 -0.092003696 -0.32073298 0.35422486 -0.03887857 -0.04365088 0.38474298

dense1.2.conv1.weight f4 [12, 48, 3, 3]
00000000: 334c c83d d41c 7bbd f998 d6bd 8b01 b33d
00000010: 562f 9abd 4c39 f3bd db88 bf3d 53d7 61bd
00000020: 80d1 5bbd dfab 573b 3720 e23c 8743 9b3c
00000030: 4e5f 203c ed86 f53c 1220 fe3c 871f a03c
00000040: ec96 843c 93c5 bb3b 5146 b73c 838d 6dbc
00000050: dc01 d1bc 7832 6a3c 021c 2cbd cc3f 50bd
00000060: ef10 483c bcbb fdbc e90c 5ebd 76c6 9bbd
00000070: 8118 bebd f4a3 cdbd 6996 743d 7de8 473d
00000080: f09a 343c 280b fe3c f0e1 733d 6d73 5f3d
00000090: ab89 5ebb 6a53 e83d 03a8 073e 53b6 19b9
000000a0: 7886 083e 5b11 193e 5543 0fbd 9a59 873d
000000b0: e186 833d 6bb8 21bc a3f1 0bbd 908a 26bd
000000c0: b8c5 ad3a 924c 7fbc 2114 02bd 9fb7 9039
000000d0: d2ab d7bc 2c6f 51bc 7adf b23d 1098 50be
000000e0: 76c2 d73b 0189 8f3e 95de 893d 03dd c63e
000000f0: 556f 513e 974d 393d c94a ab3e ca0f 8dbc
00000100: 3be9 62bc 2c1b 893b 31dc 863b 34a5 c6bc
00000110: 76f2 a4bc bf94 96bb eccc b9bc 85a1 36bd
00000120: c934 c4bd 6622 613c a563 423e f686 363b
00000130: 9639 aa3d b8ce 183e 35c9 183e 6f56 f03d
00000140: 19a7 883d 680e 5e3d a28d 903b f0f4 763d
00000150: a087 013e 7a64 c23d ed34 093e 8416 b23d
00000160: b457 0a3d 2956 e53c 1629 193d 9470 903c
00000170: 746a a93b 8b65 af3c e977 ddbc a821 4fbd
00000180: 396a b13c 8a5e 5fbc 9597 10bd 7f7a b13d
00000190: ac4a cc3c ef90 b43d 9cb1 923d 4d49 2abc
000001a0: ed45 353d 464a 763d e4ff 24bd 2c00 0bbd
000001b0: ad77 013c f6bf c23b cb1e cf3b 7432 35bb
000001c0: a3e0 21bb ed4a 9f3a e59a 52bc e304 44bc
000001d0: f787 a0bb 0a32 e6bb 3660 863d 4d41 fb3d
000001e0: a318 01bd b109 083d 517e be3d fb6e 96bd
000001f0: 24a8 b2bc 5472 1f3d c2a3 eebb bffd a0bb
00000200: 442c 8ebc 700e c93c 00da d63c 3d0c d53c
00000210: 6875 c53a 07aa f43c 318d d33c 3478 2eb8
00000220: c01c f23c ef21 d03d 93bd a0bc 4cb1 7b3b
00000230: 5a12 ec3d b726 c4bc 93c8 ea3c de57 eb3d
00000240: 02c8 f03b 47ba c93d eebb 503e ea96 efbc
00000250: 3614 bb3d 3f38 563e ce47 90bd 9af8 7f3d
00000260: 9f24 343e 5b67 043e 0771 543c 4709 f1bd
00000270: 8e8b c63d 2a89 e5bb 1e1e f3bd 8fa3 103d
00000280: f206 4ebd db50 dbbd 2852 c9bd 64c1 aa3d
00000290: 85c8 8f3e b1f9 01be 0266 6d3d c79f 883e
000002a0: 2466 d0bd bfb3 723d 2d34 583e f11e 343d
000002b0: f154 293d afb4 d43c f47f 323d d8e0 473d
000002c0: 35ef 8b3c 51f8 903c 1907 5a3c ed5c d93b
000002d0: 59d9 dcbe efaf 8abe 8504 b9be 693b 29bf
000002e0: 9af1 02bf f20a 2bbf 4d06 e8be 1551 b1be
000002f0: 0ab4 f6be 803e dabb c391 adbb b4b5 333a
00000300: f33b 71bb 0b21 0dbc 1a0d 40bc 0171 b1bb
00000310: ea5f 43bb 419c 9cbc 916b f33c 9194 573d
00000320: 77cb 923d 5b98 1c3b ab1e 603d b90e bf3d
00000330: 633c 12b9 6ee3 d33c b5fa ce3d 7e07 503c
00000340: 7acf b43c d18f 213c 2b76 883c b97d c03b
00000350: 2d88 763a bd5b 853c 4ce2 4a3c a5f0 d0bb
00000360: b1af 323e 4267 153c db34 4cbd bce3 483e
00000370: e73c db3a e40d b3bd 38de 1e3e fd9c 44bd
00000380: 3707 0ebe 5f02 ebbc c487 b33b 185f 873d
00000390: 7f73 f7bd 8204 aebb 295f 6f3e f923 7fbd
000003a0: b2a1 ce3c 46ef 893e 37bf 50bc 7e88 50bb
000003b0: c286 a73d 6585 f73d 26c4 863d 6889 243c
000003c0: 93ac 133e 0891 7f3d 3342 b93a 1769 a93d
000003d0: 3184 2fbd bfe2 e4bd 1499 163f 3497 b93e
000003e0: d142 c03d 479e 433e 8550 093e de0d 96bd
000003f0: e591 d03b 1f16 1b3b b98a 1a3c d2f3 2abc
0.09780159 -0.06130679 -0.10478396 0.08740529 -0.0752856 -0.11876163 0.09352275 -0.05513699
-0.05366659 0.003290884 0.027603252 0.018953098 0.009788347 0.029971564 0.031021152 0.019546283
0.016185246 0.00573034 0.022372397 -0.014499071 -0.025513582 0.014294259 -0.042018898 -0.05084209
0.0122110685 -0.030973308 -0.05421153 -0.07606213 -0.092820175 -0.10041037 0.059713755 0.048805702
0.011023268 0.03101118 0.059541643 0.054553438 -0.0033956568 0.11344035 0.13247685 -0.00014659138
0.13332546 0.14948027 -0.034976322 0.06608887 0.064222105 -0.009870629 -0.03416599 -0.040659487
0.0013257777 -0.015582221 -0.031757478 0.0002760263 -0.026327047 -0.012782853 0.08734031 -0.20370507
0.006584461 0.28034213 0.06731907 0.38840494 0.20452626 0.04524001 0.33455494 -0.017219443
-0.013849552 0.0041841473 0.0041156043 -0.024248697 -0.020135146 -0.0045953686 -0.022680722 -0.04458763
-0.095803805 0.013741111 0.18983324 0.002785144 0.08311765 0.14922607 0.14920504 0.11735236
0.06672496 0.054212958 0.004411415 0.060292184 0.12649393 0.09491821 0.13399096 0.08695701
0.033775046 0.027995186 0.0373927 0.017631806 0.005170161 0.021410724 -0.027034717 -0.050569206
0.021657096 -0.01363338 -0.03530081 0.086659424 0.02493795 0.088167064 0.071627825 -0.010393453
0.04425614 0.060129426 -0.0402831 -0.03393571 0.007902068 0.0059432937 0.0063208095 -0.002764848
-0.0024700544 0.0012153067 -0.012854313 -0.011964056 -0.004899021 -0.007025008 0.065613195 0.122683145
-0.031517636 0.033212367 0.09301437 -0.073453866 -0.021808691 0.03892739 -0.007282705 -0.0049130614
-0.017355092 0.024543017 0.026226997 0.026006812 0.0015064897 0.029866232 0.025824161 -4.159678e-05
0.029554725 0.10162722 -0.019621646 0.0038405238 0.11526938 -0.023944242 0.028660094 0.11491369
0.0073480615 0.09849983 0.2038419 -0.029246766 0.09134714 0.20919894 -0.07044946 0.062492944
0.17592095 0.12930052 0.012966401 -0.11769348 0.09694587 -0.0070048766 -0.11870979 0.03531223
-0.050299592 -0.10708781 -0.09830123 0.083376676 0.28082672 -0.12692906 0.05795861 0.266844
-0.10175732 0.05925345 0.21113653 0.04397482 0.041340772 0.025965063 0.043579057 0.048798412
0.017081836 0.017696531 0.013307356 0.006633392 -0.43134573 -0.27087352 -0.3613626 -0.6610628
-0.51149905 -0.66813576 -0.45317307 -0.34632173 -0.48184234 -0.0066602826 -0.005296917 0.0006855384
-0.0036809414 -0.008613835 -0.011721874 -0.0054150824 -0.0029811808 -0.019117476 0.029714378 0.05263192
0.07167714 0.0023894522 0.054716747 0.0932898 -0.00013946141 0.025865283 0.10106412 0.012697099
0.022071589 0.009860949 0.01665791 0.0058743623 0.0009404447 0.016279096 0.012383055 -0.0063763433
0.17449833 0.009118857 -0.049855094 0.19618124 0.0016726524 -0.08742884 0.15514457 -0.04800128
-0.1386994 -0.028687654 0.005478831 0.066099346 -0.12082576 -0.005310596 0.23376144 -0.062290166
0.025223587 0.26940364 -0.012740902 -0.0031819637 0.0818 0.1208599 0.06580381 0.010042526
0.144213 0.062394172 0.0014134109 0.082719974 -0.042850677 -0.11176061 0.5882733 0.3624817
0.09387744 0.19103347 0.13409622 -0.07326864 0.0063650482 0.0023664308 0.009432488 -0.010434108

dense1.3.bn1.weight f4 [60]
00000000: 9739 963e 690f 7c3e b109 623e 8430 003f
00000010: 8132 103f 9b90 553e 46a7 963f 667c ac3e
00000020: 97e8 f83e e28e 8b3e 288c dc3d f489 643e
00000030: 7e2c 393e 71f9 113e 565b 313f 997a 233e
00000040: 9e01 833e 90f6 e83d 4a01 713e 6f48 303e
00000050: 130b 9e3f 9b41 6e3e 04a5 103e 9484 dd3d
00000060: 0d17 573e f550 3b3f cf27 d13e fd46 383f
00000070: 7d1e 713e 87f4 a53e 2922 373f 7526 803f
00000080: 31c0 c23e 8c92 e33e 6291 043e 640d 393f
00000090: d050 6a3f abdf 763f 495a 173e 4817 823f
000000a0: f46a 0f3f 00fe 263e 693c 183e ab15 0f3f
000000b0: fe97 f03e c5f3 d93e 8f49 9b3f 7df2 c43e
000000c0: 5192 743f 6a7e b53e 1787 213e 2df3 043f
000000d0: 1a15 973e 14c7 133e 3c8e d13f 85fc 3d3f
000000e0: d3dc 9e3f 74a5 523e dc9d 473d a56b db3e
0.29340813 0.24615254 0.2207401 0.5007403 0.5632706 0.20855944 1.1769798 0.33688658
0.48614952 0.27257448 0.1076892 0.2231825 0.18083379 0.1425531 0.6927999 0.15964736
0.2558717 0.11375153 0.23535648 0.17215131 1.234713 0.23267214 0.14125448 0.10816303
0.21004887 0.73170406 0.40850684 0.7198332 0.23546787 0.32413122 0.715365 1.0011736
0.38037255 0.44447744 0.12946084 0.7228606 0.9152956 0.9643504 0.14780535 1.0163355
0.5602257 0.16307831 0.14866795 0.5589244 0.4699096 0.42568794 1.2131823 0.38466254
0.9553576 0.3544801 0.15774189 0.51933557 0.29508287 0.14431411 1.6371531 0.7421344
1.241114 0.20570928 0.04873453 0.42855564

dense1.3.bn1.bias f4 [60]
00000000: bf99 cfbd d8f9 26bc c7d0 d4bd 6037 263e
00000010: 8276 333d 373d 213d a3b5 8cbd 1b60 923d
00000020: 59b1 edbd 05ce 92bc b3f8 ccbc 2f7a 38bd
00000030: 98fb 33bd 133e 46bd 9ab7 043e 00c2 47be
00000040: 9533 44be 561b cbbd 2c64 f0bc 05d2 8fbd
00000050: c56e 91bd e4be 613d da96 93bd e385 3ebd
00000060: 7578 21be d095 4fbe 22b8 aabe cdbc 93be
00000070: cba1 30be de4a 82be bf24 30be aeee 11bf
00000080: 18a1 86be 5326 3d3d 7044 d4bd 04c4 3dbe
00000090: c748 94be 318b c53e cb60 37be 7b0d 81be
000000a0: 6fff babe 34f1 3abe 20d9 8bbd 49ff 563c
000000b0: 476c 1ebe ed9a 053d c848 5a3e 796f f4bd
000000c0: 1272 e03c 8092 a63d c0df b0bb 6bfa 59bd
000000d0: 7706 f73d 40dc 5fbd 3612 4dbd 2001 d03d
000000e0: 35b2 733d fdf4 80ba 1692 c2bb 1fd6 bd3d
-0.101367466 -0.010191403 -0.103913836 0.16232061 0.04381419 0.03936502 -0.06870582 0.07147237
-0.11606092 -0.017920503 -0.025020933 -0.0450384 -0.04394111 -0.048399042 0.12960663 -0.19507599
-0.19160302 -0.09917323 -0.02934464 -0.0702248 -0.07101206 0.055113688 -0.07206507 -0.046514403
-0.15768607 -0.20271993 -0.33343607 -0.2885498 -0.17249219 -0.25447744 -0.17201518 -0.5700482
-0.2629478 0.046179127 -0.10364616 -0.18531805 -0.28961775 0.38582757 -0.17908017 -0.25205597
-0.36523005 -0.18256074 -0.06828523 0.013122388 -0.15470992 0.032618452 0.21316826 -0.11935324
0.027398143 0.081334114 -0.005397767 -0.053217333 0.1206178 -0.054653406 -0.050066195 0.101564646
0.059496123 -0.0009838637 -0.005937825 0.09269356

dense1.3.conv1.weight f4 [12, 60, 3, 3]
00000000: 1bc8 4c3d 0524 60bc 8e0c 383c a39c 283d
00000010: 81e5 33bd f35b 51bd a489 303d 454d aabc
00000020: e5be 31bc 8dfd b63b 9ea4 31bb 7ed1 8ebc
00000030: 4927 44bc d5b3 a6bc eae5 62bc 3afd 8ebc
00000040: 3934 2bbc 28cb 85bb eef1 113c 4b9c 8c3c
00000050: 0a18 a43c 96e5 ebba 6b04 35bc 6cf2 2bbb
00000060: 8030 ec3b e010 70bc 5578 86b9 d037 b13c
00000070: 0d46 8c3b bfeb 213d 75a2 b53d 6932 413d
00000080: 111e dd3d 3a87 c7bb 989a 1abd 24c9 443d
00000090: 9aa8 423e 0df7 203e 3bf6 ff3c bb5e 1a3e
000000a0: afa8 ee3d 4401 1abc 53bf a73d e1bf 653d
000000b0: 6608 45bd 85fc 64bc 4aed 03bc 6ef7 48bb
000000c0: 97cc 32bc de1c d4bb ff8c 84bc 3e79 ddbb
000000d0: 8cbf b9bb 7a0b 5a3b 2977 e9bd e0df 33be
000000e0: 408d 053e 7194 25bd d8d9 e9bd d3f0 ff3d
000000f0: 5f2a 303c 8783 08be 523a b43c a977 b03d
00000100: 0ee7 5a3d f8f5 3f3d 6cc7 d63c d518 0f3c
00000110: 6380 9a3c f967 1fbc fc89 97bc 945f 0cbc
00000120: b0f4 b73d d178 003e b533 523e 3e29 0a3d
00000130: 1baa 6b3d 3b68 cb3d 1b8d 6cbc 58c0 5f3c
00000140: 3272 243d 4f18 693b d907 aabc a426 89bc
00000150: 3500 963c ff6d a5bc b98c 2dbd 9c0c 90bb
00000160: 780e dbbc 8f68 c7bc 4294 b73c 369e fbb9
00000170: 6c67 203c ca29 1ebc 1824 ddbc 9d7d 35bb
00000180: 4376 3bbc c0f9 e8bc 5a73 b3bc ddd3 30bc
00000190: 2d2f 11bc bcce ee3b 9f5f 93bc a60a dcbc
000001a0: 0d9c 9dbc e85c c7bb 3261 1abd 4601 bbba
000001b0: 3e8f 483c bf20 be3b 125f afba e986 d73b
000001c0: d00a f5bb 0270 703b 04dd d23b f253 fd3a
000001d0: 6197 0bba 51da 013d bc78 143d ea82 0e3d
000001e0: 309e 063d 0e0a c13c 6e6b a13c f04d bb3c
000001f0: 6aba 193c c108 f7ba 4217 8cbd cc69 53bd
00000200: 8e9e 2d3d 177e d93c b45f 343c 1c34 ea3d
00000210: d5f6 3fbd ee2c 59bd a0ff 6c3c b002 17ba
00000220: c725 403c e34d 2d3d f942 99bb 94e0 9f3b
00000230: eb34 2f3d 6353 bfbc 3c16 38bc 2ca0 1d3d
00000240: 7808 f73c 999a 0e3d aebd 613d 87a2 083d
00000250: 3c51 d53c e41f 5d3d b545 683d 3984 303d
00000260: 0f70 083d 4ca4 053d 7e8a ac3c b770 c4ba
00000270: 161f 093d a7f6 1c3d 44a6 07bc fa7c c13c
00000280: bfe9 423c c440 9fba d6a4 973d d590 993d
00000290: 54ed 9f3d 809c 913d b509 7b3d 6c8e 593d
000002a0: d22f 463d af0b 123d e6b3 f03c 5445 f83c
000002b0: 8a71 a73c 0454 263d a01f 093d 294a 073d
000002c0: f0d2 da3c e275 f43c ed64 c33c 4b49 ef3c
000002d0: a7aa 2a3e 85fe 12be f2f6 9bbe 807e 883d
000002e0: e649 2bbe 96ae 75be 9010 4bbd 4538 44be
000002f0: 2b74 4cbe 9ac5 c43c e133 be3c a6b2 913d
00000300: c117 a7bc d61f 62bc 8761 243d 1d53 8fba
00000310: 52c5 01bc 10ae 443d 7303 753c ef1b 5d3c
00000320: 1977 203b c4ab 443c b56b c03b 69aa f5ba
00000330: 50e2 50bc 6a60 8f3b 3248 333c b30b 483b
00000340: 9518 883c cf58 a33c 6dd0 b1bb 8764 813b
00000350: c17b cc3c 2adf 623c ccb7 7f3c 5726 833c
00000360: 9008 753c eca6 28bc dcf9 4a3d d0a9 4cba
00000370: 6c54 fbbb 0fbd e93c 048f 49bc 7830 16bc
00000380: caf8 173d 85a7 f4bc 0d2a 12be 177c 84bd
00000390: 3b62 48bd 4eca 87bd 5da6 fc3c 6284 7fbd
000003a0: 92b5 52bd 22b8 0e3c afec d5bb 22d5 8fbb
000003b0: df9a 0f3c eca2 0cbd ca78 56bd 9cc2 febc
000003c0: 6f84 0ebd 5bbe 1cbd 5693 3dbc 4787 c73d
000003d0: 8116 19bc 86dd dfbd 099c cb3d ff3d e2bc
000003e0: 2168 03be 5fdd d83d 934a a5bd 3d35 29be
000003f0: 3033 19b9 80de be3b 11de f23c 53c1 02bc
0.049995523 -0.013680463 0.011233462 0.041165005 -0.043920044 -0.05111308 0.043100014 -0.020788798
-0.010848735 0.005584425 -0.0027106176 -0.017433878 -0.011972257 -0.020349422 -0.013848761 -0.017454732
-0.010449463 -0.004083056 0.008907778 0.01716437 0.020030994 -0.0017997499 -0.011048417 -0.0026237024
0.00720793 -0.014652461 -0.00025648126 0.021633059 0.0042808116 0.039531466 0.08868877 0.047167215
0.1079675 -0.0060891183 -0.03774509 0.048043385 0.19009629 0.15719242 0.031245342 0.150752
0.116532676 -0.009399716 0.08190789 0.056091193 -0.048103712 -0.013976221 -0.00805218 -0.0030665058
-0.010913036 -0.006473168 -0.016180513 -0.006758838 -0.005668586 0.0033271 -0.11399681 -0.1756587
0.13042164 -0.040424768 -0.114185035 0.124971054 0.01075229 -0.13331424 0.022000466 0.08616573
0.053443007 0.046865433 0.026218139 0.008733948 0.018860048 -0.009729379 -0.018498413 -0.0085677095
0.08982217 0.12546088 0.20527537 0.033730738 0.057535272 0.0993199 -0.014437939 0.013656698
0.040147968 0.0035567468 -0.020755695 -0.016742058 0.018310646 -0.020194052 -0.04237053 -0.0043960344
-0.026740298 -0.02434185 0.022409562 -0.00047992327 0.009790283 -0.009653518 -0.02699475 -0.002769328
-0.01144177 -0.028439403 -0.02190559 -0.0107927 -0.008861345 0.0072878283 -0.017989932 -0.026860546
-0.01923945 -0.0060840733 -0.03769035 -0.0014267347 0.012241183 0.0058022435 -0.0013379774 0.006577362
-0.0074780956 0.0036687856 0.0064350385 0.0019327386 -0.00053249864 0.031702343 0.036247954 0.034792818
0.032865703 0.023564365 0.019704547 0.022864312 0.0093828235 -0.0018847213 -0.068403736 -0.051614568
0.042387538 0.026549382 0.0110091455 0.1143572 -0.046866257 -0.053021364 0.014465243 -0.00057605933
0.011727757 0.042310607 -0.004677173 0.0048790667 0.042775076 -0.023355192 -0.01123577 0.03848283
0.030155405 0.034815405 0.055112533 0.033358123 0.026039712 0.05398549 0.056707103 0.043094847
0.033309992 0.03262739 0.021062132 -0.0014987205 0.03347691 0.038321164 -0.008279387 0.023619164
0.01189655 -0.0012150039 0.07404487 0.07498328 0.078089386 0.07109928 0.061288554 0.05311434
0.04838545 0.035655674 0.029382657 0.030306496 0.020439882 0.040607467 0.033477426 0.03302971
0.026711911 0.029841367 0.023851836 0.029209753 0.16666661 -0.14354904 -0.30461842 0.06664753
-0.16727409 -0.2399238 -0.049576342 -0.1916209 -0.1996619 0.024020005 0.023218097 0.071141526
-0.020397069 -0.013801536 0.04013207 -0.0010934804 -0.00792058 0.04801756 0.014954436 0.013495429
0.002448505 0.012003843 0.0058722147 -0.0018742803 -0.01274927 0.004375507 0.010942506 0.0030524551
0.016613284 0.019939808 -0.0054264576 0.0039487514 0.024961354 0.013847152 0.015607785 0.016009493
0.014955655 -0.0102937035 0.04955469 -0.00078072865 -0.007669976 0.028532533 -0.012302164 -0.009166829
0.037102498 -0.029865036 -0.14273854 -0.06468981 -0.048921805 -0.066303834 0.030841047 -0.06238211
-0.05144269 0.008710893 -0.006528459 -0.004389421 0.0087649515 -0.034335062 -0.052361287 -0.031098656
-0.034794267 -0.038267475 -0.011570772 0.09742599 -0.009343744 -0.10930924 0.09941871 -0.027617453
-0.12832691 0.10589098 -0.080708645 -0.16524215 -0.00014610286 0.005824864 0.029646905 -0.007980662

dense1.4.bn1.weight f4 [72]
00000000: a3ce 143f c2a8 a33e 1fb2 183f f527 783f
00000010: 458f 803f 506d 263e 1a84 da3e 4a3d 063f
00000020: e499 943f ae9e 5a3e 352f 3e3e 63cb cf3d
00000030: a540 f93d 33bf a73e 59a0 403f 1182 023f
00000040: 7e95 293f 290a f03e 88f5 9c3e d659 c83e
00000050: ff74 063f ee00 6d3e 0657 923d 6309 003e
00000060: e308 923e 2413 7a3f 9d78 0b3f 804e 3a3e
00000070: e209 803e 2728 273e 1a7e c23e 08e1 983e
00000080: 2d01 cc3e ed84 eb3e 3091 c23e eb79 033f
00000090: c423 1c3f d5d3 893f cb2a a03e 4b3b 493e
000000a0: cb1a b53e 83d6 a23d 4b80 aa3e ccfe 0f3f
000000b0: 410b 9e3e e0da 233f 52bf 5d3f 0e43 e53e
000000c0: 09db b33e 8226 223e 854c a93e 3e38 dc3e
000000d0: e998 a13e 92d1 793e b011 ac3e 80c7 9f3e
000000e0: 6dd9 9e3f e693 943e 7d6f 443e 4c18 243f
000000f0: 1ab8 513e 11c7 2e3e 3c0c c33f a98b 693e
00000100: 7db9 103e 715f a43d 88d4 d33d 288b 5a3f
00000110: eb1f 9c3d 4eb4 263f ecd0 9e3e f3ca 323e
0.581278 0.3196469 0.5964679 0.9693597 1.0043722 0.16252637 0.4267891 0.5243727
1.1609464 0.21349594 0.18572696 0.10146215 0.12170533 0.3276306 0.7524467 0.50979716
0.6624373 0.46882752 0.30656075 0.3913104 0.5252227 0.23144886 0.07145505 0.12503581
0.28522405 0.97685456 0.54480916 0.18194008 0.2500754 0.1632391 0.37986833 0.29859185
0.39844647 0.45999852 0.38001394 0.5135791 0.60992074 1.0767771 0.31282648 0.19651525
0.35372004 0.07951071 0.33301005 0.56248164 0.3086796 0.6400585 0.86620057 0.4477772
0.35128048 0.15835002 0.33066192 0.4301166 0.31561974 0.24396351 0.33607244 0.31206894
1.2410103 0.29019088 0.19183154 0.64099574 0.20480385 0.17068125 1.5238109 0.22807182
0.14133258 0.080260165 0.103432715 0.85368586 0.07623275 0.65118873 0.3101877 0.17460231

dense1.4.bn1.bias f4 [72]
00000000: d899 0bbf 508c 0cbd f40f 9cbe 5db2 70bc
00000010: 83cc bebe 2402 66bc fc35 dcbd 36c3 4e3b
00000020: d507 c93d a93d 8abb c102 08bd 4cfd a8bd
00000030: 05ca 2ebd 7e67 e8bd af09 713d aae1 88be
00000040: f4fc e6be 068e c2be affd 67be f783 abbe
00000050: a555 97be 51c1 1c3e 5175 213c 5d4e 6f3d
00000060: 0df9 433d 32fb 023e d282 48be 3d90 39be
00000070: d97a eb3c 5412 81bd 770f f7bc 4ae5 75bd
00000080: 238c 0fbe 0bd0 07be 7aec b6bd bb50 d83c
00000090: bc8b 1dbe 296c c5bd 5d36 e0be 81ab 02bd
000000a0: 1abb 41be 927c a7bd 8f6a 7cbd 60a5 13be
000000b0: b46e f9bc 29c7 4e3d e370 d3bd d1b7 cc3e
000000c0: 126d f93c b340 183d d47c 2abd a0d1 8fbc
000000d0: 25ba 563d 18cf 9cbd 27a6 073c 1e63 a4bd
000000e0: 842e 2fbe 0a7d 5fbc dedd 5f3c 4125 023e
000000f0: c4f7 42bd fdc6 53bd 4dce 88be 2ceb c83c
00000100: ec83 65bc 7200 cd3c d0ad 0fbd e6fe 833c
00000110: 9b54 a6bd 2f00 163e 4fde 223d a91a 253d
-0.5453162 -0.0343135 -0.3048092 -0.014690963 -0.37265405 -0.014038596 -0.10752484 0.003154946
0.09815947 -0.0042187762 -0.03320575 -0.082514375 -0.04267313 -0.113478646 0.058847126 -0.26734668
-0.45114863 -0.3799898 -0.22655366 -0.3349912 -0.2955753 0.1530812 0.009854631 0.058424342
0.047844935 0.12791136 -0.19581154 -0.18121429 0.028745102 -0.06302324 -0.030158741 -0.06003312
-0.14018302 -0.13262956 -0.08931823 0.026405683 -0.15385336 -0.096397705 -0.43791476 -0.03190184
-0.1891903 -0.08178057 -0.06162506 -0.14418554 -0.030448295 0.050482903 -0.10324266 0.3998399
0.030447517 0.037171077 -0.04162295 -0.017556012 0.052423615 -0.076566875 0.00827936 -0.080267176
-0.17107588 -0.0136406515 0.013663737 0.12709524 -0.04759957 -0.051703442 -0.26719895 0.024526201
-0.014008503 0.025024626 -0.03507787 0.016112756 -0.08121606 0.14648508 0.03976279 0.04030863

dense1.4.conv1.weight f4 [12, 72, 3, 3]
00000000: fc4b bebd b679 14be 67a5 d6bd 3db8 07be
00000010: 7830 37be 2e2b 1cbe b752 a1bd a1bf f3bd
00000020: feae e1bd 6158 37bc e1d7 6fbc 5bd1 d1bc
00000030: d445 923c 487e 3fbc 7785 55bb 22ae b43c
00000040: 2f26 e03c 11dd 433c 58fc 44bd bd80 9cbd
00000050: 093c a9bd d7a5 a2bd 71a1 cfbd 0663 c6bd
00000060: a413 83bd 9b59 ddbd 03f3 d9bd 6a52 a3bd
00000070: a0e5 4cbd 42a3 3fbd 7080 41bd 57cc 3ebd
00000080: 927e 74bc 530f adbd 0759 bfbd ac1f 34bd
00000090: 8419 7bbe 6957 55be 74d8 62be 2429 6abe
000000a0: bc70 61be fd37 6cbe 518b 76be 83bb 84be
000000b0: 234e 8bbe e801 aabc 97c4 debc 609b b5bc
000000c0: 5dd6 aebc 5206 02bd bb5c e8bc a2e2 ddbc
000000d0: ff72 f1bc 1da0 31bc 82cb 8fba b476 a3bb
000000e0: 5491 e73c 18d4 753b 957f e3bb 9073 3a3d
000000f0: 4d4b feb6 b311 943b 10c8 ff3c 68f1 3f3d
00000100: f03e 773c 8d41 1d3c 12b9 a43c cb9d a7bc
00000110: 41da a8bc cded 50ba efe0 adbc 7585 1bbd
00000120: 3c46 003e 630f 743d ffb7 d23c 033b b93d
00000130: 2f7e 18bc 537d ccbd a4d7 a6bd b0c7 eebd
00000140: 48f4 4abe f1b1 09bd 8c86 f1bc 62ed 68bc
00000150: 1e30 3bbd 3a39 b0bc 18e8 dabb d601 1cbd
00000160: 24bc b3bc e630 aebc 3ca0 19bc b3fb 3ebc
00000170: c7e0 20bc 9a97 cbbc bc9e f4bc 3d91 96bc
00000180: 26fe a9bc 874e bbbc 5657 3dbc 3708 963b
00000190: e081 f73b eead ca3b d226 3fbc aeaf 1abc
000001a0: f103 ffbb 097e 40bc 851d b8bc 3b78 3dbc
000001b0: 2847 a5bb aa60 05bc 785b 763a 8913 56bb
000001c0: dbe5 beba ee9f fbb9 36d9 4fbc a9f6 48bc
000001d0: 627f a7bb aa63 77bd 8a44 0abd 6a07 20bd
000001e0: e09c 95bd 4178 34bd 05c9 0dbd 1421 77bd
000001f0: c8c5 5abd 4820 2fbd 4f6c abbd f844 7abd
00000200: c4ca 00bd 02b3 59bd 6881 76bd dcf1 99bc
00000210: e69d b3bd ab50 97bd fa0e 27bd 1f9d 6dbd
00000220: e292 d2bd 2a98 26bd 09be acbc c1f2 9ebd
00000230: 9279 33bd d9bf c43b be63 82bd 3cfe 50bd
00000240: c0a7 7fbd 2dae 63bd 8f41 0fbc 3e56 86bd
00000250: aaae 3ebd 8c5a 793b b7db 55bd 3e8a 2bbd
00000260: 6f44 07bc a415 13bd edc6 e9bc 5b95 0dbd
00000270: c27c bbbc 1d7e f1bc 134a f7bc 6ed0 14bd
00000280: e773 58bd 5e0d 8ebd 8aef 58bd 84a5 85bd
00000290: b1a2 45bd 1df7 e7bc cf73 11bd 3449 06bd
000002a0: b1a6 09bd 4115 04bd 88dc 50bd a75c 2abc
000002b0: f056 87bc 7666 43bc 2745 b93b 6fea 723c
000002c0: 2030 7ebb a6f9 ad3c 8c6d 913c 262b 013c
000002d0: 2fb1 d2bb cdb8 74bd ddf9 adbd fc38 4b3d
000002e0: 4824 d3bc 7412 3dbd 38af a33d 6c2f 103d
000002f0: a414 91bc f58e c3bd ff6f d6bd 42b3 c1bd
00000300: c87f b2bd 6082 f6bd e787 d1bd 8fda 8bbd
00000310: a759 adbd 54c6 90bd ac05 3abb 64f2 263c
00000320: 5f73 4e3b ac20 ef3c 872f 803c 31a3 f43c
00000330: d06c ea3c 6aaa 173d d982 023d ffdf 5abd
00000340: 78ff 90bd f014 68bd ac01 b6bc 4e0c 97bc
00000350: a303 95bc 26fa 6dbb 1ce2 66bb e726 aebb
00000360: 51bd f8bb fbec c2bc c359 67bc 970a 01bd
00000370: 137d 57bd a621 31bd 1320 b3bc c1ff 6dbd
00000380: d77e 1fbd b4fd 25be efa1 49bd 7058 783c
00000390: 71b2 cfbd 5d29 c4bd 4a2c 15bd b9b8 4cbb
000003a0: d50b 07be 55de 4abe 932e cabd adfb 11be
000003b0: 0155 12be 704a 89bc 9b3c 58bd bb4b 8fbd
000003c0: fb1b 933b 82ee c3ba 4d8f 3cbb 6937 f0bc
000003d0: d64d 08bd 01c3 21bc 6980 66bd 5f1e 41bd
000003e0: 66df dabc e5cf 37bd 7857 edbc 43fc 253c
000003f0: 844c 80ba ad38 3ebd 4f6e 83bd c3d0 fc3c
-0.092918366 -0.14499554 -0.10480767 -0.13253875 -0.17889583 -0.15250847 -0.07877105 -0.11901785
-0.11019705 -0.011190505 -0.014638872 -0.025612524 0.017855562 -0.011687823 -0.0032580772 0.02205569
0.027361957 0.011954562 -0.048092216 -0.076417424 -0.08263404 -0.07941788 -0.101382144 -0.09686856
-0.064002305 -0.108081065 -0.10642054 -0.079747036 -0.050023675 -0.046786554 -0.04724163 -0.046581592
-0.014922755 -0.084501885 -0.093431525 -0.043975517 -0.24521452 -0.20834126 -0.22152883 -0.22867256
-0.22015661 -0.23068233 -0.24076582 -0.2592431 -0.2720805 -0.020752862 -0.02719335 -0.022168815
-0.02134245 -0.03174431 -0.02836453 -0.027085606 -0.02947378 -0.010841397 -0.0010970684 -0.0049885157
0.02826754 0.003751045 -0.006942699 0.045520365 -7.578556e-06 0.0045187115 0.031223327 0.046861082
0.015090689 0.009598148 0.02010778 -0.020460984 -0.020611884 -0.00079700054 -0.02122542 -0.03796907
0.12526792 0.059584986 0.025722502 0.09044459 -0.009307428 -0.09984841 -0.08146599 -0.11659181
-0.19819748 -0.033616964 -0.029483102 -0.014216753 -0.045700185 -0.021511663 -0.0066804998 -0.03808769
-0.021940298 -0.021263551 -0.009376582 -0.011656689 -0.009819216 -0.024852563 -0.029860847 -0.018379802
-0.02075107 -0.022864593 -0.011556467 0.004578616 0.007553324 0.006185285 -0.01166697 -0.009441299
-0.0077824523 -0.011748799 -0.022475014 -0.01156431 -0.005043883 -0.008140722 0.0009397785 -0.0032665452
-0.0014564352 -0.00047993608 -0.0126860645 -0.01226584 -0.0051116208 -0.06039778 -0.03375677 -0.03906957
-0.07305312 -0.044059996 -0.034615535 -0.06033428 -0.053411275 -0.042755395 -0.083702676 -0.06110093
-0.031443372 -0.05314923 -0.060182005 -0.018792085 -0.08770351 -0.07388433 -0.040785767 -0.05801117
-0.10281922 -0.04067246 -0.02108671 -0.077611454 -0.04381711 0.0060043153 -0.063666806 -0.051023707
-0.06241584 -0.05558603 -0.008743658 -0.06559418 -0.04655329 0.0038048355 -0.05221149 -0.041879885
-0.008256062 -0.03590931 -0.028537238 -0.034566265 -0.022886638 -0.02947908 -0.030186689 -0.036331587
-0.052844908 -0.06936143 -0.052962817 -0.0652571 -0.048250858 -0.028316075 -0.035510834 -0.032784656
-0.033606235 -0.03224683 -0.050991565 -0.010398067 -0.016520947 -0.011926284 0.0056539956 0.014826401
-0.003878601 0.021237206 0.017752431 0.007883823 -0.0064298133 -0.059746552 -0.08494923 0.04961489
-0.025774136 -0.046160176 0.07992405 0.035201475 -0.017710038 -0.09548751 -0.1047058 -0.09458019
-0.087157786 -0.12036586 -0.102309994 -0.06828796 -0.084643655 -0.07069078 -0.0028384728 0.010189626
0.0031501872 0.029190384 0.015647663 0.029862972 0.028616339 0.037027754 0.031863067 -0.053436276
-0.07079977 -0.056660593 -0.022217594 -0.018438485 -0.01819021 -0.003631243 -0.0035229987 -0.005314696
-0.0075909276 -0.023794642 -0.014120522 -0.03150424 -0.052609514 -0.04324498 -0.02186588 -0.058105234
-0.038939323 -0.16210061 -0.049226698 0.015157804 -0.10141457 -0.09578202 -0.03641919 -0.0031238033
-0.13188107 -0.19811375 -0.098721646 -0.14256163 -0.14290239 -0.016759127 -0.052792173 -0.06996866
0.0044894195 -0.00149484 -0.0028771937 -0.029323297 -0.033277355 -0.009873153 -0.056274805 -0.047148105
-0.026717853 -0.044875998 -0.028972372 0.010130945 -0.0009788428 -0.04644077 -0.06417524 0.030861264
