independent_train_0.0/client17/checkpoint_0.0.pth (torch, 930411 bytes, 56 tensors)

conv1.weight f4 [24, 3, 3, 3]
000000 90 f5 4d 3e 2f 47 c2 be 41 e1 b1 3e 15 b6 86 bf
       0.20113206 -0.37944934 0.34742168 -1.0524317
000010 69 b9 d6 bf 81 90 4b bf de a5 4d bf 3c 9c bd bf
       -1.6775333 -0.7951737 -0.8033122 -1.4813304
000020 5d be 15 bf 39 2b 82 3e 5f 19 cc 3e 32 f5 90 3e
       -0.58493596 0.254236 0.39863107 0.2831207
000030 cb a9 e8 3e 1b 1b 36 3f 56 3e 0f 3f 60 aa 87 3e
       0.45442042 0.7113511 0.5595449 0.26497173
000040 19 66 e3 3e d2 65 c7 3e fa 5d 1f bf 37 02 0b be
       0.44413832 0.3894487 -0.6225277 -0.13575064
000050 01 53 52 bf 30 de 00 3f 10 6d 9a 3f 87 4c b7 3e
       -0.82157904 0.5033903 1.2064533 0.35800573
000060 73 f1 a2 3e c1 fe 72 3f b0 36 50 3e e9 b3 df 3d
       0.31824836 0.94919974 0.20333362 0.10922987
000070 59 46 d2 3e 1d 51 1d 3e 5c fe 70 bf 94 cb 8a 3e
       0.41069296 0.15362974 -0.9413812 0.27108443
000080 4b 46 9a 3e 8f 86 5a bf 01 e5 4c 39 52 a1 92 3e
       0.30131754 -0.8536157 0.00019540267 0.28638703
000090 b9 0e 64 be 3d 8a c8 3e 37 53 40 be bc 25 54 bf
       -0.22271241 0.39167967 -0.18781744 -0.8287008
0000a0 4d cc 45 3f fc ec ea 3e 52 ef 50 bf 13 58 f1 3e
       0.77264863 0.4588393 -0.81615174 0.47137508
0000b0 7b 5c e5 3e 6c a9 87 be 67 3e e9 3d 8d 88 fb be
       0.4479712 -0.26496446 0.113888554 -0.49127617
0000c0 56 9b f7 be 45 8b 43 3f 1d b8 81 3e 08 1e db be
       -0.483607 0.76384383 0.2533578 -0.4279635
0000d0 5e f2 2c 3f 19 26 c1 3e d4 82 a4 3c b9 b0 83 be
       0.6755732 0.3772438 0.020081915 -0.25720766
0000e0 2b 57 17 bc 97 db e6 be 3d db 3b bf a1 bd e8 be
       -0.009237091 -0.4508941 -0.73381406 -0.45457175
0000f0 3c 1d 87 be a4 bc 0c bf 4b e7 98 be e7 77 67 3e
       -0.26389492 -0.5497534 -0.29863963 0.22604333
000100 6e 02 a3 3e 88 cc 7c 3e ce 52 47 3e 23 e1 a9 3e
       0.3183779 0.24687397 0.19465181 0.33179578
000110 2a fb 83 3e 5d f8 40 3e 9f e0 94 3e 1e ac 6e 3e
       0.2577756 0.18844743 0.29077622 0.23307845
000120 4b 58 14 bd da ec 6f 3e b8 8b 64 bd 27 cc 85 3e
       -0.036217015 0.23430195 -0.05579731 0.26132318
000130 f8 6f 20 3f 83 12 85 3e ee 13 00 3e 81 13 e1 3e
       0.6267085 0.25990686 0.12507603 0.43960193
000140 a8 0b be 3d ae b2 5d be 37 71 96 bf 36 da 14 bf
       0.09279567 -0.21650192 -1.17533 -0.58145463
000150 6b 5a 93 3d e9 22 75 bc af 3d 81 3e a2 51 77 bc
       0.0719498 -0.0149619365 0.25242373 -0.015095146
000160 b6 57 20 3f 88 a2 fb 3e 5b 07 68 be 69 d3 98 bf
       0.62633836 0.4914744 -0.22659056 -1.1939517
000170 e1 ee 49 bf 6c 78 9c 3e b8 fd 64 3e c0 33 92 3e
       -0.78880125 0.30560625 0.22362411 0.28555107
000180 20 61 59 3e 16 15 66 3f 47 62 0b 3f 3d 74 68 be
       0.21228456 0.89875925 0.54446834 -0.22700591
000190 34 ae 92 bf 52 f8 4a bf 02 7a 86 3e a4 71 a5 3d
       -1.1459413 -0.79285157 0.2626496 0.08078316
0001a0 58 c1 19 3e b5 16 c8 3e 15 dd 63 3f a2 e7 1e 3f
       0.15015161 0.39079824 0.8900922 0.62072194
0001b0 27 3b 56 bf ff fc 37 bf 71 08 7b bf f9 80 3f 3d
       -0.8368401 -0.71870416 -0.98059756 0.046753857
0001c0 90 93 1c 3f 38 93 23 be 27 06 1d 3f 0b 9f 8e 3f
       0.6116266 -0.15974128 0.6133751 1.1142286
0001d0 e4 53 c4 3e 75 aa 12 3e a4 4c df 3e 04 9a 41 3d
       0.38345253 0.14322837 0.4361316 0.04726602
0001e0 ac c5 d5 3e 39 ce 86 3f ac 2f 87 3e 13 05 5b 3e
       0.41752374 1.0531684 0.26403558 0.21388654
0001f0 dc 45 30 3f 02 3d 9a 3d bf de 1a 3f df 67 67 3e
       0.68856597 0.075311676 0.60496134 0.22598217
000200 dc de 64 3f 03 f5 33 bf 40 79 74 bf c6 e0 99 be
       0.89402556 -0.70295733 -0.9549751 -0.300543
000210 7e 98 6c bf 6b 0f ad bf bb bc 07 bf f0 18 fb bc
       -0.92420185 -1.352033 -0.53022355 -0.03065154
000220 63 b4 fb be 1a 48 2c bd 8b 25 83 bd 21 8a 38 3e
       -0.49161062 -0.04206095 -0.06403645 0.18021442
000230 f8 9a 67 3e 48 e4 80 be e0 f0 b1 be e5 15 88 be
       0.2261771 -0.25174165 -0.34754086 -0.26579204
000240 89 7f 42 be b8 9c be be 0b 5d 82 be 24 30 80 3e
       -0.18993963 -0.37228942 -0.2546161 0.25036728
000250 cd 3e 65 3f 9a 09 10 3f e2 a7 93 bd 46 1f 7c 3e
       0.8954895 0.5626465 -0.072097555 0.24621305
000260 3d 4e 4e bd 20 a8 0a bf 09 7f 37 bf fb ba 38 bf
       -0.050367583 -0.5416279 -0.71678215 -0.7216031
000270 d4 81 17 3e 18 18 3c 3f a6 02 a0 3e 74 f6 ce 3d
       0.14795619 0.73474264 0.3125202 0.10105601
000280 53 53 e6 3e 4a 6c ce 3d 2b ec 1c 3f 9f 7d 90 3d
       0.44985446 0.10079248 0.61297864 0.0705521
000290 fa 85 a8 be 24 18 9a 3f 71 57 7d be bd 82 c3 bf
       -0.32914716 1.2038617 -0.24740387 -1.5274273
0002a0 99 c6 f6 3d dd df a6 bd 52 29 0b be f4 85 83 3f
       0.12049598 -0.08148167 -0.13589981 1.0275254
0002b0 78 40 4a 3d 44 76 5e bf ba 7b e7 3f 85 90 a4 bd
       0.04937789 -0.8689921 1.8084633 -0.080353774
0002c0 03 cf f9 bf ea f9 22 3f f3 96 cc 3d 9f d3 ce be
       -1.95163 0.6366259 0.09989729 -0.4039583
0002d0 ee 93 e3 3e 82 07 71 3c 5e 79 ef be b7 2a 95 3f
       0.444488 0.014711263 -0.46772283 1.165366
0002e0 91 83 9b bd 48 80 ba bf d4 86 9c 3e c0 37 e3 3d
       -0.07593454 -1.4570398 0.30571616 0.11094618
0002f0 84 84 35 be 07 e9 1c bf db ae df bd 30 be e8 be
       -0.17726332 -0.6129307 -0.10922023 -0.45457602
000300 97 6e 79 be 5b 7c 3a 3e 08 cb f7 3d 7c 35 36 be
       -0.24358593 0.182115 0.12099272 -0.1779384
000310 f6 11 8c be e8 8d d8 3e 33 f2 86 3e 68 41 62 3f
       -0.27357453 0.42295766 0.26356658 0.8838105
000320 73 91 98 3d 95 fb 92 3e 63 6f 54 3f 90 df b9 3e
       0.07449617 0.28707567 0.8298246 0.36303377
000330 01 05 1f bf dc 11 1e bf 15 48 14 be 53 cb 85 3e
       -0.6211701 -0.61746 -0.14480622 0.26131687
000340 d7 24 37 3f 50 40 b2 bd 3f 03 d1 3e 58 e1 44 3f
       0.7154059 -0.08703673 0.4082279 0.7690635
000350 82 3b 13 3e 91 5b 39 bf e6 32 55 bf 32 e1 25 bf
       0.14378169 -0.72405344 -0.8328079 -0.64796746
000360 43 b3 5f 3f cf d6 ea 3f 9a cb 9b 3f 85 53 58 bc
       0.87382907 1.8346804 1.2171509 -0.013203506
000370 22 95 5f be e6 b6 21 bd ed d7 5c bf 14 69 f1 bf
       -0.21834233 -0.039481066 -0.86266977 -1.8860192
000380 11 3e 67 bf ca 94 11 3f 34 9c b3 3f c2 fb 1c 3f
       -0.9032908 0.5686766 1.4032044 0.6132165
000390 24 41 02 3e 07 c8 fd bd 71 5f 35 be 74 e4 00 bf
       0.12720162 -0.12391668 -0.1771219 -0.5034859
0003a0 69 c7 c1 bf 1a 38 35 bf f7 fe 5b be 96 e7 2b 3f
       -1.513898 -0.7078873 -0.2148398 0.6715025
0003b0 18 a5 59 3b 23 17 d8 3d 67 61 42 3e a2 e5 b1 3d
       0.0033209976 0.10551288 0.18982469 0.08686377
0003c0 8b 0d 71 bd 06 17 1a bf a5 00 ae bc 56 55 c1 be
       -0.058850806 -0.6019138 -0.021240542 -0.3776042
0003d0 97 bc 8a bd d5 9d 45 3f bf 78 fb 3e 25 04 84 3e
       -0.06774252 0.7719396 0.4911556 0.25784412
0003e0 c0 31 ef bf 8e ed 0f be 24 c4 52 3f 04 79 c9 be
       -1.8687057 -0.14055464 0.82330537 -0.3935014
0003f0 60 b8 1f bf da de 1c 3e 71 23 51 3f 9c 2f 06 3f
       -0.6239071 0.15319386 0.81694704 0.52416396

dense1.0.bn1.weight f4 [24]
000000 02 b1 d8 3e 7f 66 77 3f a0 0e 1e 3f 56 5c 46 3f
       0.42322546 0.9664077 0.61741066 0.77484643
000010 c6 91 2c 3f 55 a7 87 3f d6 7d 04 3f 40 8f 84 3f
       0.6740993 1.0597941 0.5175451 1.0356216
000020 7b d6 36 3f a6 55 e6 3f 5f b9 01 40 f2 c2 24 3f
       0.7142102 1.7994888 2.0269392 0.6435996
000030 6a 06 81 3f 91 72 c6 3e a3 e7 2c 3f 50 5e 0c 3f
       1.0080082 0.38759282 0.6754095 0.5483141
000040 f2 03 dd 3e 5a 29 b7 3e 1f ad 34 3f a9 48 ec 3e
       0.43167073 0.35773736 0.7057666 0.46149185
000050 07 4f 5d 3f 80 85 2d 3f 20 a8 db 3e c2 c2 02 3f
       0.8644871 0.6778183 0.42901707 0.51078427

dense1.0.bn1.bias f4 [24]
000000 ce 00 59 be dd 42 14 3f 79 b7 c5 be 55 e6 e7 3e
       -0.21191713 0.57914525 -0.3861654 0.45292917
000010 da c1 91 3e 4b 90 be 3e b6 6c 1f 3f 07 04 ce 3e
       0.2846821 0.37219462 0.62275255 0.40237448
000020 d8 a2 10 3f 24 44 7d 3f 54 1f 93 3f e0 18 66 3d
       0.5649848 0.989321 1.1493936 0.056176066
000030 64 3c 76 3e 79 90 7c 3e 1d 8e 7b 3e 29 2b 15 bf
       0.24046475 0.24664487 0.2456593 -0.5826898
000040 a3 d7 60 be 61 cf 53 be f9 7c e0 be 24 07 7a be
       -0.21957259 -0.20684578 -0.43845347 -0.24416786
000050 6f 95 2b bf c1 bf 0f bf ea b3 a7 3e a9 6e 2b bd
       -0.6702489 -0.5615197 0.3275445 -0.04185358

dense1.0.conv1.weight f4 [12, 24, 3, 3]
000000 1b 09 c5 3b 1d 72 04 3e f0 30 85 bc bb ff d5 3c
       0.0060130483 0.12934156 -0.016258687 0.026122918
000010 ee 8a 22 3e 45 f5 d2 3c a0 8a 86 bd 41 58 27 3d
       0.1587331 0.02575172 -0.06569409 0.04085565
000020 03 9c 98 bd b9 3e 6f 3e 3b a0 b5 3e db e0 a7 3e
       -0.07451632 0.2336377 0.3547381 0.3278874
000030 fc 8b b1 3d 93 a4 91 3e 28 7c a2 3e 03 19 96 be
       0.08669278 0.28445873 0.3173535 -0.29315957
000040 5b 42 b1 bd cb 78 a0 bd a2 99 d4 3c 2a 4f ee 3d
       -0.086552344 -0.078355394 0.025952164 0.11636193
000050 39 2b 1a bc c6 ef e7 3d fb e3 38 3e 38 fe 68 3d
       -0.009409719 0.1132503 0.18055718 0.056883067
000060 cc 3b dd 3d 4a ad 32 3e 26 ca b6 3d d2 a8 54 bc
       0.10802421 0.17448917 0.089252755 -0.012979703
000070 f9 94 c3 3d ca 5b 12 3e e3 41 04 bd 63 f8 15 3e
       0.09549899 0.14292827 -0.032289397 0.14645533
000080 8c ea 43 3e e0 7d bd 3d 4b c4 74 3e c8 c7 64 3e
       0.19132441 0.092525244 0.23903005 0.22341835
000090 42 42 d9 bc e5 53 64 be 83 77 5b be b4 db 9b 3e
       -0.026520852 -0.22297628 -0.21432309 0.30441058
0000a0 b3 41 fa 3d 1e ed 48 3d 17 43 1f 3f 32 5e 02 3f
       0.122195624 0.049054258 0.62211746 0.5092498
0000b0 84 e3 bd 3e cb b7 99 3e aa 44 f7 3e 50 fb 7a 3e
       0.37087643 0.30023035 0.48294574 0.2450993
0000c0 b5 f9 0e 3e cb e5 b8 3e 7c 0c 12 3e 3f f2 56 be
       0.13962443 0.36112818 0.14262575 -0.20990847
0000d0 59 da f0 3c 9f 68 da bd 1a 6f ed 3d 2a 1c 08 3e
       0.029400991 -0.10664486 0.115934566 0.13291994
0000e0 23 26 81 3e 36 03 63 3e e7 b7 64 3e 08 61 42 3e
       0.25224409 0.22169194 0.22335778 0.18982327
0000f0 e4 31 05 3d 46 c1 2b be 36 17 10 be a2 98 09 bf
       0.032518283 -0.16772947 -0.14071354 -0.53748524
000100 3f 3f 6a be 19 c0 4b be 67 cc 2b 3d ee 79 d6 3e
       -0.22875689 -0.19897498 0.04194298 0.418899
000110 b7 12 b7 3e 14 b4 eb 3d 90 ce 04 3f c1 98 c4 3e
       0.35756466 0.115089566 0.5187769 0.38397792
000120 04 ca 8c 3d c3 51 7c 3e 57 61 d7 3d d2 d3 4a 3d
       0.06874469 0.24640565 0.10516613 0.049518414
000130 06 7c 4a 3e d1 06 b0 3d 5c e2 91 be b9 d1 56 be
       0.19773874 0.0859505 -0.2849301 -0.2097844
000140 d0 ef 36 be 6b 36 05 3e bc dd c2 3d fe fc af be
       -0.17864919 0.1300904 0.09514949 -0.34372705
000150 96 56 02 3f 7e 56 f6 3e 9b 5d 10 be 59 8d 07 3e
       0.5091337 0.48112863 -0.14098208 0.13237514
000160 1d 47 b8 3d 4b 61 55 be b9 d8 ca bd 29 02 a3 3d
       0.08997939 -0.20837896 -0.09904618 0.079593964
000170 83 9d b6 bd f2 0e 41 bc 19 d2 8e 3e 70 9c 38 3d
       -0.08916762 -0.011783348 0.27894667 0.045071065
000180 31 31 6a be 15 67 87 3e d9 d9 9b 3d 14 de dd be
       -0.22870328 0.26445833 0.076099105 -0.43333495
000190 15 77 86 be ef 13 a3 3c 11 de 5d be fc 55 6d bc
       -0.26262727 0.019906966 -0.21666743 -0.014485832
0001a0 bf f2 64 3e 5a 23 46 3e a5 b3 dd 3e 06 6c 0a 3f
       0.22358225 0.19349423 0.4330112 0.5407108
0001b0 2f 01 98 be 25 84 a7 be 56 2e 54 bd f8 b0 c4 be
       -0.29688403 -0.32718006 -0.051802002 -0.38416266
0001c0 dd 2d da be 3e 54 0a be 1f 9f 47 be ef 1f 6c be
       -0.42613116 -0.13508698 -0.19494294 -0.23059057
0001d0 c0 53 90 bb 76 5c 2e be 7c 46 7c be 10 d9 bd bc
       -0.004404515 -0.17027459 -0.24636263 -0.023174793
0001e0 7f bd 8d be 65 25 c6 be d8 98 0c be 7b 43 da bd
       -0.27683637 -0.38700405 -0.1373018 -0.10657402
0001f0 aa 4b 45 be 2f d3 90 38 6a 99 28 be 51 9c 67 be
       -0.19267145 6.905791e-05 -0.16464773 -0.22618224
000200 c0 d4 8a be 82 82 19 be b6 33 25 be c3 08 5f be
       -0.2711544 -0.14991191 -0.16133007 -0.21780686
000210 18 78 b0 bd f4 49 ec bd 70 b0 60 be a5 55 c0 bb
       -0.08616656 -0.11537543 -0.21942306 -0.0058695846
000220 a5 f9 56 bb 0b 3e 8b 3c 04 21 ec bd de 8c d7 bd
       -0.0032802608 0.016997358 -0.11529735 -0.10524915
000230 c2 73 8b bd 31 8a 10 be 58 93 ec bd a8 e1 b7 bd
       -0.068091884 -0.14115216 -0.11551541 -0.089785874
000240 c6 33 bb 3c 72 6e ad bd 13 02 96 3c 98 97 80 bd
       0.022851836 -0.084683314 0.018311536 -0.06278914
000250 14 46 62 be cd f5 0f be 9d e0 3b 3d 13 28 04 be
       -0.22097045 -0.1405861 0.045868505 -0.12905912
000260 c4 95 96 bd c9 08 b2 bd c8 98 3e bd ec 61 16 be
       -0.07352784 -0.08693082 -0.046532422 -0.14685792
000270 a5 8c df bc 78 6b f9 bb 65 ad df bd 03 40 9d bd
       -0.027288744 -0.007611688 -0.10921744 -0.07678225
000280 a3 7f 62 bd a0 81 1d be cc b7 d8 bc 49 f6 09 be
       -0.055297505 -0.1538148 -0.026454829 -0.13472857
000290 c2 18 d6 bd 0c 7f 3b be 7e bc 93 be 5a 3f 85 be
       -0.10453941 -0.18310183 -0.28854746 -0.26024896
0002a0 85 f7 53 bd 5f c2 06 be 26 a7 c4 bd e1 aa d1 bd
       -0.051749725 -0.13160084 -0.096021935 -0.10237671
0002b0 f6 cc 90 bd 1b 9d 56 bc d1 bd 13 be ae 0c e2 bd
       -0.07070343 -0.01309898 -0.14427878 -0.11037575
0002c0 d2 b9 3c bd 84 76 61 bd d3 fd 1d bd b0 26 e5 3c
       -0.04607565 -0.055044666 -0.038572144 0.02797255
0002d0 ed e5 39 bd ec b9 6c bc c1 fb 1c be ec 77 b6 bd
       -0.04538529 -0.014448624 -0.15330411 -0.08909592
0002e0 10 53 0a bd 53 2f ae bd 89 7f f1 bd 80 e2 ba bc
       -0.03377062 -0.0850512 -0.117919035 -0.022813082
0002f0 d6 b1 dc bd 3d f5 04 be 93 99 9e bd 01 3b 5a be
       -0.10776107 -0.12984176 -0.07744136 -0.2131157
000300 be 33 2f bd 5d 97 4e 3c 08 f6 1c be 82 be 60 bd
       -0.042773955 0.01260933 -0.15328228 -0.054869182
000310 0a 1b 11 ba b5 3b 0a be 25 b0 f2 bd cb 22 2d be
       -0.000553534 -0.13499339 -0.11850003 -0.16907804
000320 46 39 85 be bd 01 0d be 13 cd 4a be fe 8e a1 be
       -0.2602026 -0.13770194 -0.19804792 -0.31554407
000330 d3 67 7c be 74 51 9a be 71 f2 de be 90 1a 6c bd
       -0.24648981 -0.3014027 -0.43544343 -0.05764252
000340 69 18 61 bd 92 34 6c 3d 90 17 f9 bd 5b d1 fc bd
       -0.05495492 0.057667322 -0.12162697 -0.12344619
000350 d6 35 16 3c 83 8c ca 3c 8b d8 27 3d ec fd 08 3e
       0.009168109 0.024725204 0.040977996 0.13378114
000360 e7 26 9a bc 2a 2f 63 bd f1 e2 ba bc 3b b7 91 bc
       -0.018817378 -0.0554649 -0.022813292 -0.017787566
000370 7d 1c d2 bd 8c 7b 4e bd 9b 05 09 3e e1 4b ad 3d
       -0.1025934 -0.050410792 0.13381045 0.084617384
000380 8f 2e b0 3d a3 d6 1f 3d 96 6b a6 3d 70 d2 40 3e
       0.0860263 0.039023053 0.08125989 0.18830276
000390 f5 e7 09 be 5c 78 d2 bc d0 75 c9 3d 8f 87 70 3d
       -0.13467391 -0.025692157 0.09836924 0.05872303
0003a0 03 bc 1a 3c b4 2b 11 be 0c 0a 54 bd 4a 7b 4d bd
       0.00944424 -0.14176828 -0.051767394 -0.050166406
0003b0 8c e4 60 bc bf 15 86 bd 95 a8 b3 bd 41 62 3e bd
       -0.013726365 -0.065471165 -0.08772389 -0.04648042
0003c0 91 76 3e 3c af 11 2c bc 1b f5 b0 3c be 27 01 bf
       0.011624948 -0.010502263 0.02160125 -0.50451267
0003d0 ed a2 27 bf 80 b8 ba be ea 0c 2f be ea 86 c7 3b
       -0.6548298 -0.36468887 -0.1709477 0.006089081
0003e0 96 2f 7b bd 6a fc dd 3e a6 e9 2d 3f 0f e4 2d 3e
       -0.06132468 0.4335664 0.67934644 0.16981529
0003f0 99 35 4c be 5b 6b 95 be 07 f8 1b be ee 35 d8 3c
       -0.19942321 -0.29183468 -0.15231334 0.026392903

dense1.1.bn1.weight f4 [36]
000000 a2 e2 17 3f 94 c5 ca 3e 74 30 8f 3e 0f 00 a1 3e
       0.5933019 0.39603865 0.27966654 0.31445357
000010 68 ff 39 3f c5 f4 c1 3e 92 a3 e9 3e aa a8 95 3e
       0.72655344 0.37882057 0.45632607 0.29230243
000020 c4 36 c2 3e 77 cd f4 3e 93 a2 bd 3e 9d 4d 97 3f
       0.37932408 0.47813007 0.37038097 1.1820561
000030 da 74 05 3e 03 62 0d 3e 07 3d 99 3e 9f fa 49 3e
       0.13032857 0.1380692 0.29929373 0.1972451
000040 b8 ad 8f 3f 2a ed 89 3f 5d a8 14 3f f2 01 36 3f
       1.122489 1.0775502 0.580694 0.7109672
000050 74 c4 20 3f 9e 40 6b 3f c1 2a a3 3e c3 99 c7 3e
       0.62799764 0.91895473 0.31868556 0.38984498
000060 50 77 e2 3e c0 58 42 3f 20 99 7b 3f c9 33 9c 3f
       0.44231653 0.7591667 0.98280525 1.2203304
000070 3d a4 0a 3f f3 6e 30 3e 7b 6e 75 3f a0 cd a8 3f
       0.5415686 0.17229824 0.95871705 1.3187752
000080 f3 53 48 3f 48 52 12 3f 03 0e c8 3e ca 50 3c 3f
       0.78253096 0.571568 0.3907319 0.73560774

dense1.1.bn1.bias f4 [36]
000000 55 23 31 3e 3d a3 33 be 9b a7 3d be bd 8f be be
       0.17298634 -0.17542739 -0.18520968 -0.3721904
000010 2c 8d b2 3e d6 bb 46 be 7f 95 a7 3c 33 88 c2 bd
       0.3487333 -0.19407591 0.020457027 -0.09498634
000020 84 f2 03 3e da e3 04 3d db b6 65 3d c8 f4 09 be
       0.12885481 0.03244386 0.056082588 -0.13472283
000030 e4 a9 0a bc 3b 79 41 be 47 9b 4a be 51 cb 2e be
       -0.008463357 -0.18893902 -0.19785796 -0.17069747
000040 b5 dd 49 be 6d bc a4 3e f9 45 76 be fe 4d b7 be
       -0.19713481 0.32175007 -0.2405013 -0.3580169
000050 e8 ab e5 be 88 cb fa be c8 04 a5 3d 67 6d 58 be
       -0.44857717 -0.48983407 0.080575526 -0.21135484
000060 78 86 92 be bd 5c 54 3f 80 e7 cc 3e 38 01 a4 3d
       -0.28618217 0.8295401 0.4002037 0.08008045
000070 34 2e 87 be cf ed 30 be c4 42 fc bd d8 5e 21 3f
       -0.26402438 -0.17278217 -0.12317422 0.63035345
000080 cf 8b ff bc e9 9f 2f be 59 e9 e1 bd 4a a8 4d 3e
       -0.031194596 -0.17150845 -0.11030836 0.20083728

dense1.1.conv1.weight f4 [12, 36, 3, 3]
000000 75 54 e8 bd e6 35 29 3e c5 e3 de 3e a4 a4 8f be
       -0.11344234 0.16524467 0.4353315 -0.28055298
000010 27 02 bf bb 1f ea 99 3e f3 f6 ad be 06 74 49 be
       -0.005829114 0.30061433 -0.3397747 -0.19673166
000020 1d 11 b8 3d d3 c2 c4 bc 93 a6 c1 bc 45 2f 4c be
       0.08987639 -0.02401868 -0.023639 -0.19939907
000030 b7 fb a0 bd 4d ed 46 bc 52 6f 0e be 31 b3 05 bd
       -0.07860511 -0.012141538 -0.13909653 -0.032641593
000040 71 82 04 bd 97 93 57 bc e3 85 8a bd fd 73 2d 3d
       -0.03235096 -0.013157747 -0.06763818 0.042346943
000050 14 d7 12 3e b2 4c ab bd 2e 58 30 3d d3 89 01 3e
       0.14339858 -0.08364238 0.043052845 0.12650232
000060 ee d1 6e bd 88 af ec 3c aa 82 ea 3d 38 1b 71 bd
       -0.058305673 0.028892294 0.114507034 -0.05886385
000070 7a 61 6f bb bd bb 87 3d c9 57 1c 3d f3 07 83 bc
       -0.0036526606 0.06627605 0.038169656 -0.015995001
000080 a6 c5 99 3d 57 dc ef 3d 68 3f 1d 3d 6d 17 fb 3d
       0.075084016 0.11711948 0.038390547 0.122603275
000090 c3 22 13 be 5a 6f e3 3e b0 72 71 3e a1 d7 4b be
       -0.1436873 0.44420892 0.23578906 -0.19906475
0000a0 e5 32 91 3e ac 56 b0 3d 4f 4a 3d be 2f d7 52 bd
       0.28359142 0.08610281 -0.18485378 -0.051474746
0000b0 8d ee 3f be c6 87 fc bc 91 59 18 bc 2f 1b ec 3b
       -0.18743344 -0.03082646 -0.009298698 0.007205389
0000c0 a7 b4 00 bd 7f 3a 1a bd 5b ba dc ba f6 44 9c bb
       -0.031422284 -0.037653442 -0.0016840206 -0.004768963
0000d0 bb 15 d4 bc 39 7c 02 3d 48 cc 18 be 2f 4e 43 be
       -0.025889268 0.03185675 -0.14921677 -0.19072793
0000e0 5c 4d d9 be c2 65 2b be 0b b6 91 bd e5 b3 07 be
       -0.42441833 -0.16738036 -0.071148 -0.13252218
0000f0 cc 1d c7 3c d2 41 04 3e 4e 3a bf be 61 90 20 3d
       0.0243062 0.12915733 -0.3734917 0.03920019
000100 2c 34 80 3d 6a 18 41 bc bb f8 8d bc 62 f2 27 3d
       0.06259951 -0.011785606 -0.017330518 0.04100264
000110 89 c6 4e bd 64 70 d5 bc 35 ac c0 bb d5 60 b8 bc
       -0.050482307 -0.026054569 -0.0058799037 -0.02250711
000120 45 86 e1 3c 40 77 24 be 3a 7f 56 3d 0c d5 3d be
       0.027529845 -0.16061115 0.052367426 -0.18538302
000130 85 71 7b 3c b2 8c ba 3d d2 b6 7d bd c7 c8 fe 3d
       0.015346889 0.09108867 -0.06194193 0.12440639
000140 e2 86 bb 37 e6 68 e9 bd f1 43 28 3c f6 3c d6 bd
       2.2354947e-05 -0.11396961 0.010270105 -0.10460846
000150 68 d4 1c be fb ff ad bc 15 90 b4 bd 9c a9 3f bd
       -0.15315402 -0.021240225 -0.08816544 -0.04679261
000160 e5 7f 52 bd c0 6c 65 be 78 98 6f be a0 4a 01 3e
       -0.0513915 -0.22404766 -0.23398006 0.12626123
000170 4e c3 ba bc 10 be 4f be 9e 9b 8f 3d 46 94 fd bd
       -0.022798207 -0.20287347 0.070121035 -0.123817965
000180 f8 08 9c ba 85 de 1f be 30 ff 86 3c af 29 be bb
       -0.0011904528 -0.15612228 0.016479105 -0.005803309
000190 bf ee a1 3d ac 55 43 3e a6 9c db bd 01 04 1a bd
       0.07906865 0.1907565 -0.10723238 -0.037601475
0001a0 20 54 07 3e 95 50 9c bc 79 a9 a1 bd c0 96 93 3d
       0.13215685 -0.019081393 -0.078936525 0.07206488
0001b0 b3 00 24 bd 53 0f 7b 39 70 ba 56 bd 97 86 3f bd
       -0.04003973 0.00023942934 -0.052423894 -0.046759214
0001c0 83 53 cc 3c 2b 93 e4 bc 3d 24 2e bc 8d b4 b8 3a
       0.024942165 -0.027902206 -0.010628757 0.0014091894
0001d0 ed ce 73 bc 7a 90 4a bb d1 5b 1e 3d 8e 4d f8 ba
       -0.014880878 -0.0030908869 0.03866178 -0.0018944012
0001e0 e6 15 10 bc 85 8c 36 3d 9e 1e d7 bb 6f 3f 9d bc
       -0.0087942835 0.044567604 -0.006564929 -0.019195287
0001f0 05 d9 98 bb 1f 4c ce bc b0 ab 79 bd 83 0c fc bb
       -0.0046645426 -0.025182782 -0.06095475 -0.007691921
000200 0f 66 2a 3d 9a 06 27 3d f7 9f bd bb f3 eb 0b 3d
       0.041601237 0.04077778 -0.0057868916 0.034160566
000210 61 c0 04 3e 5d 81 b1 3c 79 19 ae 3d 6f e0 6c 3d
       0.12964012 0.02166813 0.08500952 0.057831224
000220 09 9f de 3c 56 e9 ad 3a 04 c1 27 3d 84 21 66 3c
       0.027175443 0.0013268392 0.04095556 0.014046077
000230 c8 1e 6c bb 78 cb e5 3c 21 62 88 3c ab f4 01 3d
       -0.003602909 0.028051123 0.016648354 0.031727474
000240 4b de 38 be ae 50 27 bd 60 02 53 be 01 55 e3 bd
       -0.18053548 -0.040848427 -0.20606375 -0.111001976
000250 71 8d 65 3e cc 80 2c 3d ec 66 b3 bc 88 e8 2b 3e
       0.22417237 0.042115018 -0.021899663 0.16787922
000260 06 02 f0 bc 49 4f 66 3d 06 95 b9 3e 8b 00 a0 3e
       -0.02929784 0.056227956 0.36246508 0.31250414
000270 97 d9 32 be 78 73 26 3e 5a c7 42 3e 3d 9e bf be
       -0.17465816 0.16254985 0.19021359 -0.37425414
000280 bf 61 3f be e2 23 38 be 2d 34 0e 3e 0b 92 0e 3e
       -0.18689631 -0.17982438 0.13887091 0.13922898
000290 40 d6 0d 3d 55 bf 26 3c 00 24 d0 3d 05 ba 93 3d
       0.034628153 0.010177453 0.101631165 0.07213215
0002a0 a1 01 b4 bd 9d 3b e1 3c 6f 75 c1 3d 18 22 08 be
       -0.08789373 0.027494246 0.09446227 -0.13294256
0002b0 cf d1 73 3d 84 39 2e 3e 7d 86 d8 bc d0 46 f6 3d
       0.05952626 0.17014128 -0.026431317 0.12025225
0002c0 18 96 2f 3e 69 c6 bf 3c bf ae d6 3d 22 bf c3 3d
       0.171471 0.023410039 0.10482549 0.0955794
0002d0 84 7d 04 be 83 9c a2 be 27 c1 39 be 54 98 ef bd
       -0.12938505 -0.31760034 -0.18140088 -0.11698976
0002e0 e2 a4 8a be 28 ed bf bd f9 d3 ba bc ad 5c 62 be
       -0.2707892 -0.09371406 -0.022806155 -0.22105666
0002f0 0f f2 07 3e f9 d7 e4 bd 9d 59 f1 3d 2e 51 6a 3e
       0.13275932 -0.11174006 0.117846705 0.2288253
000300 47 a4 fa bd ea 25 dd 3d ca fe 82 3e b8 6e 8d bd
       -0.12238365 0.10798247 0.25585014 -0.069058836
000310 35 50 cf 3d 4f ee 6b 3e 0a 9f 35 3c f7 bd 6d 3d
       0.1012272 0.23040126 0.011085281 0.058042493
000320 0f 47 f6 3b ad 16 4d 3d d4 65 72 3d 6a b7 e8 3b
       0.007515795 0.050070453 0.059179142 0.007101943
000330 84 ea 3a 3d e0 b1 72 3d 5b 50 97 3c c2 6e c9 bd
       0.045633808 0.059251666 0.018470934 -0.098355785
000340 89 2e dd 3c 59 5e 84 3d 84 ee 80 bc 05 aa bc 3d
       0.026999729 0.06463308 -0.015738733 0.09212116
000350 bd d1 e6 3d 58 19 49 3c e5 e2 95 3d d5 99 5f 3d
       0.11270473 0.012274109 0.07318667 0.054590065
000360 86 8e e2 3d 3a dc b3 3c 79 50 cc 3d f4 bb 58 bc
       0.110623404 0.021955598 0.099762864 -0.013228405
000370 89 4d 6d bd b7 41 17 3e 53 34 85 3c 66 ab 10 bd
       -0.05793527 0.14771162 0.016260302 -0.03531971
000380 d5 44 da 3c a9 51 6a 3d 6f 0a 06 3e d3 8e 85 be
       0.02664415 0.057206783 0.13089918 -0.2608553
000390 ac cd d3 3e 92 a8 b3 be 9f 66 f6 bd c6 a1 2c bd
       0.41367853 -0.35089546 -0.12031292 -0.042146467
0003a0 8b 14 e8 3d 66 bc b8 3e 82 34 41 3d 6c 62 b3 be
       0.11332043 0.36081237 0.047169216 -0.35036027
0003b0 d0 2c 4b 3d 89 1c f4 be 30 76 3a 3e 9c 40 d2 3e
       0.049603283 -0.4767802 0.18209147 0.41064918
0003c0 4d 42 7a 3c 06 28 bc 3e 52 95 2a bd 41 d8 8c be
       0.015274596 0.36749285 -0.04164631 -0.2750874
0003d0 a0 fe a6 be 92 54 78 3d 38 48 81 bf f8 1d 89 3f
       -0.32616138 0.060627528 -1.0100164 1.0712271
0003e0 56 01 b1 3e dd 38 e3 3e 43 a6 7c be e1 4f b7 be
       0.34571332 0.4437932 -0.24672799 -0.3580313
0003f0 28 9c f0 3c 66 8a 62 3d 74 c6 c8 3d 36 c9 86 3d
       0.029371336 0.05530777 0.09803477 0.06581347

dense1.2.bn1.weight f4 [48]
000000 2a 79 d7 3e 13 45 34 3e eb 0e d2 3e c9 89 fc 3e
       0.42084628 0.17604475 0.41027007 0.49323872
000010 99 62 63 3f 41 88 1c 3e 8a 7c cf 3e 09 64 ad 3e
       0.88822323 0.15286352 0.40524703 0.33865383
000020 ae 0b 7f 3e 16 61 ab 3e 4a ad 69 3e 08 d9 1f 3f
       0.24906799 0.33472508 0.22820011 0.6244054
000030 18 29 c4 3d 97 1b b6 3e 21 58 ee 3d 1c 95 eb 3e
       0.095781505 0.35567924 0.11637903 0.460122
000040 05 7c af 3e af 46 0b 3f 4e 0b 13 3f d8 5b 88 3e
       0.34274307 0.5440473 0.57439125 0.2663257
000050 2e 01 34 3f c2 62 94 3d e7 2c a7 3e cd d2 4b 3e
       0.703143 0.07245399 0.32651445 0.19904633
000060 d0 a5 36 3f e3 49 e3 3e 0c e3 83 3e 17 80 86 3f
       0.7134676 0.4439231 0.2575916 1.050784
000070 a9 35 49 3d 8e b1 30 3e 4d 6c 26 3f 36 6a 71 3f
       0.04912344 0.17255232 0.65009004 0.9430269
000080 a7 85 a1 3e 01 56 62 3e 9d f7 99 3e 3e 59 2b 3f
       0.3154728 0.2210312 0.30071726 0.6693305
000090 02 e7 bf 3f bd 7a 81 3f 24 b5 a1 3e 1f e8 28 3f
       1.4992373 1.0115582 0.31583512 0.6597919
0000a0 b7 1c 5c 3f a3 f7 e6 3e 27 92 bc 3e fa 85 83 3f
       0.85981315 0.45110807 0.36830255 1.0275261
0000b0 e1 e8 aa 3f d4 54 ef 3e d3 3a 4f 3e 8b 3e 2d 3f
       1.3352319 0.46744406 0.20237283 0.6767356

dense1.2.bn1.bias f4 [48]
000000 8d f5 18 bd ca f6 4c bd a1 fa aa be 0a 6d cf be
       -0.03734355 -0.050040044 -0.3339434 -0.40512878
000010 44 4d 94 3e b7 d5 25 bd c7 5f 0e 3e af 9b 3f be
       0.289652 -0.040487017 0.13903724 -0.18711732
000020 29 11 ee 3c 26 49 77 3d 5b 42 c2 bc fa 14 bf 3e
       0.029060917 0.060372494 -0.023713281 0.3732069
000030 46 45 82 bd 86 95 ae bd 6c 0c 09 3d 72 59 0e bf
       -0.06360869 -0.08524613 0.033459112 -0.5560523
000040 da d8 88 3e af 96 e2 be 5c 3b 7a be b5 f4 6c be
       0.26727945 -0.44255587 -0.24436706 -0.23140223
000050 6a c9 d3 3e a6 c1 76 bd 6f 26 ed bd 29 8c 31 be
       0.41364604 -0.06024327 -0.11579596 -0.17338623
000060 24 e9 07 bf 7d 39 b4 3e 7c 52 4c 3d 9c a6 b5 3d
       -0.5309012 0.3520011 0.04988335 0.08869669
000070 9f 1c 8b bd f8 b3 f8 bd 97 d0 9b 3d 9e 7e c2 3e
       -0.067925684 -0.12143701 0.07608145 0.37987226
000080 ca 68 8d bd 83 8b 9c 3d 46 15 40 be c8 c6 4d be
       -0.069047526 0.07643797 -0.18758115 -0.2009536
000090 16 c6 13 3f 2c 9c 73 bc f7 2e 80 be 0b 34 1e be
       0.5772413 -0.014868777 -0.2503583 -0.1544954
0000a0 a2 54 04 bf 57 c6 a2 be e8 bd bc bd 16 fd a5 be
       -0.5169164 -0.31791946 -0.09215909 -0.32419652
0000b0 bf e9 b5 3e db c8 1c bd a7 a4 34 bd 6b f5 c0 3e
       0.35529897 -0.03827749 -0.044102337 0.3768724

dense1.2.conv1.weight f4 [12, 48, 3, 3]
000000 10 f8 c8 3d b3 92 79 bd c9 cf d6 bd a8 09 b4 3d
       0.09812939 -0.06093092 -0.104888506 0.08790904
000010 c2 15 99 bd 6e 49 f3 bd 8a 5b c0 3d fb 0f 60 bd
       -0.07474853 -0.1187924 0.0939246 -0.05470274
000020 3a 55 5c bd fa ac 59 3b d4 45 e2 3c 3c 56 9b 3c
       -0.053792216 0.0033214674 0.027621187 0.018962018
000030 4b 1b 21 3c 8d b3 f5 3c 42 38 fe 3c c1 6c a0 3c
       0.009833167 0.029992843 0.031032685 0.019583108
000040 80 bc 84 3c 2b 01 bc 3b 28 d1 b6 3c e4 7b 6f bc
       0.016203165 0.005737444 0.02231653 -0.01461694
000050 59 13 d3 bc ca 5e 6a 3c 37 63 2c bd 32 36 51 bd
       -0.025766062 0.014304826 -0.042086806 -0.051077075
000060 b6 a7 48 3c e8 28 fe bc 92 01 5f bd c2 da 9b bd
       0.012247017 -0.031025365 -0.054444857 -0.07610084
000070 94 16 be bd ab 8b cd bd 76 bc 74 3d 46 df 47 3d
       -0.0928165 -0.10036405 0.059750043 0.048796915
000080 d1 c8 34 3c 32 fa fc 3c cb 33 73 3d a4 e5 5e 3d
       0.0110342065 0.030881021 0.059375565 0.05441822
000090 5f a9 91 bb 4d 85 e6 3d 73 ed 06 3e 57 7a 85 ba
       -0.0044452394 0.11255894 0.13176517 -0.0010183555
0000a0 d4 cf 07 3e f7 82 18 3e 0e b4 11 bd e9 72 86 3d
       0.13262874 0.14893709 -0.035572104 0.06564886
0000b0 06 d8 82 3d ca 55 21 bc 8a d0 0b bd eb 78 26 bd
       0.063888595 -0.009847114 -0.034134425 -0.04064266
0000c0 fa 85 b2 3a a5 b6 7e bc 57 04 02 bd a0 e3 87 39
       0.001362025 -0.015546476 -0.03174242 0.000259188
0000d0 bd c4 d7 bc c7 9b 51 bc 5a e6 b0 3d 85 b1 51 be
       -0.02633893 -0.012793488 0.08637686 -0.20477875
0000e0 ed c1 b1 3b ef f3 8e 3e 56 ab 87 3d e2 3b c6 3e
       0.005424729 0.27920482 0.066244766 0.38717562
0000f0 af 2e 50 3e dd 01 35 3d 57 ab aa 3e 9f 80 8d bc
       0.20330308 0.04419123 0.33333847 -0.017273245
000100 a4 c3 63 bc 34 4f 87 3b 80 29 85 3b b0 0a c7 bc
       -0.013901625 0.004129315 0.004063785 -0.024297088
000110 06 4c a5 bc 41 de 98 bb e5 2e ba bc cc c5 36 bd
       -0.020177852 -0.0046651666 -0.02272744 -0.044622228
000120 e6 d9 c4 bd e0 a2 5a 3c 91 e3 41 3e 1b e9 0e 3b
       -0.09611873 0.0133444965 0.18934466 0.0021806422
000130 78 de a8 3d 4e 26 18 3e 7b dd 17 3e ea 8e ee 3d
       0.082455575 0.14858362 0.14830582 0.116483524
000140 ad 1a 87 3d 0c 0c 5d 3d 19 54 8d 3b 08 91 76 3d
       0.06596885 0.053966567 0.0043130037 0.060196906
000150 11 55 01 3e f0 74 c2 3d 4d 2b 09 3e 46 b9 b1 3d
       0.12630107 0.0949496 0.13395424 0.08677916
000160 83 7d 0a 3d d8 06 e5 3c 8f 48 19 3d 66 4e 91 3c
       0.033811104 0.027957365 0.037422713 0.017737579
000170 21 75 ab 3b 20 ef af 3c 66 31 dc bc 38 cc 4e bd
       0.0052324687 0.021476328 -0.026879024 -0.050487727
000180 94 6a b1 3c 97 ac 5d bc a1 5b 10 bd c7 d6 b3 3d
       0.021657266 -0.013529918 -0.035243634 0.087812
000190 c8 ff d8 3c ad 95 b6 3d 7b ab 95 3d 45 ab 0b bc
       0.026489154 0.08915267 0.07308098 -0.008524721
0001a0 a7 30 3a 3d c4 a7 7c 3d 97 16 1d bd e6 36 06 bd
       0.045456555 0.06168343 -0.03835162 -0.0327672
0001b0 e4 6f 01 3c ab af c2 3b 83 0e cf 3b de 4b 35 bb
       0.007900212 0.0059413514 0.0063188686 -0.0027663629
0001c0 21 fd 21 bb 23 10 9f 3a d2 a0 52 bc 23 0c 44 bc
       -0.0024717527 0.0012135546 -0.012855725 -0.011965784
0001d0 01 97 a0 bb a5 8b e4 bb 39 8b 86 3d dc 74 fb 3d
       -0.0049008136 -0.0069746547 0.06569523 0.122781485
0001e0 b5 b6 00 bd dc 90 08 3d 7c ca be 3d 81 26 96 bd
       -0.031424243 0.033341274 0.093159646 -0.07331563
0001f0 a1 3b b1 bc b7 37 20 3d ac 57 ed bb 07 ef 9e bb
       -0.021634879 0.039115634 -0.0072431173 -0.0048502716
000200 9c b8 8d bc 6f e9 c9 3c ca a2 d7 3c 45 95 d5 3c
       -0.017299943 0.024647443 0.026322741 0.026072154
000210 0f 70 d0 3a d2 42 f5 3c 23 f3 d3 3c 29 31 c7 39
       0.0015902537 0.029939089 0.025872773 0.00037992865
000220 fe 47 f5 3c b3 b4 d0 3d 86 7f 9d bc 70 af 89 3b
       0.029941555 0.10190716 -0.019225847 0.004201822
000230 6a 94 ec 3d e9 ac c1 bc 81 bd ec 3c db 93 eb 3d
       0.11551745 -0.02364202 0.028898956 0.115028106
000240 40 33 06 3c ba 7e cb 3d 9b 83 51 3e 05 2a e8 bc
       0.00819093 0.099362805 0.2046036 -0.028340349
000250 42 fa bc 3d 8d 0d 57 3e af 81 8e bd a5 cb 81 3d
       0.092274204 0.21001263 -0.06958329 0.0633767
000260 6f ef 34 3e b4 f4 03 3e 9e 9e 4d 3c 8a ca f1 bd
       0.17669462 0.12886316 0.012550024 -0.118062094
000270 99 a4 c5 3d 51 34 f3 bb 84 de f3 bd bd fb 0e 3d
       0.09650535 -0.007422008 -0.11907676 0.034908045
000280 f4 94 4f bd 78 fd db bd da e7 c7 bd 1e 19 ac 3d
       -0.050679162 -0.10741705 -0.09761019 0.08403228
000290 a9 09 90 3e c2 52 01 be 91 d9 6f 3d 82 da 88 3e
       0.2813237 -0.12629226 0.058557097 0.26729208
0002a0 ac 53 cf bd ea 82 74 3d f2 7a 58 3e f3 85 33 3d
       -0.10123381 0.059695162 0.2114065 0.043828916
0002b0 dc f8 28 3d d6 37 d4 3c e8 1a 32 3d 3d b5 47 3d
       0.041252956 0.02590553 0.04348269 0.048756827
0002c0 ce bb 8b 3c 8c 82 90 3c 2a e3 59 3c eb 95 d9 3b
       0.017057326 0.017640375 0.013298789 0.006640186
0002d0 88 4e dc be eb 27 8a be ce a2 b8 be fc ec 28 bf
       -0.43028665 -0.2698358 -0.3606171 -0.6598661
0002e0 2e af 02 bf d4 d4 2a bf 07 68 e7 be ad ce b0 be
       -0.51048553 -0.66731 -0.45196554 -0.3453268
0002f0 3b 55 f6 be 60 26 db bb 53 cb ae bb 19 1d 25 3a
       -0.481119 -0.0066879243 -0.0053342967 0.00062985864
000300 bc 68 71 bb 5d 66 0d bc 7c c7 40 bc 6c 3a b1 bb
       -0.0036836108 -0.008630362 -0.011766311 -0.0054085758
000310 ec f2 43 bb f0 f0 9c bc a6 12 f5 3c a9 30 58 3d
       -0.0029899431 -0.019157857 0.029916119 0.05278078
000320 46 eb 92 3d 95 47 2b 3b ac d0 60 3d 3c 33 bf 3d
       0.07173781 0.0026135196 0.054886505 0.09335944
000330 2f 42 79 38 dd 03 d5 3c 1e 0b cf 3d 35 2c 4e 3c
       5.9427864e-05 0.026002819 0.10109542 0.012583782
000340 ea 3d b4 3c a5 cb 20 3c 90 ee 87 3c 80 bd bf 3b
       0.02200218 0.009814178 0.016593248 0.0058514476
000350 dd 1c 73 3a 00 19 85 3c b9 fd 4a 3c 7c 92 d0 bb
       0.00092740153 0.016247272 0.012389594 -0.0063651185
000360 19 cf 32 3e 9e 6c 1a 3c a3 17 4b bd 98 30 49 3e
       0.17461814 0.00942531 -0.04958309 0.19647443
000370 4f 77 11 3b 01 3c b2 bd 84 12 1f 3e 92 bf 42 bd
       0.0022196358 -0.08702851 0.15534407 -0.047545977
000380 f7 b1 0d be 41 54 e9 bc 06 b7 b7 3b 3a fa 86 3d
       -0.1383742 -0.028482558 0.005606535 0.06590696
000390 66 48 f6 bd 4b 73 9e bb ac 66 6f 3e 8b 4e 7d bd
       -0.12025528 -0.0048355213 0.2337901 -0.061842483
0003a0 29 23 d1 3c 33 d1 89 3e 1a 62 56 bc 13 50 6b bb
       0.025529461 0.2691742 -0.013084913 -0.0035905882
0003b0 dc a8 a6 3d f6 cd f6 3d 3b 06 86 3d 06 22 1f 3c
       0.08137676 0.12051003 0.06544157 0.009712702
0003c0 20 4c 13 3e f9 71 7e 3d 42 ff 9d 3a 09 31 a6 3d
       0.14384508 0.06212041 0.0012054222 0.081148215
0003d0 9c e8 2e bd a8 72 e4 bd 70 2b 16 3f 4b f1 b9 3e
       -0.042702302 -0.111546814 0.5866003 0.36316904
0003e0 cb 2e c1 3d 05 8f 41 3e 10 bf 09 3e 05 9a 95 bd
       0.09432753 0.18902214 0.13451791 -0.073047675
0003f0 04 be cf 3b b8 3a 19 3b f5 08 1a 3c e5 86 2b bc
       0.0063397903 0.0023380946 0.00940155 -0.010469173

dense1.3.bn1.weight f4 [60]
000000 75 e5 95 3e ba 30 7b 3e af 4f 51 3e 1a 1f ff 3e
       0.29276624 0.24530306 0.20440553 0.49828416
000010 c5 db 0f 3f 40 50 54 3e 84 68 96 3f 15 00 ab 3e
       0.56194717 0.20733738 1.1750646 0.333985
000020 f5 b0 f5 3e a5 f5 8a 3e 9f 05 dc 3d 61 72 65 3e
       0.4798657 0.27140537 0.1074326 0.22406913
000030 46 d0 38 3e e1 1f 10 3e c4 b0 30 3f 25 4c 26 3e
       0.180482 0.14074661 0.6901972 0.16239984
000040 3b 50 82 3e eb 94 e9 3d 40 83 72 3e 1d fd 2c 3e
       0.25451836 0.11405357 0.2368288 0.1689343
000050 2b 1e 9d 3f 28 56 61 3e 1f bf 11 3e fa 14 d9 3d
       1.2274832 0.22005522 0.14233063 0.10599704
000060 0c 37 4e 3e cd ee 3b 3f e1 85 d1 3e 5d 93 38 3f
       0.20138186 0.73411256 0.40922454 0.7209986
000070 b2 f8 68 3e e8 3b a4 3e 11 70 37 3f a8 99 82 3f
       0.2275112 0.32076955 0.71655375 1.0203142
000080 c6 d0 ce 3e 67 1e e7 3e 6b 8a fd 3d 51 2c 39 3f
       0.40393656 0.45140383 0.12379917 0.72333246
000090 23 11 6d 3f 55 18 75 3f b7 0a 0e 3e df 6c 85 3f
       0.92604274 0.9574025 0.13871275 1.042385
0000a0 55 19 10 3f 08 e6 31 3e 53 e8 17 3e ef c9 0f 3f
       0.56288654 0.17372906 0.14834718 0.561675
0000b0 6c ec ef 3e 97 21 d8 3e 19 9b 9a 3f 9b be c4 3e
       0.46860063 0.42213127 1.2078582 0.3842667
0000c0 3d a1 74 3f 6e 5b b5 3e 25 fe 20 3e 3c fb 03 3f
       0.9555853 0.35421318 0.15721948 0.5155523
0000d0 ad d9 96 3e 84 04 13 3e 31 08 d2 3f c9 6b 3c 3f
       0.29462948 0.14357191 1.640875 0.7360197
0000e0 00 48 9f 3f 83 3f 52 3e 9e f0 45 3d c0 e1 da 3e
       1.2443848 0.2053204 0.048325174 0.4275036

dense1.3.bn1.bias f4 [60]
000000 75 b2 cd bd 61 bd 51 bc 55 1b ee bd 14 92 33 3e
       -0.100438036 -0.012801499 -0.11626307 0.17536193
000010 fe c1 1b 3d ce 61 0a 3d 04 e7 5e bd b0 ae 59 3d
       0.038026802 0.03378468 -0.054419532 0.05314511
000020 f2 cb 01 be ef 03 af bc b2 9d d0 bc 0e c3 32 bd
       -0.12675455 -0.02136418 -0.02546582 -0.04364305
000030 df 82 36 bd 12 20 4b bd 89 f4 13 3e 2f 01 46 be
       -0.044558402 -0.04959113 0.14448752 -0.19336389
000040 25 f5 44 be a7 bb ca bd d5 c8 dd bc 18 04 95 bd
       -0.1923414 -0.09899073 -0.027073303 -0.072761714
000050 90 9a 7c bd 3b c6 3b 3d 89 db 90 bd a8 eb 45 bd
       -0.06167084 0.045843344 -0.07073123 -0.048320442
000060 0e 00 27 be 34 d6 4a be 99 76 aa be 64 ab 8e be
       -0.16308615 -0.19808275 -0.33293608 -0.27865136
000070 9c de 37 be ca aa 83 be 5c 6f 2a be 9c d9 0a bf
       -0.17956012 -0.2571624 -0.16644043 -0.54238296
000080 31 60 72 be e7 a0 98 3d 67 67 dc bd 58 e5 39 be
       -0.23669507 0.07452565 -0.1076191 -0.18153894
000090 29 16 8c be 79 ed c8 3e 64 9b 3b be e6 bf 4e be
       -0.27360657 0.39243677 -0.18320996 -0.20190391
0000a0 54 86 b9 be fa 8e 35 be 33 c9 8c bd 4d 67 ef 3c
       -0.36235297 -0.17730322 -0.06874313 0.029224062
0000b0 5c 3a 20 be 43 96 ca 3c a5 89 5b 3e 51 c6 f5 bd
       -0.15647262 0.024729853 0.21439226 -0.120007165
0000c0 22 d8 06 3d 91 54 b4 3d 12 5b e9 bb c0 56 79 bd
       0.032920964 0.08805192 -0.007121452 -0.060873747
0000d0 fb f3 05 3e f5 12 64 bd 73 fc 2a bc 53 c0 b8 3d
       0.13081352 -0.05568214 -0.010436165 0.09021058
0000e0 dd f0 af 3d 05 62 12 bb 0d 7b e1 bb 2d 40 b3 3d
       0.08590863 -0.0022336256 -0.006881124 0.08752475

dense1.3.conv1.weight f4 [12, 60, 3, 3]
000000 41 98 59 3d 66 5a 2b bc 43 6b 67 3c e6 ad 36 3d
       0.053123716 -0.010458564 0.014124694 0.044599436
000010 e7 6e 25 bd e3 55 44 bd ca 9a 3d 3d 4b 62 8f bc
       -0.040388968 -0.04793347 0.046290196 -0.017502924
000020 0b 7f 01 bc 1c 05 cf 3b 9f 12 1b bb e5 2a 8c bc
       -0.007903825 0.0063177478 -0.0023662222 -0.017110297
000030 b6 14 36 bc b1 32 a3 bc 79 71 5c bc d7 71 88 bc
       -0.011113336 -0.019921632 -0.013454788 -0.016655846
000040 3b 0d 25 bc 78 d2 75 bb da 2b 21 3c 6e 54 94 3c
       -0.010073955 -0.0037509482 0.009837115 0.018106665
000050 81 f6 aa 3c ce d5 3f ba 41 58 23 bc 03 5d d9 ba
       0.020869495 -0.0007317931 -0.009969772 -0.0016583506
000060 0d 93 08 3c 71 72 5d bc fc 2c 48 3a 46 d8 c2 3c
       0.008335841 -0.0135160545 0.0007636098 0.023784768
000070 27 4e d1 3b 73 26 29 3d 64 67 bc 3d 2d a0 4e 3d
       0.0063874903 0.041296434 0.09199408 0.050445724
000080 81 30 e3 3d 54 b3 88 bb c2 3c 12 bd d2 9d 4c 3d
       0.11093236 -0.004171768 -0.035702474 0.049955197
000090 52 70 42 3e 8a bb 20 3e 3b 2e fe 3c 93 37 1a 3e
       0.1898816 0.1569654 0.031027904 0.15060262
0000a0 f2 50 ee 3d 06 b2 1c bc c8 7a a7 3d 94 1e 65 3d
       0.11636533 -0.0095639285 0.081777155 0.055937365
0000b0 97 ad 45 bd a5 dc 5a bc 7e 73 f4 bb b0 26 28 bb
       -0.04826125 -0.01335827 -0.007460057 -0.0025657825
0000c0 67 37 25 bc d7 18 ba bb 69 a1 7d bc 48 62 ce bb
       -0.01008401 -0.0056792307 -0.015480378 -0.006298337
0000d0 15 6d ab bb 77 c8 72 3b 89 c3 e5 bd b0 7c 30 be
       -0.0052315095 0.0037045756 -0.11218936 -0.17235065
0000e0 f2 c2 06 3e c4 a2 1c bd f8 2d e1 bd cd ac 01 3e
       0.13160303 -0.038241163 -0.10995096 0.12663575
0000f0 7e d4 55 3c bc e4 03 be 13 1b c3 3c 6e 16 b2 3d
       0.01305115 -0.12880224 0.02381662 0.086956844
000100 aa 79 5e 3d 9d 1f 43 3d 6b d7 dc 3c 76 f5 1b 3c
       0.054315247 0.04763757 0.026958188 0.009518972
000110 f5 a1 9f 3c fe 8b 12 bc 5a ed 90 bc 9e 69 02 bc
       0.019486407 -0.00894451 -0.017691303 -0.007959751
000120 f2 01 b9 3d 0f 3a 01 3e 55 2e 53 3e 22 2f 09 3d
       0.09033574 0.12619804 0.20623143 0.033492215
000130 82 13 6b 3d 9c 55 cb 3d 5e 03 7a bc 83 61 51 3c
       0.05739165 0.09928438 -0.015259592 0.012779596
000140 d3 ec 20 3d 60 3b 7f 3b 99 8b a6 bc 48 67 87 bc
       0.039288353 0.0038945302 -0.020330237 -0.01652874
000150 5f 0d 99 3c 1b 9d a1 bc eb 9d 2c bd 6d 26 85 bb
       0.018683134 -0.019728234 -0.04214279 -0.0040634186
000160 c6 cf d7 bc b1 c8 c5 bc 55 71 b8 3c 20 74 bf b9
       -0.026344191 -0.024143549 0.022514978 -0.0003651688
000170 a2 9e 21 3c f2 bd 1b bc 81 dc db bc 27 fc 2d bb
       0.009864481 -0.009505736 -0.026838543 -0.0026548
000180 dc c7 3a bc d8 7e e8 bc 93 38 b3 bc 81 33 26 bc
       -0.011400189 -0.028380796 -0.021877563 -0.010144115
000190 d6 69 04 bc 9f 7c 02 3c 00 2f 8d bc f4 b1 d4 bc
       -0.008081874 0.007964282 -0.017234325 -0.02596376
0001a0 49 32 97 bc 4c 81 ab bb 58 4c 16 bd 34 30 11 ba
       -0.018456595 -0.0052339192 -0.0366939 -0.0005538494
0001b0 4a 95 48 3c 7f 2d be 3b bd 34 af ba 33 7d d7 3b
       0.012242625 0.0058037634 -0.0013367158 0.006576204
0001c0 9b 15 f5 bb ab 55 70 3b 17 d4 d2 3b f3 29 fd 3a
       -0.007479382 0.0036672156 0.0064339745 0.001931487
0001d0 24 e5 0b ba e3 d8 01 3d b5 79 14 3d f4 84 0e 3d
       -0.0005336574 0.03170098 0.03624888 0.034794763
0001e0 f7 98 06 3d 91 02 c1 3c 72 64 a1 3c 93 49 bb 3c
       0.032860722 0.023560794 0.019701216 0.022862231
0001f0 08 b5 19 3c 7f 34 f7 ba 9f c1 88 bd 3d 52 4d bd
       0.00938154 -0.001886025 -0.06677555 -0.050127257
000200 08 9e 32 3d 5b 67 f0 3c 9b cd 5f 3c 0d 28 ef 3d
       0.04360774 0.029346159 0.01365986 0.11677561
000210 ff 3b 3b bd b2 7d 54 bd fa ad 7f 3c bc d4 e8 b9
       -0.045711514 -0.051877685 0.015605444 -0.00044408988
000220 8f 7a 42 3c 01 ea 2d 3d 2a d9 94 bb e9 d1 a4 3b
       0.011870041 0.04245949 -0.0045424895 0.005029906
000230 e4 df 2f 3d 16 47 be bc a3 b5 35 bc ee 44 1e 3d
       0.042938128 -0.023227256 -0.011090669 0.038639955
000240 36 61 f7 3c 27 ca 0e 3d 6a eb 61 3d 64 ca 08 3d
       0.030197721 0.034860756 0.05515615 0.03339614
000250 9b a6 d5 3c 98 48 5d 3d f3 6e 68 3d 8c b0 30 3d
       0.02608042 0.05402431 0.056746434 0.04313712
000260 28 9b 08 3d f8 83 05 3d 64 49 ac 3c a6 f5 c7 ba
       0.033351094 0.03259656 0.02103109 -0.0015255704
000270 06 fa 08 3d 1e d1 1c 3d 2f 2b 08 bc 76 30 c1 3c
       0.033441566 0.038285367 -0.008311077 0.023582678
000280 f0 4d 42 3c f9 a3 a3 ba 9e 6b 98 3d 06 68 9a 3d
       0.011859402 -0.0012484781 0.07442401 0.07539372
000290 89 db a0 3d c0 50 92 3d 14 9b 7c 3d a3 5c 5b 3d
       0.07854373 0.07144308 0.06167133 0.053555142
0002a0 b9 5a 47 3d 75 57 13 3d be a3 f3 3c a4 2f f8 3c
       0.048670504 0.035972077 0.029741164 0.030296154
0002b0 35 78 a7 3c d6 56 26 3d 3e 77 09 3d 72 ab 07 3d
       0.020443061 0.040610157 0.033560984 0.033122487
0002c0 e9 86 db 3c e7 00 f6 3c 71 f9 c4 3c fc c1 f0 3c
       0.026797729 0.030029727 0.024044724 0.029389374
0002d0 11 95 2e 3e 77 00 12 be 78 4b 9b be e8 76 90 3d
       0.17049052 -0.1425799 -0.30331016 0.070539296
0002e0 9a 92 2a be 21 97 74 be 42 6b 3b bd a4 8f 43 be
       -0.16657487 -0.23885776 -0.045756586 -0.19097763
0002f0 dd 87 4b be 0c 44 d7 3c 8f 3f d0 3c 0a 92 95 3d
       -0.19876046 0.026277564 0.025420932 0.07303245
000300 d9 bf 90 bc e4 b7 36 bc f2 c7 2d 3d 85 ee e4 3a
       -0.017669605 -0.011152241 0.04242701 0.0017466104
000310 76 3d a9 bb 56 7a 4e 3d 82 03 76 3c 57 28 5e 3c
       -0.0051647974 0.050409637 0.015015485 0.013559422
000320 93 a0 24 3b 4d c8 45 3c b0 df c2 3b bf 6e eb ba
       0.0025120124 0.012071681 0.005947076 -0.0017962082
000330 ed ce 4f bc 68 e2 91 3b 4e a5 34 3c bb be 48 3b
       -0.012683612 0.0044520386 0.01102574 0.0030631262
000340 84 30 88 3c 49 68 a3 3c 07 98 af bb d1 80 83 3b
       0.016624697 0.019947188 -0.0053586992 0.004013159
000350 f1 ee cc 3c d6 41 65 3c 40 ff 80 3c 70 2a 84 3c
       0.02501628 0.013992747 0.015746713 0.016133517
000360 35 4f 7c 3c 69 c3 21 bc 8a 3e 4c 3d 9e fa 0b b9
       0.015399744 -0.00987325 0.04986433 -0.00013349435
000370 0e 86 e6 bb 62 d2 ed 3c f0 e2 3f bc 30 dc 0c bc
       -0.0070350235 0.029030982 -0.011711821 -0.008597419
000380 7a b8 19 3d 15 ba e9 bc 4c 00 11 be 1b f8 81 bd
       0.037529446 -0.028531114 -0.1416027 -0.063461505
000390 72 25 43 bd 46 c2 84 bd f1 5f 06 3d 47 1e 7c bd
       -0.047643133 -0.06482367 0.03280634 -0.061552312
0003a0 57 c4 4d bd cd 4a 29 3c 81 96 cf bb a1 26 87 bb
       -0.050236072 0.010332775 -0.00633508 -0.004124478
0003b0 5d 75 14 3c 16 88 0b bd 91 94 55 bd 79 9a fd bc
       0.009061185 -0.03406533 -0.052143637 -0.030957447
0003c0 96 e9 0d bd db 80 1c bd cb 80 3d bc 88 d9 cc 3d
       -0.034646593 -0.038208824 -0.011566351 0.10002428
0003d0 3d fe b0 bb 37 58 dc bd de 68 d2 3d 2e c8 bc bc
       -0.0054014013 -0.10759013 0.10273908 -0.023044672
0003e0 1c 86 01 be 56 57 de 3d 54 e8 9d bd d3 f2 27 be
       -0.12648815 0.10856502 -0.07710329 -0.16401224
0003f0 56 d9 fa 39 91 fc d6 3b eb a8 f9 3c 3f 19 f9 bb
       0.00047845644 0.00656087 0.030476054 -0.0076018865

dense1.4.bn1.weight f4 [72]
000000 c2 16 1b 3f 65 44 a6 3e ee b3 16 3f 8d 3d 76 3f
       0.605816 0.32474056 0.588683 0.9618767
000010 b4 50 80 3f a7 2e 26 3e 64 76 db 3e 1b 54 05 3f
       1.0024629 0.16228734 0.42863762 0.5208146
000020 71 c9 93 3f ff 90 5b 3e d7 6f 3e 3e 72 b6 ce 3d
       1.154585 0.2144203 0.18597351 0.100933924
000030 1f 36 f8 3d 3b 8c a5 3e eb bd 3f 3f 71 6f 04 3f
       0.12119698 0.3233355 0.74899167 0.51732546
000040 f0 15 28 3f 30 85 ef 3e 0d a9 9b 3e 91 16 c8 3e
       0.65658474 0.46781301 0.30402413 0.39079717
000050 41 e4 07 3f 4c 0e 5c 3e 7e 09 93 3d 9d 8e fa 3d
       0.5308266 0.21489829 0.07179545 0.122342326
000060 e4 2d 8e 3e 09 93 79 3f 29 01 09 3f fe 39 3b 3e
       0.27769387 0.9748998 0.53517395 0.18283841
000070 e2 35 80 3e 63 ad 28 3e ff 66 c2 3e 23 d4 98 3e
       0.2504111 0.16472392 0.37969205 0.29849347
000080 46 6a ca 3e 5c c4 e9 3e c2 47 c1 3e 1b 0a 04 3f
       0.39534205 0.45657623 0.3775006 0.5157792
000090 4d 89 1b 3f e6 6d 89 3f 2a ed a7 3e 05 03 4a 3e
       0.6075638 1.0736663 0.3279813 0.19727714
0000a0 bc 8f b8 3e 89 5d a2 3d ae 17 aa 3e ca 76 10 3f
       0.3604716 0.07927997 0.3322119 0.5643126
0000b0 03 d1 9d 3e 66 68 22 3f 1c 74 5c 3f ca 49 e7 3e
       0.30823526 0.6344055 0.8611467 0.45173484
0000c0 8b 10 b4 3e b6 2f 22 3e 8f c9 a8 3e 2f be da 3e
       0.3516887 0.15838513 0.32966277 0.42723224
0000d0 d0 fd a1 3e 7b cd 77 3e 7e 0d ae 3e d3 9e 9f 3e
       0.31638956 0.24199478 0.3399467 0.3117586
0000e0 54 0a 9f 3f 2f 10 94 3e 1d 28 43 3e 10 83 23 3f
       1.2425027 0.28918597 0.19058271 0.6387186
0000f0 89 7c 54 3e 41 50 2f 3e 1c 6d c2 3f 97 60 6a 3e
       0.20750631 0.17120458 1.5189548 0.22888409
000100 02 39 10 3e 08 6a a4 3d 9d 05 d5 3d e1 af 58 3f
       0.14084247 0.08028036 0.10401461 0.8464337
000110 e2 f7 9b 3d 5a 5f 25 3f 20 20 9e 3e d4 47 32 3e
       0.07615639 0.6459862 0.30883884 0.17410213

dense1.4.bn1.bias f4 [72]
000000 2a a0 09 bf 2c 86 a7 bc d8 a0 a1 be 0d 4c 33 bd
       -0.53760016 -0.02044972 -0.31568027 -0.0437737
000010 d3 c0 bf be 07 7f 72 bc 46 a1 d6 bd b4 81 55 bc
       -0.374518 -0.0148007935 -0.10479979 -0.013031412
000020 ea 7a 82 3d f4 47 b3 39 a2 2b 05 bd ad de a9 bd
       0.063711 0.0003419515 -0.032512315 -0.08294425
000030 2d f5 31 bd e3 e9 ee bd 43 a1 45 3d 95 d6 85 be
       -0.04344671 -0.11665704 0.048249494 -0.26140276
000040 ee c5 e8 be 74 d3 c2 be aa e7 69 be 17 59 ab be
       -0.45463508 -0.3805195 -0.22842279 -0.33466408
000050 0e 17 95 be d8 f0 09 3e e0 f8 32 3c 07 d6 57 3d
       -0.29119152 0.13470781 0.010923594 0.052694347
000060 0e 54 27 3d eb 0d d5 3d 6f f5 56 be 65 a6 38 be
       0.040851645 0.10403045 -0.20992063 -0.18032224
000070 16 47 f9 3c 3c ce 80 bd cc a9 ef bc f7 f9 66 bd
       0.030429404 -0.06289336 -0.02925577 -0.05639073
000080 af 23 13 be 0c d4 0a be 33 b7 b3 bd dd 63 02 3d
       -0.14369081 -0.13557452 -0.08775177 0.03183352
000090 e9 cb 1f be 07 ce da bd 7f d5 dd be 65 34 f3 bc
       -0.1560513 -0.10683828 -0.43326947 -0.02968807
0000a0 7b 84 39 be 4d fc a7 bd 33 94 83 bd 19 d4 11 be
       -0.18116944 -0.082024194 -0.06424751 -0.14241065
0000b0 9e d7 05 bd 7d 17 26 3d 3b 1a e1 bd 7d b9 cf 3e
       -0.03267633 0.040549744 -0.10991331 0.40571204
0000c0 db 32 07 3d 99 cb 1d 3d 2e f0 35 bd ac ff c7 bc
       0.033007484 0.038524244 -0.044418506 -0.024413906
0000d0 e4 c0 5b 3d 75 2d a2 bd ac 5e 80 3c 13 8e a6 bd
       0.05365075 -0.079188265 0.015670143 -0.08132567
0000e0 26 d1 2e be 66 a7 8b bc d3 08 2f 3c 70 f3 f6 3d
       -0.17071971 -0.017047595 0.010683256 0.12058151
0000f0 13 56 2a bd d5 24 4d bd 9e 77 8e be 49 64 ba 3c
       -0.041585993 -0.050083954 -0.27825636 0.022752898
000100 14 65 6f bc 41 fc c8 3c 93 78 0a bd 08 b5 db bb
       -0.014611501 0.024534347 -0.033806395 -0.00670493
000110 81 2d a6 bd 50 77 03 3e 06 24 0c 3d 85 a4 15 3d
       -0.08114148 0.12838483 0.034214042 0.03653385
