independent_train_0.0/client87/checkpoint_0.0.pth (torch, 930411 bytes, 56 tensors)

conv1.weight f4 [24, 3, 3, 3]
00000000: 2f9b 573e 0b2a bdbe cffe b63e 345f 85bf
00000010: 6445 d5bf 51a2 48bf 1dfa 4abf d226 bcbf
00000020: 3ac6 12bf 03d4 863e f902 d13e 7fd7 953e
00000030: 60a0 ed3e 27c9 383f daee 113f 5d93 8c3e
00000040: cbbb e83e 86cd cc3e aaf9 1cbf f219 01be
00000050: 11f2 4fbf 1652 033f bcb9 9b3f 8159 bc3e
00000060: f3af a73e 8687 753f ca31 5a3e bfc0 de3d
00000070: 7627 d23e 2580 1e3e 5d0f 71bf 73fb 8a3e
00000080: bc65 9b3e de78 5abf fcb5 823a 6df1 933e
00000090: 963b 63be c62b c93e b383 3dbe 38e7 53bf
000000a0: 753e 463f 91ca ec3e 5c97 50bf 7768 f23e
000000b0: 345b e73e 8803 87be f0f8 ec3d dece f9be
000000c0: 10e6 f6be 3a1b 443f c9c9 833e 8f47 dabe
000000d0: f08c 2d3f 103f c33e 6899 b43c d6b4 82be
000000e0: f506 fcbb a0f9 e5be 4069 3bbf 85fe e7be
000000f0: 1292 86be 9c75 0cbf d66d 98be a44d 693e
00000100: e1de a33e f226 7e3e 3aaf 483e ce86 aa3e
00000110: a97e 843e 549e 413e fd2b 953e 0b1f 6f3e
00000120: 69a7 06bd b63a 733e d43c 59bd ad33 873e
00000130: 351e 213f f83e 863e 0505 023e 3e02 e23e
00000140: f24e c13d 83ef 5fbe bccc 96bf 66b0 15bf
00000150: 003c 8f3d 1673 8dbc d561 7f3e 0c42 8bbc
00000160: 55e2 1f3f 2768 fa3e 1700 6bbe 7c45 99bf
00000170: 7af5 4abf 7a0e 9b3e d4d9 613e 363a 903e
00000180: 22a5 563e ab6a 653f cb8c 0a3f 3c76 6bbe
00000190: 9922 93bf 4b03 4cbf 4c06 853e a1d6 9e3d
000001a0: 5db2 153e 11b2 c63e 9625 633f 6309 1e3f
000001b0: 5337 57bf ba0a 39bf 18bd 7bbf 9b70 2c3d
000001c0: 285f 1b3f 37e4 26be 6adb 1b3f 910b 8e3f
000001d0: d1bf c23e 6cf2 0e3e 333a dd3e ef3f 363d
000001e0: 1ba3 d33e b53e 863f 4ea7 853e e719 573e
000001f0: 6144 2f3f 10ee 943d 4515 1a3f 77e5 633e
00000200: 234e 643f bed2 34bf 2462 75bf 4d01 9bbe
00000210: 1960 6dbf 8e75 adbf 4e32 08bf 3d5f eebc
00000220: 44f2 fabe 7bda 25bd 4efc 7cbd 7911 3b3e
00000230: e82d 6a3e b13e 7fbe bc86 b0be 759e 86be
00000240: 83eb 40be 6ad7 bdbe 318a 81be 4146 813e
00000250: 3ad6 653f f4a4 103f 2b0f 8fbd e9b1 7e3e
00000260: 0880 43bd 8948 0abf f722 37bf c65c 38bf
00000270: c677 193e df9d 3c3f 7510 a13e 354f d33d
00000280: d483 e73e 925d d33d 9885 1c3f ec64 893d
00000290: 8226 abbe ded1 993f a1cf 80be 3155 c4bf
000002a0: 6041 f03d 5af8 b0bd 6aa6 12be ca20 833f
000002b0: a6fe 353d de23 60bf 9700 e73f 3352 b0bd
000002c0: 11d3 fabf b1c1 213f 894e bf3d 0e5c d3be
000002d0: d26e e23e 6cd6 303c 4444 f2be e3cd 943f
000002e0: 1de8 a4bd 6359 bbbf d5a4 9a3e e28e d83d
000002f0: 8c1d 3dbe a38a 1cbf 9200 dfbd 6cef e8be
00000300: 5546 78be fa46 3a3e 5d48 f63d 92fc 34be
00000310: 801f 8cbe ff59 d83e ec03 883e d67b 623f
00000320: 64d0 983d 88f1 933e bb8d 543f 9acb b93e
00000330: 887e 1ebf ebe3 1dbf 70f7 13be e30f 873e
00000340: 5884 373f 82a5 b0bd b723 d23e 4421 453f
00000350: b2ae 133e 2bc6 38bf 61e9 54bf 50af 25bf
00000360: ab72 5f3f 6f99 ea3f 3860 9b3f 7cd8 51bc
00000370: a961 60be 2f57 2bbd 9a7b 5cbf 425c f1bf
00000380: db7e 67bf 4ce0 113f 79a4 b33f fdae 1c3f
00000390: 72bf 043e ef23 fbbd 16a5 35be 5915 00bf
000003a0: 837f c1bf a1ff 34bf deca 59be 3746 2c3f
000003b0: 30de 673b 1dc0 de3d 10c0 443e f2c4 b33d
000003c0: 64da 61bd 9757 19bf 855c a0bc 8500 c0be
000003d0: 0ede 8abd 8032 463f e31f fd3e 84af 833e
000003e0: 4109 efbf 650b 0dbe 6885 523f a733 c9be
000003f0: b0d7 1ebf 58f5 1c3e 66b9 513f 3e3c 073f
0.21055292 -0.3694614 0.3574128 -1.0419679 -1.6661801 -0.78372675 -0.7928789 -1.4699347
-0.5733372 0.26333627 0.4082258 0.29265973 0.4641142 0.72181934 0.57005084 0.2745618
0.45455775 0.40000552 -0.6131846 -0.12607554 -0.8122874 0.5129713 1.2166057 0.36787036
0.32751426 0.9590992 0.21308056 0.10876607 0.4104573 0.15478571 -0.9416407 0.27144966
0.30351055 -0.8534068 0.0009972448 0.2889513 -0.22190699 0.3929121 -0.1850727 -0.82774687
0.7743905 0.46248296 -0.81480956 0.47345325 0.4518677 -0.26369882 0.115709186 -0.4879064
-0.482224 0.76604044 0.25739887 -0.4263272 0.6779318 0.3813405 0.022045806 -0.25528592
-0.007691259 -0.4491701 -0.73207474 -0.4531137 -0.26283318 -0.5486696 -0.29771298 0.22783524
0.3200598 0.24819544 0.19598094 0.33305973 0.25877884 0.18908054 0.29135123 0.23351686
-0.0328745 0.23752865 -0.053036526 0.26406613 0.6293672 0.26219916 0.12697227 0.44142336
0.09438886 -0.2186871 -1.178123 -0.5847229 0.06993866 -0.017266791 0.24939664 -0.016999267
0.6245473 0.48907587 -0.22949253 -1.197433 -0.7928082 0.30284482 0.22055751 0.2816941
0.2096143 0.8961589 0.54121083 -0.22994322 -1.1494933 -0.79692525 0.25981367 0.07755781
0.14618821 0.3880773 0.88729227 0.61733073 -0.84068793 -0.7228199 -0.9833541 0.042099576
0.6069207 -0.16297995 0.60881674 1.109728 0.3803697 0.13959664 0.43208465 0.044494566
0.41335377 1.0487887 0.26104206 0.21005975 0.6846371 0.07271969 0.60188705 0.22255503
0.8918173 -0.7063407 -0.95852876 -0.3027443 -0.9272476 -1.35515 -0.5320176 -0.029098148
-0.4901296 -0.040491562 -0.061764054 0.18268384 0.22869074 -0.24926259 -0.34477794 -0.26292768
-0.1883984 -0.3707841 -0.25300744 0.25248912 0.8978001 0.565017 -0.06985315 0.24872555
-0.047729522 -0.5401693 -0.7153773 -0.7201656 0.14987096 0.7367839 0.31457868 0.10317842
0.45217764 0.103205815 0.6114135 0.067087024 -0.33427817 1.2017171 -0.25158408 -1.5338498
0.11731219 -0.08641119 -0.14321294 1.0244381 0.044432305 -0.8755473 1.8047055 -0.08609428
-1.9595662 0.63186175 0.09341151 -0.4128117 0.44225174 0.01079331 -0.47317708 1.1625332
-0.080520846 -1.4636654 0.30203882 0.10574128 -0.18468302 -0.6114904 -0.10888781 -0.45495164
-0.2424558 0.18191138 0.12025521 -0.17674473 -0.27367783 0.42256162 0.26565492 0.8847021
0.07461622 0.2889521 0.83028764 0.36288148 -0.6191182 -0.616759 -0.14449859 0.26379308
0.71686316 -0.08625318 0.41042873 0.77003884 0.1442211 -0.7217738 -0.8316861 -0.6472063
0.87284344 1.8328074 1.2138739 -0.012807962 -0.21912254 -0.04183119 -0.861261 -1.885628
-0.9042794 0.56982875 1.4034568 0.6120451 0.12963656 -0.12262713 -0.17738757 -0.50032574
-1.5117038 -0.7070256 -0.21268794 0.6729464 0.0035380237 0.108764865 0.19213891 0.08777799
-0.055139914 -0.59899276 -0.019575367 -0.37500396 -0.06780635 0.77420807 0.4943839 0.25719845
-1.8674699 -0.13773878 0.8223481 -0.3929722 -0.62047863 0.15327966 0.8192352 0.528263

dense1.0.bn1.weight f4 [24]
00000000: 9271 db3e ac94 793f c5b5 1f3f 61b8 483f
00000010: c155 2d3f ba11 883f 83ad 073f 5db8 843f
00000020: 8281 383f ebe0 e53f 2975 0140 6bc2 253f
00000030: 5cb7 803f 63e5 c53e ad2b 2d3f 252e 0d3f
00000040: 9eba dc3e f742 b83e faaa 343f 5509 eb3e
00000050: f0bd 5b3f b4ac 2d3f 0adc dc3e c1d2 013f
0.42860085 0.9749248 0.62386733 0.7840634 0.67708975 1.063041 0.5299913 1.0368763
0.72072613 1.7959265 2.022776 0.64749783 1.0055957 0.3865157 0.6764477 0.55148536
0.43111128 0.3598859 0.7057339 0.45905557 0.85836697 0.6784165 0.43136626 0.5071221

dense1.0.bn1.bias f4 [24]
00000000: d6a2 56be 2525 183f bb44 c3be 5f42 e53e
00000010: f24b 953e 12e7 be3e 5e6f 213f affd d13e
00000020: f298 133f 0ecb 7d3f c94d 933f 7fbc 7b3d
00000030: 2d3a 713e bfa3 773e 7d8b 753e b9a7 14bf
00000040: 5fa8 61be 3b42 52be e584 e0be 24ca 7bbe
00000050: b996 2cbf 5bc0 0fbf c9b3 a83e 293e 37bd
-0.20960554 0.5943168 -0.38138375 0.447772 0.29159504 0.37285668 0.6306056 0.41013858
0.5765525 0.9913796 1.1508113 0.06145906 0.23557349 0.24183558 0.23978992 -0.58068424
-0.22036885 -0.20533077 -0.4385139 -0.2458883 -0.67417485 -0.56152886 0.32949665 -0.044737015

dense1.0.conv1.weight f4 [12, 24, 3, 3]
00000000: 8eae c73b 3d83 043e d3e0 84bc 43b7 d53c
00000010: 6a79 223e 131a d23c 7a8e 86bd 002b 273d
00000020: 9bca 98bd 4342 733e 2057 b73e c2df a83e
00000030: 01d6 b83d db3e 933e ff6f a33e 1b87 94be
00000040: 2666 abbd bd96 9cbd fbdb d93c 4b97 ef3d
00000050: 4650 11bc 810e e93d 656d 393e 77c1 6a3d
00000060: da25 de3d 021d 333e 347a b73d c875 35bc
00000070: b468 c73d d712 143e 24d9 febc 6030 173e
00000080: 8a26 453e d0ed be3d c88d 753e 35c4 653e
00000090: d21f cfbc e2fe 62be 3235 5abe 5968 9c3e
000000a0: 9f91 fc3d f54f 4d3d 0e76 1f3f 6394 023f
000000b0: 774b be3e df55 9a3e a7db f73e 2de4 7b3e
000000c0: 18ca 0f3e 4548 b93e fba1 123e 446c 56be
000000d0: a80c f53c ae7b d9bd 3d45 f13d 9562 0b3e
000000e0: a62f 833e 2f0d 653e 8408 683e c76f 463e
000000f0: 02c9 0d3d 61aa 28be f178 0cbe c7c4 08bf
00000100: 66cc 66be aba5 48be e385 3a3d b166 d83e
00000110: 2ec3 b83e eadf f13d bb9b 053f 16f3 c53e
00000120: 00e0 943d c443 803e 6791 df3d 654d 613d
00000130: c53e 503e d78f ba3d 92e6 8ebe bce1 50be
00000140: f1c5 31be faf1 083e dbcf cc3d 58a2 adbe
00000150: 323e 033f 0ea0 f83e f224 0cbe e8ed 0a3e
00000160: bf05 c03d 94f3 51be ae1b c1bd c754 ad3d
00000170: 862b aebd 595a f4bb 172c 913e f014 483d
00000180: 1b2c 67be 211c 893e 9eb8 a13d 461a ddbe
00000190: cdb0 85be fe7d ae3c 4572 5cbe ad20 56bc
000001a0: 2e4a 663e 7a49 473e 7c4b de3e 17b2 0a3f
000001b0: 4c6d 97be a6e8 a6be aee9 4fbd 1005 c4be
000001c0: 0c7b d9be a219 09be df57 46be c5cc 6abe
000001d0: ea13 56bb 944e 2dbe 283a 7bbe 7260 b6bc
000001e0: 3429 8dbe 4991 c5be a58e 0bbe 3c1c d8bd
000001f0: 5a36 44be 8ee1 863a 528d 27be 749c 66be
00000200: 6f66 8abe 37fd 18be 4ab7 24be a28e 5ebe
00000210: fb0d b0bd abe4 ebbd 5f63 60be df94 c6bb
00000220: 6557 65bb a4ca 893c 7662 ecbd 2bda d7bd
00000230: deac 8bbd fb84 10be e18f ecbd b5d6 b7bd
00000240: 8f22 bc3c 5d35 adbd 84cb 963c 2745 80bd
00000250: 121d 62be e5cf 0fbe 509d 3c3d 96f7 03be
00000260: 4c39 96bd b9ba b1bd adec 3dbd c82d 16be
00000270: fd81 debc adde f4bb dc54 dfbd 67fa 9cbd
00000280: 82ec 61bd 1757 1dbe 10a4 d8bc d80d 0abe
00000290: 7e54 d6bd 144f 3bbe f7ab 93be 8431 85be
000002a0: 5c76 52bd e562 06be 2ef3 c3bd 36fa cfbd
000002b0: 9a22 8fbd aecb 4abc 9cf7 12be 808a e0bd
000002c0: d115 3abd b0ef 5ebd e988 1bbd 8a71 e93c
000002d0: bd9c 33bd 3b52 5abc b4a7 1cbe a56a b3bd
000002e0: 38c2 05bd 9668 adbd 39dc eebd 412e b2bc
000002f0: 999a dbbd dae4 03be a687 9cbd 4c60 59be
00000300: 278f 2bbd 80a1 5c3c 4a44 1cbe 26fd 5dbd
00000310: 504e bb38 3abc 09be c810 f2bd 18d5 2cbe
00000320: e60b 85be 83a9 0cbe a674 4abe ba5a a1be
00000330: 02e5 7bbe fc0e 9abe bcaa debe 7d36 65bd
00000340: 4f47 5abd 8417 723d c3d9 f5bd 65a3 f9bd
00000350: 23f5 2b3c 69ec d43c 04eb 2c3d 1411 0a3e
00000360: 7cd7 9bbc 4dd7 63bd 4774 bbbc 0d78 93bc
00000370: 4b7d d2bd 1cdf 4ebd 11ba 083e d8be ac3d
00000380: 54d1 af3d 3a56 193d 6542 a53d 56c6 413e
00000390: 5573 0bbe 6103 d4bc 7386 cc3d 2c82 6a3d
000003a0: bf93 1a3c 6f5d 0fbe e9ed 55bd d372 4fbd
000003b0: 2b6c 68bc 1a02 87bd 33a5 b4bd 6f3f 40bd
000003c0: d18b 363c e6cb 34bc eede ac3c 4a41 01bf
000003d0: 0ecd 27bf f2c5 babe dd37 2ebe 89c7 dd3b
000003e0: 82e5 76bd 8994 de3e b24d 2e3f c58a 2f3e
000003f0: 938a 4cbe c59f 95be 1b17 1cbe 61c9 d83c
0.0060938066 0.12940688 -0.016220486 0.026088363 0.15866628 0.025647199 -0.06570144 0.040812492
-0.07460519 0.23755746 0.3580866 0.32983214 0.09025193 0.28758892 0.31921384 -0.29009327
-0.08369093 -0.076459385 0.026594153 0.11698779 -0.008869236 0.113797195 0.18108137 0.05731341
0.10847063 0.17491534 0.08958855 -0.0110754445 0.097367674 0.14460312 -0.0311094 0.14764547
0.19252983 0.09322703 0.23979867 0.22438128 -0.025283728 -0.22167543 -0.21309355 0.3054836
0.123324625 0.05012508 0.6228951 0.5100767 0.3716695 0.3014364 0.4840977 0.24598761
0.14041936 0.3618795 0.14319603 -0.20939738 0.029913262 -0.10619293 0.11780784 0.13611825
0.2562229 0.2236831 0.22659498 0.19378577 0.034615524 -0.16471244 -0.1371801 -0.5342526
-0.2253891 -0.19594447 0.04553784 0.42265847 0.3608641 0.11810286 0.5219075 0.38662022
0.07269287 0.250517 0.10916405 0.05500545 0.20336445 0.091094665 -0.27910286 -0.20398611
-0.17360665 0.13373557 0.10000583 -0.3391292 0.5126678 0.48559612 -0.13685969 0.13567317
0.09376096 -0.20503074 -0.094291076 0.084634356 -0.08504395 -0.0074570593 0.2835395 0.048848093
-0.22575419 0.26779273 0.07896541 -0.43184108 -0.2611145 0.021300312 -0.21527965 -0.013069314
0.22489235 0.19461623 0.43416965 0.54177994 -0.29575574 -0.32599372 -0.050759964 -0.38285112
-0.4247669 -0.13388684 -0.19369458 -0.22929676 -0.0032665678 -0.16924506 -0.24533904 -0.022262786
-0.27570498 -0.38587406 -0.13628633 -0.1055226 -0.19161358 0.0010290609 -0.16362503 -0.2252062
-0.27031276 -0.14940344 -0.16085544 -0.21734098 -0.085964166 -0.11518224 -0.21912907 -0.0060602273
-0.0034994718 0.01682026 -0.115422174 -0.10539659 -0.06820081 -0.14113228 -0.1155088 -0.08976499
0.022965698 -0.08457444 0.01840759 -0.0626319 -0.22081402 -0.14044149 0.046048462 -0.12887415
-0.07335147 -0.08678193 -0.04636829 -0.14665902 -0.027161593 -0.007472834 -0.109048575 -0.07664948
-0.055157192 -0.15365253 -0.026445419 -0.13481843 -0.10465334 -0.18291885 -0.28842136 -0.2601434
-0.051382408 -0.13123663 -0.09567867 -0.10155146 -0.069890216 -0.012377663 -0.14352268 -0.10963917
-0.045430962 -0.054427803 -0.037972365 0.028496522 -0.04385065 -0.013325269 -0.15298349 -0.08760575
-0.032655925 -0.08467214 -0.11663098 -0.021750571 -0.107228465 -0.12880269 -0.076430604 -0.2122814
-0.041884568 0.013466239 -0.15260425 -0.0541965 8.931442e-05 -0.13450709 -0.11819607 -0.16878164
-0.2598564 -0.13736539 -0.1977106 -0.3151453 -0.24599078 -0.30089557 -0.43489635 -0.055960167
-0.05329066 0.059104457 -0.120044254 -0.12189368 0.010495457 0.025991635 0.042216316 0.13483077
-0.01902365 -0.05562525 -0.022882594 -0.01800158 -0.10277804 -0.050505742 0.13352229 0.08434838
0.08584848 0.037435748 0.080693044 0.18923315 -0.13618214 -0.025880517 0.09986582 0.057253048
0.0094346395 -0.14000486 -0.052228842 -0.050646614 -0.0141859455 -0.06592198 -0.08820572 -0.046935495
0.011141733 -0.011034941 0.021102395 -0.5049025 -0.65547264 -0.36479145 -0.17013498 0.006768171
-0.06027747 0.43472698 0.68087304 0.1714278 -0.19974737 -0.29223457 -0.15243189 0.026463212

dense1.1.bn1.weight f4 [36]
00000000: 305d 173f 8da3 cb3e e47a 8f3e 26e8 a03e
00000010: f278 393f 44e3 c13e 5a37 ed3e ffd8 953e
00000020: 4a6d c43e d8f0 f43e b9c1 bd3e cbff 963f
00000030: a9b1 053e a5f4 0c3e 8dbc 993e 8d89 4a3e
00000040: c8cc 8e3f f753 893f 45b8 143f c3a0 353f
00000050: 8ef3 213f d320 6c3f c71e a33e f26f c73e
00000060: 27ca e33e 6229 423f 6dd0 7b3f 8204 9c3f
00000070: 05f6 0b3f 3f46 303e e80f 763f 56bc a83f
00000080: 6b4a 483f 305e 123f 9bd1 c73e 9d4a 3c3f
0.5912657 0.39773217 0.28023446 0.31427115 0.7245017 0.37868702 0.46331292 0.29267117
0.3836463 0.4784 0.3706186 1.1796812 0.13056053 0.137652 0.30026665 0.19779034
1.1156244 1.0728749 0.58093673 0.7094843 0.6326226 0.92237586 0.3185942 0.38952595
0.44490167 0.75844395 0.9836491 1.2188876 0.5467227 0.17214297 0.9611802 1.3182476
0.7823855 0.5717497 0.39027104 0.7355135

dense1.1.bn1.bias f4 [36]
00000000: b450 2d3e 294a 32be f843 3dbe 8d93 bebe
00000010: ddd9 b13e f3c7 46be eb7e c83c 3729 c2bd
00000020: 5d17 0d3e fc32 073d c202 6c3d ece7 0cbe
00000030: 30b0 fdbb 0aaa 41be 3f0a 4abe 2099 2ebe
00000040: 3991 4fbe ac30 a23e f028 76be 4e01 b8be
00000050: 9e6b e4be daaa f9be 392d a03d acce 58be
00000060: 422c 91be ae59 563f 45d5 d03e a2ce a33d
00000070: 9739 85be 6227 31be e082 f8bd e445 223f
00000080: f8d5 e7bc 7ef5 2ebe 1e30 e2bd 6fb0 4b3e
0.16925317 -0.17411102 -0.1848296 -0.37221947 0.3473653 -0.19412212 0.024474582 -0.09480517
0.13778444 0.033007607 0.057619818 -0.13760346 -0.0077419505 -0.18912521 -0.19730471 -0.170506
-0.20270242 0.3167776 -0.24039054 -0.35938495 -0.44613355 -0.48763162 0.078211255 -0.21172589
-0.2835408 0.8373059 0.40787712 0.079983965 -0.260205 -0.1730018 -0.121343374 0.63387895
-0.02830027 -0.17085835 -0.11044334 0.19891523

dense1.1.conv1.weight f4 [12, 36, 3, 3]
00000000: 9fa2 e7bd f1a5 293e ec2a df3e e871 8fbe
00000010: 33de adbb b043 9a3e eccb adbe 30ed 48be
00000020: b57a b93d aad0 c3bc 3224 c1bc d1c6 4bbe
00000030: eac6 a0bd a1ea 47bc 4e0d 0ebe 4d34 05bd
00000040: 6aff 04bd 5aeb 53bc e2a2 8abd fe62 2d3d
00000050: acdd 123e 4b68 abbd 674a 303d bf94 013e
00000060: 2cf6 6ebd dcc7 ec3c cba7 ea3d b27c 71bd
00000070: 26f7 74bb 78a3 873d dd9d 1c3d 6d92 82bc
00000080: 87eb 993d 391a f03d 666c 1d3d 9213 fb3d
00000090: d597 13be a423 e33e 6d0b 713e a103 4cbe
000000a0: 19fd 903e e5cf af3d 9d62 3dbe 7e6e 54bd
000000b0: 9b39 40be 62aa fcbc 64dc 18bc a711 ec3b
000000c0: 52b2 00bd 1732 1abd 702c d8ba e026 9cbb
000000d0: 2a13 d4bc 9b77 023d 4754 19be 6a43 43be
000000e0: b6bd d9be 1f91 2bbe 072b 91bd 379b 08be
000000f0: 6ff5 c83c b181 043e d3b4 bfbe d6d5 203d
00000100: 6067 803d ddea 3fbc 00e7 8dbc 66fa 273d
00000110: 239a 4ebd be5b d6bc a7d3 c5bb 6a1e b9bc
00000120: f6cf de3c 8d8e 24be ba85 553d bdf3 3dbe
00000130: 4103 7f3c 9a0a bb3d 4076 80bd 9b84 fd3d
00000140: 46c9 96b9 875f e9bd 306c 253c d509 d7bd
00000150: e78a 1cbe 609d aebc 7c45 b5bd 881a 3ebd
00000160: a7d9 52bd deba 65be 2d6b 6fbe ac33 013e
00000170: 314d babc 0ba3 4fbe 0f25 8f3d f0b0 fdbd
00000180: d1fc 99ba 8212 20be efbd 853c 8094 d0bb
00000190: 8724 a13d e21e 433e 0f61 dcbd 25fc 1abd
000001a0: 5b32 073e 38f5 9ebc c81d a2bd 5059 933d
000001b0: e516 24bd 4972 5e39 50d0 56bd 3099 3fbd
000001c0: d820 cc3c 9ab3 e4bc ec75 2ebc def7 b43a
000001d0: 4023 74bc 58eb 4bbb 5946 1e3d c999 faba
000001e0: f381 10bc 0373 363d 94c3 d7bb 3472 9dbc
000001f0: 8e8e 99bb da70 cebc 23e7 79bd 3151 febb
00000200: f52c 2a3d eba1 273d f7c3 babb 853b 0c3d
00000210: 9efa 043e 7154 b23c 9f22 ae3d 553d 6d3d
00000220: 402d df3c 0f2c af3a a0fe 273d ee22 673c
00000230: e814 6cbb 0494 e53c ea7f 883c e8df 013d
00000240: e767 39be e6b0 29bd 2e97 53be 2855 e4bd
00000250: b207 653e d39b 2a3d d357 b7bc 3e65 2b3e
00000260: 0fac f3bc 562c 663d 0591 b93e 2a02 a03e
00000270: 4cc1 32be 498c 263e dfe8 423e 5d95 bfbe
00000280: 3c4d 3fbe 2a02 38be 0840 0e3e 3f90 0e3e
00000290: f9c1 0d3d 8857 273c 7336 d03d efd2 933d
000002a0: 7c3a b4bd c594 e03c a36e c13d 9783 08be
000002b0: e76a 723d 9ffd 2d3e e67b dbbc 999c f53d
000002c0: 555e 2f3e 2d8b bd3c 5e3d d63d ef83 c33d
000002d0: 5648 04be 6062 a2be 591f 39be b359 efbd
000002e0: f477 8abe 0e98 bebd c45a babc d940 62be
000002f0: 0e7d 083e d05f e5bd a6f4 f03d a649 6a3e
00000300: 3b30 fbbd ffb3 dc3d beff 823e cbd9 8dbd
00000310: 831c cf3d cc05 6c3e 1901 383c ba35 6e3d
00000320: a56b f83b 8bab 4d3d c1d4 723d 4b70 ea3b
00000330: 2144 3b3d 9dfe 723d f090 973c b6d6 c9bd
00000340: fcc2 db3c 192b 843d 2c8f 82bc 0348 bc3d
00000350: 2f99 e63d 6f69 463c f897 953d e34c 5f3d
00000360: f1b1 e23d 4732 b43c 645e cc3d 3219 57bc
00000370: b5fd 6cbd 985b 173e ced2 853c b170 10bd
00000380: 99d6 da3c facd 663d 21d9 043e 5b19 86be
00000390: 42cf d33e 6783 b3be 7ffc f6bd 0e03 2cbd
000003a0: 0709 e93d 2f95 b83e 9ff9 3c3d 9044 b3be
000003b0: e9de 4c3d 84b9 f4be 7ce1 393e 7556 d23e
000003c0: 8941 613c 3769 bb3e 3b42 2cbd 1f83 8cbe
000003d0: 72d2 a7be 960e 6f3d d910 81bf 50df 883f
000003e0: fe67 af3e 97e1 e33e 6bec 7ebe b0c0 b8be
000003f0: ba09 f03c f3c4 623d 48bd c83d a55b 863d
-0.113103144 0.16567208 0.43587434 -0.2801659 -0.005306029 0.30129766 -0.33944643 -0.1962173
0.09056608 -0.02390321 -0.02357683 -0.19900061 -0.0785044 -0.012201936 -0.13872263 -0.03252058
-0.032470144 -0.01293453 -0.06769349 0.042330734 0.14342374 -0.08369502 0.043039706 0.12654398
-0.058340237 0.028903894 0.11457785 -0.05895681 -0.0037378757 0.06622976 0.038236488 -0.015938962
0.075156264 0.117237516 0.038433455 0.12259592 -0.14413388 0.4436313 0.23539515 -0.1992326
0.28318098 0.085845746 -0.18494649 -0.051863186 -0.18771975 -0.030842964 -0.009329889 0.0072042528
-0.03142006 -0.037645426 -0.0016492736 -0.0047653764 -0.025888044 0.031852346 -0.14973556 -0.19068685
-0.4252755 -0.16754578 -0.07088285 -0.1334046 0.024531094 0.12940098 -0.37442645 0.03926643
0.06269717 -0.011713711 -0.017322063 0.041010283 -0.050439965 -0.026166793 -0.006037194 -0.02259751
0.027198773 -0.16070004 0.052129485 -0.1855001 0.015564741 0.091328815 -0.062725544 0.12378808
-0.0002876019 -0.113951735 0.010096595 -0.10499922 -0.15287362 -0.021315277 -0.08851144 -0.04641202
-0.0514771 -0.22434565 -0.23380728 0.12617368 -0.022741886 -0.2027704 0.0698949 -0.12387264
-0.0011748319 -0.1563206 0.016325919 -0.006365359 0.07868295 0.1905475 -0.107607 -0.03783812
0.13202803 -0.019404039 -0.079158366 0.071947694 -0.040060896 0.00021214144 -0.052444756 -0.04677695
0.024918005 -0.027917672 -0.010648232 0.001380678 -0.014900982 -0.0031115618 0.038641308 -0.0019119318
-0.008820045 0.044543277 -0.006584594 -0.019219495 -0.0046861833 -0.025200296 -0.061011445 -0.0077611436
0.04154678 0.0409259 -0.0056996304 0.03423645 0.12986228 0.02176878 0.08502697 0.05791982
0.027243257 0.0013364571 0.041014314 0.014107449 -0.0036023203 0.02802468 0.016662557 0.031707674
-0.18106042 -0.04142847 -0.20663139 -0.11149055 0.22366217 0.04165251 -0.022380745 0.1673784
-0.02974513 0.056194626 0.36243454 0.3125165 -0.1745655 0.16264452 0.19034146 -0.37418643
-0.18681806 -0.17969576 0.13891613 0.13922213 0.034608815 0.01021374 0.10166635 0.07217967
-0.088002175 0.027414689 0.094449304 -0.13331448 0.05918398 0.1699128 -0.026792478 0.11992759
0.17125829 0.023137653 0.104609236 0.09546649 -0.12918219 -0.3171568 -0.18078364 -0.11687031
-0.27044642 -0.09306346 -0.022748359 -0.2209505 0.13328955 -0.111999154 0.11765413 0.22879657
-0.122650586 0.10776519 0.2558574 -0.06926306 0.1011286 0.23049086 0.01123073 0.058156706
0.0075811916 0.050212424 0.05928493 0.0071544996 0.04571927 0.05932485 0.018501729 -0.09855406
0.026826374 0.06453533 -0.01593741 0.09193423 0.11259686 0.012110098 0.07304376 0.054516684
0.11069096 0.02199663 0.09978941 -0.013128566 -0.05785914 0.14781034 0.016335871 -0.03526372
0.026713656 0.05634878 0.12973453 -0.2619122 0.41369063 -0.3506119 -0.120598786 -0.0419951
0.11378675 0.36051318 0.046136495 -0.35013247 0.05001727 -0.47797787 0.18152422 0.41081586
0.013748535 0.3660371 -0.04205535 -0.27443787 -0.32777745 0.05836352 -1.0083266 1.069315
0.34259027 0.4450805 -0.24894874 -0.3608451 0.029301513 0.055363607 0.098017275 0.065604486

dense1.2.bn1.weight f4 [48]
00000000: 208b d73e cf37 343e 0707 d33e b028 fd3e
00000010: 81cf 613f 7a71 1c3e 6c3e d53e 0462 ad3e
00000020: 88e0 7e3e 8da5 ab3e c547 693e 8734 1f3f
00000030: 591d c43d d7fd b63e 9e83 ef3d c367 eb3e
00000040: 2220 ae3e d736 0c3f 2df9 133f e31a 883e
00000050: 51a3 343f 014e 943d 9a70 a83e 8a07 4b3e
00000060: 6d7d 373f f168 e33e eff9 833e 7b84 863f
00000070: 94a6 493d 0aeb 2f3e 25e8 253f e4c9 6f3f
00000080: 60cf a13e 66a4 623e 2789 9a3e 278b 2b3f
00000090: 6a07 bf3f 6145 813f eb3c a03e bf06 273f
000000a0: bda8 5a3f 25cc e63e 4bdb bc3e adf2 833f
000000b0: 8217 ab3f 1d0b f03e 1057 4f3e a4a5 2c3f
0.4209833 0.17599414 0.412163 0.49445105 0.8820725 0.15277663 0.41649187 0.33863842
0.2489034 0.33524743 0.22781284 0.62189525 0.0957591 0.3574054 0.11695026 0.459776
0.3400889 0.5477118 0.5780209 0.26583013 0.705617 0.072414406 0.32898408 0.19827095
0.7167576 0.44416 0.25776622 1.050918 0.049231127 0.17179504 0.6480735 0.93667436
0.31603527 0.22133026 0.30182764 0.67009205 1.4924138 1.0099298 0.31296477 0.6524467
0.85413724 0.45077625 0.36886057 1.0308434 1.3366549 0.4688348 0.20248055 0.6744025

dense1.2.bn1.bias f4 [48]
00000000: 8fa7 19bd af6f 4cbd c52d aabe 1952 cfbe
00000010: c00a 913e 6c78 26bd c12b 1b3e 2a1b 40be
00000020: f717 eb3c 152d 823d da4b cdbc 9a96 c03e
00000030: 2b52 82bd cbe9 aabd aa88 033d 0154 0ebf
00000040: 2a41 8a3e 1657 e1be 4f9f 77be 512f 6dbe
00000050: 2b11 d43e 11b3 76bd ea50 e8bd 92ee 31be
00000060: ef10 07bf 02ae b73e fd80 533d dbe3 be3d
00000070: 0612 8bbd 0fc8 f9bd 21e6 963d fb35 be3e
00000080: 982b 8cbd b993 9f3d 97f5 3ebe ca23 4cbe
00000090: 4f84 123f b867 7cbc 834e 81be b52a 24be
000000a0: c560 05bf 5c20 a3be 8103 babd 5736 a4be
000000b0: a974 b63e 662a 14bd 722a 33bd b428 c33e
-0.037513312 -0.049911197 -0.33238044 -0.40492323 0.28328514 -0.040642187 0.1515341 -0.18760362
0.02869795 0.06356255 -0.025060583 0.376149 -0.063633285 -0.08345374 0.032112755 -0.5559693
0.2700284 -0.44011754 -0.24181865 -0.23162581 0.41419348 -0.060229365 -0.11343558 -0.17376164
-0.52760214 0.35874945 0.051636685 0.09320804 -0.06790547 -0.12196361 0.07368112 0.3715056
-0.06844252 0.07791848 -0.18648373 -0.19935527 0.57233137 -0.015405588 -0.25255212 -0.16031916
-0.52100784 -0.31860626 -0.090826996 -0.32072708 0.3563588 -0.036173247 -0.04374165 0.38116992

dense1.2.conv1.weight f4 [12, 48, 3, 3]
00000000: 48db c93d 95b5 77bd c1c1 d5bd c236 b53d
00000010: fdd6 97bd 99e5 f1bd e9af c13d cb33 5dbd
00000020: d427 59bd cfa5 593b 0041 e23c 694e 9b3c
00000030: f71c 213c acb0 f53c 6e33 fe3c c48d a03c
00000040: b0bf 843c 2310 bc3b 04a2 b73c a7da 6ebc
00000050: bc04 d3bc c81e 6c3c f333 2cbd cb25 51bd
00000060: 3c9b 4a3c 12a8 fdbc 81e2 5ebd d0e7 9abd
00000070: 3f81 bdbd b361 cdbd d12f 763d 6b35 493d
00000080: e986 373c 715a fe3c 5452 743d e113 603d
00000090: d517 38bb 8f2f e93d 66fa 073e b2ea 0d3a
000000a0: 5a16 093e fa80 193e 7fb3 0bbd 9ef6 883d
000000b0: aee9 843d 32bc 20bc 69c0 0bbd ba7a 26bd
000000c0: 826f b73a d955 7ebc c0ff 01bd 76c0 9039
000000d0: 9aa1 d7bc 6b76 51bc c09b ba3d da74 4cbe
000000e0: 820c 213c 3b9d 913e 1377 933d c0bb c83e
000000f0: 1c7d 553e 7b37 4c3d 4222 ad3e ad00 8dbc
00000100: fcbb 62bc b738 893b 54bf 863b 2ec2 c6bc
00000110: 6c31 a5bc 2fe9 95bb 05c8 b9bc feba 36bd
00000120: b61a c2bd 6567 743c 53a5 433e 6925 813b
00000130: 95bc ac3d 3e06 1a3e aab5 193e 6303 f23d
00000140: e902 8a3d 4e7f 613d 8567 b13b da2c 7a3d
00000150: d977 023e 50c7 c43d a71c 0a3e fab8 b33d
00000160: 5565 0e3d 3fcb eb3c cbf5 193d 2957 923c
00000170: c83f ae3b bc1e b13c 9e4f dbbc 6b81 4ebd
00000180: 7596 b23c e56e 5bbc b1e0 0fbd 7fce b93d
00000190: 2169 f03c 7051 bc3d 4b1e 9c3d 6eff b1bb
000001a0: 4c96 463d fb49 853d a159 0fbd ba9a f1bc
000001b0: a47a 013c 0cc4 c23b d720 cf3b 0125 35bb
000001c0: aed8 21bb f050 9f3a 2c98 52bc f103 44bc
000001d0: a788 a0bb 02b4 d3bb 207c 873d 0c4d fc3d
000001e0: 9f40 fdbc bf5e 0a3d 3194 bf3d 2f20 95bd
000001f0: 52c1 adbc 5cb6 213d c7b3 e3bb 2e7c 96bb
00000200: bd16 8cbc ddc8 cb3c 32a8 d93c aa76 d73c
00000210: 2445 e83a 5f4c f73c 486d d63c 4189 243a
00000220: 68a9 f83c 3403 d23d d207 9abc 84af 9d3b
00000230: d158 ee3d c498 bcbc 628c f33c 80c0 ed3d
00000240: 9b52 2a3c ac4f d03d a0f8 533e 9b75 d4bc
00000250: bf34 c23d 89b6 593e 3a48 89bd 0f4c 873d
00000260: 7eb8 373e 43ce 033e 31a2 4a3c 4c16 f2bd
00000270: a85d c53d 97db f8bb 8b24 f4bd fb7d 0e3d
00000280: e038 50bd 3d3e dcbd 860e c6bd cc86 ae3d
00000290: 56da 903e 4811 00be 3f26 763d a7da 893e
000002a0: 9e6f ccbd 4493 7b3d 9399 5a3e 8ac0 343d
000002b0: 06a8 293d 72f6 d43c fc40 333d 5248 483d
000002c0: ec47 8c3c 4dd4 923c aa48 5c3c 10b1 db3b
000002d0: e232 dcbe 4c1c 8abe b169 b8be fddf 28bf
000002e0: 0ea5 02bf 0bb2 2abf 9c2e e7be ab98 b0be
000002f0: 9fd4 f5be 2c89 d9bb 4526 aebb 992a 263a
00000300: 0863 6ebb 2327 0dbc 8ec5 40bc 1c87 afbb
00000310: 6f6d 42bb 1fe3 9cbc 9d39 f73c 16df 593d
00000320: bf16 943d 8960 413b 3de8 623d c7a5 c03d
00000330: 7a6e 0e3a e38c da3c 2cd8 d03d be74 523c
00000340: 907c b53c ad33 223c aede 893c be93 c33b
00000350: cc8e 803a c610 873c acfa 4c3c d7e4 cebb
00000360: f05b 333e b6d6 223c be7b 49bd a3bd 493e
00000370: 83fe 343b 1463 b1bd 6492 1f3e e1c8 40bd
00000380: 5650 0dbe 425d dcbc 64e6 f33b dd36 8b3d
00000390: 6e6c f2bd ac7f 25bb 083a 723e c549 74bd
000003a0: 5bd2 e63c 745f 8b3e 37d6 3ebc 5647 0cbb
000003b0: ac53 a93d 72fa f93d 91d9 883d dac4 303c
000003c0: 3bee 143e 7ad8 813d c4ae 0a3b e2f8 b63d
000003d0: 7f97 10bd b854 d9bd 057c 183f 4416 be3e
000003e0: 519f cc3d 36f0 493e 0e6f 113e 574a 8abd
000003f0: 32d8 d03b 13d5 1b3b 92d1 1a3c cc89 2abc
0.09856278 -0.060475904 -0.10437346 0.08848335 -0.07414053 -0.118113704 0.0945738 -0.05400447
-0.0530165 0.0033210402 0.027618885 0.018958287 0.009833566 0.02999147 0.031030383 0.01959885
0.016204685 0.0057392283 0.022416122 -0.014578498 -0.025759093 0.014411636 -0.04204173 -0.051061433
0.012366112 -0.030963931 -0.05441523 -0.07563746 -0.09253167 -0.100284 0.060104195 0.04912321
0.011201599 0.031048985 0.059648827 0.054706458 -0.0028090377 0.11386024 0.13279113 0.00054136955
0.13387433 0.14990607 -0.034106728 0.066876635 0.06489883 -0.009810494 -0.034119043 -0.040644385
0.0013995024 -0.015523397 -0.031738043 0.00027609215 -0.026322175 -0.012784581 0.09111738 -0.1996645
0.009829642 0.2844027 0.07200446 0.39205742 0.20848507 0.049857598 0.338152 -0.017212236
-0.013838764 0.004187669 0.0041121636 -0.024262514 -0.020165168 -0.004574917 -0.022678385 -0.044611923
-0.09477751 0.014917229 0.19106035 0.003941227 0.08434407 0.15041444 0.15010706 0.11817052
0.06738836 0.055053048 0.005413952 0.06107793 0.12741031 0.09608328 0.13487493 0.08775516
0.034764607 0.028783439 0.037587922 0.017863827 0.005317662 0.0216211 -0.026771363 -0.05041639
0.02180026 -0.013393139 -0.03512639 0.09072589 0.029347004 0.091952205 0.076229654 -0.005432061
0.048483178 0.06508251 -0.034997586 -0.029492725 0.007902775 0.0059437808 0.0063210535 -0.0027640464
-0.0024695802 0.0012154859 -0.012853663 -0.01196383 -0.0048991027 -0.0064606676 0.06615472 0.12319383
-0.030914603 0.033781763 0.09354437 -0.07281529 -0.021210346 0.039480552 -0.0069489214 -0.00459244
-0.017100686 0.024876053 0.02656946 0.0263017 0.0017720801 0.030187784 0.026175156 0.0006276556
0.030354217 0.10254517 -0.018802557 0.004812183 0.11638034 -0.023022063 0.029730026 0.11608982
0.010395671 0.10171446 0.20700312 -0.025934985 0.09482717 0.21261038 -0.06703229 0.06606304
0.17941472 0.12871651 0.012367771 -0.11820659 0.09637004 -0.0075945365 -0.119210325 0.034788113
-0.05083549 -0.107540585 -0.09670739 0.08521804 0.28291577 -0.12506592 0.060095068 0.2692463
-0.09982227 0.06141974 0.21347646 0.044128932 0.041420005 0.02599642 0.043763146 0.048897095
0.017124139 0.017923499 0.013445059 0.006704457 -0.4300757 -0.26974714 -0.36018136 -0.6596678
-0.51033103 -0.6667792 -0.45152748 -0.34491476 -0.4801378 -0.0066386666 -0.0053146207 0.0006338745
-0.0036374945 -0.008615288 -0.011765851 -0.0053566825 -0.0029667278 -0.019151269 0.03017884 0.053191267
0.07230901 0.0029507002 0.05539726 0.094066195 0.00054333324 0.026678508 0.101974815 0.012845216
0.022154123 0.009900016 0.016829815 0.00596854 0.0009808182 0.01648749 0.012510937 -0.006313901
0.1751554 0.009938886 -0.049190275 0.19701247 0.002761752 -0.08661476 0.15583187 -0.047066573
-0.13800177 -0.026899938 0.007443236 0.06797574 -0.118370876 -0.00252531 0.2365495 -0.059640665
0.028176477 0.27221262 -0.0116477525 -0.0021404824 0.08267912 0.12205972 0.066821225 0.010789121
0.14544003 0.06340118 0.0021161297 0.089341894 -0.035300728 -0.10611862 0.5956424 0.37126362
0.09991325 0.1972054 0.1420252 -0.067524604 0.0063734287 0.0023778125 0.0094493795 -0.01040883

dense1.3.bn1.weight f4 [60]
00000000: 8325 963e 652a 7b3e f6d4 513e d3c0 fe3e
00000010: 7c0b 103f dd5d 543e 3205 973f 8589 aa3e
00000020: a743 f23e abee 8a3e 0d05 dc3d 6057 653e
00000030: 56d0 383e fc02 103e c48b 303f 3232 273e
00000040: 174d 823e f96a ea3d a3cd 723e fed9 2d3e
00000050: 9784 9e3f 90be 643e 9d6c 123e 64d8 da3d
00000060: 5434 513e bfb1 3c3f aa8f d13e 6a09 393f
00000070: 3aca 693e 1989 a63e 541c 373f bf4e 833f
00000080: ca36 cf3e ef7c e73e f42c 003e 0957 393f
00000090: f759 6d3f 575f 763f f7bd 0e3e 5d9f 833f
000000a0: 3f65 0f3f 8852 323e 70f9 173e 0ede 0f3f
000000b0: 8c4d f03e cd2d d83e 6974 9a3f fab6 c43e
000000c0: 6768 753f 4750 b53e d3f8 203e 6aef 033f
000000d0: 2dd5 963e a37a 133e 7b73 d03f 1e32 3d3f
000000e0: 492b 9f3f 6e3d 523e 1738 463d c4f0 da3e
0.29325494 0.24527891 0.20491394 0.49756488 0.56267524 0.20738931 1.179846 0.33308044
0.4731724 0.27135214 0.10743151 0.22396612 0.18048224 0.14063638 0.68963265 0.16327742
0.2544944 0.11446185 0.23711257 0.16977689 1.2384213 0.22338319 0.14299245 0.106858045
0.20430118 0.7370872 0.4092992 0.7227999 0.2283105 0.32526472 0.715276 1.0258406
0.40471488 0.45212504 0.12517148 0.7239843 0.927154 0.9623923 0.13939653 1.0283009
0.56013864 0.17414296 0.14841247 0.56198204 0.46934164 0.42222443 1.2066776 0.3842085
0.9586243 0.3541281 0.15719919 0.5153719 0.29459515 0.14402251 1.6285242 0.739046
1.2435085 0.20531246 0.048393335 0.42761815

dense1.3.bn1.bias f4 [60]
00000000: bdfa cebd 39a8 5abc fa23 edbd 52c3 2e3e
00000010: 94a4 223d 1790 0c3d 8941 49bd 0509 553d
00000020: b924 05be ef5a aebc 5108 d1bc 949e 33bd
00000030: 7e5b 36bd d08e 4bbd 0f99 0e3e f076 45be
00000040: dffd 44be cc54 cabd 6482 dfbc 6ff8 93bd
00000050: 32ec 4cbd f54b 4a3d 0a48 8fbd cbbd 43bd
00000060: 3f21 25be ca82 49be 727c aabe dccf 8ebe
00000070: 7a33 37be 046d 82be 468b 2cbe 804b 0abf
00000080: b053 72be bfb2 953d 3e92 dabd 2cc3 3bbe
00000090: bb69 8bbe 04fa c73e 216a 3bbe 08a5 58be
000000a0: b8da babe 635c 35be 1386 8cbd abb2 e73c
000000b0: 2d65 1fbe 2758 cd3c 0167 553e a8f5 f5bd
000000c0: 2cf6 113d eef8 b13d 8182 e4bb 3128 76bd
000000d0: bb80 033e 822d 62bd 4345 d3bc 458e c23d
000000e0: 7518 a43d f29c 02bb f4cf dbbb 02e6 b33d
-0.10106418 -0.0133457715 -0.115791276 0.17066696 0.039707735 0.034317102 -0.049134765 0.052010555
-0.1300229 -0.021283595 -0.02551666 -0.043852404 -0.044520847 -0.049696743 0.13925575 -0.19283652
-0.19237469 -0.09879455 -0.027283855 -0.07225119 -0.05002994 0.049388845 -0.06996162 -0.047788423
-0.16125964 -0.19678798 -0.3329807 -0.2789296 -0.1789073 -0.25473797 -0.16850004 -0.54021454
-0.23664737 0.07309484 -0.10672425 -0.18336171 -0.27229103 0.39057934 -0.18302204 -0.21156704
-0.36494994 -0.17711024 -0.0686151 0.028283438 -0.15565939 0.025066448 0.20840074 -0.12009746
0.03563516 0.08690058 -0.006973565 -0.060096923 0.12842076 -0.05521918 -0.025789862 0.09499792
0.08012477 -0.0019929972 -0.0067081396 0.08784105

dense1.3.conv1.weight f4 [12, 60, 3, 3]
00000000: 9b36 593d b3db 2cbc 1f3b 663c ef36 363d
00000010: d9e7 25bd 25ba 44bd d308 3d3d d390 90bc
00000020: 0f8a 03bc 7e82 c73b f31e 1ebb 9433 8cbc
00000030: c72a 3abc da9e a3bc a56b 5cbc 6071 8abc
00000040: ec0c 26bc b900 76bb d974 213c 2e85 943c
00000050: fe42 ab3c 4f5c 3eba 632d 23bc 6932 d6ba
00000060: 6e58 083c f29c 5dbc b06f 493a 115a bc3c
00000070: 0406 bc3b 5532 273d 54ea ba3d 0f16 4c3d
00000080: 7b21 e23d 9754 9dbb 2be1 14bd 87cb 493d
00000090: 7afe 413e 2047 203e cf35 fb3c 3cc7 193e
000000a0: 206e ed3d ac6c 22bc e6b2 a63d 7c8f 633d
000000b0: 32ed 46bd 8ae3 5cbc 0a6e f7bb 1585 2bbb
000000c0: 5578 27bc 0e73 bdbb 2bb6 7ebc c241 d2bb
000000d0: 0986 aebb 90af 6d3b 5877 e9bd 670c 34be
000000e0: d36a 033e 42a0 24bd 9d4e e9bd 16ea fb3d
000000f0: 3c48 353c a30a 08be e316 a53c 70c3 b13d
00000100: 18f4 5d3d 8db3 423d b4b9 db3c 8de4 1a3c
00000110: 96ca 9f3c d4da 14bc 6c62 91bc a695 01bc
00000120: a9b1 b83d 79f8 003e 0ec6 523e 9ac4 093d
00000130: 47cf 6b3d 2aac cb3d 2833 76bc 24d8 563c
00000140: 8974 223d 9842 783b 940c a8bc 580c 88bc
00000150: f047 983c c8f1 a2bc efdc 2cbd 4a6b 87bb
00000160: e9cc d8bc af23 c6bc bb53 b83c 825b c4b9
00000170: 5baa 213c 700e 1cbc 5cf9 dbbc 2d13 2ebb
00000180: 30f8 3abc d392 e8bc d63a b3bc c1b5 27bc
00000190: dde1 05bc 3327 013c a6d3 8dbc 2953 d5bc
000001a0: 00be 97bc 63e8 adbb 3f98 16bd 681f 21ba
000001b0: fc8d 483c aa1f be3b 875b afba 4962 d73b
000001c0: 9a2d f5bb 1f34 703b 3aab d23b f79c fc3a
000001d0: c4bc 0cba dba6 013d 1b49 143d 4357 0e3d
000001e0: f95e 063d 0494 c03c a6fe a03c 4ccd ba3c
000001f0: 12cb 183c 98e3 fdba 4486 8abd 6540 50bd
00000200: 3089 303d 6013 ea3c 3c6a 553c 9225 ee3d
00000210: dbec 3dbd 9111 57bd 42ed 743c 24c6 f5b9
00000220: 2df0 413c f2b5 2d3d 79ae 95bb 5899 a33b
00000230: 1ba2 2f3d 157e bebc 3859 36bc c203 1e3d
00000240: d247 f73c 50bb 0e3d 2fdb 613d c8ba 083d
00000250: 2182 d53c a034 5d3d e75a 683d a399 303d
00000260: 4282 083d a25e 053d cff8 ab3c 4f63 ccba
00000270: bbd6 083d afaa 1c3d 2eaf 08bc 3bee c03c
00000280: 5fbd 413c b76c a7ba b9fc 973d ecef 993d
00000290: f844 a03d 2fe9 913d 71b9 7b3d 753a 5a3d
000002a0: 2483 463d e472 123d 4a70 f13c 97f8 f63c
000002b0: 0363 a63c 2def 253d a4b9 083d 1f01 073d
000002c0: 6d7f da3c 1b5d f43c bf7f c33c 2498 ef3c
000002d0: f88c 2c3e f273 12be 5e93 9bbe a98f 8c3d
000002e0: c2ce 2abe d0e2 74be 3081 42bd 95bc 43be
000002f0: 75a4 4bbe 3d85 d43c 6bf5 cd3c 1540 953d
00000300: 84e8 93bc 93e5 3bbc e20b 2d3d da07 ae3a
00000310: 2cab b4bb d997 4d3d d899 753c 9fab 5d3c
00000320: ef2b 223b e95b 453c b0c3 c13b 655e f1ba
00000330: eb3d 50bc 63a8 903b 2dca 333c c5d5 423b
00000340: dc8e 873c adf9 a23c a648 b3bb 9658 803b
00000350: dc5f cc3c 7029 633c a218 803c 9681 833c
00000360: d815 793c 26a3 25bc 387b 4b3d 7c59 b7b9
00000370: 81bf eebb ce3b ec3c 464d 43bc 1fbd 10bc
00000380: 0cfd 183d d74c f5bc c048 12be ecc7 84bd
00000390: 6d14 47bd d004 87bd 4648 003d 19f7 7ebd
000003a0: e671 51bd ce8a 163c f301 d7bb 1ef3 8fbb
000003b0: 9df8 0f3c abeb 0cbd 7eb3 56bd ebfa febc
000003c0: 2a6c 0fbd 1da0 1dbd d140 40bc 3d48 c73d
000003d0: d865 10bc 6df9 dfbd dd1c cc3d a69c dabc
000003e0: ea34 03be 575a d83d 2081 a4bd 9879 29be
000003f0: 0be9 3539 e525 cc3b 9782 f63c d2bd fdbb
0.05303059 -0.010550427 0.0140521815 0.044485983 -0.04050431 -0.048029084 0.046150994 -0.017647183
-0.008028521 0.006088554 -0.0024127334 -0.017114438 -0.011362738 -0.019973207 -0.013453399 -0.016899765
-0.010134917 -0.0037537052 0.009854519 0.018129911 0.020905968 -0.000726168 -0.0099595515 -0.0016341928
0.0083218645 -0.013526188 0.0007684184 0.022992166 0.005738022 0.040819485 0.09126726 0.049825724
0.11041542 -0.0048013437 -0.03634755 0.049266364 0.18944731 0.15652132 0.030665306 0.15017408
0.1159327 -0.009913605 0.08139591 0.05555676 -0.04856605 -0.013481984 -0.0075509595 -0.0026171852
-0.0102215605 -0.005781538 -0.015546362 -0.0064165303 -0.005326037 0.0036267973 -0.11399716 -0.17582856
0.12833719 -0.040191896 -0.113919474 0.12300508 0.011064585 -0.13285308 0.020152515 0.08679855
0.054187864 0.047534514 0.026821949 0.009453905 0.01950578 -0.009085376 -0.017747127 -0.007909214
0.09018261 0.12594785 0.20583364 0.03363476 0.057570722 0.09944947 -0.015026845 0.013113055
0.039661918 0.003788149 -0.02051381 -0.016607448 0.01858899 -0.01989068 -0.042202886 -0.004132663
-0.026464896 -0.024186937 0.022500863 -0.00037452212 0.009867276 -0.009524927 -0.026852302 -0.0026561723
-0.011411712 -0.028390324 -0.021878641 -0.010236205 -0.008171526 0.007882881 -0.017312836 -0.02604063
-0.018523216 -0.0053072437 -0.036766287 -0.00061463425 0.012240883 0.0058021145 -0.0013378718 0.006572996
-0.007482243 0.003665216 0.006429103 0.0019272853 -0.00053687044 0.031653266 0.03620253 0.034751188
0.032805417 0.02350808 0.019652676 0.022802971 0.0093257595 -0.0019370196 -0.067638904 -0.05084266
0.043099582 0.028573692 0.0130258165 0.1162826 -0.04636846 -0.052506987 0.014949145 -0.00046877668
0.0118370475 0.042409845 -0.004567918 0.0049926452 0.042879205 -0.02325348 -0.01112967 0.038577802
0.030185614 0.034846604 0.05514067 0.033381253 0.026063027 0.054005265 0.056727316 0.04311527
0.03332735 0.032560952 0.020992665 -0.0015593561 0.033407908 0.038248714 -0.008342547 0.023551097
0.011824935 -0.0012773488 0.0742125 0.075164646 0.07825655 0.07124554 0.061456148 0.053278405
0.04846491 0.0357541 0.029472489 0.030147834 0.020310884 0.0405113 0.033380166 0.032960054
0.02667209 0.029829552 0.023864625 0.029247351 0.1685065 -0.14302042 -0.3038587 0.068633385
-0.16680434 -0.23914647 -0.047486484 -0.19114907 -0.19886954 0.02594244 0.025141438 0.07287613
-0.018055208 -0.011468309 0.04224766 0.0013277486 -0.0055135693 0.05019364 0.0149902925 0.013529687
0.0024745425 0.012045839 0.0059132203 -0.0018414973 -0.012710075 0.0044146045 0.010973495 0.0029729467
0.016547613 0.019894445 -0.005471307 0.0039168103 0.024948053 0.01386486 0.015636746 0.016053002
0.015202962 -0.010109698 0.049678057 -0.0003497115 -0.0072860126 0.02883711 -0.011920279 -0.0088341525
0.0373507 -0.029943867 -0.14285564 -0.064834446 -0.048603464 -0.06592715 0.031318925 -0.06224737
-0.051134013 0.009188367 -0.0065615117 -0.0043929955 0.008787301 -0.034404438 -0.05241727 -0.031125506
-0.035015263 -0.038482774 -0.011734203 0.09730575 -0.008813344 -0.10936246 0.09966443 -0.026686024
-0.12813154 0.10564106 -0.08032441 -0.1655029 0.0001734832 0.0062301033 0.030091567 -0.0077435756

dense1.4.bn1.weight f4 [72]
00000000: 574e 1b3f b0f5 a53e 1fbf 173f d6fd 753f
00000010: 3654 803f 632b 263e da78 db3e 4b48 053f
00000020: dd3b 933f ab73 5b3e 637d 3e3e a6ea ce3d
00000030: 4f1b f83d 293b a53e 7ac2 3f3f 9aa9 033f
00000040: 49e9 273f 55ce ef3e b17b 9b3e 3e65 c73e
00000050: 6d61 073f bfd7 5f3e aff3 923d 48b3 fb3d
00000060: 1d7f 903e 66fe 783f d13a 093f 178d 3c3e
00000070: 7a47 833e 9c15 2c3e 2b7d c23e 9e99 993e
00000080: 056f cb3e cd9c ea3e f61d c43e 1ae7 033f
00000090: 7f5c 1c3f 8244 893f 0cf6 a83e 8e03 4c3e
000000a0: acc9 b73e 4b81 a23d 06fb a93e e3d0 103f
000000b0: 9f2d 9e3e 9662 223f 0b61 5b3f e14d e63e
000000c0: 5e45 b43e df19 223e 87b0 a83e ea86 da3e
000000d0: 30eb a13e e8eb 773e 39ca ac3e a4f3 9e3e
000000e0: 0114 9f3f 10f5 933e 69ad 433e fc47 233f
000000f0: 297c 553e 5405 313e 9cf2 c13f 3695 6a3e
00000100: ebc4 103e 716e a43d c560 d53d 10cd 583f
00000110: 7af9 9a3d ee9f 253f dc31 9e3e b241 323e
0.6066641 0.32414007 0.59276 0.9609045 1.0025699 0.16227488 0.4286564 0.52063435
1.1502644 0.21430843 0.18602519 0.101033494 0.12114584 0.32271698 0.7490612 0.51430666
0.6559034 0.46837106 0.30367807 0.3894443 0.52883035 0.21859644 0.07175385 0.122900546
0.2822198 0.9726318 0.5360537 0.18413197 0.2564047 0.16805118 0.3798612 0.30000013
0.3973314 0.45822755 0.38304108 0.5152451 0.6107864 1.0724032 0.3300022 0.19923231
0.3589605 0.07934817 0.33199328 0.56568736 0.3089418 0.6343168 0.8569495 0.44981292
0.35209173 0.15830182 0.3294718 0.42681056 0.31624746 0.24211085 0.33748034 0.31045258
1.242798 0.28897905 0.1910912 0.63781714 0.20848145 0.17287189 1.5152164 0.22908482
0.14137618 0.080288775 0.10418848 0.846879 0.07567115 0.6469716 0.30897415 0.17407873

dense1.4.bn1.bias f4 [72]
00000000: 5ca1 09bf b1df afbc 67e9 9fbe ef92 35bd
00000010: 1c94 bfbe c733 71bc ba89 d4bd 994b 5bbc
00000020: d4d5 833d 831d 6739 f141 05bd 17b0 a9bd
00000030: 7b40 32bd 0be4 efbd 2de6 483d cc0b 87be
00000040: f21b e9be 3da9 c2be f01c 6abe bed4 abbe
00000050: 18b2 95be 8157 113e 3852 2d3c 0f56 613d
00000060: 6576 3a3d fe0e c13d dc32 56be a900 38be
00000070: d30f 103d bbc4 77bd ff80 f8bc 369a 62bd
00000080: 1f4b 12be 0d83 09be d824 acbd 1acf ee3c
00000090: ca0a 1cbe 5d2e e4bd 0098 ddbe 64f2 e1bc
000000a0: 615a 3bbe 7118 a8bd fc6e 81bd e317 11be
000000b0: 5107 f2bc 4305 373d 322a ebbd 347f d43e
000000c0: 3a98 063d c469 1f3d 3961 33bd aece bfbc
000000d0: 7ccc 5a3d c7b7 a1bd 1232 563c 5c00 abbd
000000e0: 1eba 2fbe b015 87bc 3770 533c a13c f83d
000000f0: c32b 24bd ebbf 44bd 9afc 92be 4e2b b83c
00000100: 5909 5cbc f25f ca3c f16f 08bd c61c c7bb
00000110: a6d1 a6bd a1ae 073e 1172 0e3d a799 133d
-0.5376184 -0.021468969 -0.3123276 -0.04432958 -0.37417686 -0.014721817 -0.10377832 -0.013384723
0.06437269 0.0002204087 -0.03253359 -0.082855396 -0.043518525 -0.117134176 0.049047638 -0.26376188
-0.45529133 -0.38019744 -0.22862601 -0.33560747 -0.29237437 0.14193536 0.0105786845 0.055013712
0.045523066 0.09426688 -0.20917839 -0.17969002 0.03517134 -0.06049035 -0.030334948 -0.05532285
-0.14286469 -0.13428898 -0.08405465 0.029151488 -0.1523849 -0.111416556 -0.4328003 -0.027581401
-0.18296196 -0.08207787 -0.06319997 -0.14169268 -0.029544504 0.044682752 -0.114826575 0.41503298
0.03286002 0.038919225 -0.04379389 -0.023413982 0.053417668 -0.07896381 0.013073461 -0.08349678
-0.17160842 -0.016489834 0.012905172 0.12120939 -0.040080797 -0.04803459 -0.28708345 0.022481587
-0.013429963 0.024703953 -0.03330988 -0.006076428 -0.08145456 0.1325021 0.03477675 0.036035206

dense1.4.conv1.weight f4 [12, 72, 3, 3]
00000000: 4495 bcbd dd8b 13be 2907 d5bd a8eb 06be
00000010: e451 36be ae6f 1bbe c2fa 9fbd 1144 f2bd
00000020: a26f e0bd cf55 38bc 3104 70bc 389b d2bc
00000030: 404e 923c df75 3ebc ac99 5abb e8bf b43c
00000040: 3cc2 e03c b79e 423c 1b27 42bd 1b23 9bbd
00000050: f827 a8bd f93d a1bd 5448 cebd f75b c5bd
00000060: 36b1 81bd e103 dcbd 98ee d8bd 36b2 a2bd
00000070: 2bf3 4bbd 3bce 3fbd 971f 3dbd 8bfe 39bd
00000080: 509e 66bc 0493 acbd 36a0 bebd ac47 33bd
00000090: f959 7bbe 7f9d 55be 9e1b 63be 9964 6abe
000000a0: 03b4 61be c47a 6cbe 4bcb 76be a3de 84be
000000b0: 0a72 8bbe 1e05 aabc bbcc debc 1dbe b5bc
000000c0: c480 aebc 70d6 01bd 0c24 e8bc 5303 debc
000000d0: 278b f1bc a7e7 31bc 2c47 b1ba f194 a0bb
000000e0: 08b9 e43c 7821 673b a0b3 dbbb b8c9 393d
000000f0: 4fe0 8eb9 1d29 9c3b 5952 ff3c f8aa 3f3d
00000100: ca70 773c ceff 1c3c 993c a53c bf7e a6bc
00000110: 9c42 a8bc a0d7 31ba 4536 acbc 3609 1bbd
00000120: a576 003e 1749 753d c65f d43c 7f59 b93d
00000130: ba1b 18bc 5de9 ccbd 35f1 a5bd 2f09 eebd
00000140: 5ef3 4abe b5b9 09bd 6dda f0bc 11fa 67bc
00000150: 1c3c 3bbd 8076 afbc 61c7 d7bb a918 1cbd
00000160: 7f23 b3bc 1d90 adbc 6f99 19bc 3488 3ebc
00000170: 099b 20bc 3026 cbbc 2bdf f3bc c3f8 95bc
00000180: 74e7 a9bc d2ff babc 3ed0 3cbc d62b 973b
00000190: e9c8 f83b 7cc9 cb3b eb7e 3ebc c7f5 19bc
000001a0: 6abd fdbb 4ce7 3fbc b2c8 b7bc 1ae5 3cbc
000001b0: 4f22 a5bb e04e 05bc e95b 773a d7d1 55bb
000001c0: 4466 beba 20e1 f9b9 24ca 4fbc 05e8 48bc
000001d0: a565 a7bb a1cd 76bd 2cb3 09bd d685 1fbd
000001e0: 9d4f 95bd 46e3 33bd 8046 0dbd a38f 76bd
000001f0: 0f3a 5abd 7ca7 2ebd 5c05 abbd 8799 79bd
00000200: d0db 00bd 9469 56bd dcc8 72bd b00e 94bc
00000210: d11f b3bd ea93 96bd c7e5 25bd ae27 6abd
00000220: c0a7 d0bd 6848 23bd 7f56 a6bc 3732 9dbd
00000230: bb82 30bd 209d da3b 7cec 80bd e6a0 4ebd
00000240: fad6 7ebd 2dd5 62bd 831c 0cbc 0eea 85bd
00000250: fecd 3dbd ae33 833b 4716 55bd cfbd 2abd
00000260: ac54 04bc 4cf9 14bd 21aa edbc 016f 0fbd
00000270: fc65 bfbc 778e f5bc 1633 fbbc e6be 16bd
00000280: 0179 5abd 2008 8fbd 7f54 58bd b549 85bd
00000290: 2fee 44bd 49de e6bc 5fd1 10bd 09b2 05bd
000002a0: 802d 09bd 6a8b 03bd 2061 50bd e4fc 27bc
000002b0: d465 86bc c132 42bc b289 be3b e7f9 743c
000002c0: 4ad5 78bb 9a4b af3c 4b70 923c 4069 023c
000002d0: 7d10 e3bb 5d9b 74bd e529 aebd 0f9d 493d
000002e0: 6cfc d1bc 3c4a 3dbd 7e1c a33d 951f 113d
000002f0: 2981 91bc 14cf bfbd 798a d2bd cc67 bebd
00000300: 598c aebd d963 f2bd 5b14 cebd 8632 88bd
00000310: 3b84 a9bd 1f98 8dbd 30a4 37bb 769e 273c
00000320: 970a 503b 3178 ef3c 4592 803c 01e4 f43c
00000330: 55a2 ea3c 3bc8 173d b390 023d 4375 59bd
00000340: 6848 90bd 97fd 66bd e7b1 b2bc eab5 93bc
00000350: 8c78 92bc ae1f 54bb 6ab5 4cbb de57 a4bb
00000360: d083 f1bb 8e44 c0bc 6fd6 64bc 2d46 ffbc
00000370: d78b 55bd c3f6 2fbd 23b1 b0bc 4b36 6cbd
00000380: 8c67 1ebd f27a 24be 8441 42bd b999 873c
00000390: f264 cebd 2c59 c2bd 66c6 12bd 7c15 4bbb
000003a0: 56d5 06be 81f2 4abe 0b6e cabd 2a2f 12be
000003b0: 249e 12be 1c8d 85bc a3d8 56bd 4a10 8fbd
000003c0: 08e9 a93b dc44 60ba d77e 24bb 7a75 f1bc
000003d0: be3e 08bd b1e5 21bc 94f4 66bd e1a9 40bd
000003e0: 791c dabc 2251 38bd 72c1 ecbc 636c 273c
000003f0: 6e75 6539 f5f2 38bd 8212 81bd 7417 033d
-0.09208158 -0.14408822 -0.10401756 -0.13175833 -0.17804676 -0.15179321 -0.078115 -0.11829389
-0.10958792 -0.011250927 -0.014649437 -0.02570878 0.017859578 -0.011624782 -0.0033355756 0.022064164
0.027436368 0.011878661 -0.047400575 -0.07575055 -0.082107484 -0.078731485 -0.10072389 -0.096366815
-0.063326284 -0.10742927 -0.10592383 -0.07944147 -0.04979245 -0.046827536 -0.046172705 -0.045408767
-0.014075831 -0.084264785 -0.093079016 -0.043769524 -0.2454604 -0.20860861 -0.22178504 -0.22889937
-0.22041325 -0.23093706 -0.24100988 -0.25951108 -0.27235442 -0.020754393 -0.027197232 -0.02218538
-0.021301635 -0.031698644 -0.028337501 -0.027101194 -0.029485298 -0.010858453 -0.0013525239 -0.0049005677
0.027920261 0.0035267752 -0.0067047626 0.04535839 -0.00027251474 0.0047656433 0.031167196 0.046793908
0.015102575 0.009582473 0.020170497 -0.02032411 -0.020539574 -0.0006784145 -0.021021971 -0.03785058
0.1254526 0.059884157 0.025924575 0.09050273 -0.009283954 -0.10005448 -0.08102647 -0.116228454
-0.198194 -0.03362437 -0.029401029 -0.014158742 -0.04571162 -0.02141881 -0.006585047 -0.038109455
-0.021867512 -0.021186883 -0.00937496 -0.011629153 -0.009802588 -0.024798483 -0.0297695 -0.018307095
-0.020740248 -0.022827063 -0.011524258 0.00461338 0.0075923097 0.006219087 -0.011626939 -0.009396977
-0.007743527 -0.01171286 -0.022434566 -0.011529231 -0.0050394903 -0.008136481 0.0009435998 -0.0032626295
-0.0014526327 -0.00047660712 -0.012682471 -0.012262349 -0.0051085525 -0.060254697 -0.033618137 -0.038945995
-0.07290576 -0.043917917 -0.034491062 -0.060195576 -0.053278025 -0.042640194 -0.083506316 -0.06093743
-0.03145963 -0.05234678 -0.059273586 -0.01807341 -0.08746303 -0.07352431 -0.040502336 -0.057166748
-0.10188246 -0.039863974 -0.020304916 -0.07675593 -0.043093424 0.006671563 -0.06295106 -0.050446413
-0.062216736 -0.05537908 -0.00855172 -0.06538783 -0.046339028 0.0040039634 -0.0520232 -0.04168492
-0.008076828 -0.03637056 -0.029011788 -0.03501797 -0.02336406 -0.02997516 -0.030664008 -0.03680315
-0.053338055 -0.069839716 -0.052814957 -0.06508199 -0.048078712 -0.028182166 -0.03535592 -0.03264049
-0.033490658 -0.032115377 -0.050873876 -0.010253165 -0.016405977 -0.011852921 0.0058147544 0.0149521595
-0.0037968927 0.021398354 0.017875811 0.007959664 -0.006929456 -0.05971848 -0.085040845 0.04922205
-0.02563306 -0.046213374 0.07964419 0.03543051 -0.017761784 -0.09365669 -0.10280318 -0.092971414
-0.08522863 -0.11835451 -0.10062476 -0.066502616 -0.08277174 -0.069137804 -0.0028021447 0.010230651
0.0031744593 0.029232116 0.015694747 0.029893877 0.02864186 0.03705619 0.031876277 -0.053090345
-0.070450604 -0.056394186 -0.021813346 -0.01803108 -0.017879747 -0.0032367515 -0.003123606 -0.0050153574
-0.0073704496 -0.02347019 -0.013967141 -0.031161392 -0.052135315 -0.04295994 -0.02156884 -0.057668965
-0.03867297 -0.16062525 -0.04742576 0.016552793 -0.100778475 -0.094896644 -0.03583374 -0.0030988147
-0.13167319 -0.1981907 -0.0988427 -0.14275804 -0.14318138 -0.016302638 -0.052452695 -0.06985529
0.00518525 -0.0008555183 -0.0025100017 -0.029474963 -0.03326296 -0.009881423 -0.05638559 -0.04703701
-0.026624905 -0.04499925 -0.028900836 0.0102187125 0.00021882888 -0.045153577 -0.06302358 0.03200479
