independent_train_0.0/client82/checkpoint_0.0.pth (torch, 930411 bytes, 56 tensors)

conv1.weight f4 [24, 3, 3, 3]
0.20010605 -0.38015252 0.34601423 -1.052734 -1.6774894 -0.79582894 -0.80425465 -1.4819257
-0.58617014 0.25613692 0.40078026 0.2842701 0.45669904 0.71387035 0.56108975 0.2664811
0.44589478 0.3903025 -0.6194461 -0.1323211 -0.8192833 0.50668275 1.2100813 0.36053506
0.3206735 0.9519713 0.20509519 0.102793716 0.40458915 0.1486187 -0.9463833 0.26654974
0.29755682 -0.85773665 -0.0033731428 0.28301555 -0.22752391 0.38723892 -0.19109033 -0.8321576
0.7698076 0.45688593 -0.8187518 0.46947834 0.4464107 -0.26990446 0.109333366 -0.4946082
-0.48724684 0.760867 0.25131804 -0.43082893 0.67345285 0.37550828 0.022102533 -0.25473526
-0.0073221065 -0.4483835 -0.7307374 -0.4520734 -0.26208228 -0.54735076 -0.29675353 0.22800162
0.3207254 0.24871273 0.19694531 0.3345994 0.26005563 0.19012733 0.2930012 0.23483934
-0.03319353 0.23777612 -0.052881476 0.26466268 0.6306218 0.26324552 0.12770525 0.4428358
0.095516145 -0.20849985 -1.1671973 -0.57408595 0.07986459 -0.0068565765 0.25995427 -0.007182573
0.63425934 0.4987579 -0.22092767 -1.1882805 -0.78383476 0.31111738 0.22924991 0.2906481
0.21783762 0.9042977 0.549413 -0.22204252 -1.1410838 -0.78866583 0.26736894 0.08551307
0.15439521 0.3955037 0.8946665 0.62474334 -0.84080166 -0.72309756 -0.9833118 0.040503863
0.60509604 -0.16414782 0.6057827 1.1062658 0.37774912 0.13639443 0.4286771 0.041805796
0.4082527 1.0434641 0.25677022 0.2033856 0.6775843 0.06690655 0.5982438 0.2186647
0.88857025 -0.7118243 -0.964257 -0.3075661 -0.93431824 -1.3625978 -0.53839505 -0.028261945
-0.4888793 -0.03924792 -0.06151704 0.18307006 0.22915886 -0.24889384 -0.34444413 -0.26271245
-0.18805623 -0.370103 -0.2523062 0.25233543 0.89778954 0.5651237 -0.06982157 0.24874085
-0.047798835 -0.53972596 -0.7145746 -0.71927524 0.14988127 0.7370017 0.31493783 0.10326367
0.452298 0.103256516 0.6232414 0.08052876 -0.3202738 1.2143421 -0.23721232 -1.5183215
0.13109049 -0.07139124 -0.12703678 1.0346311 0.056161933 -0.8633272 1.815779 -0.07339572
-1.9458115 0.6441894 0.10690458 -0.39824334 0.44961736 0.019518312 -0.46401104 1.1706823
-0.07095952 -1.45315 0.31148985 0.116194345 -0.17324999 -0.6153501 -0.112069696 -0.4581834
-0.24648161 0.17843327 0.11620136 -0.18118252 -0.27755186 0.41792783 0.26127157 0.8810493
0.070856415 0.28449118 0.82641 0.35840923 -0.62402624 -0.6211007 -0.14955936 0.25879744
0.71247345 -0.09083742 0.40548262 0.765547 0.13907643 -0.72707886 -0.83656096 -0.6528127
0.86830276 1.8286626 1.2101673 -0.019643173 -0.22544251 -0.047705565 -0.8698347 -1.893572
-0.91158867 0.56308895 1.3970544 0.6060184 0.12085217 -0.13103296 -0.18537818 -0.51055515
-1.5214721 -0.7161679 -0.22018468 0.66555214 -0.003578693 0.09941131 0.18289983 0.0789012
-0.06568149 -0.6093208 -0.029269889 -0.37624308 -0.06611785 0.77585346 0.49245736 0.25951642
-1.8636426 -0.1401561 0.8237341 -0.3892865 -0.6219508 0.15516984 0.8211471 0.5263692
00000000: 9ae8 4c3e 5aa3 c2be c728 b13e fdbf 86bf
00000010: f9b7 d6bf 72bb 4bbf a2e3 4dbf beaf bdbf
00000020: 3f0f 16bf 6124 833e 1233 cd3e da8b 913e
00000030: 75d4 e93e 35c0 363f 94a3 0f3f 3670 883e
00000040: 524c e43e bbd5 c73e 0594 1ebf 2f7f 07be
00000050: 8dbc 51bf f6b5 013f f2e3 9a3f 0d98 b83e
00000060: 512f a43e 64b4 733f 7904 523e 8385 d23d
00000070: 4f26 cf3e 802f 183e 2d46 72bf 3579 883e
00000080: 5e59 983e a194 5bbf f20f 5dbb 6ae7 903e
00000090: 07fc 68be 2e44 c63e 2fad 43be 4808 55bf
000000a0: 1c12 453f f4ec e93e b899 51bf 775f f03e
000000b0: f18f e43e eb30 8abe 2cea df3d 493d fdbe
000000c0: 6b78 f9be 2ec8 423f c2ac 803e 9c95 dcbe
000000d0: 6867 2c3f 9f42 c03e 5f10 b53c a96c 82be
000000e0: 48ee efbb 8692 e5be 9b11 3bbf 2a76 e7be
000000f0: a62f 86be 2e1f 0cbf 14f0 97be 4279 693e
00000100: 1f36 a43e 8dae 7e3e 08ac 493e 9d50 ab3e
00000110: 0326 853e bdb0 423e 4104 963e b979 703e
00000120: f0f5 07bd 957b 733e 3f9a 58bd de81 873e
00000130: 6e70 213f 1ec8 863e 2ac5 023e 60bb e23e
00000140: f89d c33d fc80 55be b966 95bf 4cf7 12bf
00000150: 0c90 a33d 22ad e0bb ba18 853e ca5b ebbb
00000160: d25e 223f 325d ff3e dd3a 62be 9319 98bf
00000170: 65a9 48bf c74a 9f3e 7dc0 6a3e d4cf 943e
00000180: d310 5f3e 0e80 673f 55a6 0c3f 1d5f 63be
00000190: 090f 92bf 01e6 49bf 95e4 883e 7a21 af3d
000001a0: c719 1e3e 767f ca3e dd08 653f 2eef 1f3f
000001b0: c73e 57bf ec1c 39bf 52ba 7bbf 61e7 253d
000001c0: 93e7 1a3f 5e16 28be 9314 1b3f 1e9a 8d3f
000001d0: 5568 c13e fbaa 0b3e 917b db3e 8e3c 2b3d
000001e0: 7f06 d13e 3b90 853f 6377 833e 5144 503e
000001f0: 2a76 2d3f 4d06 893d 8126 193f a4e9 5f3e
00000200: 5779 633f 1e3a 36bf 8cd9 76bf 4e79 9dbe
00000210: 7b2f 6fbf 9b69 aebf 42d4 09bf 9885 e7bc
00000220: 634e fabe 6dc2 20bd 4bf9 7bbd b876 3b3e
00000230: 9fa8 6a3e 07de 7ebe fb5a b0be 3f82 86be
00000240: d091 40be 247e bdbe 472e 81be 1c32 813e
00000250: 89d5 653f f2ab 103f 9cfe 8ebd ecb5 7e3e
00000260: b6c8 43bd 7b2b 0abf 5cee 36bf 6c22 38bf
00000270: 7a7a 193e 25ac 3c3f 883f a13e e77b d33d
00000280: 9a93 e73e 2778 d33d c08c 1f3f 43ec a43d
00000290: edfa a3be 906f 9b3f c9e7 72be 5c58 c2bf
000002a0: 963c 063e 9235 92bd ee15 02be cb6e 843f
000002b0: 0e0a 663d 0303 5dbf 726b e83f 7f50 96bd
000002c0: 5a10 f9bf 99e9 243f caf0 da3d 8de6 cbbe
000002d0: 3f34 e63e dee4 9f3c db92 edbe ebd8 953f
000002e0: 3a53 91bd d200 babf 997b 9f3e 4df7 ed3d
000002f0: 7268 31be 9687 1dbf cc84 e5bd 0497 eabe
00000300: ad65 7cbe 36b7 363e fbfa ed3d e987 39be
00000310: 471b 8ebe a3fa d53e 63c5 853e 728c 613f
00000320: 2b1d 913d d4a8 913e 9b8f 533f 6a81 b73e
00000330: 2fc0 1fbf 7500 1fbf 1726 19be 1981 843e
00000340: a964 363f f808 babd 6b9b cf3e e3fa 433f
00000350: 0d6a 0e3e d721 3abf dc28 56bf bc1e 27bf
00000360: 1749 5e3f 9e11 ea3f c3e6 9a3f b8ea a0bc
00000370: 67da 66be e966 43bd 7dad 5ebf 9160 f2bf
00000380: e05d 69bf 9926 103f aed2 b23f 0624 1b3f
00000390: 5881 f73d 812d 06be c7d3 3dbe beb3 02bf
000003a0: 99bf c2bf c856 37bf 1878 61be a061 2a3f
000003b0: 8188 6abb 2898 cb3d 184a 3b3e f496 a13d
000003c0: 0484 86bd 73fc 1bbf 68c7 efbc efa2 c0be
000003d0: cc68 87bd 559e 463f 5f23 fc3e 56df 843e
000003e0: d78b eebf 1585 0fbe 3de0 523f 8f50 c7be
000003f0: 2b38 1fbf d8e4 1e3e b236 523f 22c0 063f

dense1.0.bn1.weight f4 [24]
0.43479824 0.96636635 0.6203467 0.7779757 0.6768871 1.0599343 0.5259088 1.0375545
0.73469025 1.7924299 2.0167081 0.64785945 1.0077868 0.3876314 0.6820118 0.5495355
0.43036574 0.362168 0.7059889 0.4607376 0.8604015 0.6754798 0.43625033 0.50305873
00000000: e09d de3e c963 773f 0bcf 1e3f 6a29 473f
00000010: 7948 2d3f edab 873f f6a1 063f 96ce 843f
00000020: a914 3c3f 586e e53f bf11 0140 1eda 253f
00000030: 28ff 803f 9f77 c63e 5398 2e3f 5cae 0c3f
00000040: e658 dc3e 166e b93e b0bb 343f cce5 eb3e
00000050: 4643 5c3f 3fec 2c3f 345c df3e 75c8 003f

dense1.0.bn1.bias f4 [24]
-0.20428179 0.57558286 -0.38377094 0.4440874 0.28690577 0.36982507 0.63760066 0.4075891
0.5867303 0.9905379 1.1481186 0.06507872 0.24545558 0.24902056 0.23979189 -0.5818349
-0.22116847 -0.2037265 -0.4379884 -0.24364881 -0.67360175 -0.56408036 0.34882754 -0.04432359
00000000: 3f2f 51be 6659 133f a07d c4be 6c5f e33e
00000010: 50e5 923e b659 bd3e cc39 233f 85af d03e
00000020: f533 163f e493 7d3f 8df5 923f fe47 853d
00000030: b558 7b3e 3fff 7e3e 018c 753e 22f3 14bf
00000040: fd79 62be ae9d 50be 0440 e0be 137f 79be
00000050: 2a71 2cbf 9267 10bf 8699 b23e a78c 35bd

dense1.0.conv1.weight f4 [12, 24, 3, 3]
0.006128079 0.12940755 -0.016225096 0.026131613 0.15868191 0.025662951 -0.065665096 0.040825643
-0.074584 0.23405908 0.35360944 0.32507658 0.087337755 0.28354585 0.31451094 -0.29268926
-0.08738901 -0.08096241 0.026312876 0.1167272 -0.009171879 0.113610744 0.18093899 0.057135064
0.108327605 0.17483152 0.08946886 -0.012487761 0.09603483 0.14322956 -0.03376278 0.14501932
0.18992065 0.08935107 0.23588127 0.22061014 -0.02660279 -0.22317334 -0.21468222 0.304181
0.121867046 0.048566207 0.6217703 0.50882 0.37030885 0.30092707 0.48354563 0.24536617
0.13950665 0.36090937 0.1421347 -0.21096054 0.028225431 -0.107949995 0.11409865 0.13237788
0.25277022 0.21934994 0.22257933 0.19043978 0.030215006 -0.16850895 -0.14011283 -0.537712
-0.22948003 -0.20009999 0.04294725 0.41952884 0.35759273 0.11641344 0.519843 0.38434103
0.06578679 0.24297962 0.10201598 0.048893794 0.19667272 0.08477279 -0.28358757 -0.20886357
-0.17827724 0.12854661 0.095220484 -0.34324017 0.50727916 0.480911 -0.14073475 0.1311519
0.089932404 -0.2083478 -0.097861655 0.08077003 -0.0889619 -0.010366156 0.2805256 0.045638185
-0.22906569 0.26427197 0.07521488 -0.4331527 -0.26248655 0.019902874 -0.21662246 -0.014471325
0.22346967 0.19337465 0.43288103 0.54047906 -0.2973158 -0.32761914 -0.05232535 -0.38440922
-0.42637974 -0.13545641 -0.1951079 -0.23076093 -0.004723355 -0.17073956 -0.24691573 -0.023829529
-0.27718946 -0.38745075 -0.13787872 -0.10692186 -0.19311203 -0.0005108787 -0.16454665 -0.22606885
-0.27117532 -0.1511054 -0.16253234 -0.21899526 -0.08837724 -0.117624834 -0.2214936 -0.005994199
-0.0034037998 0.016904036 -0.115387216 -0.10534372 -0.06815311 -0.14114831 -0.11551619 -0.08975661
0.022882516 -0.0846483 0.018334536 -0.06276388 -0.22093774 -0.14056341 0.04588162 -0.12903588
-0.07351094 -0.0866404 -0.04626836 -0.14661308 -0.027025135 -0.007378055 -0.109006435 -0.07652793
-0.055071402 -0.1536109 -0.02681431 -0.13511658 -0.10492209 -0.18336013 -0.28883168 -0.26053804
-0.051813174 -0.13167746 -0.09611767 -0.10202167 -0.070372015 -0.012952871 -0.1438472 -0.10994356
-0.04582794 -0.05473161 -0.038243916 0.028136134 -0.045392238 -0.015344974 -0.15481618 -0.08885241
-0.034576196 -0.086733796 -0.11756402 -0.023445198 -0.109262794 -0.12917885 -0.07681786 -0.21274278
-0.042144764 0.013235453 -0.15290193 -0.054453116 -0.000115687486 -0.13478029 -0.11942443 -0.17004849
-0.26103568 -0.13888775 -0.19930303 -0.31662336 -0.24757303 -0.30256423 -0.436434 -0.057261907
-0.054662414 0.057596564 -0.120996945 -0.12285334 0.009370335 0.025164673 0.041412383 0.1338532
-0.019477952 -0.05611826 -0.02344284 -0.018447377 -0.10324093 -0.05102454 0.13304968 0.083865024
0.08533734 0.043182205 0.08477172 0.19230942 -0.13027099 -0.021411592 0.10324546 0.06318807
0.0141541725 -0.13635166 -0.050905354 -0.049376357 -0.012953326 -0.06457385 -0.086888924 -0.04564624
0.012533623 -0.009656589 0.022462802 -0.5039751 -0.65430915 -0.3635879 -0.17033386 0.0068998886
-0.059654593 0.43400416 0.67997545 0.17099726 -0.19677547 -0.2891578 -0.14959425 0.029096995
00000000: 0dce c83b 6a83 043e 7eea 84bc f711 d63c
00000010: 837d 223e 1c3b d23c 6c7b 86bd ca38 273d
00000020: 7fbf 98bd 2fad 6f3e 4c0c b53e 7070 a63e
00000030: 23de b23d ec2c 913e 9407 a13e 5edb 95be
00000040: 02f9 b2bd 9fcf a5bd 1a8e d73c ac0e ef3d
00000050: a645 16bc c0ac e83d 1248 393e 7506 6a3d
00000060: ddda dd3d 0907 333e 733b b73d 7799 4cbc
00000070: e9ad c43d c5aa 123e d74a 0abd f27f 143e
00000080: 8f7a 423e b2fd b63d dc8a 713e a0e7 613e
00000090: 18ee d9bc 8d87 64be a8d5 5bbe 9dbd 9b3e
000000a0: 6e95 f93d 5ced 463d 572c 1f3f 0742 023f
000000b0: 1f99 bd3e 1d13 9a3e 4b93 f73e 4541 7b3e
000000c0: d5da 0e3e 1dc9 b83e c28b 113e 0a06 58be
000000d0: 0539 e73c e314 ddbd 8eac e93d 118e 073e
000000e0: 196b 813e 459d 603e d6eb 633e a502 433e
000000f0: 7685 f73c 9c8d 2cbe bd79 0fbe 7ea7 09bf
00000100: d0fc 6abe 03e7 4cbe 75e9 2f3d 7ccc d63e
00000110: 6516 b73e 2b6a ee3d 6e14 053f 59c8 c43e
00000120: 39bb 863d a6cf 783e c1ed d03d dc44 483d
00000130: 9364 493e 5b9d ad3d 6432 91be 55e0 55be
00000140: 4f8e 36be b9a1 033e f502 c33d 2dbd afbe
00000150: 0cdd 013f f739 f63e c51c 10be af4c 063e
00000160: 7b2e b83d 2059 55be b16b c8bd c26a a53d
00000170: a831 b6bd cfd6 29bc 0da1 8f3e 1bef 3a3d
00000180: 3290 6abe a84e 873e 420a 9a3d 31c6 ddbe
00000190: a364 86be 5a0b a33c 47d2 5dbe 2319 6dbc
000001a0: 3cd5 643e 0104 463e 95a2 dd3e d65c 0a3f
000001b0: c739 98be b2bd a7be 1b53 56bd 49d1 c4be
000001c0: 724e dabe 16b5 0abe 5eca 47be 984c 6cbe
000001d0: 60c6 9abb 5ad6 2ebe 7ad7 7cbe 2536 c3bc
000001e0: c7eb 8dbe f25f c6be 1430 0dbe d9f9 dabd
000001f0: 29bf 45be 7dec 05ba eb7e 28be 987e 67be
00000200: 7ed7 8abe 60bb 1abe e16e 26be 4b40 60be
00000210: 20ff b4bd 4ae5 f0bd 38cf 62be fc6a c4bb
00000220: 4912 5fbb 557a 8a3c 2250 ecbd 73be d7bd
00000230: dc93 8bbd 2f89 10be c193 ecbd 50d2 b7bd
00000240: 1d74 bb3c 175c adbd 4f32 963c 598a 80bd
00000250: 813d 62be dbef 0fbe 5eee 3b3d fb21 04be
00000260: e78c 96bd 8670 b1bd e483 3dbd bd21 16be
00000270: d163 ddbc 9cc3 f1bb c43e dfbd adba 9cbd
00000280: 8d92 61bd 2d4c 1dbe afa9 dbbc 005c 0abe
00000290: 65e1 d6bd c2c2 3bbe bfe1 93be 3e65 85be
000002a0: 0d3a 54bd 75d6 06be 57d9 c4bd bdf0 d0bd
000002b0: 341f 90bd 4738 54bc ae4c 13be 172a e1bd
000002c0: 14b6 3bbd 412e 60bd a7a5 1cbd c07d e63c
000002d0: 36ed 39bd 7c69 7bbc 2288 1ebe 41f8 b5bd
000002e0: c59f 0dbd 7da1 b1bd 68c5 f0bd 2510 c0bc
000002f0: 2cc5 dfbd 7647 04be af52 9dbd 3ed9 59be
00000300: fd9f 2cbd 83d9 583c 5392 1cbe 3b0a 5fbd
00000310: 3f9d f2b8 d803 0abe cc94 f4bd 3121 2ebe
00000320: 78a6 85be 9738 0ebe 1816 4cbe 751c a2be
00000330: c983 7dbe b3e9 9abe 4774 dfbe 768b 6abd
00000340: b2e5 5fbd 60ea 6b3d 3fcd f7bd 889a fbbd
00000350: 0986 193c 2526 ce3c 08a0 293d d010 093e
00000360: 3a90 9fbc 43dc 65bd 330b c0bc f41e 97bc
00000370: fb6f d3bd 1cff 50bd 2d3e 083e 6dc1 ab3d
00000380: 58c5 ae3d d3df 303d cc9c ad3d c3ec 443e
00000390: c265 05be 5d67 afbc 5b72 d33d bf68 813d
000003a0: e7e6 673c c59f 0bbe 2282 50bd dd3e 4abd
000003b0: 303a 54bc 4b3f 84bd d2f2 b1bd 8df7 3abd
000003c0: d359 4d3c ab36 1ebc e903 b83c 8304 01bf
000003d0: ce80 27bf 3128 babe 006c 2ebe 7618 e23b
000003e0: 6058 74bd cb35 de3e df12 2e3f e819 2f3e
000003f0: 827f 49be 7e0c 94be 3c2f 19be d25c ee3c

dense1.1.bn1.weight f4 [36]
0.59738165 0.39884856 0.28123075 0.31961602 0.72754335 0.38082552 0.46351033 0.29286247
0.38702717 0.47827736 0.3714999 1.1803073 0.13018757 0.13866715 0.30447656 0.19510455
1.1050689 1.0726182 0.5802526 0.7081065 0.63372284 0.91941005 0.31571108 0.3889336
0.4454713 0.75793415 0.9788489 1.2159988 0.5510117 0.17369235 0.9610216 1.3228421
0.784019 0.5736459 0.3904638 0.736352
00000000: 01ee 183f e135 cc3e 7afd 8f3e b6a4 a33e
00000010: 4840 3a3f 90fb c23e 3a51 ed3e 12f2 953e
00000020: 6d28 c63e c5e0 f43e 3c35 be3e 4f14 973f
00000030: e44f 053e c3fe 0d3e 5ae4 9b3e 7dc9 473e
00000040: e672 8d3f 8e4b 893f 6f8b 143f 7846 353f
00000050: a93b 223f 755e 6b3f e2a4 a13e 4e22 c73e
00000060: d014 e43e f907 423f d795 7a3f d9a5 9b3f
00000070: 1a0f 0d3f 68dc 313e 8305 763f e452 a93f
00000080: 78b5 483f 75da 123f dfea c73e 9181 3c3f

dense1.1.bn1.bias f4 [36]
0.17320107 -0.17254658 -0.18418212 -0.37042773 0.35548127 -0.19278426 0.025851212 -0.09485848
0.13407227 0.033607945 0.057343714 -0.13582148 -0.00859893 -0.1885718 -0.19524553 -0.17177899
-0.2073406 0.31652424 -0.24132702 -0.35891074 -0.4457997 -0.48874557 0.07229632 -0.21129699
-0.28333384 0.82938546 0.40043265 0.08969601 -0.25802213 -0.17207459 -0.12137044 0.6327629
-0.024729805 -0.16907859 -0.111444846 0.1995993
00000000: 9f5b 313e 0db0 30be 3d9a 3cbe b4a8 bdbe
00000010: a401 b63e 3d69 45be ecc5 d33c 2a45 c2bd
00000020: 3e4a 093e 7ca8 093d 3ee1 6a3d c914 0bbe
00000030: 87e2 0cbc f718 41be 72ee 47be d5e6 2fbe
00000040: 1851 54be 770f a23e 6e1e 77be 26c3 b7be
00000050: dc3f e4be dc3c fabe 1810 943d 3d5e 58be
00000060: 2211 91be 9b52 543f 8205 cd3e 8bb2 b73d
00000070: 7a1b 84be 5234 30be 1191 f8bd c0fc 213f
00000080: 2996 cabc f022 2dbe 323d e4bd c263 4c3e

dense1.1.conv1.weight f4 [12, 36, 3, 3]
-0.11430437 0.16429365 0.43443972 -0.28127816 -0.0066211107 0.29990235 -0.34039903 -0.1973883
0.08930429 -0.024439968 -0.024180794 -0.19946152 -0.0790238 -0.012792661 -0.13923435 -0.032949235
-0.03297083 -0.013311045 -0.06809235 0.041919388 0.14301552 -0.08415265 0.042583633 0.12609676
-0.058801215 0.028443912 0.11413294 -0.05902618 -0.0038413429 0.06613512 0.038021598 -0.01617613
0.07490029 0.1170482 0.038330574 0.12253701 -0.14415896 0.4434236 0.23522389 -0.19963448
0.2826902 0.08544309 -0.18540022 -0.05234113 -0.18805666 -0.030913416 -0.009415285 0.0071184137
-0.031524334 -0.037766647 -0.0017767125 -0.0047781686 -0.025888437 0.031853512 -0.1497538 -0.19159631
-0.4253436 -0.16798347 -0.072137035 -0.13379677 0.0238127 0.12771563 -0.37533364 0.039280575
0.0626628 -0.011718299 -0.017223077 0.041096706 -0.050402563 -0.02636053 -0.0062335907 -0.02281186
0.027173145 -0.16093105 0.051998213 -0.18540846 0.015238863 0.09074644 -0.06318717 0.12283443
-0.0017094368 -0.11425024 0.009654044 -0.10519221 -0.15340325 -0.0220503 -0.088860296 -0.04704947
-0.05231606 -0.22473283 -0.23422882 0.12564403 -0.023221353 -0.20315701 0.06946467 -0.1242203
-0.001706346 -0.15684982 0.015966287 -0.0070023024 0.077878624 0.1896652 -0.108640954 -0.03898623
0.1308664 -0.020522164 -0.080321655 0.07076906 -0.039998975 0.00024750165 -0.05239772 -0.046711277
0.024958681 -0.02786984 -0.010588767 0.0014121598 -0.0148626305 -0.0030716297 0.038675476 -0.0018823402
-0.008775708 0.04458162 -0.0065536313 -0.019173816 -0.004648184 -0.025170922 -0.06106894 -0.007850937
0.04146655 0.040657774 -0.0059575723 0.03397664 0.12957564 0.021595705 0.08492627 0.05763608
0.027005581 0.0011345784 0.040731773 0.0138663575 -0.0038047167 0.027799457 0.016427388 0.031476047
-0.17990495 -0.04035493 -0.20562428 -0.110315844 0.22470011 0.042614758 -0.02126946 0.16836585
-0.02882851 0.05586408 0.3620514 0.3121368 -0.17478634 0.16235878 0.19005686 -0.37421283
-0.1869321 -0.17983319 0.13877143 0.13912001 0.034537487 0.010037708 0.101476945 0.07203378
-0.0880329 0.02733319 0.094348654 -0.13421679 0.05831193 0.1689994 -0.027942654 0.11881636
0.17012136 0.02188998 0.10341797 0.09428453 -0.12984297 -0.31809524 -0.18113685 -0.11748509
-0.27149215 -0.0935174 -0.02317492 -0.22180817 0.13286188 -0.11340832 0.11622996 0.2274029
-0.124265134 0.10619997 0.2543356 -0.07097193 0.09940934 0.22890589 0.010842203 0.057787918
0.007230181 0.049798194 0.058905542 0.0067965025 0.04533198 0.05895745 0.018143732 -0.09905733
0.026311608 0.06400661 -0.016568441 0.09132182 0.11197384 0.011346342 0.07228919 0.053786933
0.11046085 0.02165252 0.099546574 -0.013409925 -0.05827259 0.14748067 0.015999248 -0.03575273
0.026365722 0.05469555 0.12843649 -0.26295382 0.41069543 -0.3536651 -0.12256957 -0.044667803
0.11093881 0.35823256 0.045114767 -0.35250744 0.04701977 -0.4792582 0.17882836 0.40681762
0.0113477 0.3627115 -0.045930736 -0.27643654 -0.32921728 0.056684922 -1.0112499 1.066781
0.34087393 0.4412794 -0.25257733 -0.36210334 0.029158268 0.055112425 0.09773134 0.06531392
00000000: 6918 eabd 983c 283e e26e de3e b103 90be
00000010: e7f5 d8bb cd8c 993e c848 aebe 2920 4abe
00000020: 2be5 b63d 5436 c8bc cd16 c6bc a43f 4cbe
00000030: 3bd7 a1bd 4f98 51bc 7393 0ebe c7f5 06bd
00000040: 6c0c 07bd 9216 5abc 0174 8bbd aab3 2b3d
00000050: a972 123e 3958 acbd 2d6c 2e3d 821f 013e
00000060: 8bd9 70bd 3503 e93c 88be e93d 70c5 71bd
00000070: 0abf 7bbb da71 873d 89bc 1b3d ce83 84bc
00000080: 5365 993d f7b6 ef3d 8500 1d3d aff4 fa3d
00000090: 689e 13be 6b08 e33e 88de 703e fb6c 4cbe
000000a0: c5bc 903e c9fc ae3d 8ed9 3dbe a763 56bd
000000b0: ed91 40be 223e fdbc 9142 1abc 9541 e93b
000000c0: a91f 01bd 33b1 1abd 94e0 e8ba 2f92 9cbb
000000d0: fd13 d4bc d478 023d 0f59 19be d331 44be
000000e0: a3c6 d9be dc03 2cbe 95bc 93bd 0502 09be
000000f0: da12 c33c e3c7 023e bb2b c0be abe4 203d
00000100: 5b55 803d 1cfe 3fbc 6917 8dbc 0555 283d
00000110: eb72 4ebd 0af2 d7bc 2643 ccbb f0df babc
00000120: 379a de3c 1ccb 24be 14fc 543d b7db 3dbe
00000130: 6dac 793c 45d9 b93d 4668 81bd 9e90 fb3d
00000140: 2e0f e0ba 08fc e9bd ff2b 1e3c 036f d7bd
00000150: be15 1dbe d5a2 b4bc 63fc b5bd f2b6 40bd
00000160: 5d49 56bd 5d20 66be aed9 6fbe d4a8 003e
00000170: b53a bebc 6408 50be 7e43 8e3d 3667 febd
00000180: 79a7 dfba 3d9d 20be bbcb 823c 9273 e5bb
00000190: d47e 9f3d 9837 423e 267f debd 06b0 1fbd
000001a0: d701 063e 191e a8bc ae7f a4bd 5eef 903d
000001b0: f7d5 23bd 1cc3 8139 fe9e 56bd 5354 3fbd
000001c0: 2676 cc3c 4a4f e4bc 827c 2dbc 3818 b93a
000001d0: 6482 73bc 654d 49bb 2d6a 1e3d dbb8 f6ba
000001e0: fdc7 0fbc 379b 363d d8bf d6bb 6812 9dbc
000001f0: cb4f 98bb 4033 cebc 6d23 7abd 37a1 00bc
00000200: d4d8 293d c488 263d bd37 c3bb 172b 0b3d
00000210: 7aaf 043e 7ae9 b03c d3ed ad3d cf13 6c3d
00000220: cf3a dd3c 22b6 943a 5cd6 263d b82f 633c
00000230: 8e58 79bb b0bb e33c bb92 863c 07ed 003d
00000240: 0139 38be 364b 25bd 2c8f 52be 46ed e1bd
00000250: c917 663e d08c 2e3d 4a3d aebc 1968 2c3e
00000260: c429 ecbc bcd1 643d cd5e b93e 65d0 9f3e
00000270: 31fb 32be 6141 263e 449e 423e d398 bfbe
00000280: 216b 3fbe 3126 38be 191a 0e3e 7a75 0e3e
00000290: 2e77 0d3d 3375 243c 25d3 cf3d 7286 933d
000002a0: 984a b4bd dbe9 df3c de39 c13d 2070 09be
000002b0: 7ed8 6e3d 2e0e 2d3e fee7 e4bc fe55 f33d
000002c0: 4b34 2e3e 9e52 b33c cdcc d33d 3f18 c13d
000002d0: 8ef5 04be 61dd a2be f07b 39be 069c f0bd
000002e0: 0501 8bbe 0d86 bfbd 54d9 bdbc ae21 63be
000002f0: f20c 083e 9f42 e8bd f909 ee3d 4edc 683e
00000300: b87e febd 5f7f d93d 4738 823e bb59 91bd
00000310: 2097 cb3d 4e66 6a3e 7fa3 313c 06b3 6c3d
00000320: 27eb ec3b 31f9 4b3d f046 713d 32b5 de3b
00000330: 07ae 393d 5e7d 713d 2aa2 943c 92de cabd
00000340: 718b d73c e615 833d 8aba 87bc ef06 bb3d
00000350: 8a52 e53d 02e6 393c 5b0c 943d b04f 5c3d
00000360: 4c39 e23d a060 b13c 13df cb3d 4db5 5bbc
00000370: 3daf 6ebd 2c05 173e db10 833c 7471 12bd
00000380: edfc d73c 7108 603d db84 033e e2a1 86be
00000390: ac46 d23e 9813 b5be c105 fbbd 96f5 36bd
000003a0: e333 e33d 426a b73e 43ca 383d db7b b4be
000003b0: cd97 403d 5561 f5be c81e 373e 664a d03e
000003c0: b4eb 393c 52b5 b93e de21 3cbd 1789 8dbe
000003d0: 2b8f a8be 732e 683d a370 81bf 488c 883f
000003e0: 0787 ae3e 60ef e13e d151 81be 9c65 b9be
000003f0: 52dd ee3c 91bd 613d 5e27 c83d 4ec3 853d

dense1.2.bn1.weight f4 [48]
0.42409423 0.17553547 0.41046837 0.49852556 0.88884413 0.15310249 0.41294715 0.34045154
0.2537894 0.33495122 0.22840537 0.6269505 0.09586088 0.35833237 0.11782716 0.45903167
0.3436529 0.5477666 0.5896232 0.2632709 0.7008155 0.07286286 0.32979038 0.1966209
0.7159649 0.44604078 0.2594179 1.0418854 0.0495065 0.17164126 0.64968413 0.93796885
0.31602648 0.22228345 0.30254275 0.6727102 1.4944502 1.011549 0.3113026 0.6600219
0.8610019 0.45042676 0.36820748 1.0330527 1.3345575 0.4679664 0.2020998 0.6752119
00000000: e122 d93e 92bf 333e e928 d23e be3e ff3e
00000010: 4a8b 633f e6c6 1c3e cf6d d33e aa4f ae3e
00000020: aff0 813e ba7e ab3e 19e3 693e d47f 203f
00000030: b652 c43d 5777 b73e 5e4f f13d 3306 eb3e
00000040: 46f3 af3e 6f3a 0c3f 8cf1 163f 72cb 863e
00000050: a568 333f 2039 953d 49da a83e fd56 493e
00000060: 7a49 373f 755f e43e 6cd2 843e 805c 853f
00000070: 54c7 4a3d bac2 2f3e b351 263f ba1e 703f
00000080: 39ce a13e 469e 633e e2e6 9a3e bc36 2c3f
00000090: 254a bf3f 707a 813f 0e63 9f3e 32f7 283f
000000a0: 9f6a 5c3f 569e e63e b185 bc3e 123b 843f
000000b0: c8d2 aa3f 4b99 ef3e 40f3 4e3e b0da 2c3f

dense1.2.bn1.bias f4 [48]
-0.034681153 -0.050962634 -0.33413586 -0.40271267 0.29579145 -0.040098365 0.14085644 -0.18558253
0.030670252 0.06310412 -0.024023548 0.36734208 -0.063506626 -0.0826814 0.03246674 -0.55664635
0.26716834 -0.44013935 -0.23240422 -0.23258196 0.40874335 -0.060029536 -0.11182196 -0.17409934
-0.52891177 0.3537739 0.05182492 0.088738464 -0.06776518 -0.12191901 0.07521262 0.37244517
-0.06764838 0.077592164 -0.1861879 -0.19753146 0.56975 -0.014923386 -0.2536185 -0.15463525
-0.51583576 -0.31889313 -0.092417374 -0.31977102 0.35474125 -0.037681554 -0.04420693 0.37765652
00000000: d30d 0ebd 32be 50bd db13 abbe 5b30 cebe
00000010: fa71 973e 2f3e 24bd ac3c 103e 5909 3ebe
00000020: 2e40 fb3c bc3c 813d 08cd c4bc 4314 bc3e
00000030: c30f 82bd de54 a9bd d8fb 043d 6080 0ebf
00000040: 4aca 883e f259 e1be 5ffb 6dbe f729 6ebe
00000050: cf46 d13e 88e1 75bd e902 e5bd 1947 32be
00000060: c366 07bf da21 b53e 5e46 543d 83bc b53d
00000070: 78c8 8abd adb0 f9bd 1309 9a3d 22b1 be3e
00000080: 3c8b 8abd a4e8 9e3d 0aa8 3ebe b045 4abe
00000090: 23db 113f 3881 74bc 49da 81be b458 1ebe
000000a0: d00d 04bf f645 a3be 5245 bdbd 07b9 a3be
000000b0: a5a0 b53e f957 1abd 5312 35bd 325c c13e

dense1.2.conv1.weight f4 [12, 48, 3, 3]
0.09795789 -0.061137043 -0.10508444 0.0877182 -0.074971266 -0.11899687 0.09378133 -0.054876022
-0.053945128 0.0033138003 0.027628126 0.01896764 0.009832547 0.0300123 0.031049289 0.019594502
0.016226765 0.0057601198 0.022303978 -0.014669891 -0.025831897 0.01430329 -0.042128928 -0.051126577
0.012254844 -0.0310561 -0.054482482 -0.075889595 -0.09267588 -0.10032273 0.060009293 0.04903737
0.011174238 0.03121898 0.059736557 0.05471729 -0.0029504716 0.11396447 0.13302018 0.00031005673
0.13387461 0.15004933 -0.034262154 0.06690126 0.06503398 -0.009848481 -0.03414357 -0.040655386
0.0013592661 -0.015553766 -0.031753037 0.00028486055 -0.026319107 -0.0127857495 0.08880398 -0.20244204
0.0073976815 0.28172126 0.0686594 0.38930902 0.20586906 0.046681426 0.33563334 -0.017258707
-0.0138980085 0.004109101 0.003943767 -0.024407825 -0.020291965 -0.004688578 -0.022746759 -0.044644848
-0.09572326 0.013725276 0.18970723 0.0025435279 0.08282558 0.1488964 0.14891396 0.11707172
0.06646257 0.054260306 0.004550073 0.060394943 0.12658772 0.0951536 0.13414194 0.08710095
0.03406362 0.028204707 0.03742263 0.01772126 0.005210421 0.021366615 -0.026992107 -0.05057774
0.021659026 -0.013556251 -0.035274792 0.088713005 0.02733566 0.089986995 0.07392353 -0.007729107
0.046264883 0.06279011 -0.03726937 -0.031655576 0.007902133 0.005943262 0.006320503 -0.0027647852
-0.0024702563 0.0012147547 -0.012854532 -0.011964574 -0.0048998725 -0.006542901 0.066118404 0.12317722
-0.031041685 0.033708245 0.09349575 -0.0729645 -0.021300903 0.039421733 -0.0070591266 -0.0046626125
-0.017126681 0.024836281 0.026530616 0.026276156 0.0018134916 0.030195776 0.02614413 0.00032673244
0.029970909 0.102057196 -0.019243719 0.0042658555 0.11570722 -0.023573985 0.029071758 0.115329474
0.00957557 0.10085673 0.2061584 -0.02696038 0.09375874 0.21156621 -0.068123 0.06493802
0.17832376 0.12924291 0.0129148085 -0.117738694 0.09690102 -0.007043208 -0.11874201 0.035284832
-0.05032211 -0.107106 -0.09658914 0.08523613 0.2827227 -0.1251935 0.059833992 0.2687497
-0.10006844 0.06104636 0.21291068 0.043964185 0.041340698 0.025973681 0.043629635 0.048856422
0.017141048 0.017842744 0.01344708 0.0067618657 -0.4304697 -0.2699242 -0.36053517 -0.6599642
-0.5104066 -0.667178 -0.45189393 -0.34503323 -0.480649 -0.006673548 -0.0053332197 0.00062765455
-0.0036712529 -0.008630467 -0.011766569 -0.0053754104 -0.002971755 -0.019142294 0.03007619 0.053035676
0.072091974 0.0027617267 0.055132233 0.09371667 0.00023720154 0.026282776 0.10149041 0.012682775
0.022063596 0.009860041 0.016670821 0.0058941925 0.0009628049 0.01638506 0.012485802 -0.006284293
0.17486145 0.0095587205 -0.049527038 0.19659449 0.002235589 -0.08705404 0.15566404 -0.04732223
-0.13820678 -0.027480684 0.00672336 0.06705503 -0.11921954 -0.0036989262 0.23504597 -0.060671862
0.026929157 0.27081385 -0.0124903815 -0.003037477 0.08188222 0.12093329 0.06583918 0.010049821
0.1444097 0.06260216 0.0015909548 0.08431682 -0.03994563 -0.10947211 0.58953464 0.36570293
0.096218675 0.19253024 0.13767692 -0.07048086 0.0063511296 0.0023472803 0.009407731 -0.010445231
00000000: 259e c83d d66a 7abd 8336 d7bd 9aa5 b33d
00000010: 898a 99bd a2b4 f3bd 6d10 c03d aec5 60bd
00000020: 91f5 5cbd 582c 593b 6154 e23c 0662 9b3c
00000030: b118 213c 5bdc f53c 145b fe3c a684 a03c
00000040: feed 843c 63bf bc3b d5b6 b63c fc59 70bc
00000050: 6a9d d3bc 5958 6a3c 628f 2cbd 1a6a 51bd
00000060: 8bc8 483c 5d69 febc 0629 5fbd 016c 9bbd
00000070: dacc bdbd 0176 cdbd 4ecc 753d 69db 483d
00000080: 2714 373c f2be ff3c 52ae 743d 3d1f 603d
00000090: b35c 41bb 3466 e93d 7136 083e 1c8f a239
000000a0: 6d16 093e 88a6 193e 7956 0cbd 8703 893d
000000b0: 8930 853d 865b 21bc 21da 0bbd 4386 26bd
000000c0: 6729 b23a 39d5 7ebc 790f 02bd 5659 9539
000000d0: 2b9b d7bc 527b 51bc dcde b53d f74c 4fbe
000000e0: 4068 f23b c53d 903e 4d9d 8c3d 8353 c73e
000000f0: 57cf 523e 0635 3f3d 22d8 ab3e 2262 8dbc
00000100: 79b4 63bc a3a5 863b b73a 813b ebf2 c7bc
00000110: 563b a6bc a5a2 99bb 6957 babc 84dd 36bd
00000120: 8e0a c4bd fbdf 603c 9d42 423e 51b1 263b
00000130: 75a0 a93d 4c78 183e e77c 183e 4cc3 ef3d
00000140: 871d 883d 0e40 5e3d c718 953b b060 773d
00000150: 36a0 013e e4df c23d 815c 093e fc61 b23d
00000160: 4b86 0b3d 8f0d e73c 7948 193d 2d2c 913c
00000170: 2ebc aa3b 0a09 af3c 8d1e ddbc 9b2a 4fbd
00000180: 456e b13c 0a1b 5ebc 4d7c 10bd 2aaf b53d
00000190: 09ef df3c 1a4b b83d 3865 973d 7344 fdbb
000001a0: 3f80 3d3d 1a98 803d c4a7 18bd 47a9 01bd
000001b0: f377 013c b2bf c23b 391c cf3b 6631 35bb
000001c0: 06e4 21bb 6738 9f3a d19b 52bc 1007 44bc
000001d0: 1c8f a0bb d565 d6bb 1669 873d 5744 fc3d
000001e0: 224b febc a811 0a3d b37a bf3d 696e 95bd
000001f0: 3b7f aebc af78 213d 3f50 e7bb d4c8 98bb
00000200: 414d 8cbc 7575 cb3c bc56 d93c 1841 d73c
00000210: aeb2 ed3a 225d f73c 372c d63c 494d ab39
00000220: 8d85 f53c 5d03 d13d 01a5 9dbc 97c8 8b3b
00000230: e8f7 ec3d 3b1e c1bc e527 ee3c dc31 ec3d
00000240: dae2 1c3c f98d ce3d 301b 533e 04dc dcbc
00000250: 9504 c03d d0a4 583e 1284 8bbd 3afe 843d
00000260: 819a 363e 4158 043e a298 533c fc20 f1bd
00000270: 0b74 c63d b6ca e6bb 032f f3bd d486 103d
00000280: 8f1e 4ebd 645a dbbd 87d0 c5bd 4890 ae3d
00000290: 08c1 903e ba32 00be 7d14 753d 9099 893e
000002a0: aff0 ccbd bf0b 7a3d 4205 5a3e ca13 343d
000002b0: dd54 293d c2c6 d43c fdb4 323d ac1d 483d
000002c0: 626b 8c3c f22a 923c 2451 5c3c a492 dd3b
000002d0: 8666 dcbe 8133 8abe 1198 b8be 6af3 28bf
000002e0: 02aa 02bf 2dcc 2abf a45e e7be 32a8 b0be
000002f0: a017 f6be c7ad dabb 4ac2 aebb 2f89 243a
00000300: 6799 70bb cd66 0dbc 91c8 40bc 3624 b0bb
00000310: c7c1 42bb 4dd0 9cbc 5862 f63c f03b 593d
00000320: f5a4 933d 16fe 343b 56d2 613d 87ee bf3d
00000330: 4eb9 7839 fa4e d73c 34da cf3d 6acb 4f3c
00000340: b7be b43c 028c 213c 3f91 883c 1224 c13b
00000350: be64 7c3a f639 863c 4091 4c3c 78ec cdbb
00000360: e10e 333e 2e9c 1c3c dddc 4abd 1150 493e
00000370: f682 123b 6349 b2bd 6566 1f3e f4d4 41bd
00000380: 1486 0dbe 2c1f e1bc a24f dc3b 2654 893d
00000390: 6029 f4bd af69 72bb e4af 703e 0f83 78bd
000003a0: 899a dc3c 1da8 8a3e 75a4 4cbc 6810 47bb
000003b0: deb1 a73d dfab f73d b1d6 863d 01a8 243c
000003c0: 23e0 133e 9035 803d 9687 d03a 4cae ac3d
000003d0: 079e 23bd ea32 e0bd beeb 163f 6a3d bb3e
000003e0: 4c0e c53d a626 453e 2efb 0c3e 4558 90bd
000003f0: 231d d03b d4d4 193b e222 1a3c 7922 2bbc

dense1.3.bn1.weight f4 [60]
0.29777792 0.245432 0.20288382 0.49470532 0.5622937 0.20715854 1.1738179 0.332761
0.47783536 0.27127028 0.10740515 0.22373334 0.18067878 0.14222348 0.6878234 0.16182007
0.254489 0.11355609 0.23852915 0.16607237 1.230996 0.2147084 0.14206651 0.10408882
0.20376502 0.7357101 0.4083688 0.7300149 0.23234983 0.32420883 0.7156163 1.0210383
0.40601787 0.4513676 0.12368385 0.72212255 0.926614 0.95565265 0.14019087 1.0419177
0.5607052 0.17830259 0.14814496 0.56200624 0.46827516 0.42423263 1.2056092 0.38423637
0.957002 0.35409638 0.15737435 0.5173796 0.29478553 0.14370781 1.6415898 0.73668283
1.2480994 0.2054644 0.048585184 0.42851695
00000000: 5976 983e 8752 7b3e c7c0 4f3e 044a fd3e
00000010: 7bf2 0f3f 5e21 543e aa3f 963f a65f aa3e
00000020: d6a6 f43e f0e3 8a3e 3bf7 db3d 5a1a 653e
00000030: dc03 393e 08a3 113e 3215 303f 29b4 253e
00000040: 624c 823e 1890 e83d fc40 743e e00e 2a3e
00000050: 4791 9d3f 85dc 5b3e e279 113e 852c d53d
00000060: c7a7 503e 7f57 3c3f b715 d13e 42e2 3a3f
00000070: 1ded 6d3e b3fe a53e a132 373f 62b1 823f
00000080: 93e1 cf3e a719 e73e f54d fd3d 06dd 383f
00000090: 9336 6d3f a7a5 743f 328e 0f3e 8f5d 853f
000000a0: 608a 0f3f f494 363e 50b3 173e a4df 0f3f
000000b0: c3c1 ef3e 0535 d93e 6751 9a3f a1ba c43e
000000c0: 15fe 743f 1f4c b53e be26 213e fd72 043f
000000d0: 21ee 963e 2428 133e 9d1f d23f 3f97 3c3f
000000e0: b9c1 9f3f 4265 523e 4201 473d 9366 db3e

dense1.3.bn1.bias f4 [60]
-0.09487626 -0.012888481 -0.11783042 0.16781467 0.03933581 0.033026457 -0.060560226 0.05141171
-0.12643984 -0.02199426 -0.025734983 -0.044002566 -0.04405937 -0.048131805 0.13502382 -0.19374667
-0.1924884 -0.099321 -0.026069934 -0.07398249 -0.06391709 0.04309089 -0.07110594 -0.04904577
-0.16166417 -0.1962118 -0.33321708 -0.26953706 -0.17651512 -0.25625655 -0.16758716 -0.5445853
-0.23575392 0.07384451 -0.10771822 -0.18436392 -0.27297994 0.389028 -0.18248607 -0.19623522
-0.36403298 -0.17445089 -0.06906025 0.028503362 -0.15724681 0.028563175 0.2124946 -0.12014989
0.032684196 0.09058309 -0.006541358 -0.057066455 0.13016514 -0.055444483 -0.003147611 0.091559
0.09231034 -0.0015674105 -0.006303297 0.09156159
00000000: 7c4e c2bd 352a 53bc 1351 f1bd 9cd7 2b3e
00000010: 961e 213d c046 073d 000e 78bd 1695 523d
00000020: 7279 01be 4e2d b4bc 2cd2 d2bc 093c 34bd
00000030: 9977 34bd db25 45bd af43 0a3e 8765 46be
00000040: ae1b 45be cf68 cbbd 9d90 d5bc 2284 97bd
00000050: f7e6 82bd 1380 303d fe9f 91bd 38e4 48bd
00000060: 4b8b 25be bfeb 48be 6e9b aabe c300 8abe
00000070: 61c0 34be 0f34 83be f89b 2bbe f169 0bbf
00000080: 7a69 71be ca3b 973d 5f9b dcbd e5c9 3cbe
00000090: 07c4 8bbe ae2e c73e a1dd 3abe e3f1 48be
000000a0: 8862 babe 41a3 32be 766f 8dbd e27f e93c
000000b0: 4f05 21be 52fd e93c 2f98 593e 2511 f6bd
000000c0: dddf 053d a183 b93d e358 d6bb 84be 69bd
000000d0: 034a 053e c119 63bd 2648 4ebb 4983 bb3d
000000e0: 340d bd3d 9271 cdba e38b cebb a584 bb3d

dense1.3.conv1.weight f4 [12, 60, 3, 3]
0.05329719 -0.010280372 0.014294336 0.04474978 -0.040236432 -0.047790542 0.046394844 -0.017400341
-0.007810837 0.0060649794 -0.0023748304 -0.017091673 -0.011423802 -0.01996898 -0.013459745 -0.016970089
-0.010129067 -0.0037591308 0.0099198595 0.01818519 0.020953417 -0.00066146714 -0.009907892 -0.0015916706
0.008369615 -0.013493112 0.00079304725 0.023645513 0.0063473983 0.041377503 0.091478944 0.049986158
0.1105304 -0.004570698 -0.036175683 0.04939537 0.19005738 0.1571925 0.03128512 0.15076533
0.11658794 -0.0093087405 0.081920885 0.056139633 -0.048026666 -0.013392012 -0.0074587557 -0.002539346
-0.010207949 -0.0057640136 -0.015543836 -0.0063575115 -0.0052624987 0.00367402 -0.11375415 -0.1756783
0.12912035 -0.04028475 -0.11407078 0.12380666 0.010957422 -0.13288096 0.0211477 0.08703703
0.054432698 0.047743134 0.026979547 0.009629835 0.019655662 -0.008808319 -0.017449576 -0.0076520243
0.09032887 0.12596604 0.20576827 0.0335822 0.057456072 0.099336416 -0.014590311 0.013583764
0.040163513 0.00375332 -0.020567723 -0.016608102 0.018529005 -0.019962236 -0.042209458 -0.0041728346
-0.02650519 -0.024179203 0.022492658 -0.00038026186 0.00986586 -0.00957517 -0.026897123 -0.0026965751
-0.011426843 -0.02840292 -0.021889623 -0.010158163 -0.008094852 0.007953333 -0.017227119 -0.025955468
-0.018445317 -0.005226608 -0.03668627 -0.00054268003 0.012248973 0.0058100964 -0.0013305454 0.0065837987
-0.007471529 0.0036751567 0.006441662 0.0019392773 -0.00052558334 0.031736527 0.036288366 0.034834135
0.03289781 0.023603197 0.019744676 0.022897393 0.009422143 -0.0018438805 -0.06700806 -0.050224945
0.043683387 0.028687982 0.013103544 0.11632495 -0.04623263 -0.05242316 0.014980024 -0.00049124815
0.011815677 0.042395208 -0.00459305 0.0049658753 0.04285733 -0.023275383 -0.011153878 0.038559455
0.030221164 0.034884445 0.055176534 0.03342298 0.026108064 0.054049734 0.056774493 0.04316622
0.03337899 0.032625955 0.021061381 -0.0014988446 0.033475228 0.03832004 -0.008280119 0.023618063
0.011895805 -0.0012155073 0.07427413 0.075217895 0.07830172 0.071301155 0.06150038 0.053308185
0.04855297 0.035836577 0.029550562 0.030377204 0.020532796 0.040740266 0.033587795 0.033150766
0.026860079 0.030017355 0.024028275 0.02940421 0.16826938 -0.14292374 -0.30387902 0.06822335
-0.16682051 -0.23932011 -0.047995165 -0.19123161 -0.19916797 0.026357496 0.025550038 0.073286936
-0.01772182 -0.011153541 0.042553723 0.0016669645 -0.005206807 0.050484117 0.014978985 0.013520896
0.0024719306 0.012030239 0.0058987373 -0.0018508896 -0.01273134 0.004392842 0.010955935 0.0031091303
0.016685374 0.020041848 -0.005356182 0.004026773 0.025060495 0.0139756575 0.015735315 0.016148768
0.015349269 -0.00992656 0.049848445 -0.00026704435 -0.007174846 0.0289403 -0.0118547585 -0.00874301
0.03743875 -0.029688984 -0.1426113 -0.0645995 -0.048668884 -0.06613993 0.030948605 -0.06252205
-0.05159285 0.00861261 -0.0063753193 -0.0042650234 0.008875521 -0.03420872 -0.05222481 -0.030936284
-0.03469188 -0.03816047 -0.011460706 0.098010406 -0.008030859 -0.10883655 0.10006929 -0.026044687
-0.12763986 0.10620457 -0.07954088 -0.16496275 0.00039026793 0.0064101745 0.03023785 -0.0074624587
00000000: 284e 5a3d 016f 28bc ca32 6a3c 8c4b 373d
00000010: f5ce 24bd 04c0 43bd 8508 3e3d 298b 8ebc
00000020: 0df2 ffbb bcbc c63b 0ba3 1bbb d603 8cbc
00000030: e62a 3bbc fd95 a3bc 4386 5cbc db04 8bbc
00000040: 63f4 25bc c05b 76bb e886 223c 1cf9 943c
00000050: 80a6 ab3c 4f66 2dba b654 22bc 9a9f d0ba
00000060: b620 093c 3712 5dbc 80e4 4f3a 3cb4 c13c
00000070: d6fd cf3b 757b 293d 5059 bb3d 49be 4c3d
00000080: c35d e23d cbc5 95bb f42c 14bd cd52 4a3d
00000090: 679e 423e 12f7 203e d324 003d 3a62 1a3e
000000a0: a8c5 ee3d b083 18bc 23c6 a73d acf2 653d
000000b0: 9cb7 44bd 2b6a 5bbc 9468 f4bb 286b 26bb
000000c0: 3e3f 27bc 0de0 bcbb 93ab 7ebc ac52 d0bb
000000d0: 0a71 acbb d4c7 703b f0f7 e8bd 03e5 33be
000000e0: 2038 043e 9f01 25bd f19d e9bd 598e fd3d
000000f0: c286 333c f211 08be f13d ad3c 7840 b23d
00000100: d2f4 5e3d 4e8e 433d 3604 dd3c 75c6 1d3c
00000110: e904 a13c c550 10bc 6af2 8ebc d5bd fabb
00000120: 58fe b83d 3efd 003e ebb4 523e 7d8d 093d
00000130: 0f57 6b3d e470 cb3d 330c 6fbc 708e 5e3c
00000140: 7f82 243d 43fa 753b a47d a8bc b70d 88bc
00000150: 24ca 973c d887 a3bc d3e3 2cbd 46bc 88bb
00000160: 6a21 d9bc 7713 c6bc 8642 b83c e25d c7b9
00000170: 6ba4 213c 2de1 1cbc 5b57 dcbc 06b9 30bb
00000180: a737 3bbc 3ead e8bc de51 b3bc 6c6e 26bc
00000190: 45a0 04bc b24e 023c e31f 8dbc 90a0 d4bc
000001a0: a21a 97bc f743 abbb 5844 16bd a442 0eba
000001b0: ebaf 483c 9f62 be3b b265 aeba e8bc d73b
000001c0: bad3 f4bb e6da 703b 9414 d33b 592f fe3a
000001d0: 4dc7 09ba 29fe 013d 1ca3 143d 3dae 0e3d
000001e0: dbbf 063d 7e5b c13c 96bf a13c 5093 bb3c
000001f0: 555f 1a3c 5dae f1ba 863b 89bd acb8 4dbd
00000200: 5aed 323d 0f03 eb3c 3fb0 563c c63b ee3d
00000210: 6d5e 3dbd abb9 56bd c66e 753c 1bc7 00ba
00000220: 8b96 413c 99a6 2d3d 4c81 96bb c8b8 a23b
00000230: 2b8b 2f3d 04ac bebc c1be 36bc 85f0 1d3d
00000240: 6092 f73c fee2 0e3d ca00 623d 89e6 083d
00000250: 94e0 d53c 4163 5d3d 5f8c 683d 10cf 303d
00000260: 68b8 083d cba2 053d eb88 ac3c e174 c4ba
00000270: 521d 093d 79f5 1c3d 56a9 07bc ab7a c13c
00000280: 9fe6 423c a851 9fba 091d 983d d70b 9a3d
00000290: a75c a03d 5706 923d d3e7 7b3d af59 5a3d
000002a0: 7bdf 463d 60c9 123d 0514 f23c 9dd9 f83c
000002b0: 6534 a83c 44df 263d 5b93 093d 19c9 073d
000002c0: ab09 dc3c f5e6 f53c f2d6 c43c 19e1 f03c
000002d0: cf4e 2c3e 9a5a 12be 0896 9bbe afb8 8b3d
000002e0: ffd2 2abe 5510 75be 9496 44bd 38d2 43be
000002f0: b0f2 4bbe adeb d73c 504e d13c 7617 963d
00000300: 5a2d 91bc 57bd 36bc d04c 2e3d 0c7e da3a
00000310: dd9d aabb 6fc8 4e3d 6b6a 753c c086 5d3c
00000320: 1d00 223b 7b1a 453c 324a c13b 8d99 f2ba
00000330: 1c97 50bc d4f1 8f3b 8680 333c 8dc2 4b3b
00000340: c4af 883c cd2e a43c e982 afbb 05f3 833b
00000350: ab4b cd3c 28fa 643c 59e7 803c 6c4a 843c
00000360: 807b 7b3c 03a3 22bc e22d 4c3d 1602 8cb9
00000370: f81a ebbb 3514 ed3c 763a 42bc d83e 0fbc
00000380: 6059 193d 5036 f3bc b208 12be be4c 84bd
00000390: 0659 47bd 5f74 87bd ee87 fd3c 900b 80bd
000003a0: 0653 53bd e81b 0d3c 0ee8 d0bb 9cc1 8bbb
000003b0: a26a 113c 711e 0cbd afe9 55bd 176e fdbc
000003c0: 1319 0ebd 274e 1cbd afc5 3bbc aeb9 c83d
000003d0: dd93 03bc b2e5 debd 21f1 cc3d ab5b d5bc
000003e0: 06b4 02be c881 d93d 54e6 a2bd ffeb 28be
000003f0: e09c cc39 710c d23b 5eb5 f73c a487 f4bb

dense1.4.bn1.weight f4 [72]
0.60789156 0.32370907 0.5920332 0.95990425 1.0002542 0.16203243 0.42636305 0.5205466
1.1492145 0.21412164 0.18579677 0.101003535 0.121272504 0.32221636 0.74881345 0.50792027
0.6552169 0.46761933 0.30311435 0.3849973 0.52551496 0.21135679 0.072077006 0.11442684
0.2773522 0.9758004 0.5377123 0.18119171 0.2561781 0.16433693 0.37873337 0.3001118
0.39785874 0.45810366 0.39027184 0.5128138 0.6100671 1.0759572 0.32564563 0.19857107
0.35886976 0.07921688 0.33427694 0.56561124 0.31086752 0.643168 0.8598961 0.45353955
0.35220775 0.15842658 0.3307045 0.43023598 0.31628352 0.24336104 0.33937806 0.31282076
1.2412454 0.2906395 0.19361097 0.6416251 0.20954154 0.17287941 1.5205053 0.23078528
0.14156 0.08032522 0.10522156 0.84995186 0.07617699 0.6465388 0.30858433 0.17412786
00000000: c89e 1b3f 32bd a53e 7d8f 173f 49bc 753f
00000010: 5408 803f d4eb 253e 424c da3e 8b42 053f
00000020: 7619 933f b442 5b3e 8241 3e3e f1da ce3d
00000030: b85d f83d 8bf9 a43e 3db2 3f3f 1007 023f
00000040: 4bbc 273f cd6b ef3e ce31 9b3e 5e1e c53e
00000050: 2688 063f ea6d 583e 1c9d 933d 9e58 ea3d
00000060: 1c01 8e3e 0ece 793f 83a7 093f 528a 393e
00000070: c729 833e f147 283e 57e9 c13e 41a8 993e
00000080: 24b4 cb3e 908c ea3e b6d1 c73e c447 033f
00000090: 5c2d 1c3f f7b8 893f 06bb a63e 3756 4b3e
000000a0: c7bd b73e 763c a23d 5926 ab3e e6cb 103f
000000b0: 072a 9f3e a8a6 243f 2722 5c3f 5636 e83e
000000c0: 9354 b43e 943a 223e 1a52 a93e e447 dc3e
000000d0: eaef a13e a333 793e f6c2 ad3e 0b2a a03e
000000e0: 21e1 9e3f b3ce 943e f441 463e 8b41 243f
000000f0: 0f92 563e 4d07 313e eb9f c23f fa52 6c3e
00000100: 1bf5 103e 8d81 a43d 677e d73d 7296 593f
00000110: af02 9c3d 9183 253f c4fe 9d3e 934e 323e

dense1.4.bn1.bias f4 [72]
-0.5374303 -0.023171376 -0.3128767 -0.046126295 -0.3775374 -0.01574207 -0.10656563 -0.013821093
0.06375033 -0.0013249997 -0.033158813 -0.082897216 -0.04330097 -0.11764789 0.0507427 -0.26997557
-0.45633385 -0.3809034 -0.22900295 -0.33736137 -0.2950105 0.12865837 0.011495633 0.04969652
0.033281423 0.118277885 -0.20726606 -0.18149686 0.028607368 -0.06546859 -0.0316049 -0.05509562
-0.14276801 -0.13465188 -0.08372193 0.026144786 -0.15371661 -0.100235 -0.43497214 -0.029948976
-0.18288304 -0.0821324 -0.05901613 -0.14013207 -0.02525592 0.058526415 -0.109405555 0.42666796
0.033526555 0.039739218 -0.041419994 -0.019454254 0.05568447 -0.07748138 0.014986201 -0.079326056
-0.1697071 -0.011905708 0.016474612 0.1329253 -0.04065096 -0.048599653 -0.27521092 0.027351119
-0.013157566 0.024476418 -0.03235449 0.0021433195 -0.08113971 0.1265957 0.03331893 0.03677184
00000000: 0895 09bf e6d1 bdbc 6031 a0be edee 3cbd
00000010: 954c c1be 83f5 80bc 153f dabd de71 62bc
00000020: 888f 823d 9dab adba 89d1 07bd 04c6 a9bd
00000030: 5c5c 31bd 60f1 f0bd 94d7 4f3d 3d3a 8abe
00000040: 97a4 e9be c505 c3be c07f 6abe a1ba acbe
00000050: 9e0b 97be 05bf 033e 2e58 3c3c 948e 4b3d
00000060: 1a52 083d ad3b f23d 8e3d 54be 50da 39be
00000070: 005a ea3c 6514 86bd 2474 01bd f2ab 61bd
00000080: c731 12be 2fe2 09be 6776 abbd 972d d63c
00000090: e367 1dbe 0248 cdbd abb4 debe 8e57 f5bc
000000a0: b145 3bbe 0835 a8bd e6ba 71bd c87e 0fbe
000000b0: 81e5 cebc 65b9 6f3d 0510 e0bd 3974 da3e
000000c0: 2453 093d 97c5 223d 03a8 29bd 875e 9fbc
000000d0: 6615 643d 8fae 9ebd af88 753c b375 a2bd
000000e0: b3c7 2dbe 2910 43bc c4f5 863c 921d 083e
000000f0: 9f81 26bd 6e10 47bd 72e8 8cbe 740f e03c
00000100: d592 57bc c582 c83c 2486 04bd ef76 0c3b
00000110: 942c a6bd 4ea2 013e 6e79 083d 129e 163d

dense1.4.conv1.weight f4 [12, 72, 3, 3]
-0.09190175 -0.1439147 -0.10384997 -0.13157776 -0.17786816 -0.15161833 -0.077935725 -0.11811459
-0.10940896 -0.010940631 -0.014390779 -0.025472708 0.018132212 -0.011352011 -0.0030544708 0.022282105
0.027691195 0.012195672 -0.047328953 -0.07568683 -0.08202816 -0.07870009 -0.10070175 -0.096325204
-0.06332436 -0.10744268 -0.10591544 -0.07795084 -0.048197053 -0.045215316 -0.044862937 -0.044035662
-0.012557519 -0.08308142 -0.09202724 -0.04261875 -0.2449727 -0.2080853 -0.22127669 -0.22842841
-0.21989805 -0.23042423 -0.24060135 -0.25907093 -0.27190945 -0.020690836 -0.0271314 -0.022121647
-0.021246972 -0.03163949 -0.02827322 -0.027062304 -0.029445486 -0.010813382 -0.00037834025 -0.0039642346
0.0287865 0.004509516 -0.005882648 0.046143 0.0008234817 0.005551765 0.03191052 0.047427855
0.015684407 0.010071023 0.02071075 -0.019791886 -0.020093782 -0.00010677332 -0.020390844 -0.037230697
0.1298541 0.064069346 0.029890103 0.09498696 -0.0050200815 -0.096212536 -0.076150745 -0.111170165
-0.19337083 -0.033533264 -0.0293027 -0.014067824 -0.045624875 -0.021346627 -0.006505339 -0.03799944
-0.021797804 -0.021118807 -0.00932736 -0.01158451 -0.009768157 -0.024775747 -0.029742938 -0.018277843
-0.020708757 -0.022790598 -0.011484019 0.0046140244 0.007593062 0.006219989 -0.011627276 -0.009397251
-0.007743562 -0.0117133865 -0.022435052 -0.011529293 -0.0050383783 -0.008135172 0.00094498106 -0.0032614092
-0.0014510978 -0.00047491217 -0.012681171 -0.01226059 -0.005106515 -0.060053334 -0.033407807 -0.038735464
-0.072699666 -0.043699443 -0.03427199 -0.059996456 -0.05306318 -0.042421557 -0.082117155 -0.059455276
-0.029938394 -0.051095415 -0.057986185 -0.016670965 -0.086328 -0.0724939 -0.039414737 -0.05649698
-0.1012136 -0.03910769 -0.019597154 -0.076045714 -0.042300522 0.0074596014 -0.06214975 -0.04957226
-0.062054135 -0.055199943 -0.00836929 -0.06521956 -0.046154406 0.0041964846 -0.051845543 -0.04149212
-0.007878325 -0.035876505 -0.028504426 -0.03453399 -0.02285674 -0.029449347 -0.030157449 -0.03630627
-0.052820034 -0.06933684 -0.0526189 -0.06489181 -0.04788464 -0.027962422 -0.0351391 -0.032425042
-0.033256467 -0.03187634 -0.05063745 -0.010037279 -0.016182227 -0.011593315 0.005984214 0.015132633
-0.0035729033 0.02152577 0.018006923 0.008138733 -0.0062192115 -0.05927375 -0.08458068 0.049913432
-0.025131691 -0.04572107 0.08027262 0.035990734 -0.017152004 -0.0926939 -0.1018596 -0.09204093
-0.08435005 -0.11747511 -0.09972978 -0.06570008 -0.081966065 -0.06829082 -0.002578076 0.010464145
0.0034167839 0.029461415 0.015932253 0.030140335 0.028878175 0.03729937 0.03212589 -0.052523658
-0.069894694 -0.055836882 -0.021284612 -0.01750121 -0.01733502 -0.0027429871 -0.002622406 -0.004485353
-0.0056039817 -0.021643654 -0.012192161 -0.029402139 -0.050341435 -0.04120554 -0.019857602 -0.055948954
-0.036989048 -0.15768464 -0.044151906 0.020233814 -0.09803916 -0.09236327 -0.033047516 0.00044627982
-0.12875521 -0.19561784 -0.09705378 -0.14115793 -0.14182301 -0.014434177 -0.05057208 -0.06816494
0.0069588893 0.0011435796 -0.00047748623 -0.029195873 -0.032931022 -0.009613515 -0.05616655 -0.04675061
-0.026329475 -0.04480396 -0.02866651 0.010491746 0.002673516 -0.04270723 -0.06063941 0.03456944
00000000: fc36 bcbd 605e 13be 4baf d4bd 52bc 06be
00000010: 1223 36be d641 1bbe c49c 9fbd 10e6 f1bd
00000020: ce11 e0bd 5540 33bc 4dc7 6bbc 24ac d0bc
00000030: 018a 943c c9fd 39bc 842d 48bb f688 b63c
00000040: a5d8 e23c 5bd0 473c 01dc 41bd b201 9bbd
00000050: 61fe a7bd 832d a1bd b83c cebd 2646 c5bd
00000060: 34b0 81bd e80a dcbd 32ea d8bd b1a4 9fbd
00000070: 466a 45bd b233 39bd 33c2 37bd bd5e 34bd
00000080: 0dbe 4dbc 9726 aabd c778 bcbd 0091 2ebd
00000090: 20da 7abe 5014 55be 5b96 62be 23e9 69be
000000a0: f42c 61be 54f4 6bbe 3360 76be f2a4 84be
000000b0: b737 8bbe d47f a9bc ab42 debc 7538 b5bc
000000c0: 210e aebc 6998 01bd 3d9d e7bc c4b1 ddbc
000000d0: a937 f1bc 9d2a 31bc f85b c6b9 69e6 81bb
000000e0: abd1 eb3c 90c4 933b 3ac3 c0bb 7100 3d3d
000000f0: ecde 573a 95eb b53b 9bb4 023d b643 423d
00000100: 967c 803c ef00 253c 97a9 a93c 9822 a2bc
00000110: b79b a4bc 7deb dfb8 b30a a7bc 377f 18bd
00000120: 79f8 043e ca36 833d 17dc f43c 8688 c23d
00000130: 7f7f a4bb 140b c5bd ecf4 9bbd 2fad e3bd
00000140: 0103 46be 2d5a 09bd 370c f0bc bb7c 66bc
00000150: 26e1 3abd 1fdf aebc bd2a d5bb 4da5 1bbd
00000160: 4f91 b2bc 5901 adbc c9d1 18bc f5cc 3dbc
00000170: 9f0a 20bc 82f6 cabc 76a7 f3bc 6abb 95bc
00000180: 69a5 a9bc 59b3 babc 7827 3cbc 3e31 973b
00000190: 38cf f83b 0dd1 cb3b 5580 3ebc edf6 19bc
000001a0: b5bd fdbb 81e9 3fbc b7c9 b7bc 5ce5 3cbc
000001b0: fb18 a5bb 6249 05bc 9bb8 773a 5ebd 55bb
000001c0: c332 beba a2fd f8b9 b0c4 4fbc a4e0 48bc
000001d0: 8d54 a7bb 7cfa 75bd a0d6 08bd 14a9 1ebd
000001e0: 90e3 94bd 30fe 32bd c960 0cbd d8be 75bd
000001f0: c758 59bd 3ac2 2dbd 0a2d a8bd 6087 73bd
00000200: 5d41 f5bc 6d49 51bd ec82 6dbd 8c91 88bc
00000210: bccc b0bd af77 94bd 5971 21bd 6169 67bd
00000220: 1349 cfbd 632f 20bd 368a a0bc dbbd 9bbd
00000230: 5043 2dbd ac6f f43b bc90 7ebd 480c 4bbd
00000240: 7a2c 7ebd 5619 62bd 591f 09bc d591 85bd
00000250: 670c 3dbd aa82 893b fe5b 54bd a4f3 29bd
00000260: 1714 01bc 3ef3 12bd 1d82 e9bc 8373 0dbd
00000270: 0f3e bbbc c23f f1bc c10c f7bc e2b5 14bd
00000280: d259 58bd 7900 8ebd ea86 57bd ffe5 84bd
00000290: af22 44bd 7311 e5bc 04ee 0fbd 1fd0 04bd
000002a0: ef37 08bd c490 02bd 3769 4fbd 6673 24bc
000002b0: 9790 84bc e3f1 3dbc 3a17 c43b ddee 773c
000002c0: 5f27 6abb d056 b03c 4183 933c 5258 053c
000002d0: 87ca cbbb 08c9 72bd a338 adbd 0772 4c3d
000002e0: fae0 cdbc 0446 3bbd f965 a43d 056b 133d
000002f0: 5c82 8cbc 4dd6 bdbd c49b d0bd f57f bcbd
00000300: b8bf acbd ca96 f0bd 203f ccbd c38d 86bd
00000310: d3dd a7bd 0fdc 8bbd f0f4 28bb ce71 2b3c
00000320: 1fec 5f3b 1159 f13c 5b84 823c dde8 f63c
00000330: ec91 ec3c 39c7 183d 7096 033d 0c23 57bd
00000340: f324 8fbd 37b5 64bd 115d aebc b35e 8fbc
00000350: 2c02 8ebc b0c3 33bb acdc 2bbb def9 92bb
00000360: 9ba1 b7bb 084e b1bc a1c1 47bc c1dc f0bc
00000370: d232 4ebd 24c7 28bd 69ac a2bc bb2a 65bd
00000380: d481 17bd 1578 21be a1d8 34bd 62c1 a53c
00000390: c1c8 c8bd f428 bdbd d55c 07bd aafa e939
000003a0: 68d8 03be 0b50 48be 22c4 c6bd b48b 10be
000003b0: 0d3a 11be 547d 6cbc ab24 4fbd 0f9a 8bbd
000003c0: 6507 e43b 2ae4 953a 1e57 fab9 2f2c efbc
000003d0: aee2 06bd 0182 1dbc e50e 66bd 917d 3fbd
000003e0: e9b0 d7bc 5b84 37bd 07d6 eabc 92e5 2b3c
000003f0: 2836 2f3b c7ed 2ebd 0861 78bd af98 0d3d
