independent_train_0.0/client74/checkpoint_0.0.pth (torch, 930411 bytes, 56 tensors)

conv1.weight f4 [24, 3, 3, 3]
0.1942789 -0.3860409 0.3404555 -1.0593511 -1.6842114 -0.8021155 -0.81146264 -1.4892888
-0.5930244 0.24597192 0.3903381 0.2744816 0.4465968 0.70350444 0.5514128 0.25597346
0.43507382 0.38019672 -0.6279401 -0.14101502 -0.8272868 0.49885815 1.2021424 0.35330904
0.31225437 0.9433965 0.1972698 0.107151195 0.41042894 0.15422717 -0.94296294 0.2703108
0.30063525 -0.8558947 -0.0012394454 0.28493592 -0.22470562 0.3917604 -0.1869605 -0.83013755
0.7722335 0.45833424 -0.81852925 0.4700642 0.44642362 -0.26907244 0.11175004 -0.49274692
-0.4869532 0.76141655 0.2507127 -0.43229422 0.6721938 0.37348792 0.020032672 -0.25722516
-0.009484167 -0.45135388 -0.73419654 -0.4550988 -0.26497114 -0.5507379 -0.29971913 0.22342044
0.315678 0.24396026 0.19180715 0.3289241 0.25476062 0.18509004 0.287419 0.22962397
-0.03944877 0.23107028 -0.059251487 0.25815544 0.62361026 0.25664726 0.12133675 0.43596014
0.089044444 -0.21945544 -1.1777314 -0.5836132 0.07044942 -0.016381828 0.25132588 -0.015477155
0.6256533 0.49130714 -0.22821411 -1.1948802 -0.78952324 0.30559814 0.22378023 0.28599536
0.2133079 0.8995299 0.54573935 -0.22737601 -1.1457188 -0.7925077 0.26384982 0.08203464
0.15162201 0.39274392 0.89167064 0.62273127 -0.83870834 -0.72033346 -0.9822921 0.044010747
0.6089422 -0.16221538 0.6115967 1.1124427 0.3819065 0.14040177 0.43341935 0.044430286
0.4145006 1.0500928 0.26107967 0.21223766 0.6868264 0.07369144 0.6004177 0.22138359
0.88936853 -0.70750135 -0.9597626 -0.3051328 -0.92699885 -1.3551079 -0.533106 -0.0318983
-0.4924269 -0.042990886 -0.06393124 0.1804067 0.22640975 -0.25249687 -0.34808525 -0.26606882
-0.19227234 -0.3741165 -0.25657913 0.24975087 0.89501226 0.5621704 -0.07363985 0.244935
-0.05142573 -0.5452128 -0.7199826 -0.72498965 0.14635018 0.73317635 0.3108839 0.09845124
0.44740134 0.098492004 0.6177375 0.07547281 -0.32373458 1.2082297 -0.24230361 -1.5216104
0.12526922 -0.0766788 -0.13112561 1.0338153 0.05586663 -0.86190736 1.8142604 -0.073796056
-1.9442546 0.6426034 0.10586626 -0.39796433 0.4511483 0.021690324 -0.46006855 1.1716061
-0.06879566 -1.4489757 0.31234288 0.117753275 -0.17029382 -0.61483717 -0.11122326 -0.45677203
-0.24619909 0.17937018 0.1177487 -0.1813919 -0.27709046 0.41875407 0.26184562 0.8818645
0.07218509 0.2848282 0.8273298 0.35984635 -0.62395734 -0.6203793 -0.1486334 0.2589148
0.7127687 -0.09000504 0.40568504 0.7662494 0.14031188 -0.72662634 -0.8355311 -0.6515758
0.87026787 1.8304869 1.2124975 -0.017970642 -0.2232923 -0.045135986 -0.86826354 -1.8915583
-0.9097471 0.56599534 1.3998121 0.6091823 0.12347966 -0.12786177 -0.18194366 -0.5080069
-1.518383 -0.7134443 -0.21824361 0.66736865 -0.001450281 0.10164737 0.18571739 0.081865415
-0.06305674 -0.6060857 -0.02651247 -0.37516198 -0.06633392 0.77069426 0.4908015 0.2580273
-1.8685858 -0.14036304 0.8242719 -0.3932281 -0.6193577 0.1555066 0.81634295 0.52568245
00000000: 0cf1 463e 27a7 c5be 2f50 ae3e d198 87bf
00000010: 3d94 d7bf 7157 4dbf 04bc 4fbf 04a1 bebf
00000020: 72d0 17bf 10e0 7b3e 65da c73e da88 8c3e
00000030: 56a8 e43e de18 343f 6429 0d3f f40e 833e
00000040: ffc1 de3e 25a9 c23e afc0 20bf 3e66 10be
00000050: 11c9 53bf 566a ff3e cddf 993f ece4 b43e
00000060: cedf 9f3e 6f82 713f 1801 4a3e 1672 db3d
00000070: be23 d23e baed 1d3e 0566 71bf 2d66 8a3e
00000080: ddec 993e ea1b 5bbf e374 a2ba 1fe3 913e
00000090: 3b19 66be d294 c83e 9372 3fbe e583 54bf
000000a0: 18b1 453f c9aa ea3e 228b 51bf 41ac f03e
000000b0: a391 e43e ddc3 89be 34dd e43d 5349 fcbe
000000c0: ee51 f9be 32ec 423f 6a5d 803e ab55 ddbe
000000d0: e514 2c3f cf39 bf3e 8f1b a43c 04b3 83be
000000e0: 7b63 1bbc db17 e7be 4ef4 3bbf b602 e9be
000000f0: 4caa 87be 29fd 0cbf c974 99be 54c8 643e
00000100: 8ca0 a13e b8d0 793e 1869 443e bd68 a83e
00000110: fc6f 823e 3e88 3d3e 9528 933e 8c22 6b3e
00000120: 0995 21bd b09d 6c3e b0b1 72bd f32c 843e
00000130: eca4 1f3f 4567 833e 677f f83d 2b36 df3e
00000140: ef5c b63d edb8 60be e7bf 96bf ad67 15bf
00000150: c947 903d 2f33 86bc c9ad 803e e593 7dbc
00000160: d12a 203f 9c8c fb3e f6b0 69be d6f1 98bf
00000170: 321e 4abf 5c77 9c3e a526 653e fc6d 923e
00000180: 636d 5a3e 9747 663f 93b5 0b3f 42d5 68be
00000190: eaa6 92bf c9e1 4abf 5317 873e c701 a83d
000001a0: cd42 1b3e bb15 c93e 8744 643f 516b 1f3f
000001b0: 97b5 56bf c667 38bf 7f77 7bbf 9d44 343d
000001c0: a3e3 1b3f ca1b 26be 9a91 1c3f 8664 8e3f
000001d0: 4089 c33e 7bc5 0f3e 24e9 dd3e 88fc 353d
000001e0: 6c39 d43e 7169 863f 3cac 853e d454 593e
000001f0: dbd3 2f3f 8aeb 963d f9b4 193f 61b2 623e
00000200: a8ad 633f cf1e 35bf 00b3 75bf 5e3a 9cbe
00000210: cc4f 6dbf 2d74 adbf a379 08bf cba7 02bd
00000220: 611f fcbe 3617 30bd 62ee 82bd 89bc 383e
00000230: f5d7 673e 4547 81be 3b38 b2be 2c3a 88be
00000240: 0ae3 44be 338c bfbe 575e 83be b1be 7f3e
00000250: 861f 653f 66ea 0f3f 7dd0 96bd 3ed0 7a3e
00000260: c9a3 52bd 1193 0bbf c850 38bf ec98 39bf
00000270: d2dc 153e 72b1 3b3f 2d2c 9f3e cea0 c93d
00000280: ca11 e53e 2db6 c93d 0b24 1e3f 7d91 9a3d
00000290: 8ac0 a5be 45a7 9a3f 701e 78be 21c4 c2bf
000002a0: 9346 003e c609 9dbd cb45 06be 0f54 843f
000002b0: 68d4 643d f6a5 5cbf af39 e83f 6322 97bd
000002c0: 56dd f8bf a881 243f 69d0 d83d fbc1 cbbe
000002d0: e9fc e63e e8af b13c 1b8e ebbe 30f7 953f
000002e0: bde4 8cbd 0978 b9bf 68eb 9f3e a128 f13d
000002f0: 8161 2ebe f865 1dbf 05c9 e3bd 06de e9be
00000300: 9d1b 7cbe d1ac 373e 3b26 f13d ccbe 39be
00000310: cdde 8dbe ef66 d63e a110 863e dfc1 613f
00000320: c7d5 933d 00d5 913e e3cb 533f c83d b83e
00000330: abbb 1fbf 2ed1 1ebf 5b33 18be 7b90 843e
00000340: 0278 363f 9054 b8bd f3b5 cf3e ec28 443f
00000350: ebad 0f3e 2f04 3abf 5ee5 55bf accd 26bf
00000360: e0c9 5e3f 654d ea3f 1e33 9b3f 2b37 93bc
00000370: bda6 64be 83e0 38bd 8546 5ebf 951e f2bf
00000380: 30e5 68bf 12e5 103f 0b2d b33f 5ff3 1b3f
00000390: e7e2 fc3d 32ee 02be 704f 3abe bd0c 02bf
000003a0: 605a c2bf 49a4 36bf 417b 5fbe acd8 2a3f
000003b0: 5b17 beba 7f2c d03d b32c 3e3e 0ea9 a73d
000003c0: e423 81bd 6f28 1bbf ae30 d9bc 3b15 c0be
000003d0: 14da 87bd 384c 453f 564a fb3e 271c 843e
000003e0: d22d efbf 54bb 0fbe 7c03 533f 3255 c9be
000003f0: 3a8e 1ebf 1f3d 1f3e dafb 503f 2093 063f

dense1.0.bn1.weight f4 [24]
0.43296275 0.96801615 0.61523163 0.7826063 0.67826426 1.0626906 0.5145977 1.0351727
0.73278886 1.7949313 2.0272295 0.6488749 1.0059273 0.38570496 0.67912805 0.55103374
0.4295836 0.35908362 0.7029233 0.45942476 0.8548423 0.6806263 0.43404934 0.51000506
00000000: 4bad dd3e e8cf 773f d27f 1d3f e358 483f
00000010: baa2 2d3f 3f06 883f adbc 033f 8a80 843f
00000020: 0d98 3b3f 4fc0 e53f 21be 0140 aa1c 263f
00000030: 3ac2 803f 1f7b c53e 56db 2d3f 8c10 0d3f
00000040: 62f2 db3e cfd9 b73e c8f2 333f b939 eb3e
00000050: f2d6 5a3f 863d 2e3f b73b de3e b18f 023f

dense1.0.bn1.bias f4 [24]
-0.2049026 0.6048613 -0.38564974 0.45223463 0.29965585 0.38205463 0.6252162 0.41033697
0.5715674 0.997628 1.1612171 0.06720775 0.24003142 0.24701145 0.23767748 -0.58101434
-0.22216836 -0.20601138 -0.44097438 -0.24570316 -0.67638254 -0.5597408 0.32928333 -0.042177875
00000000: fdd1 51be 31d8 1a3f e273 c5be 4c8b e73e
00000010: 7e6c 993e aa9c c33e 2b0e 203f b017 d23e
00000020: 3e52 123f 8c64 7f3f c3a2 943f 38a4 893d
00000030: ccca 753e 92f0 7c3e ba61 733e 5bbd 14bf
00000040: 1a80 63be a6f4 52be 65c7 e1be 9c99 7bbe
00000050: 6827 2dbf 2c4b 0fbf d397 a83e b5c2 2cbd

dense1.0.conv1.weight f4 [12, 24, 3, 3]
0.0056494265 0.12895098 -0.01667922 0.025932433 0.15852414 0.025495177 -0.06588115 0.040645406
-0.07478357 0.23507082 0.356122 0.32863477 0.088409334 0.2864178 0.3187338 -0.29169846
-0.084675975 -0.07690323 0.024804208 0.115159385 -0.010626731 0.112454616 0.17971885 0.05602168
0.10750481 0.17394847 0.08868937 -0.010409312 0.0980814 0.14539084 -0.030318659 0.14849839
0.19343336 0.093338646 0.23983695 0.22433533 -0.024092378 -0.22050256 -0.21213204 0.3065221
0.12435792 0.050949957 0.62371665 0.51089764 0.3722922 0.30235502 0.48510545 0.24704206
0.14121267 0.3628125 0.14415562 -0.20947613 0.029872123 -0.10627071 0.11883708 0.1363369
0.2555488 0.22518359 0.22724247 0.19340351 0.036201023 -0.16388388 -0.13741498 -0.53448176
-0.22565706 -0.19624893 0.044616506 0.4216277 0.35983086 0.116426386 0.5201298 0.38489282
0.074394 0.25219136 0.11066759 0.055670917 0.20390843 0.09157605 -0.2802222 -0.2052
-0.17469043 0.1335158 0.09941472 -0.3402533 0.51316476 0.48581114 -0.13736874 0.13640666
0.094422296 -0.20519836 -0.09191772 0.08708983 -0.08283212 -0.0059447275 0.2852036 0.050203994
-0.2260393 0.26739168 0.07822691 -0.43252552 -0.26187664 0.020546682 -0.2158182 -0.013693494
0.2242694 0.19417332 0.43365744 0.5412828 -0.2947919 -0.3250496 -0.049919084 -0.38185307
-0.4237772 -0.13301401 -0.19289064 -0.22849284 -0.0025789044 -0.1684516 -0.24454674 -0.02155657
-0.2748495 -0.38501796 -0.13552895 -0.10475447 -0.19084544 0.0016986367 -0.16268013 -0.22417891
-0.26926807 -0.14842092 -0.15977427 -0.21626715 -0.085453615 -0.11463705 -0.2186742 -0.00565231
-0.0030687964 0.017218076 -0.11501641 -0.104975596 -0.06781042 -0.14077887 -0.11514629 -0.08941911
0.023003833 -0.084526956 0.018454809 -0.06258593 -0.2207628 -0.14039299 0.04609794 -0.12882443
-0.07330759 -0.08650737 -0.04612486 -0.14648528 -0.026860125 -0.007201029 -0.10885265 -0.07636062
-0.054891728 -0.15345933 -0.02597197 -0.1342647 -0.104104236 -0.18238062 -0.28782928 -0.25956652
-0.050863244 -0.13068663 -0.09514204 -0.102176145 -0.07058556 -0.013077888 -0.14398894 -0.11015832
-0.04594026 -0.05478859 -0.03836966 0.02812416 -0.04500587 -0.013973857 -0.15312974 -0.08839467
-0.03289947 -0.08457689 -0.117012486 -0.021637743 -0.10692872 -0.1311496 -0.07878845 -0.2145076
-0.04376309 0.011608134 -0.15432881 -0.05572779 -0.0013915839 -0.13586068 -0.116515405 -0.16706987
-0.2583013 -0.1354749 -0.19578885 -0.3134045 -0.24418338 -0.2990617 -0.4332377 -0.057025813
-0.054422934 0.057980325 -0.12094269 -0.12283241 0.009572056 0.025161417 0.041368935 0.13401294
-0.017548831 -0.054255564 -0.021684697 -0.016818218 -0.10170166 -0.04958204 0.13473113 0.08545222
0.08680783 0.04387393 0.08500866 0.18950708 -0.1307139 -0.02244262 0.099344306 0.062438287
0.01274531 -0.1401254 -0.04849644 -0.046902165 -0.010629263 -0.06257073 -0.08485266 -0.043760825
0.014203347 -0.007971092 0.023991242 -0.5052781 -0.65576065 -0.36562437 -0.17241555 0.0043340083
-0.0627737 0.4339616 0.6795688 0.17036466 -0.20004459 -0.29240316 -0.1530068 0.025750382
00000000: d31e b93b ba0b 043e dca2 88bc 4170 d43c
00000010: 2754 223e 43db d03c b2ec 86bd cc7b 263d
00000020: 2128 99bd 68b6 703e 9f55 b63e d142 a83e
00000030: f40f b53d 5ba5 923e 1431 a33e 8059 95be
00000040: 996a adbd 717f 9dbd 3232 cb3c afd8 eb3d
00000050: be1b 2ebc 9b4e e63d 3808 383e fd76 653d
00000060: 7b2b dc3d 8c1f 323e c6a2 b53d d28b 2abc
00000070: e7de c83d 56e1 143e d65e f8bc f60f 183e
00000080: 6513 463e 5528 bf3d d197 753e 29b8 653e
00000090: 615d c5bc 6ccb 61be 2439 59be 77f0 9c3e
000000a0: 5daf fe3d e7b0 503d e5ab 1f3f 30ca 023f
000000b0: 159d be3e 47ce 9a3e be5f f83e 98f8 7c3e
000000c0: 0e9a 103e 8fc2 b93e 889d 133e e980 56be
000000d0: 62b6 f43c 75a4 d9bd db60 f33d e69b 0b3e
000000e0: 4bd7 823e 8796 663e 40b2 683e 920b 463e
000000f0: 8647 143d 2dd1 27be 83b6 0cbe ccd3 08bf
00000100: a512 67be 7bf5 48be ccbf 363d 96df d73e
00000110: c03b b83e f570 ee3d 3a27 053f ac10 c53e
00000120: e25b 983d 3a1f 813e b0a5 e23d 3007 643d
00000130: 5fcd 503e 398c bb3d 4979 8fbe f31f 52be
00000140: 0ce2 32be 5eb8 083e f299 cb3d ae35 aebe
00000150: c45e 033f 3dbc f83e 64aa 0cbe 30ae 0b3e
00000160: 7a60 c13d 851f 52be 5c3f bcbd 275c b23d
00000170: e3a3 a9bd fdcb c2bb 3506 923e b4a2 4d3d
00000180: d976 67be 90e7 883e 6e35 a03d fc73 ddbe
00000190: b214 86be 8451 a83c 72ff 5cbe ad5a 60bc
000001a0: e1a6 653e 5fd5 463e 5908 de3e 8291 0a3f
000001b0: f7ee 96be e76c a6be f477 4cbd 3f82 c3be
000001c0: 53f9 d8be d334 08be 2085 45be 07fa 69be
000001d0: d602 29bb 947e 2cbe 766a 7abe 6797 b0bc
000001e0: 13b9 8cbe 1321 c5be 1ac8 0abe 8389 d6bd
000001f0: fd6c 43be caa4 de3a 9f95 26be 288f 65be
00000200: 81dd 89be a7fb 17be de9b 23be 2375 5dbe
00000210: 4e02 afbd d4c6 eabd 21ec 5fbe 0337 b9bb
00000220: dc1d 49bb ec0c 8d3c b98d ebbd 72fd d6bd
00000230: 31e0 8abd 5628 10be d1d1 ebbd 5e21 b7bd
00000240: 8972 bc3c 781c adbd 8a2e 973c 0d2d 80bd
00000250: a50f 62be 2ec3 0fbe 32d1 3c3d 8dea 03be
00000260: 4a22 96bd c72a b1bd 6ced 3cbd 3d00 16be
00000270: c409 dcbc 9cf6 ebbb 23ee debd f562 9cbd
00000280: 26d6 60bd 7124 1dbe 2bc3 d4bc af7c 09be
00000290: 9a34 d5bd fcc1 3abe 5c5e 93be e7e5 84be
000002a0: fa55 50bd b7d2 05be d4d9 c2bd ba41 d1bd
000002b0: 298f 90bd a344 56bc d671 13be af9a e1bd
000002c0: db2b 3cbd 006a 60bd 8129 1dbd a364 e63c
000002d0: 1358 38bd 9bf2 64bc 0bce 1cbe 4408 b5bd
000002e0: 98c1 06bd a636 adbd 3ea4 efbd a341 b1bc
000002f0: 72fd dabd 154c 06be d75b a1bd e1a7 5bbe
00000300: ed40 33bd 0b30 3e3c 5f08 1ebe d342 64bd
00000310: cf65 b6ba 101f 0bbe a19f eebd 5d14 2bbe
00000320: 1140 84be efb9 0abe df7c 48be 8e76 a0be
00000330: 350b 7abe 9d1e 99be 55d1 ddbe e693 69bd
00000340: 95ea 5ebd c77c 6d3d cdb0 f7bd 8f8f fbbd
00000350: 1dd4 1c3c 511f ce3c 7972 293d b03a 093e
00000360: 91c2 8fbc 153b 5ebd 1ba4 b1bc 5cc6 89bc
00000370: f648 d0bd 8a16 4bbd f5f6 093e 9301 af3d
00000380: 4ec8 b13d 26b5 333d 0519 ae3d 250e 423e
00000390: ddd9 05be 96d9 b7bc 0775 cb3d 4abf 7f3d
000003a0: b4d1 503c 087d 0fbe 34a4 46bd 7c1c 40bd
000003b0: 5c26 2ebc 1525 80bd 3bc7 adbd 8d3e 33bd
000003c0: 28b5 683c 2f99 02bc 4889 c43c e859 01bf
000003d0: eedf 27bf 1e33 bbbe b48d 30be 4c04 8e3b
000003e0: 7f8f 80bd 3730 de3e 39f8 2d3f 1374 2e3e
000003f0: 7dd8 4cbe deb5 95be d1ad 1cbe 77f2 d23c

dense1.1.bn1.weight f4 [36]
0.59228176 0.39776593 0.27719918 0.31538597 0.7320153 0.37860593 0.4532702 0.2910437
0.3835657 0.4791363 0.37080428 1.1835283 0.13040718 0.13819747 0.301234 0.19634391
1.1203302 1.0859243 0.5804384 0.71222407 0.6296119 0.91434187 0.31796125 0.38952735
0.44141006 0.7709314 0.9769942 1.2104939 0.5397171 0.16876583 0.9598258 1.3148609
0.7827985 0.57301897 0.39357942 0.73480827
00000000: c79f 173f faa7 cb3e 0ded 8d3e 457a a13e
00000010: 5b65 3b3f a3d8 c13e 0813 e83e ae03 953e
00000020: b962 c43e 5a51 f53e 0fda bd3e db7d 973f
00000030: 7689 053e a383 0d3e 583b 9a3e 610e 493e
00000040: fb66 8f3f 91ff 8a3f 9c97 143f 5154 363f
00000050: 3f2e 213f 4f12 6a3f d1cb a23e 2170 c73e
00000060: 8000 e23e c35b 453f 4b1c 7a3f 77f1 9a3f
00000070: e62a 0a3f f3d0 2c3e 25b7 753f 5d4d a83f
00000080: 7c65 483f 5fb1 123f 3e83 c93e 651c 3c3f

dense1.1.bn1.bias f4 [36]
0.17440352 -0.17383176 -0.18674234 -0.37225193 0.35132107 -0.19540103 0.020529088 -0.09590986
0.12920217 0.034344573 0.0527365 -0.1326 -0.008159069 -0.18885146 -0.19723143 -0.17123853
-0.19966939 0.3229191 -0.24052069 -0.35713553 -0.44807675 -0.49161863 0.078838244 -0.2117447
-0.28610498 0.8195668 0.4108949 0.07780877 -0.26405874 -0.1748885 -0.12111641 0.6387405
-0.026290087 -0.16899917 -0.107242 0.20404668
00000000: d696 323e f400 32be 6239 3fbe ce97 bebe
00000010: 5be0 b33e 3517 48be 9e2c a83c 646c c4bd
00000020: 934d 043e e5ac 0c3d 3a02 583d 4bc8 07be
00000030: 9ead 05bc 4762 41be 09f7 49be 2759 2fbe
00000040: 2276 4cbe a755 a53e 0e4b 76be 78da b6be
00000050: 516a e5be 70b5 fbbe f275 a13d 9ad3 58be
00000060: 5a7c 92be 21cf 513f d160 d23e 345a 9f3d
00000070: b532 87be f915 33be e10b f8bd 7f84 233f
00000080: 4f5e d7bc 1e0e 2dbe b2a1 dbbd 9df1 503e

dense1.1.conv1.weight f4 [12, 36, 3, 3]
-0.11456579 0.16429248 0.4344833 -0.28132287 -0.00644089 0.30012766 -0.34061143 -0.1973214
0.08936078 -0.024695316 -0.02431151 -0.19976628 -0.07924756 -0.012758058 -0.13941348 -0.033104435
-0.032787956 -0.013468466 -0.06863324 0.041348234 0.14241825 -0.084556155 0.042119507 0.12559168
-0.059058364 0.02814329 0.11379557 -0.059310276 -0.004235615 0.06575212 0.03805684 -0.016088368
0.07505679 0.11707152 0.038405087 0.122623265 -0.14297353 0.44517776 0.23703356 -0.19857967
0.28437933 0.08726762 -0.18476774 -0.051003486 -0.18664968 -0.031071115 -0.009685429 0.006833891
-0.031486016 -0.03774991 -0.0017198591 -0.00481175 -0.025882725 0.03186931 -0.14903046 -0.19066168
-0.42514256 -0.16707607 -0.071334966 -0.13414602 0.02397185 0.12795469 -0.3757879 0.039038613
0.06251349 -0.011887232 -0.017693797 0.040542215 -0.051031984 -0.026723359 -0.006641851 -0.023315512
0.027047327 -0.16064304 0.052211385 -0.18654625 0.013692867 0.08894909 -0.064764135 0.12060566
-0.003979404 -0.114090815 0.009958132 -0.105214134 -0.15336534 -0.021923006 -0.089050286 -0.047745362
-0.052483656 -0.22471742 -0.23432608 0.12547626 -0.023459628 -0.20356292 0.069293775 -0.12432141
-0.001906807 -0.15642646 0.016271004 -0.0088121155 0.07623677 0.1882027 -0.110241115 -0.0404718
0.12927863 -0.022055324 -0.08198269 0.068887465 -0.040074166 0.00019754528 -0.052463103 -0.046801373
0.024881259 -0.027953442 -0.010690576 0.0013362409 -0.014934891 -0.0030927598 0.038660467 -0.0018936358
-0.008797062 0.04456565 -0.0065640663 -0.019198267 -0.004664902 -0.025180839 -0.061340652 -0.008232427
0.041101664 0.04064066 -0.0058848807 0.034151956 0.12959096 0.021709638 0.085070506 0.05790746
0.027272511 0.0014217725 0.041047752 0.014152664 -0.0035193546 0.028113913 0.016704394 0.03174316
-0.18175204 -0.0421051 -0.2072735 -0.11226386 0.22284916 0.040900227 -0.023228515 0.16652149
-0.030494636 0.060259927 0.36718526 0.31745335 -0.17077348 0.16709799 0.19497137 -0.37095192
-0.18303232 -0.17579554 0.13872549 0.13918099 0.034635387 0.010038366 0.10158074 0.07212599
-0.088054 0.027367512 0.09435073 -0.13393636 0.058542103 0.16921423 -0.02738297 0.11934744
0.17066847 0.02270814 0.10421496 0.09508092 -0.12972817 -0.31784046 -0.18129064 -0.11755483
-0.27122948 -0.093752325 -0.023198156 -0.22146386 0.13250858 -0.11498741 0.114546396 0.22561277
-0.12540811 0.10489811 0.25292656 -0.07146621 0.09891492 0.22828414 0.011373374 0.058405004
0.007896571 0.050377946 0.05956891 0.0074945805 0.045889575 0.05957489 0.018778805 -0.09897169
0.02638155 0.06404871 -0.01637794 0.09148504 0.112130664 0.01175904 0.072719425 0.054207668
0.11011492 0.021328764 0.09915166 -0.013675188 -0.058539875 0.14701842 0.015951885 -0.035811972
0.026187325 0.05486754 0.13053954 -0.2599577 0.41325402 -0.3487883 -0.1182034 -0.041691616
0.11371514 0.360026 0.04483774 -0.35254577 0.046143267 -0.4800746 0.17524092 0.4025777
0.008800772 0.35883385 -0.048870575 -0.27344054 -0.32696944 0.057870492 -1.008357 1.0670471
0.34049758 0.43945402 -0.25200367 -0.36065596 0.028140742 0.054097537 0.09693832 0.06388736
00000000: 78a1 eabd 4a3c 283e 9874 de3e 8d09 90be
00000010: 1a0e d3bb 55aa 993e 9f64 aebe 9f0e 4abe
00000020: c902 b73d d54d cabc ef28 c7bc 888f 4cbe
00000030: 8b4c a2bd 2c07 51bc 68c2 0ebe 8498 07bd
00000040: aa4c 06bd d7aa 5cbc 968f 8cbd c45c 293d
00000050: 17d6 113e c72b adbd 8185 2c3d 1b9b 003e
00000060: 2fe7 71bd c28c e63c a70d e93d 55ef 72bd
00000070: eaca 8abb 0ca9 863d 7de1 1b3d c1cb 83bc
00000080: 60b7 993d 31c3 ef3d a74e 1d3d e821 fb3d
00000090: a767 12be 57ee e33e edb8 723e 7858 4bbe
000000a0: 2b9a 913e 5eb9 b23d c133 3dbe 08e9 50bd
000000b0: 1821 3fbe da88 febc a2af 1ebc d5ee df3b
000000c0: 7bf7 00bd a69f 1abd e56c e1ba e2ab 9dbb
000000d0: 0208 d4bc 6589 023d 719b 18be d13c 43be
000000e0: 49ac d9be fd15 2bbe 1118 92bd 935d 09be
000000f0: 9d60 c43c 8e06 033e 4667 c0be f4e6 1f3d
00000100: 1307 803d aac2 42bc 95f2 90bc 980f 263d
00000110: ea06 51bd f2ea dabc e2a3 d9bb 2c00 bfbc
00000120: 5b92 dd3c 9c7f 24be 9bdb 553d fb05 3fbe
00000130: 0c58 603c f12a b63d 0fa3 84bd 1a00 f73d
00000140: a965 82bb 72a8 e9bd 6f27 233c 827a d7bd
00000150: ce0b 1dbe e097 b3bc ff5f b6bd a490 43bd
00000160: 1af9 56bd 531c 66be 2df3 6fbe d97c 003e
00000170: 682e c0bc cc72 50be e5e9 8d3d 399c febd
00000180: d3ed f9ba 422e 20be c54a 853c b160 10bc
00000190: 0622 9c3d 35b8 403e 18c6 e1bd c2c5 25bd
000001a0: 9e61 043e 5ead b4bc 8ae6 a7bd df14 8d3d
000001b0: cf24 24bd 2824 4f39 8de3 56bd ccb2 3fbd
000001c0: c8d3 cb3c 9efe e4bc 8727 2fbc ce24 af3a
000001d0: 79b1 74bc e6af 4abb 705a 1e3d e033 f8ba
000001e0: 8d21 10bc 798a 363d 6117 d7bb af45 9dbc
000001f0: 09dc 98bb 0c48 cebc 5640 7bbd 4de1 06bc
00000200: 385a 283d d276 263d f5d5 c0bb ece2 0b3d
00000210: 7eb3 043e 69d8 b13c 7239 ae3d 5f30 6d3d
00000220: 9a6a df3c c55a ba3a b021 283d 93e0 673c
00000230: f9a4 66bb 264f e63c a7d7 883c 1e05 023d
00000240: 351d 3abe 6676 2cbd 813f 54be 98ea e5bd
00000250: 9232 643e ff86 273d ba49 bebc 9c84 2a3e
00000260: e3cf f9bc 1dd3 763d b5ff bb3e 3f89 a23e
00000270: 3edf 2ebe bc1b 2b3e 93a6 473e 69ed bdbe
00000280: d36c 3bbe bf03 34be 0e0e 0e3e 7685 0e3e
00000290: d6dd 0d3d f577 243c 9009 d03d cbb6 933d
000002a0: a855 b4bd d531 e03c f53a c13d 9d26 09be
000002b0: d8c9 6f3d 7f46 2d3e 4052 e0bc 6e6c f43d
000002c0: b7c3 2e3e 6c06 ba3c a76e d53d c9b9 c23d
000002d0: 76d7 04be fcbb a2be 41a4 39be 96c0 f0bd
000002e0: 97de 8abe 3801 c0bd 0f0a bebc 6cc7 62be
000002f0: 54b0 073e 857e ebbd 4d97 ea3d 0907 673e
00000300: fc6a 00be d2d4 d63d 977f 813e e05c 92bd
00000310: e893 ca3d 51c3 693e 6357 3a3c 163a 6f3d
00000320: 9f60 013c 1b59 4e3d 88fe 733d 1995 f53b
00000330: b5f6 3b3d cd04 743d 02d6 993c abb1 cabd
00000340: 1f1e d83c f82b 833d 082b 86bc 825c bb3d
00000350: c3a4 e53d fda8 403c eced 943d dc08 5e3d
00000360: ee83 e13d a9b9 ae3c 0710 cb3d e50d 60bc
00000370: 82c7 6fbd ff8b 163e 87ad 823c 93af 12bd
00000380: cd86 d63c c9bc 603d 28ac 053e 2d19 85be
00000390: 0896 d33e 6194 b2be a014 f2bd d4c4 2abd
000003a0: 7ce3 e83d 5455 b83e c7a7 373d e180 b4be
000003b0: b900 3d3d 57cc f5be 5b72 333e aa1e ce3e
000003c0: 1d31 103c 12b9 b73e 832c 48bd 6600 8cbe
000003d0: 8a68 a7be 9c09 6d3d d811 81bf 0095 883f
000003e0: b355 ae3e 1e00 e13e a006 81be e6a7 b8be
000003f0: 6a87 e63c 6195 5d3d 9987 c63d 60d7 823d

dense1.2.bn1.weight f4 [48]
0.42913058 0.17716923 0.4093663 0.49209875 0.8882401 0.15259132 0.4080417 0.3414324
0.25155053 0.33510607 0.22844142 0.6282055 0.095758855 0.3541817 0.11773931 0.45471913
0.33915213 0.5357717 0.5675747 0.26303425 0.69977355 0.07180258 0.3253471 0.19608521
0.71327215 0.4367516 0.25173292 1.0450326 0.048826717 0.16995552 0.65136236 0.93603563
0.31147844 0.22081786 0.30166653 0.6713791 1.484964 1.00999 0.3102587 0.66009635
0.8550993 0.45157465 0.36833432 1.0268524 1.3375928 0.4662789 0.20223963 0.6767599
00000000: 01b7 db3e da6b 353e 7698 d13e 5ef4 fb3e
00000010: b463 633f e640 1c3e d7ea d03e 3ad0 ae3e
00000020: 3bcb 803e 0693 ab3e 8cec 693e 13d2 203f
00000030: 381d c43d 4e57 b53e 4f21 f13d f2d0 e83e
00000040: 59a5 ad3e 5628 093f 934c 113f 6dac 863e
00000050: 5c24 333f 3b0d 933d e593 a63e 90ca 483e
00000060: 0199 363f e89d df3e 23e3 803e a1c3 853f
00000070: 86fe 473d d208 2e3e afbf 263f 08a0 6f3f
00000080: 1a7a 9f3e 141e 623e 0974 9a3e 80df 2b3f
00000090: 4d13 be3f 5a47 813f 3ada 9e3e 13fc 283f
000000a0: cae7 5a3f cb34 e73e 5196 bc3e e66f 833f
000000b0: 3e36 ab3f 1cbc ee3e e817 4f3e 2340 2d3f

dense1.2.bn1.bias f4 [48]
-0.027200848 -0.048675004 -0.33419695 -0.40551177 0.27371493 -0.041052293 0.14752547 -0.18470864
0.029497981 0.059948463 -0.02353555 0.38181913 -0.06363645 -0.08741859 0.033252183 -0.5592404
0.24628761 -0.44893238 -0.2519844 -0.23335443 0.44176123 -0.06060358 -0.11723483 -0.1750592
-0.52942127 0.35742196 0.045693528 0.09110102 -0.06813426 -0.12344928 0.07983559 0.38872278
-0.07347234 0.078683555 -0.1865355 -0.19874735 0.57969713 -0.01606282 -0.25463018 -0.15392864
-0.52036786 -0.31718934 -0.092084505 -0.3252529 0.3550402 -0.04100846 -0.043848928 0.38416588
00000000: 50d4 debc 715f 47bd dd1b abbe 3d9f cfbe
00000010: 5d24 8c3e 7326 28bd eb10 173e 4324 3dbe
00000020: c0a5 f13c 858c 753d a0cd c0bc cc7d c33e
00000030: d453 82bd 8508 b3bd 7133 083d 612a 0fbf
00000040: d232 7c3e 77da e5be 1904 81be 77f4 6ebe
00000050: 872e e23e 763b 78bd d118 f0bd b842 33be
00000060: 2788 07bf 0300 b73e 2329 3b3d 2c93 ba3d
00000070: fa89 8bbd fad2 fcbd d880 a33d ac06 c73e
00000080: ab78 96bd d824 a13d 2a03 3fbe 6d84 4bbe
00000090: 0867 143f 2d96 83bc e35e 82be 789f 1dbe
000000a0: d436 05bf a466 a2be cd96 bcbd 8c87 a6be
000000b0: d4c7 b53e 7df8 27bd ef9a 33bd 64b1 c43e

dense1.2.conv1.weight f4 [12, 48, 3, 3]
0.09765288 -0.061429426 -0.105347484 0.08734778 -0.07532381 -0.11927709 0.09342848 -0.055228893
-0.054241545 0.0032941601 0.027613932 0.018969396 0.009801242 0.02999594 0.031045886 0.019546991
0.016198335 0.0057461835 0.022238374 -0.014667402 -0.025765205 0.014234612 -0.04210461 -0.05101814
0.012207248 -0.031009205 -0.054350663 -0.07638969 -0.09309637 -0.100602284 0.059246384 0.04833609
0.01063079 0.030743953 0.059214234 0.054215737 -0.0050619994 0.11168804 0.13072789 -0.0018030204
0.13158007 0.14773205 -0.03626473 0.06469557 0.06278778 -0.009880939 -0.034171384 -0.04066842
0.0012881254 -0.015616127 -0.03178993 0.00024209698 -0.02636376 -0.012821992 0.08667173 -0.20438425
0.005461875 0.27948415 0.06635126 0.38698173 0.20371285 0.044296417 0.33320615 -0.017341677
-0.014002576 0.004005959 0.0038877209 -0.024490388 -0.020372195 -0.0048176916 -0.022866614 -0.044735674
-0.0962712 0.013091365 0.1889898 0.0018346922 0.08204538 0.14809075 0.14799982 0.1161701
0.06562385 0.053894326 0.0041228626 0.05989269 0.12619288 0.094617054 0.13358912 0.08671472
0.033564508 0.027690802 0.03732206 0.017609108 0.005118068 0.021295087 -0.027076658 -0.050623074
0.021573232 -0.013654654 -0.035343014 0.08577719 0.024357347 0.08713175 0.070998676 -0.010702324
0.04345326 0.059971027 -0.040134244 -0.034310687 0.007899376 0.0059405 0.0063180244 -0.0027672667
-0.0024725648 0.0012128347 -0.012856591 -0.01196649 -0.0049014096 -0.007187066 0.06544514 0.12251664
-0.03167057 0.033063833 0.09287595 -0.07356075 -0.021908414 0.038839187 -0.0075494396 -0.00516518
-0.017584635 0.024251219 0.025921753 0.02570992 0.0013342401 0.029664626 0.025602154 -0.00010414447
0.029500907 0.101555735 -0.019656593 0.003818932 0.11522969 -0.02400579 0.028608989 0.11484441
0.006929628 0.0980448 0.20333755 -0.029617246 0.09094134 0.20873654 -0.070648044 0.062267654
0.175639 0.1289139 0.012543234 -0.11812615 0.09652131 -0.0074663865 -0.11918038 0.034866273
-0.050784755 -0.10758181 -0.09862785 0.08301333 0.28040686 -0.12724702 0.057621896 0.26646414
-0.102113456 0.058889236 0.21073748 0.043755885 0.04115775 0.025819594 0.043421444 0.0486856
0.017005892 0.017602881 0.01324835 0.006601349 -0.43184042 -0.27153143 -0.3621158 -0.66144866
-0.5119564 -0.66865116 -0.4535438 -0.34666952 -0.48222232 -0.006725191 -0.0053656134 0.00061380386
-0.0037189554 -0.00865029 -0.011761801 -0.0054258076 -0.0029930184 -0.01913824 0.029448051 0.05234352
0.07135797 0.0021657662 0.054469757 0.09300049 -0.00032129593 0.025659634 0.100810945 0.012503523
0.021902578 0.009721767 0.016513137 0.0057661897 0.0008639004 0.01619424 0.01233083 -0.0064037447
0.17473394 0.009482014 -0.049558613 0.1965089 0.002136882 -0.08703666 0.15539686 -0.047610026
-0.13833609 -0.029718898 0.0042883116 0.06467416 -0.12113656 -0.005960555 0.2325689 -0.06270476
0.024508951 0.26816273 -0.013226731 -0.0038007286 0.08105725 0.12020893 0.06512466 0.009359163
0.14364463 0.06190768 0.0010157312 0.08059783 -0.044266783 -0.11415008 0.58498496 0.36001104
0.09101472 0.18800732 0.13193852 -0.075690426 0.0063291606 0.002325304 0.009388418 -0.0104870945
00000000: 3cfe c73d 6c9d 7bbd 6cc0 d7bd 65e3 b23d
00000010: 5f43 9abd 8c47 f4bd 6e57 bf3d b137 62bd
00000020: 622c 5ebd d6e2 573b 9d36 e23c b565 9b3c
00000030: 6395 203c 0cba f53c f153 fe3c 0321 a03c
00000040: 5fb2 843c 7b4a bc3b 402d b63c 8b4f 70bc
00000050: 8d11 d3bc 4a38 693c e275 2cbd 66f8 50bd
00000060: e900 483c 0407 febc cd9e 5ebd 3372 9cbd
00000070: 4fa9 bebd 9208 cebd 56ac 723d 10fc 453d
00000080: c42c 2e3c beda fb3c a08a 723d 5211 5e3d
00000090: 21df a5bb b3bc e43d 88dd 053e 5353 ecba
000000a0: edbc 063e 1247 173e 538a 14bd 1c7f 843d
000000b0: e196 803d a9e3 21bc 4bf7 0bbd ee93 26bd
000000c0: 51d6 a83a c9da 7fbc 2836 02bd 6adb 7d39
000000d0: d0f8 d7bc 5513 52bc f380 b13d 1b4a 51be
000000e0: 87f9 b23b 8c18 8f3e 2be3 873d 7822 c63e
000000f0: 1a9a 503e 2970 353d ff99 aa3e 2210 8ebc
00000100: 0f6b 65bc 6b44 833b 22c9 7e3b 11a0 c8bc
00000110: 97e3 a6bc badd 9dbb c452 bbbc c13c 37bd
00000120: d629 c5bd 2a7d 563c 8b86 413e 0e7a f03a
00000130: 6807 a83d 1aa5 173e 448d 173e 97ea ed3d
00000140: cc65 863d 4cc0 5c3d 1419 873b 0a52 753d
00000150: b538 013e 96c6 c13d 96cb 083e 7d97 b13d
00000160: f07a 093d d2d7 e23c 04df 183d fa40 903c
00000170: 77b5 a73b 0973 ae3c decf ddbc 245a 4fbd
00000180: 59ba b03c c5b7 5fbc d6c3 10bd f4ab af3d
00000190: 0f89 c73c 2272 b23d c167 913d cd58 2fbc
000001a0: 0cfc 313d 2ea4 753d ce63 24bd 5d89 0cbd
000001b0: 626c 013c 87a8 c23b 6e07 cf3b 085b 35bb
000001c0: c10a 22bb fbf7 9e3a 73a4 52bc 190f 44bc
000001d0: 019c a0bb 7b81 ebbb 1a08 863d 01ea fa3d
000001e0: 00b9 01bd f16d 073d bf35 be3d 05a7 96bd
000001f0: 4679 b3bc d715 1f3d 4a61 f7bb ac40 a9bb
00000200: a70d 90bc 7eaa c63c db59 d43c 9c9d d23c
00000210: abe1 ae3a 3b03 f33c 9cbb d13c 2368 dab8
00000220: e3ab f13c 74fc cf3d dd06 a1bc 0c47 7a3b
00000230: 8bfd eb3d caa7 c4bc 665d ea3c 8c33 eb3d
00000240: ef11 e33b b6cb c83d b837 503e de9f f2bc
00000250: 743f ba3d 08bf 553e ecaf 90bd 5e0c 7f3d
00000260: b6da 333e 0102 043e 2382 4d3c 1fec f1bd
00000270: f7ac c53d 97a8 f4bb d814 f4bd f0cf 0e3d
00000280: ad03 50bd da53 dcbd 66fd c9bd e502 aa3d
00000290: 7d91 8f3e 0b4d 02be f004 6c3d fd6d 883e
000002a0: dc20 d1bd d735 713d 91cb 573e 5f39 333d
000002b0: 0795 283d 9d83 d33c afda 313d 8d6a 473d
000002c0: f14f 8b3c eb33 903c 9b0f 593c 2150 d83b
000002d0: 301a ddbe 2b06 8bbe 3e67 b9be b354 29bf
000002e0: 930f 03bf b92c 2bbf e536 e8be ab7e b1be
000002f0: d8e5 f6be fe5e dcbb 07d2 afbb aee7 203a
00000300: b8b9 73bb f2b9 0dbc 92b4 40bc f9ca b1bb
00000310: 8426 44bb ccc7 9cbc 0a3d f13c 2966 563d
00000320: 2124 923d 87ef 0d3b ae1b 5f3d 0a77 be3d
00000330: 9c73 a8b9 2734 d23c f875 ce3d 94db 4c3c
00000340: 096d b33c 0c48 1f3c 8f46 873c 4ef2 bc3b
00000350: 6077 623a c8a9 843c 4007 4a3c 81d6 d1bb
00000360: 74ed 323e 735a 1b3c f9fd 4abd a139 493e
00000370: ee0a 0c3b 4740 b2bd 5b20 1f3e bb02 43bd
00000380: faa7 0dbe 0c75 f3bc f784 8c3b e373 843d
00000390: 7216 f8bd c250 c3bb 8b26 6e3e 5a6b 80bd
000003a0: ffc6 c83c a04c 893e eeb4 58bc a515 79bb
000003b0: 5801 a63d 1930 f63d 1460 853d 2d57 193c
000003c0: 9417 133e e892 7d3d 4922 853a 7a10 a53d
000003d0: 1651 35bd 84c7 e9bd 93c1 153f 5e53 b83e
000003e0: ed65 ba3d fe84 403e e41a 073e 9503 9bbd
000003f0: d964 cf3b 2164 183b e1d1 193c 10d2 2bbc

dense1.3.bn1.weight f4 [60]
0.2964434 0.24607372 0.20692992 0.4971668 0.5630998 0.20803694 1.1781518 0.33449426
0.48226035 0.27176675 0.10753258 0.22440009 0.18041587 0.1404089 0.6918963 0.16115919
0.25421515 0.11452324 0.23380503 0.16798763 1.2329837 0.21749799 0.14174706 0.10456445
0.20388058 0.73500645 0.4084073 0.7174938 0.22511907 0.3103819 0.7140835 1.0168134
0.397977 0.44696435 0.1240481 0.7231689 0.92261153 0.95538986 0.13840376 1.0392174
0.56152236 0.17134973 0.14849974 0.56251985 0.46718198 0.4240415 1.2097013 0.3844325
0.9570214 0.3543163 0.15735295 0.51660436 0.2947766 0.1434261 1.6435254 0.732133
1.242303 0.20557083 0.048476055 0.4277772
00000000: 6ec7 973e c0fa 7b3e 70e5 533e a68c fe3e
00000010: 4f27 103f a307 553e aecd 963f d542 ab3e
00000020: d4ea f63e 0325 8b3e 0b3a dc3d 23c9 653e
00000030: f0be 383e 5ac7 0f3e 1e20 313f ea06 253e
00000040: 7d28 823e 298b ea3d 966a 6f3e f304 2c3e
00000050: 69d2 9d3f cbb7 5e3e 2426 113e e325 d63d
00000060: 12c6 503e 6229 3c3f c31a d13e acad 373f
00000070: 9d85 663e 60ea 9e3e 2dce 363f f126 823f
00000080: a4c3 cb3e 83d8 e43e ee0c fe3d 9921 393f
00000090: 4530 6c3f 6e94 743f b7b9 0d3e 1305 853f
000000a0: eebf 0f3f 4e76 2f3e 5110 183e 4d01 103f
000000b0: 7a32 ef3e f81b d93e 7ed7 9a3f 56d4 c43e
000000c0: 5bff 743f f268 b53e 2221 213e 2f40 043f
000000d0: f5ec 963e 4bde 123e 0a5f d23f 116d 3b3f
000000e0: c903 9f3f 2981 523e d48e 463d 9d05 db3e

dense1.3.bn1.bias f4 [60]
-0.09910082 -0.011571527 -0.114973344 0.18681917 0.041130528 0.03787113 -0.05558775 0.058536824
-0.123193495 -0.020480497 -0.025487097 -0.043194402 -0.04472689 -0.050048098 0.14795622 -0.19413961
-0.19260566 -0.098667406 -0.031103076 -0.07347062 -0.06246087 0.04540131 -0.07141987 -0.049344726
-0.16170333 -0.19501437 -0.33273545 -0.28322807 -0.17982022 -0.26225933 -0.17166123 -0.5507362
-0.24189089 0.06964549 -0.10741228 -0.18342899 -0.28044212 0.3869215 -0.18336871 -0.2175953
-0.36367407 -0.17878933 -0.06846354 0.027868504 -0.15852894 0.02785105 0.22449881 -0.119651146
0.032879297 0.083531365 -0.0067543825 -0.05853201 0.1268515 -0.055893295 -0.028721377 0.08827087
0.0767414 -0.0016892802 -0.006590592 0.08891308
00000000: 5ff5 cabd 8196 3dbc 2577 ebbd 864d 3f3e
00000010: 7c78 283d c21e 1b3d fbaf 63bd 4fc4 6f3d
00000020: df4c fcbd b7c6 a7bc 51ca d0bc 9dec 30bd
00000030: 8b33 37bd 3cff 4cbd d681 173e 89cc 46be
00000040: 6b3a 45be 2312 cabd e1cb febc c477 96bd
00000050: f8d6 7fbd b9f6 393d 9544 92bd b21d 4abd
00000060: 8f95 25be d9b1 47be 4d5c aabe 4503 91be
00000070: cb22 38be db46 86be f6c7 2fbe 0cfd 0cbf
00000080: 3fb2 77be 4ba2 8e3d f8fa dbbd cfd4 3bbe
00000090: 1c96 8fbe 931a c63e 02c5 3bbe 4dd1 5ebe
000000a0: 7d33 babe 8d14 37be 9d36 8cbd 7d4c e43c
000000b0: 6955 22be e327 e43c 04e3 653e a90b f5bd
000000c0: 71ac 063d 7e12 ab3d de53 ddbb 43bf 6fbd
000000d0: 5ce5 013e 5ef0 64bd 1849 ebbc 5cc7 b43d
000000e0: 982a 9d3d d66a ddba e5f5 d7bb 1018 b63d

dense1.3.conv1.weight f4 [12, 60, 3, 3]
0.053129762 -0.0104557 0.014189581 0.044256706 -0.040742688 -0.048211236 0.04597342 -0.017833576
-0.008160865 0.0062859575 -0.0023817467 -0.017130742 -0.011354426 -0.02008571 -0.01359885 -0.016928604
-0.010240464 -0.0038846717 0.009962728 0.018222839 0.020992458 -0.0008053276 -0.0100575695 -0.0017306587
0.008104881 -0.013762479 0.0005398322 0.022682754 0.0053142477 0.040380117 0.089910775 0.048374407
0.10900537 -0.004626164 -0.036178816 0.049532767 0.19007392 0.15713795 0.0311371 0.15081808
0.11655955 -0.009432783 0.08201451 0.056157354 -0.048089936 -0.013560047 -0.0076619084 -0.0027432141
-0.010521058 -0.006117326 -0.015893435 -0.0063685407 -0.005303774 0.0036447041 -0.11179181 -0.17167382
0.13239855 -0.037834805 -0.109712146 0.12711506 0.013555264 -0.12880366 0.024052935 0.08755813
0.054893896 0.04818791 0.027557584 0.010123778 0.020079175 -0.008518388 -0.017264402 -0.0075362124
0.09120328 0.12702888 0.20693849 0.03478336 0.058725044 0.10052886 -0.013831111 0.014290664
0.040734105 0.0039019424 -0.020351907 -0.016535323 0.01867036 -0.019789321 -0.042165402 -0.0040761465
-0.026401345 -0.024169045 0.022478927 -0.00040050974 0.009838813 -0.009597137 -0.026930863 -0.0027354371
-0.011391854 -0.028382432 -0.021871092 -0.010170713 -0.008127823 0.007940727 -0.017327216 -0.026083553
-0.01854827 -0.005426377 -0.036921725 -0.00074902974 0.012239344 0.0058004605 -0.0013390948 0.0065733893
-0.007481966 0.0036656798 0.0064316094 0.001929482 -0.00053489394 0.03167079 0.03621894 0.034765948
0.03283402 0.023535134 0.019677144 0.022839189 0.0093597695 -0.0019063529 -0.068069264 -0.051386505
0.042486176 0.027142365 0.011480954 0.11470354 -0.045946922 -0.052112784 0.015367781 -0.0004964137
0.011815777 0.042403385 -0.0045900783 0.004978035 0.04288096 -0.023271458 -0.011139603 0.03858474
0.030170584 0.03483339 0.05513119 0.03336781 0.026052343 0.053998854 0.056717895 0.043109123
0.033325303 0.032630093 0.021062937 -0.0014979825 0.0334679 0.038309567 -0.008291246 0.023602288
0.011876619 -0.0012354952 0.07422763 0.075182 0.07832738 0.07127379 0.061487563 0.053364653
0.04852542 0.03582321 0.029594664 0.030422928 0.020555785 0.040713787 0.03353899 0.03308742
0.026760664 0.02987507 0.02388009 0.029230053 0.17025155 -0.14293395 -0.30326584 0.06995317
-0.16690077 -0.2385642 -0.04664141 -0.19131863 -0.19836402 0.026603837 0.02572904 0.073348075
-0.017956447 -0.0114531545 0.04216979 0.0011481029 -0.0057798517 0.04985696 0.014990935 0.013538211
0.0024929119 0.012051439 0.005929344 -0.00181306 -0.012699531 0.004437279 0.011009638 0.003163062
0.016715132 0.020030033 -0.005354701 0.0040096953 0.025011826 0.013896861 0.015645653 0.016037896
0.015345233 -0.009910678 0.049841408 -0.00041188824 -0.0073137823 0.028786423 -0.012021785 -0.008915401
0.037257068 -0.028351016 -0.14147282 -0.06336872 -0.04713768 -0.06444275 0.033044394 -0.06062807
-0.049339145 0.011107773 -0.0060068527 -0.0038086304 0.0093273455 -0.033904456 -0.051936068 -0.03077287
-0.034476172 -0.03802666 -0.011451525 0.09993844 -0.005733929 -0.10827072 0.10247816 -0.023714948
-0.12737866 0.108808674 -0.077396214 -0.1645106 0.00082472095 0.006905175 0.030808615 -0.0071979803
00000000: 989e 593d 624e 2bbc 6b7b 683c 8546 353d
00000010: cee1 26bd 2579 45bd a04e 3c3d b817 92bc
00000020: 26b5 05bc 6ffa cd3b 1417 1cbb c555 8cbc
00000030: ea07 3abc c98a a4bc b6cd 5ebc dbad 8abc
00000040: 9ec7 27bc fa95 7ebb b63a 233c 1048 953c
00000050: 60f8 ab3c 9f1c 53ba 81c8 24bc 45d7 e2ba
00000060: 56ca 043c 057c 61bc 8783 0d3a 2fd1 b93c
00000070: 2423 ae3b 9f65 253d 2423 b83d 3e24 463d
00000080: 353e df3d 1497 97bb 3d30 14bd dfe2 4a3d
00000090: bda2 423e c5e8 203e 3b13 ff3c 0e70 1a3e
000000a0: c6b6 ee3d f68b 1abc 39f7 a73d 4105 663d
000000b0: f4f9 44bd f62a 5ebc bf10 fbbb 7fc7 33bb
000000c0: 8460 2cbc da73 c8bb f332 82bc 31af d0bb
000000d0: 48cb adbb fddb 6e3b 1bf3 e4bd 43cb 2fbe
000000e0: 7c93 073e abf8 1abd c3b0 e0bd 732a 023e
000000f0: e616 5e3c 1be5 03be a90a c53c ad51 b33d
00000100: 6cd8 603d b060 453d 71c0 e13c 34de 253c
00000110: 157d a43c b590 0bbc 136e 8dbc 55f2 f6bb
00000120: c9c8 ba3d dc13 023e afe7 533e ff78 0e3d
00000130: ac89 703d 13e2 cd3d e29b 62bc 6423 6a3c
00000140: ced8 263d bbb7 7f3b 0bb9 a6bc 1675 87bc
00000150: 95f2 983c 371d a2bc a1b5 2cbd 3291 85bb
00000160: a247 d8bc 29fe c5bc ba25 b83c 82fb d1b9
00000170: f932 213c 4f3d 1dbc 1d9e dcbc 0545 33bb
00000180: e6a4 3abc 4682 e8bc 012b b3bc 10a3 26bc
00000190: 8f2a 05bc d319 023c cef1 8dbc 2dad d5bc
000001a0: 8bf2 97bc c0cf b1bb 3c3b 17bd 895a 44ba
000001b0: 8887 483c ca11 be3b 9184 afba 9665 d73b
000001c0: 482b f5bb e73b 703b 40c0 d23b ace6 fc3a
000001d0: 2038 0cba 3bb9 013d 505a 143d bd66 0e3d
000001e0: f77c 063d c1cc c03c f631 a13c 4019 bb3c
000001f0: b859 193c 97de f9ba e667 8bbd a87a 52bd
00000200: fc05 2e3d aa59 de3c 9c1a 3c3c b1e9 ea3d
00000210: d732 3cbd 3774 55bd 25c9 7b3c c221 02ba
00000220: f696 413c 2caf 2d3d 5e68 96bb c91e a33b
00000230: f2a3 2f3d c9a3 bebc e282 36bc 080b 1e3d
00000240: 4d28 f73c 75ad 0e3d 3ed1 613d afac 083d
00000250: b96b d53c e72d 5d3d 0651 683d 3193 303d
00000260: 1d80 083d 22a7 053d 2e8c ac3c f457 c4ba
00000270: a315 093d 7eea 1c3d 02d8 07bc 9659 c13c
00000280: 2796 423c 57f0 a1ba a804 983d 05f9 993d
00000290: 1b6a a03d fef7 913d 62da 7b3d e594 5a3d
000002a0: 97c2 463d 5cbb 123d 8270 f23c 8139 f93c
000002b0: 9b64 a83c 80c3 263d 2e60 093d ad86 073d
000002c0: 2e39 db3c 90bc f43c 2ea0 c33c dd73 ef3c
000002d0: 6c56 2e3e 475d 12be a945 9bbe 9c43 8f3d
000002e0: 09e8 2abe 2c4a 74be 100b 3fbd 08e9 43be
000002f0: f01f 4bbe 4af0 d93c b5c5 d23c 8437 963d
00000300: 6619 93bc 03a6 3bbc 3bba 2c3d f17b 963a
00000310: e964 bdbb d036 4c3d 8a9c 753c 5fcf 5d3c
00000320: 1f60 233b 6673 453c f14a c23b 33a4 edba
00000330: b211 50bc 9866 913b c561 343c 604b 4f3b
00000340: 2cee 883c 0616 a43c 7d76 afbb c363 833b
00000350: 9ae5 cc3c a9af 633c 502b 803c e861 833c
00000360: 926a 7b3c 6560 22bc 8126 4c3d b4f2 d7b9
00000370: 74a8 efbb 81d1 eb3c 05f7 44bc e711 12bc
00000380: de9a 183d 6440 e8bc 40de 10be 76c7 81bd
00000390: 7113 41bd 8ffa 83bd 8f59 073d 2455 78bd
000003a0: d817 4abd 60fd 353c 22d5 c4bb 379a 79bb
000003b0: b9d1 183c 66df 0abd eaba 54bd 6317 fcbc
000003c0: e336 0dbd d8c1 1bbd 2d9f 3bbc 86ac cc3d
000003d0: afe3 bbbb 0abd ddbd 12e0 d13d da45 c2bc
000003e0: 8d6f 02be 15d7 de3d e881 9ebd 7775 28be
000003f0: 1632 583a ce44 e23b 5962 fc3c 09dd ebbb

dense1.4.bn1.weight f4 [72]
0.5983887 0.32295728 0.590145 0.9641593 0.99849045 0.16227588 0.42640662 0.5208124
1.1504474 0.21396966 0.1855671 0.10067569 0.121177964 0.32332462 0.7509655 0.50999224
0.6564941 0.4647998 0.3031589 0.3879791 0.526552 0.2129216 0.07228099 0.11839033
0.28010887 0.9769419 0.53052723 0.1808442 0.2563648 0.16018946 0.37867513 0.30068573
0.40010062 0.4587991 0.38465714 0.51498014 0.603149 1.0741365 0.31275865 0.19874337
0.35665008 0.08022031 0.33311126 0.5598156 0.3128525 0.6468982 0.86361575 0.45261684
0.35100493 0.15865475 0.33105668 0.42851707 0.31654087 0.24333046 0.34049624 0.3108712
1.2322001 0.2906947 0.1941455 0.64498365 0.2080708 0.17196397 1.5189158 0.2314928
0.14153202 0.080289215 0.1048181 0.84659344 0.07547549 0.6453612 0.30844292 0.17397436
00000000: 0030 193f a85a a53e be13 173f 25d3 763f
00000010: 129d 7f3f a62b 263e f851 da3e f653 053f
00000020: dc41 933f dd1a 5b3e 4d05 3e3e 0e2f ce3d
00000030: 272c f83d ce8a a53e 463f 403f da8e 023f
00000040: ff0f 283f 3dfa ed3e a537 9b3e 32a5 c63e
00000050: 1dcc 063f 1f08 5a3e 0e08 943d a176 f23d
00000060: 6e6a 8f3e dd18 7a3f a2d0 073f 392f 393e
00000070: 3f42 833e b508 243e b5e1 c13e 7bf3 993e
00000080: fdd9 cc3e b7e7 ea3e c8f1 c43e bdd5 033f
00000090: f967 1a3f 4e7d 893f e721 a03e 6283 4b3e
000000a0: d79a b63e 8c4a a43d 8f8d aa3e 1350 0f3f
000000b0: 342e a03e 1f9b 253f ec15 5d3f 65bd e73e
000000c0: ebb6 b33e 6476 223e 4380 a93e 9766 db3e
000000d0: a511 a23e 9f2b 793e 8655 ae3e 832a 9f3e
000000e0: bcb8 9d3f f0d5 943e 14ce 463e a61d 253f
000000f0: 8310 553e 5317 303e d56b c23f 730c 6d3e
00000100: c5ed 103e ac6e a43d dfaa d63d 59ba 583f
00000110: e592 9a3d 6436 253f 3bec 9d3e 5626 323e

dense1.4.bn1.bias f4 [72]
-0.5407523 -0.024669232 -0.31376487 -0.037924435 -0.38011125 -0.015240352 -0.1072351 -0.011036617
0.057898305 -0.0020942003 -0.033677395 -0.083159 -0.04347652 -0.11668031 0.050264627 -0.2677713
-0.4548208 -0.3826502 -0.22919141 -0.33663496 -0.2942698 0.13411696 0.011876774 0.050212424
0.043811493 0.10888156 -0.21285711 -0.18161854 0.03659184 -0.06516565 -0.031172682 -0.05520419
-0.13903712 -0.1341207 -0.08119657 0.03108942 -0.16064544 -0.105341844 -0.43883204 -0.028489485
-0.18518835 -0.08146286 -0.061161548 -0.14721496 -0.024344495 0.05661738 -0.10820054 0.42257336
0.031239673 0.040019806 -0.04097368 -0.022128295 0.05563643 -0.077338666 0.01614909 -0.08205666
-0.18263906 -0.013160546 0.01696393 0.13221823 -0.041517284 -0.049723923 -0.27971777 0.029383615
-0.012878848 0.02448733 -0.032541912 -0.005935074 -0.081549406 0.12836805 0.033140454 0.03507431
00000000: be6e 0abf 2117 cabc caa5 a0be a756 1bbd
00000010: f19d c2be abb2 79bc 139e dbbd edd2 34bc
00000020: c626 6d3d da3e 09bb 4ff1 09bd 444f aabd
00000030: 6f14 32bd 16f6 eebd 48e2 4d3d 5219 89be
00000040: 46de e8be baea c3be 27b1 6abe 6b5b acbe
00000050: 88aa 96be f555 093e cd96 423c 8bab 4d3d
00000060: ae73 333d 4cfd de3d 37f7 59be 36fa 39be
00000070: 53e1 153d 9175 85bd da5d ffbc ca1d 62bd
00000080: bf5f 0ebe f056 09be 634a a6bd 3daf fe3c
00000090: 3d80 24be 77bd d7bd 98ae e0be c862 e9bc
000000a0: 04a2 3dbe 00d6 a6bd 8884 7abd 85bf 16be
000000b0: 1b6e c7bc a0e7 673d 3f98 ddbd 895b d83e
000000c0: 58ea ff3c cfeb 233d 04d4 27bd 6646 b5bc
000000d0: 06e3 633d bc63 9ebd 194b 843c 520d a8bd
000000e0: bc05 3bbe 559f 57bc f1f7 8a3c 3764 073e
000000f0: 070e 2abd 50ab 4bbd 2b37 8fbe e8b5 f03c
00000100: ce01 53bc a799 c83c ab4a 05bd 027b c2bb
00000110: 6003 a7bd ea72 033e 49be 073d 14aa 0f3d

dense1.4.conv1.weight f4 [12, 72, 3, 3]
-0.09173366 -0.14374334 -0.10368545 -0.13141716 -0.17770062 -0.15144901 -0.07777167 -0.11793993
-0.109233506 -0.010896405 -0.014382807 -0.025557576 0.018188242 -0.011352538 -0.0031676858 0.02234861
0.027702104 0.012070715 -0.04718892 -0.075578734 -0.081973754 -0.07857756 -0.10058853 -0.09624657
-0.06322431 -0.10732868 -0.1058181 -0.07822575 -0.048341893 -0.045270976 -0.045557704 -0.044618703
-0.012988261 -0.08357707 -0.092359655 -0.04283286 -0.2447552 -0.20781535 -0.22100529 -0.22821492
-0.21962704 -0.23014782 -0.24041137 -0.25882372 -0.27165195 -0.020683143 -0.02712079 -0.02211202
-0.021261485 -0.031652514 -0.028283456 -0.027057486 -0.02943636 -0.010801811 -0.00013793005 -0.0034579986
0.029166114 0.004703664 -0.0054504806 0.046434514 0.0008710393 0.005814888 0.032021247 0.047380883
0.015601679 0.009956376 0.020864118 -0.019695288 -0.020068757 -9.593948e-05 -0.020451136 -0.0373818
0.12946188 0.06369079 0.029468108 0.09509689 -0.0050067715 -0.09627346 -0.07734842 -0.1126517
-0.19499451 -0.033486366 -0.029226843 -0.013987255 -0.04558955 -0.021287357 -0.006452087 -0.03800048
-0.021772228 -0.021092895 -0.0093131345 -0.011570261 -0.009760184 -0.024740491 -0.029710358 -0.0182593
-0.020691471 -0.022772528 -0.011472963 0.0046148086 0.0075934906 0.0062202895 -0.011626575 -0.009396935
-0.0077432515 -0.011713661 -0.022435853 -0.0115302745 -0.0050404454 -0.008137343 0.0009429898 -0.0032634167
-0.0014533213 -0.0004770233 -0.012683006 -0.012262795 -0.005108788 -0.060175166 -0.033532273 -0.03885658
-0.072822385 -0.043825448 -0.034393046 -0.06010914 -0.053180672 -0.04253625 -0.08247791 -0.059742797
-0.030140935 -0.051715154 -0.058548216 -0.017120756 -0.08676174 -0.07282502 -0.039649818 -0.056423668
-0.10107987 -0.038974367 -0.019464234 -0.07585742 -0.042121883 0.0075940327 -0.06196728 -0.049408354
-0.06224377 -0.055411126 -0.008578478 -0.06542384 -0.04637785 0.0039723236 -0.052055866 -0.041718524
-0.008102232 -0.035509616 -0.028096866 -0.034142587 -0.022461943 -0.029005945 -0.029726472 -0.035935145
-0.052396163 -0.06892123 -0.05271185 -0.06497854 -0.047964077 -0.028067563 -0.035235304 -0.0325069
-0.033391222 -0.03200562 -0.050749775 -0.010094165 -0.016244696 -0.011696084 0.0059672897 0.015123417
-0.003620753 0.02153714 0.018043257 0.00814622 -0.006233489 -0.059201244 -0.084646106 0.049906183
-0.025105124 -0.04583548 0.080253325 0.035974428 -0.017358467 -0.0928121 -0.10198359 -0.09225075
-0.08444822 -0.1175723 -0.09990683 -0.06584134 -0.08208823 -0.06847437 -0.0025204718 0.010540354
0.0034940564 0.029538563 0.016029065 0.030237205 0.028965527 0.03740545 0.03223023 -0.05264895
-0.07001298 -0.05598954 -0.021386916 -0.017592259 -0.017458813 -0.002861227 -0.002723609 -0.0046137376
-0.005071445 -0.021030216 -0.0115978625 -0.028790055 -0.04965225 -0.040546842 -0.019424016 -0.055439502
-0.036501743 -0.15700999 -0.043236557 0.021292562 -0.09717042 -0.091199234 -0.031856023 0.00086927635
-0.12815933 -0.19500367 -0.09722483 -0.14134698 -0.14201854 -0.01439338 -0.050579797 -0.06822727
0.0069377143 0.0010552289 -0.0006686835 -0.029047139 -0.032724164 -0.009436006 -0.056020483 -0.046550687
-0.026155986 -0.044726066 -0.02854927 0.010594201 0.0027981778 -0.04258964 -0.06054409 0.034814216
00000000: dbde bbbd 7431 13be 0a59 d4bd 3892 06be
00000010: 27f7 35be 7315 1bbe c146 9fbd 7d8a f1bd
00000020: d1b5 dfbd d686 32bc dda5 6bbc 1f5e d1bc
00000030: 82ff 943c ffff 39bc f398 4fbb 6f14 b73c
00000040: 86ef e23c 40c4 453c 2b49 41bd 06c9 9abd
00000050: dbe1 a7bd 46ed a0bd 5c01 cebd ec1c c5bd
00000060: bf7b 81bd 24cf dbbd 29b7 d8bd d234 a0bd
00000070: 2602 46bd 0f6e 39bd b79a 3abd 1ac2 36bd
00000080: b7cc 54bc 742a abbd 0f27 bdbd 8271 2fbd
00000090: 1ba1 7abe 8ccd 54be 364f 62be 2cb1 69be
000000a0: e9e5 60be dfab 6bbe 662e 76be 8b84 84be
000000b0: f715 8bbe b26f a9bc 6b2c debc 4424 b5bc
000000c0: 912c aebc 11a6 01bd b5b2 e7bc a9a7 ddbc
000000d0: 8524 f1bc 14fa 30bc 51a1 10b9 979f 62bb
000000e0: c6ed ee3c 3221 9a3b f299 b2bb 1e32 3e3d
000000f0: 7556 643a d18a be3b b628 033d 7512 423d
00000100: 2f9e 7f3c 1120 233c 3aeb aa3c 0358 a1bc
00000110: 3c67 a4bc 1e33 c9b8 2489 a7bc a91d 19bd
00000120: a891 043e 5170 823d 1a67 f13c 29c2 c23d
00000130: d80f a4bb 052b c5bd d968 9ebd efb5 e6bd
00000140: a4ac 47be 0029 09bd 226d efbc cd2a 65bc
00000150: 1cbc 3abd d362 aebc 076c d3bb 64a6 1bbd
00000160: ac5b b2bc 02cb acbc 1e96 18bc 3191 3dbc
00000170: 2ee9 1fbc 92ac cabc 2363 f3bc 8794 95bc
00000180: 2981 a9bc 748d babc 18f9 3bbc d237 973b
00000190: d1d2 f83b 92d3 cb3b 647d 3ebc 9af5 19bc
000001a0: 1abb fdbb a8ea 3fbc 65cb b7bc 7ae9 3cbc
000001b0: 522a a5bb 7e52 05bc f932 773a 0cdf 55bb
000001c0: 5f7d beba fc18 fab9 62cc 4fbc e4e9 48bc
000001d0: 9f67 a7bb 3c7a 76bd 2359 09bd 1428 1fbd
000001e0: e723 95bd 5082 33bd b9df 0cbd 0035 76bd
000001f0: fad3 59bd 7e3a 2ebd 2eea a8bd ddb4 74bd
00000200: 1fea f6bc 45d3 53bd 41d0 6fbd d440 8cbc
00000210: 24b0 b1bd 4925 95bd d967 22bd 811c 67bd
00000220: f602 cfbd 96a3 1fbd 7573 9fbc 235b 9bbd
00000230: ff87 2cbd 5dd7 f83b 67d1 7dbd 6a60 4abd
00000240: 53f3 7ebd c7f6 62bd bf8c 0cbc effc 85bd
00000250: b3f6 3dbd 442a 823b 8838 55bd 0be1 2abd
00000260: 39bf 04bc 8872 11bd 662b e6bc 19d9 0bbd
00000270: 1c02 b8bc e09d edbc ee84 f3bc bb30 13bd
00000280: 5c9d 56bd 9326 8dbd 61e8 57bd 7813 85bd
00000290: fb75 44bd f2ed e5bc e552 10bd f525 05bd
000002a0: 3cc5 08bd 5318 03bd ffde 4fbd ff61 25bc
000002b0: 9913 85bc efa0 3fbc 4189 c33b 35c8 773c
000002c0: 284a 6dbb a86e b03c 74cf 933c b977 053c
000002d0: 4c42 ccbb 017d 72bd f05a adbd 6d6a 4c3d
000002e0: 43a9 cdbc fcbd 3bbd db5b a43d ec59 133d
000002f0: 5833 8ebc 4514 bebd c6dc d0bd f6ed bcbd
00000300: 30f3 acbd bfc9 f0bd f49b ccbd d3d7 86bd
00000310: e01d a8bd 4a3c 8cbd 802e 25bb 73b1 2c3c
00000320: 8afc 643b dbfa f13c 634f 833c 04b4 f73c
00000330: 1d49 ed3c 7536 193d d803 043d 6da6 57bd
00000340: f762 8fbd 4a55 65bd 9d33 afbc a41d 90bc
00000350: c905 8fbc 6c83 3bbb 947e 32bb d62e 97bb
00000360: 5d2e a6bb 8f47 acbc f604 3ebc 1fd9 ebbc
00000370: 2860 4bbd 7214 26bd 1d1f 9fbc 8814 63bd
00000380: da82 15bd 3ac7 20be d118 31bd bd6d ae3c
00000390: 4901 c7bd aac6 babd 767b 02bd 26e0 633a
000003a0: 333c 03be 0baf 47be d01d c7bd 43bd 10be
000003b0: 4f6d 11be 36d2 6bbc c32c 4fbd bdba 8bbd
000003c0: c455 e33b 9b4f 8a3a 974a 2fba 44f4 edbc
000003d0: c609 06bd 7a99 1abc bc75 65bd efab 3ebd
000003e0: 1445 d6bc ae32 37bd 29e0 e9bc 4d93 2d3c
000003f0: a261 373b 7972 2ebd 14fd 77bd 5a99 0e3d
