independent_train_0.0/client11/checkpoint_0.0.pth (torch, 930411 bytes, 56 tensors)

conv1.weight f4 [24, 3, 3, 3]
00000000: 029f 543e fd55 bebe 91ac b53e 8bbd 85bf
00000010: d58d d5bf 6845 49bf b3cc 4bbf f177 bcbf
00000020: b37a 13bf 1040 863e 21cc d03e af66 953e
00000030: 7033 ed3e f2c5 383f cecf 113f bbff 8b3e
00000040: 489a e83e c875 cc3e d77b 1cbf 2cf7 fbbd
00000050: e545 4fbf c9ee 033f c430 9c3f 1a04 be3e
00000060: e4bc a83e 5564 763f 7b47 5d3e bdc4 dc3d
00000070: e565 d13e 61fa 1c3e 9328 71bf fd9f 8a3e
00000080: 6b0a 9b3e 4da3 5abf 029d cc38 f881 933e
00000090: b603 64be 5780 c83e c1f4 3ebe e2ee 53bf
000000a0: b520 463f a384 ec3e 69b3 50bf 2608 f23e
000000b0: 8ff8 e63e 9574 87be 7e42 ea3d 5a87 fabe
000000c0: 20f3 f6be 6104 443f 2d90 833e 4d7c dabe
000000d0: 7664 2d3f 61e5 c23e bbce b73c 193b 82be
000000e0: 4716 e0bb 8cda e5be 8134 3bbf 15a0 e7be
000000f0: 51a5 86be 2958 0cbf 4d40 98be d508 6a3e
00000100: 7a8b a43e 1f69 7f3e 684b 493e 2129 ab3e
00000110: 7315 853e 37d9 413e 67a2 953e ccf2 6f3e
00000120: 6516 04bd d998 743e f213 54bd f083 873e
00000130: 2e78 213f 7fe9 863e 4747 023e c58a e23e
00000140: 1a45 c33d 169f 5abe f811 96bf dd45 14bf
00000150: 75a5 9a3d b6e0 36bc 9abc 823e 3398 3abc
00000160: f776 213f 4476 fd3e 8339 67be 8ebc 98bf
00000170: ede7 49bf 3e3c 9d3e e5c5 663e 0ea8 923e
00000180: 4c32 5b3e ceb6 663f 72d1 0b3f d137 68be
00000190: cbab 92bf 9319 4bbf 28ef 863e 5a92 a73d
000001a0: 00fe 193e ae9a c83e 9641 643f d71c 1f3f
000001b0: e3e3 56bf 31d4 38bf aa8a 7bbf f740 333d
000001c0: 55b8 1b3f c4ea 25be dd35 1c3f 8d34 8e3f
000001d0: e62b c33e 24cc 0e3e 26f4 dc3e ea23 343d
000001e0: d89e d33e 7235 863f bd55 853e 8296 563e
000001f0: 931f 2f3f b519 933d cd1d 193f 7fa9 5f3e
00000200: fd37 633f 68d0 35bf 8f6d 76bf 5552 9dbe
00000210: f47c 6ebf b204 aebf f56a 09bf 3984 f7bc
00000220: 808d fbbe e6bd 29bd a544 80bd 6348 3a3e
00000230: d7ad 693e e9fc 7ebe 6448 b0be 4c47 86be
00000240: 6729 42be d67d bebe d916 82be 38ea 803e
00000250: aeb1 653f 5690 103f d9fd 8dbd 3783 7f3e
00000260: 7892 3fbd 3778 0abf ad50 37bf 617e 38bf
00000270: 3754 193e 35a3 3c3f 7433 a13e 2a1c d53d
00000280: 0e20 e83e 8002 d63d 93be 1e3f 2a82 9d3d
00000290: 79b8 a5be 060f 9b3f 42be 76be 39e0 c2bf
000002a0: 309c 023e 4e30 9abd 5956 06be 1cf3 833f
000002b0: dc4f 543d 190c 5ebf 3ff2 e73f 9b90 9fbd
000002c0: edad f9bf 7fc7 233f 1419 d13d a771 cebe
000002d0: 47ea e33e b26f 6f3c b8ed efbe ed49 953f
000002e0: c995 9bbd 9aab babf d6e2 9c3e 900d e33d
000002f0: 54f1 36be 1b0c 1dbf facd e1bd 4170 e9be
00000300: dd94 7abe bd9f 383e a371 f33d 1f20 38be
00000310: cd7a 8dbe 6607 d73e aee8 863e 0119 623f
00000320: c26c 963d d5af 923e 6e19 543f 56fd b83e
00000330: 875a 1fbf 81a2 1ebf 35e2 16be 3ed5 853e
00000340: 2d0b 373f b7fd b3bd edca d03e 399b 443f
00000350: 9daf 113e bea4 39bf 50ae 55bf 9f74 26bf
00000360: 5c7a 5f3f c6a3 ea3f c460 9b3f b439 83bc
00000370: 09ad 63be b70d 38bd 0d47 5ebf db4d f2bf
00000380: 7c3f 69bf ec4a 113f 9c5b b33f ee06 1c3f
00000390: 34d9 fe3d b609 03be 860c 3bbe 6c4a 02bf
000003a0: d0a9 c2bf 7936 37bf 1784 5ebe 6f0a 2b3f
000003b0: 74d3 d7ba 29bd d03d d965 3d3e bf19 a53d
000003c0: a693 84bd 47f3 1bbf d388 f0bc e09e c0be
000003d0: 66e4 8dbd 4d1e 463f 2a16 fd3e ab98 833e
000003e0: 4be8 eebf ecc6 0cbe da8e 523f 72a6 c8be
000003f0: 1924 1fbf e2b0 1b3e 81a3 513f 0c47 073f
0.20763782 -0.3717498 0.3548322 -1.0448469 -1.6683909 -0.7862153 -0.7960922 -1.4724103
-0.576091 0.2622075 0.40780738 0.29179904 0.46328306 0.7217704 0.5695771 0.27343544
0.45430207 0.3993361 -0.61126465 -0.12303004 -0.80966026 0.5153623 1.2202382 0.37112504
0.32956612 0.96246845 0.21609299 0.10779712 0.40898052 0.15329887 -0.94202536 0.27075186
0.30281386 -0.8540543 9.756723e-05 0.28810096 -0.2226704 0.39160416 -0.18648054 -0.8278638
0.77393657 0.46194944 -0.8152376 0.47271842 0.4511151 -0.26456133 0.11438464 -0.4893139
-0.48232365 0.7656918 0.25695935 -0.4267296 0.67731416 0.38065627 0.022437444 -0.25435713
-0.006838593 -0.448933 -0.7312699 -0.4523932 -0.26298 -0.5482202 -0.29736558 0.22854932
0.32137662 0.24942444 0.19657671 0.33429816 0.25992927 0.18930517 0.29225466 0.23432463
-0.03224792 0.23886432 -0.051776834 0.26467848 0.63074005 0.26350018 0.12722503 0.44246498
0.095346645 -0.21349749 -1.1724234 -0.579191 0.0755109 -0.011161974 0.25534517 -0.011388826
0.6307215 0.49504292 -0.22580533 -1.1932542 -0.78869516 0.30710024 0.22536428 0.2864384
0.21405905 0.9012269 0.54616463 -0.22677542 -1.1458677 -0.793359 0.26354337 0.08182211
0.150383 0.3918051 0.89162576 0.6215338 -0.8394148 -0.7219878 -0.9825846 0.043763127
0.60828143 -0.16202837 0.6101969 1.1109787 0.3811943 0.13945061 0.4315502 0.043979563
0.41332126 1.048506 0.26041976 0.20955852 0.68407553 0.071826376 0.598111 0.21842001
0.88757306 -0.7102113 -0.96260923 -0.30726877 -0.93159413 -1.3595183 -0.5367883 -0.030214416
-0.49131393 -0.041440867 -0.06263093 0.18191676 0.22820221 -0.24901165 -0.3443023 -0.2622627
-0.18961106 -0.3720538 -0.25408056 0.25178695 0.8972424 0.5647024 -0.06933183 0.24952398
-0.046770543 -0.54089683 -0.71607476 -0.7206784 0.14973532 0.73686534 0.31484568 0.104057625
0.45336956 0.104496956 0.62009543 0.076908424 -0.32367304 1.211396 -0.24096015 -1.5224677
0.12754893 -0.07528745 -0.13118877 1.0308566 0.051833972 -0.8673721 1.8120803 -0.07791253
-1.9506203 0.6397628 0.102098614 -0.40321085 0.44514677 0.014614033 -0.46861053 1.1663185
-0.075969286 -1.4583619 0.30641812 0.11086571 -0.17865497 -0.61346596 -0.11025615 -0.45593455
-0.2447085 0.18029685 0.11886909 -0.17981003 -0.27632752 0.41997832 0.26349396 0.883194
0.07344963 0.28649774 0.828513 0.3613078 -0.6224751 -0.6196671 -0.14734729 0.26139253
0.7150143 -0.08788627 0.4077982 0.7679935 0.14227147 -0.72517 -0.83469105 -0.650217
0.8729608 1.833123 1.2138906 -0.016018726 -0.22233976 -0.044934954 -0.86827165 -1.893001
-0.91112494 0.56754947 1.4012332 0.60948074 0.12443772 -0.12796673 -0.18266496 -0.5089481
-1.5208073 -0.71567494 -0.21730076 0.66812795 -0.0016466216 0.101923294 0.18495883 0.08061551
-0.06473474 -0.60918087 -0.029362118 -0.37621212 -0.06928329 0.77389985 0.49430972 0.25702414
-1.866464 -0.13747758 0.82249224 -0.39189488 -0.62164456 0.15204194 0.8189011 0.52842784

dense1.0.bn1.weight f4 [24]
00000000: 69a5 dd3e a414 793f bdb8 1f3f 8fb0 493f
00000010: fae4 2c3f bd2f 883f 656f 053f 16d0 843f
00000020: d85e 3c3f 599a e53f 3a18 0140 1050 253f
00000030: dbde 803f 7e8d c63e 62ab 2d3f 4c9d 0c3f
00000040: f981 dc3e f202 b93e 32f3 343f 76cf e93e
00000050: 40c0 5b3f 844b 2d3f 6f1e df3e f16f 003f
0.4329026 0.9729712 0.62391263 0.7878503 0.6753689 1.0639569 0.521231 1.0376003
0.7358222 1.7937728 2.0171037 0.6457529 1.006801 0.38779825 0.67839634 0.54927516
0.4306791 0.3613506 0.70683587 0.45666093 0.85840225 0.6769335 0.43577906 0.5017081

dense1.0.bn1.bias f4 [24]
00000000: a6ec 52be 8f39 153f 5bcd c2be 53c6 e63e
00000010: c1ec 923e 7254 bc3e 61df 223f 03e2 d13e
00000020: 2613 143f 9a07 7e3f 4208 933f cf69 793d
00000030: a2ee 7b3e 6b46 7d3e 657a 7e3e 84f7 14bf
00000040: 034a 62be 8e2b 51be 3dda dfbe 9f2b 7cbe
00000050: 9f74 2cbf 9fe4 0fbf 89cd af3e 151c 38bd
-0.20598087 0.5829095 -0.380473 0.45073184 0.28696254 0.36783177 0.636221 0.40992746
0.5784172 0.9923035 1.1486895 0.060891923 0.2460275 0.24733894 0.24851377 -0.5819018
-0.22098546 -0.20426771 -0.4372119 -0.24626015 -0.6736545 -0.56208223 0.34336498 -0.044948656

dense1.0.conv1.weight f4 [12, 24, 3, 3]
00000000: 237b ca3b 1097 043e 4b43 84bc 09c5 d63c
00000010: c59c 223e 8a46 d33c 514b 86bd 5cc4 273d
00000020: e675 98bd 06d8 713e ccf9 b63e 8eb9 a83e
00000030: bf38 b73d 3629 933e 1a74 a33e 8bbd 94be
00000040: 5d7f abbd 5df1 9cbd 737c d93c 6896 ef3d
00000050: fb58 10bc 640c e93d 5f7b 393e 9241 6b3d
00000060: 6e48 de3d 1342 333e 5ae3 b73d abcc 3abc
00000070: 5a8e c73d 794b 143e 8ba3 00bd ea53 173e
00000080: ba29 453e c444 bc3d a97e 743e d66a 643e
00000090: 86ea debc 70f9 64be 7f1b 5cbe ce89 9b3e
000000a0: 8929 f93d 9f9f 463d 911e 1f3f f540 023f
000000b0: eea0 bd3e ca15 9a3e edba f73e 72d1 7b3e
000000c0: ea78 0f3e f445 b93e 77a6 123e 1831 57be
000000d0: 3d7f f03c 3ddc dabd e92d ee3d 1be0 083e
000000e0: 037d 813e 2748 633e ed79 653e 1a1d 433e
000000f0: ee89 053d cb13 2bbe 344e 0fbe 5e01 09bf
00000100: dbc7 67be 56c1 49be 6c38 373d 2ef8 d73e
00000110: b458 b83e d606 f03d 3261 053f 7c90 c53e
00000120: aabf 913d 91a7 7e3e 03b0 da3d 79de 583d
00000130: 3ddb 4d3e 317e b53d 8149 90be 44be 53be
00000140: ff56 34be 4225 063e feb7 c53d 3791 afbe
00000150: 427d 023f 9406 f73e 8c7a 0fbe d909 083e
00000160: c60f bb3d a55c 54be a94a c7bd 84a0 a73d
00000170: f214 b3bd 5801 1bbc 3653 903e 8db5 413d
00000180: 1d63 69be 601a 883e 0c45 9d3d c261 ddbe
00000190: 34f6 85be 2054 aa3c 98f1 5cbe d328 5ebc
000001a0: edca 653e 6df0 463e f81d de3e 3f9b 0a3f
000001b0: 25fd 97be 9d7b a7be db3d 54bd 7393 c4be
000001c0: 600b dabe 4228 0abe c64e 47be e1c3 6bbe
000001d0: df5e 88bb 72ae 2ebe 4a8f 7cbe bb5d c0bc
000001e0: 9cd2 8dbe 6d34 c6be 38c0 0cbe f072 dabd
000001f0: 7355 45be 0bc1 7bb7 c4c2 27be 2c8d 66be
00000200: 4f4e 8abe 444a 19be c0b7 24be 5e94 5ebe
00000210: d716 b2bd 2893 edbd ec5b 61be f0cb c0bb
00000220: 50b2 57bb db3b 8b3c 2318 ecbd ad87 d7bd
00000230: c569 8bbd 496f 10be b363 ecbd 3db2 b7bd
00000240: 5ef5 ba3c c382 adbd 9fc1 953c bf95 80bd
00000250: 7d48 62be 08f6 0fbe f11c 3c3d a71b 04be
00000260: 687a 96bd de3b b2bd e505 3fbd f074 16be
00000270: d139 e0bc 544b fcbb abcd dfbd 004d 9dbd
00000280: 889a 62bd 9184 1dbe 12ae dbbc ad51 0abe
00000290: 17cc d6bd 16c3 3bbe badd 93be 3861 85be
000002a0: cd47 54bd bbd1 06be a3cb c4bd c123 d0bd
000002b0: 5c2d 8fbd a1e3 49bc 2e07 13be 5a7b e0bd
000002c0: c78b 39bd 0b01 5fbd 4826 1bbd cffe ea3c
000002d0: d1cc 33bd 3159 58bc e69b 1cbe c794 b2bd
000002e0: 2043 03bd 3a97 acbd ab56 edbd da80 abbc
000002f0: 11b0 dabd 3cec 03be fc75 9cbd 2e43 59be
00000300: 217e 2bbd 4164 5e3c 330f 1cbe 9cd8 5dbd
00000310: cd1a 7639 f982 09be c332 f5bd 9a65 2ebe
00000320: 78d7 85be a748 0ebe b81d 4cbe e937 a2be
00000330: 0c7c 7dbe a6e3 9abe 1689 dfbe 1e90 65bd
00000340: 002a 5abd aa94 723d 56e0 f5bd 334e f9bd
00000350: a4de 303c 680c d53c 8fd8 2d3d 496e 0a3e
00000360: 9732 a0bc d642 66bd bd69 c0bc 9b4c 97bc
00000370: 8588 d3bd ce05 51bd ae51 083e 99dd ab3d
00000380: c7ee ae3d 8e39 093d 2d36 993d 9230 3f3e
00000390: e742 0fbe f630 02bd 0085 c63d 5ae2 5e3d
000003a0: 98e6 8c3b ce5b 12be 22ea 5abd 3bd7 54bd
000003b0: 8d62 7cbc db54 89bd 8b29 b7bd 61f7 44bd
000003c0: a19e 253c 1ca2 47bc de10 a43c 397f 01bf
000003d0: d819 28bf ce5f bbbe 29b7 30be 4cc6 883b
000003e0: d5f1 80bd 65a4 dd3e abd2 2d3f 0e53 2d3e
000003f0: 4b83 4bbe a754 95be 2457 1bbe 28f3 dd3c
0.00617923 0.12948251 -0.016145369 0.026217 0.15880115 0.025790472 -0.06557334 0.040958747
-0.07444362 0.23617563 0.35737455 0.32954067 0.0894637 0.2874238 0.31924516 -0.2905086
-0.08373902 -0.07663224 0.0265486 0.116986096 -0.008810277 0.113793164 0.18113469 0.05743558
0.108536586 0.17505674 0.08978911 -0.011401336 0.09743948 0.14481916 -0.031405967 0.14778104
0.19254199 0.091928035 0.23876442 0.2230638 -0.027211439 -0.22360778 -0.21494864 0.30378574
0.12166125 0.04849207 0.62156016 0.50880367 0.37036842 0.3009475 0.483848 0.24591616
0.14010969 0.36186182 0.14321314 -0.21014822 0.029357547 -0.10686538 0.116298504 0.1336674
0.2529069 0.22195493 0.22409792 0.1905407 0.032602243 -0.16706769 -0.13994676 -0.5351771
-0.22634833 -0.19702658 0.044731542 0.42181534 0.36005175 0.11720054 0.52101433 0.38586795
0.07116635 0.24868609 0.10678103 0.05294654 0.20103164 0.0886196 -0.2818108 -0.2067805
-0.17611311 0.1310015 0.09654234 -0.34290478 0.5097238 0.48247206 -0.14011592 0.13285007
0.09133868 -0.20738466 -0.09731037 0.08184913 -0.087442294 -0.00946077 0.28188485 0.04729228
-0.22791715 0.26582623 0.07679185 -0.43238646 -0.261644 0.020792067 -0.21576536 -0.013559538
0.22440691 0.19427653 0.4338224 0.54143137 -0.2968532 -0.32711497 -0.051816802 -0.38393745
-0.42586803 -0.1349192 -0.19463643 -0.2302394 -0.0041617 -0.17058733 -0.24664035 -0.023482194
-0.27699745 -0.38711873 -0.137452 -0.10666454 -0.19270878 -1.5005712e-05 -0.16382891 -0.2251479
-0.2701287 -0.14969736 -0.1608572 -0.21736285 -0.086957626 -0.116003335 -0.22007722 -0.0058836862
-0.003291268 0.016996315 -0.11528041 -0.10523925 -0.06807283 -0.14104952 -0.115424536 -0.08969543
0.022822078 -0.084722064 0.018280802 -0.06278562 -0.22097965 -0.14058697 0.04592604 -0.12901174
-0.07347566 -0.08702825 -0.04663648 -0.14693046 -0.027371319 -0.0076994095 -0.109279 -0.07680702
-0.055323154 -0.15382601 -0.026816402 -0.1350772 -0.10488146 -0.18336138 -0.288801 -0.26050735
-0.051826287 -0.13165943 -0.09609153 -0.101630695 -0.069910735 -0.012322337 -0.14358208 -0.109610274
-0.045299318 -0.054444354 -0.037878305 0.028685955 -0.0438965 -0.013204859 -0.15293846 -0.08719783
-0.032046437 -0.08427282 -0.11588796 -0.020935465 -0.10678113 -0.12883085 -0.07639691 -0.21217033
-0.041868333 0.013573707 -0.15240173 -0.054161653 0.00023470372 -0.13428868 -0.11972573 -0.17030945
-0.26140952 -0.13894902 -0.19933212 -0.3168328 -0.24754351 -0.30251807 -0.43659276 -0.056045644
-0.05326271 0.05922381 -0.12005679 -0.121731184 0.010795269 0.026006892 0.042442854 0.13518633
-0.019555373 -0.056216083 -0.02348792 -0.018469146 -0.103287734 -0.051030926 0.13312408 0.08391876
0.08541637 0.033502154 0.07481036 0.18670872 -0.13990365 -0.031784974 0.096933365 0.054415084
0.00429995 -0.14292833 -0.053445943 -0.051963072 -0.015404356 -0.06705638 -0.089434706 -0.04808748
0.010108621 -0.012184646 0.020027574 -0.5058475 -0.65664434 -0.3659653 -0.1725737 0.0041740295
-0.06296126 0.43289486 0.6789958 0.16926214 -0.19874303 -0.29166147 -0.1516996 0.027093485

dense1.1.bn1.weight f4 [36]
00000000: 00fb 183f b3a7 cc3e 1c25 8f3e 1ea5 a23e
00000010: bc9d 3a3f 6c31 c33e d521 f03e f9c3 963e
00000020: 4565 c63e c969 f53e e3b3 be3e 478a 973f
00000030: 8079 053e 4966 0d3e f540 9a3e 14e8 473e
00000040: df7d 8f3f 7dce 883f cfbf 143f 1eb9 323f
00000050: a787 213f f8ae 673f a53e a23e add7 c33e
00000060: 0973 e33e 9244 423f 3791 793f dda5 9b3f
00000070: 4396 0c3f 0298 303e 6048 763f b690 a83f
00000080: 0425 483f 9ad0 123f 754f c83e 757a 3c3f
0.59757996 0.39971694 0.27958 0.317666 0.72896934 0.38123643 0.46900812 0.2944639
0.38749138 0.4793227 0.37246618 1.1839074 0.1303463 0.1380855 0.30127683 0.19522125
1.1210288 1.0688015 0.58105177 0.69813716 0.63097614 0.90501356 0.3168842 0.38250485
0.44423702 0.7588588 0.97487205 1.2159992 0.5491678 0.17245486 0.96204185 1.3169162
0.7818148 0.5734955 0.3912312 0.73624355

dense1.1.bn1.bias f4 [36]
00000000: dc8a 353e 9929 30be 0975 3dbe a220 bebe
00000010: 6511 b13e f01c 45be d944 f13c 3855 bfbd
00000020: a046 0f3e f705 133d 7976 753d 6bdc 07be
00000030: ba82 09bc e86f 41be 7c2a 4abe 34ae 2fbe
00000040: 5b53 4cbe 3d0a a13e 602c 76be c1b7 bbbe
00000050: 7828 e4be 31b3 ffbe 50b6 a03d 9ff4 5cbe
00000060: df8a 91be 9dcd 543f 4955 ce3e 2e04 a43d
00000070: be8b 84be d7fc 30be c981 f5bd 10eb 223f
00000080: 2eed dbbc 4e54 2dbe 43f4 e1bd 364b 4e3e
0.17728752 -0.17203368 -0.18501677 -0.37134272 0.34583583 -0.1924932 0.029451774 -0.09342426
0.13991785 0.03589436 0.059927437 -0.13267677 -0.008392984 -0.18890345 -0.19742769 -0.17156297
-0.19953673 0.31453124 -0.24040365 -0.3666363 -0.44562125 -0.499414 0.07847273 -0.2157769
-0.28426263 0.8312624 0.40299442 0.0800861 -0.25887865 -0.17283951 -0.11987645 0.63639927
-0.026846495 -0.16926691 -0.11032917 0.20145878

dense1.1.conv1.weight f4 [12, 36, 3, 3]
00000000: e12d eabd c06e 283e 248d de3e 370c 90be
00000010: 1f92 d3bb 02a9 993e 365e aebe 2f0e 4abe
00000020: d225 b73d 8e5f c7bc 9cca c0bc acef 4bbe
00000030: bac4 a1bd 5025 48bc 4339 0ebe c817 07bd
00000040: 1313 05bd 6b7e 56bc 4c43 8bbd 0126 2c3d
00000050: 0696 123e c82d acbd 3bc0 2e3d 263a 013e
00000060: 4d9c 70bd d983 e93c 67e6 e93d 3f57 73bd
00000070: 214d 88bb 04e2 863d f986 1b3d ec60 84bc
00000080: 788b 993d 378d ef3d e57a 1c3d 56ac fa3d
00000090: cc0c 13be eb60 e33e 8f86 713e bbc4 4bbe
000000a0: 2911 913e 0133 b03d fe47 3dbe 4165 54bd
000000b0: 1234 40be 4fb8 febc e82d 1dbc 7703 e43b
000000c0: 8e0e 01bd 4895 1abd 1147 e2ba 7a3f 9ebb
000000d0: 8d76 d4bc 8052 023d 811d 19be 0afe 42be
000000e0: 31e7 d9be d771 2bbe 1817 91bd e472 09be
000000f0: 6de8 c93c 6747 043e 8250 c0be 2e98 203d
00000100: be66 803d c74b 40bc 4e27 8ebc 10fb 273d
00000110: 2ecd 4ebd 1ac6 d6bc 8299 c6bb 1e89 b9bc
00000120: 67b5 de3c d353 24be 5c6c 563d 8860 3ebe
00000130: d7f6 783c 560a ba3d a07d 81bd e501 fc3d
00000140: 0773 90ba a25a e9bd a378 233c 94dd d7bd
00000150: 28af 1cbe 126c b2bc dca3 b6bd 1352 3fbd
00000160: 6f2a 55bd 3051 66be 45dd 6fbe 7e9b 003e
00000170: 3b69 bfbc 23f4 4fbe 575d 8e3d 764d febd
00000180: 89a3 bcba 243e 20be 507c 843c 935d febb
00000190: 1d48 9e3d c7d0 413e 2a07 e0bd 7a4a 22bd
000001a0: 1d77 053e 61ae aebc 251c a6bd 5070 8f3d
000001b0: 63fc 23bd 7221 6a39 36ca 56bd ba87 3fbd
000001c0: 3021 cc3c eebe e4bc d267 2ebc e0d3 b23a
000001d0: 1b6a 74bc e231 4abb 5c62 1e3d 4e02 f7ba
000001e0: 941d 10bc f088 363d 872c d7bb 874f 9dbc
000001f0: 444e 99bb 7269 cebc 1cd5 7bbd c32d 06bc
00000200: 41bc 283d 8849 263d 9a73 c4bb 3149 0b3d
00000210: 72a9 043e 68dd af3c bea1 ad3d 29f6 6b3d
00000220: 5640 dd3c 66c1 963a 0cc6 263d ff7b 633c
00000230: 2786 78bb f771 e33c ba98 863c edeb 003d
00000240: b89a 39be e9c6 2abd 71c7 53be 43d3 e4bd
00000250: 0ba8 643e 9058 293d 7005 babc 89eb 2a3e
00000260: 9119 f7bc b092 6a3d ba1f ba3e 1794 a03e
00000270: 01a7 31be 6bac 273e f214 443e bb00 bfbe
00000280: c819 3ebe 42c5 36be 1415 0e3e 3e7b 0e3e
00000290: 5be6 0d3d 71e3 223c fad0 cf3d 51b3 933d
000002a0: cbb5 b4bd 89df de3c 4a3a c13d 894b 09be
000002b0: 6a95 6f3d d46b 2d3e 1589 e3bc 24b2 f33d
000002c0: 398f 2e3e 472f b43c 22ff d33d c992 c13d
000002d0: fd85 04be c327 a2be c439 39be 3302 f0bd
000002e0: 864d 8abe 0ad8 bebd 49ce bcbc f400 62be
000002f0: 4e66 083e 7be6 e7bd 6dbd ee3d a336 693e
00000300: 520e febd 5f29 da3d bd67 823e caf2 90bd
00000310: 7565 cc3d a7c4 6a3e 208c 323c 6f0a 6d3d
00000320: 0f8d f03b 2754 4c3d eab7 713d 00c3 e23b
00000330: c2f3 393d 5cee 713d faa8 953c cdc1 cabd
00000340: d094 d83c 1879 833d 6c49 87bc 9333 bb3d
00000350: 27a8 e53d 506f 3b3c dc53 943d d617 5d3d
00000360: 0c20 e23d 4ca2 b23c 03c5 cb3d 988f 5bbc
00000370: 58dc 6dbd 5903 173e ab27 843c 1440 11bd
00000380: b096 d83c 147d 603d 44da 033e 1e58 86be
00000390: f2d4 d23e 853a b4be 526e f9bd 521f 35bd
000003a0: da5a e53d 2776 b73e 0f94 373d 5ee9 b3be
000003b0: f977 443d 3c94 f5be fc3c 373e 6ca0 d03e
000003c0: 5627 3f3c bbe2 b93e 2cb1 37bd bf64 8cbe
000003d0: a357 a8be 2b6d 613d 971d 81bf 427b 883f
000003e0: c92b ad3e a727 e33e 942e 81be a06c babe
000003f0: d8eb ec3c 7c85 613d bc40 c83d 7b6f 853d
-0.11434532 0.16448498 0.43467057 -0.2813432 -0.006456628 0.30011755 -0.34056252 -0.19731973
0.089427605 -0.024337556 -0.023534112 -0.19915646 -0.07898851 -0.012215927 -0.13889031 -0.032981664
-0.032488894 -0.013091664 -0.06799945 0.04202843 0.14315042 -0.084071696 0.042663794 0.12619838
-0.05874281 0.028505253 0.11420899 -0.059409376 -0.004159585 0.06586078 0.037970517 -0.016159497
0.07497305 0.116968565 0.03820314 0.12239902 -0.1436035 0.4440988 0.23586486 -0.19899265
0.28333405 0.08603478 -0.18484494 -0.051854376 -0.18769863 -0.031093745 -0.009593464 0.006958421
-0.03150802 -0.037740022 -0.0017263611 -0.0048293443 -0.025935436 0.03181696 -0.14952661 -0.1904222
-0.42559198 -0.16742645 -0.07084483 -0.13422734 0.024646962 0.12917863 -0.37561423 0.03920763
0.062695965 -0.011736817 -0.017352726 0.041010916 -0.050488643 -0.026217509 -0.00606078 -0.02264839
0.027186109 -0.16047601 0.052349433 -0.18591511 0.01519557 0.09084003 -0.06322789 0.12305049
-0.0011020609 -0.1139424 0.0099774925 -0.105403095 -0.15301192 -0.021780048 -0.089179724 -0.04670913
-0.05204242 -0.22491908 -0.23424251 0.12559316 -0.023365607 -0.20307975 0.06951397 -0.12417118
-0.0014391999 -0.15648705 0.016172558 -0.0077626198 0.07728598 0.18927298 -0.109388664 -0.039621808
0.1303372 -0.021323385 -0.08110837 0.07003844 -0.040035617 0.00022328438 -0.052438937 -0.0467603
0.024918169 -0.027923074 -0.01064487 0.0013643466 -0.014917876 -0.0030852486 0.03866802 -0.0018845291
-0.0087961145 0.044564188 -0.0065665874 -0.01920296 -0.0046785194 -0.025196765 -0.061482534 -0.008189621
0.041195158 0.04059747 -0.005995226 0.034005348 0.12955263 0.02146788 0.084781155 0.057607803
0.027008217 0.0011501729 0.040716216 0.013884543 -0.0037921758 0.027764304 0.016430248 0.031474996
-0.18125427 -0.0416936 -0.2068155 -0.111731075 0.22329728 0.041344225 -0.02270767 0.16691412
-0.030163558 0.0572688 0.3635233 0.31362984 -0.17348863 0.16374366 0.19148615 -0.37305245
-0.18564522 -0.17848685 0.13875228 0.139142 0.034643512 0.009941922 0.10147281 0.07211936
-0.08823737 0.0272062 0.09434946 -0.1340772 0.0584921 0.16935664 -0.027775327 0.11899212
0.17046823 0.0219952 0.10351397 0.09451825 -0.12941737 -0.3167096 -0.18088442 -0.117191695
-0.2701227 -0.0931855 -0.023047583 -0.22070676 0.13320276 -0.113232575 0.11657224 0.22774749
-0.12405075 0.10652422 0.2546977 -0.07077558 0.09980289 0.2292658 0.010897666 0.05787128
0.0073410342 0.04988494 0.059013285 0.0069202185 0.04539848 0.059065208 0.01826905 -0.09900246
0.026438147 0.06419581 -0.016514502 0.091406964 0.11213713 0.011440113 0.072425574 0.05397781
0.11041269 0.021805905 0.099496864 -0.013400935 -0.058071464 0.14747371 0.016132196 -0.0354615
0.02643904 0.054806784 0.1287623 -0.26239103 0.4117809 -0.35200897 -0.12179245 -0.044219323
0.11198969 0.3583233 0.044818934 -0.35138983 0.047965977 -0.47964656 0.17894357 0.40747392
0.011667093 0.36305794 -0.0448467 -0.27420613 -0.32879362 0.05503575 -1.0087155 1.0662615
0.33822468 0.4436619 -0.2523085 -0.36411 0.028921053 0.05505894 0.09777972 0.06515404

dense1.2.bn1.weight f4 [48]
00000000: 40e6 d83e 66a5 343e 33ca d13e 6802 fe3e
00000010: 1069 633f e4ae 1c3e 1a61 d23e ddfa ad3e
00000020: cf31 823e cbac ab3e 86b8 693e c605 203f
00000030: 1c35 c43d 38f7 b53e ef91 f13d 1640 e93e
00000040: 351d af3e b929 0d3f 4b4f 153f d231 863e
00000050: 977d 333f bb99 943d 6668 a83e 75b0 473e
00000060: fd14 363f 36b9 e43e c3a5 833e f040 853f
00000070: c11d 483d c13e 2d3e 7b0b 263f de65 6e3f
00000080: de28 a13e 7bbe 633e 0786 9b3e efdd 2b3f
00000090: 3c30 be3f b96f 813f 7cad 9d3e 5a6a 283f
000000a0: cc24 5b3f 3bef e63e c387 bc3e 9c3c 843f
000000b0: a0d1 aa3f 1953 f03e 5284 4f3e 79b8 2c3f
0.42363167 0.1764122 0.40974578 0.4961121 0.8883219 0.1530109 0.41089708 0.33980456
0.25428626 0.33530268 0.22824296 0.6250881 0.09580442 0.35540175 0.11795413 0.45556706
0.3420197 0.5514179 0.58324116 0.26209885 0.7011351 0.07255884 0.3289215 0.19500907
0.71125776 0.44672555 0.25712404 1.0410442 0.0488565 0.1691847 0.6486127 0.93124187
0.31476492 0.22240631 0.30375692 0.6713552 1.485847 1.011222 0.3079642 0.6578728
0.8560302 0.45104393 0.36822328 1.0330997 1.3345222 0.46938398 0.2026532 0.6746898

dense1.2.bn1.bias f4 [48]
00000000: aa8e 10bd 38e7 4bbd 5651 abbe edcb cebe
00000010: f73d 953e 40d6 24bd f331 173e 1cdb 3ebe
00000020: 75e9 f03c e6e1 823d 09e3 c7bc b4fb bd3e
00000030: da35 82bd 3a6f aebd 8874 023d 5cf5 0ebf
00000040: a11f 8a3e bfd4 dfbe 9419 72be 3923 6fbe
00000050: e6c0 d43e 017e 76bd d7e4 e6bd 707e 33be
00000060: ee2c 08bf cb5f b83e 06bc 513d a47c b13d
00000070: c963 8bbd f948 fdbd b535 983d de84 bc3e
00000080: b2d1 8dbd f79e a33d 8b3b 3dbe ebd3 4abe
00000090: 6d7a 123f 3451 75bc 5fcd 82be 7bb1 1fbe
000000a0: 6be4 04bf 1de2 a2be b60e bdbd db24 a3be
000000b0: 1368 b63e 0570 10bd e996 32bd 1cdd c23e
-0.035292305 -0.049781054 -0.33460492 -0.40389958 0.29148838 -0.040243387 0.14765148 -0.18638271
0.029408196 0.06390743 -0.024400251 0.37106097 -0.063579276 -0.085173085 0.031849414 -0.5584314
0.26977256 -0.43717 -0.2364257 -0.2335328 0.4155342 -0.06017876 -0.112741165 -0.17528701
-0.5319356 0.36010584 0.051204704 0.086663514 -0.06806142 -0.12367434 0.07432119 0.3682012
-0.06924762 0.079893045 -0.18479745 -0.19807403 0.57218057 -0.014972974 -0.2554731 -0.15595047
-0.5191104 -0.31813136 -0.092313215 -0.31864056 0.35626277 -0.03526308 -0.04360095 0.38059318

dense1.2.conv1.weight f4 [12, 48, 3, 3]
00000000: fd8d c83d e68f 7abd ce42 d7bd 2193 b33d
00000010: 459b 99bd 5cba f3bd 58fc bf3d c8e0 60bd
00000020: 85f7 5cbd 1e94 5a3b 2582 e23c fe7c 9b3c
00000030: e54a 213c f3f4 f53c 6b69 fe3c 1797 a03c
00000040: a2fd 843c 0de0 bc3b 06ca b63c 0429 70bc
00000050: 167a d3bc 1b34 6a3c e48f 2cbd 4261 51bd
00000060: 2d97 483c f16d febc 8422 5fbd cde2 9abd
00000070: 4c8a bdbd 8a70 cdbd 1eba 763d b29f 493d
00000080: a1b9 383c df0e 003d a01e 753d b4c3 603d
00000090: 2c10 feba f12e eb3d 9df7 083e d25b b23a
000000a0: d3fe 093e 4066 1a3e c42f 09bd 596b 8a3d
000000b0: 5a7c 863d b3f8 20bc 88cd 0bbd 7181 26bd
000000c0: e6fe b63a eb66 7ebc d700 02bd 31c3 9d39
000000d0: 0873 d7bc f72d 51bc 029e b73d 0827 4ebe
000000e0: f6b5 093c d7cc 903e cecf 8f3d 3af3 c73e
000000f0: b5e1 533e b3bb 443d 6058 ac3e 1904 8dbc
00000100: 78a9 62bc dd10 893b 4683 873b 7b8a c6bc
00000110: a315 a5bc e96b 95bb 9c97 b9bc 8ca5 36bd
00000120: f27d c3bd 0d4e 683c 72da 423e 9d48 533b
00000130: aa2e ab3d dc32 193e 334c 193e 362d f13d
00000140: b226 893d 06c0 5f3d f057 a13b 641b 783d
00000150: f8fd 013e f3aa c33d 5991 093e 5ee7 b23d
00000160: ea63 0c3d 5406 e83c 968b 193d 5680 913c
00000170: c721 ab3b 8852 b03c 3651 dcbc 0cfa 4ebd
00000180: 5413 b23c 4d26 5dbc 3a5a 10bd 21f3 b63d
00000190: 5296 e43c 3456 b93d 01b1 983d 82bc e9bb
000001a0: 76b9 3f3d e8b3 813d 558a 16bd 168b ffbc
000001b0: 0e7e 013c fccc c23b df2b cf3b cf0e 35bb
000001c0: 8ac1 21bb 9681 9f3a 1a90 52bc 33fc 43bc
000001d0: 7c79 a0bb 75c8 cabb 3229 883d e60b fd3d
000001e0: 5bfb fabc 6fa9 0b3d 5f42 c03d 2a96 94bd
000001f0: d54c abbc d6fe 223d 7485 e1bb e203 95bb
00000200: dbf3 8bbc 5190 cc3c 3047 da3c 18e3 d73c
00000210: 6884 f03a 03c4 f73c 8dd2 d63c 5865 2939
00000220: 23ed f33c e89c d03d c7fe 9ebc 4fae 853b
00000230: 489a ec3d d639 c2bc 3eeb ec3c 37e4 eb3d
00000240: fec9 273c 6302 d03d dccf 533e 0dca d6bc
00000250: 2c9d c13d 9c68 593e 6906 8abd c984 863d
00000260: df52 373e 47ff 033e 29dd 4d3c 20be f1bd
00000270: f8af c53d 9087 f3bb 52e2 f3bd 49fd 0e3d
00000280: b2b5 4fbd 4211 dcbd 6c08 c6bd 0a51 ae3d
00000290: f3ba 903e 5b52 00be 8190 743d 8995 893e
000002a0: 37cc ccbd 0c43 7a3d 131c 5a3e aa3d 343d
000002b0: e453 293d 9a9e d43c aaa7 323d 8ae1 473d
000002c0: cedf 8b3c 1898 913c 0eb8 5a3c 3a74 da3b
000002d0: d10e dcbe a5ea 89be c54e b8be 6fd5 28bf
000002e0: f19c 02bf 33b6 2abf 3421 e7be 3688 b0be
000002f0: b2e3 f5be 1dce dabb a30e afbb 89cc 213a
00000300: 195c 71bb 5fb2 0dbc 0f0f 41bc 61ec b0bb
00000310: 948c 44bb 3105 9dbc 8668 f53c b697 583d
00000320: a44a 933d cc4a 2b3b 1d1d 613d 5594 bf3d
00000330: e591 c638 b4fc d53c c787 cf3d 7ed1 503c
00000340: cdfa b43c 1fac 213c 15ee 883c 9a0e c13b
00000350: eb01 773a 0316 863c f4b0 4b3c 09eb cfbb
00000360: 804f 333e bf47 213c 1dfa 49bd 32bd 493e
00000370: 673e 2e3b 59a7 b1bd 51b0 1f3e 0bb0 40bd
00000380: 8154 0dbe 38a6 dbbc c681 f03b b68c 8a3d
00000390: 8520 f4bd 618b 58bb 6d8d 713e 492e 78bd
000003a0: 88ee df3c 2903 8b3e 5a8f 46bc 29af 26bb
000003b0: 3cb9 a83d 8c27 f93d 561e 883d d18c 2b3c
000003c0: 979d 143e 552e 813d 184d ed3a 232e b23d
000003d0: 6469 1abd 79de ddbd 5a03 183f 22f2 bc3e
000003e0: 8ad5 c73d 0f8a 483e 4d85 0f3e 8efd 8dbd
000003f0: 4c87 d03b 8bfc 1a3b aa87 1a3c 3ae9 2abc
0.09792707 -0.06117239 -0.10510789 0.08768297 -0.075003184 -0.119007796 0.093743026 -0.054901868
-0.05394699 0.0033352445 0.027649948 0.0189805 0.009844516 0.030024027 0.031056127 0.019603295
0.016234223 0.0057640136 0.02231313 -0.014658216 -0.025815051 0.0142946495 -0.042129412 -0.051118143
0.012243074 -0.031058284 -0.054476276 -0.0756279 -0.09254894 -0.10031231 0.06023609 0.049224563
0.011274726 0.031264182 0.05984366 0.054874137 -0.0019383482 0.11483563 0.13375707 0.0013607687
0.13476114 0.15078068 -0.03349282 0.06758756 0.06566687 -0.0098249195 -0.034131557 -0.04065079
0.0013961464 -0.015527467 -0.031739082 0.00030090802 -0.026299968 -0.0127673065 0.089656845 -0.20132077
0.008405199 0.2828128 0.070220575 0.39052755 0.20691569 0.048030566 0.33661175 -0.017213868
-0.01383435 0.0041829185 0.004135522 -0.024235955 -0.020151919 -0.004559983 -0.0226553 -0.04459147
-0.095455065 0.014178765 0.19028643 0.0032239326 0.0835851 0.14960808 0.14970474 0.117762014
0.06696834 0.054626487 0.004923813 0.060572997 0.12694538 0.0955409 0.13434352 0.08735536
0.034274973 0.02832333 0.037486635 0.01776139 0.0052225324 0.021523729 -0.026894193 -0.050531432
0.021737732 -0.013497901 -0.035242297 0.08933092 0.02790371 0.09049645 0.07455636 -0.0071330676
0.04680773 0.063331425 -0.036753017 -0.031194251 0.007903589 0.005944846 0.0063223685 -0.0027627235
-0.0024682009 0.0012169357 -0.012851739 -0.011961984 -0.0048972946 -0.006188447 0.066484824 0.12355785
-0.030637434 0.03409713 0.09387659 -0.07255204 -0.02091066 0.03979381 -0.006882364 -0.004547582
-0.017084053 0.02497116 0.026645273 0.026353404 0.0018350007 0.030244833 0.026223445 0.0001615485
0.029776162 0.101861775 -0.019408597 0.004079617 0.11552864 -0.023709219 0.028920766 0.11518138
0.01024103 0.10156705 0.20684761 -0.026219392 0.09453806 0.21231312 -0.06739504 0.065682955
0.17902707 0.1289035 0.012564936 -0.118038416 0.09652704 -0.007431932 -0.119084015 0.03490952
-0.050710388 -0.10745479 -0.09669575 0.08511551 0.2826763 -0.12531416 0.059708122 0.268719
-0.099998884 0.061099097 0.21299772 0.04400412 0.04133977 0.025954533 0.04361693 0.048799075
0.017074492 0.01777272 0.013349546 0.0066666873 -0.42980054 -0.26936832 -0.35997596 -0.65950674
-0.51020724 -0.66684264 -0.4514252 -0.3447892 -0.4802528 -0.0066774026 -0.005342321 0.0006172141
-0.0036828576 -0.008648484 -0.011783375 -0.0053992723 -0.0029991018 -0.019167515 0.029957067 0.052879058
0.07191971 0.0026137112 0.054959405 0.09354464 9.468551e-05 0.026121475 0.10133319 0.012745259
0.022092247 0.009867697 0.016715089 0.005891633 0.0009422588 0.016367918 0.012432326 -0.006345157
0.17510796 0.009843766 -0.049310792 0.19701079 0.0026587488 -0.08674497 0.15594603 -0.047042888
-0.13801767 -0.026812658 0.007339689 0.0676512 -0.11920265 -0.003304206 0.23589106 -0.060591016
0.02733542 0.27150849 -0.012119139 -0.0025433993 0.08238456 0.12165746 0.06646411 0.010470585
0.14513241 0.06307665 0.0018104641 0.08700206 -0.037698165 -0.10833449 0.59380114 0.36903483
0.09757526 0.19583915 0.14015694 -0.06933127 0.006363785 0.0023649062 0.009431759 -0.010431582

dense1.3.bn1.weight f4 [60]
00000000: ba26 983e 3bce 7a3e 6cbd 513e 5a71 fe3e
00000010: 255f 103f a465 543e 03c9 963f 7481 aa3e
00000020: d1ac f53e cdef 8a3e 1a03 dc3d 602e 653e
00000030: 45f9 383e 7402 123e 31c3 303f 6759 253e
00000040: 593d 823e 9918 ea3d 4520 723e 4829 2c3e
00000050: cec0 9d3f 7f6c 643e 9462 113e 0930 d73d
00000060: df7e 513e e57b 3c3f 7cf7 d13e fab4 393f
00000070: db7f 6c3e d15b a63e 3f52 373f 7d9f 823f
00000080: d997 cf3e 4cba e73e 0377 003e e6e4 393f
00000090: 6e36 6d3f 8209 763f a0d2 0f3e d5f6 833f
000000a0: be1c 103f da26 353e cffb 173e 12f3 0f3f
000000b0: 6753 f03e 193d d93e e679 9a3f 70cd c43e
000000c0: c273 753f 1153 b53e 7c36 213e bcce 043f
000000d0: 8f09 973e 77d0 133e 248b d03f 9d1e 3d3f
000000e0: c460 9f3f 02c5 523e 1b62 463d 88dc da3e
0.29717046 0.24492733 0.20482415 0.49695855 0.5639518 0.20741898 1.1780094 0.3330189
0.4798341 0.27136078 0.10742779 0.22380972 0.18063839 0.14258748 0.6904784 0.16147386
0.2543743 0.11430473 0.23645122 0.16812623 1.2324464 0.22307013 0.14197761 0.10507209
0.20458554 0.7362655 0.41009128 0.72541773 0.23095648 0.32491925 0.7160987 1.0204922
0.40545538 0.4525932 0.125454 0.72614896 0.9266118 0.9610826 0.14045191 1.0309702
0.5629386 0.17690602 0.14842151 0.5623027 0.4693863 0.42429426 1.206845 0.38437986
0.9587976 0.35414937 0.1574344 0.5187795 0.2949948 0.14434992 1.6292462 0.7387484
1.2451406 0.20582965 0.048433404 0.42746377

dense1.3.bn1.bias f4 [60]
00000000: 07f5 c4bd cd34 69bc cb5f edbd 268c 2f3e
00000010: 5723 2f3d 6613 0c3d cd95 64bd 1553 5a3d
00000020: f96c ffbd a537 b2bc b144 d2bc f1f3 33bd
00000030: 8ee6 34bd 94be 42bd 6847 0e3e e894 46be
00000040: c010 45be 6976 cabd 9d5f dfbc 3423 95bd
00000050: 330d 77bd 2976 453d a2c9 91bd 3ff0 46bd
00000060: 84f7 24be e580 48be 92f7 a9be 14e6 8cbe
00000070: 2832 35be 238f 82be d552 2cbe 2000 0cbf
00000080: b424 72be aa6f 923d c33b dabd 2e2e 3abe
00000090: 8c5c 8cbe c972 c83e 2dc4 3abe ef37 57be
000000a0: 5bb9 b9be 9291 33be ba8b 8cbd 4ba0 d53c
000000b0: cc92 1fbe e0eb f13c a799 5a3e 4737 f5bd
000000c0: 45b4 0e3d b351 b33d 8c0b cdbb 1de5 5ebd
000000d0: c459 033e 3909 60bd ebc7 bfbc a54e c33d
000000e0: f1a6 ac3d a427 bcb9 abeb d7bb 1547 b53d
-0.09617048 -0.01423378 -0.11590537 0.17143306 0.042758312 0.034198187 -0.055806924 0.05330189
-0.12471957 -0.021755049 -0.02566752 -0.043933813 -0.044165187 -0.04754503 0.13894427 -0.1939274
-0.19244671 -0.09885866 -0.027267272 -0.07282105 -0.060315322 0.04820839 -0.071185365 -0.04856896
-0.16110045 -0.1958042 -0.33196694 -0.27519286 -0.17694914 -0.2549983 -0.16828473 -0.5468769
-0.23646814 0.071502045 -0.1065593 -0.18181679 -0.27414358 0.39150074 -0.18238898 -0.2101743
-0.36274227 -0.17536 -0.06862588 0.02607741 -0.15583342 0.02953142 0.21347676 -0.11973434
0.034839887 0.08755817 -0.00625748 -0.05441772 0.12827212 -0.054696295 -0.023410758 0.09536485
0.08430279 -0.0003588769 -0.006589373 0.088514484

dense1.3.conv1.weight f4 [12, 60, 3, 3]
00000000: f1a4 593d 3947 2bbc 27a3 673c da86 363d
00000010: 879f 25bd 3e7c 44bd 1b47 3d3d 2623 90bc
00000020: 25d5 02bc c172 c73b 11cb 1abb 7df0 8bbc
00000030: d956 3bbc 0d94 a3bc 8fad 5cbc 0048 8bbc
00000040: 8122 26bc f9a2 77bb da26 223c 86b6 943c
00000050: 6362 ab3c bd29 36ba baf8 22bc c930 d5ba
00000060: 2a4f 083c 20ed 5dbc 77f6 433a e604 c23c
00000070: a1af ce3b 9717 293d e2a5 ba3d a94c 4b3d
00000080: aab5 e13d d67f 99bb ae6f 14bd 5251 4a3d
00000090: 493a 423e e687 203e 86d0 fc3c 1cfe 193e
000000a0: e5e3 ed3d 1291 1fbc 06fc a63d 9237 643d
000000b0: 8067 46bd 9ce5 5bbc c0d6 f5bb eaf0 29bb
000000c0: 8bda 28bc 2a77 c0bb 6644 80bc eb98 d1bb
000000d0: ced2 adbb 804a 6e3b c0d9 e5bd 5cf5 30be
000000e0: ad58 063e 63df 1dbd 8d3d e3bd d8c5 003e
000000f0: ea5a 4c3c 517f 05be a074 b73c 14f8 b13d
00000100: 596d 5e3d 6c05 433d 531f dd3c 15aa 1d3c
00000110: 787e a03c f927 12bc 8f15 90bc ed50 00bc
00000120: 10b2 b83d 88fa 003e 3dc7 523e d70a 0a3d
00000130: 2ad7 6b3d 5580 cb3d b859 72bc 3cc4 593c
00000140: 15d8 223d 3b1b 7c3b 843b a7bc fda5 87bc
00000150: 4e97 983c 986a a2bc 55c2 2cbd f18a 86bb
00000160: c670 d8bc 76fe c5bc 943b b83c 1f09 c7b9
00000170: dc87 213c d39e 1cbc 2f38 dcbc 1581 30bb
00000180: 59c5 3abc b877 e8bc 312a b3bc cf95 26bc
00000190: 95f3 04bc 1705 023c 9b49 8dbc c3e1 d4bc
000001a0: 6055 97bc a292 acbb 187a 16bd b0a6 1aba
000001b0: 5da2 483c ca51 be3b 0b7c aeba 89a1 d73b
000001c0: 4cec f4bb 52b1 703b a803 d33b 0ae5 fd3a
000001d0: 9462 0aba a5cd 013d 2d72 143d 1e84 0e3d
000001e0: 248f 063d 6ef4 c03c 4f62 a13c 9a37 bb3c
000001f0: 4e9a 193c f055 f7ba b806 89bd 0bab 4dbd
00000200: cc97 323d e777 e83c 1330 513c 418c ed3d
00000210: e97a 3dbd a6a4 56bd fdd4 763c 7523 00ba
00000220: 8ca6 413c 8eae 2d3d 0680 96bb f2cd a23b
00000230: e991 2f3d bcaf bebc 5eba 36bc 86f4 1d3d
00000240: da81 f73c bddb 0e3d 1400 623d a2dc 083d
00000250: cecb d53c 035d 5d3d 1c82 683d 77c3 303d
00000260: 5faf 083d 365e 053d d4f9 ab3c 77a3 ccba
00000270: 36d5 083d 36aa 1c3d b9bb 08bc dee9 c03c
00000280: cbb8 413c 13f4 a7ba 8dee 973d 83e3 993d
00000290: 2e48 a03d 49ce 913d 9e84 7b3d e320 5a3d
000002a0: 2c61 463d 1d53 123d a261 f13c 9ce1 f73c
000002b0: d0e3 a63c 4118 263d e5f5 083d 8f02 073d
000002c0: 1651 da3c b55f f43c 6512 c33c c404 ef3c
000002d0: 3ecc 2c3e 1ee3 11be 8241 9bbe 9849 8c3d
000002e0: 477d 2abe 1d6e 74be ff8d 44bd 0395 43be
000002f0: 6567 4bbe df02 d73c 4de6 cf3c 7c91 953d
00000300: 8f7e 92bc ec59 3abc ed14 2d3d 459f ba3a
00000310: 56f0 b3bb 0768 4d3d 734c 753c a066 5d3c
00000320: f396 213b 0ff0 443c 1afb c03b 2d8b f3ba
00000330: 40c9 50bc d495 8f3b b559 333c 1818 473b
00000340: 64e1 873c 842c a33c f718 b2bb b07b 803b
00000350: 8641 cc3c 3e26 633c b1a8 7f3c a91d 833c
00000360: cb5d 7a3c 3e33 23bc 65f2 4b3d 4afa a4b9
00000370: 679c ebbb a3b3 ec3c aa3d 43bc eedc 0fbc
00000380: 8417 193d ffe8 f0bc 03d1 11be 04c2 83bd
00000390: 161a 47bd 430f 87bd 8448 003d e227 80bd
000003a0: 2012 53bd 2d28 0e3c 0b9e d1bb d689 8abb
000003b0: 72f6 113c a90a 0cbd 7e06 56bd 6b92 febc
000003c0: 8c46 0ebd e4cf 1cbd 17f4 3ebc 146d ca3d
000003d0: 5022 e4bb f018 debd 8e63 cf3d de04 ccbc
000003e0: 3372 02be c54b db3d 61a8 a1bd 01e0 28be
000003f0: abeb 8d39 15c9 ce3b e111 f73c be8d fcbb
0.053135816 -0.0104539925 0.01413802 0.0445622 -0.04043534 -0.04797005 0.04621039 -0.017594885
-0.007985388 0.006086678 -0.0023619572 -0.017082447 -0.01143428 -0.019968057 -0.013469114 -0.017002106
-0.010140062 -0.0037786348 0.009896958 0.01815344 0.020920938 -0.00069489685 -0.009946996 -0.001626515
0.008319655 -0.013545305 0.0007475386 0.023683976 0.0063075577 0.041282263 0.09113671 0.049633656
0.11020978 -0.0046844287 -0.03623932 0.04939396 0.18967547 0.15676841 0.03086115 0.15038341
0.11615733 -0.009739177 0.081535384 0.05571706 -0.04843855 -0.013421442 -0.007502407 -0.002593095
-0.010306011 -0.0058735805 -0.015657615 -0.006396403 -0.005304671 0.0036360323 -0.11223173 -0.17281097
0.13119765 -0.038543116 -0.11095724 0.12575471 0.0124728475 -0.13036849 0.022394478 0.08689895
0.0543035 0.047612593 0.026992476 0.00962307 0.019591555 -0.008920663 -0.017588405 -0.007831794
0.09018338 0.1259557 0.20583816 0.033701744 0.057578243 0.09936587 -0.014791898 0.013291415
0.039756853 0.003846838 -0.020414121 -0.016558642 0.018626835 -0.019826218 -0.042177517 -0.0041059186
-0.026420962 -0.024169188 0.022489347 -0.00037963034 0.009859052 -0.009559351 -0.02688226 -0.0026932408
-0.01139959 -0.028377399 -0.021870704 -0.010167553 -0.008114715 0.007935784 -0.017247012 -0.025986558
-0.018473327 -0.0052665034 -0.03673753 -0.0005899472 0.012245742 0.00580809 -0.0013312114 0.006580536
-0.007474458 0.0036726785 0.006439645 0.0019370627 -0.00052789715 0.03169026 0.0362417 0.034793966
0.032851353 0.023554053 0.019700198 0.022853661 0.009375168 -0.0018870216 -0.066907346 -0.050211947
0.043601796 0.028377486 0.012767809 0.11599017 -0.046259794 -0.052403115 0.015065429 -0.0004888096
0.011819493 0.042402796 -0.0045928983 0.0049683983 0.04286376 -0.023277156 -0.011152832 0.038563274
0.030213285 0.034877528 0.055175856 0.033413537 0.026098158 0.05404378 0.056764707 0.04315516
0.033370372 0.03256055 0.02099315 -0.0015612681 0.03340646 0.038248263 -0.008345538 0.023549017
0.011823843 -0.0012813829 0.07418547 0.075140975 0.07826267 0.07119424 0.06140577 0.05325402
0.048432514 0.035723794 0.0294655 0.030258946 0.020372301 0.040550474 0.03343763 0.032961424
0.026649993 0.029830793 0.023812482 0.029177077 0.16874787 -0.14246795 -0.30323416 0.068499744
-0.16649352 -0.2387013 -0.04798698 -0.19099812 -0.1986366 0.026246486 0.02537837 0.073031396
-0.017882613 -0.011373978 0.042256285 0.001423814 -0.0054912968 0.050148036 0.01497184 0.013513237
0.0024656623 0.012020125 0.0058893086 -0.0018580906 -0.012743294 0.0043818746 0.010946681 0.0030379351
0.016586967 0.019918688 -0.005435105 0.0039209947 0.024933588 0.013864098 0.015604184 0.016005354
0.015281151 -0.009960948 0.049791712 -0.00031466997 -0.0071902755 0.028894251 -0.011916557 -0.008780701
0.037375942 -0.029407976 -0.14239888 -0.0643349 -0.048608862 -0.06594708 0.031319156 -0.06257607
-0.051530957 0.008676571 -0.006397014 -0.004227857 0.008908855 -0.034189854 -0.052252285 -0.031075677
-0.034735247 -0.038284197 -0.011654875 0.09884086 -0.006962098 -0.108446 0.101264104 -0.024904665
-0.12738876 0.10707811 -0.07893444 -0.164917 0.00027069202 0.006310592 0.030159893 -0.0077073267

dense1.4.bn1.weight f4 [72]
00000000: fba3 1b3f 2a77 a63e 0fd5 163f 94fb 753f
00000010: 559c 803f 300c 263e 4039 dd3e 0f39 053f
00000020: 923b 943f 1a62 5b3e 9651 3e3e aebc ce3d
00000030: f553 f83d 8366 a53e f4b4 3f3f 0ab1 023f
00000040: db28 283f 8875 f13e 6f36 9b3e 7dad c53e
00000050: f8c8 083f 5928 603e 1609 933d 9b06 f83d
00000060: b4ed 8f3e 2bf0 783f c820 093f 6d93 3b3e
00000070: 0891 823e 85a9 2b3e 6ef0 c23e 3d43 983e
00000080: d837 cb3e 65bf ea3e d912 c53e a5f9 033f
00000090: a086 1b3f 8b94 893f a5c7 a63e 6414 4a3e
000000a0: 49b9 b93e b522 a33d 0ac7 aa3e 5e69 113f
000000b0: 01ba 9d3e 881e 223f 4818 5c3f 837c e63e
000000c0: 7405 b53e 4a12 223e 0518 a93e 3842 db3e
000000d0: 93d9 a13e 5c6b 793e 297e ad3e e876 9f3e
000000e0: c45e 9f3f 5639 943e ba69 423e 2624 233f
000000f0: 6175 563e 407d 303e f8bf c23f 4a8e 6b3e
00000100: 7320 103e 1673 a43d 6fcc d43d da25 593f
00000110: 9148 9d3d 369b 253f 5ad5 9d3e 2033 323e
0.6079709 0.3251279 0.5891885 0.96087 1.0047709 0.16215587 0.4320774 0.5204019
1.158068 0.21424142 0.1858581 0.100945815 0.121253885 0.32304773 0.7488549 0.5105139
0.6568734 0.47159982 0.30314967 0.38608924 0.53431654 0.21890391 0.071794674 0.12110635
0.2811104 0.9724147 0.53565645 0.18317957 0.25501275 0.16763885 0.38074058 0.297388
0.39691043 0.45849147 0.38490942 0.515528 0.60752296 1.0748457 0.32574192 0.19734341
0.36274174 0.07965604 0.3335498 0.568014 0.30805972 0.63327837 0.8597455 0.4501687
0.35355723 0.15827289 0.33026138 0.42823958 0.31611308 0.2435736 0.33885315 0.31145406
1.2450795 0.28949994 0.18985644 0.63727033 0.20943214 0.17235279 1.5214834 0.23003498
0.14074878 0.080297634 0.10390555 0.8482338 0.076798566 0.6468996 0.30826837 0.17402315

dense1.4.bn1.bias f4 [72]
00000000: d776 09bf e0df a9bc 79e0 a1be 3008 35bd
00000010: 5222 bebe 9f4a 79bc 05d1 d1bd 3cb0 68bc
00000020: 9fb9 943d bf91 dcb9 8bc7 06bd 87d7 a9bd
00000030: f87b 31bd a761 efbd b806 4d3d b5ad 88be
00000040: dd8d e8be 5c64 c1be fa95 6abe fb71 acbe
00000050: 3e50 94be 57af 073e fee5 343c 0dc7 553d
00000060: a593 153d 0285 cd3d cac0 57be f8be 38be
00000070: 2eb5 eb3c 6c6b 7fbd bc25 f0bc 31d1 6bbd
00000080: 2851 13be 4111 0abe dc12 aebd 08db f83c
00000090: 6482 20be bfd3 dabd b67b debe c2f4 f3bc
000000a0: a85b 37be fb98 a7bd 00c9 78bd 479e 0fbe
000000b0: b073 f8bc d7a5 363d c666 e0bd 2c22 d23e
000000c0: 2d4d 0f3d b38d 213d ede5 2cbd 94d1 b0bc
000000d0: 3f1e 5f3d 5e93 9ebd f399 7a3c 0cfc a6bd
000000e0: 3255 2bbe 1bcb 75bc 33ea 4f3c 2754 fb3d
000000f0: 582c 22bd 3390 48bd c71c 8ebe dd9a d13c
00000100: e6bf 6ebc d99c c83c a8b2 09bd 305f 81bb
00000110: 573d a5bd 4d0b 033e becb 063d 4d46 103d
-0.5369696 -0.020736635 -0.31616572 -0.04419726 -0.3713556 -0.015215545 -0.102449454 -0.014202174
0.07261967 -0.0004207026 -0.032905143 -0.08293062 -0.043331116 -0.116885476 0.050055236 -0.26695028
-0.45420733 -0.3777188 -0.22908774 -0.3368071 -0.2896747 0.1325048 0.011041163 0.052191783
0.036517758 0.10035135 -0.21069637 -0.18041599 0.028772917 -0.062358305 -0.029314868 -0.057572547
-0.14386427 -0.13483144 -0.08499691 0.03037788 -0.1567474 -0.106849186 -0.4345376 -0.029779796
-0.17906058 -0.081834756 -0.060738564 -0.14025222 -0.030328602 0.04459175 -0.109571025 0.41041696
0.03498571 0.039441776 -0.04221146 -0.02158431 0.054472204 -0.07742952 0.015295493 -0.08153543
-0.16731718 -0.015002037 0.012690115 0.1227191 -0.03959307 -0.048965644 -0.2775633 0.02558654
-0.014572119 0.024488853 -0.033617646 -0.003948115 -0.0806834 0.1279728 0.032909147 0.035223294

dense1.4.conv1.weight f4 [12, 72, 3, 3]
00000000: 546a bcbd 8b78 13be 32e0 d4bd f4d7 06be
00000010: bf3f 36be 2f5d 1bbe c0d3 9fbd 5c1f f2bd
00000020: f448 e0bd 758b 36bc 0851 6fbc 7285 d2bc
00000030: e4fe 923c 0d0f 3ebc 1069 5abb 143c b53c
00000040: 68e3 e03c 59b6 423c 84e8 41bd 0107 9bbd
00000050: a60a a8bd aa22 a1bd 1b30 cebd a942 c5bd
00000060: d599 81bd 6df0 dbbd 86d9 d8bd 7e8e a0bd
00000070: 6bdf 47bd 2c88 3cbd 5ff1 3abd 29fc 37bd
00000080: 1266 5fbc 53aa abbd d8ff bdbd ec31 32bd
00000090: e23d 7bbe 1783 55be 6602 63be 8548 6abe
000000a0: 1f9a 61be 4163 6cbe 88b3 76be 13d5 84be
000000b0: c669 8bbe a2a7 a9bc 637a debc aa80 b5bc
000000c0: d154 aebc f2c3 01bd 9c07 e8bc 42e2 ddbc
000000d0: 3f71 f1bc 92bd 31bc a1ee afba c923 9ebb
000000e0: 205e e63c a4fe 643b 96dd dbbb 5369 3a3d
000000f0: f03a 88b9 cb1a 9b3b d824 003d f17e 403d
00000100: e314 7a3c ecad 1e3c fd6b a73c 7c8d a4bc
00000110: 03df a6bc 8115 ebb9 2a53 aabc 4c3b 1abd
00000120: 6cb3 013e c469 793d 84ae da3c a4df bc3d
00000130: e954 fdbb 405a cabd 7031 a2bd 0f45 eabd
00000140: 1f3d 49be b897 09bd 5177 f0bc d44f 67bc
00000150: 231e 3bbd c639 afbc 98f4 d6bb 45e7 1bbd
00000160: 9de9 b2bc da68 adbc 4021 19bc 5c23 3ebc
00000170: 105d 20bc a5ee cabc 90ad f3bc 3dd8 95bc
00000180: 2cbb a9bc eacc babc 617a 3cbc 414e 973b
00000190: aeee f83b f0ef cb3b 8972 3ebc d9e8 19bc
000001a0: 46a4 fdbb c3dd 3fbc 23c4 b7bc 03dc 3cbc
000001b0: a31c a5bb de4b 05bc 87a8 773a 58c3 55bb
000001c0: 4a47 beba e62b f9b9 49c5 4fbc cfe2 48bc
000001d0: 3258 a7bb 1d9c 76bd 0975 09bd fa34 1fbd
000001e0: 642c 95bd 9792 33bd 65e7 0cbd 333a 76bd
000001f0: fedc 59bd 7d40 2ebd 1955 a9bd 915b 76bd
00000200: 603e fcbc 4a91 54bd b725 71bd 4f0d 91bc
00000210: f158 b2bd 580a 96bd 7f04 25bd 8a76 69bd
00000220: d65e d0bd 1874 22bd 3eb8 a4bc 27d9 9cbd
00000230: 0a96 2fbd 4a36 e33b ca6a 80bd 9f64 4dbd
00000240: 5690 7ebd 9788 62bd 98cb 0abc 6ec4 85bd
00000250: 807b 3dbd ae19 863b 8dc0 54bd c460 2abd
00000260: 67b4 02bc 70c9 14bd 2d45 edbc fa33 0fbd
00000270: fe0f bfbc be35 f5bc 10c8 fabc 9795 16bd
00000280: 374f 5abd 48ef 8ebd 5a7e 58bd 0663 85bd
00000290: 221d 45bd bf07 e7bc 33eb 10bd 96c9 05bd
000002a0: 352d 09bd 828d 03bd 0460 50bd e652 27bc
000002b0: ceee 85bc 9ce1 40bc eb08 c03b d2f7 753c
000002c0: 5590 73bb 68ad af3c 5ae8 923c 62a0 033c
000002d0: e8fa dfbb f450 75bd 18a2 aebd abb6 493d
000002e0: 1deb d3bc a174 3ebd 580f a33d be0c 103d
000002f0: 01e9 93bc de9a bebd eb5b d1bd e94f bdbd
00000300: 3460 adbd 253c f1bd b302 cdbd 4527 87bd
00000310: 177d a8bd c0a0 8cbd 23d7 34bb 6a51 283c
00000320: cb65 533b 0ec9 ef3c 59e0 803c da43 f53c
00000330: 0ef9 ea3c 02f2 173d e5c1 023d da75 58bd
00000340: 77c8 8fbd 1701 66bd b29f b0bc eda1 91bc
00000350: c56e 90bc b8c8 44bb 5d33 3dbb c3a2 9cbb
00000360: 38d1 d8bb 7ced b9bc fb89 59bc be47 f9bc
00000370: ab90 52bd 5752 2dbd 0a82 abbc 99b0 69bd
00000380: 262b 1cbd c23b 23be 9484 3cbd 5f71 943c
00000390: c638 ccbd 13a2 c0bd 6533 0fbd 5474 cfba
000003a0: 10ab 05be cf15 4abe d7ce c8bd ee79 11be
000003b0: 110a 12be bcfe 7abc d4e2 52bd c058 8dbd
000003c0: bef5 c73b edd4 2b39 f34a c3ba 7f60 f0bc
000003d0: 7c8b 07bd 4ecb 1fbc 7795 66bd 1d06 40bd
000003e0: 89db d8bc bd08 38bd f2e0 ebbc f187 293c
000003f0: d621 8a3a f1a3 35bd b517 7fbd b8cd 063d
-0.09199968 -0.14401452 -0.10394324 -0.13168317 -0.17797755 -0.15172265 -0.0780406 -0.118223876
-0.10951415 -0.011141648 -0.014606722 -0.025698397 0.017943807 -0.011600268 -0.0033326782 0.022123374
0.027452186 0.011884295 -0.047340885 -0.07569695 -0.08205156 -0.0786794 -0.10067769 -0.09631855
-0.06328169 -0.10739217 -0.10588364 -0.07839678 -0.048797052 -0.0460283 -0.045640346 -0.044918213
-0.013635175 -0.08382096 -0.09277314 -0.04350464 -0.24535325 -0.20850788 -0.22168884 -0.22879227
-0.22031449 -0.23084737 -0.24091923 -0.25943813 -0.27229136 -0.020709816 -0.027157968 -0.022156078
-0.021280678 -0.03168101 -0.028323941 -0.027085427 -0.029472945 -0.01084842 -0.0013422557 -0.0048260433
0.028121054 0.0034941817 -0.0067097647 0.0455106 -0.00025983853 0.0047334186 0.031285137 0.04699606
0.015263769 0.009685021 0.020437235 -0.020086996 -0.020370012 -0.00044838715 -0.020791609 -0.037654206
0.126661 0.06089188 0.026694544 0.092223436 -0.0077310693 -0.09880495 -0.07919586 -0.11438953
-0.19652222 -0.033591956 -0.02935377 -0.014118154 -0.045683037 -0.021389853 -0.0065599196 -0.038062353
-0.021839911 -0.021168161 -0.009346306 -0.01160511 -0.009787813 -0.024771998 -0.029745847 -0.018291587
-0.020719133 -0.022802789 -0.011503787 0.004617483 0.007596812 0.006223671 -0.011623987 -0.009393894
-0.00774053 -0.011710587 -0.022432392 -0.011527064 -0.005038814 -0.008135764 0.0009447415 -0.0032617655
-0.0014517095 -0.00047525688 -0.012681314 -0.012261107 -0.0051069492 -0.060207475 -0.03355888 -0.03886888
-0.072838575 -0.04384097 -0.034400363 -0.060114097 -0.05318927 -0.04254197 -0.08268184 -0.06014592
-0.030791461 -0.05189637 -0.05887386 -0.017706541 -0.087083705 -0.07326192 -0.04028749 -0.056997813
-0.101743385 -0.039661497 -0.020107385 -0.07658606 -0.042867698 0.006933962 -0.062703684 -0.050144788
-0.06214937 -0.055306043 -0.008471392 -0.065316066 -0.046260357 0.0040924167 -0.051941443 -0.04159619
-0.007977582 -0.03632492 -0.02896365 -0.034961678 -0.023323055 -0.029932853 -0.030612975 -0.036763754
-0.0532982 -0.06979233 -0.052854873 -0.06513028 -0.048123486 -0.028201936 -0.035380553 -0.03266295
-0.03349038 -0.032117374 -0.050872818 -0.010212636 -0.016349223 -0.0117725395 0.005860438 0.015012698
-0.0037164886 0.021444991 0.01793306 0.008033844 -0.0068353303 -0.059891656 -0.08527011 0.04924647
-0.025868947 -0.046497945 0.07961911 0.035168402 -0.01805544 -0.09306882 -0.1022261 -0.09243757
-0.08465615 -0.1177905 -0.100102805 -0.06599287 -0.08226984 -0.06866598 -0.0027594052 0.010273317
0.0032256718 0.029270675 0.015731977 0.02993958 0.028683212 0.03709603 0.031923193 -0.052846767
-0.070206575 -0.056153383 -0.021560524 -0.017777408 -0.017630944 -0.0030026864 -0.0028869726 -0.004780145
-0.0066167377 -0.02269625 -0.013277526 -0.030429717 -0.051407497 -0.042314854 -0.02093603 -0.057053182
-0.038127087 -0.15940765 -0.046024874 0.018120466 -0.09971766 -0.09405913 -0.034961123 -0.0015827515
-0.13053536 -0.19734882 -0.098050766 -0.14206669 -0.14261653 -0.0153195225 -0.05148585 -0.06901693
0.006102293 0.00016387152 -0.0014899656 -0.029342888 -0.033092007 -0.009753061 -0.056294885 -0.04688083
-0.02647187 -0.04493021 -0.028793786 0.010347352 0.0010538648 -0.0443458 -0.06227847 0.032911032
