independent_train_1000.0/client83/checkpoint_1000.0.pth (torch, 420139 bytes, 98 tensors)

conv1.0.weight f4 [16, 3, 3, 3]
0	0x3d8c5d9f	0.06853794
1	0xbd6e8eab	-0.058241528
2	0x3ec8b91d	0.3920373
3	0xbec497cf	-0.3839707
4	0xbf548e2c	-0.8302944
5	0xbea08655	-0.31352487
6	0xbe40c1b9	-0.188239
7	0xbf269840	-0.65076065
8	0xbe4f7d30	-0.20262599
9	0x3c585d70	0.013205871
10	0xbe92d8cf	-0.28681037
11	0x3d4c9500	0.049946785
12	0xbdcb0297	-0.09912603
13	0xbf2659f4	-0.6498101
14	0xbe770ce6	-0.24126014
15	0x3eacab77	0.33724567
16	0xbe49036c	-0.19630212
17	0x3e25c0f0	0.16186881
18	0xbbbce482	-0.005764545
19	0xbd3028e2	-0.04300774
20	0x3e7e5af4	0.24839383
21	0xbea692d4	-0.32533896
22	0xbf17502b	-0.591067
23	0xbe47a8e0	-0.19498014
24	0xbe779dde	-0.24181315
25	0xbf0204d6	-0.5078863
26	0xbe0d8105	-0.13818748
27	0xbf329369	-0.6975618
28	0xbf1fe0ec	-0.6245258
29	0xbf206f1b	-0.62669533
30	0xbf889e11	-1.0673238
31	0xbf81aa15	-1.013003
32	0xbf685c92	-0.9076625
33	0xbf89ec62	-1.0775263
34	0xbf9c92d9	-1.2232314
35	0xbf80e53c	-1.0069957
36	0x3f55481e	0.8331317
37	0x3f82fece	1.023401
38	0x3f47fa6f	0.78116506
39	0x3f65c8f4	0.89759755
40	0x3f95b127	1.1694688
41	0x3f7d4484	0.9893267
42	0x3f57c06a	0.84277976
43	0x3f68e301	0.9097138
44	0x3f4b3b2f	0.7938718
45	0xbe3f8a7c	-0.18705171
46	0xbdf4bc35	-0.1194996
47	0xbea23c32	-0.3168655
48	0x3db73ab6	0.08946745
49	0x3e8b1241	0.27162364
50	0x3d36ba3a	0.044611193
51	0x3e95ad19	0.29233626
52	0x3e9d8c15	0.30770937
53	0x3def2056	0.116760895
54	0xbeb6d734	-0.35711062
55	0x3e8c3f97	0.27392265
56	0xbeb8c78d	-0.36089745
57	0xbe4e39ef	-0.20139287
58	0x3f556099	0.8335052
59	0xbf1404e4	-0.5781996
60	0x3eb2a37e	0.3489036
61	0x3f867952	1.0505774
62	0xbf5cdd82	-0.86275494
63	0xbee2a33e	-0.4426517
64	0x3f207989	0.6268545
65	0xbf4e7284	-0.80643487
66	0xbe872a75	-0.2639958
67	0x3f92de39	1.1474067
68	0xbf97e57f	-1.1866912
69	0x3e274436	0.16334614
70	0x3f9b3b33	1.2127441
71	0xbfc85f2f	-1.5654048
72	0xbe6b5fd5	-0.22985776
73	0x3ef1d368	0.47231603
74	0xbe499697	-0.19686352
75	0xbd6f7be5	-0.058467764
76	0x3f851d60	1.039959
77	0xbf229411	-0.6350718
78	0x3e96ea9b	0.29475865
79	0x3f82d6f3	1.0221847
80	0xbf924267	-1.1426514
81	0x3dbb5de9	0.09148771
82	0xbd956a09	-0.07295615
83	0x3d98b068	0.07455522
84	0x3caa1a15	0.02076439
85	0xbd681725	-0.056662697
86	0x3e37a834	0.17935258
87	0x3ebb51ae	0.36585754
88	0x3e52260a	0.20522323
89	0x3f06ee57	0.5270743
90	0xbf3daf15	-0.7409528
91	0xbf83d70c	-1.0300002
92	0xbf3ee745	-0.7457164
93	0xbf88375c	-1.0641894
94	0xbfaf748b	-1.3707441
95	0xbf8a195d	-1.078899
96	0xbf59f70d	-0.85142595
97	0xbfa1729e	-1.2613103
98	0xbf6f60f8	-0.9350734
99	0x3f515c10	0.817811
100	0x3f6e39a3	0.93056697
101	0x3f6bd916	0.9212812
102	0x3f73d22e	0.95242584
103	0x3f93639c	1.1514773
104	0x3f8452fc	1.0337825
105	0x3f66334d	0.8992203
106	0x3f6cf017	0.9255385
107	0x3f4d1c3f	0.80121225
108	0xbf0c4364	-0.5479033
109	0x3db89796	0.09013288
110	0x3e8b2a02	0.27180487
111	0x3facc52b	1.3497671
112	0xbcf97dc3	-0.030455476
113	0xbf8d87f6	-1.1057117
114	0x3fe94c4e	1.8226411
115	0xbf35a428	-0.7095361
116	0xbfcc6677	-1.596877
117	0xbeb3eabc	-0.35140026
118	0x3b9e260a	0.004826312
119	0x3c8c502e	0.017128076
120	0x3fd40a4c	1.6565642
121	0xbc5e1b99	-0.0135563845
122	0xbfa35bfd	-1.2762448
123	0x400cdddb	2.201041
124	0xbf10a901	-0.5650788
125	0xbfc8ff0b	-1.5702833
126	0xbeb6011c	-0.3554772
127	0xbcc36d0e	-0.023855712
128	0x3e98c3ac	0.29836786
129	0x3fc1ed9b	1.5150636
130	0xbe1eaeea	-0.15496412
131	0xbf8e232a	-1.1104481
132	0x400172d5	2.0226338
133	0xbf486bb6	-0.78289354
134	0xbfcb0df2	-1.5863631
135	0x3d1b2108	0.037873298
136	0x3d990c21	0.074730165
137	0x3cf01274	0.029305674
138	0x3ec45068	0.38342595
139	0x3f1d2241	0.6138039
140	0x3edb3ea9	0.42821243
141	0x3dbea55d	0.09308884
142	0x3eb5e97c	0.35529697
143	0x3e8936fd	0.26799765
144	0xbe02e654	-0.12783176
145	0xbdf07a1a	-0.11742039
146	0xbe04edbd	-0.12981315
147	0x3e82c5f3	0.25541648
148	0x3eeb088c	0.45904958
149	0x3e963841	0.29339793
150	0xbd4a5604	-0.049398437
151	0x3e2e8316	0.17042193
152	0x3dcef37a	0.10105033
153	0x3d03ad07	0.032147434
154	0xbc99891c	-0.018742137
155	0xbc5b5cd3	-0.01338883
156	0x3eba127b	0.36342224
157	0x3f0339b9	0.5125995
158	0x3ec91cde	0.39279836
159	0xbe15270d	-0.14565678
160	0x3c96c766	0.018405627
161	0x3b305ffb	0.0026912678
162	0x3f0ed291	0.5579005
163	0x3f121242	0.5705911
164	0x3e52f2da	0.20600453
165	0x3f6e5815	0.9310315
166	0x3f94234f	1.1573275
167	0x3f41840e	0.75592124
168	0x3f1e7114	0.61891294
169	0x3f828dce	1.0199525
170	0x3f28741a	0.65802157
171	0x3d7fa18e	0.06240993
172	0xbdabce3a	-0.08388944
173	0x3a3344a8	0.00068385387
174	0xbdb67a82	-0.08910085
175	0xbe77b0f2	-0.24188593
176	0xbe04b3fb	-0.12959282
177	0xbe8e3964	-0.2777816
178	0xbe99b73b	-0.30022606
179	0xbdfddeed	-0.12396035
180	0xbedf705b	-0.43640408
181	0xbf0a2f3d	-0.5397833
182	0xbe8b79ae	-0.27241272
183	0xbf289eb0	-0.6586714
184	0xbf6c190f	-0.92225736
185	0xbf0ca6b8	-0.5494189
186	0xbf29a43a	-0.66266215
187	0xbf5fd881	-0.87439734
188	0xbee119f7	-0.43965122
189	0xbf87b603	-1.060242
190	0x3f671689	0.9026876
191	0x3f9cc710	1.2248249
192	0x3f9078a3	1.1286815
193	0x3fc13982	1.5095675
194	0x3f2b43e5	0.66900474
195	0x3b35a6d7	0.0027717852
196	0xbfda8a71	-1.7073499
197	0xc01e17dc	-2.4702063
198	0xbf7dfbc7	-0.99212307
199	0x3f5188ff	0.81849664
200	0x3fa4287b	1.2824854
201	0x3f8b4669	1.0880862
202	0x3fb4b329	1.4117175
203	0x3f4b3401	0.79376227
204	0xbe29bfc0	-0.16577053
205	0xbff1b62a	-1.8883717
206	0xc017a728	-2.3695774
207	0xbfc54495	-1.5411555
208	0xbd51d601	-0.05122948
209	0x3eee304a	0.46521217
210	0x3f75e3f6	0.96050966
211	0x3fa41904	1.2820134
212	0x3f4d6181	0.80226904
213	0x3eb81001	0.3594971
214	0xbf89c309	-1.0762645
215	0xbfb7860c	-1.4337783
216	0x3f01d89a	0.5072113
217	0x3f38aa94	0.7213528
218	0x3ee14c17	0.44003364
219	0x3f59822b	0.84964246
220	0x3fa57182	1.2925265
221	0x3f5f7521	0.872881
222	0x3f08a014	0.5336926
223	0x3f7dc860	0.99133873
224	0x3f04301e	0.5163592
225	0xbf8cafe7	-1.0991181
226	0xbfa76ff9	-1.3081046
227	0xbf8ecde6	-1.1156585
228	0xbfb0acde	-1.3802755
229	0xbfc028ed	-1.501249
230	0xbfa4afde	-1.286617
231	0xbf9b0d8f	-1.2113513
232	0xbfa01ba5	-1.2508436
233	0xbf81740f	-1.0113543
234	0x3ec8b5ab	0.39201102
235	0x3ee38703	0.44438943
236	0x3ec55853	0.3854395
237	0x3ee2565e	0.44206518
238	0x3f2d3cc1	0.6767083
239	0x3f16f585	0.58968383
240	0x3e8d91f2	0.2765041
241	0x3f03f90b	0.51551884
242	0x3ed4c861	0.41559127
243	0xbf0e3ee1	-0.55564696
244	0xbfaf0c1e	-1.3675573
245	0xbf432385	-0.76226074
246	0xbf2adf04	-0.66746545
247	0xbf2c71e2	-0.6736127
248	0xbf114ea3	-0.56760615
249	0x3f965158	1.1743574
250	0x3ffc67e8	1.971921
251	0x3f9689bf	1.1760787
252	0xbee581d6	-0.4482562
253	0xbfa75a25	-1.3074385
254	0xbf23411c	-0.63771224
255	0xbf09f8fe	-0.53895557

conv1.1.weight f4 [16]
0	0x3fdddc74	1.7332902
1	0x3fccb170	1.599165
2	0x3fd73c59	1.6815292
3	0x3fe9cc04	1.8265386
4	0x4006ce9b	2.1063602
5	0x3fb61ac3	1.4226917
6	0x3fcdfeb1	1.6093351
7	0x400fe5f7	2.248411
8	0x3fc11125	1.5083357
9	0x3fde50fa	1.7368462
10	0x3fd2315f	1.6421317
11	0x3fde6ab0	1.7376308
12	0x3fbf7ccf	1.4959964
13	0x3fc69d97	1.5516843
14	0x3fc4fe2c	1.5390067
15	0x3fb8ceb5	1.4438082

conv1.1.bias f4 [16]
0	0xbe422c19	-0.18962134
1	0x3f0073c2	0.5017663
2	0x3f8a717e	1.0815885
3	0x3ee0ca53	0.4390436
4	0xbe78ecaa	-0.2430903
5	0x3ea4cde2	0.32188326
6	0x3ee4c4f0	0.446815
7	0xbdc1b8b5	-0.09459058
8	0x3f2f729c	0.68534255
9	0xbdcc0d98	-0.0996353
10	0x3ec9c0a4	0.39404786
11	0xbe346758	-0.17617548
12	0x3e19d6e4	0.1502338
13	0x3f4ea866	0.80725706
14	0xbd3d8101	-0.046265606
15	0x3e0fbe00	0.14037323

stage2.0.branch1.0.weight f4 [16, 1, 3, 3]
0	0xbdf137f1	-0.11778248
1	0xbe1eb9a9	-0.15500511
2	0x3f03eca4	0.5153296
3	0x3eac39b4	0.33637774
4	0xbed8ef62	-0.42370135
5	0x3ebc462c	0.36772287
6	0x3e038fc0	0.12847805
7	0xbf38b9fe	-0.721588
8	0xbe0cf354	-0.13764697
9	0x3e98a71b	0.2981499
10	0xbe80be16	-0.25145024
11	0xbf2fca4d	-0.6866806
12	0xbf020d88	-0.508019
13	0x3e2e627c	0.17029756
14	0x3f54121e	0.82840145
15	0xbf2c6aa5	-0.67350227
16	0x3f686cbc	0.90790915
17	0x3feb07b5	1.8361727
18	0xbcbcf6d6	-0.02306692
19	0xbd4b064f	-0.049566563
20	0xbddbbc8b	-0.10729321
21	0x3e4ac8c5	0.1980315
22	0xbfa26b76	-1.2689044
23	0x3f5c27bc	0.8599813
24	0x3f6e3c6b	0.9306094
25	0xc02f746c	-2.7414808
26	0x3ff36b6c	1.9017158
27	0x3ea992cf	0.3311982
28	0xbedae0a2	-0.42749506
29	0xbebbcf27	-0.36681482
30	0xbeed7c13	-0.46383724
31	0xbdcaa387	-0.098944716
32	0x3f0ccc55	0.54999286
33	0xbee7c728	-0.45269132
34	0x3f297061	0.661871
35	0x3fbe0ead	1.4848229
36	0xbb4a4148	-0.0030861665
37	0x3dbdfecb	0.092771135
38	0xbde351dc	-0.11099598
39	0x3f0da821	0.5533467
40	0x3f2a60f0	0.66554165
41	0x3edd6fe2	0.43249422
42	0x3e1deb25	0.15421732
43	0x3ee78714	0.45220244
44	0x3f88a4ce	1.0675294
45	0xbc3192fe	-0.010838268
46	0xbe50b6a3	-0.2038217
47	0xbf17c1cd	-0.5928009
48	0xbc9db826	-0.019252848
49	0x3ec5f64e	0.38664478
50	0x3e259933	0.16171722
51	0xbe7ccecc	-0.24688262
52	0x3f0de043	0.5542032
53	0x3f7c1172	0.9846412
54	0xbf1ebc24	-0.6200583
55	0x3ef3dbf2	0.47628742
56	0x3f57b0d3	0.8425419
57	0x3dd3c1dd	0.10339711
58	0xbf0ad33d	-0.54228574
59	0xbf821725	-1.0163313
60	0x3f83756a	1.0270207
61	0xbef3e0dd	-0.47632495
62	0xbf9b9ed5	-1.2157847
63	0xbcdb66e2	-0.026782457
64	0x3de67ea4	0.112546235
65	0x3ee41632	0.44548184
66	0x3ecbad89	0.39780834
67	0x3f8b2180	1.0869598
68	0x3f3fdd2c	0.74946856
69	0x3ec5651d	0.38553706
70	0x3f9e3387	1.2359475
71	0x3f389c13	0.7211315
72	0xbebb72cd	-0.36611024
73	0x3eb14b47	0.34627745
74	0x3f40806d	0.7519596
75	0x3f04dd8a	0.5190054
76	0x3d1d5de4	0.03841962
77	0xbf168e2a	-0.58810675
78	0x3f78ea92	0.97232926
79	0xbf3de074	-0.74170613
80	0xc0017513	-2.0227706
81	0x3e7f2773	0.24917392
82	0xbe5fd538	-0.2185868
83	0xbf38075a	-0.7188622
84	0x3ede020b	0.43360934
85	0xbf4e0203	-0.8047182
86	0xbf9866c3	-1.190636
87	0xbc774119	-0.015091204
88	0xbfae63ed	-1.3624245
89	0xbf93d52e	-1.1549432
90	0x3df5aa40	0.11995363
91	0x3f94f80a	1.1638196
92	0xbfb238f5	-1.3923632
93	0xbfde71b2	-1.7378447
94	0x3f0cd7a2	0.5501653
95	0x3fac1202	1.3442996
96	0x3fbe0b4f	1.4847201
97	0xbfec83c3	-1.847771
98	0x3e47743e	0.19477937
99	0xbda64904	-0.081193954
100	0x3e4bc3d8	0.19898927
101	0x3d957b3e	0.07298897
102	0xbf14e032	-0.58154595
103	0xbf14e756	-0.5816549
104	0xbe84fd8a	-0.25974685
105	0xbefad216	-0.48988408
106	0xbf15e996	-0.5855955
107	0xbf4e5dde	-0.8061198
108	0xbbdb6c81	-0.0066962843
109	0xbd3c5c16	-0.045986257
110	0x3bc692df	0.006059989
111	0x3e0b8503	0.13624959
112	0x3e05125f	0.1299529
113	0x3e1866d9	0.14882983
114	0xbcede6b9	-0.029040681
115	0xbba5fece	-0.0050657755
116	0x3cb7810f	0.022400407
117	0x3f4f5311	0.80986124
118	0x3df84f7b	0.12124535
119	0xbf002287	-0.50052685
120	0x3f90ab42	1.1302264
121	0x3df6102b	0.120148025
122	0xbf489185	-0.78347045
123	0x3f0b8077	0.54492897
124	0xbe8838d8	-0.26605868
125	0xbf4f3281	-0.8093644
126	0xbebd1844	-0.36932576
127	0x3f2b4eb4	0.66916966
128	0x3f6f94ea	0.935866
129	0x3eec6ff5	0.46179166
130	0xbcbd1d16	-0.023085158
131	0xbeeb4aa2	-0.45955378
132	0x3f1afbfe	0.6054076
133	0xbf82c6d5	-1.0216929
134	0xbfc23ddb	-1.5175127
135	0xbd23fa9e	-0.04003393
136	0x3e54d9f2	0.20786265
137	0x3e7d3338	0.2472657
138	0x3e4acf84	0.19805723
139	0xbeefea66	-0.4685852
140	0xbf49467e	-0.7862319
141	0x3f2c5722	0.67320454
142	0xbec0384b	-0.37542948
143	0xbf4a779b	-0.79088753

stage2.0.branch1.1.weight f4 [16]
0	0x3f96bc95	1.1776301
1	0x3fd39cd6	1.6532238
2	0x3ff04ecb	1.8774046
3	0x3fddd0c6	1.7329338
4	0x3fb22806	1.3918464
5	0x3fa1b43c	1.2633128
6	0x3feaa674	1.8332047
7	0x3fad880a	1.3557141
8	0x3ff33c27	1.9002732
9	0x3f9af8fa	1.2107232
10	0x400e3bcb	2.2223995
11	0x3fb8f715	1.4450403
12	0x3ebc597c	0.3678702
13	0x3f80ffcf	1.0078067
14	0x3fc300b2	1.5234587
15	0x3fb455da	1.40887

stage2.0.branch1.1.bias f4 [16]
0	0x3e0b657b	0.1361293
1	0xbec40825	-0.38287464
2	0x3f604d02	0.87617505
3	0x3d2badea	0.041913904
4	0xbed27fa4	-0.41113007
5	0xbe068d36	-0.13139805
6	0x3fa7f682	1.3122103
7	0xbee81f3d	-0.45336333
8	0xbdcd966c	-0.10038456
9	0x3f4a7555	0.79085284
10	0xbf7b2643	-0.9810526
11	0x3ea1192b	0.31464514
12	0xbe2ba9d6	-0.16764006
13	0xbe8d13fe	-0.27554315
14	0xbe930c71	-0.2872043
15	0x3d190613	0.03735931

stage2.0.branch1.2.weight f4 [16, 16, 1, 1]
0	0x3e46bec9	0.19408716
1	0x3f259097	0.6467375
2	0x3e09610c	0.13415927
3	0x3f8190a5	1.0122267
4	0xbd9023fa	-0.07038112
5	0x3eedb28b	0.4642528
6	0x3f292eda	0.66087115
7	0x3ee95721	0.45574287
8	0x3eb78580	0.3584404
9	0xbf5efc8b	-0.871041
10	0x3db37f59	0.08764524
11	0xbdf03b5a	-0.117300704
12	0xbe08f4a6	-0.13374576
13	0xbf0670a8	-0.5251565
14	0xbfb481b9	-1.4102088
15	0x3fa39962	1.2781184
16	0xbf228101	-0.63478094
17	0xbd4109e0	-0.04712856
18	0x3d82a75d	0.06379578
19	0x3e1ff3b0	0.15620303
20	0xbe55776d	-0.20846339
21	0xbe12d685	-0.14339645
22	0xbc3aeacd	-0.01140852
23	0x4009fe1c	2.1561346
24	0xbe1ce510	-0.15321755
25	0xbf460e90	-0.7736597
26	0xbd9e2bcf	-0.077231996
27	0x3dc34a3f	0.09535646
28	0x3d6531b3	0.0559556
29	0x3e140616	0.14455447
30	0x3eb679ed	0.35639897
31	0xbe03bd09	-0.1286508
32	0xbc93e00c	-0.01805117
33	0x3f1712bc	0.5901296
34	0x3d8800cf	0.06640779
35	0xbf9be578	-1.2179403
36	0xbd4bd95c	-0.049767837
37	0xbed83c04	-0.42233288
38	0xbf277bff	-0.6542358
39	0x3ecd198f	0.40058562
40	0x40068dba	2.1024003
41	0x3e8ec385	0.27883545
42	0x3cdbc7cb	0.026828667
43	0x3e2361c8	0.1595527
44	0x3dfc1091	0.12307847
45	0xbd543b8c	-0.0518146
46	0x3e5d84ae	0.21632645
47	0xbf5ecbea	-0.870299
48	0xbe8cb45e	-0.2748136
49	0xbf8915f0	-1.070982
50	0xbcb5bee8	-0.022185758
51	0xbf799623	-0.97494715
52	0xbcbabb73	-0.02279446
53	0xbf9720dd	-1.1806904
54	0xbf800dc5	-1.0004202
55	0xbdabd47a	-0.08390136
56	0x3ece7fbe	0.40331835
57	0x3f085115	0.5324872
58	0x3d833b58	0.06407803
59	0x3e5d2dd1	0.21599509
60	0xbd15b5c5	-0.036550302
61	0x3e310694	0.17287666
62	0x3d315786	0.04329636
63	0x3f5e8c4f	0.86932844
64	0x3ebaad62	0.36460406
65	0x3e0b73fa	0.1361846
66	0xbd8b6d7d	-0.068079926
67	0x3e9b0d89	0.30283764
68	0x3f3c7d76	0.7362894
69	0x3e94f994	0.29096663
70	0x3e89c35a	0.26906854
71	0xbc00fc95	-0.00787272
72	0xbdc32d51	-0.09530128
73	0x400ea7eb	2.228999
74	0x3ebc5c4f	0.36789176
75	0xbedfb1b4	-0.43690264
76	0xbddbf9ea	-0.10741027
77	0x3eb74f8e	0.35802883
78	0xbdfbadaa	-0.12288983
79	0xbddf0e8b	-0.10891446
80	0xbea1e2e0	-0.31618404
81	0xbe6b5641	-0.22982122
82	0x3ff697f2	1.926512
83	0xbdcaa123	-0.09894016
84	0xbd7011fd	-0.058610905
85	0xbe7a4710	-0.2444117
86	0x3e9d01bd	0.3066539
87	0xbe2b13a7	-0.16706716
88	0x3dec3c4a	0.11534937
89	0x3bb6abd9	0.005574685
90	0xbe17b1cf	-0.14813922
91	0xbe5f1b4e	-0.2178776
92	0x3d46acf4	0.048504785
93	0xbfac3052	-1.3452246
94	0xbe411ff3	-0.18859844
95	0x3d8d66a0	0.0690434
96	0x3e62bd10	0.22142434
97	0x3c6daaff	0.014506101
98	0x3d7fe99c	0.062478647
99	0x3e27fd6e	0.1640527
100	0x3d784056	0.06060823
101	0x3eb0d1fc	0.34535205
102	0xbda91d95	-0.082575954
103	0xbe4d6880	-0.20059395
104	0x3d8ba9a3	0.06819465
105	0x3c21bee6	0.009872174
106	0x402802d5	2.6251729
107	0x3e4e4858	0.20144784
108	0x3db4dd1f	0.08831238
109	0x3d427570	0.04747528
110	0xbc51ff4e	-0.012817217
111	0x3dec3c5e	0.115349516
112	0x3e165d42	0.14684013
113	0xbfd3f58d	-1.6559311
114	0x3d88278c	0.06648168
115	0x3d32edc0	0.043683767
116	0xbd6fd258	-0.05855021
117	0x3f02a0f3	0.5102684
118	0xbfc5fd23	-1.5467876
119	0x3e2f453d	0.17116256
120	0xbf4d7428	-0.80255365
121	0xbe057a6b	-0.1303498
122	0xbbda5b11	-0.006663688
123	0xbd77c074	-0.060486272
124	0x3d083ef6	0.03326317
125	0xbd2795e7	-0.040914442
126	0x3f444227	0.7666344
127	0xbe9d32e0	-0.30702877
128	0xbed7e98c	-0.4217037
129	0x3da12682	0.07868673
130	0xbe43d946	-0.19125852
131	0xbce3f029	-0.027824478
132	0x3e517e33	0.20458297
133	0xbf4dafa3	-0.80346125
134	0xbe56fabd	-0.20994087
135	0x3da6043c	0.081062764
136	0x3f23761a	0.63852084
137	0x3f89d4ac	1.0768027
138	0xbdeed985	-0.11662582
139	0x3e00e6db	0.12588064
140	0xbc38f968	-0.011289932
141	0x3dd132c9	0.102147646
142	0x3da701a0	0.08154607
143	0xbdc9a963	-0.09846761
144	0xbe0f849a	-0.14015427
145	0xbd8ab949	-0.067736216
146	0xbf1d2433	-0.6138336
147	0xbe2b9558	-0.16756189
148	0xbf03e4bf	-0.51520914
149	0xbe0eea7d	-0.13956638
150	0x3df0b050	0.11752379
151	0x3db5fd06	0.08886151
152	0x3da6888a	0.081315115
153	0xbe95c30e	-0.29250377
154	0xbcf40b8a	-0.029790659
155	0x401edbf7	2.4821756
156	0xbdf92841	-0.12165881
157	0xbe8126fd	-0.25225058
158	0xbebde447	-0.37088224
159	0xbd7900b1	-0.060791675
160	0xbe0c83d8	-0.1372217
161	0xbe7fac29	-0.24968018
162	0xbea8b830	-0.32953024
163	0x3e3e8dde	0.18608806
164	0x3f52c3ce	0.82330024
165	0xbe381c49	-0.1797954
166	0x3e703fd2	0.23461846
167	0xbf77eff2	-0.968505
168	0x3e96045f	0.2930021
169	0xbe5fcb96	-0.21855006
170	0xbe9447e4	-0.28961098
171	0x3d7a94d0	0.061177075
172	0xbd04a5bd	-0.032384623
173	0xbf36149b	-0.7112519
174	0x3dcdd3c0	0.10050154
175	0x3f015bb8	0.50530577
176	0xbec39c2c	-0.38205087
177	0xbf574177	-0.84084266
178	0x3e1340c3	0.14380173
179	0xbd8ec35e	-0.06970857
180	0xbd6ab354	-0.057299927
181	0xbf0fc5a6	-0.5616096
182	0xbf7af749	-0.9803358
183	0xbebd1e3c	-0.3693713
184	0xbf1c2233	-0.60989684
185	0x3e86c13c	0.263193
186	0x3d177a50	0.03698188
187	0xbcd32ab3	-0.025777197
188	0x3c145798	0.009054087
189	0x3e22df4d	0.15905495
190	0x3f1d7842	0.61511624
191	0xbea3b339	-0.31972674
192	0xbe23391e	-0.15939757
193	0x3f3cd376	0.73760164
194	0x3ed286de	0.4111852
195	0x3ee721d6	0.45143002
196	0x3e5c10f9	0.2149085
197	0x3ec5260a	0.38505584
198	0x3f22a741	0.6353646
199	0xbeaecc74	-0.3414036
200	0x3efc96d2	0.49333817
201	0x3e97de3b	0.29661736
202	0x3d81a109	0.06329543
203	0xbf15b66e	-0.5848149
204	0x3d46ed95	0.04856642
205	0x3d8ebc33	0.0696949
206	0xbf678c21	-0.90448195
207	0x3d41b4b3	0.04729147
208	0x3eef723c	0.4676684
209	0x3d4acccf	0.049511727
210	0xc00d3bcc	-2.2067747
211	0x3e119b0b	0.142193
212	0xbea30886	-0.3184244
213	0x3e73d0e4	0.23810154
214	0x3c4fd7ce	0.012685729
215	0xbd92f44a	-0.07175501
216	0x3ca78338	0.020448312
217	0x3eaa8320	0.33303165
218	0xbd231a47	-0.039819982
219	0xbd747614	-0.05968292
220	0x3dbabf10	0.091184735
221	0xbe0d6472	-0.13807848
222	0xbd2b5ed0	-0.041838467
223	0xbdba46cb	-0.09095534
224	0x3ecba8fd	0.39777365
225	0x3c42234b	0.011849235
226	0xbedd394f	-0.43207785
227	0x3eda8c80	0.42685318
228	0xc026d663	-2.6068351
229	0x3e29b816	0.1657413
230	0xbd01dfad	-0.031707454
231	0x3e62ea3e	0.22159669
232	0xbe8a589a	-0.27020723
233	0xbccbc471	-0.024873944
234	0x3d953cfc	0.072870225
235	0x3d3c1d3a	0.04592631
236	0x3c444271	0.0119787315
237	0x3e47e56e	0.19521114
238	0x3e1c5502	0.15266803
239	0xbe839d5c	-0.25705993
240	0x3ecaa655	0.39580026
241	0x3f6e1485	0.9300006
242	0xbd443134	-0.047898486
243	0xbf1c5988	-0.61074114
244	0xbe4d1614	-0.20027953
245	0x3cda5481	0.026651623
246	0x3f5d7142	0.8650094
247	0xbe175d2c	-0.14781636
248	0x3ef899a3	0.48554716
249	0xbe9b7b0e	-0.3036732
250	0x3d141c3b	0.036159735
251	0x3d6f4c91	0.05842263
252	0xbcb8b0fe	-0.022545334
253	0xbe26316a	-0.16229787
254	0xbede3512	-0.43399864
255	0xbf3cff14	-0.7382672

stage2.0.branch1.3.weight f4 [16]
0	0x3fd19dba	1.6376259
1	0x3fb5c86c	1.4201789
2	0x40052c86	2.0808425
3	0x4002402c	2.0351667
4	0x3fd64dc7	1.6742486
5	0x3ff2269f	1.8918036
6	0x3ff0cb9b	1.8812135
7	0x3fe798f2	1.809355
8	0x3f7c3fee	0.9853505
9	0x3fa4f30c	1.2886672
10	0x3f6b6002	0.9194337
11	0x3f8b310c	1.0874343
12	0x3f72e5b0	0.94881725
13	0x3fc82475	1.5636126
14	0x3fa85f68	1.3154116
15	0x3f8de1f1	1.1084577

stage2.0.branch1.3.bias f4 [16]
0	0xbdadd3de	-0.08487676
1	0x3f6955e7	0.911467
2	0x3e236372	0.15955904
3	0x3eff19b4	0.49824297
4	0x3e9bb8f7	0.30414554
5	0xbefceeab	-0.4940084
6	0xbddf0ffd	-0.108917214
7	0x3e1c5382	0.1526623
8	0x3ef15a62	0.4713927
9	0x3e9ce06f	0.3063998
10	0x3f0a3cef	0.5399923
11	0x3ea4ab2e	0.3216185
12	0x3ebcfd1b	0.36911854
13	0x3d007de3	0.031370055
14	0x3e21c8aa	0.15799204
15	0x3ed54062	0.41650683

stage2.0.branch2.0.weight f4 [16, 16, 1, 1]
0	0x3d3b362f	0.04570597
1	0xbea04679	-0.31303766
2	0x3dc49c7b	0.09600159
3	0x3e3025e3	0.17201953
4	0xbd02bbaa	-0.03191725
5	0x3fbf089f	1.4924506
6	0x3f02e18a	0.51125395
7	0xbf00480c	-0.50109935
8	0xbee2f0ea	-0.44324428
9	0x3c434330	0.011917874
10	0xbd26537c	-0.04060696
11	0xbd1559ad	-0.036462475
12	0x3f6e003f	0.92969126
13	0x3f0d5cec	0.5521991
14	0x3f22fef2	0.63670266
15	0xbe8a467a	-0.27006894
16	0x3ee7edef	0.45298716
17	0x3d4f4f2c	0.050612614
18	0xbf86dc51	-1.0535985
19	0xbddd973b	-0.108198605
20	0xbf449a89	-0.767983
21	0xbba5ee38	-0.0050637983
22	0x3ebc26fe	0.367485
23	0x3f5baf48	0.8581433
24	0x3eb6ed79	0.35728052
25	0x3eb231cd	0.3480362
26	0x3eb3e74e	0.3513741
27	0xbebe4f2c	-0.37169778
28	0x3ee872f2	0.45400196
29	0x3ee662fc	0.44997394
30	0x3ea6f232	0.32606655
31	0xbe31fc5f	-0.17381428
32	0x3fa9f791	1.3278676
33	0xbe7a48d2	-0.24441841
34	0x3e66ef16	0.22552142
35	0x3dcfb103	0.10141184
36	0x3e05dcf6	0.13072571
37	0xbd900d33	-0.070337676
38	0xbf413105	-0.7546542
39	0x3ef98257	0.48732254
40	0x3de86057	0.113465
41	0x3f25a690	0.6470728
42	0xbe6837b6	-0.22677502
43	0xbcca2771	-0.02467701
44	0x3d33790b	0.043816607
45	0xbe2d237d	-0.16908069
46	0xbdd638de	-0.10460065
47	0x3e8fe4d8	0.2810428
48	0x3f81963a	1.012397
49	0x3d6e6e07	0.0582104
50	0x3d0dccb0	0.034619033
51	0x3efe4c69	0.4966767
52	0x3e8b7226	0.27235526
53	0xbb9b1e22	-0.0047338167
54	0xbf4886e9	-0.78330857
55	0xbf003fdc	-0.5009744
56	0xbeca3709	-0.39495113
57	0xbe99a032	-0.30005032
58	0x3e5c27e5	0.21499594
59	0x3f24b5a0	0.6433964
60	0xbe4f3b35	-0.2023743
61	0x3b075079	0.002064733
62	0x3f2c2c76	0.6725534
63	0xbe88b5f8	-0.2670133
64	0x3fbcefb8	1.4760656
65	0xbeac67d9	-0.3367298
66	0xbf3ceb0d	-0.7379616
67	0xbdfe4ecd	-0.12417374
68	0x3f7800c0	0.96876144
69	0x3d61cf18	0.05512914
70	0x3ed16d0f	0.40903518
71	0x3cb58b4e	0.022161152
72	0x3dc4c9f2	0.096088305
73	0x3e0dcbdd	0.13847299
74	0xbdc040ee	-0.09387384
75	0x3f6ff2aa	0.9372965
76	0xbc9d1d00	-0.019178867
77	0xbec905fe	-0.39262384
78	0xbdf43f37	-0.1192612
79	0x3eda4ec3	0.42638215
80	0xbcf3e090	-0.029770166
81	0x3ecf643e	0.40506166
82	0x3f007c2d	0.5018948
83	0xbd4e9e91	-0.05044419
84	0x3f685a47	0.9076275
85	0x3f263125	0.6491874
86	0x3e7e6ef2	0.2484701
87	0x3d73180f	0.059349116
88	0x3f194366	0.59868467
89	0x3dd3230a	0.103094175
90	0xbe45e2e6	-0.19324836
91	0x3f6b86db	0.9200265
92	0x3f469067	0.7756409
93	0x3eb98a93	0.36238536
94	0xbe275964	-0.16342694
95	0x3e9c9f87	0.3059046
96	0x3e8f4703	0.27983865
97	0x3e7d4521	0.24733402
98	0x3e471ef3	0.194454
99	0xbefeaeec	-0.4974283
100	0x3e0e2944	0.13882929
101	0x3f8999e5	1.075009
102	0x3f8edf8e	1.1161973
103	0xbc310c27	-0.01080612
104	0x3efb7911	0.49115804
105	0x3e24ec26	0.16105708
106	0x3e570899	0.20999373
107	0x3d96cae4	0.07362917
108	0x3f76facc	0.96476436
109	0xbc09595b	-0.00838312
110	0xbf126595	-0.5718625
111	0x3f51e1cb	0.8198516
112	0x3f48239f	0.78179353
113	0xbf25678e	-0.64611137
114	0x3e8ad4c9	0.27115467
115	0xbd58e944	-0.052956834
116	0x3ebe1c59	0.37131003
117	0xbf876a0f	-1.0579242
118	0x3f1ae846	0.6051067
119	0x3f1f96cb	0.62339467
120	0xbdb367fa	-0.08760066
121	0xbb932f1c	-0.0044917
122	0x3e411a40	0.1885767
123	0xbd1fc8fc	-0.039010033
124	0xbf314a88	-0.6925435
125	0xbf47924f	-0.77957624
126	0x3e836940	0.25666237
127	0xbf654274	-0.89554524
128	0xbe63f210	-0.22260308
129	0xbddc6010	-0.1076051
130	0xbf247189	-0.6423574
131	0xbe86f317	-0.26357338
132	0xbff390a3	-1.9028515
133	0xbe6b34ee	-0.2296941
134	0x3ecab7c9	0.39593342
135	0x3fb2fe1e	1.39838
136	0xbdc27ef8	-0.094968736
137	0xbe319b18	-0.1734432
138	0xbebd9f22	-0.3703547
139	0xbfb9d62d	-1.4518486
140	0x3ec8d966	0.39228362
141	0xbed295c0	-0.41129875
142	0xbdc3226a	-0.09528048
143	0x3e8f53f1	0.2799373
144	0x3f814c0b	1.0101331
145	0x3ddb24b7	0.10700362
146	0x3e18801c	0.1489262
147	0xbeb21d8f	-0.34788176
148	0xbea6364e	-0.32463306
149	0xbf1ad8bc	-0.6048696
150	0x3cc43d00	0.023954868
151	0xbc2168fe	-0.009851692
152	0xbf2d2743	-0.67638034
153	0x3f1805d1	0.59383875
154	0x3e93f3b3	0.28896865
155	0xbee51bc8	-0.44747758
156	0xbe167a38	-0.1469506
157	0x3d217819	0.039421175
158	0x3e9b3444	0.30313313
159	0x3f67c479	0.9053417
160	0x3ed85370	0.42251158
161	0xbb39f057	-0.0028372013
162	0x3a490b73	0.00076692476
163	0x3e43487c	0.1907062
164	0xbdd93b8a	-0.10607059
165	0x3efa0ac8	0.4883635
166	0x3dd03ee3	0.10168245
167	0xbe8c48cc	-0.2739929
168	0x3dcdfc85	0.1005793
169	0xbe0d5b99	-0.13804473
170	0x3ef51cc6	0.47873515
171	0xbd3643a4	-0.0444981
172	0x3e82dd36	0.25559396
173	0xbccca2fe	-0.024980064
174	0xbeee6ad5	-0.4656588
175	0xbe5122a3	-0.20423369
176	0x3be0c1fd	0.0068590627
177	0xbe36e5e4	-0.17861134
178	0xbdfb8c13	-0.122825764
179	0xbfb57f9f	-1.4179572
180	0xbdb28eb6	-0.08718626
181	0x3ec293a7	0.38003275
182	0x3f67bff8	0.90527296
183	0xbe00dec7	-0.12584983
184	0xbf44d94a	-0.76894057
185	0x3e97b80b	0.296326
186	0xbe16d283	-0.14728741
187	0xbe08469b	-0.13308184
188	0x3ecd5d94	0.40110457
189	0x3e063b01	0.13108446
190	0xbf967ce1	-1.175686
191	0x3f837a6c	1.0271735
192	0xbe9f78c9	-0.3114684
193	0x3fa5c02e	1.2949274
194	0xbddf06bd	-0.10889957
195	0x3e819e11	0.25315908
196	0xbe8851bd	-0.2662486
197	0x3cd0fdad	0.025511587
198	0xbe023c2d	-0.12718268
199	0xbe764004	-0.24047858
200	0xbf614fec	-0.88012576
201	0xbe1bcbd7	-0.15214477
202	0x3d764bf5	0.060131032
203	0xbdfe415f	-0.12414812
204	0xbe945d53	-0.2897745
205	0xbea63040	-0.32458687
206	0x3f8cab28	1.0989733
207	0x3e8662f2	0.26247364
208	0x3ee59d2c	0.44846475
209	0x3ec034f1	0.3754039
210	0x3f3f3f4f	0.74705976
211	0x3c122a30	0.008921191
212	0xbcc89068	-0.02448292
213	0x3d92fe46	0.07177405
214	0x3f0c45c3	0.5479395
215	0x3c9babac	0.019002758
216	0x3ee43df1	0.44578508
217	0x3f0c4eb1	0.54807574
218	0x3e47ec60	0.19523764
219	0xbeba00ac	-0.36328638
220	0x3ec4d4d9	0.3844364
221	0xbfdaf3cd	-1.7105652
222	0xbdf3053e	-0.11866234
223	0x3e66068e	0.22463438
224	0x3d53a0a4	0.05166687
225	0xbedfcf42	-0.43712813
226	0xbd6369ab	-0.055520695
227	0x3ff1138a	1.8834088
228	0x3cdaf413	0.026727712
229	0xbe0d28e5	-0.13785131
230	0x3f7428e9	0.95374924
231	0xbd87e09f	-0.0663464
232	0x3fa36cd4	1.2767587
233	0x3dbc0606	0.091808364
234	0xbd9b07ba	-0.07569833
235	0xbe17e99e	-0.14835212
236	0xbf260846	-0.64856374
237	0x3e0a0fca	0.13482586
238	0x3ee5e654	0.4490229
239	0xbf30281a	-0.6881119
240	0xbc91707b	-0.01775383
241	0x3e84bfe8	0.25927663
242	0xbd380d7f	-0.044934746
243	0xbf4115ee	-0.7542409
244	0x3f1cff30	0.61326885
245	0xbeeeccac	-0.46640527
246	0x3f3de68e	0.74179924
247	0xbee49c44	-0.4465047
248	0xbf8576d1	-1.0426885
249	0xbf06643b	-0.5249669
250	0xbef24929	-0.47321442
251	0x3f152ff0	0.5827627
252	0xbe359930	-0.17734218
253	0xbe133686	-0.14376268
254	0xbe7bbdfd	-0.24584194
255	0xbe9d3345	-0.30703178

stage2.0.branch2.1.weight f4 [16]
0	0x3f8e161b	1.1100496
1	0x3f739a8e	0.95157707
2	0x3f863d47	1.048745
3	0x3f708d0b	0.93965214
4	0x3fe05094	1.752459
5	0x3fa5ae11	1.2943746
6	0x3f4ee26f	0.8081426
7	0x3f7fefad	0.9997509
8	0x3fd386c8	1.6525507
9	0x3f8fd8ce	1.1238039
10	0x3e9fcf8d	0.31213036
11	0x3fa59b9c	1.2938113
12	0x3fb08f72	1.3793776
13	0x3f8772ef	1.058195
14	0x3fb46abb	1.4095072
15	0x3f97182e	1.1804254

stage2.0.branch2.1.bias f4 [16]
0	0xbf8f32b2	-1.1187346
1	0x3f07cb2f	0.5304441
2	0x3eca00bb	0.39453682
3	0x3ebd15a0	0.3693056
4	0x3e4439eb	0.19162719
5	0xbe36774b	-0.17818944
6	0xbcc4f7ff	-0.024044035
7	0x3fa1d660	1.2643547
8	0x3e8db54f	0.2767739
9	0x3edb53fb	0.4283751
10	0x3f7dea96	0.99186075
11	0x3f61b0ed	0.8816059
12	0xbf21d9d0	-0.6322298
13	0x3e2333f8	0.15937793
14	0xbf93dc7d	-1.1551663
15	0x3f962b98	1.1732054

stage2.0.branch2.3.weight f4 [16, 1, 3, 3]
0	0xbd37a72c	-0.044837162
1	0x3eca0f6b	0.39464888
2	0x3edba228	0.42897153
3	0x3e325d4c	0.17418402
4	0xbeafb70d	-0.34319344
5	0xbf0d8f26	-0.5529655
6	0x3e00ed8b	0.12590615
7	0xbf7069c1	-0.9391137
8	0xbf59f801	-0.8514405
9	0x3ede26cd	0.43388978
10	0x3f1b3361	0.60625273
11	0x3e8db4a7	0.2767689
12	0xbedba26a	-0.4289735
13	0xbe21730b	-0.15766542
14	0x3e1bb53d	0.15205856
15	0xbf1d4bc7	-0.6144375
16	0xbf5b812a	-0.85743964
17	0xbee7226a	-0.45143443
18	0x3bfe70e9	0.007764925
19	0xbe962a6a	-0.29329234
20	0xbf01b260	-0.50662804
21	0xbe42614a	-0.18982425
22	0x3eb26923	0.34845838
23	0x3ee4cc3f	0.44687077
24	0xbed3146c	-0.41226518
25	0x3f50d455	0.8157399
26	0x3f5d85a6	0.86532056
27	0xbdf8a4db	-0.12140819
28	0xbe218185	-0.15772064
29	0xbe652f82	-0.22381404
30	0x3d1d3181	0.03837729
31	0x3eaa68f6	0.33283204
32	0x3f186e0f	0.59542936
33	0xbd00e1b2	-0.03146524
34	0x3ee6be34	0.45066988
35	0x3f519a6e	0.81876266
36	0xbc252c0d	-0.010081303
37	0x3eb01bd2	0.34396225
38	0x3ea432f6	0.3207013
39	0x3db69679	0.08915419
40	0xbebc4424	-0.36770737
41	0xbf5c6179	-0.8608623
42	0xbe5cd605	-0.21566017
43	0xbf24676b	-0.64220303
44	0xbfb969ef	-1.4485453
45	0xbdc9646f	-0.09833609
46	0x3d21a1b5	0.039460856
47	0xbf1480ae	-0.5800885
48	0xbe1bee0c	-0.15227526
49	0xbf3f947f	-0.7483596
50	0xbf87e946	-1.0618064
51	0x3e153a3c	0.14572996
52	0xbd5d9d96	-0.054105364
53	0xbe8550cf	-0.26038215
54	0xbe9b4405	-0.30325332
55	0x3dfc5d63	0.123224996
56	0x3f2e94e3	0.68195933
57	0x3eb505d6	0.35356015
58	0xbd85cd2a	-0.065332726
59	0xbeef28a1	-0.46710685
60	0x3f45c134	0.7724793
61	0xbe99983f	-0.29998967
62	0xbfc945a5	-1.5724379
63	0xbd48f3f4	-0.049060777
64	0x3e3ae0cd	0.18249817
65	0xbea804f6	-0.32816285
66	0xbe5bfffe	-0.21484372
67	0xbf014824	-0.505007
68	0xbee990d8	-0.4561832
69	0xbeec5c24	-0.46164048
70	0xbf4ce221	-0.80032545
71	0xbf0be822	-0.5465108
72	0xbe4ac245	-0.1980067
73	0x3e5d1fc5	0.2159415
74	0x3edb86fa	0.42876416
75	0xbe324eae	-0.17412826
76	0x3f15dbe2	0.5853864
77	0x3f749c85	0.9555133
78	0x3e3327d6	0.17495665
79	0x3f18f08e	0.5974206
80	0x3f611930	0.8792906
81	0xbe38d4fd	-0.18049999
82	0x3d6793fd	0.056537617
83	0xbe075265	-0.13215025
84	0xbe653f19	-0.22387351
85	0x3f019553	0.50618476
86	0x3f0f01ef	0.55862325
87	0xbbc8a1fb	-0.006122825
88	0x3f293122	0.66090596
89	0x3f87c8ad	1.0608116
90	0x3f4198a0	0.7562351
91	0x3e375e8b	0.17907159
92	0x3e83b17a	0.2572134
93	0x3f28618e	0.65773857
94	0xbea815d7	-0.32829162
95	0xbe5df6d7	-0.21676193
96	0x3f2c3b8f	0.6727838
97	0xbed3eee1	-0.41393188
98	0xbe49b2c9	-0.19697107
99	0xbd4e756b	-0.050404947
100	0xbe1ed697	-0.15511547
101	0xbf2276c7	-0.6346249
102	0xbedf8aa6	-0.43660468
103	0x3e71d996	0.23618159
104	0x3eacfa77	0.3378484
105	0xbebc97c0	-0.36834526
106	0x3f90e6b2	1.1320403
107	0x3fe2f9df	1.7732505
108	0x3d3de930	0.046364963
109	0xbe30da31	-0.17270733
110	0xbf76edcc	-0.964566
111	0xbe82dc03	-0.2555848
112	0x3e959c68	0.2922089
113	0x3ee5f5bc	0.44914043
114	0xbed6902a	-0.41906863
115	0x3f137dd1	0.57613856
116	0x3fcacaae	1.5843103
117	0x3e4e8401	0.20167543
118	0x3f1070fe	0.5642241
119	0x3eb2a361	0.34890273
120	0xbee7a860	-0.45245647
121	0xbe63cf17	-0.22246967
122	0xbd141b35	-0.03615876
123	0xbecedfbf	-0.4040508
124	0xbf80b4c1	-1.0055162
125	0xbf7c7bf8	-0.9862666
126	0xbe261492	-0.16218784
127	0x3e58ee40	0.21184635
128	0x3f59507a	0.8488842
129	0x3eaae546	0.33378047
130	0xbec21964	-0.37909997
131	0xbf0d4b67	-0.5519318
132	0x3f55bb92	0.83489335
133	0xbf122a60	-0.5709591
134	0xbfb8064a	-1.4376919
135	0xbe12c1e4	-0.14331776
136	0xbe5128f7	-0.20425783
137	0xbf0eb0c7	-0.5573849
138	0xbe515c68	-0.20445406
139	0x3e594749	0.212186
140	0x3f26821b	0.65042275
141	0xbca6dd75	-0.02036927
142	0x3f15be16	0.58493173
143	0x3fb4cac0	1.4124374

stage2.0.branch2.4.weight f4 [16]
0	0x3fb14404	1.3848882
1	0x3f93bb9d	1.154163
2	0x3fa1488d	1.2600266
3	0x3fbf0353	1.492289
4	0x3f3a3058	0.72730017
5	0x3f96ff6b	1.1796697
6	0x3fb9cd37	1.4515752
7	0x3f8c47fc	1.0959468
8	0x3fb3d133	1.4048218
9	0x3f9193ac	1.1373191
10	0x3f85a938	1.0442266
11	0x3fa95315	1.322848
12	0x3fbae5c2	1.4601367
13	0x3fa2b210	1.271059
14	0x3faaeb4a	1.3353055
15	0x3f9eef0d	1.2416703

stage2.0.branch2.4.bias f4 [16]
0	0xbd1de238	-0.038545817
1	0x3d833a76	0.06407635
2	0xbf85a55c	-1.0441089
3	0xbfb98e1d	-1.4496495
4	0x3f437d78	0.76363325
5	0x3ee6a8a5	0.4505054
6	0xbd51db6c	-0.051234648
7	0x3f45869e	0.77158535
8	0xbeaf7e97	-0.34276268
9	0xbf3402d5	-0.7031682
10	0xbf0a3933	-0.5399353
11	0xbeaf701a	-0.34265214
12	0xbc87590b	-0.016521951
13	0x3f84ab2b	1.0364736
14	0x3f6efdb4	0.9335587
15	0xbe4c9b0d	-0.19981022

stage2.0.branch2.5.weight f4 [16, 16, 1, 1]
0	0x3e8d2d58	0.27573657
1	0x3ee6a2f8	0.4504621
2	0x3f4a2f56	0.7897848
3	0x3f59e39a	0.8511292
4	0xbe98741e	-0.2977609
5	0xbd34cda4	-0.044141427
6	0x3f9c9917	1.2234219
7	0xbf3b4279	-0.73148304
8	0x3cb8839f	0.0225237
9	0x3d18b86a	0.037285246
10	0xbeed09a2	-0.46296412
11	0xbf54e12b	-0.8315608
12	0xbf436399	-0.7632385
13	0x3e5a02c2	0.21290115
14	0x3f07b9f3	0.5301811
15	0xbe485644	-0.19564158
16	0x3f36713b	0.71266526
17	0xbd72271c	-0.05911933
18	0xbe8b0198	-0.27149653
19	0xbec2ca93	-0.38045177
20	0x3ea445d2	0.3208452
21	0x3e7184d5	0.23585828
22	0x3f0efbdc	0.55853057
23	0xbe0d8931	-0.13821866
24	0xbedb13f1	-0.42788652
25	0xbf34748d	-0.7049034
26	0xbf50c09d	-0.81543905
27	0xbf04d732	-0.5189086
28	0xbe03bd79	-0.12865247
29	0x3ecd5959	0.4010723
30	0x3ea5159c	0.3224305
31	0x3eae8cb1	0.34091714
32	0x3da395eb	0.07987579
33	0x3e84ddad	0.25950375
34	0x3f3b5bc8	0.7318692
35	0xbe329b00	-0.1744194
36	0xbf2a22f3	-0.6645958
37	0x3f36458a	0.7119986
38	0x3e91abf0	0.2845149
39	0xbf774900	-0.96595764
40	0xbe89c422	-0.2690745
41	0x3e5edb95	0.21763451
42	0xbe6c87ce	-0.2309868
43	0x3ec476dc	0.38371933
44	0x3e376aae	0.17911789
45	0xbeda15dd	-0.42594805
46	0x3da47e86	0.08031945
47	0x3e361f70	0.1778543
48	0xbf940876	-1.1565082
49	0x3da3e06e	0.08001791
50	0x3c771826	0.015081441
51	0xbf024d9e	-0.50899684
52	0x3e5c8345	0.2153445
53	0xbeada4ee	-0.33914894
54	0xbe1cd06e	-0.15313885
55	0x3f39033d	0.72270566
56	0xbe62736e	-0.22114345
57	0xbf69483e	-0.9112586
58	0xbe9a2817	-0.3010871
59	0xbe57aef9	-0.2106284
60	0x3e8b08f3	0.27155265
61	0x3e16d469	0.14729466
62	0x3e622f2f	0.22088312
63	0xbf13a362	-0.5767118
64	0x3f1380e3	0.5761854
65	0x3e8fb021	0.28064063
66	0xbf497fb1	-0.78710467
67	0xbf79acdf	-0.97529405
68	0x3df541c0	0.119754314
69	0x3e0db057	0.138368
70	0x3d8a5f1b	0.06756421
71	0xbe874c5f	-0.26425454
72	0x3cdea0a7	0.027176214
73	0x3ea8a156	0.3293559
74	0xbec70c4e	-0.38876575
75	0x3f6cb483	0.9246294
76	0xbf274858	-0.6534476
77	0xbe055069	-0.13018955
78	0x3f079825	0.5296653
79	0x3eeaf9e0	0.45893764
80	0x3d75943d	0.059955824
81	0x3e15d1b3	0.14630775
82	0x3ec7ccd4	0.3902346
83	0xbf1494f5	-0.5803979
84	0x3f875abd	1.0574566
85	0x3fb047d6	1.3771923
86	0x3f136372	0.57573617
87	0x3f082b03	0.5319063
88	0x3e8588f9	0.26081064
89	0x3f84f2dc	1.0386615
90	0xbea7a6b3	-0.3274437
91	0x3de3467c	0.11097428
92	0xbe3d71c3	-0.18500428
93	0xbd90bd1f	-0.07067322
94	0x3ea051c0	0.3131237
95	0xbee871db	-0.45399365
96	0x3ef3bb2d	0.4760374
97	0xbbb3079f	-0.005463555
98	0xbbb010c8	-0.005373094
99	0x3eaa4162	0.33253008
100	0x3f0849ff	0.5323791
101	0x3e1a22bb	0.15052311
102	0x3f1c869f	0.61142915
103	0xbeae53a3	-0.34048185
104	0xbf28b3fc	-0.65899634
105	0xbec86b92	-0.3914457
106	0xbea66232	-0.32496792
107	0xbf53fd5c	-0.8280847
108	0x3f40d71b	0.75328225
109	0xbecef288	-0.40419412
110	0xbfac462a	-1.3458912
111	0xbf0c8e24	-0.5490439
112	0x3ea0f70c	0.31438482
113	0xbf8304dd	-1.0235859
114	0xbde42ac0	-0.111409664
115	0xbee1872b	-0.44048437
116	0x3e743375	0.23847754
117	0x3e61eb5a	0.22062436
118	0x3d277699	0.040884588
119	0xbefaabc1	-0.48959163
120	0x3fb27341	1.3941423
121	0xbe6a3806	-0.22872934
122	0xbef05b99	-0.46944883
123	0xbf4b9974	-0.79531026
124	0xbc0f70d2	-0.008754926
125	0xbe8503d5	-0.25979486
126	0x3ea43c25	0.32077137
127	0xbebac585	-0.3647882
128	0xbe5601aa	-0.20899072
129	0x3e0898c9	0.13339533
130	0xbc0521c5	-0.008125727
131	0xbf510bdd	-0.81658727
132	0xbc88112b	-0.016609749
133	0xbecb6b6c	-0.39730394
134	0xbf0960e4	-0.5366347
135	0xbf0c8dd3	-0.54903907
136	0xbf05fc7c	-0.52338386
137	0xbe38fdf2	-0.18065622
138	0x3dc2785d	0.09495614
139	0xbe7110f3	-0.23541622
140	0xbf7d54b3	-0.98957366
141	0xbf7e3172	-0.992942
142	0xbec5ff8b	-0.38671526
143	0x3ef1e375	0.47243848
144	0x3ed41d0e	0.41428417
145	0xbdfef1f3	-0.12448492
146	0x3f647d8b	0.89254063
147	0x3f0eb54e	0.557454
148	0xbe8f8cdf	-0.28037164
149	0xbeb039e2	-0.3441916
150	0x3e13e7b0	0.1444385
151	0xbefe0efe	-0.49620813
152	0xbeb933ea	-0.3617242
153	0x3efc63e3	0.49294958
154	0x3e6997c7	0.22811805
155	0xbd99f993	-0.07518306
156	0xbd0d03c6	-0.034427427
157	0xbe956b0c	-0.29183233
158	0xbeb8b099	-0.36072233
159	0xbf1944ea	-0.5987078
160	0xbf185d16	-0.5951704
161	0xbe033f67	-0.12817155
162	0xbec0573e	-0.3756656
163	0x3d78e964	0.060769454
164	0xbe160c31	-0.14653088
165	0xbde8de46	-0.1137052
166	0xbe254d09	-0.16142668
167	0x3e874690	0.26421022
168	0x3e67861a	0.2260975
169	0x3ec15519	0.37760237
170	0x3eb8f28a	0.36122543
171	0x3f170f27	0.59007496
172	0x3f2c61b3	0.6733658
173	0x3ea94d71	0.33066896
174	0x3e78a7b4	0.24282724
175	0x3d5a6f3f	0.05332875
176	0xbf24d5a3	-0.64388484
177	0xbe05cefd	-0.13067241
178	0x3e0470ae	0.12933609
179	0x3c310d16	0.010806343
180	0xbe046f2b	-0.12933032
181	0x3cb16dee	0.021658864
182	0xbf42a9bd	-0.7604025
183	0xbe6d010c	-0.2314493
184	0x3e63edc2	0.22258666
185	0xbe80b538	-0.2513826
186	0xbdfe5978	-0.124194086
187	0xbf3881ea	-0.72073233
188	0x3d6fdaaa	0.058558144
189	0xbdef4d09	-0.11684615
190	0xbf60315c	-0.87575316
191	0xbf152650	-0.58261585
192	0xbac451a1	-0.0014977941
193	0xbf611c12	-0.87933457
194	0x3ea352e2	0.31899172
195	0xbf07ad50	-0.5299883
196	0x3eb17867	0.34662172
197	0xbede3a51	-0.43403867
198	0xbe844aac	-0.2583822
199	0xbe12020b	-0.14258592
200	0xbebf8929	-0.37409332
201	0x3e20be21	0.15697528
202	0x3ecde978	0.40217185
203	0x3e5d624b	0.21619527
204	0x3ef3f9af	0.4765143
205	0x3f793476	0.97345674
206	0xbdeba2b6	-0.11505644
207	0xbed118ee	-0.40839332
208	0x3ef07626	0.4696514
209	0x3ecdf638	0.40226912
210	0x3dd3872a	0.10328515
211	0xbd22139e	-0.03956949
212	0x3e3b7476	0.18306145
213	0xbeeee138	-0.46656203
214	0x3e7f0273	0.24903278
215	0xbe39b636	-0.18135914
216	0xbf40e02a	-0.7534205
217	0x3ef579c5	0.47944465
218	0xbd92604d	-0.07147274
219	0xbdbdc357	-0.09265774
220	0x3f3136b4	0.69224095
221	0xbecf1e32	-0.40452725
222	0x3f0cb1e7	0.5495896
223	0x3f1fe2d8	0.6245551
224	0x3e7df05d	0.24798723
225	0xbd518a41	-0.05115724
226	0xbd113dc4	-0.035459295
227	0x3a07d9c7	0.00051822927
228	0x3e467762	0.19381478
229	0x3cd03c55	0.025419394
230	0x3f379e3c	0.7172582
231	0x3e3681a2	0.17822888
232	0x3e5034e9	0.20332684
233	0x3e8ffe67	0.2812378
234	0x3d9132e6	0.07089786
235	0xbefa780a	-0.48919708
236	0x3da402a5	0.08008317
237	0xbf47d663	-0.78061503
238	0x3e978d95	0.29600206
239	0xbcbf6a02	-0.023365978
240	0x3e130df2	0.14360788
241	0x3ed22eab	0.4105123
242	0x3dc6d044	0.09707692
243	0xbee7f48e	-0.45303768
244	0x3ef5cecb	0.48009333
245	0xbd1f0ec6	-0.03883245
246	0xbe7d6469	-0.24745335
247	0x3dc811ca	0.09769018
248	0x3e6fa8e2	0.23404267
249	0x3eae5b0b	0.34053835
250	0x3f51a709	0.818955
251	0x3f0c4f70	0.5480871
252	0x3f14af6f	0.5808019
253	0xbf50a732	-0.8150512
254	0xbe4a272d	-0.19741507
255	0xbf1ec513	-0.6201946

stage2.0.branch2.6.weight f4 [16]
0	0x3fce0392	1.609484
1	0x3fb8c0ba	1.4433815
2	0x3fdf9409	1.7467052
3	0x3faae1da	1.3350174
4	0x3fb6b8b6	1.4275119
5	0x3faffe5b	1.3749498
6	0x3fd46e50	1.6596165
7	0x3fa543e1	1.291134
8	0x3f162f70	0.58666134
9	0x3f73b47e	0.95197284
10	0x3f84a20d	1.0361954
11	0x3f7a92f4	0.9788048
12	0x3f5f81c8	0.87307405
13	0x3f371468	0.7151551
14	0x3f34f969	0.7069307
15	0x3f563c6d	0.8368595

stage2.0.branch2.6.bias f4 [16]
0	0xbe5e470f	-0.21706794
1	0x3f08fd5f	0.53511614
2	0x3d32b8b0	0.043633163
3	0x3e924fab	0.28576407
4	0xbcfda314	-0.03096155
5	0x3f99e6f0	1.2023602
6	0x3f25c7d4	0.6475804
7	0x3c880129	0.016602116
8	0x3f387b8b	0.7206351
9	0xbd96502c	-0.0733951
10	0xbf26e7b2	-0.6519729
11	0xbe1a417a	-0.1506404
12	0x3f47dc52	0.7807056
13	0x3efe6628	0.49687314
14	0x3ef15f67	0.471431
15	0x3f108b8b	0.56462926

stage2.1.branch2.0.weight f4 [16, 16, 1, 1]
0	0xbdee83ed	-0.116462566
1	0xbeb86cbf	-0.36020467
2	0x3fb3e083	1.405289
3	0x3eabb7ad	0.3353857
4	0xbde853f2	-0.11344136
5	0xbca290e7	-0.019844485
6	0xbe826f11	-0.25475362
7	0x3e0895ca	0.1333839
8	0xbee49e68	-0.44652104
9	0x3d4d1a3d	0.05007385
10	0xbfe815bd	-1.8131634
11	0xbe2d6795	-0.16934045
12	0x3faba4fd	1.3409725
13	0x3dfdd99e	0.12395023
14	0x3e9d72b7	0.30751583
15	0x3dd1d0ba	0.102448896
16	0xbf6d29b9	-0.9264179
17	0x3f13d382	0.5774461
18	0xbedbdcb4	-0.4294182
19	0xbecdb2bd	-0.4017543
20	0xbe2af7df	-0.16696118
21	0x3f2b9c61	0.6703549
22	0x3e19af66	0.15008315
23	0x3f26332a	0.6492182
24	0x3ed25cdf	0.4108648
25	0x3d81798a	0.0632201
26	0x3a662dcb	0.00087806274
27	0xbebfc14b	-0.37452158
28	0xbe3fb6d1	-0.18722083
29	0xbe6add00	-0.22935867
30	0x3d88d82c	0.066818565
31	0x3de3d474	0.111245066
32	0xbe83a834	-0.25714266
33	0x3ef8fb40	0.4862919
34	0x3d6ae9d2	0.057351895
35	0x3eb76b2a	0.35823947
36	0xbe4f3a77	-0.20237146
37	0x3f0e6de7	0.5563645
38	0x3f8a0bfe	1.078491
39	0x3e55661f	0.20839737
40	0xbee9e0a0	-0.45679188
41	0xbd3e1faa	-0.046416916
42	0x3e63c141	0.2224169
43	0xbef88e17	-0.48545906
44	0xbdffcf3e	-0.124907
45	0xbdc38eec	-0.095487446
46	0xbef4f680	-0.47844315
47	0xbeef2e14	-0.46714842
48	0xbeb54ec7	-0.35411665
49	0xbe9a0429	-0.300813
50	0xbf2a0a44	-0.66421914
51	0xbdbf4b66	-0.09340553
52	0x3dc4beca	0.096067026
53	0x3e8d25cf	0.27567908
54	0x3e9afa49	0.30269077
55	0x3effdf50	0.4997506
56	0x3f0ca0c0	0.54932785
57	0x3f90f4a3	1.1324657
58	0xbe584c26	-0.21122798
59	0x3d383b83	0.04497863
60	0x3f033d82	0.5126573
61	0xbef654ec	-0.48111665
62	0x3f0021ef	0.5005178
63	0x3e42d9f0	0.19028449
64	0xbe372a91	-0.17887332
65	0xbe476238	-0.19471061
66	0xbe055eb5	-0.13024409
67	0xbd592644	-0.05301501
68	0xbce863ea	-0.028367955
69	0xbd9db3f3	-0.07700338
70	0xbddf9ba2	-0.109183565
71	0x3d260a91	0.04053742
72	0xbcfb3b34	-0.030667879
73	0xbc7c6d8d	-0.015406978
74	0x3e0e9d4c	0.13927191
75	0xbd7487df	-0.05969989
76	0xbd8a75fb	-0.06760784
77	0xbd92ed67	-0.07174187
78	0x3d7e9305	0.062151928
79	0xbd117d19	-0.035519693
80	0xbe387b02	-0.18015674
81	0xbe4783d1	-0.19483878
82	0xbe05f2ae	-0.13080856
83	0xbd5bbe78	-0.053648442
84	0xbceaa870	-0.02864477
85	0xbd9d0887	-0.07667642
86	0xbddfc6b9	-0.10926575
87	0x3d224ee8	0.039626032
88	0xbcfbc610	-0.030734092
89	0xbc7fe820	-0.015619308
90	0x3e0f0e7d	0.1397037
91	0xbd75ef94	-0.060042933
92	0xbd89d45e	-0.06729959
93	0xbd937701	-0.072004326
94	0x3d7ea80d	0.062171984
95	0xbd0d0a2c	-0.03443353
96	0xbd752142	-0.05984617
97	0xbde0419b	-0.10950013
98	0xbe1b9fea	-0.15197721
99	0xbe94b153	-0.29041538
100	0x3c56c71d	0.013108996
101	0x3ec978e0	0.39350033
102	0x3e9aa137	0.30201122
103	0x3ef2d91f	0.47431275
104	0x3f429d46	0.7602123
105	0x3f4f6c7a	0.810249
106	0xbf58c790	-0.8467951
107	0x3e31216e	0.17297909
108	0x3f3dda14	0.74160886
109	0xbf172448	-0.59039736
110	0x3ed0f057	0.40808365
111	0xbea2e315	-0.31813875
112	0xbe398a17	-0.18119083
113	0xbe48df73	-0.19616489
114	0xbe07fa7a	-0.13279143
115	0xbd5f89a7	-0.054574635
116	0xbcf5bb6b	-0.029996594
117	0xbd9d8cbe	-0.0769286
118	0xbde29f37	-0.11065524
119	0x3d250af5	0.040293653
120	0xbcf0ffba	-0.029418815
121	0xbc6bf9dc	-0.014402833
122	0x3e0fb373	0.14033298
123	0xbd790d56	-0.060803734
124	0xbd854178	-0.06506628
125	0xbd92265e	-0.07136224
126	0x3d7c1c46	0.0615504
127	0xbd1295d7	-0.03578743
128	0xbdaefc19	-0.085441776
129	0xbec3bae1	-0.38228515
130	0xbde54cfa	-0.11196323
131	0xbe6892fc	-0.2271232
132	0xbe4b5a52	-0.19858673
133	0x3e2aec93	0.16691808
134	0xbd94c1ec	-0.0726355
135	0xbe45830b	-0.1928827
136	0xbe802019	-0.2502449
137	0xbe5a34b6	-0.2130917
138	0xbf3d8ac1	-0.74039847
139	0xbe0260e1	-0.12732269
140	0xbcdd1010	-0.026985198
141	0xbd392bd2	-0.045207806
142	0x3c8cd6bb	0.017192235
143	0xbe55e221	-0.20887043
144	0x3db4510b	0.0880452
145	0x3ee0db17	0.43917152
146	0x3f12724e	0.57205665
147	0x3f046367	0.51714176
148	0x3f92eab7	1.1477879
149	0xbe4bc661	-0.19899894
150	0x3e621a62	0.22080377
151	0xbc238270	-0.009979829
152	0xbc66c434	-0.014084864
153	0xbf3db3f4	-0.7410271
154	0xbe39a828	-0.18130553
155	0x3ed54e6d	0.41661397
156	0xbe843fb9	-0.25829867
157	0x3ee16bc5	0.44027534
158	0xbe5f5b6f	-0.21812223
159	0x3f04178c	0.5159843
160	0x3f3197ae	0.6937207
161	0x3f67ece8	0.90595865
162	0x3dab6b09	0.08370025
163	0x3f16d3e5	0.58917075
164	0xbf589207	-0.8459782
165	0xbe890c54	-0.26767218
166	0x3e9d1c69	0.30685738
167	0xbeae7e7a	-0.3408087
168	0xbe0e508b	-0.13897912
169	0x3eb4d392	0.35317665
170	0xbdaf3c46	-0.08556418
171	0x3f4796aa	0.7796427
172	0xbde3a7fd	-0.111160256
173	0xbda0f709	-0.07859618
174	0xbf37e6fe	-0.7183684
175	0x3e9c8eac	0.305776
176	0x3f8e998c	1.1140609
177	0xbed9da4b	-0.42549357
178	0xbe34463c	-0.17604917
179	0x3f7c4d27	0.98555225
180	0xbe3f0996	-0.18656
181	0xbea232c4	-0.31679356
182	0x3e7f909c	0.24957508
183	0xbe608754	-0.21926624
184	0x3e0fd07a	0.14044371
185	0xbf1ac702	-0.6045991
186	0xbd01b03e	-0.03166222
187	0x3e8a11dc	0.2696675
188	0xbd54280a	-0.051795997
189	0xbd6ef831	-0.058342163
190	0xbe0179d7	-0.12644134
191	0xbebfec44	-0.37484944
192	0xbe7248fb	-0.23660652
193	0xbe170087	-0.14746295
194	0xbe4cfad8	-0.20017564
195	0xbe812303	-0.25222024
196	0x3e22385e	0.15841815
197	0xbe2c792e	-0.16843101
198	0x3cbbccd6	0.022924822
199	0x3c70aae1	0.014689178
200	0xbea296e8	-0.31755757
201	0xbe82d1ac	-0.25550592
202	0x3fbf9361	1.4966851
203	0xbef9b1f1	-0.4876857
204	0xbe67cd54	-0.2263692
205	0xbd94ba9a	-0.07262154
206	0x3dd4988a	0.10380657
207	0xbe8ff3c0	-0.28115654
208	0x3d8f6706	0.07002072
209	0xbf2e9d08	-0.6820836
210	0xbe062a83	-0.13102154
211	0x3eb680f6	0.35645264
212	0xbd9983f6	-0.07495873
213	0xbe8e11ba	-0.277479
214	0xbf4bb4ee	-0.7957295
215	0x3e732194	0.23743278
216	0x3f08434b	0.5322768
217	0x3d912cef	0.070886485
218	0x3d476834	0.04868336
219	0x3e8db333	0.2767578
220	0x3dd8b2d2	0.10580982
221	0x3ef1991c	0.47187126
222	0x3f950d5f	1.1644706
223	0x3f217aad	0.63077813
224	0xbc3aab28	-0.011393346
225	0xbf5e080f	-0.86731046
226	0xbe7e8d47	-0.2485858
227	0xbf1474a5	-0.57990485
228	0xbed2806d	-0.41113606
229	0xbe969ab9	-0.2941492
230	0xbe1dd0fb	-0.15411751
231	0xbdf5e5ae	-0.120066985
232	0x3f511cdd	0.81684667
233	0xbdd1e6f5	-0.1024913
234	0x3ec1d197	0.37855217
235	0x3f7bab43	0.983082
236	0xbe84ef52	-0.25963837
237	0x3eb73957	0.35785934
238	0x3e75806e	0.23974773
239	0xbec37b8d	-0.381802
240	0x3e8b157e	0.27164835
241	0x3db95142	0.09048702
242	0xbe74fe87	-0.2392522
243	0x3dd92d0c	0.10604295
244	0xbe54bdb3	-0.2077549
245	0x3f35a719	0.70958096
246	0x3f597de2	0.84957707
247	0x3f5fdc45	0.8744548
248	0x3ca4a524	0.020098276
249	0xbe83b60d	-0.2572483
250	0xbcbf6a7e	-0.02336621
251	0xbe073f5a	-0.1320776
252	0x3e844cd9	0.2583988
253	0xbf44b3e5	-0.76837
254	0x3ec978a4	0.39349854
255	0x3faa0335	1.3282229

stage2.1.branch2.1.weight f4 [16]
0	0x3f62b4d1	0.88557154
1	0x3f87b3c1	1.0601732
2	0x3f974188	1.1816874
3	0x3faf608c	1.3701339
4	0x3b5e7be2	0.0033948352
5	0x3b584c64	0.0033004517
6	0x3fa7ff3e	1.3124769
7	0x3ba90db3	0.005159104
8	0x3c4911ea	0.012272337
9	0x3f9d236b	1.2276434
10	0x3f9e16ca	1.2350705
11	0x3f8b1d35	1.0868288
12	0x3f4c9240	0.7991066
13	0x3f8f5f23	1.1200908
14	0x3f85b7ee	1.0446756
15	0x3f95c3cb	1.1700376

stage2.1.branch2.1.bias f4 [16]
0	0x3e9c6738	0.305475
1	0x3f4018ea	0.75038016
2	0x3f3217dc	0.69567657
3	0x3f0875a7	0.53304523
4	0xb9a4d889	-0.0003144185
5	0xb9b33561	-0.0003418131
6	0x3ea9b8a6	0.33148688
7	0xba689ae0	-0.0008873176
8	0x3bb552b5	0.005533541
9	0x3ee5aeba	0.44859868
10	0x3ec00ae2	0.37508303
11	0x3f88b2f8	1.0679617
12	0x3f04b18f	0.5183343
13	0x3f1d009f	0.6132907
14	0x3f987ff2	1.1914046
15	0x3d64e315	0.055880625

stage2.1.branch2.3.weight f4 [16, 1, 3, 3]
0	0x3ea626be	0.32451433
1	0xbed95130	-0.42444754
2	0x3e7f4dc7	0.24932013
3	0x3cc24b16	0.023717444
4	0xbfc8b9b1	-1.5681669
5	0xbf4dcab7	-0.80387443
6	0x3eeb9d7b	0.46018586
7	0xbf22ebab	-0.6364085
8	0x3cecf98a	0.028927583
9	0xbbe61cc1	-0.0070224707
10	0xbdac9714	-0.08427253
11	0xbea9d1de	-0.33167928
12	0x3c04cfe2	0.008106204
13	0xbfb419f8	-1.4070425
14	0x3ec15d9c	0.3776673
15	0x3e5cf59e	0.2157807
16	0x3fb118cb	1.3835691
17	0xbe5d9c9b	-0.21641771
18	0xbe45b525	-0.19307382
19	0xbe841d85	-0.25803772
20	0xbdfb389b	-0.12266656
21	0xbe8aa9c5	-0.2708265
22	0xbfb9bb38	-1.451026
23	0xbd0f5668	-0.034994513
24	0x3f05d45a	0.5227715
25	0x3fb3fb5a	1.4061081
26	0x3ca2a122	0.019852225
27	0x3e1560e8	0.14587748
28	0xbf0d7298	-0.5525298
29	0x3e969638	0.29411483
30	0x3f34ef49	0.7067762
31	0xbf8d9dd8	-1.1063795
32	0xbe58ab3c	-0.2115907
33	0xbee57ee4	-0.44823372
34	0xbf686447	-0.9077801
35	0x3fb7bdec	1.4354835
36	0x3a8e9591	0.0010878314
37	0xb96b878b	-0.0002246184
38	0x39a51a79	0.00031490976
39	0xba48f48a	-0.00076658337
40	0xba6aa26c	-0.00089505943
41	0x3a835dda	0.0010022477
42	0x39dcd6d8	0.0004212174
43	0x39958c7a	0.00028524158
44	0x3a86573c	0.0010249387
45	0xba85abb3	-0.0010198265
46	0x3a07a6ec	0.00051747146
47	0xba221604	-0.000618309
48	0x3a520bb4	0.0008012608
49	0x3a8a9833	0.0010573923
50	0x3a98e4b3	0.0011664837
51	0x3954dfb4	0.00020301231
52	0xb9e4c20d	-0.00043632128
53	0xba63f60c	-0.00086960266
54	0xbeba4f04	-0.3638841
55	0x3d8d9d28	0.06914741
56	0x3dd5e54e	0.10444127
57	0xbd0864e1	-0.03329933
58	0xbfa28d92	-1.2699454
59	0x3fc73648	1.556344
60	0x3e4a3e10	0.19750237
61	0x3e694cb3	0.22783165
62	0xbf80b6ff	-1.0055846
63	0x3b19ee63	0.0023488037
64	0x3a211e4c	0.0006146177
65	0x3aa5863c	0.0012628506
66	0x3b00bb48	0.0019642878
67	0xb912c0d6	-0.00013995482
68	0x3b0cdaf3	0.0021492809
69	0xb93db0eb	-0.00018090352
70	0x3a8bda7d	0.0010669973
71	0x3ab2bf6a	0.0013637368
72	0x398e3bf1	0.0002712901
73	0x3b45bf60	0.0030173883
74	0x3b403530	0.0029328577
75	0x3b3e6b97	0.0029055828
76	0x3b9a04bf	0.004700273
77	0x3b9906b0	0.0046699867
78	0x3b272022	0.002550133
79	0x3bb3769b	0.0054767854
80	0x3b32169d	0.0027174123
81	0x3e81d44e	0.25357288
82	0xbedb5d37	-0.42844555
83	0xbe6cdf31	-0.23132016
84	0x3ea2dba9	0.31808212
85	0x3fa31d29	1.2743274
86	0xbffe95d5	-1.9889475
87	0xbea7bfc6	-0.327635
88	0xbdfe583a	-0.12419172
89	0x3f949128	1.1606798
90	0x3c7fb9c7	0.015608258
91	0x3ef3d7da	0.4762562
92	0xbea26a31	-0.31721643
93	0x3f14d34c	0.58134913
94	0x3d91487f	0.07093906
95	0xbf893472	-1.071913
96	0xbe9eb20f	-0.30995223
97	0xbf99497e	-1.1975553
98	0x3fc9e0dd	1.5771748
99	0x3b9ab9dc	0.004721863
100	0xbe895fc7	-0.26830885
101	0xbe35a619	-0.17739142
102	0x3f469e00	0.7758484
103	0x3f61bc53	0.88177985
104	0x3f62cc7a	0.88593256
105	0xbf859135	-1.0434939
106	0xbf7b6c23	-0.9821188
107	0xbf2e4095	-0.68067294
108	0xbdabfa5d	-0.083973624
109	0xbc41c325	-0.011826311
110	0xbe82ab1a	-0.25521165
111	0xbe0bceaa	-0.13653055
112	0xbf57096c	-0.8399875
113	0xbf1d2d95	-0.6139768
114	0xbe2d6d68	-0.16936266
115	0xbcc1c1ac	-0.02365192
116	0xbe9a6b37	-0.30159923
117	0xbdd5362d	-0.10410724
118	0x3f0db8cf	0.5536012
119	0xbe4045f0	-0.18776679
120	0xbf28f3ae	-0.65996826
121	0x400ba419	2.1818907
122	0xbfa5f283	-1.2964634
123	0xbd6caae8	-0.057780176
124	0x3e76a4f4	0.24086362
125	0xbcd17527	-0.025568558
126	0x3e531d4d	0.20616646
127	0xbdffcdc7	-0.12490421
128	0xbca4142c	-0.02002915
129	0x3e8cba58	0.2748592
130	0x3fcafde5	1.5858732
131	0x3e9865b3	0.2976509
132	0xbf200e8c	-0.62522197
133	0xbfaa0b5a	-1.3284714
134	0xbed0a28e	-0.4074902
135	0xbc09794e	-0.008390738
136	0xbeba07cc	-0.36334074
137	0x3e5ff30b	0.21870057
138	0x3f0b06b6	0.54307115
139	0xbfe64412	-1.7989523
140	0x3f93e721	1.155491
141	0x3e707b66	0.23484573
142	0xbf0382ca	-0.51371443
143	0x3e473fe9	0.19457974

stage2.1.branch2.4.weight f4 [16]
0	0x3fb7dff8	1.4365225
1	0x3fa16af0	1.261076
2	0x3fa824b3	1.31362
3	0x3f8fb20d	1.1226212
4	0x3c532bf2	0.012888895
5	0x3c88cf42	0.01670039
6	0x3faed1ae	1.3657739
7	0x3cb9df91	0.022689613
8	0x3d1c8835	0.038215835
9	0x3fb3db5c	1.4051318
10	0x3fb90c30	1.4456844
11	0x3fae582c	1.3620658
12	0x3fa5704a	1.2924893
13	0x3fa9febb	1.3280863
14	0x3fb46cc9	1.4095699
15	0x3fa34b5d	1.2757374
