independent_train_1000.0/client82/checkpoint_1000.0.pth (torch, 930411 bytes, 56 tensors)

conv1.weight f4 [24, 3, 3, 3]
00000000: 6a1b 193e 7101 d4be 549f aa3e 36e6 8fbf
00000010: 2b52 debf 2766 55bf f756 5bbf 4e77 c3bf
00000020: 6edb 1cbf 6424 823e 7ec4 d43e 0b2e a33e
00000030: c604 da3e 6cd1 313f 2959 103f 6b42 7e3e
00000040: ba32 df3e b7e4 cc3e 8501 18bf 76fe c3bd
00000050: febd 3ebf c22c f73e 5f4c 983f dba9 c33e
00000060: 4cc2 983e 61f4 6d3f 8f4d 623e 9551 a43d
00000070: b679 c13e 603c 083e adcf 74bf 1b86 7b3e
00000080: dd1a 973e f4e0 61bf 088e 15bd 10cf 8c3e
00000090: 5f6f 7cbe 4ecb be3e 02a3 58be 1400 58bf
000000a0: 5d04 403f 409d df3e 1631 58bf c303 df3e
000000b0: 1a41 d83e 171b 92be 0619 b63d 980a 02bf
000000c0: cc3c 00bf a9ef 393f 750f 673e 1d7f edbe
000000d0: 4cc8 1e3f 7b8b ad3e 7bde 013d dffb 71be
000000e0: 8654 913c 3937 e9be 29b2 3bbf 7af3 e4be
000000f0: 6506 87be 6964 0cbf 44cd 94be cbab 773e
00000100: b067 b13e 71ca 8f3e ff6a 493e 4285 af3e
00000110: 64c2 8c3e da23 453e f0cf 993e f9fd 7e3e
00000120: c265 19bd 688a 783e b372 0ebd 2b27 7c3e
00000130: e927 1e3f f4a9 873e d1b7 e93d 1363 dd3e
00000140: 0dd6 ca3d 5125 63be efb4 96bf 1446 14bf
00000150: 48ba 9a3d 7e4c e4bb b2e7 883e c898 e2bb
00000160: a8ec 223f dd5b 023f 54be 7abe 81c0 9abf
00000170: 044b 4cbf c3c5 983e 3551 5e3e 488c 923e
00000180: 99a5 4f3e 8047 623f bf1f 0a3f 676c 51be
00000190: faee 8ebf afcc 41bf d88e 8f3e cc56 c73d
000001a0: eac9 313e 97d1 c73e a7a4 603f de9c 1d3f
000001b0: e1dd 4abf bfc8 2cbf 5b9e 78bf 38c9 a33d
000001c0: 9116 253f 9fb2 1dbe aab9 253f 3966 933f
000001d0: 4747 c93e 1fa4 143e c38d de3e 1d00 5f3c
000001e0: 03f5 cd3e 526b 843f ba1a 633e 6f31 503e
000001f0: 47da 2d3f 4251 323d 2238 0d3f f8d6 303e
00000200: 69a6 4c3f 635f 45bf 1b0c 83bf 4f7d cfbe
00000210: f2d2 79bf 5041 b3bf 3d28 1dbf 3cb8 d5bc
00000220: caea f8be 159e 16bd bcfe 54bd df5d 443e
00000230: 7fea 7a3e b98a 75be 3473 aabe a1ed 79be
00000240: 5a7d 40be cee8 bcbe 375d 83be 80f4 813e
00000250: 1497 653f 6f4a 113f 83f1 8bbd fb41 803e
00000260: 26f0 25bd 52f3 08bf b65e 36bf 3f52 37bf
00000270: d3dc 1a3e 19cd 3a3f 327f a13e eff7 d53d
00000280: 85fe e33e d98d d53d b2b3 243f 489d ce3d
00000290: b506 a2be f631 9e3f 3a09 53be 6341 bfbf
000002a0: f402 1f3e f2de 4fbd c8a3 fabd 0fff 833f
000002b0: b977 273d 0a4d 62bf 619d e63f d34c b3bd
000002c0: ec62 fabf d6c5 203f 46fd 993d df1a e1be
000002d0: c5d5 e43e 55f8 bf3b dff4 f6be bc52 933f
000002e0: eb47 b6bd ae98 bbbf 9688 933e 08c2 a83d
000002f0: 3bf1 5abe c6a2 17bf 4364 bebd 20cd ddbe
00000300: 37fd 67be f30a 4b3e ad01 133e e048 3abe
00000310: 72ba 8cbe 5efe d93e 72f0 8a3e 78b2 643f
00000320: a5cb c13d b570 953e e6f9 563f 138d c43e
00000330: 851f 20bf 4117 1dbf 1782 0cbe 6a6e 8b3e
00000340: 1e5a 3b3f d24f 54bd b23a d53e 4281 493f
00000350: 6b1f 373e 13f2 39bf 073a 52bf 0a36 20bf
00000360: a716 693f 7ad0 ed3f cdb6 9e3f 3915 643d
00000370: 3fc8 1dbe ce97 143c b7d5 4abf 4dcd e8bf
00000380: c084 5cbf 5a26 133f 0f3a b23f 786a 1e3f
00000390: ff5f 123e 1d99 e8bd e561 28be a8ab febe
000003a0: 2726 c1bf 3699 36bf 8062 50be 57d9 293f
000003b0: da2d 0b3c 6c90 033e 8484 563e 5562 dc3d
000003c0: 21a4 42bd bc4f 16bf e538 70bc 9461 b2be
000003d0: 2367 96bd c806 3b3f a33a 033f 0535 7b3e
000003e0: 3b4f f2bf 6c44 02be 08b8 4d3f 487f d6be
000003f0: f601 14bf 37c6 2d3e f3a5 493f e91c 0d3f
0.14951864 -0.4140735 0.33324683 -1.124213 -1.7368826 -0.83359 -0.8567957 -1.5270784
-0.61272323 0.2541839 0.41556162 0.31871065 0.42581767 0.6946018 0.5638605 0.24830024
0.4359339 0.40018246 -0.5937732 -0.09570019 -0.74508655 0.48276335 1.1898307 0.38215527
0.29835737 0.9295102 0.22099899 0.08023373 0.3778817 0.13304281 -0.9562939 0.24562876
0.29512683 -0.88233876 -0.036512405 0.27501726 -0.2465186 0.37264484 -0.21155933 -0.8437512
0.7500666 0.4367466 -0.844499 0.43557557 0.4223717 -0.28536293 0.088914916 -0.50797415
-0.5009277 0.7263132 0.2256449 -0.46386042 0.6202438 0.33895478 0.031706315 -0.23631237
0.0177405 -0.45549944 -0.73318726 -0.44717008 -0.26372066 -0.54840714 -0.29062855 0.24186628
0.3464942 0.28084138 0.19669722 0.34281355 0.27492058 0.19251958 0.30041456 0.2490157
-0.03745056 0.24271548 -0.034777354 0.24624316 0.6177965 0.2649685 0.11412013 0.4323965
0.09904108 -0.22182204 -1.1773967 -0.5791943 0.075550616 -0.0069671264 0.2673927 -0.0069151856
0.6364236 0.5092142 -0.24486667 -1.2089998 -0.79801965 0.2983838 0.21710666 0.2862265
0.20278014 0.8839035 0.5395469 -0.20451508 -1.116668 -0.7570295 0.2803867 0.09733352
0.1736218 0.39027092 0.8775124 0.61567485 -0.7924481 -0.67493814 -0.9711663 0.07997364
0.6448756 -0.1540017 0.64736426 1.1515571 0.39312193 0.14515732 0.4346753 0.013610867
0.40225992 1.0345252 0.22178164 0.20331357 0.6791119 0.043534525 0.55163777 0.17269504
0.7994142 -0.77098674 -1.0238069 -0.4052529 -0.975875 -1.4004307 -0.61389524 -0.026088826
-0.4861663 -0.036771853 -0.052000746 0.19176434 0.24503516 -0.239787 -0.33291018 -0.24407054
-0.18797818 -0.36896366 -0.25657055 0.2538185 0.8968365 0.567542 -0.06833174 0.2505034
-0.040512227 -0.5349628 -0.7123827 -0.7160987 0.151233 0.72969204 0.31542355 0.1044768
0.4453012 0.10427446 0.64336693 0.10088593 -0.31645742 1.2358997 -0.20608988 -1.494183
0.1552847 -0.050749727 -0.1223827 1.0312213 0.04088566 -0.883988 1.8016778 -0.087548874
-1.9561439 0.62801874 0.07519011 -0.43965814 0.44694343 0.005858461 -0.48233697 1.1509624
-0.08900436 -1.4655969 0.28815144 0.082401335 -0.21381085 -0.5923275 -0.09296467 -0.4332056
-0.22655188 0.19828396 0.14356108 -0.18191862 -0.27485996 0.4257688 0.2713657 0.8933482
0.0946267 0.2918755 0.83975065 0.3838888 -0.62548095 -0.6136361 -0.137215 0.27232677
0.7318438 -0.051833935 0.41646343 0.78712857 0.17883079 -0.72635 -0.8211979 -0.6258246
0.9105019 1.8579247 1.2399536 0.055684302 -0.15408419 0.009069396 -0.7923235 -1.8187653
-0.8614006 0.57480395 1.3923968 0.6188121 0.14294432 -0.11357329 -0.16443594 -0.49740338
-1.5089768 -0.7132753 -0.20350075 0.6634726 0.008494819 0.12848061 0.20948988 0.10760943
-0.047519807 -0.58715415 -0.014662002 -0.3484007 -0.073438905 0.7305722 0.5126135 0.24531944
-1.8930429 -0.12721413 0.80358934 -0.41893983 -0.5781549 0.16970144 0.78768843 0.5512224

dense1.0.bn1.weight f4 [24]
00000000: f51e c93e 2cee 6a3f 6e5b 153f b15c 5f3f
00000010: fda0 203f 5f16 893f d627 fd3e 2d70 873f
00000020: 5e89 4d3f af4f e73f f739 f73f aead 003f
00000030: bf96 803f 5ea3 e53e 708e 1b3f 73ab 0b3f
00000040: a6a0 ee3e ce93 c53e 8292 2f3f de2c fc3e
00000050: e177 643f bba0 283f dbbe c43e d028 053f
0.3928143 0.9176967 0.58342636 0.8725081 0.6274565 1.0709952 0.49444455 1.0581108
0.8028773 1.8071193 1.9314564 0.50265014 1.0046004 0.44851202 0.6076422 0.54558486
0.4660694 0.3858933 0.6858293 0.4925298 0.8924542 0.65870255 0.3842686 0.520154

dense1.0.bn1.bias f4 [24]
00000000: 1b79 45be 0408 153f 35d1 c2be 21f6 b03e
00000010: 3e48 913e 6f14 993e c2a3 163f 7bd9 c23e
00000020: 6b2d 183f 1eee 653f d237 8a3f d41d 043d
00000030: f280 863e 64c3 6c3e 8ea6 763e 6fb0 12bf
00000040: eadb 5dbe c31b 45be 71c3 e7be 3f04 4cbe
00000050: 224a 26bf 81e3 0ebf 1665 bd3e d15b 7ebc
-0.1928448 0.58215356 -0.38050237 0.3456278 0.2837543 0.29898402 0.58843625 0.3805655
0.594443 0.89816463 1.0798285 0.03225501 0.26270252 0.2312141 0.24086973 -0.57300466
-0.21665922 -0.19248872 -0.45266297 -0.19923495 -0.6495687 -0.55815893 0.36991185 -0.01552482

dense1.0.conv1.weight f4 [12, 24, 3, 3]
00000000: 6a58 333b 38a9 003e c73a 9ebc 516d c53c
00000010: 1821 203e 6003 c23c 2544 87bd 66af 253d
00000020: fe60 99bd 9f7c 6a3e e4db b73e 6cb5 aa3e
00000030: 8b3e a43d 8504 933e 5477 a33e 7cf9 97be
00000040: 8a21 a8bd ebb0 9abd dae2 bc3c b922 e53d
00000050: 1ad5 45bc 69f6 e13d 7819 353e 737d 633d
00000060: 60bc d93d 62ce 303e 26e4 b73d e165 8e3b
00000070: f581 e73d 59f1 1f3e 6b30 2fbc 1d52 2b3e
00000080: be2e 563e f6f5 eb3d 4a8d 833e cca0 6f3e
00000090: 159c 13bd 9b6a 6dbe 4543 6cbe c517 933e
000000a0: 8365 da3d c45f e53c a77e 183f 3e29 f83e
000000b0: 315e af3e fb37 9d3e 1d96 fb3e 79f1 803e
000000c0: f3f8 163e e693 bd3e 07d7 193e 5a5e 4abe
000000d0: e5a8 263d 47f8 cbbd 7a6d 0c3e c8c9 163e
000000e0: 0c28 853e 448e 763e 5639 713e 52fb 483e
000000f0: 0278 5f3d 9b63 1cbe 2cb2 08be b184 06bf
00000100: c225 5fbe f8ec 43be 08ac 3b3d 8c59 d83e
00000110: 2f0d b83e c656 e43d fb37 043f 3627 c43e
00000120: e2c3 683d dbd6 6e3e bb44 c23d 0125 5f3d
00000130: 2ee0 4f3e 6da0 b83d 97ac 8cbe 6674 49be
00000140: 1571 29be 9af5 143e dedb f43d 8fe6 a1be
00000150: fb9b 043f bf51 fd3e e446 02be 9866 173e
00000160: 0492 e03d e5e6 47be 35ab 8abd 8345 e33d
00000170: b1d6 93bd 9aed c23a 119d 973e 91fb 513d
00000180: 982f 62be 36d8 8c3e ca07 9d3d 0795 d3be
00000190: 7e6f 7cbe a933 093d 2d95 55be 22f1 33bc
000001a0: ca82 673e eb78 463e 0131 db3e bd32 093f
000001b0: 425d 96be ea0c a7be 95fb 65bd 022f c4be
000001c0: ebaf dabe de1a 11be 71c1 4cbe 9ca7 72be
000001d0: 0577 79bc b2a2 3dbe ec52 86be a51b 33bd
000001e0: ac2a 95be 431e cebe 8099 21be e471 00be
000001f0: 9cbc 59be 66b5 c2bc e8e8 1bbe 50e3 58be
00000200: ddfe 83be 8097 07be 37b6 12be 1a57 4ebe
00000210: 3050 84bd 8671 c3bd 5cd8 51be 4405 283b
00000220: 1758 a03b 19de cc3c 4189 d9bd 16a9 c4bd
00000230: abbb 70bd 687e 06be d5e2 d7bd 7f87 a2bd
00000240: 76aa 163c e9d7 c7bd 6b05 933b 4bcb 9abd
00000250: fc5e 6ebe e00a 1dbe 83d3 073d ce3c 10be
00000260: 8a7a b1bd 7c15 9fbd 451d 18bd 86da 0ebe
00000270: f5ee 97bc 649b ce3a ceb1 d0bd 05d2 8bbd
00000280: 0f96 3dbd 3f14 16be 1784 0abd 7862 0fbe
00000290: bd0e e5bd 668e 3ebe dc22 94be 00bb 86be
000002a0: 9bb4 65bd 4027 09be 46bb ccbd 8936 d6bd
000002b0: 6430 96bd 0c7f 8ebc a743 15be 2201 e5bd
000002c0: a2bb 46bd 9974 66bd 9cab 20bd 047b dc3c
000002d0: 4eb9 36bd 3bcf 2eb9 6bd5 0abe e376 adbd
000002e0: b041 80bc 876d 8bbd 4742 e2bd f053 c6bb
000002f0: d2d3 bfbd 202f 02be 16f2 97bd 9920 54be
00000300: 0113 20bd a8f9 903c 33b3 13be da76 47bd
00000310: 21c0 f63b c411 fcbd e754 c1bd 47ed 13be
00000320: 2bd3 74be 3537 eabd 7a7b 32be 6d1c 97be
00000330: bf23 66be 22fe 8ebe ba42 d5be f053 88bd
00000340: e5be 81bd 7a33 413d 13f8 06be b166 07be
00000350: 7098 6bba f09f 573c dfdf ff3c b02a fe3d
00000360: 7728 6fbc a1b9 57bd 89a7 a6bc 3dc0 84bc
00000370: f1b1 d0bd 2d89 4bbd 9926 053e 2d1d a03d
00000380: d4d4 a43d 59cf 91bc 0ffa 453d ea6f 283e
00000390: ef13 43be a147 81bd 0c8f 8e3d 24a1 6739
000003a0: ea2c fbbc 9c84 30be 0ebf 5dbd cddd 5fbd
000003b0: 6e1f b4bc d0c1 92bd 9e8a c2bd 6746 68bd
000003c0: 0564 39b9 8c0b c0bc 496b cc3b 38a8 00bf
000003d0: a052 26bf afd4 b7be 9492 16be e9a7 f53c
000003e0: 2f4f 29bd 7410 e23e 5856 2f3f 7809 333e
000003f0: 9130 31be 0d2d 87be fd5d 06be bb51 403d
0.0027365931 0.12564552 -0.019315137 0.024099978 0.15637624 0.02368325 -0.066047944 0.040450476
-0.07489203 0.22899102 0.3590995 0.3334154 0.080197416 0.28714386 0.31926978 -0.2968253
-0.08209522 -0.07553276 0.02305739 0.111882634 -0.012074733 0.11033327 0.17685497 0.05553956
0.10631633 0.17266229 0.08979063 0.004345641 0.11304084 0.1561941 -0.010692696 0.16730542
0.20916268 0.11521523 0.25693733 0.23401183 -0.036037523 -0.23185198 -0.23072536 0.28729072
0.10663893 0.027999766 0.59568256 0.48468965 0.3425155 0.30706772 0.49137965 0.2518423
0.14743404 0.370269 0.15023433 -0.19762555 0.040688414 -0.099594645 0.13713637 0.14725411
0.26007116 0.24077708 0.23557028 0.19627121 0.054557808 -0.15272371 -0.13349217 -0.5254622
-0.21791747 -0.19133365 0.04581836 0.4225582 0.35947558 0.11149363 0.5164792 0.38311166
0.056827433 0.23324148 0.094857655 0.05447865 0.20300362 0.09014974 -0.27475426 -0.19673309
-0.16547044 0.14546815 0.11955999 -0.31621215 0.5180051 0.4947643 -0.12722355 0.1478523
0.1096535 -0.19521673 -0.067709364 0.11097243 -0.072186835 0.0014871836 0.2961202 0.051265303
-0.22088468 0.27508706 0.07667501 -0.41324636 -0.24651906 0.033496533 -0.20857687 -0.0109827835
0.22608486 0.19382064 0.42810825 0.53593045 -0.29368025 -0.3262704 -0.05614813 -0.38317114
-0.4271234 -0.14170405 -0.19995667 -0.2369675 -0.01522613 -0.18519095 -0.2623514 -0.043727536
-0.2913412 -0.40257463 -0.15781212 -0.12543446 -0.21263355 -0.023768138 -0.15225565 -0.21180463
-0.25780383 -0.13241386 -0.14327322 -0.20150414 -0.06460607 -0.09543137 -0.20492691 0.0025637904
0.0048933136 0.025008248 -0.10621882 -0.09602563 -0.058772724 -0.13134158 -0.10541312 -0.07936
0.0091959145 -0.097579785 0.00448673 -0.07558306 -0.23278421 -0.1533618 0.033160698 -0.14085695
-0.086659506 -0.0776777 -0.03713729 -0.13950548 -0.01854656 0.0015762863 -0.101901636 -0.068271674
-0.046285685 -0.14656161 -0.033817377 -0.14002407 -0.11184452 -0.18609008 -0.28932846 -0.26314545
-0.056080442 -0.13393879 -0.09996657 -0.104596205 -0.073334485 -0.017394565 -0.14576589 -0.11181857
-0.048518784 -0.05626354 -0.03922616 0.026914127 -0.044610314 -0.00016671132 -0.13557975 -0.084699415
-0.015656322 -0.06808 -0.11047798 -0.0060524866 -0.093665734 -0.1271329 -0.07419221 -0.2071556
-0.039080624 0.01769717 -0.14423828 -0.04869733 0.007530228 -0.12308076 -0.09440022 -0.14445983
-0.23908679 -0.11436311 -0.17429915 -0.29513875 -0.22474574 -0.27928263 -0.4165247 -0.06656635
-0.06335238 0.047168233 -0.1318057 -0.13222767 -0.00089872535 0.013160691 0.03123468 0.12410486
-0.01459705 -0.052667264 -0.020343559 -0.016204948 -0.1019019 -0.049691368 0.13003005 0.07818065
0.08048406 -0.017799066 0.048334178 0.16448942 -0.19050573 -0.0631249 0.06960878 0.00022089906
-0.030661065 -0.17238086 -0.054137282 -0.054654885 -0.021987643 -0.07165873 -0.094990954 -0.056707766
-0.00017680235 -0.023443006 0.0062383753 -0.5025668 -0.64969826 -0.35904452 -0.14704353 0.029987292
-0.04133528 0.44153178 0.68491125 0.17484081 -0.17303683 -0.2640156 -0.13121791 0.046952944

dense1.1.bn1.weight f4 [36]
00000000: d370 333f c8e3 ce3e 2abb 8a3e 1719 bc3e
00000010: c4b3 333f d5aa c93e 4807 e33e cf29 973e
00000020: 015e de3e 7f6f f63e b418 b93e 9ec2 893f
00000030: 6540 003e 333c f43d d69f a13e 0a24 473e
00000040: 6ebb 913f aec7 843f db3f 153f 135e 2b3f
00000050: 037d 1c3f 385a 5a3f 0a9a 9c3e 09d0 c43e
00000060: 490f ed3e 918e 3c3f 8951 7a3f c408 963f
00000070: f61b 133f 18f0 473e 58ec 663f cf57 a53f
00000080: 9f75 493f 6c20 0f3f b982 b43e f974 3a3f
0.7009403 0.40408158 0.2709592 0.36737892 0.70196176 0.39388147 0.44341493 0.29524085
0.43431094 0.4813194 0.3615166 1.0762517 0.12524565 0.119255446 0.31567258 0.19447342
1.1385324 1.0373437 0.5830056 0.6694042 0.6112825 0.8529391 0.30586272 0.38439968
0.46300724 0.7365504 0.9778066 1.1721425 0.5746454 0.19525182 0.9020438 1.2917422
0.786951 0.55908847 0.35255983 0.72834736

dense1.1.bn1.bias f4 [36]
00000000: af99 303e fe3e 1ebe 69d7 3bbe ef84 b1be
00000010: 76de af3e 88e7 32be f473 213d 824a ccbd
00000020: 018c 183e ed5a 063d 26dd f03c 99f6 0ebe
00000030: c710 5cbc 103b 4abe 9358 45be b30d 2fbe
00000040: 5795 4dbe c2b7 cc3e e8b4 80be 37b9 d2be
00000050: e064 e4be 1802 10bf 5220 163e 9d2e 5bbe
00000060: 0d0a 90be 76dc 493f 7203 be3e 7ae3 af3c
00000070: 5f8b 79be 2289 1abe bbdb 41be 8fbb 183f
00000080: 1f71 c3bc 4395 43be 94e8 18be 1edd 3c3e
0.17246126 -0.15453717 -0.18343891 -0.34671733 0.34349412 -0.17471135 0.039417222 -0.09975149
0.14897157 0.032801557 0.029402327 -0.13961257 -0.013431734 -0.19749093 -0.1927207 -0.1709507
-0.200765 0.39983946 -0.2513802 -0.41156933 -0.44608212 -0.56253195 0.14660767 -0.214045
-0.28132668 0.7885202 0.37112004 0.021470774 -0.24369572 -0.15091375 -0.18931477 0.5966119
-0.023857651 -0.19099908 -0.14932472 0.18443725

dense1.1.conv1.weight f4 [12, 36, 3, 3]
00000000: 8ec4 eabd 3371 233e 37e2 dc3e 3019 90be
00000010: d8af 41bc 712f 973e e7c3 a8be 70ca 3fbe
00000020: 6a0e ce3d a60c ecbc 57b3 fabc 450e 4fbe
00000030: bc33 aebd e92f a5bc 83e8 13be 5495 1fbd
00000040: c7aa 17bd d477 95bc eae7 94bd afff 0c3d
00000050: f5e2 093e bf95 b6bd 0d09 0c3d 8047 ef3d
00000060: c47d 82bd f566 ac3c 4351 d93d 019f 70bd
00000070: bfb4 aabb c301 883d bcfd ff3c 895d afbc
00000080: fc56 8e3d 069d e33d fc5b 183d 1438 f63d
00000090: 49e2 0bbe 34da e63e 4cbb 7b3e a9aa 42be
000000a0: aaa4 943e 9639 c63d 5fe3 36be a1d7 39bd
000000b0: de08 37be 536d f1bc f594 15bc 122e 003c
000000c0: 020a 0dbd 75f8 29bd 0b7a a2bb 83b0 c0bb
000000d0: fe2e d2bc e6e6 013d 3ec9 18be fea7 35be
000000e0: d749 d6be 3df8 29be bb91 79bd e5f3 09be
000000f0: 7e92 9e3c 292e 053e 8a23 c0be d902 193d
00000100: 109c 783d 0b10 4ebc ec67 91bc 01cb 1a3d
00000110: 10a3 5fbd 9140 e1bc 1a32 12bc dc4f d0bc
00000120: 0ab8 cb3c 259f 24be df7d 503d 7f3d 37be
00000130: 3387 953c 339a c13d bfb9 82bd c2d9 003e
00000140: fa09 d23b d562 f0bd c756 b63b 1e07 e3bd
00000150: 48e8 1fbe 764c dbbc f648 bebd f2ad 63bd
00000160: dbac 6ebd 9036 66be 3a43 6abe 87d7 fd3d
00000170: 0a77 bdbc bfc3 52be 706d 763d 99d1 03be
00000180: 1163 87bb 9200 20be a715 813c c5cc e9bc
00000190: af18 443d 27f9 1c3e ecc8 04be f26e 96bd
000001a0: 6802 af3d 806d 4ebd 40dc fdbd 6d26 8b3c
000001b0: 3844 1cbd 0e67 f03a f0ab 4ebd 1a87 36bd
000001c0: 8986 d63c 3e50 d9bc 2cc5 1abc 1b2e 063b
000001d0: 4e38 6dbc e35c 38bb 7a4b 1f3d a553 a7ba
000001e0: 8a02 0abc 409d 363d f2df c6bb b002 99bc
000001f0: f41c 90bb 9ec7 cbbc 5dbd 7ebd ca15 3bbc
00000200: 8d4c 223d b6f4 053d 543f 4ebc c5fb eb3c
00000210: c46b f83d d44e 993c 5a8b a93d 3bcd 653d
00000220: e347 da3c f5a2 013b d855 203d fb56 633c
00000230: 963e 52bb d4b6 de3c cadc 883c e80a 023d
00000240: cace 28be 4d98 dbbc 6b24 3abe 0755 b7bd
00000250: afd3 773e 02e4 7f3d e566 f4bb 13f6 333e
00000260: c98c c9bc 1620 ef3c c3ba ae3e 47ee 953e
00000270: 0778 3fbe be6b 1e3e 2505 3b3e 66d2 bbbe
00000280: 3943 34be d0d5 2cbe e097 103e 9df2 153e
00000290: 2156 423d 77c9 7b3c 216f e13d 1ae1 ac3d
000002a0: bfdf a9bd 9231 153d bfd4 d23d fa3b 11be
000002b0: a62f 4b3d 8f8c 223e c103 09bd 6da5 e73d
000002c0: 89e9 273e 0497 8b3c 9813 c83d b711 b53d
000002d0: 6aa6 14be b1a8 a8be 188c 3dbe 49e7 08be
000002e0: fa38 91be bf73 d3bd 6af2 14bd ab64 6bbe
000002f0: 295d f33d e97b ffbd 9260 c13d 8a6e 513e
00000300: 8a18 0bbe 2057 a93d 3ff6 683e c273 a6bd
00000310: 44c3 a13d f3fd 523e b458 273c ba96 6c3d
00000320: 16e9 063c b550 4a3d 9892 733d 1a28 043c
00000330: a340 3c3d 5d3f 773d 7da3 a73c 543b c7bd
00000340: fdce e73c 256b 823d ea0b 84bc 99a5 bd3d
00000350: 7a4b e43d f0a4 3b3c 77bd 953d 53db 5d3d
00000360: 8428 e53d fa71 a63c 228d c63d 8437 38bc
00000370: 5227 70bd 04f1 123e 03ba b63c 98f9 f3bc
00000380: bce3 f93c 57f0 ad3c 3818 bb3d 8b1f 98be
00000390: d9c2 c53e d157 bebe 63e1 0ebe c7a3 76bd
000003a0: 96b7 bb3d c40b ab3e 37c6 283d 28c3 b2be
000003b0: 58c5 563d f734 fabe bd8e 363e fc68 cd3e
000003c0: a374 843b c3c6 bb3e 5ce5 11bd ab95 8ebe
000003d0: a56b 9bbe 6d9a c23d 4120 7fbf 26d1 873f
000003e0: 0652 c13e 7f7b e23e 8128 7fbe cf33 a7be
000003f0: 366f c83c d696 503d 4850 c13d 3334 8e3d
-0.11463271 0.15961151 0.43141338 -0.28144217 -0.01182171 0.29528382 -0.32961962 -0.18729568
0.10061343 -0.028814625 -0.030603094 -0.20220287 -0.08505961 -0.020164447 -0.14444165 -0.03896077
-0.0370281 -0.018245615 -0.072707966 0.034423526 0.13465483 -0.089152806 0.03418832 0.116835594
-0.06371644 0.021045187 0.106112026 -0.058745388 -0.005209535 0.06640961 0.03124892 -0.021406906
0.06950185 0.11113934 0.037197098 0.12022415 -0.1366054 0.4508835 0.24583167 -0.19010414
0.2903188 0.096789524 -0.17860173 -0.045371655 -0.17874476 -0.029471075 -0.009129752 0.007823484
-0.034433372 -0.041496713 -0.0049583963 -0.005880417 -0.025657173 0.031714343 -0.14920518 -0.17739865
-0.4185321 -0.16598602 -0.060929995 -0.13471945 0.019356962 0.1300589 -0.37527114 0.03735623
0.060695708 -0.012577067 -0.01774975 0.037791256 -0.054598868 -0.027496608 -0.008923078 -0.025428705
0.02486803 -0.16076334 0.05090129 -0.17894553 0.018252945 0.09453239 -0.063830845 0.12583068
0.0064098807 -0.11737601 0.005564544 -0.11085342 -0.15615952 -0.026769858 -0.0929126 -0.05558581
-0.058270317 -0.22481751 -0.22877207 0.12394624 -0.023128051 -0.20582484 0.06016296 -0.12872924
-0.0041316827 -0.15625218 0.015757395 -0.028540025 0.047875103 0.15329419 -0.1296727 -0.0734538
0.08545381 -0.050397396 -0.12395525 0.016986096 -0.038150996 0.001834126 -0.05045694 -0.044562437
0.026187198 -0.02652752 -0.0094464235 0.0020474258 -0.014478756 -0.0028131537 0.03889034 -0.0012766017
-0.008423457 0.04458356 -0.006069177 -0.01867804 -0.0043979827 -0.024875458 -0.06219231 -0.011418769
0.039623786 0.032704078 -0.012588341 0.028806577 0.1212993 0.018714346 0.08278532 0.056103926
0.026645606 0.0019780968 0.039144367 0.013875718 -0.003208076 0.027186789 0.016706843 0.031748682
-0.16485134 -0.026806021 -0.18177955 -0.089517646 0.24201845 0.062473305 -0.007458555 0.17574339
-0.024603264 0.029190104 0.34126863 0.29283354 -0.1869813 0.15470788 0.18263681 -0.3668396
-0.17603768 -0.16878438 0.14120436 0.14643331 0.04744542 0.015367857 0.11007524 0.08441372
-0.08294629 0.036424227 0.10294484 -0.14183035 0.049605988 0.15873931 -0.033450846 0.11310849
0.1639768 0.017039783 0.09769362 0.088412695 -0.14516607 -0.329412 -0.18510473 -0.13369478
-0.28363782 -0.10324811 -0.036363997 -0.2298762 0.11883003 -0.12474806 0.094422475 0.20452324
-0.1358358 0.08268571 0.22750185 -0.08127548 0.07898572 0.20604686 0.01021402 0.05776093
0.008234283 0.049393374 0.059465975 0.008066202 0.04596008 0.060363162 0.0204637 -0.09728113
0.028296942 0.063680924 -0.016118962 0.09260101 0.111472085 0.011452898 0.07311528 0.054164242
0.11189368 0.02031802 0.09694888 -0.011243705 -0.05863125 0.14349753 0.022305494 -0.029782102
0.0305041 0.021232767 0.09135479 -0.29711565 0.3862522 -0.37176374 -0.13953166 -0.060214784
0.091658756 0.33407414 0.041204657 -0.34914517 0.052434295 -0.48868534 0.17827888 0.4011916
0.0040422245 0.3667508 -0.035619125 -0.27848563 -0.30355564 0.09502111 -0.9965859 1.0610702
0.3775789 0.44234845 -0.24917795 -0.32656714 0.024467092 0.0509251 0.094391406 0.0694355

dense1.2.bn1.weight f4 [48]
00000000: bb35 013f ea92 353e 5ae6 a23e af4e 113f
00000010: 9f9c 6f3f 72f6 113e 556b ad3e ce23 a83e
00000020: e336 943e 002b ab3e c766 6b3e 8b99 2b3f
00000030: fbff ba3d 6b6a a53e 606d 003e 5cb9 da3e
00000040: f16c 9e3e 01a7 043f e11b 293f e800 6a3e
00000050: f5cf 2f3f 22ef 803d 3a21 a43e e9e0 383e
00000060: 7893 323f c7b2 d33e ba76 893e 16aa 7e3f
00000070: 16d0 4b3d a784 1d3e 7ff6 213f f459 5f3f
00000080: eb5d 9f3e c656 563e 72cb a23e 4341 283f
00000090: b244 bc3f 2a1d 793f e2fe 983e d095 193f
000000a0: 3036 563f b2f8 ee3e a4a5 b93e baee 813f
000000b0: fd0a a73f 9344 f53e 96d9 4b3e 4b0f 2b3f
0.5047261 0.17731825 0.3181637 0.56760687 0.9359836 0.14254168 0.3387095 0.32839817
0.28948125 0.33431244 0.22988425 0.6703116 0.09130856 0.32307753 0.12541723 0.42719543
0.3094249 0.5181733 0.66058165 0.22851908 0.6867669 0.06295611 0.320566 0.18054546
0.6975627 0.41347334 0.26848394 0.9947828 0.049758993 0.15382634 0.6326675 0.8724663
0.3112634 0.20931539 0.3179584 0.6572458 1.4708464 0.97310126 0.2988196 0.5999422
0.83676434 0.46674114 0.36259186 1.0150979 1.3050228 0.4790388 0.19907221 0.6682021

dense1.2.bn1.bias f4 [48]
00000000: eb5a 203c ff4f 69bd 963c ccbe d4c4 c5be
00000010: 01fd 9a3e 055e 61bd 64af eb3d ea96 42be
00000020: 94b5 e33d 18c4 823d 2e72 f4bc 09d1 b03e
00000030: 5a17 89bd d679 a7bd 6886 153d 1fc6 14bf
00000040: 7e3a 8f3e a57e e6be 58f3 2abe e718 85be
00000050: 5b0a e33e 40ea 7ebd 08bc 04be 7969 42be
00000060: b26f 07bf aea1 ba3e d411 a73d 9e18 af3d
00000070: 4678 85bd 4916 05be 59ef 653d 759d d63e
00000080: 706c 92bd 3004 6d3d 8497 33be 6179 63be
00000090: ddbb 153f f617 59bd 9fb1 82be 04a3 4dbe
000000a0: e9f4 07bf c0e8 9bbe ebd9 c7bd b913 a8be
000000b0: b38e a63e 21a6 b4bc 14c5 31bd 404f b63e
0.0097873015 -0.056961056 -0.39889973 -0.3862673 0.30271152 -0.055021305 0.115080625 -0.19002882
0.11118618 0.06385058 -0.029839601 0.3453448 -0.06693907 -0.08177535 0.036505133 -0.5811481
0.27974313 -0.45018497 -0.16694391 -0.2599556 0.44343838 -0.062235117 -0.12962353 -0.18985547
-0.5290481 0.36451477 0.08157697 0.08549617 -0.06517081 -0.12996782 0.056136463 0.41917005
-0.07149589 0.05786532 -0.17538267 -0.22214271 0.5848978 -0.053001367 -0.2552614 -0.20081717
-0.5310808 -0.30451012 -0.097583614 -0.32827547 0.32530746 -0.022051873 -0.04340084 0.35607338

dense1.2.conv1.weight f4 [12, 48, 3, 3]
00000000: 009a db3d f570 4cbd 71a9 b9bd 3862 c33d
00000010: 908e 85bd 7eb1 d8bd aca4 d73d d1ed 28bd
00000020: a9a7 1abd 9762 6a3b 73e3 de3c e23c 9a3c
00000030: 008e 243c ddbb f13c a9ad fa3c 35f1 a23c
00000040: a5ef 843c 39d9 bb3b 069b a23c 64f6 81bc
00000050: 4ee9 d4bc 6f3a 393c 6a1e 32bd 4967 52bd
00000060: 7a6e 1f3c 68d0 03bd 247f 5ebd 4904 82bd
00000070: 79b7 a6bd 67df b6bd 73d9 8e3d 3d24 693d
00000080: a494 9b3c b26c 0f3d 2188 7c3d adc6 633d
00000090: 528e 63bc a5e6 d23d ff00 fd3d 5f94 2bbc
000000a0: 3707 f93d 1ee6 0e3e 4a13 59bd 6974 3d3d
000000b0: 3a13 443d a9ed 0dbc e6b7 06bd eff4 20bd
000000c0: 1eda 2a3b 22cd 6abc 9d0a f8bc d66e 413a
000000d0: e18c d1bc 17cc 45bc 20bd a03d cf1a 4dbe
000000e0: 3be6 5b3b bb73 8c3e 1d17 933d f952 c43e
000000f0: d757 523e ec41 5b3d 2d1c a93e 498e 85bc
00000100: c6b3 52bc a7e0 b23b c692 cd3b 60b7 b5bc
00000110: cd93 95bc 542a 05bb a90c a8bc 20ed 2ebd
00000120: aeaa bcbd c109 8c3c f36c 453e 43ca 4e3c
00000130: 42ad be3d b996 223e 7e1e 2f3e d542 0d3e
00000140: eca0 ac3d bbec 5a3d cd95 bd3b e235 783d
00000150: 8bf2 ff3d 3219 c23d f2ff 083e e6b4 b13d
00000160: 87ab 0c3d ef41 ea3c f9da 223d 6e37 a63c
00000170: 1954 033c 7d1a ce3c da8a bdbc c980 3fbd
00000180: 40e7 bd3c 131c 3ebc b10b 06bd 0f32 913d
00000190: d687 5d3c 2130 a13d e710 813d fa1a 6abc
000001a0: 6753 2e3d e28b 753d 6dc6 10bd efd2 dabc
000001b0: fa09 f03b f798 b03b 67c4 bd3b baaa 59bb
000001c0: bde8 45bb 9a6d 313a 2a2f 5abc 657b 4bbc
000001d0: 97aa afbb af6c 3abc 101f 7b3d 6b64 f13d
000001e0: 3d7a 0fbd 3adb f13c eb20 b53d 7ed1 9cbd
000001f0: f82f cfbc 81b3 0c3d 0c3a adbb 441a 5cbb
00000200: 1dec 81bc 8bbb d23c efd4 db3c 2dcc d83c
00000210: bcf4 913a 5f9b ed3c 4a24 cc3c 2eb8 89ba
00000220: 2527 dd3c fac8 c63d 6210 babc 4863 8fba
00000230: 6c06 dd3d 90ad e3bc 7b30 bd3c 373f dd3d
00000240: af9f 77bc e6c3 a23d 40a2 3e3e 116c 52bd
00000250: 180b 943d 65e5 433e 1821 bcbd ab88 343d
00000260: d0ad 223e 6459 fb3d 8141 f83b 16a5 f4bd
00000270: eccc bb3d fe1a 42bc 2ab3 f7bd 26f7 f93c
00000280: eb06 63bd 477b e2bd fea5 ffbd 2d3c 6a3d
00000290: 2bde 823e a114 1bbe 9ea1 0f3d 9f5b 7c3e
000002a0: 344c edbd d3a9 423d 98ff 4d3e a67b 363d
000002b0: 9114 313d acb1 ea3c 2edb 353d 4c38 4f3d
000002c0: 1959 9f3c 8f5b 943c d70a 6c3c a73c 013c
000002d0: 3905 dcbe afb7 90be 0663 babe 3bca 29bf
000002e0: bf41 07bf e473 2cbf 32ab e9be ba51 b8be
000002f0: 5878 f8be 3fac e5bb e278 afbb 32bc 513a
00000300: c04e 82bb 7d97 0bbc 43fb 39bc 2053 b8bb
00000310: 0894 40bb dc45 99bc 5a34 073d f861 653d
00000320: 5cc2 993d 99c3 843b fe41 673d 3de2 c23d
00000330: 2628 b43a 4635 e73c 8208 d43d 9ff5 513c
00000340: 0d23 bf3c 5ef0 423c 0286 8a3c 0a0d ed3b
00000350: ff17 2e3b a52e 843c 8e55 553c c833 b1bb
00000360: 1215 233e 7f35 86bb 31cb 7ebd 2e63 3a3e
00000370: db53 35bc 72fd c8bd 4401 143e 7fb0 65bd
00000380: e0e7 13be 461a 91bc 8a62 7b3c 8b43 9b3d
00000390: 118e f2bd 5e57 a0bb 94b5 6e3e dd64 7fbd
000003a0: 89c5 e43c 53b4 8b3e 8e97 66bc cb4b 39bb
000003b0: e4b7 a73d a484 013e 5d93 953d 54d6 8e3c
000003c0: 90a6 1e3e 2e07 973d 0842 383c 4372 873d
000003d0: b456 45bd 3ec4 fabd be6b 133f 4050 b73e
000003e0: cb60 bc3d 8f97 443e 39b3 073e efb6 9cbd
000003f0: 8d0f bb3b 400e d03a 4ad1 0a3c 1d09 2cbc
0.107227325 -0.04991241 -0.090655215 0.09540218 -0.06521332 -0.10580729 0.105294555 -0.041242424
-0.03775755 0.003576433 0.027208066 0.01882786 0.010043621 0.029508526 0.030600386 0.019890407
0.016227553 0.005732682 0.019849312 -0.015864559 -0.025990155 0.011305436 -0.043486036 -0.05136803
0.0097309295 -0.032181174 -0.05432047 -0.063484736 -0.081404634 -0.08929329 0.06975069 0.056919325
0.018991776 0.03501577 0.06165326 0.055609394 -0.013888912 0.10297898 0.123537056 -0.010472386
0.12159579 0.1395497 -0.05299691 0.046253596 0.0478699 -0.00866262 -0.032890223 -0.039296087
0.002606995 -0.014331134 -0.030278498 0.00073788816 -0.025579872 -0.012072585 0.07848573 -0.20029758
0.0033553976 0.27432045 0.07182143 0.38344553 0.2054132 0.053529665 0.3302931 -0.016303198
-0.012860244 0.0054589096 0.0062736003 -0.022182167 -0.018258953 -0.002031942 -0.02051385 -0.04270661
-0.09212242 0.017094495 0.19279842 0.012621465 0.0931039 0.15877809 0.17101476 0.13795026
0.08429131 0.05344842 0.00578568 0.06059826 0.12497433 0.09477462 0.13378885 0.08677082
0.03434327 0.028595893 0.03975961 0.020290103 0.008015656 0.025159115 -0.023137499 -0.04675368
0.023181558 -0.011603373 -0.032725994 0.07089626 0.013521155 0.07870508 0.06302052 -0.014288658
0.042560007 0.059947856 -0.035345484 -0.02671191 0.007325408 0.0053893286 0.0057912352 -0.0033213333
-0.0030198537 0.0006768346 -0.013316909 -0.012419556 -0.005360912 -0.011378451 0.06130892 0.11786731
-0.035028685 0.02952348 0.08844169 -0.07657145 -0.025291428 0.034350876 -0.0052864607 -0.0033584991
-0.015859658 0.025724193 0.026834933 0.026464546 0.0011135559 0.02900475 0.024919648 -0.001050716
0.026996205 0.09706302 -0.02271289 -0.0010939622 0.107922405 -0.027792722 0.023094406 0.10803073
-0.015113755 0.07947521 0.18616581 -0.05137259 0.072286785 0.19130476 -0.09186 0.04407565
0.15886617 0.12272909 0.007576168 -0.1194555 0.09169945 -0.011847256 -0.1209472 0.030513357
-0.05542652 -0.110586695 -0.12482832 0.057186294 0.25560126 -0.15144588 0.03506624 0.24644326
-0.115868 0.04752524 0.20117033 0.044551514 0.043232504 0.028649174 0.04439848 0.0505908
0.019451665 0.018110065 0.014406881 0.007887996 -0.42972735 -0.2826514 -0.36403674 -0.66324204
-0.52834696 -0.67364335 -0.45638424 -0.35999852 -0.48529315 -0.0070090587 -0.0053549865 0.00080007606
-0.003976673 -0.008520004 -0.011351409 -0.0056251436 -0.0029385109 -0.01871007 0.03300891 0.056001633
0.07507774 0.0040516374 0.05645942 0.09515808 0.0013744875 0.028223645 0.10353185 0.012814908
0.023332143 0.011898128 0.016909603 0.0072342204 0.0026564596 0.016135523 0.013020886 -0.005407784
0.15926006 -0.0040957327 -0.062205497 0.18201897 -0.011067356 -0.09813966 0.14453608 -0.056076523
-0.14443922 -0.017712723 0.015343318 0.07581242 -0.11843503 -0.0048932275 0.23311454 -0.06235205
0.027926223 0.27286014 -0.014074219 -0.0028273936 0.08189371 0.12648255 0.07303498 0.017436184
0.15493226 0.07374416 0.011246212 0.066135906 -0.04817839 -0.122444615 0.57586277 0.35803413
0.09198149 0.1919844 0.13251962 -0.07652079 0.005708641 0.0015873387 0.00847275 -0.01050022

dense1.3.bn1.weight f4 [60]
00000000: 0e65 8e3e 1607 773e 6358 393e 5ec1 e63e
00000010: 7d98 203f 9153 4f3e 3a92 9e3f 8424 a33e
00000020: 5a86 cf3e 9b85 873e 9bf2 d93d 5079 5d3e
00000030: 56d3 3c3e f135 2a3e d923 333f 5ffa 203e
00000040: b990 943e 6212 eb3d 6898 503e f567 303e
00000050: 0377 b03f da76 513e fa3d 193e ac3f fb3d
00000060: 2ffe 533e 088c 443f 8139 d43e c0b9 473f
00000070: 50d7 523e 338b cc3e 1630 3e3f e21c 803f
00000080: 5274 d83e be43 dc3e d746 f53d 2876 2f3f
00000090: 3ecf 653f cb18 723f ac93 f83d b110 803f
000000a0: 5f93 0f3f 7f0b 2a3e c865 163e 8d00 0c3f
000000b0: a198 003f ef18 e63e 8d41 973f bde9 d43e
000000c0: 3862 753f e622 b23e 2502 203e a142 043f
000000d0: 077e 913e 3f31 0d3e c91c cc3f c5e3 313f
000000e0: d0c8 a23f 85e4 533e 88b9 4e3d 49ef db3e
0.27811474 0.24123797 0.18100123 0.45069402 0.6273268 0.20246722 1.2388375 0.31863797
0.4053219 0.2646912 0.106419764 0.21628308 0.18439993 0.1662214 0.69976574 0.15720509
0.29016665 0.114781156 0.20370638 0.17227156 1.378632 0.20455495 0.14965048 0.12268004
0.20702432 0.7677617 0.41450122 0.78017807 0.20589948 0.3994995 0.74292123 1.0008814
0.42276245 0.43020433 0.11976402 0.6853967 0.8976935 0.9456908 0.12137541 1.0005094
0.56084245 0.16605948 0.14687264 0.5468834 0.50232893 0.44940898 1.181688 0.41584578
0.95852995 0.3479225 0.15625818 0.5166417 0.28416464 0.13788317 1.5946285 0.69488174
1.2717533 0.20692642 0.050469905 0.42955998

dense1.3.bn1.bias f4 [60]
00000000: f8da 25be d160 e338 1a66 09be f53f a33d
00000010: 9d9f a13c 398d 8cbb e61f f8bd 7084 0b3d
00000020: 7b9c 22be 2a07 02bd 196c d5bc 5c7d 2bbd
00000030: 440d 1bbd 31c2 0bbd 57c6 9e3d 384e 4abe
00000040: 03a0 20be a7ff c5bd 4b68 b5bc fe75 84bd
00000050: 9297 813d ffc6 843c 3754 5cbd 3df2 0fbd
00000060: 14e1 24be 1705 19be 540e a1be cfc8 6dbe
00000070: 0a29 41be ee10 5ebe e5f1 dcbd e82d 08bf
00000080: 4f45 71be 1ef9 763c 66f2 e0bd 571b 57be
00000090: e5c1 92be df54 bf3e 386e 40be ebb2 58be
000000a0: 106b b8be f24b 3bbe 5878 89bd 3bc9 2a3d
000000b0: 626c f3bd 559e 38bc ce2d f83d 0afb 93bd
000000c0: d73e 0c3d 3ff8 d73d 46d0 9fbb 9b6e 0fbd
000000d0: 6f82 1a3e 34ba 73bd 5974 e33c 9790 563d
000000e0: 6428 163d 557b b5b9 40c4 e2bb e6fe 933d
-0.16196811 0.00010842237 -0.13417855 0.07971183 0.01972943 -0.004289296 -0.12115459 0.03406185
-0.15880005 -0.031745113 -0.026052522 -0.0418676 -0.037854448 -0.034120742 0.07752674 -0.197564
-0.1568604 -0.096679024 -0.022144457 -0.06467818 0.06327738 0.01620817 -0.05379125 -0.035143126
-0.16101485 -0.14943348 -0.31456244 -0.23221134 -0.18863311 -0.21686146 -0.10788325 -0.5319505
-0.23561595 0.015074043 -0.10983734 -0.21006523 -0.28663555 0.3736944 -0.18792045 -0.21162002
-0.36019182 -0.1829069 -0.06712407 0.041695815 -0.11885907 -0.011268218 0.121181116 -0.07225616
0.034239616 0.10545396 -0.004877123 -0.03501759 0.15088819 -0.05950375 0.02776544 0.052383985
0.036659613 -0.000346149 -0.0069203675 0.072263524

dense1.3.conv1.weight f4 [12, 60, 3, 3]
00000000: 95da 613d e4b3 0bbc bd35 833c 622b 393d
00000010: 90c5 21bd b808 3fbd 6830 433d 63da 81bc
00000020: d86e c2bb b4ac f83b b8d1 08bb e1a3 86bc
00000030: 430e 1cbc b10d a1bc 4f10 5abc 68cc 6abc
00000040: 9ce1 1dbc 0710 75bb 0836 433c 2807 a23c
00000050: f20f b73c 0c07 403a 9765 0fbc 6967 44ba
00000060: 08ae 193c 4bb2 4ebc 1924 ab3a d773 d23c
00000070: bf76 223c ace0 3c3d edbb b53d 5596 4a3d
00000080: 7131 e43d 4a54 b8bb 2e7a 12bd a184 4d3d
00000090: c751 343e a0c1 123e dcd5 a63c 9c61 0e3e
000000a0: 3f80 d63d 7bea 97bc d4f8 933d 7116 3d3d
000000b0: 2baf 63bd d375 5dbc 43c3 f9bb 9523 23bb
000000c0: df4d 42bc 9f63 eebb b062 87bc f100 e9bb
000000d0: 69e8 c1bb ccaf 513b eabe ccbd 3d7f 1abe
000000e0: 6dec 193e 0188 0ebd 7fb3 c6bd 5b4a 153e
000000f0: c91d 263c 9d9d f6bd 7f81 2f3d 22fd ab3d
00000100: 0bee 4f3d 2ef4 363d dc56 c03c 1648 a83b
00000110: 1efa 7a3c f704 38bc d705 a9bc 61a3 2fbc
00000120: 266c 9e3d f6d8 e43d 0ef5 443e de9e 893c
00000130: 1950 213d 307c a83d 4f0b eabc c32f d7b9
00000140: 3d2a e23c 840f 733b e633 a7bc 4d28 83bc
00000150: f040 933c 69d6 a6bc 93a3 29bd 0370 9bbb
00000160: 3979 ddbc a6b0 c1bc 2267 b53c 3f80 31ba
00000170: b9d7 1b3c 50ab 24bc 74f7 dfbc f9b4 55bb
00000180: 3c95 3dbc 27c3 e8bc 1a13 b3bc 2af9 0abc
00000190: e373 cfbb 8d29 1f3c e0cb 81bc e8d1 c7bc
000001a0: 9e00 8abc 99cd 91bb 4579 11bd 2755 a039
000001b0: 3ed0 413c 5916 b43b ec97 bdba 20fe c63b
000001c0: d05c ffbb a674 5b3b 07e3 c53b f9ab d33a
000001d0: 8fb8 41ba 3b54 f53c 2c6d 0d3d f131 083d
000001e0: 3b04 fe3c 1e4f b33c adfa 943c 40e3 ad3c
000001f0: c778 023c 65b6 4bbb 7c3f 80bd 2a39 34bd
00000200: 8e4d 533d 8469 da3c ffe7 613c 5e21 f43d
00000210: dd2b 43bd 6d50 55bd caac 873c 7abf 78ba
00000220: df2b 333c d13f 273d ec6b abbb 1fb4 7c3b
00000230: 0b8e 273d 6ace c5bc 26d0 4ebc 3109 143d
00000240: ad3c fb3c 6d6f 0f3d 6208 643d 114e 083d
00000250: 2b09 d43c 954f 5e3d 3183 673d 098a 303d
00000260: 9d3a 0c3d 3428 f23c 13bc 953c 7b46 6abb
00000270: d340 f93c 83d4 103d 37e9 27bc 2091 ab3c
00000280: 5d27 1b3c da19 46bb 4f87 8c3d 742c 8d3d
00000290: ac7a 923d 4ff9 843d d0dd 5e3d 27c8 3a3d
000002a0: cd81 2f3d 7c48 f03c 7c5c b73c ad81 ef3c
000002b0: 50ba 9e3c 7ebc 213d bb7c 063d 321b 043d
000002c0: c360 d53c a964 f33c 6cf2 c13c 890f ec3c
000002d0: d4ea 3e3e 0891 09be 72f4 98be b65a b53d
000002e0: 3466 24be 35f3 72be 92a1 babc 737a 3dbe
000002f0: b4f5 4bbe 8ae5 d43c 6b42 c23c da44 8f3d
00000300: ba4f 98bc d5a6 5fbc 001d 1d3d da96 bb3a
00000310: 2d42 e1bb bc5e 403d 0da5 6a3c b039 4f3c
00000320: e152 c63a eb2b 3a3c c6a1 a33b 9d9a 41bb
00000330: d30c 59bc fbf1 593b 7d20 1b3c ce72 303b
00000340: ccce 833c 3b77 9f3c 89e1 b2bb 2680 773b
00000350: 305e c93c 896e 653c 5799 803c 65d5 823c
00000360: 31c5 823c c9a1 23bc 8a07 4b3d f17d 01ba
00000370: f179 0cbc fff5 e43c 7457 46bc 7df6 24bc
00000380: 6bce 153d 2cea eabc 2766 0cbe c18a 6bbd
00000390: 586a 49bd 8793 8bbd 7034 d83c 0ef8 9abd
000003a0: 6479 8bbd 7a17 bfbb 21db 16bc b973 0abc
000003b0: 8aaa 593b f5e3 23bd 610f 6bbd 3a55 12bd
000003c0: 03b7 21bd b2ba 29bd 946c 56bc a618 c13d
000003d0: 70d3 4cbc 8711 dcbd 00c1 b43d e1d1 18bd
000003e0: f0d1 ffbd dc08 ba3d 5090 b5bd 38cb 21be
000003f0: 551c b6bb 988e be39 8fcf c53c 6836 5dbc
0.055140097 -0.008526776 0.016016835 0.04520739 -0.03949505 -0.046639174 0.047653586 -0.015851205
-0.0059336238 0.007588947 -0.0020876955 -0.016435565 -0.009524885 -0.019659849 -0.013309552 -0.014330961
-0.009636309 -0.0037393586 0.0119147375 0.019778803 0.02234647 0.0007325269 -0.008752248 -0.0007492216
0.009379871 -0.012615751 0.0013057023 0.025690002 0.009916007 0.0461127 0.088737346 0.049459774
0.11142243 -0.0056252824 -0.03576105 0.050175313 0.1760932 0.14331675 0.020365648 0.13904423
0.1047368 -0.018544426 0.072251946 0.04616398 -0.055586975 -0.013516861 -0.007622154 -0.0024893035
-0.011859386 -0.0072750594 -0.01652655 -0.007110708 -0.005917598 0.0031995652 -0.099973515 -0.150876
0.15031596 -0.034797672 -0.09702205 0.14579146 0.010138937 -0.12041781 0.042848106 0.083978906
0.050764125 0.04466646 0.023478918 0.0051355464 0.015318422 -0.011231652 -0.020632667 -0.010720105
0.077354714 0.111741945 0.19234106 0.016799387 0.039383028 0.08226812 -0.028569845 -0.0004104358
0.027608031 0.0037088105 -0.02041049 -0.016010428 0.0179753 -0.02036591 -0.041415762 -0.0047435774
-0.027035343 -0.023643803 0.022143904 -0.00067711243 0.0095118815 -0.01005061 -0.027339675 -0.0032609089
-0.011571225 -0.028413368 -0.021859694 -0.008482257 -0.0063309534 0.009714496 -0.015844285 -0.024392083
-0.016845997 -0.004449558 -0.035516042 0.00030581022 0.011829434 0.005495828 -0.0014464832 0.0060727745
-0.0077930465 0.0033486276 0.0060390267 0.0016149274 -0.0007389867 0.02994739 0.034527943 0.033250753
0.031007877 0.021888312 0.018185938 0.021226525 0.007963366 -0.0031084057 -0.06262109 -0.04399983
0.051587634 0.026661642 0.013788222 0.11920427 -0.047649253 -0.052078653 0.016561884 -0.00094889814
0.010935753 0.040832344 -0.005231371 0.003855951 0.040906947 -0.024146277 -0.012622869 0.036141578
0.03066858 0.035018373 0.055672057 0.033277575 0.025883278 0.054275114 0.0565216 0.04310039
0.034235585 0.029560186 0.018278157 -0.0035747576 0.030426418 0.035358917 -0.010248474 0.020943224
0.009469834 -0.003022781 0.068617456 0.068932444 0.07152304 0.06492864 0.054410756 0.045601036
0.042848397 0.029331438 0.022382967 0.029236639 0.01937595 0.0394864 0.032833796 0.032252498
0.026047116 0.029711084 0.023675166 0.028816001 0.18644267 -0.13434231 -0.29873997 0.08855192
-0.16054612 -0.23725589 -0.02278212 -0.18503742 -0.19917947 0.025988359 0.023713311 0.06995554
-0.018592704 -0.013650616 0.038357735 0.0014311925 -0.006874344 0.046965346 0.014321578 0.012648031
0.0015130901 0.01136301 0.00499365 -0.002954162 -0.013247686 0.0033255804 0.009468195 0.0026923898
0.01608982 0.019466033 -0.005459015 0.0037765591 0.024581045 0.014003404 0.015698118 0.015970895
0.015963169 -0.009987303 0.049567737 -0.0004939726 -0.008573995 0.027949331 -0.012105811 -0.010068533
0.03657381 -0.028676115 -0.13710843 -0.057505373 -0.049173683 -0.06815248 0.026392192 -0.07566844
-0.06810263 -0.005831656 -0.009207518 -0.008450442 0.0033213221 -0.04001232 -0.057387713 -0.03572581
-0.039481174 -0.041437812 -0.0130874105 0.094285294 -0.0125015825 -0.107455306 0.08825874 -0.03730953
-0.12491214 0.09083721 -0.08865416 -0.15800178 -0.0055575767 0.00036345865 0.024146823 -0.013501741

dense1.4.bn1.weight f4 [72]
00000000: 9786 103f 0dae a23e 9daa 063f 1352 793f
00000010: 9451 873f 3a1d 213e ce64 df3e 17e3 043f
00000020: 5bd0 953f b699 573e e2cc 363e eda8 ae3d
00000030: d4ca fe3d 63d2 993e d96e 423f 0a77 f73e
00000040: 9d91 233f 8080 ee3e b382 883e 29ee c73e
00000050: 2bcb 083f ec0a 213e 28bc 9e3d c8a6 f73d
00000060: be20 963e 68ce 713f beab 023f e976 3f3e
00000070: 0e2e 9b3e 0c0c 3d3e 9cad be3e 15e5 8f3e
00000080: b204 d73e 163a f93e e2f6 be3e fc6b 043f
00000090: 3817 143f 83ab 8b3f 073e 903e 624c 4c3e
000000a0: 2731 bb3e 8e08 893d ddd1 a63e bf5a 113f
000000b0: 817b 963e 2cbe 243f 91f9 5b3f de44 c73e
000000c0: 4491 b53e b0d0 1c3e 30aa a83e cccb e13e
000000d0: 800c a33e 8ba7 743e f2ca b13e e065 9b3e
000000e0: ee11 9c3f f485 943e f1dc 443e f025 233f
000000f0: c921 513e d7c8 2b3e f513 c63f 8f5f 723e
00000100: 184c 0f3e 43a2 a03d 1743 cd3d f188 583f
00000110: 2601 983d b409 213f be20 963e c723 2b3e
0.5645537 0.31773415 0.52604085 0.9739086 1.0571771 0.15733805 0.43631595 0.5190901
1.170421 0.2105473 0.17851594 0.08528314 0.1244103 0.30043325 0.7595039 0.48333007
0.63894063 0.46582413 0.26662216 0.3904889 0.5343501 0.15726823 0.07750732 0.12092358
0.29321855 0.94455576 0.5104331 0.18697704 0.30308574 0.18461627 0.37241828 0.28104463
0.4199577 0.4867713 0.37297732 0.5172727 0.5784793 1.0911716 0.28172323 0.19951013
0.36560938 0.06691085 0.32581988 0.5677909 0.293911 0.6435268 0.85927683 0.3891973
0.3546239 0.15313983 0.32942343 0.44100797 0.31845474 0.23892038 0.34725147 0.30351162
1.2192972 0.29008448 0.19224907 0.63729763 0.20423044 0.16775833 1.547484 0.23669265
0.13993871 0.07843449 0.10022562 0.84583956 0.07422094 0.6290543 0.29321855 0.16712867

dense1.4.bn1.bias f4 [72]
00000000: d563 14bf 1677 37bc f8f1 c2be 7a72 d4bc
00000010: f0cb bebe c92c 8fbc 90ef d3bd 90a1 c0ba
00000020: 2a62 3e3d d1ef 90bb d5d0 31bd 5c02 b6bd
00000030: f27f 2ebd e2ca 1cbe ef7e 0d3d b63f 91be
00000040: 004c f3be 439b c3be d664 89be a5b3 a5be
00000050: e3cc 81be 26ba fd3d bd92 d13c ba43 3b3d
00000060: 9758 d53c 07e5 383d c1df 7dbe bd6d 36be
00000070: d282 fe3c f571 44bd f281 2bbd c93c 9cbd
00000080: 5221 f8bd b96a dcbd 63ec e9bd e62a 243d
00000090: 12ac 4abe 43c4 b5bd 285d e4be 00eb b1bc
000000a0: 27ae 33be cc71 abbd f07b 92bd 006d fdbd
000000b0: 6e33 70bc b433 f73d a540 d3bd a1b3 e63e
000000c0: bb23 293d e7f0 433d 2e3d b4bc df67 86bc
000000d0: 5936 513d 5bf5 aebd e6f0 f23c 3544 bfbd
000000e0: 74ee 7abe cccb e1bb 0544 153d 7059 343e
000000f0: 9ac6 16bd edae 20bd acc1 72be 8153 473d
00000100: a756 19bc 22b9 bb3c 3b98 0bbd 1ea2 cebb
00000110: dca5 a7bd 067d aa3d 95bb 0e3b bcd8 8e3c
-0.5796483 -0.011197826 -0.38075233 -0.025933493 -0.37264967 -0.01747741 -0.10348427 -0.0014696587
0.046480335 -0.0044231196 -0.04341205 -0.08887169 -0.042602487 -0.15311769 0.03454488 -0.2836892
-0.4751892 -0.38204393 -0.26834744 -0.3236362 -0.2535163 0.123890206 0.025582666 0.045718886
0.02604322 0.045140292 -0.24792387 -0.178153 0.03106824 -0.04796024 -0.041871972 -0.07628781
-0.1211573 -0.10762543 -0.1142204 0.040079974 -0.19792202 -0.088753246 -0.44602323 -0.021718502
-0.17546903 -0.083713144 -0.071525455 -0.12374306 -0.014660699 0.120704085 -0.10315064 0.4505892
0.04129384 0.047837164 -0.022001829 -0.016406951 0.05107722 -0.085428916 0.029655885 -0.09339181
-0.24505025 -0.0068907496 0.03644182 0.17612243 -0.036810495 -0.039229322 -0.23706692 0.04866362
-0.009359038 0.022915427 -0.034080725 -0.006305947 -0.08185932 0.083246276 0.0021779288 0.017437331

dense1.4.conv1.weight f4 [12, 72, 3, 3]
00000000: a8c5 a5bd 82e4 06be 5a23 bebd 6142 f4bd
00000010: bf7c 28be 47ea 0ebe 5165 88bd 8a48 d9bd
00000020: 8b14 cabd 99ef 2dbc f2ea 79bc 2695 e3bc
00000030: 44f9 943c f51f 52bc f1b1 d7bb 769e b53c
00000040: 5ab5 ce3c d60d ee3b 6ecd 31bd 8980 91bd
00000050: d2c6 9fbd 10ae 96bd 45ed c2bd b42d bcbd
00000060: f6ca 6abd e6d4 cebd b287 cebd ce3c cfbd
00000070: 6f36 91bd 09cf 84bd 741f 3ebd 808e 3fbd
00000080: 12b7 82bc 8c8c c3bd 6ec6 d5bd 2ade 6cbd
00000090: 7de7 83be 3f9b 63be 8b30 71be ab32 76be
000000a0: c78c 6ebe e7af 79be 760a 80be 58bd 89be
000000b0: 746a 90be b7f7 a4bc f97b d9bc df8b b1bc
000000c0: 293c a5bc d5c3 fabc a90e e1bc 1905 ddbc
000000d0: a7cf f1bc 0806 3abc f338 5cbc 88a5 fbbb
000000e0: d2b6 083d fe35 e4bb 183b 13bc 1011 4b3d
000000f0: 58ed 34bc f7ea 183b 334d 0b3d e75e 413d
00000100: 7bf2 8b3c 2674 443c 0f31 a03c e48a a5bc
00000110: 3aba a5bc 57f1 043a 4d8a a3bc e495 19bd
00000120: 998c 0a3e c885 9a3d 957d 253d 0aed c43d
00000130: dcd7 e737 8d11 bbbd 3113 85bd a34e cfbd
00000140: 4d05 3dbe 6532 0bbd 1f4c edbc 01bd 5bbc
00000150: b2e7 3abd 4b05 aabc 4bc2 cdbb c0b7 1cbd
00000160: bb09 abbc e19f a6bc 9574 0fbc 3da8 32bc
00000170: 6b0c 17bc 1479 c2bc 34f5 ebbc c45f 92bc
00000180: 588f a6bc 07bf b8bc 8d91 40bc cbdc 843b
00000190: 7c7e e73b 4342 be3b 0fcb 44bc 2d10 1fbc
000001a0: ad0a 02bc 5e02 44bc 5109 b8bc 6822 3dbc
000001b0: a19f a6bb 2013 06bc a7e6 3e3a 93f4 5dbb
000001c0: 8830 ceba ae73 27ba f676 50bc 773b 49bc
000001d0: 11d0 aabb 3af2 5ebd 66b2 eabc 7c00 0fbd
000001e0: 4e58 8bbd 7fb6 21bd 0fc9 fdbc 2504 68bd
000001f0: 043f 4bbd 3e8e 22bd c166 c4bd 861c 94bd
00000200: ee00 29bd 3781 4fbd d03f 69bd aae8 83bc
00000210: 0200 bfbd 042b a2bd 7b0f 42bd 8b53 57bd
00000220: 3d25 cbbd 24e5 1cbd cd9d 6fbc 3143 96bd
00000230: 8ba0 27bd 5fa5 603c f998 6ebd b915 40bd
00000240: bcbb 4dbd 4501 32bd c70e e93a 04c8 62bd
00000250: 0854 10bd 9c2f 6d3c 2ac4 34bd 7ff3 02bd
00000260: 4a73 0e3b 58ea 2cbd 4e4b 0fbd 2340 25bd
00000270: afe0 edbc aed0 12bd 9701 14bd d5da 28bd
00000280: 506b 6dbd 66c0 97bd 7a75 4cbd 7c2f 82bd
00000290: 8b80 42bd 35d6 cfbc 49af 09bd 1520 01bd
000002a0: 1f19 f8bc aa15 f3bc b7bc 46bd 9950 14bc
000002b0: 45fc 85bc ca67 5bbc 9849 df3b 7b56 723c
000002c0: 5ee6 b0bb a363 b43c b18e 923c 915c d53b
000002d0: 5e64 c6bb b71a 81bd 435e bdbd 3381 423d
000002e0: 814e 03bd d0ff 63bd e520 9d3d 37b9 d83c
000002f0: bc29 f9bc 6930 c6bd bd10 d7bd 858e c5bd
00000300: dc32 b0bd a025 f2bd fb0c d1bd 8f50 8abd
00000310: 8e81 aabd 851b 92bd 89a7 91ba 19ea 3b3c
00000320: 0caa 973b 10a3 fd3c c683 8d3c e093 003d
00000330: a71d f83c 1c0f 1d3d a95e 083d fd8b 4fbd
00000340: 3ded 8bbd 5c55 64bd ff4e a1bc 87eb 85bc
00000350: a104 8fbc 38d4 e4ba 1bda 02bb 86b8 a5bb
00000360: 4d3f 0fbc 5ccb b7bc 0826 3ebc 6b3d f8bc
00000370: aa1c 49bd c117 20bd abf3 b5bc 20cf 65bd
00000380: 2306 17bd 1959 27be 5d2d 65bd b24e 053c
00000390: e255 e1bd fd66 d3bd 0f06 41bd c9c5 71bc
000003a0: d592 0dbe 74a7 4fbe 67dd cbbd 4c04 10be
000003b0: 7df2 0fbe d02f 8dbc 385a 55bd 456c 8dbd
000003c0: b9ef 903a 0ce5 a6bb 1735 dbbb 19e8 02bd
000003d0: 9455 06bd d2be 0bbc f2d4 6cbd 6710 43bd
000003e0: 6f14 dabc a373 3fbd 2fca f8bc a2a3 013c
000003f0: d5c5 db3c 0f66 9bbc 0d8f 1dbd 0e38 683d
-0.080943406 -0.13173106 -0.092840865 -0.11926723 -0.16453837 -0.13956557 -0.066599496 -0.10609539
-0.098671995 -0.010616207 -0.015253769 -0.02778108 0.018185265 -0.012825002 -0.0065824916 0.022170287
0.02523296 0.007264833 -0.043408804 -0.07104594 -0.07801594 -0.073574185 -0.09517912 -0.09188405
-0.057322465 -0.10099201 -0.100844756 -0.101190194 -0.070904605 -0.06484801 -0.046416715 -0.046766758
-0.015956435 -0.095482916 -0.10438238 -0.05782906 -0.2576255 -0.2222719 -0.23553674 -0.24042766
-0.2329589 -0.24383508 -0.2500798 -0.2690227 -0.28206217 -0.02013765 -0.026548373 -0.021673141
-0.020170288 -0.030610958 -0.02747281 -0.02697997 -0.029517962 -0.011353977 -0.013441312 -0.007679645
0.033377476 -0.006964444 -0.008986257 0.04957682 -0.011042915 0.002333341 0.03400917 0.047209647
0.017083397 0.011990583 0.019554643 -0.02020783 -0.020230401 0.0005071363 -0.019963408 -0.037496462
0.13530196 0.07545048 0.040402967 0.09615524 2.7637863e-05 -0.09134207 -0.06497801 -0.10122421
-0.18459053 -0.033983607 -0.028966961 -0.013411761 -0.045631118 -0.020754477 -0.006279265 -0.038261175
-0.020878663 -0.020339908 -0.008755823 -0.010904369 -0.009219269 -0.023739375 -0.028803445 -0.01786793
-0.020332024 -0.022552026 -0.011753452 0.004054641 0.0070646387 0.005806239 -0.012011304 -0.009708446
-0.007937116 -0.011963455 -0.02246538 -0.011543848 -0.005084947 -0.008183271 0.00072822947 -0.0033867701
-0.0015731016 -0.0006387782 -0.012723675 -0.012282244 -0.0052127917 -0.054430224 -0.02864952 -0.03491257
-0.06803952 -0.039480682 -0.030979661 -0.056644578 -0.049620643 -0.039686434 -0.09589911 -0.07232003
-0.041260652 -0.05066034 -0.056945622 -0.016102154 -0.09326173 -0.07918361 -0.047378045 -0.052569907
-0.09919212 -0.038304463 -0.014625025 -0.073370345 -0.04092459 0.013711303 -0.058251355 -0.046895716
-0.050227866 -0.043458242 0.0017780893 -0.05536653 -0.03523639 0.014476683 -0.04413239 -0.031970497
0.0021736198 -0.042215675 -0.034983926 -0.04034437 -0.029037802 -0.035843544 -0.03613433 -0.04122432
-0.05796367 -0.07409744 -0.049916722 -0.06356713 -0.04748587 -0.025370697 -0.03361443 -0.031524736
-0.030285416 -0.029673416 -0.048519816 -0.009052419 -0.016355643 -0.013391444 0.006814193 0.014791126
-0.0053985557 0.022020167 0.017890306 0.006511279 -0.006054445 -0.063039236 -0.092464946 0.047486495
-0.03205729 -0.055663884 0.0767229 0.026455505 -0.030415408 -0.09677202 -0.105012394 -0.09646324
-0.08603451 -0.11823583 -0.10207554 -0.067536466 -0.08325492 -0.07134155 -0.0011112551 0.011469387
0.0046284255 0.030961543 0.017274749 0.031391025 0.030287577 0.038344488 0.0332934 -0.050670613
-0.06832359 -0.055745468 -0.019690989 -0.01634766 -0.017458262 -0.0017458266 -0.0019966427 -0.0050573973
-0.008743119 -0.022435836 -0.011605747 -0.030302724 -0.0490996 -0.039085153 -0.022210917 -0.056105733
-0.036871087 -0.16342582 -0.055951465 0.008136438 -0.11002709 -0.10322378 -0.04712492 -0.014756628
-0.13825543 -0.20278722 -0.099543385 -0.14064139 -0.14057346 -0.017234713 -0.052087992 -0.069054164
0.0011057771 -0.0050932225 -0.0066896784 -0.031959627 -0.032796457 -0.008529382 -0.057820268 -0.047623064
-0.026621072 -0.04674114 -0.030369846 0.007912548 0.026827732 -0.018969564 -0.038466502 0.056694083
