independent_train_0.0/client49/checkpoint_0.0.pth (torch, 225067 bytes, 29 tensors)

conv1.weight f4 [24, 3, 3, 3]
000000 d2 15 62 3e df d8 fe 3e 4c 72 5b 3e 9e 0a 1e 3f
       0.22078636 0.49774835 0.2143032 0.6173495
000010 e9 63 75 3f 6a 98 20 3f 88 39 b4 3d 6c 27 d6 3e
       0.95855576 0.62732565 0.08800036 0.41826952
000020 cf 45 f0 3d df 5f 4c bd 53 d2 bd bd 78 bd 35 3c
       0.11732065 -0.049896117 -0.09268632 0.011092536
000030 63 5e 19 be 0c 23 68 be d9 1e dd bd 52 a2 cd bd
       -0.14977412 -0.2266962 -0.10796899 -0.10040726
000040 30 50 43 be c4 01 dc bd 6b df 0e be 80 11 d7 be
       -0.19073558 -0.10742524 -0.13952415 -0.4200554
000050 d2 f5 26 be 7a bd b2 be 85 2e 2a bf fb 0c bc be
       -0.1630471 -0.34910184 -0.66477233 -0.36728653
000060 61 f3 06 3d 5d e6 83 be e2 9f 27 3c 7b c7 c4 bf
       0.032946948 -0.2576169 0.01023099 -1.5373377
000070 0a 2d e2 bf 3f 30 c0 bf 32 dc 0c 3f dd a1 65 3f
       -1.7669995 -1.5014724 0.5502349 0.8970011
000080 fa 5d 29 3f 8d 16 47 3f d0 ef 94 3f 58 c1 39 3f
       0.6615902 0.77768785 1.1635685 0.72560644
000090 5d 11 78 bf 02 a2 9e bf b3 a3 79 bf 1f 13 b3 3e
       -0.96901494 -1.2393191 -0.9751541 0.34975526
0000a0 24 84 22 3f bc ce fa 3e de 75 c6 3e 39 9b 38 3f
       0.6348288 0.4898585 0.387618 0.7211185
0000b0 e6 ea e7 3e 14 b3 60 bc fd ea ea be 2a 1c e5 bd
       0.452964 -0.013714571 -0.45882407 -0.111870125
0000c0 c6 30 7c 3e 58 92 7c 3e 9e 33 a7 3e 1a d6 00 be
       0.2462798 0.246652 0.32656568 -0.12581673
0000d0 53 6d ff bd ce aa 9c bd 04 16 93 bd 2a 00 8a 3e
       -0.12472024 -0.07649766 -0.071819335 0.2695325
0000e0 ee 5a 2e bd eb c0 94 3d 8d 0c d5 3e 7d 82 5a 3e
       -0.042567186 0.07263359 0.41611138 0.2133884
0000f0 7f a6 a4 bd a5 a5 69 3e 3e 4e f1 3d a7 cd 3f 3e
       -0.08039569 0.22817095 0.11782502 0.18730794
000100 06 6d 6e 3e d1 97 2f 3e 84 ca 08 be a4 88 f4 bd
       0.23283777 0.17147757 -0.13358504 -0.11940125
000110 13 96 b9 bd 51 3c 20 be 28 32 49 be 90 8d bd bd
       -0.090618275 -0.15648009 -0.1964804 -0.092555165
000120 dc 3e 03 3e 23 a8 8c bd 48 db 59 3b bf c8 c6 be
       0.12816948 -0.06868007 0.0033242274 -0.38825032
000130 40 ef 2d bf 08 a9 f7 be 3c b0 95 be d0 35 1a bf
       -0.6794319 -0.48371148 -0.2923602 -0.6023836
000140 fa fd bb be 15 91 07 bc 15 b8 7f bd 7f 28 7d 3e
       -0.36717206 -0.008274336 -0.062431414 0.2472248
000150 33 4f a1 3f d0 80 28 be e8 3b a1 bf 77 80 d8 3e
       1.2602295 -0.16455388 -1.2596407 0.4228551
000160 90 e3 bd bd fc c7 20 be a8 c2 38 3f 12 97 af be
       -0.0927192 -0.15701288 0.7217202 -0.34294945
000170 09 6f 25 bf d4 f9 0e 40 63 3a 88 be 18 ed 07 c0
       -0.6462255 2.2339983 -0.26607046 -2.123846
000180 9c b1 99 3f 12 77 36 be 20 24 55 bf 93 15 8a 3e
       1.2007327 -0.17818859 -0.8325825 0.26969585
000190 ad 24 92 be ee dd 31 be 57 ed ed 3f a8 2e 02 be
       -0.28543606 -0.17369816 1.8588055 -0.1271311
0001a0 2e 31 d5 bf fd 80 84 3f dd d3 be bd 51 8d 39 bf
       -1.6655633 1.0351864 -0.093177535 -0.72481257
0001b0 e4 4b 59 bf e8 41 e7 3b fa 05 30 3f 69 cd 60 3f
       -0.84881425 0.007057417 0.6875912 0.8781343
0001c0 6d c9 0e 40 7e e0 b4 bf df 83 7b bf e0 be 6f 3f
       2.231044 -1.413101 -0.98248094 0.9365063
0001d0 db 92 f1 be 67 4f 2b bf 82 10 d7 bd db 29 7a 3e
       -0.47182354 -0.66918033 -0.105011955 0.24430029
0001e0 90 de e0 3e a0 f0 d0 3f 98 9e 09 c0 a4 c7 86 bf
       0.43919802 1.6323433 -2.1503048 -1.0529675
0001f0 f2 15 5e 3f d8 b2 95 be 23 4e 20 bf 7c b0 b9 be
       0.86752236 -0.2923801 -0.6261923 -0.3626746
000200 48 e9 0d 3f 22 73 9a 3e 0b bc a7 3f c6 eb bf bf
       0.55434084 0.30165964 1.3104261 -1.4993827
000210 5a 24 38 bf 5c 32 60 3f 6b 74 ac 3e 22 05 86 3e
       -0.7193047 0.8757684 0.3368257 0.2617579
000220 34 5c 30 3d 59 83 46 3e 00 19 c5 bd a5 6e 8f be
       0.04305668 0.19386043 -0.09623909 -0.28014103
000230 8b b1 33 be 6e 08 44 3d f8 f6 9e bd 8d 31 51 bd
       -0.17548196 0.0478596 -0.07761949 -0.051072646
000240 38 1b d7 be c3 bf 0a bf 9f fe d6 be 90 e0 15 bf
       -0.42012954 -0.54198855 -0.41991135 -0.5854578
000250 16 73 21 bf 58 4f 14 bf b1 be 2d bf 4f f6 37 bf
       -0.6306623 -0.5793357 -0.67869097 -0.7186021
000260 55 8b 31 bf 26 85 94 3c b1 30 bb 3e ed fb 19 3e
       -0.6935323 0.018129896 0.36560586 0.15037508
000270 bf d6 47 3f 84 67 a1 3f 80 cb 6d 3f 91 da bb 3e
       0.7806205 1.2609715 0.9288864 0.3669019
000280 4a 60 58 3f 98 62 f9 3e ae 54 d4 be 21 8a 43 bd
       0.84521925 0.48708034 -0.41470855 -0.047739152
000290 d7 de f9 be 16 66 2e 3f 01 03 a5 3f 11 10 33 3f
       -0.48802826 0.6812452 1.2891542 0.6994639
0002a0 61 38 bc 3e c5 52 78 3f 9f 3a c2 3e a8 ba 12 be
       0.36761764 0.97001296 0.3793535 -0.14329016
0002b0 28 25 e0 be 37 c4 96 bd da f1 61 bf 4e 3c 9d bf
       -0.43778348 -0.07361644 -0.8825966 -1.2284029
0002c0 e9 e6 39 bf 43 a6 31 bf b4 e0 87 bf d2 c0 1b bf
       -0.72617966 -0.6939432 -1.0615449 -0.60841095
0002d0 31 66 17 3f 9d e5 d7 3e 58 10 15 3f 3e 07 45 3e
       0.59140307 0.4216737 0.58228064 0.19241044
0002e0 0f 9d 82 bc af 63 74 3e 67 31 ec 3d 66 fe 0d be
       -0.015944032 0.23866151 0.1153286 -0.13866577
0002f0 e5 d0 ec 3d d5 34 99 3e 92 fd 03 3f 0a 13 ba 3e
       0.11563281 0.2992312 0.5155879 0.3634265
000300 fc 64 c5 3e 4a cb 2c 3f fe be 18 3f b0 02 79 be
       0.38553607 0.67497694 0.5966643 -0.24317431
000310 d0 0a 0c bd e3 86 8b 3b 45 8f 06 3e ae 47 87 3e
       -0.03419 0.004258023 0.1314059 0.26421875
000320 a6 9a 92 3e 0f 58 06 bd 17 22 b0 3d a9 8d 40 3e
       0.28633612 -0.032798823 0.08600252 0.18804039
000330 33 09 d4 be ce 45 cd be 9b d4 80 be 51 f3 30 3c
       -0.41413268 -0.4009232 -0.25162205 0.010800199
000340 ef 49 b0 3b 7d 2c fa 3d 17 b3 4c be 3c b2 59 be
       0.0053799073 0.12215517 -0.19990192 -0.21259397
000350 aa b4 01 bd 22 c1 83 be f2 43 97 be 52 d7 e6 bd
       -0.031666435 -0.25733286 -0.29544026 -0.11271538
000360 68 a6 62 bd eb 8b 78 3f 83 d4 94 3d b2 19 7b 3f
       -0.05533448 0.970885 0.07267096 0.9808608
000370 e8 1f be bf 49 9b 2a 3f 22 c9 4f 3e f4 cf 4e bf
       -1.4853487 0.66643196 0.2029157 -0.8078606
000380 0d d9 02 3f 3a 51 c3 3d 75 b6 aa 3e 1f 45 0a 3e
       0.51112443 0.09536977 0.3334233 0.1350293
000390 5d 15 cf 3e 79 bc 31 c0 00 f6 91 bd 82 90 26 3f
       0.40445986 -2.7771285 -0.07126999 0.6506425
0003a0 93 ff 3e bf e7 9f 84 3f 2c 5a 4a be d2 cb 0f 3f
       -0.74608725 1.0361298 -0.1976096 0.5617038
0003b0 9d 59 36 3e 79 b6 98 3e ca a3 02 c0 28 60 2c 3e
       0.17807622 0.29826716 -2.041247 0.16833556
0003c0 2a 67 b7 3e 48 17 df be 24 a2 84 3f 9e 82 67 be
       0.35820895 -0.4357245 1.0361981 -0.2260842
0003d0 ae 01 10 bf 0e d5 84 be 4d 2d 03 bf 7f ad 61 bf
       -0.56252563 -0.25943798 -0.51241 -0.8815536
0003e0 55 a2 15 bf 78 d2 09 bf 95 96 6a bf 8e 30 15 bf
       -0.58450824 -0.53836775 -0.9163602 -0.58277214
0003f0 5b e0 1f 3f ee 39 4b 3f 68 b7 2c 3f af 02 8b 3f
       0.62451714 0.7938527 0.67467356 1.0860194

dense1.0.bn1.weight f4 [24]
000000 e6 95 40 3f f0 55 df 3e c0 c1 0c 3f 60 64 6a 3f
       0.75228727 0.43620253 0.5498314 0.9155941
000010 8a 97 fa 3f e1 86 bf 3e e6 7a a0 3f 3c 67 24 3f
       1.9577496 0.37407592 1.2537506 0.64220023
000020 bf d2 04 40 30 b1 c6 3e ce c3 f8 3e 6f 01 a0 3e
       2.075363 0.38807058 0.48586887 0.31251094
000030 7d 64 da 3e 98 37 cf 3e 3b b5 66 3f 6d cf 89 3f
       0.4265479 0.40472102 0.90120286 1.0766426
000040 6c 7e 9c 3e 36 e8 bf 3e 54 62 8d 3e cd b5 2c 3f
       0.30565202 0.3748185 0.2761408 0.67464906
000050 9b e0 05 3f 9f ff 6e 3f 77 d3 cb 3e fb db 08 3f
       0.52295846 0.93358797 0.39809772 0.53460664

dense1.0.bn1.bias f4 [24]
000000 dd 6a 0e bf 06 f1 b9 be f0 a9 d4 bd 78 b3 ed 3e
       -0.5563181 -0.363167 -0.103839755 0.46425986
000010 14 b1 30 3f 4f 46 81 be e3 6c a1 bf c8 d3 f0 be
       0.690202 -0.25248954 -1.2611355 -0.47036576
000020 f0 42 34 3f 50 19 30 be 62 dc 70 be 9e 69 f2 3d
       0.7041464 -0.17197156 -0.2352157 0.11836551
000030 fd f8 18 3d e2 f3 c2 3e 6a 68 c7 3e 4e 27 87 3e
       0.03734683 0.38076693 0.3894685 0.26397175
000040 29 c0 6f be ad f4 9d be 1d f7 a2 be 8d 0a 88 3e
       -0.23413147 -0.30850735 -0.31829157 0.2657055
000050 8e f3 eb be 4d 52 33 3f 8d 9e b7 3d 4a 45 6a be
       -0.46084255 0.70047456 0.08965788 -0.22877994

dense1.0.conv1.weight f4 [12, 24, 3, 3]
000000 80 7f 9e 3d b6 9c 95 3a bc c4 2a 3e 85 95 99 3b
       0.077391624 0.0011414501 0.1667661 0.0046870136
000010 9b 0e f4 bd 32 54 4a 3d 54 b1 12 3d 96 cb 16 be
       -0.11916848 0.0493967 0.035813645 -0.147261
000020 e4 de ca 3b 3e c9 03 3d f6 63 2f be 11 48 02 3e
       0.0061911214 0.03217434 -0.17127976 0.12722804
000030 e2 21 4e bd 1b e9 35 be b7 5c 1b 3d f9 2e 86 3d
       -0.050325282 -0.17764704 0.037930217 0.06551928
000040 9a 77 53 3d f6 5a 2a 3d c2 88 7e 3d 92 9c 31 bd
       0.051627733 0.041590653 0.06214214 -0.043362208
000050 41 1e 70 3e 66 7f 11 3d 37 a2 d4 bd 4d df 53 3e
       0.23449041 0.035521887 -0.103825025 0.20690651
000060 18 9d 31 bd 59 58 78 be 2d 88 32 3d e5 3a 76 3e
       -0.043362707 -0.24252452 0.0435869 0.24045904
000070 88 3c 2b be 05 8f 98 be d2 aa 90 3f 15 71 61 3a
       -0.1672231 -0.29796615 1.130213 0.00085999194
000080 f4 55 6d bf b3 08 16 be 4b 69 ed bd c5 ad a2 be
       -0.9270928 -0.14651756 -0.11592349 -0.317732
000090 36 9f 0b 3f 26 8d a5 bf a7 77 24 3f 82 6b bd 3f
       0.5453981 -1.29337 0.64245075 1.4798434
0000a0 79 6d de bf 0b 99 af 3e ec 28 af 3e 5e 19 46 bf
       -1.7377158 0.3429645 0.34210908 -0.7738246
0000b0 a7 d1 d5 3e 40 eb ea bb 01 d8 c7 3b 36 eb 97 3d
       0.41761515 -0.0071691573 0.0060987477 0.0741791
0000c0 c0 8e 66 bd 2d 36 a0 bd d6 d8 16 bc ff 50 1c 3d
       -0.05628848 -0.07822833 -0.009206971 0.03816318
0000d0 4e 23 76 3c 6d da 7a 3d c8 c2 13 be d5 0f 1f be
       0.015023066 0.061243463 -0.14429772 -0.15533383
0000e0 ab ca 49 3c 72 8b a4 bd 89 19 1c be b2 89 55 bc
       0.012316386 -0.080344096 -0.15244116 -0.013033317
0000f0 6b 61 99 3d a8 3d 5b bd 20 64 8c bc ac 4b 71 3b
       0.07489284 -0.053525597 -0.017137587 0.0036818786
000100 37 b1 2d 3d 68 50 b8 3d 26 39 dd bd fd 00 b2 bd
       0.042405333 0.08999711 -0.10801916 -0.08691595
000110 31 cb b0 3d 2d 14 20 bd 15 e4 e1 bb cf ba 2f 3e
       0.08632506 -0.03908174 -0.0068936446 0.17161106
000120 a4 d1 8f be 27 ed 5e 3f bf bd 1e bf 88 ef 12 bf
       -0.2808963 0.87080616 -0.6200828 -0.57396746
000130 2f 2f c0 3f 28 f1 8a bf df cc 42 be 29 e6 da 3d
       1.5014399 -1.0854845 -0.19023465 0.10688431
000140 17 08 6d be b4 47 48 3d 19 da 1b bd 07 ef 98 3d
       -0.23147617 0.048896506 -0.03804979 0.07467466
000150 44 57 9b 3d 42 e2 b7 bc 20 4e 51 3d 07 d4 e2 3d
       0.07585004 -0.022446755 0.051099896 0.11075597
000160 6b 8f 9c bc 27 ea 11 3d 48 86 01 3e 9e 0c 8b 3c
       -0.019111356 0.035623696 0.1264888 0.01697379
000170 91 d5 52 3d 79 1b 86 3d ca 96 8f bd 46 34 b2 bb
       0.051473204 0.06548209 -0.070111826 -0.0054383604
000180 b1 f4 c3 3d e4 c3 e7 bb c7 87 29 3d 86 cd bb 3c
       0.095681556 -0.0070729125 0.041389253 0.02292515
000190 f7 33 6c bd d3 e0 06 3e 21 d9 09 bd a0 a4 dc bd
       -0.057666745 0.13171701 -0.033654336 -0.10773587
0001a0 71 2d bd 3d d2 e8 bd 3d c4 34 df bb 1c b1 13 3e
       0.09237183 0.092729226 -0.00681171 0.1442303
0001b0 c5 fc 3d 3e aa 44 cd 3c cf 10 01 3e b3 86 bf 3d
       0.18553455 0.025057156 0.12604068 0.09351864
0001c0 cb a1 f5 bc 59 a1 e4 3c 6d c0 09 3e b6 2c 24 3c
       -0.029984375 0.027908968 0.13452311 0.010020426
0001d0 65 0b 9f 3d 53 57 95 bd 82 0d 99 bd 96 1f f1 3c
       0.07765845 -0.072920464 -0.074732795 0.029434007
0001e0 aa 23 2a bb 9d 7c fe bd e6 68 01 3e fc 0f 2c 3e
       -0.00259612 -0.12426112 0.12637672 0.16802973
0001f0 dc 06 c3 bc 1a bf 8a 3e 1c 97 90 3e f4 70 00 be
       -0.023806982 0.27098924 0.28240287 -0.12543088
000200 f1 24 92 3e 57 7f 8d 3e 24 c4 51 be c2 b8 a4 3d
       0.2854381 0.27636215 -0.20484978 0.08043052
000210 c8 dd 7d 3d ac 1d 34 be 32 6e 62 bc eb 2a 10 3b
       0.061979085 -0.17589444 -0.013820218 0.0021998237
000220 cc 81 8f 3d ea 6a d7 3d bb 67 2b be b2 80 9a 3d
       0.07007179 0.10518439 -0.16738789 0.07544078
000230 b2 fb 03 3e 1c 0a 3a be 44 9c eb bb cb 75 0e 3e
       0.12888983 -0.18167919 -0.007190259 0.13912122
000240 81 30 bf 3b 71 86 30 bd 25 82 24 bc 62 a8 33 3d
       0.0058346395 -0.043096963 -0.0100407945 0.043861754
000250 fb 5a 04 3c 5b 77 80 bc 48 42 99 3d 30 4d 47 3d
       0.008078332 -0.015681913 0.07483345 0.048657596
000260 28 49 34 3c dd 2c 8b 3d 1d 33 a6 3c bd c5 62 3d
       0.01100377 0.06795666 0.020288045 0.05536436
000270 16 d6 f9 3c be 53 da bc dc d3 be 3c 49 e7 ec bc
       0.030497592 -0.02665126 0.023294382 -0.02891888
000280 61 ce b3 bd 66 ab 78 bd d9 de 1e bd 70 d5 4a bd
       -0.08779598 -0.060710333 -0.038786743 -0.049519956
000290 55 2b 81 bc d0 19 4a bd 85 0b 9e bd 29 3a ee bc
       -0.015767733 -0.049341023 -0.07717041 -0.029080467
0002a0 d4 a0 21 3d a7 2f aa bb b9 c8 94 3c d4 b3 9c bc
       0.03946002 -0.005193669 0.018162118 -0.019128717
0002b0 fa 6b 14 be 32 6f 50 bd 14 6b d2 3e 79 da da bd
       -0.14494315 -0.050887294 0.4109732 -0.106862016
0002c0 0b 34 3e be 5c 89 79 3e ef 2b 5b be 06 01 91 be
       -0.1857454 0.24368805 -0.21403478 -0.28321093
0002d0 4f 7a 84 bd f2 fb 3a be f4 b3 38 bd 14 09 c9 b9
       -0.06468641 -0.18260172 -0.04509349 -0.0003834447
0002e0 c8 41 af bd c0 02 e1 3c 37 ff f2 3d 46 f5 e9 3d
       -0.08557469 0.027467132 0.118650846 0.11423735
0002f0 90 b1 21 3e a4 2f 5b bf 7d e5 ad bc 75 30 0c 3f
       0.15790391 -0.8561957 -0.021227593 0.5476144
000300 0a 13 72 bf 41 5d d6 be e0 38 d8 3f 21 6e 3f be
       -0.945603 -0.41868022 1.6892357 -0.18694355
000310 90 83 62 bf 3c 8c 37 3e 1a b5 16 3d 1d 42 89 bd
       -0.88482 0.17924589 0.036793806 -0.06702063
000320 ad 5c 4a bb 18 af 28 3d f9 7e d9 bb 10 b0 3f 3d
       -0.0030877993 0.041182607 -0.006637451 0.046798766
000330 6d 9a b3 bd 49 03 15 be 1f 20 0b bd b1 84 ed 3d
       -0.08769689 -0.14552034 -0.03396618 0.115975745
000340 5a 27 0a 3e 01 bf 60 3e 1a a6 d3 3d f9 76 cc 3d
       0.13491574 0.21947862 0.10334416 0.0998363
000350 77 bf 86 3e 1a ec 44 be 3f 7c 97 be dc 8a ee bd
       0.2631795 -0.1923069 -0.2958698 -0.11647579
000360 fc 09 94 be d3 2e 28 be 78 6d 5a be fa 5c 27 be
       -0.28913867 -0.16424112 -0.21330822 -0.16344061
000370 f4 ad 46 bc d6 75 ba bd 46 8b 69 be e2 ac d3 bd
       -0.012126435 -0.09104507 -0.22807035 -0.10335709
000380 9e 79 42 be b7 da 23 3e 52 67 2c 3e 46 93 56 3e
       -0.18991706 0.16001402 0.16836289 0.20954618
000390 7f d6 a2 3d ca 4c 88 3d 98 10 87 3d 7e aa 00 3d
       0.07951068 0.06655271 0.06594962 0.031412594
0003a0 e1 3e c6 bb a9 bd 0e bd f5 d7 c1 3d 55 d6 23 3e
       -0.006049976 -0.034848843 0.09465019 0.1599973
0003b0 17 b0 a6 3d b4 2a 49 3e d5 49 8e 3e 7a da 44 3e
       0.08139055 0.19645196 0.27790704 0.19223967
0003c0 14 b7 b7 3d 8b 8c 3b 3e 0c c2 ad 3d c9 9e f0 bc
       0.08970466 0.18315332 0.08484277 -0.02937259
0003d0 f3 9b 19 3e 3c f6 09 bd 65 5d 1f 3d 17 c3 56 3e
       0.15000896 -0.033682093 0.038907427 0.20972858
0003e0 3d 93 37 bd 32 2a cb bc 8d 5c 22 3e a0 93 05 3a
       -0.04481815 -0.024800394 0.15855618 0.0005095545
0003f0 05 c9 a7 be da 4c ed bd 55 f7 9e be 3f 00 ef 3d
       -0.32770553 -0.11586924 -0.31048074 0.11669969

dense1.1.bn1.weight f4 [36]
000000 08 68 ee 3e b8 b1 61 3f 6a ba 8f 3e b7 f6 34 3f
       0.46563745 0.881618 0.2807191 0.70688957
000010 b5 a7 4c 3f 73 5e 25 3f 5d b8 3d 3e 58 0d 2f 3f
       0.799434 0.64597243 0.1852736 0.68379736
000020 61 b5 04 3f 81 7c e8 3e 03 89 b6 3e c8 45 c3 3e
       0.5183926 0.4540749 0.35651407 0.38139176
000030 45 66 d0 3e b2 b6 28 3f 35 fa e0 3e 6c 28 70 3d
       0.40703025 0.6590377 0.43940893 0.0586323
000040 be cd c7 3e 66 ea 31 3f e7 2b d4 3e e7 9c 06 40
       0.39024156 0.6949829 0.41439745 2.1033266
000050 aa 16 a0 3f dc 0b 07 40 23 ef 21 3f 10 54 67 3f
       1.2506917 2.1100988 0.6325552 0.90362644
000060 bd 3b bc 3f 85 1d 57 3e 21 0d bd 3f b8 6b bf 3f
       1.4705731 0.21007355 1.4769632 1.4954748
000070 fc 61 f2 3e b2 30 d8 3e d9 84 ab 3f 94 ab 22 3f
       0.4734038 0.42224652 1.3399917 0.6354306
000080 1b bb 03 3f 95 02 68 3f 8c ad ae 3f 3f 25 e1 3f
       0.51457375 0.9062894 1.3646712 1.7589492

dense1.1.bn1.bias f4 [36]
000000 5f 66 cc be c0 51 5f 3e d2 48 59 be 3b 6b 06 bf
       -0.39921853 0.21808529 -0.21219185 -0.5250737
000010 37 4c 05 bd aa 77 a7 be 4e 61 34 3d a9 d0 04 bf
       -0.032543387 -0.32708484 0.04403811 -0.5188089
000020 df 87 1e be b2 85 24 bc db e9 8e be 76 2f 51 be
       -0.15481518 -0.010041641 -0.27912793 -0.20428261
000030 bf 9a c3 be 18 28 a4 3e ff 10 17 be d9 e5 d2 bc
       -0.38204 0.3206184 -0.14752577 -0.025744366
000040 cd 0c 95 be f0 c6 4d bf 45 41 55 be bf 4d 44 bf
       -0.2911133 -0.8038168 -0.2082568 -0.7668113
000050 d4 90 07 bf cd f1 31 bf 39 07 da bd 7a 10 02 bf
       -0.52955365 -0.69509584 -0.10645909 -0.5080639
000060 01 3f bb bd 94 ad 2a bb a8 dc 90 be 80 73 00 3e
       -0.091428764 -0.0026043402 -0.28293347 0.1254406
000070 74 2e 13 3b ae b4 32 be 6f 94 5f 3e 8d 23 f6 be
       0.0022458108 -0.17451736 0.21833967 -0.48073998
000080 27 b0 d5 bd 1d a8 bf be 20 a0 87 3d 69 cf d4 3e
       -0.10433989 -0.37432948 0.06622338 0.4156449

dense1.1.conv1.weight f4 [12, 36, 3, 3]
000000 c3 8c d7 bd f9 4f 9c bd b3 05 a9 bd b5 56 97 bb
       -0.10524895 -0.07632441 -0.0825304 -0.0046184906
000010 65 74 c1 3a cb 7a 0a bc d7 f4 9d 3d 57 76 c5 3d
       0.001475942 -0.008452128 0.07712715 0.09641712
000020 07 80 c6 3d e9 96 5f 3d 9f a6 6e 3c 8d 9e d4 3d
       0.09692388 0.05458728 0.014566093 0.10381804
000030 cf 9f b2 3d 43 7d a0 3d 83 34 10 3e ec a2 f4 3c
       0.08721887 0.07836392 0.14082532 0.029862843
000040 fa 81 a3 bc 50 06 df 3c a2 6d 08 bc 4a 2f 29 bd
       -0.019959439 0.02722469 -0.00832692 -0.041304864
000050 fd 62 d4 bc 7c 9c 30 bb c2 d5 af bc 2c d0 84 bc
       -0.025926108 -0.002694874 -0.021464232 -0.016212545
000060 72 42 80 3b b2 a8 db ba cd 24 f3 bb 04 30 af 3d
       0.003914171 -0.0016758649 -0.0074201585 0.0855408
000070 83 6e a9 3d 54 81 2c 3d e2 58 11 bd a5 69 16 3d
       0.082730316 0.042115524 -0.035485156 0.036721844
000080 3f 16 46 3c 97 61 eb bd 30 67 83 bd 6d 12 18 bd
       0.012090265 -0.11493223 -0.06416166 -0.037126947
000090 3c fb b2 3c 5d 37 fc bb 04 40 2b bd 67 29 d1 bc
       0.021848314 -0.0076970295 -0.041809097 -0.025532437
0000a0 00 28 37 bd 4d f1 9a bd 47 79 9e bd ef 21 c1 bd
       -0.04471588 -0.07565556 -0.077379756 -0.094303004
0000b0 e0 c7 d0 bd ce 98 7d bd 67 61 ae bd 78 6b 95 bd
       -0.10194373 -0.061913304 -0.08514672 -0.07295889
0000c0 05 fd ed bc 08 00 54 bd f4 5e fe bc d3 95 de 3a
       -0.029051313 -0.051757842 -0.031051137 0.0016981907
0000d0 51 74 96 bc bc fa 2b bb b1 ed 55 3d 39 a3 13 3d
       -0.01836601 -0.0026241979 0.052228633 0.036044333
0000e0 f4 2d 89 3d d3 0f c4 3d 34 7d d6 3d 10 a1 ca 3d
       0.06698218 0.09573331 0.10473099 0.098940015
0000f0 af 71 df 3d 60 63 e4 3d e8 13 e3 3d 37 a8 ac 3d
       0.10910355 0.11151767 0.11087781 0.08430522
000100 8a 8c b6 3d f5 7b d2 3d 84 a4 05 3c 61 18 26 3d
       0.089135244 0.10277549 0.008156899 0.040550593
000110 4c 7d 5e 3d 13 3c a3 3d 82 74 ae 3d 30 b7 fa 3d
       0.05431871 0.079704426 0.08518316 0.122419715
000120 82 9d 8c 3b f1 17 23 bd 92 05 c1 bc 79 c6 7d bd
       0.0042912373 -0.039817754 -0.023562226 -0.061956856
000130 9e 7c 8e bd b2 82 09 bd 53 b7 17 bd 09 83 3f bd
       -0.069573626 -0.033571906 -0.037040066 -0.046755824
000140 73 d6 3b bd 85 10 6d bd f4 34 b0 bd cc 50 c5 bc
       -0.04585881 -0.057877082 -0.0860385 -0.024086379
000150 fc 27 22 be ea 87 33 be e4 0b fc bd 80 e4 92 bd
       -0.15835565 -0.17532316 -0.123069555 -0.07172489
000160 01 0e bc bd 85 9a 49 bd 8c bf 9a 3d d1 bd b0 3d
       -0.091823585 -0.049219627 0.07556066 0.086299546
000170 66 c1 c5 3d 3b 1c 95 3d 04 ab 8f 3d 58 97 b3 3d
       0.096560284 0.07280775 0.070150405 0.08769101
000180 1d 41 a4 3d ed 05 9c 3d e4 41 c4 3d 3c 98 53 bd
       0.08020232 0.07618318 0.0958288 -0.051658854
000190 b7 ea 6b bd a5 fa 71 bd 75 9b b1 bb b0 a5 93 3a
       -0.05759689 -0.059076924 -0.0054201433 0.0011264589
0001a0 eb d8 41 bc 0f 88 66 3c 94 fb fa 3c 4a 67 00 3d
       -0.011831502 0.014070525 0.03063754 0.031348504
0001b0 a7 4e 3d 3c 41 89 46 b9 86 d9 87 3c b9 eb a1 bc
       0.011554397 -0.00018933883 0.016583215 -0.019765722
0001c0 18 92 09 bd e1 27 25 bc 22 67 1b bb 66 da d0 bc
       -0.03358659 -0.010080309 -0.0023712595 -0.025494765
0001d0 d6 05 96 bb fa e6 98 3e 65 87 fb 3d 1e 26 21 3e
       -0.0045783324 0.2986372 0.12281684 0.15737197
0001e0 1d 78 65 3d 6c 4a a9 bd c7 e5 11 bd 5e 72 ab 3e
       0.056022752 -0.08266148 -0.035619523 0.33485693
0001f0 66 36 4b 3e c3 9d 6d 3e 2a 5b 86 3c 8b 36 fc 3b
       0.1984497 0.23204713 0.016400892 0.0076969317
000200 a4 8f 12 3d 13 cc 0d bd 98 b9 e9 bc f7 31 2f bc
       0.035781518 -0.03461845 -0.02853088 -0.010693065
000210 8b 28 4f bd ae 81 9d bd 48 da ce bc 50 5b 81 3b
       -0.050575774 -0.0769075 -0.025250569 0.003947653
000220 6b 7a ac bb 47 49 50 3b b1 65 92 3b 29 58 96 bb
       -0.005263617 0.0031781958 0.004467689 -0.004588146
000230 0d e3 80 b8 5f d2 19 bc 02 28 8d bc 25 9a c8 3b
       -6.145807e-05 -0.009388535 -0.017230991 0.006121891
000240 5e 03 f3 3c 3c 08 3d 3d 67 61 1c 3d 46 23 d7 38
       0.029664692 0.04615043 0.038178828 0.00010258569
000250 7a 22 2d 3c fe e7 44 3c 9b 62 4a 3d 51 ff 1e 3d
       0.010567302 0.012018202 0.049410444 0.038817707
000260 a5 a9 13 3d b6 bd e8 3d 62 21 db 3d e9 4f dd 3d
       0.036050458 0.113643095 0.10699727 0.10806257
000270 98 83 2c 3e 35 51 50 3e 16 87 4f 3e 12 a9 75 3e
       0.16847074 0.20343478 0.20266375 0.23990276
000280 66 72 86 3e bc f0 81 3e f1 f5 49 3c b0 cc b4 3b
       0.26259154 0.25378978 0.012326703 0.0055175647
000290 3d 1f 61 3d 6d a0 31 3d 7b 09 38 3d f1 b7 8c 3d
       0.05496143 0.043365885 0.044930916 0.068710215
0002a0 af 4d b0 3d 0d 0a b9 3d c4 13 fe 3d 6c 88 37 3e
       0.08608567 0.0903512 0.12406114 0.17923135
0002b0 4e 3c f5 3d 40 0b fe 3d 7f d5 9a bd e4 2b 0d be
       0.11974393 0.124044895 -0.075602524 -0.13786274
0002c0 e3 c0 48 be 21 6d e7 3d c8 76 83 3b 47 7d 1b be
       -0.1960483 0.113001116 0.0040119626 -0.15184508
0002d0 a9 d0 09 3e 2f 3e bf 3d 8e 62 c0 3d 3a ba 2e 3e
       0.13458504 0.093380325 0.09393798 0.17063227
0002e0 c0 f2 ef 3d 7e ab 0d 3e 75 0a e0 bb 60 35 13 bd
       0.11716223 0.1383495 -0.006837184 -0.035939574
0002f0 24 7d b9 bc 74 fd 33 3e f3 d1 36 3e 63 15 22 3e
       -0.02264268 0.17577153 0.17853527 0.15828471
000300 e2 a8 78 3c 56 63 9a 3d 45 c7 91 bd 9a 79 d7 bd
       0.015176984 0.07538478 -0.07118086 -0.105212405
000310 d8 dd e3 bd 55 d9 5c be 1f 4d a4 3d bd 9a 4c 3d
       -0.11126298 -0.2156728 0.08022522 0.049952257
000320 fb 54 88 3d de 62 a9 3d 5b 35 76 3d d9 15 87 3d
       0.06656834 0.082708105 0.060109477 0.06595964
000330 2d ce 2f 3e 1c 8b 2d 3e 35 19 38 3e 8c 27 aa 3d
       0.17168494 0.16947597 0.17978366 0.08308324
000340 0e 2f 74 3d 32 70 9a 3d a0 a7 ab 3d 29 2e 51 3d
       0.059615187 0.07540931 0.08381581 0.051069412
000350 a8 0e 4a 3d 76 ca 36 3e 73 e8 1c 3e 24 0d 26 3e
       0.049330384 0.1785067 0.15323047 0.1621595
000360 a4 a7 1e be 5d af 0e be ec 38 88 be f4 b9 18 bf
       -0.15493637 -0.13934083 -0.26605928 -0.5965874
000370 70 2a 10 bf dc 35 1d bf df fd 2c bf 70 67 1f bf
       -0.56314754 -0.6141031 -0.67574877 -0.6226721
000380 a2 8f 2a bf 69 c9 7d bc 15 f5 e5 bc b2 be bd bc
       -0.66625416 -0.015489914 -0.028070966 -0.02316222
000390 33 9c 98 ba 6d 07 3f 3c 18 f2 92 3b f3 fb 26 3c
       -0.0011643231 0.011659485 0.004484426 0.010191905
0003a0 d0 d5 37 3c d6 c1 5a 3c af 89 fa be 1d 4e cf be
       0.0112204105 0.013351878 -0.4893317 -0.40489283
0003b0 b2 70 f7 be 16 db 10 bf 29 ec 0b bf dc 97 15 bf
       -0.48328167 -0.565843 -0.54657227 -0.58434844
0003c0 24 81 f8 be e2 66 c7 be 3a 41 f6 be 6b 10 f7 3e
       -0.48536026 -0.3894568 -0.4809664 0.48254713
0003d0 d0 1a c1 3e e5 f4 a5 3e b0 92 4e 3d 81 c9 f3 bc
       0.3771577 0.32413402 0.05043286 -0.02975917
0003e0 6c c6 5f bc b4 79 75 3e 1e 9f 7f 3d f5 f8 87 bc
       -0.013658147 0.23972207 0.062407605 -0.016598204
0003f0 a5 49 a3 bc 43 0a 05 bd af ba 22 bd fb f8 cf 3c
       -0.019932577 -0.03248049 -0.039728817 0.025387278

trans1.bn1.weight f4 [48]
000000 94 e1 32 3f 24 9a a9 3f e8 01 6a 3f ec 7d a3 3f
       0.69875455 1.3250165 0.9140916 1.2772803
000010 d4 8c 97 3f 28 a5 84 3f 63 58 84 3f bc b4 62 3f
       1.1839852 1.0362902 1.0339473 0.8855703
000020 8b 2d 3e 3f 62 68 89 3f aa bc 39 3f e7 9d 8f 3f
       0.74288243 1.073498 0.72553504 1.1220063
000030 5c f6 87 3f 7a b2 8f 3f fd ce a4 3f 6e e8 49 3d
       1.0622058 1.1226342 1.2875668 0.049293928
000040 83 db 46 3f 0f 43 51 3f d3 40 82 3f dc 11 53 3f
       0.776787 0.8174295 1.0176033 0.82449126
000050 f8 93 82 3f a5 20 6b 3f 50 1a 86 3f 4c 19 78 3f
       1.0201406 0.91846687 1.047678 0.969136
000060 3b cc cc 3f 17 fb b2 3f 81 75 d7 3f ad 2d f4 3f
       1.5999826 1.3982877 1.6832734 1.9076439
000070 d7 0e ca 3f 9e 4d a3 3f c3 27 e9 3f f1 0e 82 3f
       1.5785779 1.2758062 1.8215259 1.016081
000080 87 df b9 3f d4 55 c2 3f 69 dc ff 3f 7f bf 03 40
       1.452134 1.5182443 1.9989139 2.058563
000090 e9 e1 a2 3f 91 f4 15 40 8b df f0 3f 17 83 bf 3f
       1.2725192 2.3430521 1.881822 1.496188
0000a0 47 5c 14 40 03 39 06 40 b7 3c 9c 3f b3 b5 0a 40
       2.3181322 2.0972297 1.2206029 2.16734
0000b0 b3 ab c4 3f 02 ca 0f 40 b1 09 99 3f 3c c4 b4 3f
       1.5364898 2.2467046 1.1956083 1.4122386

trans1.bn1.bias f4 [48]
000000 3d 29 e8 3d ad d8 88 be 9a 35 b8 be fd 7c 1f be
       0.113359906 -0.2672781 -0.35978395 -0.15575023
000010 4c 83 a6 be 9c 44 80 3e 04 e2 42 3e 74 2b a8 be
       -0.32522047 0.25052345 0.1903153 -0.32845652
000020 28 d8 79 bd a1 eb ba 3d f0 4b 20 be 5d 54 3f 3e
       -0.06099716 0.09126974 -0.15653968 0.18684526
000030 33 69 a7 bd 31 94 4c be 7b d9 b8 be 2e 92 d1 bc
       -0.08174362 -0.19978406 -0.36103424 -0.0255824
000040 20 3c 0f 3d 0a 22 56 3e 7f b4 1e 3e 19 1e 30 bf
       0.03496945 0.20911422 0.15498541 -0.68795925
000050 95 5b b3 be 01 a2 53 be 75 a5 8f be d4 eb da be
       -0.3503081 -0.20667268 -0.2805592 -0.42758048
000060 58 b6 7a be a4 d7 b3 3e 4f e3 67 be f8 c6 26 be
       -0.24483621 0.35125458 -0.22645305 -0.16286838
000070 8a 7c 31 bf 33 65 d4 bd 81 cb 4a bf 88 a8 d0 be
       -0.69330657 -0.10370865 -0.7921677 -0.4075358
000080 c4 af d4 be 48 e3 c8 bd 4b cc 60 be c5 76 66 bf
       -0.4154035 -0.098089755 -0.21952932 -0.9002498
000090 a1 79 7d 3e b0 ee 7d bd e2 22 cb be d2 3d 9f be
       0.24753429 -0.06199521 -0.3967505 -0.31101853
0000a0 91 8f e5 3d 81 41 9c be ef 1d 7d bf ba 28 91 bd
       0.11209024 -0.30518726 -0.988738 -0.07087846
0000b0 ba 0f 51 bf 9b 1e 89 bd 27 89 a4 bf d2 f7 a1 3e
       -0.8166462 -0.06695291 -1.2854356 0.31634384

trans1.conv1.weight f4 [48, 48, 1, 1]
000000 75 80 a6 3d cd 01 20 3f 04 d9 ad bd f5 5b d5 be
       0.0812997 0.6250275 -0.08488658 -0.4167172
000010 83 23 1e bd 7b 97 3d be 62 9d ce 3e b0 ae 79 bd
       -0.038608085 -0.18514816 0.4035445 -0.06095761
000020 9d c4 89 bd 1d 7e 5e be 60 16 19 3d 09 78 a9 3e
       -0.06726954 -0.21727796 0.037374854 0.33099392
000030 84 66 a7 3d 04 95 b5 be 8b 44 2d be 62 96 9f 3b
       0.0817385 -0.35465252 -0.16920678 0.004870222
000040 3a 17 25 3d ba 41 b9 be 94 18 8b be 6b 6d 16 3d
       0.040305354 -0.36182958 -0.2716719 0.036725443
000050 41 ab b0 bd b1 8c f1 3e fd e5 59 3d 77 88 5e be
       -0.08626414 0.47177652 0.05319785 -0.21731745
000060 74 c4 e9 3c af 2f be 3d 3b 12 5f be 8f 67 73 3e
       0.028536059 0.09286439 -0.21784298 0.23769973
000070 9f 88 b7 3e eb 5b e2 3d 3a f0 65 3e 77 1f 8c bd
       0.3584642 0.11052688 0.2245492 -0.06841939
000080 d6 55 b1 3e c0 af 5a 3f 1c d6 0e 3e 6a 9a c2 3d
       0.346358 0.85424423 0.13948864 0.095021084
000090 18 20 47 3e 3c 42 bc bd b3 4a 52 3c 97 42 9e be
       0.19445837 -0.09192321 0.0128351925 -0.3091018
0000a0 9a a5 41 3e 32 40 7e 3e 78 57 b7 be 5d 59 70 be
       0.18910828 0.24829176 -0.3580892 -0.2347159
0000b0 cf aa 29 3e fc 62 15 be 37 c9 84 3e 15 d6 3b 3e
       0.16569065 -0.14588541 0.25934765 0.18343385
0000c0 4b f8 87 3e a0 40 8f be 8a f9 1e 3d d0 e4 2f 3c
       0.2655662 -0.27978992 0.038812198 0.0107357055
0000d0 37 84 58 bc 3f 1a af 3c fb bf 30 3e 97 e6 c2 bc
       -0.013215116 0.02137482 0.17260735 -0.023791594
0000e0 63 f9 07 bd de 04 5a bf c7 a8 ff bc 13 74 61 3e
       -0.033196818 -0.85163677 -0.031208409 0.22016935
0000f0 ec e4 d7 be b0 80 d1 bd f3 57 45 be 8e 50 b2 b9
       -0.4216684 -0.10229623 -0.19271831 -0.00034010824
000100 38 4b 79 bd 61 ae b1 bd 15 de 2c bf 73 30 bb 3c
       -0.06086275 -0.08675838 -0.6752637 0.02285025
000110 6a 6b d2 3d 60 91 f0 3d cf 2b c6 bd 03 44 5b 3d
       0.10274394 0.11746478 -0.096763246 0.053531658
000120 77 56 d3 be dd c4 cc 3e a6 6f 79 be fa 2d e1 be
       -0.41276905 0.39993945 -0.24358997 -0.4398039
000130 cf c2 04 bf ac ce 31 3e 6c 5b 97 be 77 e1 5c bd
       -0.51859754 0.17363995 -0.29561937 -0.053925958
000140 cb 0d 7a be 50 82 3f be 84 80 18 bf e6 f0 87 be
       -0.24419324 -0.18702054 -0.595711 -0.26550978
000150 71 58 64 3e 5e 18 a2 3e 56 27 62 3d e1 64 ba be
       0.22299363 0.31659216 0.055213295 -0.3640509
000160 1b ca 20 be d9 df 1b be 3e 95 68 bd 0e 90 28 3f
       -0.15702097 -0.1522211 -0.056782953 0.6584481
000170 72 d8 23 3c 94 42 c5 bc ea 92 15 bf 62 1e 8b 3e
       0.010000335 -0.024079598 -0.584273 0.27171618
000180 12 7c e4 3e 60 44 09 be fe 83 a7 be 66 21 98 bd
       0.44625908 -0.13404989 -0.3271789 -0.07428245
000190 4f 52 85 3e 2a 04 70 3f 27 be 63 3f 69 be 7f 3d
       0.2603936 0.93756354 0.88962024 0.06243745
0001a0 ab 43 87 3d 2f b9 02 bf dd 70 b5 bd 5b 27 a4 3f
       0.066047035 -0.5106382 -0.088594176 1.282451
0001b0 70 4e a9 3e 48 06 f4 bd c7 74 43 3d ad 91 6c 3c
       0.33067656 -0.119152606 0.04771879 0.014439029
0001c0 42 1e 53 be 5d 75 59 bf 7f 7a 90 be 9d 2e 87 3e
       -0.20617011 -0.8494471 -0.28218457 0.2640275
0001d0 13 ed 23 3e ad 09 1f 3e 8f 15 65 be ab f9 7e be
       0.16008405 0.15531035 -0.22371505 -0.24899928
0001e0 fe 7a 73 bd 12 e1 c0 3e 56 d1 4e be e5 dc ef bc
       -0.059443466 0.37671715 -0.20197043 -0.029280135
0001f0 47 aa 57 3e 19 7d 85 be 88 24 ab 3d b8 33 ac be
       0.2106105 -0.26072004 0.08356577 -0.33633208
000200 bf e7 6a be b0 94 94 be 9b d7 05 be 73 7d db bd
       -0.22939967 -0.2901969 -0.13070528 -0.10717287
000210 c4 95 5b be 6b 6c 01 bd 7c 0d 85 bd a1 b9 7b be
       -0.2144385 -0.031597536 -0.064967126 -0.2458253
000220 22 3c 51 3d 3e ba af bd 68 29 80 be d9 f8 2f 3c
       0.051082738 -0.08580445 -0.2503159 0.010740482
000230 ec 42 89 bd f9 78 db bd 0b 46 64 3d 79 2e ad bd
       -0.067022175 -0.10716433 0.05573086 -0.084561296
000240 15 d1 8f 3e 0a 7d 96 3e e9 cf 80 3e 00 95 dd be
       0.28089204 0.29392272 0.25158623 -0.4327774
000250 35 f9 d9 bd cb ed 30 3e 72 b1 01 3f 60 18 2c 3e
       -0.106432356 0.17278211 0.50661385 0.16806173
000260 85 cc 0b 3d cb 1c 6e bd 1c f2 52 3e d1 74 ff 3e
       0.034130592 -0.058132928 0.2060017 0.4989381
000270 88 0a a3 3d 15 3a 96 3e 4c 11 7e 3d 69 8f c6 bb
       0.07960993 0.29341188 0.062028214 -0.0060595763
000280 6b d7 94 bb 3f d0 07 bf 9f f4 1b 3f f8 ff 90 be
       -0.0045422814 -0.53052133 0.6092014 -0.2832029
000290 6b a7 ec be 30 d0 23 bf 46 ef 1c 3e dc 0b 13 3d
       -0.4622148 -0.63989544 0.1532565 0.03589998
0002a0 ba 09 98 be af 44 e7 3e ed ae 0c bc 92 de d3 3e
       -0.2969492 0.4516959 -0.008586627 0.41380745
0002b0 56 80 5d 3f 4d 3e 28 3e fb ba 99 3e f3 68 82 bd
       0.8652395 0.16430016 0.30025467 -0.06367674
0002c0 b6 6d f4 3e 4a 4b 0f be 3c ef 06 3f f3 c7 90 bd
       0.47739953 -0.13993564 0.5270879 -0.07069387
0002d0 d9 fb 98 3e a8 1b 5d be 40 0d b2 be f7 e9 07 bf
       0.29879645 -0.21592581 -0.34775734 -0.5309138
0002e0 47 49 8b 3f c2 10 96 be 5a 9c b2 be 51 13 7a be
       1.0881737 -0.2930966 -0.34884912 -0.24421431
0002f0 99 f4 b7 3d 9d a6 06 3d d6 1d 46 bd 4d 43 25 bf
       0.089822 0.03287374 -0.048368298 -0.6455582
000300 2e ba 73 be b1 3c 3a bf a9 73 06 be a9 97 9d 3c
       -0.2380149 -0.7274886 -0.13130058 0.019237356
000310 2e 08 af bd 8a c8 b0 3e d8 36 06 bc 4f da 37 be
       -0.08546482 0.34528 -0.008191787 -0.17954372
000320 6f 3e a1 3d 9b 22 08 3e 5f 8d 78 bd d6 75 a6 3d
       0.078732364 0.13294451 -0.060681697 0.08127944
000330 98 02 07 3c 4d e1 16 bf eb d8 90 be 43 0c bc b9
       0.0082403645 -0.5893753 -0.28290495 -0.0003586729
000340 c2 4a 53 bc 55 f3 06 bf fc 3e fe 3e 61 5b 62 be
       -0.012896242 -0.52715045 0.49657428 -0.22105171
000350 09 de d8 be 5b e6 db bd bf 02 c0 3d 20 99 48 be
       -0.423569 -0.10737296 0.09375524 -0.19589663
000360 1d 2d 4e 3f 82 39 f4 bc f9 1d ac 3e ba c8 c6 3e
       0.8053759 -0.029812578 0.33616617 0.38825017
000370 b6 7a 3b 3e 41 04 ed 3d db 53 30 bf 8f be 9b 3d
       0.1830853 0.11573077 -0.68877953 0.076047055
000380 2d ca b4 be 3a 48 9f be 12 9f 1c 3d 67 37 cf bb
       -0.35310498 -0.31109792 0.03823764 -0.006323743
000390 08 40 f8 be 42 3e c2 3e a0 d9 0f bf a0 16 0f 3f
       -0.48486352 0.37938124 -0.56191444 0.558939
0003a0 71 d6 94 bf 6a 63 ef 3e 12 4f ac 3b 26 8e 8e be
       -1.1627942 0.46755534 0.0052584494 -0.27842826
0003b0 04 9c 78 3e ce 65 7e bf 0c 38 f9 3c 6d 10 91 3d
       0.24278265 -0.9937409 0.030422233 0.07083211
0003c0 0d d7 f0 be 36 fa 7d 3d ea b3 d3 be 98 41 25 be
       -0.4703907 0.062006198 -0.413482 -0.16138303
0003d0 75 5a e7 3d b2 45 b3 3e b8 ec de ba 45 f5 30 bd
       0.1129655 0.3501411 -0.0017007804 -0.043202657
0003e0 49 6e 8c 3d 0a a2 e1 bc 22 80 6f be 96 5e 5f 3e
       0.06856973 -0.027543087 -0.23388723 0.21813425
0003f0 0d fc 4f 3f d0 9f 88 be c3 97 76 bd e2 6a d7 39
       0.81243974 -0.26684427 -0.060203325 0.0004108763

dense2.0.bn1.weight f4 [48]
000000 a9 0a 3d 3f e8 a7 48 3f 54 ce 83 3f 8d 25 6b 3f
       0.7384439 0.78381205 1.0297341 0.9185417
000010 6c 47 73 3f 72 53 00 3f ba d6 88 3f d0 25 81 3f
       0.95030856 0.5012733 1.0690529 1.0089664
000020 e0 89 3e 3f 9e c5 3f 3f c4 e1 92 3f cb ed 28 3f
       0.7442913 0.74910915 1.1475148 0.65987843
000030 5f 8a f7 3e de 41 40 3f c6 df 42 3f 25 39 67 3f
       0.48347756 0.75100505 0.761227 0.9032157
000040 51 be 5b 3f 3d d1 3f 3f 14 84 2c 3f e9 c1 64 3f
       0.85837275 0.7492865 0.67389035 0.89358383
000050 63 9d 42 3f 77 24 6b 3f 15 c3 12 3f e9 05 a1 3f
       0.76021403 0.91852516 0.5732892 1.2579929
000060 5f 05 62 3f 54 36 8a 3f 30 3b 7e 3f 16 dd 27 3f
       0.88289446 1.079783 0.9930906 0.65571725
000070 0f 8f 1a 3f cb 30 93 3f cb ae 90 3f c8 6a 80 3f
       0.6037454 1.1499265 1.1303343 1.0032587
000080 ef 92 be 3f 08 80 69 3f 9f 6a 5b 3f 05 74 bb 3e
       1.488859 0.91210985 0.85709566 0.36611953
000090 79 42 07 3f d2 11 75 3f cd 47 6a 3f bd 8c 5e 3f
       0.52835804 0.95730317 0.9151581 0.869335
0000a0 38 8a 75 3f a1 02 93 3f f5 bc 01 3f 6f 0f ad 3f
       0.9591403 1.1485177 0.5067895 1.3520335
0000b0 da b7 63 3f 2c fd 78 3f ea 16 34 3f a8 0f 83 3f
       0.8895241 0.9726131 0.70347464 1.0239153

dense2.0.bn1.bias f4 [48]
000000 60 14 05 bf b2 38 39 3e b8 6f b1 be 2a ae da be
       -0.51984215 0.18088034 -0.34655547 -0.42711002
000010 48 27 dd 3e 29 1b db bc 98 ec 8a 3d 11 c1 4b be
       0.43194032 -0.02674635 0.06783408 -0.19897868
000020 49 b4 81 be 0a 44 b2 be 14 b1 93 3f 28 25 84 be
       -0.2533286 -0.34817535 1.1538415 -0.25809598
000030 84 aa 09 be a0 81 83 3c c1 e1 e5 bd e7 68 6d be
       -0.13443953 0.016053021 -0.112247 -0.23184548
000040 7b 3c 02 be d3 e8 ab bc 62 86 e2 be 1a cc 28 bd
       -0.12718384 -0.020985043 -0.4424315 -0.04121027
000050 61 f2 25 bf 60 f1 8d bd dc aa 31 3f 92 2f 81 be
       -0.64822966 -0.06930804 0.69401336 -0.25231606
000060 1c 3a d2 be b3 31 41 3e ba aa 27 bf 65 8a c8 be
       -0.4105996 0.18866615 -0.65494883 -0.39168087
000070 c0 55 98 be da c4 7c bc 4e d0 db 3e 78 b9 48 be
       -0.29752922 -0.015427792 0.4293236 -0.19602
000080 70 43 86 3f ff 4e 44 bf 91 1d 10 bf b6 85 51 be
       1.048933 -0.7668304 -0.56295115 -0.20461163
000090 1d 31 7b be 7c f4 05 be b3 60 9f be f9 ee 3b 3f
       -0.24530454 -0.13081545 -0.31128463 0.7341152
0000a0 f3 e1 5c bd d7 6f db be 0a 78 b2 be a3 48 c9 bc
       -0.05392642 -0.42858765 -0.34857208 -0.024570769
0000b0 86 85 b1 3a a4 ae 06 3e 2d e1 10 3e 61 34 b8 be
       0.0013543821 0.13152558 0.14148398 -0.35977462

dense2.0.conv1.weight f4 [12, 48, 3, 3]
000000 6f ee 8c 3d 71 60 09 be 0f 04 a8 be c5 ae e5 bc
       0.06881415 -0.13415696 -0.32815596 -0.028037438
000010 a8 c7 ac 3d 9a 9a 42 bd 57 ee 0f be 1d 3a b7 3d
       0.08436519 -0.04751072 -0.14055763 0.08946631
000020 b2 ab 79 be 54 ea df bd b5 52 10 be 86 56 de bd
       -0.24381903 -0.109333664 -0.1409405 -0.10856347
000030 68 a0 01 bd 95 66 3c bd ff 75 24 ba 37 5d 44 3e
       -0.031647116 -0.045996267 -0.00062736863 0.19176184
000040 0d 15 b2 3d 05 19 07 3e 0f 62 a8 3d 66 db 7c bd
       0.08695421 0.13193138 0.08221828 -0.061732672
000050 1c 9a 4c 3e d2 f1 a9 be a9 11 ce be 86 3b ab 3c
       0.19980663 -0.33192307 -0.4024785 0.020902406
000060 7c 12 47 3d ec 6f 4d be fa fb cb 3c a9 a9 f1 3e
       0.048601612 -0.20062226 0.024900425 0.47199753
000070 4a bd 70 3e 19 8c 2d be d3 4a 90 3e 17 0e b2 3c
       0.23509708 -0.16947974 0.28182086 0.021735234
000080 cc 3e d3 be 11 46 8f 3e ba 95 52 3d b9 aa aa be
       -0.41258848 0.27983144 0.05141232 -0.33333376
000090 42 ac 06 bf 90 0d b1 be 05 d5 88 3e e0 cf d2 be
       -0.52606595 -0.3458066 0.2672502 -0.4117422
0000a0 23 74 05 be 0c 2b ed 3e 51 62 dd be c0 f6 b0 be
       -0.13032584 0.46321905 -0.43239072 -0.34563255
0000b0 e6 2e b9 3e 87 15 f6 3d 56 e4 10 be 2e 13 cf bd
       0.36168593 0.12015825 -0.14149603 -0.1011108
0000c0 60 e2 85 3d a4 80 af bd 29 e0 b4 ba ee 48 a2 3d
       0.06537318 -0.08569458 -0.0013799715 0.079240665
0000d0 4d 01 a1 bb e1 93 6c 3b 07 66 74 be 0a a9 32 3e
       -0.004913485 0.0036098885 -0.23867045 0.17447296
0000e0 49 34 30 3e cd de d4 be f7 38 01 3d 3f 80 4c 3e
       0.17207445 -0.41576234 0.031548467 0.19970797
0000f0 7a 16 5a be ba 71 5c bd 09 65 e0 3d 45 92 80 be
       -0.21297637 -0.053819396 0.10956771 -0.25111595
000100 a0 da a8 bd 3c c7 34 be 5b fa e0 3d c6 0e 30 bd
       -0.082448244 -0.17654127 0.109852515 -0.04298284
000110 ff be 8a bd 76 36 12 be 8e a1 9a bd 10 1d ef bd
       -0.06774711 -0.14278588 -0.07550345 -0.11675465
000120 17 4b 38 be f8 91 2b bc 30 6c 74 be e2 51 3e 3e
       -0.17997395 -0.010471813 -0.23869395 0.18585923
000130 37 73 05 bd 6f 66 25 be d8 e9 ac 3e 21 05 84 bc
       -0.03258058 -0.16152357 0.3377216 -0.016115727
000140 2d 39 a0 be 75 fc 67 3e 05 67 0c 3e f6 9d a0 be
       -0.31293622 0.22654898 0.13711174 -0.31370515
000150 9e 08 9c 3e 40 24 aa 3e 8e 76 0e bf 28 00 7b 3e
       0.30475324 0.33230782 -0.5564965 0.24511778
000160 00 b2 87 3d cf f0 11 bf c9 74 86 be 55 c9 2b bd
       0.06625748 -0.5700807 -0.26260975 -0.041940052
000170 6f 89 b5 3e 32 f2 e6 be e7 d6 ea bd c6 5a 03 3f
       0.35456416 -0.45106655 -0.114667706 0.51310384
000180 f8 3b ac be f9 fc 35 bd 0d d9 3e 3f ca e7 13 3e
       -0.33639503 -0.044430707 0.74549943 0.1444389
000190 9d b8 d7 bd 29 31 75 be 01 b0 8d 3e bf 51 af bc
       -0.10533259 -0.23944534 0.27673343 -0.021401284
0001a0 d9 2e 67 be 5d 70 4f 3e 1a 4f cb bd 41 4a 83 be
       -0.22576465 0.20257707 -0.09927197 -0.2564259
0001b0 0e 67 83 3e b6 f2 b4 3c f1 be 7a be 62 3c 62 3e
       0.25664562 0.02208839 -0.24486901 0.22093347
0001c0 29 ae 8b 3c 18 ee 48 be ad cd 5c 3e 4b b8 84 3d
       0.01705082 -0.19622076 0.21562834 0.064804636
0001d0 27 b0 07 be 75 89 1c 3e 83 ef 7c bd 34 33 b7 bd
       -0.1325079 0.1528681 -0.061751854 -0.08945313
0001e0 7e fd 16 3e 68 5e 41 be 03 47 46 be aa 52 c1 3e
       0.14745137 -0.1888367 -0.19363026 0.3775838
0001f0 d3 15 53 bd 66 f4 17 bd 00 c2 6a 3e f1 1c 87 bc
       -0.051534485 -0.03709831 0.22925568 -0.016493293
000200 ac 4f c9 be c1 6c a9 3e e6 64 0e 3e e0 65 cb be
       -0.39318597 0.33090785 0.13905677 -0.39726162
000210 bb 9d 4b 3e 04 6d 3e 3d 26 d7 a3 be c7 ce 15 3f
       0.19884388 0.046490684 -0.32000083 0.5851864
000220 12 2d e4 bd 31 01 c9 be f5 73 09 3f 45 91 bc be
       -0.11141409 -0.3925872 0.5369256 -0.36829582
000230 e0 ca 06 bf 54 05 fa 3e 32 8f 2a be 57 8d a5 be
       -0.5265331 0.4883219 -0.16656187 -0.32334396
000240 45 8e 12 be 79 2a 20 bd 73 63 45 3e 40 35 b8 bd
       -0.14312084 -0.039103005 0.19276218 -0.08994532
000250 d8 b2 47 3d 89 b3 9f 3e 3e 3b 86 be 34 a1 b9 bd
       0.048754543 0.31191662 -0.26217073 -0.0906395
000260 da 74 2f 3e 1f 60 35 3e e1 7d 88 bd b5 e0 63 be
       0.17134419 0.17712449 -0.066646345 -0.22253688
000270 1e 56 13 3e 34 58 51 bc e6 8e 37 be 52 17 35 3e
       0.1438832 -0.012777377 -0.17925605 0.17684677
000280 63 db 0a 3e 6d 37 e4 bd 98 33 04 3e 3d 4f 3b 3c
       0.13560252 -0.11143384 0.12910306 0.011432466
000290 ea 82 74 3d f1 e9 4e 3e 3e 23 51 bd 78 49 94 bd
       0.059695162 0.20206429 -0.051059 -0.072405756
0002a0 29 b7 0a 3e b5 61 7b bd 79 31 86 bd 4c 1d 21 3f
       0.13546433 -0.061372478 -0.06552405 0.6293533
0002b0 04 9d 10 3d d8 5b ef be 82 ea 9c 3e 2e ab 32 be
       0.03530599 -0.4674976 0.30647665 -0.17448112
0002c0 c7 11 0a bf b7 2b 8f 3e ac aa 96 bd 1a 74 df be
       -0.53933376 0.2796304 -0.07356772 -0.43643266
0002d0 c7 25 bd bb 0d 0f b7 3d 1d 1b ed 3d 40 c2 47 3d
       -0.0057723257 0.089384176 0.11577437 0.048769236
0002e0 80 9e a2 3d bd 95 a6 3d 7d f2 4f bd 80 13 55 be
       0.07940388 0.08134029 -0.050768364 -0.2080822
0002f0 41 4e e4 be 55 65 c4 be 9b 94 c4 39 90 a3 29 3d
       -0.44590953 -0.3835856 0.00037494753 0.04141575
000300 06 c4 91 be 1b 22 73 3c d7 61 95 3e b0 eb 47 be
       -0.28469867 0.014839674 0.29176208 -0.19523501
000310 21 26 87 3d a0 28 c4 3d 63 ed 30 bd 37 77 da bc
       0.065990694 0.09578061 -0.04319514 -0.026668174
000320 91 98 a4 3d 21 50 1e be 19 e0 cd bc 8e 95 57 3e
       0.08036912 -0.15460254 -0.025131272 0.21053144
000330 3e ab 09 be b1 d3 4a bc 72 0e a1 3e ea e3 01 bd
       -0.1344423 -0.012379573 0.31456333 -0.031711496
000340 a4 4d 53 be cc a1 01 3d 67 c9 b7 3d 18 1d ff bd
       -0.20635086 0.031648442 0.08973961 -0.12456721
000350 33 f1 86 bd 46 92 0c 3e 5e 08 6e bb 37 d7 3d bd
       -0.06588974 0.13727674 -0.0036320905 -0.046347823
000360 79 82 60 bc 29 20 fd bd 6f 63 3a be 2b 6a 9b 3d
       -0.013702982 -0.1235965 -0.18201993 0.07588609
000370 c6 33 5f 3d 29 8a a9 be 62 ca 92 3e 59 6b 0e 3e
       0.054492734 -0.3311322 0.2867003 0.13908137
000380 56 93 ab be 48 d4 d8 be cb f5 67 be 87 95 69 3e
       -0.33510846 -0.42349458 -0.22652356 0.22810946
000390 7f df df be ac 5e 4b be 44 1f 90 3e 50 7b e0 be
       -0.437252 -0.19860333 0.28148854 -0.4384408
0003a0 d7 f9 49 be 9e 74 b3 3d 77 11 82 3c 34 d8 c1 3c
       -0.19724213 0.08762477 0.015877469 0.023662664
0003b0 7f 67 a2 3e 7d 5e 8f be 9e e9 0a be 65 ab 63 3e
       0.31719586 -0.28001776 -0.1356568 0.2223335
0003c0 2c 4a 77 be ea 53 0b be 8a 18 49 3e 53 16 2f be
       -0.24149388 -0.1360623 0.19638267 -0.1709836
0003d0 60 33 46 be d1 86 f5 3d 5e 32 43 be 77 a3 68 be
       -0.19355536 0.11988605 -0.19062182 -0.22718607
0003e0 e2 db 03 3e 1d d7 ef 3d 4f 11 00 be 37 a9 d5 3b
       0.12876847 0.117109515 -0.12506603 0.006520416
0003f0 ac f5 2b be 98 7c 1f bc 4f 54 d7 3d 1e 58 a4 bd
       -0.16792935 -0.009734295 0.105141275 -0.080246195

dense2.1.bn1.weight f4 [60]
000000 11 62 43 3f e7 47 6a 3f 80 8d 87 3f 07 62 82 3f
       0.7632151 0.91515964 1.0590057 1.0186166
000010 73 7b 2f 3f 7a 37 11 3f 02 82 5d 3f c3 65 43 3f
       0.68547744 0.56725276 0.865265 0.7632715
000020 a3 05 03 3f 35 e0 e7 3e 4c dd 6f 3f 87 87 35 3f
       0.51180476 0.45288244 0.9369705 0.70909923
000030 e7 c6 84 3f 53 ae 5e 3f 8d a6 17 3f ab e5 3f 3f
       1.03732 0.8698475 0.5923851 0.7495982
000040 8f 4f 06 3f e4 1b 3b 3f cb 53 1a 3f 90 39 27 3f
       0.52465147 0.7308943 0.6028411 0.6532221
000050 2a fb 03 3f ed c3 47 3f e3 87 db 3e a7 56 71 3f
       0.5155512 0.78033334 0.4287711 0.94272846
000060 10 ab 23 3f c9 e8 26 3f c0 36 7c 3f 88 54 a2 3f
       0.63932896 0.6519895 0.9852104 1.2682047
000070 0f 20 3c 3f f5 c1 34 3f cc ca 54 3f 1e ef 36 3f
       0.7348642 0.70608455 0.83121943 0.71458614
000080 5c 71 2c 3f 5b 32 6f 3f f3 df 84 3f 04 48 46 3f
       0.6736047 0.9343621 1.0380844 0.7745364
000090 ad 43 51 3f e3 c0 4f 3f 57 78 69 3f b0 d5 50 3f
       0.8174389 0.81153697 0.9119925 0.8157606
0000a0 eb e7 8b 3f 1a 6d 5d 3f 66 02 44 3f f4 c1 68 3f
       1.0930151 0.864946 0.7656616 0.9092095
0000b0 d9 29 93 3f 9a 06 4c 3f d7 40 ed 3e d9 47 64 3f
       1.1497146 0.79697573 0.4633853 0.8917213
0000c0 22 7e 9c 3f da 73 40 3f 34 77 22 3f 46 8e 67 3f
       1.2225993 0.75176775 0.6346314 0.9045147
0000d0 33 b7 82 3f 3f 19 65 3f a9 4a 72 3f d9 4a 02 3f
       1.0212158 0.8949165 0.9464517 0.5089546
0000e0 de be 96 3f df 1c 0e 3f 7f 5e 8d 3f bd 65 33 3f
       1.1776998 0.55512804 1.1044463 0.70077115

dense2.1.bn1.bias f4 [60]
000000 34 d6 25 bf 20 5c 59 3d db 4c ae be 99 86 11 bf
       -0.64779973 0.053066373 -0.3404301 -0.56846005
000010 79 41 f0 3e 37 d6 fb bd b2 12 54 be eb 15 f4 be
       0.46924952 -0.122967176 -0.20710257 -0.47672972
000020 77 8b c0 bd ee 5f 49 be 2d dd c2 3e 8a 76 1c bf
       -0.09401601 -0.196655 0.3805937 -0.61118376
000030 77 d4 39 bf 13 3f d8 bd a3 b5 db 3c 8e 0b a8 be
       -0.7258982 -0.105589055 0.02682001 -0.32821316
000040 94 e5 46 be 8b 3f b8 bc 73 9c d1 be 0c 48 6c bc
       -0.19423515 -0.022491237 -0.40939674 -0.014421474
000050 d4 c7 35 bf 84 55 a4 bd d3 e3 51 3f ff 34 ca be
       -0.7100804 -0.08024123 0.8198826 -0.39493558
000060 8e f2 b1 be 05 34 37 3e b1 30 c5 be bc aa e2 be
       -0.34755367 0.17890938 -0.3851371 -0.44270885
000070 a2 4e b2 bd 87 0f c1 3e 01 c2 92 3e 2c 28 f2 be
       -0.08706404 0.3770716 0.28663638 -0.47296274
000080 03 a0 25 3f 5a ad f3 be 42 62 e1 be d4 7b 9e be
       0.64697284 -0.47593194 -0.44020277 -0.30953848
000090 2e 54 c9 be 20 a1 8c be 64 57 6d be 2c c8 91 be
       -0.39322037 -0.2746668 -0.23177868 -0.28473032
0000a0 a3 20 28 bf e4 b0 f0 be a5 6b 64 be 1c 75 a2 3e
       -0.656748 -0.47009957 -0.22306688 0.31729972
0000b0 5e 91 39 bf d8 ee 08 bc 73 e4 13 3c d8 05 e3 be
       -0.7248744 -0.008357726 0.0090266345 -0.44340396
0000c0 8d fd 3f bd 94 69 7c be f1 2e 0b 3e 5a 50 dc be
       -0.046872664 -0.2464965 0.13592125 -0.43030053
0000d0 d5 09 79 be d1 e3 f7 3d fc 12 42 be d3 a0 2b 3f
       -0.24320157 0.121039994 -0.18952554 0.67042273
0000e0 47 a7 b6 3d 50 8a 2a be a6 12 46 bd 39 09 82 be
       0.08918624 -0.16654325 -0.04835763 -0.2539766
