independent_train_1000.0/client33/checkpoint_1000.0.pth (torch, 420139 bytes, 98 tensors)

conv1.0.weight f4 [16, 3, 3, 3]
000000 77 cf 4b 3d 4a c5 91 bd 75 9d c0 3e eb 17 c0 be
       0.0497584 -0.07117708 0.3762013 -0.37518248
000010 7b 12 52 bf 0c 32 9e be 07 ff 1d be e5 19 1e bf
       -0.8205945 -0.30897558 -0.15429316 -0.6175826
000020 aa 82 37 be 0a e5 9e 3c c1 5b 86 be 1b 7b 9e 3d
       -0.17920938 0.019396324 -0.26241878 0.07738324
000030 f5 e0 bf bd a1 c2 21 bf 0a 19 64 be cb 96 b2 3e
       -0.09369079 -0.63187605 -0.22275177 0.3488067
000040 04 5c 33 be cf 5c 37 3e 8b 98 22 bd 6a b2 9a bd
       -0.1751557 0.17906497 -0.039696258 -0.07553561
000050 d5 b7 5d 3e 78 1f b4 be db 6b 1f bf 7c b1 6a be
       0.21652158 -0.3518026 -0.6227395 -0.22919267
000060 ea 7c 7f be 8f e1 05 bf 14 a3 23 be 94 a9 36 bf
       -0.24949995 -0.522973 -0.15980178 -0.71352506
000070 65 8b 2b bf ca b9 2b bf 55 bd 8a bf 70 18 88 bf
       -0.67009574 -0.67080367 -1.083903 -1.0632458
000080 7d d7 74 bf 82 52 8c bf 1f 71 a4 bf 82 49 89 bf
       -0.9564131 -1.0962679 -1.2847022 -1.0725558
000090 96 89 57 3f 08 4b 80 3f 7e b1 41 3f 7e 2d 6c 3f
       0.84194314 1.0022898 0.75661457 0.92256916
0000a0 28 8e 94 3f b8 13 7a 3f ed 56 5f 3f 00 3b 65 3f
       1.1605883 0.9768634 0.87242013 0.8954315
0000b0 72 b3 44 3f 0f 15 51 be eb 78 28 be 10 4a bc be
       0.7683631 -0.2041819 -0.16452377 -0.36775255
0000c0 59 73 a2 3d 87 1d 6a 3e fe 41 13 bb 88 5f 8c 3e
       0.07932157 0.22862826 -0.0022469754 0.27416635
0000d0 60 37 7d 3e a0 36 3b 3d 35 c0 94 be 9a 87 a5 3e
       0.24728155 0.04570639 -0.29052892 0.32330018
0000e0 10 e2 92 be be 73 0e be 94 11 5d 3f 91 81 05 bf
       -0.28688097 -0.1391134 0.8635495 -0.5215083
0000f0 f1 d5 c1 3e 8e 36 88 3f 23 2c 51 bf ab 0b b2 be
       0.37858537 1.0641649 -0.8170797 -0.34774527
000100 79 ba 2c 3f 6f 8f 46 bf 29 f9 2b be bb ac 96 3f
       0.67472035 -0.7756261 -0.16794266 1.1771463
000110 7f 9f 94 bf 5b 5e 70 3e df 38 9c 3f 5a ba c6 bf
       -1.1611174 0.23473494 1.2204856 -1.552562
000120 70 c6 b8 bd 21 c3 01 3f bb 49 5f be b4 a1 c2 3d
       -0.09022224 0.5068837 -0.2180547 0.09503499
000130 4b 26 8a 3f f4 46 21 bf a5 87 d6 3e b4 69 85 3f
       1.0792936 -0.6299889 0.41900364 1.0422883
000140 1b ac 91 bf 0d 2a c8 3d 8d 01 a2 bd 45 a2 55 3d
       -1.1380647 0.097736456 -0.07910452 0.052156705
000150 a2 43 2f 3c 85 97 a2 bd be 04 10 3e 62 db a9 3e
       0.010697277 -0.07939056 0.14064309 0.33175188
000160 85 45 22 3e d5 7c ef 3e b0 11 35 bf f7 f7 7f bf
       0.15846832 0.46774927 -0.70730114 -0.9998774
000170 84 3a 3b bf 70 6e 85 bf bd d3 ac bf 44 1e 89 bf
       -0.7313616 -1.0424328 -1.3502117 -1.0712361
000180 b0 28 56 bf 03 9c 9f bf b5 26 6e bf 2b be 50 3f
       -0.83655834 -1.2469486 -0.9302781 0.81540173
000190 c7 22 6b 3f 90 5d 65 3f 20 35 71 3f 21 37 91 3f
       0.9184994 0.8959589 0.9422169 1.1344949
0001a0 80 89 80 3f 81 4d 62 3f 1d 4b 68 3f e9 41 46 3f
       1.0041962 0.8839951 0.90739614 0.7744432
0001b0 eb 7a d3 be 6b c0 69 3e 77 09 d2 3e b9 99 b5 3f
       -0.41304716 0.22827308 0.41022846 1.4187537
0001c0 09 8a 0d 3d 07 f4 85 bf ae 40 f2 3f 0c f3 27 bf
       0.03455547 -1.0465096 1.8925989 -0.65605235
0001d0 68 15 c7 bf c8 ef a3 be eb 6d 1e 3d 6f b6 4f 3d
       -1.5553408 -0.32018876 0.038679045 0.05071109
0001e0 83 f3 d1 3f 87 57 de bc 2e 53 a5 bf e0 13 0d 40
       1.6402439 -0.027141346 -1.291601 2.204338
0001f0 ad 91 10 bf e8 96 c9 bf 47 8f b5 be 2f 94 bd bc
       -0.56472284 -1.5749178 -0.35460874 -0.023141949
000200 1b 4a 94 3e 62 d2 c0 3f ff 00 28 be 92 38 90 bf
       0.28962788 1.5064204 -0.1640663 -1.1267264
000210 b0 cd 02 40 f9 c8 43 bf 5a c6 c9 bf 6a 35 11 3d
       2.0438042 -0.76478535 -1.5763657 0.03545133
000220 26 2a 7a 3d 77 39 96 3c 30 0a ca 3e 47 b4 1d 3f
       0.061075352 0.018337948 0.39460897 0.61603206
000230 73 c6 dc 3e 85 89 db 3d 78 d0 b5 3e 2e 65 87 3e
       0.43120155 0.10719589 0.35510612 0.2644438
000240 fd 6e 19 be 3f 70 15 be bc d8 23 be 3f 4b 71 3e
       -0.14983745 -0.145936 -0.16000646 0.2356386
000250 ef 87 de 3e c8 b0 88 3e 2d e2 8f bd ca 85 0f 3e
       0.43463084 0.26697373 -0.070255615 0.1401588
000260 aa 73 86 3d 87 38 18 3d a6 ea 0f bc 0d 8d 8e ba
       0.0656503 0.037163284 -0.008783972 -0.0010875777
000270 21 5f b9 3e 6a 9f 04 3f 70 61 cd 3e f5 42 1e be
       0.3620539 0.51805747 0.401134 -0.1545523
000280 a1 2e 1d 3c 0a 28 cd bb 43 31 14 3f ef 9f 0f 3f
       0.009593637 -0.0062608765 0.5788767 0.56103414
000290 46 80 4c 3e 11 a2 6b 3f 2c 2f 8f 3f 1f f3 3a 3f
       0.19970807 0.9204417 1.1186271 0.73027223
0002a0 e7 3e 0e 3f 1b 8b 70 3f fb 90 1a 3f aa 6e fa 3d
       0.5556473 0.9396226 0.6037747 0.12228139
0002b0 f4 84 57 bd a9 8a 24 3d c8 32 ae bd a9 1d 87 be
       -0.05261703 0.0401713 -0.085057795 -0.26389816
0002c0 f9 c3 04 be 0a 58 b2 be 60 ef c3 be c9 4d 31 be
       -0.12965383 -0.34832793 -0.38268566 -0.17314829
0002d0 de 41 db be bd 2b 10 bf d0 6f 94 be d2 79 32 bf
       -0.4282369 -0.5631674 -0.28991556 -0.69717133
0002e0 91 7b 7c bf 89 6e 18 bf b7 54 40 bf 01 98 78 bf
       -0.9862605 -0.59543663 -0.75129265 -0.9710694
0002f0 28 a1 01 bf a1 b0 97 bf ce 7b 4b 3f 70 5b 8b 3f
       -0.5063653 -1.1850778 0.79485786 1.088728
000300 47 ee 89 3f 4b ca ba 3f a3 fb 15 3f c9 ad b4 3b
       1.0775841 1.4592985 0.5858709 0.005513881
000310 20 25 db bf 73 b1 20 c0 37 32 7e bf 85 7f 56 3f
       -1.7120705 -2.5108306 -0.9929537 0.8378833
000320 29 6d a2 3f f3 ef 8f 3f 5c 60 ba 3f 48 68 4d 3f
       1.2689563 1.1245102 1.4560657 0.80237246
000330 aa 8f e4 bd 9b 8b ea bf ee 7c 16 c0 6f 07 c5 bf
       -0.11160214 -1.8323854 -2.351375 -1.5392894
000340 18 e6 d2 bc 49 dd f9 3e e5 30 75 3f 4b e4 a4 3f
       -0.025744483 0.4880164 0.9577773 1.288217
000350 08 7a 4e 3f 2a f4 b0 3e 2d 2b 8b bf 43 55 b9 bf
       0.80654955 0.34561282 -1.0872551 -1.4479145
000360 ba 01 15 3f 5c 30 4a 3f 17 27 f4 3e 26 89 5b 3f
       0.5820576 0.7898004 0.47686073 0.85756147
000370 94 da a3 3f e0 22 56 3f 4b 60 f5 3e 61 94 66 3f
       1.280108 0.83646965 0.47925028 0.9007016
000380 a6 f5 ce 3e 48 34 80 bf 2d c8 9a bf 68 6d 85 bf
       0.4042179 -1.0015955 -1.2092339 -1.0424013
000390 28 cc ae bf 48 1c bf bf 77 b4 a5 bf c5 63 a1 bf
       -1.3656054 -1.4930506 -1.2945698 -1.2608572
0003a0 cf d9 a8 bf 8a 0b 8c bf c1 1e f6 3e f7 d6 05 3f
       -1.319147 -1.0941021 0.48070338 0.52281135
0003b0 61 91 e3 3e ef 6c f2 3e cd e9 30 3f 08 4b 15 3f
       0.44446853 0.47348735 0.6910675 0.58317614
0003c0 be c4 8a 3e ed df f6 3e 2c ec b7 3e 67 d7 03 bf
       0.27103227 0.48217717 0.35922372 -0.5150055
0003d0 48 7f a7 bf 5b af 2f bf 9b da 19 bf 4a 6c 15 bf
       -1.3085718 -0.68626946 -0.6009919 -0.5836836
0003e0 af f4 ea be 39 5d 9b 3f d7 36 02 40 09 f8 a0 3f
       -0.45889804 1.2137824 2.0345972 1.2575694
0003f0 d1 1f ec be c7 1f a7 bf 1c 34 20 bf 0a 98 08 bf
       -0.46118024 -1.3056573 -0.6257951 -0.53356993

conv1.1.weight f4 [16]
000000 fe 9e d4 3f ec 98 d7 3f f3 cd d7 3f f0 a1 cf 3f
       1.661102 1.6843543 1.6859726 1.6221294
000010 7b 64 08 40 ed e9 a5 3f f5 7c db 3f 92 17 0b 40
       2.1311328 1.2962013 1.7147509 2.1733136
000020 34 c5 c2 3f 91 56 dc 3f 0a 5d d7 3f f6 42 cf 3f
       1.5216432 1.7213918 1.6825268 1.619231
000030 f2 c9 c1 3f ff ae c3 3f 57 5b cd 3f 45 5d d4 3f
       1.5139754 1.528778 1.60435 1.6590964

conv1.1.bias f4 [16]
000000 3b db 4a be ce 71 e4 3e 09 1b 7f 3f b2 b7 f4 3e
       -0.19810192 0.44618076 0.9965063 0.47796398
000010 08 64 49 be 00 6d d0 3e fb 98 13 3f cd bf 80 be
       -0.19667065 0.4070816 0.57655305 -0.25146332
000020 c6 0b 28 3f 57 35 8d be ab 79 ef 3e 2c c8 11 be
       0.65642965 -0.27579758 0.46772513 -0.14236516
000030 4c d0 4e 3e b7 8e 65 3f d3 9e 9a bb 55 65 61 3d
       0.20196646 0.8967089 -0.0047186404 0.05502828

stage2.0.branch1.0.weight f4 [16, 1, 3, 3]
000000 6f 63 c5 bd 28 77 17 be e4 fc 05 3f bb 5c ad 3e
       -0.09638106 -0.14791548 0.52339005 0.3385981
000010 01 b3 d7 be 3b 42 c1 3e 3e a0 09 3e 43 35 34 bf
       -0.42128757 0.37745842 0.13440034 -0.7039377
000020 2e f4 e6 bd 66 97 93 3e 71 49 77 be 57 ba 2f bf
       -0.11277042 0.28826445 -0.2414911 -0.6864371
000030 b8 e2 0b bf 22 c4 f5 3d d0 f8 3f 3f 29 dc 2b bf
       -0.5464282 0.120003 0.7498903 -0.6713281
000040 18 23 61 3f ca 9f e2 3f 7e a5 df 3d 21 b8 bc bd
       0.87944174 1.7705014 0.10920237 -0.09214807
000050 90 91 ca bd e4 59 9f 3e 4c 28 a3 bf 79 6a 66 3f
       -0.09891045 0.3112327 -1.2746673 0.90006214
000060 72 30 7f 3f 6a dd 2b c0 77 7b f1 3f b9 db ac 3e
       0.99683297 -2.685389 1.8865803 0.33761385
000070 76 18 d6 be aa 26 b3 be a8 9d fd be 5f 43 fb bd
       -0.41815537 -0.34990436 -0.49534345 -0.122687094
000080 64 1d 07 3f ba 05 fa be 8b 15 23 3f 2e d4 b9 3f
       0.5277922 -0.48832494 0.63704747 1.4517877
000090 18 0b 61 3c 63 2b 30 3e 60 07 24 3d e8 49 0e 3f
       0.013735555 0.1720405 0.040046096 0.5558152
0000a0 3a 32 44 3f 50 45 02 3f 1e e6 20 3e 44 f1 ff 3e
       0.7663914 0.5088701 0.15712783 0.4998876
0000b0 33 e4 8e 3f 10 75 21 bd 2a 66 5f be 21 0b 1c bf
       1.1163391 -0.03941828 -0.21816316 -0.6095448
0000c0 ab dc 33 bd 67 bf b8 3e c8 38 14 3e 46 f2 7b be
       -0.043911617 0.36083528 0.14474785 -0.24604139
0000d0 73 a8 0f 3f d1 5d 7a 3f 59 24 ea be 33 1f 24 3f
       0.5611641 0.977994 -0.45730856 0.64110106
0000e0 4a 06 7c 3f c7 07 3d 3e de 8a fa be ec 09 80 bf
       0.98447096 0.18459998 -0.48934072 -1.0003028
0000f0 71 4b 76 3f 55 6d 08 bf 1b 76 a0 bf 0d 64 02 be
       0.96208864 -0.5329183 -1.2536043 -0.12733479
000100 f2 c4 5e 3c 22 5e bc 3e 54 b7 bd 3e e3 f0 8a 3f
       0.01359676 0.36790568 0.3705393 1.0854763
000110 15 fe 42 3f 2b a6 db 3e 5a 06 a0 3f da ff 3b 3f
       0.7616895 0.42900214 1.2501938 0.73437274
000120 52 09 c4 be 45 f4 a8 3e 97 e1 47 3f da 5b 02 3f
       -0.3828836 0.32998863 0.780786 0.50921404
000130 cf da 82 3c f7 3a 0b bf 43 ed 65 3f cc 81 50 bf
       0.015973477 -0.5438685 0.8981516 -0.81448054
000140 5d 8d 00 c0 5b 0d 35 3e 03 b4 6e be 75 20 3a bf
       -2.0086281 0.17680876 -0.23310857 -0.72705775
000150 d3 40 c6 3e 48 f6 57 bf c7 85 9d bf 8c 67 18 3d
       0.38721332 -0.8436017 -1.2306451 0.037208125
000160 af 8b a7 bf c0 36 8f bf 72 6b 87 3d 06 c5 96 3f
       -1.3089503 -1.1188583 0.066122904 1.1778877
000170 3f 1f b1 bf 15 bb df bf 13 ff 01 3f c4 4b a8 3f
       -1.383766 -1.7478968 0.5077984 1.3148122
000180 ea 46 c1 3f 15 0c f2 bf d1 26 9a 3e 7b 93 4e bd
       1.5099766 -1.8909937 0.3010774 -0.050433617
000190 50 ed 21 3e 58 7e 01 3e 99 dc 0b bf a1 79 0c bf
       0.15813184 0.12645853 -0.5463348 -0.5487309
0001a0 fc fc 73 be b6 a5 eb be 32 89 01 bf 4b d7 4e bf
       -0.23826975 -0.46024865 -0.5059997 -0.8079726
0001b0 76 16 89 3c b6 7f b9 bc 78 41 f0 3c 34 d3 27 3e
       0.016734343 -0.022643905 0.029328093 0.16389161
0001c0 85 7b 1f 3e d3 6f 33 3e ee cb c8 bb 6a 1f 87 3c
       0.15574463 0.17523126 -0.006127826 0.016494472
0001d0 c8 a5 32 3d d1 b3 45 3f 94 0f 81 3d db 79 0c bf
       0.043615133 0.77227503 0.063017994 -0.54873437
0001e0 0a 1b 8d 3f 42 aa 95 3d e7 ac 52 bf 02 0a 05 3f
       1.1023877 0.07307865 -0.8229508 0.51968396
0001f0 f9 d0 a2 be ba c1 5c bf 8d f7 c8 be ce 1e 21 3f
       -0.31800058 -0.86233103 -0.39251366 0.6293763
000200 9d 86 62 3f 33 ce e2 3e 33 a1 a1 bd 35 29 08 bf
       0.88486654 0.44297943 -0.078920744 -0.53187877
000210 d3 cc 1a 3f 18 de 88 bf 8f 78 ca bf 1a 9f ae bd
       0.60468787 -1.0692778 -1.5818042 -0.0852644
000220 0e 3d 45 3e f6 b1 5d 3e 0d 17 16 3e 16 0e f7 be
       0.19261572 0.21649918 0.1465723 -0.48252934
000230 7b 5f 4f bf 9f 79 1c 3f 1b d6 cc be 7f e4 52 bf
       -0.81005067 0.6112308 -0.400071 -0.8237991

stage2.0.branch1.1.weight f4 [16]
000000 30 95 96 3f 20 47 d9 3f 63 61 ee 3f 32 34 cf 3f
       1.1764278 1.6974831 1.862347 1.6187804
000010 36 0a c2 3f cf 26 a6 3f f6 f2 d4 3f 58 99 a6 3f
       1.5159366 1.2980593 1.6636646 1.3015547
000020 f6 27 e7 3f 17 ef 99 3f 2c b0 0f 40 69 4b b4 3f
       1.805907 1.202609 2.2451277 1.4085513
000030 ed bf b7 3e 5d fc 84 3f c2 01 c5 3f 28 e9 bc 3f
       0.35888615 1.0389515 1.5391161 1.4758654

stage2.0.branch1.1.bias f4 [16]
000000 74 cb ab 3d 7d 22 d1 be 46 6b 76 3f 74 85 15 3e
       0.08388415 -0.40846625 0.96257436 0.1460169
000010 ce 03 9d be fa d9 1a be c8 f8 b6 3f 66 26 dd be
       -0.30666965 -0.15122214 1.4294672 -0.43193358
000020 2b 7e 6f be 7a a4 38 3f 36 5f 85 bf 05 61 9d 3e
       -0.23387973 0.7212597 -1.0419681 0.30738083
000030 17 f2 3d be 31 fa bd be 49 7b cc be 75 74 61 3e
       -0.18549381 -0.37104943 -0.3993781 0.22017081

stage2.0.branch1.2.weight f4 [16, 16, 1, 1]
000000 88 66 4e 3e 7a 1e 48 3f 74 40 d8 3d f0 8f 74 3f
       0.201563 0.78171504 0.105591685 0.9553213
000010 71 3e dc bd 67 ae e2 3e fc 23 21 3f 75 c2 f5 3e
       -0.10754097 0.44273683 0.6294553 0.4799992
000020 a9 80 da 3e ce 66 61 bf c7 09 15 3d 0c 42 30 be
       0.42676285 -0.8804749 0.036386278 -0.17212695
000030 e2 df 05 be 3b 2c ee be df b5 b0 bf 7d 08 9e 3f
       -0.13073686 -0.4651812 -1.3805503 1.234634
000040 1a b0 20 bf 6a e8 8c be 1d 1d 08 3e 36 78 ea 3d
       -0.6276871 -0.27521068 0.13292356 0.1144871
000050 43 dc 4f bd a4 53 ca bd 07 5a 59 bc 5f 62 08 40
       -0.050747167 -0.098792344 -0.013266093 2.131004
000060 9c 97 55 bc d4 6d 5b bf 33 17 3e be ae 2f f2 bd
       -0.013036635 -0.8571446 -0.18563537 -0.118255004
000070 c4 28 6d 3d 62 b9 14 3e 82 51 01 3f 98 c4 9a be
       0.057900205 0.14523843 0.50514996 -0.30228114
000080 ae 6c a5 3c ec c7 d5 3e a3 88 25 3e 40 e0 9b bf
       0.020193424 0.4175409 0.16165404 -1.2177811
000090 12 ee c0 3d 9c 17 c9 be bd e7 0b bf 1a 5c 0d 3e
       0.09420408 -0.39275825 -0.5465048 0.13804665
0000a0 67 0c 06 40 02 b0 e6 3d ec 97 db 3d d7 7d 38 3e
       2.094507 0.112640396 0.10722336 0.18016754
0000b0 20 14 03 3e 2a 5d 34 bd 36 2b 84 3e 2d 50 65 bf
       0.12800646 -0.04403416 0.25814217 -0.89575464
0000c0 ea 79 95 be f0 00 90 bf 99 b1 5c 3b 35 7a 56 bf
       -0.29194576 -1.1250286 0.0033675192 -0.83780223
0000d0 97 56 0e be 4b 93 98 bf 91 ae 7b bf 09 f6 c4 bc
       -0.13900219 -1.191995 -0.9831324 -0.0240431
0000e0 a7 5b 89 3e e9 54 13 3f 15 e9 24 3e 8d b5 7c 3e
       0.26827738 0.5755144 0.16104539 0.24678631
0000f0 65 4e 1a bd b4 d8 17 3e 79 9a 82 bc 7a 1e 72 3f
       -0.03767242 0.1482876 -0.015942799 0.94577754
000100 fa 15 c2 3e f8 94 11 3e 8a b0 17 be 9c 83 6d 3e
       0.37907392 0.14216983 -0.14813438 0.23194736
000110 a7 00 54 3f e0 f6 aa 3e 9f 16 5a 3e d7 41 41 3c
       0.82813495 0.33391476 0.21297692 0.011795483
000120 de 1c 02 bd 6e 9a 0a 40 5c ae c6 3e c1 2d e9 be
       -0.03176581 2.1656756 0.388049 -0.4554272
000130 ab 69 cc bd 5e 25 a3 3e e4 b6 a1 bd 80 88 64 bd
       -0.09981092 0.31864446 -0.07896212 -0.05579424
000140 cd 5a 90 be 6c a7 a3 be c5 69 f9 3f ed 76 fb bd
       -0.28194275 -0.3196367 1.9485403 -0.12278543
000150 5f e0 98 bd ee 44 51 be 7b 26 7a 3e 52 11 2e be
       -0.074646704 -0.20436451 0.24428742 -0.16998795
000160 fe d3 33 3e 48 55 09 bc 23 0e 39 be 33 30 50 be
       0.17561337 -0.008382149 -0.18071799 -0.20330887
000170 0c 4b 4c 3d 4e 00 b4 bf 8c 75 1a be 36 2b e0 3d
       0.049876258 -1.4062593 -0.15083903 0.10945742
000180 4c 28 60 3e 91 42 a3 bd cc 06 dc 3c 89 85 7f 3e
       0.21890372 -0.07971681 0.02685871 0.24953283
000190 f5 e1 ef 3d d0 27 ac 3e 02 e7 04 be 39 ad 36 be
       0.1171302 0.33624125 -0.12978747 -0.17839517
0001a0 fd a9 f5 3d 5b e6 17 bc 75 c7 29 40 a8 07 a6 3d
       0.11995313 -0.00927123 2.652799 0.08106929
0001b0 c6 62 b2 3d 9a 23 8d 3d df fa 00 bd 25 28 44 3d
       0.08710246 0.06891556 -0.03148925 0.047889847
0001c0 4f 27 e9 3d a9 b2 d8 bf 03 52 da 3c 8c 64 12 3e
       0.11384451 -1.6929523 0.026650434 0.14296168
0001d0 3b 2d 27 bd be f8 03 3f d8 cb bf bf 99 22 61 3e
       -0.04081462 0.51551425 -1.4984083 0.21985854
0001e0 ea 2b 5b bf 13 87 00 be dc e2 c1 3d ca b1 7b bd
       -0.8561388 -0.12551527 0.09467098 -0.06144885
0001f0 a0 a2 ff 3c 0e cd 99 bb a9 a5 3c 3f f5 17 a4 be
       0.031205475 -0.004693634 0.7369028 -0.32049528
000200 0c 58 dc be ce 07 12 3e 6c 2c 95 be 71 3f 08 bd
       -0.43035924 0.1426079 -0.29135454 -0.033263627
000210 19 06 64 3e e1 65 59 bf 19 2f bb be f0 b3 8a 3d
       0.22267951 -0.8492108 -0.3655937 0.067726016
000220 57 2e 22 3f e4 f8 8a 3f 9c 47 73 bd a1 0b f2 3d
       0.6335196 1.0857205 -0.059394464 0.11818624
000230 7a 3d 3d bc 24 90 fd 3d 43 6f ad 3d 01 4c 53 be
       -0.011550302 0.12381008 0.08468487 -0.20634462
000240 e6 b4 1f be fd 53 6f 3d 3f 8d 10 bf 3a 24 2c be
       -0.15596351 0.058429707 -0.56465524 -0.16810694
000250 d8 16 0e bf 54 08 bc bd c9 ac ec bc 28 51 11 3e
       -0.55503607 -0.09181276 -0.028890984 0.14191115
000260 cb 45 49 3c fd d8 75 be 90 cf 30 3d ea da 1d 40
       0.012284706 -0.24008556 0.043166697 2.4664865
000270 48 a9 f7 bd 79 51 a1 be fc aa c0 be 92 db 12 be
       -0.12092835 -0.3150747 -0.3763045 -0.14341572
000280 2f 23 23 be 9a f1 83 be 36 cf 9c be 44 e5 06 3e
       -0.1593139 -0.25770265 -0.3062684 0.13173395
000290 e1 39 54 3f f6 33 26 be 74 5f 78 3e 51 f1 68 bf
       0.82900816 -0.16230759 0.24255162 -0.9099322
0002a0 0e ff 8f 3e 89 ab 8e be 4c a8 99 be 81 01 11 3d
       0.2812428 -0.27865246 -0.30011213 0.035401825
0002b0 9c 55 05 bd b3 93 3d bf fc 71 f4 3d ef 69 08 3f
       -0.032552347 -0.74053496 0.11935803 0.5328664
0002c0 7e 0a b3 be c6 7c 44 bf 06 5a 1f 3e b5 97 d1 bd
       -0.34968942 -0.7675289 0.15561685 -0.10234014
0002d0 54 ba 6d bd 36 61 13 bf 59 c4 85 bf 2b 67 e9 be
       -0.058039024 -0.5757021 -1.0450546 -0.45586523
0002e0 48 29 e2 be 1c 6e 66 3e 5b 70 83 3c 18 db 97 3d
       -0.4417212 0.22502941 0.016044786 0.07414836
0002f0 99 5e 19 3c 83 a8 17 3e 1a 37 19 3f 06 85 d3 be
       0.009360933 0.14810376 0.59849703 -0.41312426
000300 83 68 24 be 1f a3 31 3f 7c bd e8 3e aa 01 fd 3e
       -0.16055493 0.6938953 0.45457065 0.49415332
000310 c5 92 8c 3e 6a 7d c5 3e f4 ef 1d 3f 1e 92 d2 be
       0.27455726 0.38572246 0.61694264 -0.41127104
000320 4f 16 cc 3e a3 21 9a 3e ea 58 76 bb c7 be 02 bf
       0.3986077 0.30103788 -0.0037589618 -0.51072353
000330 fd 1b 4b 3d f2 e2 fe 3d 89 be 74 bf 9b 4c e4 3d
       0.04958724 0.1244563 -0.95603234 0.11147424
000340 30 70 fe 3e df 34 aa bd 93 6c 0d c0 bf 3d 94 3d
       0.49694967 -0.083108656 -2.2097518 0.0723834
000350 44 5b ab be b6 3b 8f 3e fa 76 99 3d 59 c4 28 bd
       -0.33468068 0.27975243 0.07493396 -0.041202877
000360 e4 16 a7 3d 9f a2 13 3e ba 66 85 bd d7 ea 01 be
       0.08158663 0.14417504 -0.06513734 -0.1268724
000370 fd fe c3 3d 5d ef e3 bd 25 c5 90 3c e2 f5 54 bd
       0.095701195 -0.11129639 0.01767213 -0.051992305
000380 d6 87 bc 3e e9 b4 ce 3c 2d dd b6 be ed 97 d2 3e
       0.36822385 0.025232749 -0.3571562 0.41131535
000390 5c f2 27 c0 cb a8 50 3e 30 89 22 bd d8 08 84 3e
       -2.6241674 0.2037689 -0.039681613 0.25787997
0003a0 f2 60 8b be 32 e7 c6 bc 91 2d 6d 3d 03 c7 9f 3d
       -0.272224 -0.024280164 0.057904784 0.0780163
0003b0 66 ee 42 3c 89 99 0c 3e 82 a2 3b 3e 67 5b 75 be
       0.011897659 0.13730444 0.1832371 -0.23960648
0003c0 9f 6e ca 3e 48 66 65 3f bc 92 4a 3d 0a 49 17 bf
       0.39537522 0.89609194 0.049456343 -0.59095824
0003d0 f0 ff 9d bd 12 3e 60 3d 9a e5 53 3f 31 5e 4c be
       -0.07714832 0.054746695 0.8277222 -0.19957806
0003e0 d1 ee d7 3e 85 3d dd be fc 01 1c ba 37 58 ea 3d
       0.4217439 -0.43210998 -0.00059512234 0.11442607
0003f0 f9 de a9 bc c3 ec e4 bd ac 6a f6 be 88 4d 36 bf
       -0.020736204 -0.11177971 -0.4812826 -0.71212053

stage2.0.branch1.3.weight f4 [16]
000000 5a 24 cd 3f 15 5a c1 3f 3b 60 06 40 f8 40 01 40
       1.6026719 1.5105616 2.0996234 2.0195904
000010 52 d5 c6 3f dd e7 f2 3f 25 22 f2 3f a5 d4 e0 3f
       1.553385 1.8977009 1.891667 1.7564894
000020 95 be 8d 3f 1f cf a2 3f 5b 98 69 3f d0 25 91 3f
       1.1073786 1.2719458 0.912481 1.1339664
000030 6e 7f 67 3f 2d 4f c8 3f 62 1a a4 3f 39 24 82 3f
       0.9042882 1.5649163 1.2820551 1.0167304

stage2.0.branch1.3.bias f4 [16]
000000 1b b6 b4 bb b5 09 69 3f 93 2e 35 3d 05 81 0d 3f
       -0.0055148727 0.91030437 0.04423387 0.55274993
000010 60 90 0e 3e 70 7a d1 be c6 67 36 be 31 e0 33 3d
       0.13922262 -0.40913725 -0.17813024 0.043914977
000020 56 de f9 3e e2 50 98 3e 26 d6 0e 3f d3 5d 9b 3e
       0.4880244 0.2974921 0.55795515 0.3034502
000030 32 fa a6 3e 53 86 97 3b 91 03 09 3d b4 49 da 3e
       0.3261276 0.004624167 0.033450667 0.42634356

stage2.0.branch2.0.weight f4 [16, 16, 1, 1]
000000 74 fc 08 3d af 17 84 be ee 80 a3 3d 7d d2 73 3e
       0.033443883 -0.2579932 0.07983576 0.23810764
000010 ff 35 9c bd bb 14 bb 3f bf da e6 3e 97 25 f8 be
       -0.076274864 1.4615701 0.45088765 -0.4846618
000020 1f 9f e5 be a4 6f 50 3d 77 38 3f bd 1b fc 5a bc
       -0.44847962 0.05088772 -0.04668471 -0.013365771
000030 53 21 6d 3f a9 ad 12 3f a4 7a 39 3f c2 f8 99 be
       0.92628974 0.57296234 0.7245276 -0.300726
000040 50 b7 e6 3e f8 00 e1 3d 26 91 81 bf 7a cd be bd
       0.4506173 0.10986513 -1.0122421 -0.09316535
000050 a7 c3 4a bf db a5 b6 3c cd 57 f2 3e af 8c 59 3f
       -0.7920479 0.022295883 0.47332612 0.8498029
000060 e5 89 e0 3e d2 60 b2 3e bc 65 bc 3e f2 f1 c7 be
       0.43855205 0.34839493 0.36796367 -0.39051777
000070 3a 52 03 3f f6 7a ff 3e 58 e7 a2 3e 1b 1c 96 bd
       0.5129734 0.498985 0.31817126 -0.073295794
000080 94 f0 ac 3f b1 68 6b be 65 d1 67 3e 42 a5 86 3d
       1.3510919 -0.22989155 0.22638471 0.06574489
000090 f0 4d b4 3d a1 ea ae bc 18 44 45 bf 01 07 e4 3e
       0.08803928 -0.021352114 -0.7705703 0.44536594
0000a0 41 38 59 3d ee ad 30 3f 5a 0d 74 be c1 29 14 3d
       0.053032164 0.69015396 -0.23833218 0.036172632
0000b0 e3 4e 9b 3d e3 12 09 be 45 1a 19 be da 4f b2 3e
       0.07583406 -0.13386111 -0.14951427 0.34826547
0000c0 bd d9 78 3f 89 a9 1a 3e d9 a2 d1 3c 27 62 de 3e
       0.9720724 0.15103735 0.025590347 0.4343426
0000d0 31 bb 7d 3e 3d ce 69 3d 3c bc 44 bf 35 7a 09 bf
       0.24778439 0.05708145 -0.7684972 -0.537021
0000e0 1f 55 d4 be ad 52 b8 be 2c 9f 2f 3e b5 cc 15 3f
       -0.41471192 -0.36000577 0.17150563 0.58515483
0000f0 f7 61 34 be 3a 57 3f bc 36 f6 33 3f 27 a0 81 be
       -0.17615496 -0.011678511 0.70297563 -0.253175
000100 a2 93 ad 3f 4e 40 dd be 57 50 3d bf ac 58 99 bc
       1.3560679 -0.43213123 -0.73950714 -0.01871904
000110 8a cd 57 3f 95 91 04 3e 47 51 26 3f 34 6d f3 3c
       0.84298 0.1294616 0.6496777 0.029715158
000120 25 7f 6e 3e e7 80 3b 3e 17 cd 76 bd d0 90 6f 3f
       0.2329069 0.18310891 -0.060254183 0.9358034
000130 4e 29 b2 3d bb 4b a5 be 6f d4 af bd 83 be ca 3e
       0.086992845 -0.3228434 -0.0858544 0.39598474
000140 40 ed 28 bc 77 ca 94 3e 80 20 00 3f ae 78 f8 bd
       -0.010310471 0.29060718 0.5004959 -0.12132393
000150 9c 30 74 3f 62 c1 08 3f a2 60 84 3e 34 e3 81 3d
       0.9538667 0.5342008 0.25854975 0.06342164
000160 b7 3c 37 3f ef 89 19 3d da e9 58 be 8a 96 61 3f
       0.7157702 0.03748506 -0.21182957 0.8812033
000170 86 1b 31 3f b5 20 94 3e 4c 77 87 be f2 4e 45 3e
       0.6918262 0.28931203 -0.26458204 0.19268396
000180 1c cf 3a 3e 3f 4e 8c 3e ab ed 2a 3e 3f 83 f7 be
       0.18243068 0.27403447 0.16692226 -0.4834232
000190 f8 5d 36 3e 09 b3 81 3f 9e 9e 93 3f 65 96 d7 b7
       0.17809284 1.0132762 1.1532781 -2.570003e-05
0001a0 e4 3f d9 3e bf 55 18 3e 97 72 4c 3e a7 91 f2 3d
       0.42431557 0.1487646 0.19965588 0.11844187
0001b0 eb ce 77 3f 9f f9 22 3b 25 97 04 bf e8 e7 5c 3f
       0.96800107 0.0024868024 -0.5179313 0.8629136
0001c0 14 06 76 3f eb 45 47 bf 92 a9 6d 3e 93 9d cb bc
       0.96103024 -0.7784106 0.23209217 -0.02485541
0001d0 85 ea c6 3e 80 2d 91 bf 54 52 04 3f f5 99 1e 3f
       0.388508 -1.134201 0.5168812 0.6195367
0001e0 d5 c7 cf bd 8e aa 30 3d b8 bf 79 3e 99 a7 3d bd
       -0.10145537 0.043131404 0.24389541 -0.04630241
0001f0 b1 7c 3e bf 83 cd 4c bf 21 92 fe 3d 28 fa 4e bf
       -0.74409014 -0.80001086 0.124302156 -0.8085046
000200 17 bb 2c be 38 77 02 be 07 a3 32 bf 59 64 ae be
       -0.16868244 -0.12740791 -0.6978001 -0.34060934
000210 0c 44 f2 bf 26 57 73 be aa 32 a3 3e 20 7c ab 3f
       -1.8927016 -0.23763713 0.3187459 1.3397255
000220 a6 69 5b be 15 6e 24 be de 49 bf be 1e 2d b7 bf
       -0.2142702 -0.16057618 -0.37361044 -1.4310644
000230 e1 45 b8 3e 20 1b d8 be e2 54 c5 bd 23 d8 a8 3e
       0.35990813 -0.42208195 -0.09635331 0.329774
000240 ab 4d 7c 3f 1f 9e 53 3d ff 2e 09 3e fb 75 be be
       0.9855601 0.051664468 0.13396834 -0.37199387
000250 e3 ef 80 be cc 3b 0e bf dd 8e 89 3e 58 1e a7 bc
       -0.2518302 -0.5555999 0.2686681 -0.020400211
000260 e0 38 30 bf f0 93 23 3f c6 f0 81 3e c5 6b d5 be
       -0.68836784 0.6389761 0.25379008 -0.41683784
000270 65 e2 1c bd 9e 9b 00 3d da 08 7f 3e 0c 2d 83 3f
       -0.038301844 0.031398408 0.2490572 1.0248122
000280 b5 71 d6 3e ff c2 af 3c f4 99 11 3d 02 9b 35 3e
       0.41883627 0.021455286 0.03554721 0.17734912
000290 eb 5c cf bd 2d 7d 0a 3f 10 7c f8 3d 3e 52 82 be
       -0.101251446 0.54097253 0.12133038 -0.2545337
0002a0 1a 41 b6 3d 54 97 e6 bd 90 71 f5 3e 75 76 72 bd
       0.08899136 -0.11259332 0.47938204 -0.059195
0002b0 ba a7 97 3e 89 f8 8f bb b7 75 f1 be 54 ed 4c be
       0.29620153 -0.0043936414 -0.47160122 -0.20012408
0002c0 72 a2 94 3d 63 17 3a be 77 26 11 be ca db b4 bf
       0.072575465 -0.18172984 -0.1417483 -1.4129574
0002d0 89 d9 a7 3d d6 49 94 3e c8 c5 6e 3f dd 80 6f bd
       0.081957884 0.28962582 0.9327054 -0.058472503
0002e0 cf 76 59 bf dd 7b ad 3e 67 10 11 be d3 fa 14 be
       -0.8494691 0.33883563 -0.14166413 -0.14548807
0002f0 85 35 d6 3e ec 4e 5a 3d e4 ca 95 bf 3e 6a 9a 3f
       0.41837707 0.053297922 -1.1702542 1.2063673
000300 e8 1e 7e be 9c cc b4 3f b2 58 97 bd 72 e0 4d 3e
       -0.24816477 1.4124942 -0.07389964 0.2010515
000310 65 10 bd bd 55 52 69 3c 4c b7 28 be 27 76 01 be
       -0.09231643 0.014240821 -0.16476172 -0.12642728
000320 3a 9c 66 bf e0 01 01 bd 5a 5e b0 3d 40 8a 81 bc
       -0.9008213 -0.03149593 0.08611746 -0.015812993
000330 09 36 aa be ff ee 67 be ab c0 8d 3f 98 42 a9 3e
       -0.3324435 -0.22649764 1.1074423 0.3305862
000340 59 0a c2 3e e3 bc f9 3e 8b e7 3b 3f fc c3 e7 3c
       0.3789852 0.48776922 0.7340018 0.028291695
000350 21 a8 33 bd 70 e2 14 3d 1b 8c e6 3e f7 09 2c bc
       -0.043861512 0.03634876 0.45028767 -0.010500423
000360 e5 4f 99 3e d9 2e 17 3f a8 9d 2c 3e c1 6c b8 be
       0.29943767 0.5905586 0.16857016 -0.36020473
000370 28 8b ac 3e 96 90 de bf ec 90 66 bd 9a 0f 8f 3e
       0.33699918 -1.7387874 -0.056290552 0.2794159
000380 65 57 e7 3d ae 80 ed be f6 06 bb bd 95 b8 e1 3f
       0.11295966 -0.46387237 -0.09132187 1.7634455
000390 da 57 1f 3e 84 50 61 be 90 ec 76 3f 61 1d 35 bd
       0.15560856 -0.2200337 0.96454716 -0.04421747
0003a0 df d8 99 3f 6b 66 15 ba b7 1e ca bd 26 37 fd bd
       1.2019309 -0.00056991604 -0.0986914 -0.12364034
0003b0 70 15 35 bf 27 dd de 3d a6 83 c6 3e 33 3b 32 bf
       -0.70735836 0.10882025 0.38772315 -0.6962158
0003c0 80 19 b2 bd 16 a0 87 3e dd 55 a9 bc 8a 90 33 bf
       -0.0869627 0.26489323 -0.020670826 -0.70142424
0003d0 19 f9 0e 3f bb 29 bf be 9b fc 3e 3f b8 fc d1 be
       0.5584884 -0.37336525 0.74604195 -0.41013122
0003e0 0c d6 86 bf fc ff f0 be 09 93 f2 be be f2 19 3f
       -1.0534072 -0.470703 -0.47377804 0.6013602
0003f0 05 64 eb bd 0c ac b2 bd de a1 72 be eb 84 c6 be
       -0.114936866 -0.087242216 -0.2369456 -0.38773283

stage2.0.branch2.1.weight f4 [16]
000000 01 7f 97 3f bf cf 7a 3f 53 62 8c 3f 81 be 6a 3f
       1.1835634 0.97973245 1.0967506 0.91696936
000010 c4 2f da 3f d0 cb 95 3f 7e ad 61 3f 4f 84 9a 3f
       1.7045827 1.1702824 0.88155353 1.2071627
000020 38 1c d3 3f c3 0d 96 3f 5b fc a6 3e fc a7 ac 3f
       1.6492987 1.172295 0.32614407 1.3488765
000030 57 83 ab 3f fa e0 85 3f c9 95 aa 3f 43 11 8d 3f
       1.3399457 1.0459282 1.3326961 1.1020893

stage2.0.branch2.1.bias f4 [16]
000000 8e 8f 92 bf 92 f7 16 3f f3 95 d0 3e 24 ee 86 3e
       -1.145006 0.5897151 0.40739402 0.26353562
000010 ca 21 42 3e 51 9a 49 be b2 2e 8f bd 1e ec 8a 3f
       0.18958202 -0.19687773 -0.06991328 1.0853307
000020 21 37 80 3e 84 d1 b6 3e c6 10 83 3f 63 09 59 3f
       0.2504206 0.35706723 1.0239494 0.8477995
000030 3a ec 30 bf 45 f0 e4 3d 20 ba 9a bf 39 9b 9c 3f
       -0.69110453 0.1117864 -1.2088051 1.223487

stage2.0.branch2.3.weight f4 [16, 1, 3, 3]
000000 46 0c ab bc 48 e9 cd 3e 01 e3 de 3e 45 3f 3b 3e
       -0.020879876 0.40217042 0.43532565 0.18285854
000010 d0 c2 c2 be 46 27 16 bf bc bc 02 3e 90 8d 7b bf
       -0.38039255 -0.58653677 0.12767309 -0.9826288
000020 ef 47 60 bf 3a cf de 3e c6 f7 1b 3f 93 de 89 3e
       -0.8760976 0.43517476 0.6092495 0.26927623
000030 3f a1 e2 be 79 4d 2a be e8 ab 33 3e 1f 7a 28 bf
       -0.44263646 -0.16631116 0.17546046 -0.6581134
000040 c9 0f 63 bf 58 04 e2 be 84 3d 01 3d d5 66 8c be
       -0.8869596 -0.4414394 0.031552806 -0.27422205
000050 df 4f f2 be 4c b2 35 be b0 ff c5 3e c2 75 f9 3e
       -0.47326562 -0.17743796 0.38671637 0.48722655
000060 98 9c cd be da d9 54 3f 8f 37 68 3f b0 a1 e0 bd
       -0.40158534 0.83144915 0.90709776 -0.109683394
000070 e7 c0 15 be 15 43 4e be 68 b3 37 3d 44 3f ab 3e
       -0.14624368 -0.20142777 0.04484883 0.33446705
000080 ad 7a 14 3f 69 c6 28 bc fb c5 de 3e 20 b9 47 3f
       0.5799969 -0.010301211 0.43510422 0.78016853
000090 76 81 06 3d c8 cd cf 3e ae 06 cc 3e 4f 2f dc 3d
       0.032838307 0.40586686 0.39848846 0.10751211
0000a0 a8 1a af be a8 df 4c bf ed 94 5f be 5f 95 16 bf
       -0.34200025 -0.8002877 -0.21834154 -0.5882167
0000b0 83 69 b5 bf 96 e0 d1 bd e7 55 c0 3d 46 2b 09 bf
       -1.4172825 -0.102479145 0.093913846 -0.53581655
0000c0 4f de 29 be 00 36 2e bf 9d 2e 80 bf 72 15 dd 3d
       -0.1658871 -0.6805115 -1.0014225 0.10795106
0000d0 3c 4f 27 bc 61 d5 45 be a0 d3 b3 be a4 d8 2c 3e
       -0.010211762 -0.19319679 -0.35122395 0.16879517
0000e0 bf 18 41 3f 44 02 a3 3e 08 da 7f bd e2 9c ef be
       0.75428385 0.31837666 -0.06246379 -0.4679938
0000f0 f4 f8 34 3f 3f f7 b1 be a6 04 cd bf 29 f5 d0 bc
       0.7069237 -0.34758946 -1.6017044 -0.025507526
000100 c4 3b 51 3e 0a 36 b3 be f4 18 5a be 6b 8a fd be
       0.20432955 -0.35002166 -0.21298581 -0.49519667
000110 25 ad eb be 3d f2 03 bf f3 05 47 bf 8a d2 0b bf
       -0.46030536 -0.515415 -0.7774345 -0.5461813
000120 8c e2 69 be 02 0f 59 3e 64 83 d7 3e 23 8f 30 be
       -0.22840327 0.21197131 0.4209243 -0.17242102
000130 92 1f 1a 3f 63 58 76 3f 1c 36 35 3e 91 ef 14 3f
       0.6020442 0.9622862 0.17696422 0.5817805
000140 fa 2b 5b 3f 3f f6 3c be 0b 5f bd 3d d7 8b 09 be
       0.8561398 -0.1845331 0.09246644 -0.13432251
000150 ea 76 66 be e0 e2 08 3f 9d 7b 18 3f 3b 09 26 bd
       -0.225063 0.53471184 0.5956362 -0.040536147
000160 ea 2f 23 3f 4f e4 87 3f a7 74 40 3f b6 02 06 3e
       0.63744986 1.0616549 0.75178 0.13086972
000170 94 d2 4e 3e 6f 59 35 3f 69 a5 a2 be 34 52 5a be
       0.20197517 0.7083959 -0.31766823 -0.2132042
000180 a3 f0 39 3f c3 55 cd be 07 47 42 be 09 3d a6 3d
       0.7263281 -0.40104493 -0.18972407 0.0811711
000190 33 d7 5a be 0e 0b 3f bf 56 f7 7c be 3f 5d 87 3e
       -0.21371154 -0.74626243 -0.24703726 0.2643833
0001a0 a9 32 97 3e 54 15 68 be 7e 49 98 3f e3 f0 e2 3f
       0.29530838 -0.22664386 1.1897428 1.7729763
0001b0 eb 10 80 3d 73 5e 0f be 5e 26 70 bf 9f 8e 8e be
       0.06253227 -0.14000873 -0.93808544 -0.27843186
0001c0 b0 f1 94 3e 15 04 e7 3e 2b b6 e7 be 1c 28 12 3f
       0.29090643 0.45120302 -0.4525617 0.5709245
0001d0 e2 3c ca 3f b6 1e 89 3e 48 46 17 3f 4b 01 d1 3e
       1.579983 0.26781243 0.59091616 0.408213
0001e0 f4 b4 b3 be 6a 93 7b be 88 a9 f8 bc d8 c1 b3 be
       -0.35098994 -0.24567953 -0.030354276 -0.3510883
0001f0 e4 63 81 bf 76 37 76 bf d3 8e 4c be b7 dd 0b 3e
       -1.0108609 -0.96178377 -0.19976358 0.13658796
000200 f6 a2 3d 3f c2 d2 a8 3e 2b c9 d0 be 31 53 14 bf
       0.74076784 0.32973295 -0.4077848 -0.5793944
000210 27 59 54 3f aa 4a 1a bf 69 35 b8 bf d6 ae 38 be
       0.82948536 -0.6027018 -1.43913 -0.18035445
000220 2c be 61 be e8 5c 19 bf ff 56 61 be 2a 7d 69 3e
       -0.22045201 -0.5990739 -0.22005843 0.22801653
000230 d4 26 1e 3f 0b c2 8c bd aa 93 19 3f 23 9a af 3f
       0.61777997 -0.06872948 0.5999094 1.3718914

stage2.0.branch2.4.weight f4 [16]
000000 7f 76 b6 3f 41 99 99 3f ca cc ae 3f 13 31 b9 3f
       1.4254912 1.1999894 1.3656247 1.4468101
000010 02 eb 44 3f 50 b3 88 3f 78 14 c0 3f 1b 6f 90 3f
       0.76921093 1.0679722 1.5006247 1.1283907
000020 39 61 ab 3f 12 bc 95 3f 7f 7c 82 3f 26 b5 c4 3f
       1.3389045 1.169802 1.0194243 1.5367782
000030 b5 fc bb 3f ac 00 9c 3f c8 3d ac 3f 97 01 94 3f
       1.4686495 1.2187705 1.3456354 1.1562985

stage2.0.branch2.4.bias f4 [16]
000000 8d ed d0 bd 2d a2 c6 3c 56 ec 77 bf dd 45 aa bf
       -0.10201559 0.024247253 -0.96844995 -1.330257
000010 6c b2 32 3f a0 1e df 3e 0c 35 1b bd a3 89 33 3f
       0.698035 0.43578053 -0.037892386 0.7013189
000020 58 e5 94 be a2 10 52 bf 76 53 0e bf ea 4a 08 bf
       -0.29081225 -0.8205663 -0.555961 -0.5323931
000030 70 8d 07 3d de 79 84 3f 9d 69 54 3f 6a 31 95 be
       0.03309387 1.0349691 0.82973653 -0.29139262

stage2.0.branch2.5.weight f4 [16, 16, 1, 1]
000000 db c6 9e 3e 86 dd 03 3f 1d db 4e 3f fe 3c 34 3f
       0.3101109 0.5150989 0.8080309 0.70405567
000010 47 95 d3 be 1c 58 9a 3c 4e 58 9f 3f 77 fe 5e bf
       -0.41324827 0.018840842 1.2448823 -0.8710703
000020 46 d5 ae 3d 54 8e a3 bc 0b 90 ee be 3c cc 58 bf
       0.085367724 -0.019965328 -0.4659427 -0.84686637
000030 db d1 4b bf f6 8b 1b 3e 79 01 e0 3e 42 b6 85 be
       -0.7961709 0.1519011 0.43751124 -0.26115614
000040 cb f6 38 3f 0b 58 04 bd b8 6f 8a be 3a b0 cb be
       0.72251576 -0.032310527 -0.2703836 -0.39782888
000050 f6 5c b6 3e 1c ed 74 3e 90 14 07 3f 7f 05 3c be
       0.356178 0.23918575 0.5276575 -0.18361472
000060 1f 44 de be c8 69 45 bf 55 33 52 bf 02 c9 e9 be
       -0.43411347 -0.77114534 -0.82109576 -0.4566117
000070 c8 d2 15 be 7f d0 ba 3e a6 cc 88 3e 25 95 b7 3e
       -0.14631188 0.36487195 0.26718634 0.35855976
000080 ea b7 41 3d 2a 42 7b 3e 8d 68 4e 3f 95 1e 05 be
       0.047294535 0.24536958 0.8062828 -0.12999947
000090 42 63 2a bf fa a0 41 3f b5 cf 70 3e 92 36 5e bf
       -0.66557705 0.75636256 0.23516734 -0.8680202
0000a0 f9 32 3d be 03 5f 9c 3e f4 fe 6b be 53 6b f4 3e
       -0.18476476 0.30541238 -0.23046476 0.47738132
0000b0 c4 d7 95 3d 7c 87 dd be 2f 07 8c 3e 3c 2b de 3d
       0.07316545 -0.4326743 0.2734923 0.1084809
0000c0 c0 da 91 bf 57 df f4 3d 36 62 b4 3d fa f5 0c bf
       -1.1394882 0.11956661 0.08807795 -0.5506283
0000d0 43 0d 9a 3e 38 e5 94 be 18 e4 18 be 15 eb 27 3f
       0.30088243 -0.2908113 -0.14930761 0.6559308
0000e0 29 9d 98 be b1 92 73 bf 7f 4c aa be f4 7d 41 bc
       -0.29807404 -0.9514571 -0.33261487 -0.011809815
0000f0 d6 b2 31 3e 74 58 a0 3b b8 6c 82 3e 54 75 f6 be
       0.17353377 0.004893357 0.2547357 -0.4813639
000100 6e 41 07 3f 1f 15 47 3e e7 b5 48 bf 43 c1 72 bf
       0.5283421 0.19441651 -0.7840256 -0.94826144
000110 4e d9 66 3d 81 68 0f 3e f7 32 73 bd f7 46 5a be
       0.05635958 0.14004709 -0.059374776 -0.21316133
000120 57 d2 22 3e 6d 12 fc 3e 43 89 93 be 34 95 8c 3f
       0.15900551 0.49232808 -0.2881566 1.0983033
000130 c0 7a 29 bf f2 ff 02 be b8 8d fa 3e 1f 73 07 3f
       -0.66202927 -0.12792948 0.48936248 0.52910036
000140 c9 bb 88 bb ce 58 12 3e 79 23 a9 3e 42 83 0b bf
       -0.0041727764 0.14291689 0.33034876 -0.5449716
000150 45 97 83 3f 2f b6 a3 3f 90 5b e2 3e a1 f6 14 3f
       1.0280539 1.2789973 0.44210482 0.58188826
000160 e5 fe 58 3e 16 c8 6e 3f a2 63 a1 be ee d7 a4 3e
       0.21190985 0.93274057 -0.31521326 0.3219599
000170 78 0d 43 be 52 ad 79 bc e9 0c bb 3e b3 1d e1 be
       -0.19048107 -0.015239077 0.36533287 -0.4396797
000180 16 f1 01 3f c6 3c 6f 3d 5b 02 a2 bd a1 ac b4 3e
       0.5075849 0.058407567 -0.079106055 0.35287955
000190 db 87 fa 3e 3d 22 0f 3e 33 5c 3b 3f d7 0b d9 be
       0.48931774 0.13977905 0.7318756 -0.42391846
0001a0 83 a6 11 bf 31 e9 9c be e2 6f ac be 26 a1 58 bf
       -0.568947 -0.3064666 -0.3367911 -0.84620893
0001b0 40 a6 65 3f a4 1e 81 be 26 ec ad bf 04 cf e8 be
       0.897068 -0.2521869 -1.3587692 -0.4547044
0001c0 62 73 a0 3e 49 44 82 bf a5 7a 0f be 5c 51 f2 be
       0.3133803 -1.0177089 -0.14011629 -0.47327697
0001d0 9f 75 66 3e 97 06 39 3e 31 a4 cc bb 54 63 f9 be
       0.22505806 0.1806892 -0.006245159 -0.48708594
0001e0 17 7a a7 3f 16 be 80 be 50 06 f6 be ba 5e 5e bf
       1.3084134 -0.25145024 -0.4805169 -0.8686329
0001f0 02 7d 05 be e4 c5 74 be 7a fd af 3e 95 70 d1 be
       -0.13035968 -0.23903614 0.34373075 -0.40906206
000200 af 9d 64 be 79 61 f7 3d 94 b6 12 bd 26 6e 39 bf
       -0.22325777 0.12079138 -0.03581865 -0.724337
000210 85 04 c6 3a d8 aa cd be 43 f7 26 bf 3a da e0 be
       0.0015107548 -0.40169406 -0.6522104 -0.43916494
000220 0d 4f 13 bf 4d 53 2f be e1 53 04 3d 4e 9c 39 be
       -0.57542497 -0.1712162 0.032306556 -0.18126032
000230 f4 ef 60 bf b0 87 88 bf 1e 26 a0 be e3 3a 0c 3f
       -0.8786614 -1.0666409 -0.3127908 0.54777354
000240 3b b7 cc 3e 2c 83 de bd 49 d9 62 3f c5 d7 0f 3f
       0.39983544 -0.10864863 0.886128 0.56188613
000250 7d e1 9e be 0b 5b bb be 6e e0 b3 3d 7c 8d db be
       -0.3103141 -0.36592898 0.08783041 -0.42881382
000260 ae a0 d2 be 80 ac 08 3f 1e 2c 6f 3e 40 db 88 3c
       -0.41138214 0.53388214 0.23356673 0.016706109
000270 ed 52 aa bd a9 99 aa be 2b 6c aa be 88 e6 07 bf
       -0.08316598 -0.33320358 -0.3328565 -0.5308614
000280 98 8b 20 bf 70 6a 32 be 85 0c ae be 84 cb fe 3d
       -0.62713003 -0.17423415 -0.33993927 0.12441161
000290 89 1c 33 be 03 86 14 be bd 93 3c be b5 4c 86 3e
       -0.17491354 -0.14504246 -0.18415733 0.26230398
0002a0 b8 ea 5f 3e 16 83 be 3e 82 44 a8 3e 1c d8 25 3f
       0.21866882 0.37209386 0.32864767 0.6478288
0002b0 66 ce 2b 3f 11 16 9d 3e b6 7a 5d 3e 02 d5 1d 3d
       0.67111814 0.30680898 0.21628842 0.03853322
0002c0 11 e0 34 bf 91 5b a5 bd 01 65 f9 3d eb 9e 1b 3d
       -0.706544 -0.080741055 0.12177468 0.037993353
0002d0 b3 14 1f be 5f 58 44 bd ce c6 3f bf cb c9 7a be
       -0.1553524 -0.04793584 -0.74912727 -0.2449104
0002e0 87 d3 87 3e 61 d8 5d be 4a 77 fb bd 4e ed 3e bf
       0.2652857 -0.21664573 -0.12278612 -0.7458085
0002f0 20 6d d1 3d e2 3d a5 bd b0 ba 53 bf 0c 8b 11 bf
       0.10225892 -0.08068444 -0.8270674 -0.56852794
000300 c9 ff 07 bd 8e a4 69 bf 9a a1 b1 3e fa 6e d9 be
       -0.03320292 -0.91266716 0.34693605 -0.4246748
000310 26 e6 ac 3e 81 1a bc be 8d 10 f3 bd be d5 3b be
       0.3376934 -0.3673897 -0.11868391 -0.18343255
000320 93 e9 cc be db 85 25 3e 95 5b ed 3e e1 6b 22 3e
       -0.40021953 0.16164343 0.46358934 0.15861465
000330 49 8f 06 3f 21 b4 73 3f 58 38 21 be 62 00 cc be
       0.52562386 0.9519673 -0.1574415 -0.39844042
000340 f3 4c fb 3e 90 50 e4 3e ad cb e6 3d bd a1 18 be
       0.49082145 0.44592714 0.11269317 -0.14905448
000350 f0 28 35 3e a3 1a e9 be 55 b2 81 3e 36 98 88 be
       0.17691398 -0.45528135 0.2533137 -0.26678628
000360 04 11 36 bf bb 6c fe 3e d9 6d 22 bc ce 23 1d bc
       -0.71119714 0.4969233 -0.009913885 -0.009591056
000370 8f d8 25 3f f6 fa ad be 2a 8f 09 3f d1 8f 23 3f
       0.6478357 -0.3398053 0.53734076 0.6389132
000380 a9 d3 80 3e a6 97 1b bd b1 db 26 bd 99 06 7f bd
       0.25161484 -0.03798642 -0.040736858 -0.06226215
000390 bd 91 90 3e de d3 a8 3b 3c 6e 3d 3f 15 ac 5f 3e
       0.2823619 0.0051522097 0.7399633 0.21842988
0003a0 d7 62 5f 3e 58 5f 73 3e 59 be ad 3d 77 6a 13 bf
       0.21815048 0.2376684 0.084835716 -0.5758433
0003b0 fb d8 d9 3d 1b 4c 35 bf 53 d0 a8 3e 88 52 c1 bd
       0.10637089 -0.7081925 0.3297144 -0.0943957
0003c0 87 2f 3c 3e 14 59 d4 3e ac 6a 40 3e 62 d5 cc be
       0.18377505 0.4147421 0.18790692 -0.40006548
0003d0 98 bf a6 3e 7b 39 c7 3c 53 21 96 be e8 96 22 3d
       0.3256805 0.024319401 -0.293223 0.039694697
0003e0 d4 61 97 3e fb 29 02 3f e4 84 4d 3f d1 fe 18 3f
       0.29566824 0.5084531 0.802809 0.5976382
0003f0 b7 b7 12 3f 01 c6 5f bf 9b 3b 3a be 00 74 0e bf
       0.57311577 -0.87411505 -0.181868 -0.5564575

stage2.0.branch2.6.weight f4 [16]
000000 b7 25 cc 3f 3a 19 be 3f cc 54 e4 3f 5f 96 b0 3f
       1.594901 1.4851449 1.7838378 1.379589
000010 92 6b cc 3f 60 14 95 3f 24 77 e5 3f 7c d8 a3 3f
       1.5970328 1.1646843 1.7926984 1.2800441
000020 73 6d 1d 3f 51 86 78 3f 66 9d 85 3f 3b ba 80 3f
       0.6149513 0.9707995 1.0438659 1.0056833
000030 c3 b9 4f 3f 86 3c 30 3f 63 ca 43 3f cd 71 71 3f
       0.81142825 0.6884235 0.7648069 0.9431427

stage2.0.branch2.6.bias f4 [16]
000000 bd 1e 35 be f4 47 12 3f 77 44 06 3e 8e fa d2 3e
       -0.17687507 0.5714104 0.13112055 0.41206783
000010 6f a9 e2 bd ac 74 93 3f dc 95 3d 3f 21 cf db 3d
       -0.11067473 1.151998 0.7405679 0.10732866
000020 04 03 28 3f 4b ce d1 bd cc 0e 24 bf 3e e4 97 bd
       0.656296 -0.102444254 -0.6408508 -0.074165806
000030 fc 54 46 3f c7 28 e7 3e 06 00 ef 3e 8b 20 0d 3f
       0.77473426 0.45148298 0.46679705 0.5512778

stage2.1.branch2.0.weight f4 [16, 16, 1, 1]
000000 43 a2 d7 bd 06 54 8b be 0f 45 b0 3f 1b 3c db 3e
       -0.10528996 -0.27212542 1.3771075 0.42819294
000010 99 33 2a be 23 a2 ae bc 19 bb 43 be 2b be e5 3d
       -0.16621245 -0.021317547 -0.19114341 0.11217912
000020 f4 7e be be 6e c3 80 3d 83 ca e8 bf 36 d9 41 be
       -0.37206233 0.06287275 -1.8186802 -0.18930516
000030 b0 ba af 3f 70 f9 b4 3c f1 c7 b3 3e 45 60 f7 3d
       1.3728848 0.022091597 0.3511348 0.12078909
000040 de d2 71 bf 67 28 1d 3f 55 89 d2 be b3 37 db be
       -0.9446238 0.61389774 -0.411204 -0.42815933
000050 fe f5 ef bd 01 67 2b 3f 7e e6 2a 3e e5 8b 22 3f
       -0.11716841 0.66954046 0.16689488 0.6349471
000060 9b fc cf 3e 37 66 a9 3d 3f 83 96 3c d0 8b ab be
       0.4062241 0.08271449 0.01837313 -0.33505106
000070 52 10 6d be be 80 3c be 13 91 79 3d 4a fc f7 3d
       -0.23150757 -0.18408486 0.06092937 0.12108667
000080 52 28 59 be 0c 05 d6 3e 4a a7 a0 3d 53 58 a3 3e
       -0.21206787 0.41800725 0.07844408 0.31903324
000090 69 e0 6d be f5 c1 1b 3f 4d 4d 8f 3f 43 3f b7 3d
       -0.23230137 0.6084283 1.1195465 0.08947613
0000a0 96 6d de be 1a c1 31 bc 0f 49 13 3e 18 1d ea be
       -0.43442982 -0.010849262 0.14383338 -0.45725322
0000b0 2b 79 d6 bd 32 41 a4 bd 97 af ee be d6 e8 b1 be
       -0.1047233 -0.080202475 -0.4661834 -0.34747952
0000c0 01 62 bb be b6 d7 ca be 81 05 2c bf 96 ef 60 bd
       -0.3659821 -0.396177 -0.671959 -0.054915987
0000d0 0f 66 e1 3d 8e d3 91 3e 70 98 6e 3e 7c de 06 3f
       0.11005794 0.28481716 0.23300338 0.52683234
0000e0 66 0f 15 3f 49 1c 8f 3f ec 20 cc be a3 f9 45 3d
       0.5822662 1.1180507 -0.39868867 0.048333775
0000f0 ad 4c e2 3e 65 c0 04 bf b5 08 09 3f 69 77 4c 3e
       0.44199124 -0.5185607 0.5352891 0.19967426
000100 80 10 3e be ce 92 63 be a2 9b 07 be 62 5b 6f bd
       -0.18560982 -0.2222397 -0.13242963 -0.05843676
000110 68 96 35 bd 0d 2b 91 bd 35 cf f4 bd 4e 36 43 3d
       -0.04433289 -0.070882894 -0.11953584 0.04765921
000120 df a3 da bc 1d 4a 64 bc cb 40 f6 3d e2 18 8b bd
       -0.026689468 -0.013933686 0.12024077 -0.067918554
000130 29 55 a3 bd d3 06 a5 bd 4c fb 75 3d 94 da 5b bd
       -0.079752274 -0.08057942 0.06005411 -0.05367525
000140 5d 62 3f be ca b5 63 be b4 2f 08 be 91 f7 71 bd
       -0.18689866 -0.22237316 -0.13299447 -0.05907399
000150 a2 bd 36 bd 27 7f 90 bd 24 fb f4 bd 8e 7f 3f 3d
       -0.04461444 -0.070555024 -0.11961964 0.046752505
000160 ca 27 db bc e6 b3 67 bc 7d 24 f7 3d 39 ce 8b bd
       -0.026752371 -0.014142012 0.120675065 -0.06826443
000170 2e b2 a2 bd 85 91 a5 bd 17 11 76 3d 67 66 57 bd
       -0.07944141 -0.08084396 0.060074892 -0.052587893
000180 81 0e d4 bd 00 24 c9 bd dd 59 2f be a9 66 9d be
       -0.10354329 -0.098213196 -0.17124124 -0.30742386
000190 c5 8e 3e 3d 5b d6 c0 3e 1b 4c 75 3e 4e 70 01 3f
       0.046522874 0.3766354 0.23954813 0.5056199
0001a0 3b c1 3d 3f 05 34 4d 3f b7 5a 5e bf 78 17 12 3e
       0.7412297 0.801575 -0.8685717 0.14266765
0001b0 88 a7 2e 3f bc f5 18 bf 73 9d a6 3e 4b f9 bf be
       0.6822438 -0.5974996 0.32542 -0.37494883
0001c0 61 77 40 be b5 1e 65 be e0 3f 0a be 6e d4 75 bd
       -0.1879554 -0.22374995 -0.13500929 -0.06001704
0001d0 65 65 3c bd b7 03 91 bd 47 e5 f7 bd 4f 31 42 3d
       -0.045995135 -0.07080787 -0.12104278 0.047410306
0001e0 a0 74 d0 bc cd bb 53 bc a8 65 f8 3d cf 6a 8d bd
       -0.025446236 -0.012923193 0.121287644 -0.06905138
0001f0 a0 23 9e bd 50 49 a4 bd 58 7d 73 3d aa 1c 5d bd
       -0.07721639 -0.08021796 0.05944571 -0.053982414
000200 7d 24 97 bd 47 fe c1 be bf df dc bd 48 7c 69 be
       -0.073800065 -0.3788931 -0.10784864 -0.22801316
000210 09 a3 49 be a3 07 2a 3e b4 7f 9c bd 8f b1 44 be
       -0.19691099 0.16604476 -0.07641545 -0.19208358
000220 c6 4b 67 be de 2d 4b be 4e ef 3c bf d2 d9 cd bd
       -0.22587499 -0.19841716 -0.7380265 -0.100513116
000230 6d 2d b6 bc df 6d 0d bd 12 d3 4e 3d 6f be 49 be
       -0.022238458 -0.03452861 0.05049426 -0.19701551
000240 bd c0 ea 3d 92 6f e4 3e da 08 0e 3f e0 f5 ff 3e
       0.11462543 0.4461637 0.55482256 0.49992275
000250 3c 4c 8c 3f 3d 7a 1a be 81 92 98 3e 5a 14 80 bd
       1.0960765 -0.15085693 0.29799274 -0.06253882
000260 65 60 a6 bc cd 41 2f bf de 2f ef bd 8a 46 fa 3e
       -0.020309636 -0.6845978 -0.11679052 0.48881942
000270 4c 01 3f be 05 64 d4 3e c4 02 04 be 5e bd 24 3f
       -0.18652838 0.4148256 -0.1289168 0.6435145
000280 e0 c5 3c 3f d7 c4 65 3f a0 2c a0 3d 41 13 1b 3f
       0.73739433 0.8975348 0.078210115 0.60576254
000290 3c 81 6b bf 5d a7 68 be a5 99 87 3e 10 67 ad be
       -0.9199407 -0.22720094 0.2648441 -0.33867693
0002a0 d6 6e da bd fa c9 99 3e 04 97 f6 bc 16 cb 43 3f
       -0.106656715 0.30036908 -0.030101307 0.7648176
0002b0 ee f5 f0 bd 6a ae ee bd df 57 22 bf 52 fa b5 3e
       -0.11765657 -0.116543606 -0.6341533 0.35542542
0002c0 e5 ae 95 3f c2 93 9d be 89 32 86 be 9f 02 70 3f
       1.1693999 -0.30776793 -0.2621043 0.93754
0002d0 13 ef 68 be 03 df a6 be 99 19 e0 3e 09 c1 73 be
       -0.2274745 -0.3259202 0.4376953 -0.23804106
0002e0 cf 70 40 3a d4 ab 20 bf 69 1a 49 bd 98 a3 4f 3e
       0.00073410285 -0.6276219 -0.049097452 0.2027725
0002f0 48 e1 ad bd 96 e9 3a be cc 53 5d be ec 16 80 be
       -0.084902346 -0.18253168 -0.21613997 -0.25017488
000300 61 15 84 be 6f 15 48 be 3a 27 55 be 39 30 85 be
       -0.2579756 -0.19539426 -0.20815745 -0.26013353
000310 4a 08 f3 3d df 9e 1e be 16 0f fd bc 99 9c 3f 3c
       0.118668154 -0.15490292 -0.030890983 0.011695051
000320 4a 05 90 be 31 7f 80 be ba a9 bc 3f 81 24 f6 be
       -0.28129035 -0.2509704 1.4739296 -0.48074725
000330 69 76 6c be 69 47 3c bd c9 e7 02 3e e9 0d 9e be
       -0.23092045 -0.04596654 0.12783732 -0.30869988
000340 27 6f af 3d ac c5 2b bf cf 26 a6 bd 6b be bf 3e
       0.085661225 -0.670985 -0.08112871 0.37449965
000350 b7 d5 32 bd d7 79 80 be bb 03 3c bf 47 41 84 3e
       -0.043660846 -0.25092956 -0.7344319 0.25831053
000360 78 7c 06 3f 0a b7 98 3d 91 25 1d 3d 03 41 93 3e
       0.52533674 0.07456787 0.038365904 0.28760538
000370 60 fd b5 3d 09 c1 fc 3e 31 fc 8e 3f d7 98 2c 3f
       0.08886218 0.49366024 1.1170713 0.67420715
000380 4f b1 c5 3a 1f 9f 5f bf 8d 1d 7e be 50 56 17 bf
       0.0015082749 -0.87352175 -0.2481596 -0.5911608
000390 28 29 c8 be df ce 92 be 9f 3b fa bd 53 6d 64 bd
       -0.390939 -0.28673455 -0.12218403 -0.055768322
0003a0 dc 0d 56 3f 03 94 d6 3a 6a 78 b3 3e 1b 3f 78 3f
       0.836149 0.0016371015 0.35052806 0.9697129
0003b0 cd 18 5e be db 5f ab 3e 8e 5a 67 3e 9b e6 d4 be
       -0.21689148 0.3347157 0.22593138 -0.41582188
0003c0 96 f7 a8 3e 27 c9 ed 3d f1 45 84 be df 96 3f 3e
       0.33001393 0.116106324 -0.2583461 0.18709897
0003d0 ec 4a 27 be 6a bd 36 3f 15 6e 60 3f 84 79 64 3f
       -0.16337174 0.7138277 0.8766797 0.8924792
0003e0 69 98 2d bd c7 9e a4 be e8 e0 be bc 70 59 f1 bd
       -0.042381678 -0.32152387 -0.023300603 -0.11784637
0003f0 a5 63 55 3e f1 ff 4c bf a7 70 e3 3e 3f fe aa 3f
       0.20838793 -0.80078036 0.44421884 1.335884

stage2.1.branch2.1.weight f4 [16]
000000 17 72 61 3f 5c a2 88 3f 98 59 8a 3f a4 c1 b7 3f
       0.8806471 1.0674548 1.0808592 1.435597
000010 da 68 5e 3b e1 34 58 3b 6a ad a2 3f 99 c8 a8 3b
       0.0033937008 0.0032990503 1.2709172 0.005150866
000020 53 00 49 3c 30 da 95 3f fd 55 9d 3f da 3b 93 3f
       0.012268144 1.170721 1.2291867 1.150264
000030 45 df 4b 3f a1 6d 89 3f 1f a4 82 3f fd 7c a4 3f
       0.7963756 1.0736581 1.0206336 1.2850643

stage2.1.branch2.1.bias f4 [16]
000000 1f b7 ab 3e 30 6b 52 3f ce ec 39 3f 97 c2 fb 3e
       0.33538148 0.82194805 0.7262696 0.49171898
000010 c0 ff a8 b9 78 a4 b5 b9 f6 1d ae 3e a9 f9 70 ba
       -0.00032234006 -0.0003464555 0.34007233 -0.00091924757
000020 9b a5 b5 3b 6d fa e0 3e 7a 74 a0 3e a8 b2 81 3f
       0.0055434234 0.4394106 0.31338865 1.0132647
000030 2d c7 d7 3e 5a ce 23 3f 8d 1e 9e 3f b6 e8 a6 3b
       0.42144147 0.6398674 1.2353073 0.0050936593
