independent_train_1000.0/client49/checkpoint_1000.0.pth (torch, 225067 bytes, 29 tensors)

conv1.weight f4 [24, 3, 3, 3]
0	0x3e6fc297	0.23414074
1	0x3f014771	0.50499636
2	0x3e660a7d	0.22464938
3	0x3f1d944e	0.6155442
4	0x3f72cb11	0.94841105
5	0x3f1ebe20	0.6200886
6	0x3da85066	0.0821846
7	0x3ece3558	0.40275073
8	0x3dd3d759	0.10343809
9	0xbd106014	-0.035247877
10	0xbda7c81a	-0.08192463
11	0x3cc44b8c	0.023961805
12	0xbe17f67a	-0.14840117
13	0xbe6bfdf0	-0.23046088
14	0xbde0a3d2	-0.10968746
15	0xbde078f8	-0.10960573
16	0xbe52bf2b	-0.20580737
17	0xbdf82afd	-0.12117574
18	0xbe0fe15a	-0.14050809
19	0xbed81922	-0.42206675
20	0xbe24c79b	-0.16091768
21	0xbeb82453	-0.35965213
22	0xbf2d5e6d	-0.6772221
23	0xbec057ea	-0.37567073
24	0x3c4243e8	0.01185701
25	0xbe902ae3	-0.2815772
26	0xbc347863	-0.011015031
27	0xbfbfd1e2	-1.4985926
28	0xbfdbe94d	-1.7180573
29	0xbfb9a0e5	-1.4502226
30	0x3f1660e7	0.5874161
31	0x3f7047d0	0.9385958
32	0x3f351a5e	0.7074336
33	0x3f4d7894	0.8026211
34	0x3f97dc10	1.1864033
35	0x3f40e4e8	0.75349283
36	0xbf75df79	-0.9604412
37	0xbf9cfb84	-1.2264256
38	0xbf7676f8	-0.9627528
39	0x3ebcf135	0.36902776
40	0x3f273764	0.65318894
41	0x3f023103	0.50856036
42	0x3ecd0f38	0.40050673
43	0x3f3a021a	0.72659457
44	0x3eea4171	0.45753053
45	0xbd710f53	-0.058852505
46	0xbf011dee	-0.50436294
47	0xbe255312	-0.1614497
48	0x3e61fdf0	0.22069526
49	0x3e5ba0e5	0.21448095
50	0x3e94fac2	0.29097563
51	0xbe254596	-0.16139826
52	0xbe3218b5	-0.17392237
53	0xbe047012	-0.12933376
54	0xbda5433f	-0.08069467
55	0x3e857427	0.2606518
56	0xbd53b7d8	-0.051689
57	0x3d722178	0.05911395
58	0x3ece4aea	0.4029153
59	0x3e4a7360	0.19770575
60	0xbdc3fd86	-0.0956984
61	0x3e59c845	0.21267803
62	0x3dca0154	0.098635346
63	0x3e4b25a1	0.19838573
64	0x3e7db7e4	0.2477718
65	0x3e3c3fd5	0.18383725
66	0xbdf75d21	-0.1207831
67	0xbdd09a00	-0.10185623
68	0xbd9fa1d0	-0.07794535
69	0xbe185877	-0.14877497
70	0xbe3c61ae	-0.18396637
71	0xbdb04e82	-0.08608724
72	0x3e35029e	0.1767678
73	0xbc52a70d	-0.012857211
74	0x3d68b8ea	0.056816973
75	0xbeacd895	-0.3375899
76	0xbf1eb6d8	-0.6199775
77	0xbedba71a	-0.42900926
78	0xbe7eae88	-0.24871266
79	0xbf0cccec	-0.55000186
80	0xbea3f5d3	-0.32023486
81	0x3cfc5017	0.030799909
82	0xbcdc68e6	-0.026905488
83	0x3e86ccc6	0.26328105
84	0x3f9f1055	1.2426859
85	0xbe2378fd	-0.15964122
86	0xbf9e4e18	-1.2367582
87	0x3ecd7624	0.40129197
88	0xbde64ca7	-0.11245089
89	0xbe2a1814	-0.16610748
90	0x3f3cc376	0.7373575
91	0xbe9e261e	-0.30888456
92	0xbf1d32e1	-0.6140576
93	0x400c86d0	2.1957283
94	0xbe86a094	-0.26294386
95	0xc005aa3c	-2.0885153
96	0x3f952088	1.1650553
97	0xbe4e77a5	-0.20162828
98	0xbf56cf3e	-0.83909976
99	0x3e8498d1	0.2589784
100	0xbe937c16	-0.28805608
101	0xbe3a14f5	-0.18172057
102	0x3fe77370	1.8082104
103	0xbe197cdc	-0.14989036
104	0xbfd50ffa	-1.6645501
105	0x3f7fa2ed	0.9985798
106	0xbe04101c	-0.1289677
107	0xbf404323	-0.7510244
108	0xbf456b06	-0.7711643
109	0x3d90126c	0.07034764
110	0x3f37f010	0.7185068
111	0x3f63b95f	0.8895473
112	0x400f272c	2.2367659
113	0xbfaed320	-1.365818
114	0xbf754c01	-0.958191
115	0x3f6ba295	0.92044955
116	0xbefaa921	-0.4895716
117	0xbf2d8219	-0.6777664
118	0xbdef5051	-0.11685241
119	0x3e5e1ccd	0.21690674
120	0x3ec80fea	0.3907464
121	0x3fcaa0ee	1.5830362
122	0xc0096d2f	-2.147289
123	0xbf8974d1	-1.0738775
124	0x3f4d5c88	0.80219316
125	0xbeb8d437	-0.36099407
126	0xbf18e7fc	-0.5972898
127	0xbead8c62	-0.33896166
128	0x3f0d26cb	0.5513732
129	0x3e9a43b1	0.3012977
130	0x3fa6e4cd	1.3038574
131	0xbfbd0651	-1.4767553
132	0xbf30a375	-0.68999416
133	0x3f5ba1e1	0.8579388
134	0x3e968748	0.29400086
135	0x3e864c31	0.26230004
136	0x3cd52f83	0.026023632
137	0x3e38f08f	0.18060516
138	0xbdb1700e	-0.08663951
139	0xbe93862b	-0.288133
140	0xbe3558aa	-0.17709604
141	0x3d9c81dd	0.07641957
142	0xbd88a1de	-0.06671499
143	0xbd01572d	-0.031577278
144	0xbed212db	-0.4103001
145	0xbf0cd02a	-0.55005133
146	0xbed85d93	-0.4225889
147	0xbf11a3c7	-0.5689053
148	0xbf21dce4	-0.6322768
149	0xbf1275a9	-0.57210785
150	0xbf24060f	-0.64071745
151	0xbf32e7ca	-0.6988493
152	0xbf29d1ff	-0.66336054
153	0x3d003962	0.031304725
154	0x3eb7681e	0.35821623
155	0x3e1b9964	0.15195233
156	0x3f4b0b07	0.793137
157	0x3fa05939	1.2527229
158	0x3f6edcf0	0.93305874
159	0x3ec9f637	0.3944566
160	0x3f5a1252	0.85184205
161	0x3f01d52b	0.50715894
162	0xbeab90ca	-0.33508903
163	0x3c94c9b8	0.018162593
164	0xbed50874	-0.41608012
165	0x3f3cf2c6	0.7380794
166	0x3faa3033	1.3295959
167	0x3f3f39e2	0.746977
168	0x3eda08a4	0.42584717
169	0x3f81290f	1.0090655
170	0x3ed972f2	0.4247051
171	0xbe24a6fa	-0.16079322
172	0xbeeaec18	-0.4588325
173	0xbdb77af0	-0.08958995
174	0xbf647da9	-0.8925424
175	0xbf9f0cc8	-1.2425776
176	0xbf3c837f	-0.7363815
177	0xbf322c0a	-0.6959845
178	0xbf891e60	-1.0712395
179	0xbf1da51a	-0.6158005
180	0x3f0e5300	0.555954
181	0x3ec5940f	0.38589522
182	0x3f0e6253	0.5561878
183	0x3e27e9d0	0.16397786
184	0xbd386d80	-0.045026302
185	0x3e60dcf0	0.21959281
186	0x3db10ecc	0.086454004
187	0xbe2f9eb5	-0.17150386
188	0x3dbb6668	0.09150392
189	0x3e82a832	0.25518948
190	0x3ef1f8a9	0.47260025
191	0x3ea6e753	0.3259836
192	0x3eade319	0.33962324
193	0x3f20e9a8	0.6285653
194	0x3f0dcee3	0.5539381
195	0xbe9299a3	-0.2863284
196	0xbd9eb9f9	-0.07750315
197	0xbd1898fe	-0.03725528
198	0x3dca3fc2	0.09875442
199	0x3e70527c	0.23468965
200	0x3e85128d	0.25990716
201	0xbd861a4f	-0.06547987
202	0x3d6514c6	0.055928014
203	0x3e238c1d	0.15971418
204	0xbee55776	-0.4479329
205	0xbedcd515	-0.4313132
206	0xbe8fdc78	-0.28097892
207	0xbc99add0	-0.018759638
208	0xbc9448ce	-0.018101122
209	0x3dccbae0	0.09996581
210	0xbe6a1e9e	-0.22863242
211	0xbe710d9a	-0.23540345
212	0xbd5e0e97	-0.054213133
213	0xbe955ad1	-0.2917085
214	0xbea5aa76	-0.32356614
215	0xbe0fdc2e	-0.14048836
216	0xbd8be48c	-0.06830701
217	0x3f75999d	0.9593752
218	0x3dac8ac6	0.084249064
219	0x3f722553	0.945882
220	0xbfbb79b6	-1.4646518
221	0x3f2b4612	0.66903794
222	0x3e29f8df	0.16598843
223	0xbf4dd727	-0.8040642
224	0x3f046030	0.5170927
225	0x3de523ac	0.111884445
226	0x3eb2c16b	0.3491319
227	0x3e2e98de	0.17050502
228	0x3ec78724	0.38970292
229	0xc02f5ba3	-2.739968
230	0xbd60a61c	-0.054845914
231	0x3f217351	0.63066584
232	0xbf3bf2d3	-0.73417395
233	0x3f8635e1	1.0485193
234	0xbde99b24	-0.11406544
235	0x3f20c01f	0.62793154
236	0x3e8f2fc2	0.27966124
237	0x3eb7c4fd	0.35892478
238	0xbffa68d7	-1.9563245
239	0x3e8185b3	0.25297317
240	0x3eccb51d	0.39981928
241	0xbec7a5c0	-0.38993645
242	0x3f8d4a72	1.1038344
243	0xbe81fffc	-0.25390613
244	0xbf1835ce	-0.594571
245	0xbe9d24d1	-0.3069215
246	0xbf0771ed	-0.5290821
247	0xbf6685cc	-0.9004791
248	0xbf1e6209	-0.6186834
249	0xbf0d75ae	-0.5525769
250	0xbf6ec419	-0.9326797
251	0xbf1cfa98	-0.61319876
252	0x3f1e3647	0.6180157
253	0x3f476ef0	0.7790365
254	0x3f24aa7b	0.6432263
255	0x3f89d3f9	1.0767814

dense1.0.bn1.weight f4 [24]
0	0x3f642904	0.89125085
1	0x3ee5fdbb	0.44920143
2	0x3efdfa90	0.49605227
3	0x3f4e3701	0.8055268
4	0x3ff21f55	1.8915812
5	0x3ed8945c	0.4230069
6	0x3faa218d	1.3291489
7	0x3f39ebc7	0.7262539
8	0x3ffed60b	1.9909071
9	0x3e69796c	0.22800225
10	0x3f1c5b85	0.6107715
11	0x3eaf210f	0.3420491
12	0x3ed6628a	0.41872054
13	0x3f0d1ff2	0.5512687
14	0x3f7d2432	0.98883355
15	0x3f8726fe	1.0558774
16	0x3ea50e5a	0.32237512
17	0x3ec565f9	0.3855436
18	0x3e82fe6a	0.25584728
19	0x3f012dff	0.5046081
20	0x3f15da7d	0.5853651
21	0x3f74cbf9	0.9562374
22	0x3ed16c57	0.4090297
23	0x3ee0daaf	0.43916842

dense1.0.bn1.bias f4 [24]
0	0xbee339b5	-0.44379964
1	0xbec8ec17	-0.39242622
2	0xbddf2cb0	-0.10897195
3	0x3f0204e1	0.50788695
4	0x3f198f86	0.59984624
5	0xbe7e6395	-0.24842675
6	0xbf9550c2	-1.166527
7	0xbec7c948	-0.39020753
8	0x3f1c81aa	0.6113535
9	0xbe71a301	-0.23597337
10	0xbe183748	-0.14864838
11	0x3e2da057	0.16955696
12	0x3dffeb52	0.12496056
13	0x3ee9441e	0.45559782
14	0x3eff00fd	0.49805441
15	0x3e713ef8	0.23559177
16	0xbe5c13c3	-0.21491913
17	0xbe9f3949	-0.31098393
18	0xbea7b06d	-0.3275179
19	0x3e5f37b7	0.21798597
20	0xbec311b2	-0.38099438
21	0x3f1240cf	0.5713014
22	0x3de981c9	0.11401708
23	0xbe90ea7d	-0.283039

dense1.0.conv1.weight f4 [12, 24, 3, 3]
0	0x3dc51ada	0.09624262
1	0x3cb94bd8	0.022619173
2	0x3e3aec83	0.18254285
3	0x3ce328d2	0.027729426
4	0xbdc00243	-0.093754314
5	0x3d8da7af	0.06916749
6	0x3d7f6970	0.062356412
7	0xbdf129bb	-0.117755376
8	0x3cf7b396	0.030237
9	0x3cb0a6e9	0.021563964
10	0xbe3a8a25	-0.1821676
11	0x3de633c8	0.11240345
12	0xbd7e85b4	-0.062139228
13	0xbe4115f9	-0.18856038
14	0x3ccdfd76	0.025145274
15	0x3d5dff69	0.054198656
16	0x3d25d540	0.040486574
17	0x3d026800	0.031837463
18	0x3dc4074a	0.09571703
19	0xbc3175d3	-0.010831314
20	0x3e85c5c0	0.26127434
21	0x3d8f6fe0	0.0700376
22	0xbd8ee846	-0.069778964
23	0x3e703d8c	0.23460978
24	0xbc0afd93	-0.008483308
25	0xbe54840f	-0.20753501
26	0x3d949101	0.0725422
27	0x3e32c105	0.17456444
28	0xbe3c6c73	-0.18400745
29	0xbe918361	-0.28420547
30	0x3f89de30	1.0770931
31	0xb7d82579	-2.5766656e-05
32	0xbf651310	-0.8948221
33	0xbe29322e	-0.16523048
34	0xbddf5119	-0.1090414
35	0xbe956aa0	-0.2918291
36	0x3f03ca99	0.51481014
37	0xbfa33adf	-1.2752341
38	0x3f268acd	0.65055543
39	0x3fb7715f	1.4331473
40	0xbfdcbd46	-1.7245262
41	0x3eb39a98	0.35078883
42	0x3ea02a45	0.3128225
43	0xbf45a9df	-0.7721233
44	0x3edbc741	0.42925456
45	0xbbc3566f	-0.0059612314
46	0x3bb5fe88	0.005554024
47	0x3d94adbf	0.07259702
48	0xbd6b29e6	-0.057413004
49	0xbda51f9a	-0.08062668
50	0xbc45c625	-0.012071167
51	0x3d11ff8c	0.0356441
52	0x3c3b5b51	0.011435346
53	0x3d6db81b	0.058036905
54	0xbe1cfa70	-0.1532991
55	0xbe2b5572	-0.16731814
56	0x3a7ed7cf	0.0009721489
57	0xbdb06590	-0.086131215
58	0xbe24d3c7	-0.16096412
59	0xbcb59116	-0.022163909
60	0x3d90179d	0.07035754
61	0xbd779582	-0.060445316
62	0xbccd0be2	-0.02503008
63	0x3b360ec8	0.0027779806
64	0x3d259e29	0.040434036
65	0x3daf4403	0.08557894
66	0xbdda40ef	-0.10656916
67	0xbdaea7e1	-0.08528114
68	0x3dabac7a	0.08382507
69	0xbd0eba33	-0.034845542
70	0xbb1963bd	-0.0023405396
71	0x3e31463b	0.17311947
72	0xbea8339d	-0.32851878
73	0x3f4f1229	0.80887085
74	0xbf22c35c	-0.63579345
75	0xbf1641bf	-0.5869407
76	0x3fbbb7a4	1.4665418
77	0xbf88f736	-1.0700443
78	0xbe424dbc	-0.18974966
79	0x3ddfaf29	0.10922081
80	0xbe5e89d3	-0.21732263
81	0x3d11e01c	0.035614118
82	0xbd4f929f	-0.05067694
83	0x3d7ceedf	0.061751243
84	0x3d80ebad	0.062949516
85	0xbd0f2474	-0.034946874
86	0x3d1e0b5e	0.03858506
87	0x3dce5ca6	0.10076265
88	0xbce9c649	-0.028536933
89	0x3cd6f87e	0.026241537
90	0x3de11230	0.10989797
91	0xb86ed3cb	-5.694087e-05
92	0x3d0d8d33	0.034558486
93	0x3d5fe744	0.05466391
94	0xbda6ff78	-0.081541955
95	0xbc93720f	-0.017998723
96	0x3db1ee66	0.08688049
97	0xbc8b3c77	-0.016996605
98	0x3cf8acd7	0.030355854
99	0x3caaab50	0.020833641
100	0xbd7f6581	-0.06235266
101	0x3dffb814	0.12486282
102	0xbd1027fe	-0.03519439
103	0xbde6f621	-0.11277414
104	0x3dafff7d	0.085936524
105	0x3dc000e9	0.093751736
106	0xbc11a6a7	-0.008889831
107	0x3e113ab4	0.1418255
108	0x3e3545cc	0.17702407
109	0x3c7f2c7c	0.015574571
110	0x3df1a3b8	0.11798805
111	0x3da6fc62	0.08153607
112	0xbd3141fa	-0.04327581
113	0x3c8da011	0.01728824
114	0x3df7d171	0.12100495
115	0xbb8cd63c	-0.0042979997
116	0x3d870567	0.06592827
117	0xbd78b676	-0.060720883
118	0xbd75a141	-0.059968237
119	0x3d558a89	0.05213407
120	0x3cf534e5	0.029932449
121	0xbdb6dfff	-0.089294426
122	0x3e22ae2f	0.15886758
123	0x3e4f7028	0.20257628
124	0x3c5ae4da	0.0133602265
125	0x3e9c313d	0.30506316
126	0x3e82cef6	0.25548524
127	0xbe1f2cb6	-0.155444
128	0x3e81dce0	0.25363827
129	0x3e7fb1d4	0.2497018
130	0xbe6d0708	-0.23147213
131	0x3d663464	0.056202307
132	0x3d0d2839	0.034462187
133	0xbe52ab2e	-0.20573112
134	0xbd1fc7d5	-0.039008934
135	0xbbe8a0d2	-0.0070992494
136	0x3d6c6700	0.057715416
137	0x3dbe46cc	0.09290847
138	0xbe33776e	-0.17526028
139	0x3d7fb58e	0.062429003
140	0x3dedbc50	0.116081834
141	0xbe483904	-0.19553
142	0xbcd48a3a	-0.025944818
143	0x3df35cae	0.118829116
144	0x3bd07557	0.0063616442
145	0xbd2b6ef3	-0.041853856
146	0xbc04b3ff	-0.008099555
147	0x3d3a8aad	0.045542408
148	0x3c2defe9	0.010616281
149	0xbc405392	-0.011738675
150	0x3d9c963d	0.07645843
151	0x3d51950b	0.05116753
152	0x3c73d61b	0.01488259
153	0x3d8a16cb	0.06742629
154	0x3ca1bdf3	0.019743895
155	0x3d536a33	0.05161495
156	0x3d08ee04	0.033430114
157	0xbcc36e4c	-0.023856305
158	0x3cbe3359	0.023217844
159	0xbca73cdb	-0.02041476
160	0xbda22d8d	-0.07918844
161	0xbd5ebd73	-0.05437989
162	0xbd3dd3a0	-0.0463444
163	0xbd655189	-0.05598596
164	0xbcb69422	-0.022287432
165	0xbd6e7ee2	-0.058226474
166	0xbdadec0d	-0.08492289
167	0xbd18165c	-0.0371307
168	0x3cecc5ab	0.02890285
169	0xbc6cf6bd	-0.014463124
170	0x3c0f5279	0.00874769
171	0xbd03ff18	-0.0322257
172	0xbe0fa18c	-0.14026469
173	0xbcff8c66	-0.031194877
174	0x3ecfe545	0.40604606
175	0xbdbc4a51	-0.09193862
176	0xbe2392b5	-0.15973933
177	0x3e7b5df0	0.24547553
178	0xbe4c05a8	-0.19924033
179	0xbe853b39	-0.26021746
180	0xbd961cce	-0.07329713
181	0xbe415eb9	-0.1888379
182	0xbd5db26f	-0.054125246
183	0xbc674f56	-0.014118036
184	0xbdc69dd6	-0.096980736
185	0x3c64126f	0.013920411
186	0x3dd0f5d0	0.10203135
187	0x3dc8f119	0.09811611
188	0x3e10a7d4	0.14126521
189	0xbf546bcd	-0.8297699
190	0x39a54541	0.0003152285
191	0x3f08ad77	0.53389686
192	0xbf6a2e09	-0.91476494
193	0xbec5a624	-0.38603318
194	0x3fd6389d	1.6736027
195	0xbe31e54c	-0.17372626
196	0xbf595e33	-0.8490936
197	0x3e446183	0.19177823
198	0x3d3813ee	0.04494088
199	0xbd70cda1	-0.058789853
200	0x3c1aa7e2	0.00943944
201	0x3d5c36d5	0.05376323
202	0x3bb8268f	0.005619831
203	0x3d7ea3fb	0.062168103
204	0xbd942bc2	-0.07234909
205	0xbe058396	-0.13038477
206	0xbc8ebe46	-0.017424714
207	0x3e12b0bf	0.14325236
208	0x3e22a084	0.15881544
209	0x3e785c8f	0.24254058
210	0x3e051137	0.12994848
211	0x3dfc5838	0.12321514
212	0x3e915d15	0.28391328
213	0xbe27ddc9	-0.16393198
214	0xbe8a3751	-0.26995328
215	0xbdbfedf1	-0.093715556
216	0xbe8f12b5	-0.2794396
217	0xbe225ada	-0.1585497
218	0xbe55adad	-0.20867033
219	0xbe237bba	-0.15965167
220	0xbc547d8b	-0.012969385
221	0xbdbf38e3	-0.09337022
222	0xbe69d45b	-0.22834913
223	0xbdddb149	-0.1082483
224	0xbe497aed	-0.19675799
225	0x3e1db27b	0.15400116
226	0x3e25c994	0.16190177
227	0x3e4fb21f	0.20282792
228	0x3d92b144	0.07162717
229	0x3d6d7892	0.057976313
230	0x3d6af4da	0.057362415
231	0x3ce253a8	0.027627781
232	0xbc286b24	-0.010279451
233	0xbd20eaa9	-0.03928629
234	0x3dacb2e5	0.08432559
235	0x3e16c7d0	0.1472466
236	0x3d8d5b0a	0.0690213
237	0x3e421481	0.18953134
238	0x3e896107	0.26831838
239	0x3e3b0eb0	0.18267322
240	0x3daea080	0.08526707
241	0x3e348290	0.1762793
242	0x3da033c2	0.07822372
243	0xbd25ecd8	-0.040509075
244	0x3e09b025	0.134461
245	0xbd34f3f1	-0.044177953
246	0x3d009a61	0.031397227
247	0x3e46e168	0.19421923
248	0xbd688776	-0.05676981
249	0xbcf56723	-0.029956406
250	0x3e11471a	0.1418728
251	0xbc7aa3ca	-0.015297839
252	0xbeae3d80	-0.34031296
253	0xbe021c83	-0.12706189
254	0xbeac3a2a	-0.33638126
255	0x3dc5b82d	0.09654269

dense1.1.bn1.weight f4 [36]
0	0x3f042ea5	0.51633674
1	0x3f5cac61	0.8620053
2	0x3e95b4b4	0.29239428
3	0x3f3d31ef	0.7390432
4	0x3f4b9a71	0.79532534
5	0x3f1d28bb	0.61390275
6	0x3e3a0194	0.18164665
7	0x3f2cf248	0.6755719
8	0x3f0817e5	0.5316146
9	0x3ecb63d9	0.39724615
10	0x3ebe2eed	0.37145177
11	0x3edee33d	0.43532744
12	0x3eb9adfe	0.36265558
13	0x3f05cb9d	0.52263814
14	0x3ed6be15	0.41941896
15	0x3d6d9bfd	0.05801009
16	0x3ebedd22	0.37278086
17	0x3f2135f0	0.6297293
18	0x3edb72fc	0.42861164
19	0x400a394b	2.159747
20	0x3fa78314	1.3086877
21	0x4007190f	2.1109045
22	0x3f1e5631	0.6185027
23	0x3f606315	0.8765119
24	0x3fafedf6	1.3744495
25	0x3e57544e	0.21028253
26	0x3fc72f67	1.5561341
27	0x3fbe9c35	1.4891421
28	0x3f045434	0.51690984
29	0x3ec81cd2	0.39084488
30	0x3fb34339	1.400489
31	0x3f329b93	0.6976864
32	0x3f1532ad	0.5828045
33	0x3f6d20ec	0.9262836
34	0x3facac4b	1.349008
35	0x3fd677ec	1.6755347

dense1.1.bn1.bias f4 [36]
0	0xbebb7ab7	-0.36617061
1	0x3e91c435	0.28470007
2	0xbe4abce1	-0.19798614
3	0xbefd1068	-0.4942658
4	0xbba99301	-0.005174995
5	0xbeae9f0d	-0.3410572
6	0x3cff02b9	0.031129228
7	0xbf01bc93	-0.50678366
8	0xbdf6e895	-0.1205608
9	0x3c5f68ab	0.013635795
10	0xbe903012	-0.28161675
11	0xbe26e3f3	-0.16297893
12	0xbece078c	-0.40240133
13	0x3e88ea35	0.26741186
14	0xbe2edfa6	-0.17077503
15	0xbcd226bd	-0.025653237
16	0xbe8cdb84	-0.27511227
17	0xbf521870	-0.8206854
18	0xbe310c21	-0.17289783
19	0xbf2869b4	-0.6578629
20	0xbf0893be	-0.53350437
21	0xbf2c1cd6	-0.672315
22	0xbdfd959c	-0.12382051
23	0xbf01f9d2	-0.5077182
24	0xbdbafcde	-0.09130262
25	0x3c1c5f24	0.009544168
26	0xbe93403a	-0.28759938
27	0x3e1b57a6	0.15170154
28	0x3a17e480	0.0005794242
29	0xbe425b19	-0.18980063
30	0x3e9ab554	0.30216467
31	0xbed80948	-0.4219458
32	0xbe0ef6aa	-0.13961282
33	0xbebb23b9	-0.36550692
34	0x3d028a70	0.031870306
35	0x3eb440ec	0.3520578

dense1.1.conv1.weight f4 [12, 36, 3, 3]
0	0xbde11b7a	-0.10991569
1	0xbda55591	-0.08072961
2	0xbdb1020a	-0.08642967
3	0xbc3b4995	-0.011431118
4	0xbb9b5cc2	-0.004741282
5	0xbc67418d	-0.01411475
6	0x3d8cc49a	0.06873436
7	0x3db54844	0.08851674
8	0x3db73904	0.08946422
9	0x3d1648c1	0.036690477
10	0xbb0c5e27	-0.0021418424
11	0x3db1b0e3	0.086763166
12	0x3d8fb294	0.07016483
13	0x3d7a141d	0.061054338
14	0x3dfb0417	0.122566395
15	0x3ccc048c	0.024904512
16	0xbcd42a8d	-0.025899196
17	0x3c98b76c	0.01864215
18	0xbc4287e0	-0.011873215
19	0xbd360970	-0.044442594
20	0xbceef34b	-0.029168746
21	0xbbda5b14	-0.0066636894
22	0xbccdd4bb	-0.025125852
23	0xbca2622d	-0.019822204
24	0x39794054	0.00023770455
25	0xbba8c9f7	-0.005151029
26	0xbc2f059d	-0.010682491
27	0x3db04ad3	0.086080216
28	0x3daa43fb	0.083137475
29	0x3d2c3921	0.04204667
30	0xbd0d6e9a	-0.034529306
31	0x3d169db7	0.036771502
32	0x3c3e5a30	0.011618182
33	0xbde9b49c	-0.11411402
34	0xbd824c68	-0.063622296
35	0xbd19c9c0	-0.03754592
36	0x3cb69599	0.02228813
37	0xbbe411f7	-0.0069601494
38	0xbd276d55	-0.04087575
39	0xbcd6e308	-0.026231304
40	0xbd3b08c0	-0.04566264
41	0xbd9bd6fa	-0.07609363
42	0xbd9e6406	-0.07733922
43	0xbdc17e9d	-0.09447978
44	0xbdd0a429	-0.10187561
45	0xbd87fc96	-0.06639974
46	0xbdb54ed2	-0.088529244
47	0xbd9c6594	-0.07636562
48	0xbd0393c3	-0.03212334
49	0xbd5c80ed	-0.05383389
50	0xbd089c9e	-0.033352487
51	0xba1493c5	-0.00056677713
52	0xbca25caf	-0.019819586
53	0xbb913971	-0.0044318964
54	0x3d4ddb97	0.050258245
55	0x3d0cb662	0.03435362
56	0x3d854521	0.06507326
57	0x3dbce9a5	0.09224252
58	0x3dcf623e	0.1012616
59	0x3dc3f64a	0.0956846
60	0x3dd7053c	0.10499045
61	0x3ddc2e79	0.107510515
62	0x3ddb3735	0.10703889
63	0x3dacd21b	0.08438512
64	0x3db65823	0.089035295
65	0x3dd239c7	0.102649264
66	0x3be74762	0.00705807
67	0x3d209aa7	0.039209988
68	0x3d5950a7	0.05305543
69	0x3d9f0a12	0.07765593
70	0x3daa8ce0	0.08327651
71	0x3df69a36	0.12041132
72	0x3bab8eed	0.005235544
73	0xbd1de549	-0.03854874
74	0xbcba8318	-0.022767588
75	0xbd7f6e33	-0.062360954
76	0xbd8f34cf	-0.06992494
77	0xbd0da28a	-0.034578837
78	0xbd1ee772	-0.038794942
79	0xbd45ff4e	-0.04833918
80	0xbd42e430	-0.047580898
81	0xbd8b8262	-0.06811978
82	0xbdc3df1e	-0.095640406
83	0xbd0b6ca3	-0.03403915
84	0xbe29edbf	-0.16594599
85	0xbe3ab4c8	-0.18233025
86	0xbe05692a	-0.13028398
87	0xbd9e57b4	-0.07731572
88	0xbdc63243	-0.096775554
89	0xbd5eb1d7	-0.05436882
90	0x3dab9f29	0.08379967
91	0x3dc22b6c	0.09480938
92	0x3dd73560	0.10508227
93	0x3da24e00	0.079250336
94	0x3d9db56c	0.07700619
95	0x3dc184f2	0.094491854
96	0x3dae7ed9	0.08520288
97	0x3da6fcdb	0.08153697
98	0x3dcefe64	0.10107115
99	0xbd6007e1	-0.054695014
100	0xbd7857c9	-0.060630593
101	0xbd7d8edf	-0.06190383
102	0xbc330112	-0.010925548
103	0xbb9540fb	-0.0045548654
104	0xbc8c9922	-0.017162863
105	0x3bf0df27	0.0073508206
106	0x3cc16ee8	0.023612455
107	0x3cc8b49d	0.024500186
108	0x3c1c33c1	0.0095338235
109	0xbae223de	-0.0017253121
110	0x3c72b276	0.014813056
111	0xbca858c5	-0.020550141
112	0xbd0ae160	-0.03390634
113	0xbc30540e	-0.010762228
114	0xbb2bc31c	-0.0026208824
115	0xbcce91b3	-0.02521596
116	0xbb990381	-0.004669607
117	0x3e82a258	0.25514483
118	0x3da4cd53	0.08046975
119	0x3deb286c	0.11482319
120	0x3c46f8f4	0.012144316
121	0xbdff3400	-0.1246109
122	0xbd9be104	-0.07611278
123	0x3e9960aa	0.2995656
124	0x3e2ad09a	0.16681138
125	0x3e50890c	0.20364779
126	0x3c663394	0.014050383
127	0x3bbcad4e	0.005757964
128	0x3d093f21	0.03350747
129	0xbd16149d	-0.036640752
130	0xbcf893dd	-0.030343944
131	0xbc52f588	-0.012875922
132	0xbd51e7c1	-0.05124641
133	0xbd9dc7f3	-0.07704153
134	0xbcd64391	-0.026155265
135	0x3b7dc7b2	0.0038723764
136	0xbbaba2f0	-0.0052379295
137	0x3b4bdc7a	0.0031106756
138	0x3b90077d	0.004395424
139	0xbb9568ac	-0.004559597
140	0xb8ae0d44	-8.2994375e-05
141	0xbc187702	-0.009305717
142	0xbc8bbbad	-0.017057264
143	0x3bc5f911	0.006041654
144	0x3cedfbe8	0.029050782
145	0x3d38b8fc	0.04509829
146	0x3d16a100	0.036774635
147	0xba521243	-0.00080135855
148	0x3c17c310	0.009262815
149	0x3c25e70c	0.010125887
150	0x3d4319d6	0.04763206
151	0x3d172307	0.03689864
152	0x3d09b768	0.033622175
153	0x3dd715e3	0.105022214
154	0x3dcb0c89	0.099145
155	0x3dcebbb1	0.10094393
156	0x3e23f73c	0.16012281
157	0x3e481da7	0.19542561
158	0x3e47f242	0.19526008
159	0x3e6ccd0b	0.23125093
160	0x3e8235b0	0.25431585
161	0x3e7becbf	0.2460203
162	0x3b428917	0.0029683763
163	0xbb3c50b3	-0.0028734624
164	0x3d3da5bf	0.046300646
165	0x3d143683	0.0361848
166	0x3d1df92f	0.038567718
167	0x3d7ef771	0.062247697
168	0x3da79a00	0.0818367
169	0x3db1c112	0.08679403
170	0x3df5ff81	0.12011624
171	0x3e3679a0	0.17819834
172	0x3def858e	0.116953954
173	0x3df3f405	0.119117774
174	0xbd9cc1ca	-0.0765415
175	0xbe0febe8	-0.14054835
176	0xbe4b61d2	-0.19861534
177	0x3decda19	0.11565036
178	0x3bed02e5	0.007233011
179	0xbe15498c	-0.14578837
180	0x3dd9ece1	0.10640884
181	0x3d88965d	0.066693045
182	0x3d8c8da5	0.06862954
183	0x3e143d80	0.14476585
184	0x3dbc8345	0.09204725
185	0x3de854a9	0.11344273
186	0xbcb95d73	-0.022627568
187	0xbd53fcf8	-0.05175492
188	0xbd20b789	-0.039237533
189	0x3e3d33a7	0.18476735
190	0x3e40b58b	0.18819253
191	0x3e24ea48	0.16104996
192	0x3ce767c1	0.028247716
193	0x3db0320d	0.086032964
194	0xbd898521	-0.067148454
195	0xbdbc7f57	-0.09203976
196	0xbdd09ff5	-0.101867594
197	0xbe5a844b	-0.21339528
198	0x3d96bf38	0.07360691
199	0x3d330a0d	0.043710757
200	0x3d74000d	0.05957036
201	0x3d9c6e61	0.076382406
202	0x3d5d40d7	0.054016914
203	0x3d73294c	0.059365556
204	0x3e2ac09f	0.16675042
205	0x3e28b5cc	0.164756
206	0x3e32df68	0.17468035
207	0x3d8e8dc7	0.06960636
208	0x3d3ed05c	0.046585426
209	0x3d7d2a4d	0.06180792
210	0x3d8bda61	0.06828762
211	0x3d13e197	0.03610381
212	0x3d0c7588	0.034291774
213	0x3e27f58f	0.16402267
214	0x3e0eef25	0.13958414
215	0x3e184a2b	0.14872043
216	0xbe1f0602	-0.15529636
217	0xbe0f9657	-0.14022194
218	0xbe89046a	-0.2676118
219	0xbf1725b4	-0.59041905
220	0xbf0e8028	-0.556643
221	0xbf1c6a9e	-0.61100185
222	0xbf2bf727	-0.67174
223	0xbf1e7e85	-0.61911803
224	0xbf2a36c1	-0.664898
225	0xbc7a927e	-0.0152937155
226	0xbce2d734	-0.027690507
227	0xbcbb2a86	-0.022847425
228	0xbab1aa47	-0.0013554775
229	0x3c3af17d	0.011410114
230	0x3b900865	0.004395532
231	0x3c21d4f0	0.009877428
232	0x3c33d7cf	0.010976746
233	0x3c5842c2	0.01319951
234	0xbefbbc82	-0.49167258
235	0xbecff946	-0.40619868
236	0xbef81f4f	-0.48461387
237	0xbf10dda6	-0.5658821
238	0xbf0b8aed	-0.5450886
239	0xbf150ce6	-0.58222806
240	0xbef86027	-0.48510858
241	0xbec76170	-0.38941526
242	0xbef58204	-0.47950757
243	0x3eeb9478	0.4601171
244	0x3eb31ebc	0.34984386
245	0x3e946aa5	0.28987613
246	0x3cd6f947	0.026241912
247	0xbd7a7a10	-0.061151564
248	0xbd4d897b	-0.05017994
249	0x3e53f0fe	0.206974
250	0x3cd2eb3f	0.02574694
251	0xbd60d731	-0.054892723
252	0xbd046b2b	-0.032328766
253	0xbd37bf96	-0.044860445
254	0xbd54a420	-0.051914334
255	0x3c0ceb74	0.008601058

trans1.bn1.weight f4 [48]
0	0x3f55a75c	0.83458495
1	0x3fa61224	1.2974286
2	0x3f5db4c3	0.86603945
3	0x3f900e59	1.1254379
4	0x3f90ae76	1.1303241
5	0x3f94b114	1.161654
6	0x3f8ca1cf	1.098688
7	0x3f5055e4	0.8138106
8	0x3f384e06	0.71994054
9	0x3fac2b5a	1.345073
10	0x3f406860	0.75159264
11	0x3f9a6467	1.206189
12	0x3f9febdc	1.2493854
13	0x3f9b2498	1.2120543
14	0x3fa9c232	1.3262389
15	0x3d48a5cc	0.04898624
16	0x3f5d50c9	0.86451393
17	0x3f96ac0a	1.1771252
18	0x3f8ece79	1.115676
19	0x3f630d05	0.8869174
20	0x3f923ffa	1.1425774
21	0x3f6aa84e	0.9166306
22	0x3f849bcb	1.0360044
23	0x3f7ed75c	0.9954736
24	0x3fbfe33e	1.4991224
25	0x3fae310c	1.3608718
26	0x3fce74c2	1.6129382
27	0x3fea5fe3	1.8310512
28	0x3fc689bc	1.5510783
29	0x3f9da8b7	1.2317113
30	0x3feb6584	1.8390355
31	0x3f6fd3b1	0.9368239
32	0x3fca6e19	1.5814849
33	0x3fbb1600	1.4616089
34	0x3ffc4714	1.9709191
35	0x4003978a	2.0561242
36	0x3f976a1e	1.1829259
37	0x400dcc51	2.2155955
38	0x3fe32313	1.7745079
39	0x3fc0afd2	1.5053656
40	0x4010ec6d	2.2644303
41	0x4002b1da	2.0421052
42	0x3f96dcdf	1.1786155
43	0x400eecb7	2.233198
44	0x3fc6033d	1.5469738
45	0x400d77c4	2.210435
46	0x3f973d3a	1.181556
47	0x3fa8d9b7	1.3191441

trans1.bn1.bias f4 [48]
0	0x3d977f25	0.07397298
1	0xbe50d41c	-0.20393413
2	0xbec19ef1	-0.37816575
3	0xbe0100f0	-0.12598014
4	0xbec11e4b	-0.37718424
5	0x3e81deec	0.25365388
6	0x3e764fc8	0.24053872
7	0xbec084c1	-0.37601283
8	0xbdc2fd2d	-0.09520946
9	0x3e7cd4fb	0.2469062
10	0xbd1a1e81	-0.037626747
11	0x3e587b47	0.21140777
12	0xbceb6854	-0.028736271
13	0xbdae921a	-0.085239604
14	0xbeb8f3f8	-0.36123633
15	0xbccc403b	-0.024932971
16	0x3e155acf	0.14585422
17	0x3e6144c2	0.21998885
18	0x3e453405	0.19258125
19	0xbf276605	-0.65390044
20	0xbe8c2ee0	-0.27379513
21	0xbe2dad4e	-0.16960642
22	0xbe72eeee	-0.23723957
23	0xbed91342	-0.42397505
24	0xbe6b3b3a	-0.22971812
25	0x3e8d6fc5	0.27624336
26	0xbe74d222	-0.23908284
27	0xbe31885b	-0.17337172
28	0xbf222f76	-0.6335367
29	0xbe33cfc2	-0.17559722
30	0xbf430946	-0.76186025
31	0xbee2463f	-0.4419422
32	0xbeabdc1f	-0.33566377
33	0xbda792a9	-0.0818227
34	0xbe2f3710	-0.17110848
35	0xbf595027	-0.8488793
36	0x3e414374	0.18873388
37	0xbd2e151b	-0.042500596
38	0xbec31690	-0.3810315
39	0xbe8c0465	-0.27347103
40	0x3c812814	0.015766181
41	0xbe7a55c8	-0.24446785
42	0xbf802fdc	-1.0014606
43	0x3d24021c	0.040041074
44	0xbf442da2	-0.7663213
45	0xbdcc9797	-0.09989851
46	0xbfa3e491	-1.2804128
47	0x3e88111f	0.26575562

trans1.conv1.weight f4 [48, 48, 1, 1]
0	0x3e0a57e3	0.13510089
1	0x3f14cf3e	0.58128726
2	0xbda50c6d	-0.08059011
3	0xbec7df18	-0.39037395
4	0xbd2586d4	-0.040411785
5	0xbe4d0344	-0.20020777
6	0x3ee1a859	0.44073752
7	0xbd0c1396	-0.034198366
8	0xbd6f44d8	-0.058415264
9	0xbe8256c5	-0.25456825
10	0x3dd692a2	0.10477187
11	0x3eb386b3	0.35063705
12	0x3cf98489	0.030458705
13	0xbeb59e49	-0.35472324
14	0xbe4c806e	-0.19970867
15	0x3b9d03fa	0.004791734
16	0x3c9054b1	0.017618509
17	0xbea6bb30	-0.32564688
18	0xbea3c73f	-0.3198795
19	0x3d160d38	0.0366337
20	0xbd889134	-0.0666832
21	0x3eca875e	0.39556402
22	0x3d2db58c	0.042409465
23	0xbe72fc1e	-0.23728988
24	0x3d550187	0.05200341
25	0x3de0e96a	0.1098202
26	0xbe698bae	-0.2280719
27	0x3e5fd631	0.21859051
28	0x3ec27c2f	0.3798537
29	0x3df1721b	0.11789342
30	0x3e691656	0.22762427
31	0xbd643612	-0.055715628
32	0x3ed9054f	0.42386863
33	0x3f526838	0.82190275
34	0x3e249431	0.16072156
35	0x3dad3fdd	0.084594466
36	0x3e4c55b7	0.19954573
37	0xbd87d767	-0.066328816
38	0x3c4d29ca	0.01252217
39	0xbe9bb5a3	-0.30412015
40	0x3e369c8c	0.17833155
41	0x3e72dc9f	0.23716973
42	0xbea82aea	-0.3284524
43	0xbe8389ab	-0.2569097
44	0x3e287182	0.1644955
45	0xbe13ed36	-0.14445958
46	0x3e8d534e	0.2760262
47	0x3e294cf1	0.16533257
48	0x3e97cf4b	0.2965034
49	0xbe80b4d9	-0.25137976
50	0x3ca4e61a	0.020129252
51	0x3d34607c	0.044037327
52	0xbb27edcc	-0.0025623916
53	0xbd00b0c4	-0.031418577
54	0x3de0ed16	0.109827206
55	0xbba37f16	-0.004989515
56	0xbcfa21dc	-0.030533724
57	0xbf52201d	-0.8208025
58	0x3b33b4d0	0.0027421005
59	0x3e13312e	0.1437423
60	0xbedf4532	-0.4360748
61	0xbdc0e783	-0.09419157
62	0xbe3f2295	-0.18665536
63	0xb9b0056d	-0.00033573378
64	0xbdcc4596	-0.0997421
65	0xb8bd44f4	-9.025066e-05
66	0xbf30e3d7	-0.69097656
67	0x3cfd5abf	0.03092706
68	0x3de76df1	0.113002665
69	0x3e0cf48d	0.13765164
70	0xbded8304	-0.11597255
71	0xbae0d26f	-0.0017152558
72	0xbec767b1	-0.38946298
73	0x3eb05bf2	0.3444515
74	0xbe579735	-0.21053775
75	0xbed8c2fd	-0.42336264
76	0xbf087267	-0.53299564
77	0x3e565293	0.20929937
78	0xbe9fcf6a	-0.31212932
79	0xbd55a126	-0.052155636
80	0xbe83b0ba	-0.2572077
81	0xbe31f5e9	-0.17378964
82	0xbf1728cb	-0.5904662
83	0xbe8025a9	-0.25028732
84	0x3e403d59	0.18773402
85	0x3e9e2f4c	0.3089546
86	0x3d421dfd	0.04739188
87	0xbeaf78ab	-0.3427175
88	0xbe285b6a	-0.16441122
89	0xbe1ce93c	-0.15323347
90	0xbd2a125f	-0.041521426
91	0x3f1de4d1	0.6167727
92	0x3c005bdc	0.007834401
93	0xbcc26c66	-0.023733329
94	0xbf111f94	-0.5668881
95	0x3e935363	0.28774557
96	0x3ecc057e	0.3984794
97	0xbe05b41a	-0.13056985
98	0xbeaf2c2e	-0.34213394
99	0xbc9e6043	-0.01933301
100	0x3e84b4e2	0.25919253
101	0x3f7d13fc	0.9885862
102	0x3f6ba5d5	0.92049915
103	0x3d1eea01	0.038797382
104	0x3db3b5a6	0.08774881
105	0xbf048766	-0.517691
106	0xbe072026	-0.13195857
107	0x3fac0622	1.3439372
108	0x3e95d9bf	0.2926769
109	0xbdb1c218	-0.086795986
110	0x3d360067	0.044433977
111	0x3c6a2f11	0.014293448
112	0xbe550fba	-0.2080678
113	0xbf65ad4d	-0.8971756
114	0xbeadd051	-0.33947995
115	0x3e8c0d9c	0.27354133
116	0x3e347e9e	0.17626426
117	0x3e21aa51	0.15787627
118	0xbe56b221	-0.20966388
119	0xbe8e0a41	-0.27742198
120	0x3c5b4966	0.013384199
121	0x3e9f5996	0.31123036
122	0xbe310397	-0.17286526
123	0x3d20bf8f	0.039245185
124	0x3e671d62	0.22569802
125	0xbe80b387	-0.25136968
126	0x3db23a22	0.08702494
127	0xbeaff885	-0.34369293
128	0xbeaa5a92	-0.33272225
129	0xbe94f31f	-0.29091737
130	0xbddc1389	-0.107459135
131	0xbd8c7232	-0.068577185
132	0xbe719f2d	-0.23595877
133	0x3d00d05f	0.03144872
134	0xbd3bc33d	-0.04584049
135	0xbe50eec7	-0.20403586
136	0x3d1ede76	0.038786374
137	0xbc62fcba	-0.0138542
138	0xbe78764e	-0.2426388
139	0x3c886e58	0.016654179
140	0xbd4a14e5	-0.049336333
141	0xbdfb142d	-0.122597076
142	0x3d5baaae	0.05362957
143	0xbe0cf7c9	-0.13766398
144	0x3eae2a70	0.34016752
145	0x3e808800	0.2510376
146	0x3e70362c	0.23458165
147	0xbee0c7c0	-0.43902397
148	0xbdd54d29	-0.10415108
149	0x3db34e3e	0.08755158
150	0x3f16317e	0.5866927
151	0x3e375f4b	0.17907445
152	0x3d4653b1	0.048419658
153	0xbdd7b2b1	-0.105321296
154	0x3e62615b	0.2210745
155	0x3f11d7cb	0.569699
156	0xbd4dc884	-0.050240055
157	0x3e56f551	0.20992018
158	0x3d1b081a	0.037849523
159	0xbbc596c9	-0.006029938
160	0xbdaaec9a	-0.083459094
161	0xbf0bdc1a	-0.54632723
162	0x3efb1c64	0.49045098
163	0xbe993606	-0.2992403
164	0xbef79fc0	-0.48364067
165	0xbf268fb4	-0.65063024
166	0x3dbe7388	0.092993796
167	0xbc8f6e3b	-0.017508617
168	0xbe8c2758	-0.27373767
169	0x3ec9c202	0.3940583
170	0xbd71f069	-0.059067164
171	0x3ec51f69	0.38500527
172	0x3f56b827	0.83874744
173	0x3e1f3820	0.15548754
174	0x3e880f6b	0.26574263
175	0xbddcedf1	-0.10787571
176	0x3ed18a48	0.40925813
177	0xbe156825	-0.14590509
178	0x3ef0164e	0.46892017
179	0xbdcb8667	-0.099377446
180	0x3e8e2cd9	0.2776859
181	0xbe7fa1de	-0.24964091
182	0xbebabffc	-0.36474597
183	0xbf0b559b	-0.544275
184	0x3f816383	1.0108494
185	0xbeb03163	-0.3441268
186	0xbeca18ab	-0.39471945
187	0xbe98a031	-0.29809716
188	0x3d396f9e	0.045272462
189	0xbcd9d488	-0.0265906
190	0xbd99a631	-0.075024016
191	0xbf2e2a70	-0.68033504
192	0xbe79f717	-0.24410664
193	0xbf317145	-0.6931346
194	0xbe090479	-0.13380612
195	0x3d1b255f	0.037877437
196	0xbdc31713	-0.095258854
197	0x3e8e6a7c	0.27815616
198	0xbc90a74e	-0.017657902
199	0xbe3dff8e	-0.18554518
200	0x3d72b474	0.059254125
201	0x3e7ebb3e	0.24876115
202	0xbb6bb098	-0.0035963412
203	0x3d661c7c	0.05617951
204	0xbd490d15	-0.04908474
205	0xbf2631e7	-0.64919895
206	0xbe81c627	-0.2534649
207	0xb9f30836	-0.0004635469
208	0x3c97548d	0.018472934
209	0xbef63492	-0.48086983
210	0x3efee3ed	0.4978327
211	0xbe5bb848	-0.21457016
212	0xbeda85e6	-0.4268028
213	0xbe0b3404	-0.13594061
214	0x3dc100b5	0.09423963
215	0xbe539f23	-0.20666175
216	0x3f307744	0.68931985
217	0xbd5d3192	-0.054002352
218	0x3ea29e5d	0.31761447
219	0x3ed7c017	0.4213874
220	0x3e3c86a3	0.18410735
221	0x3e21e4e8	0.15809977
222	0xbf379868	-0.7171693
223	0x3db7da34	0.08977166
224	0xbecaaa9e	-0.39583296
225	0xbe897655	-0.26848093
226	0x3d77c851	0.06049377
227	0xbb0f286d	-0.0021844164
228	0xbee10a01	-0.43952945
229	0x3eb21ca0	0.34787464
230	0xbf122eba	-0.5710255
231	0x3f02180b	0.50817937
232	0xbf94dcfc	-1.1629939
233	0x3f04f618	0.5193801
234	0xbd54a62b	-0.051916283
235	0xbe70c920	-0.23514223
236	0x3e878521	0.26468757
237	0xbf81ab10	-1.0130329
238	0xbc2b59af	-0.010458394
239	0x3e15dfeb	0.14636199
240	0xbef199ec	-0.47187746
241	0x3d9cf2d2	0.07663502
242	0xbece746c	-0.40323198
243	0xbe3838f0	-0.1799047
244	0x3dd26f90	0.10275185
245	0x3e73eeae	0.23821518
246	0xbd3b7828	-0.045768887
247	0xbd2e42f7	-0.04254433
248	0x3d6b7333	0.05748291
249	0x3dae5df0	0.08514011
250	0xbe61e87f	-0.22061346
251	0x3e081894	0.13290626
252	0x3f339b7c	0.70159125
253	0xbe9dfaac	-0.3085531
254	0xbd36583f	-0.04451775
255	0x39c449ad	0.00037438926

dense2.0.bn1.weight f4 [48]
0	0x3f441056	0.76587427
1	0x3f46d87b	0.77674073
2	0x3f8113b1	1.0084134
3	0x3f70643d	0.9390295
4	0x3f782395	0.96929294
5	0x3f015424	0.50519013
6	0x3f844a17	1.033511
7	0x3f7f2d6a	0.9967867
8	0x3f3db7d9	0.74108654
9	0x3f33703e	0.70093143
10	0x3f9e48b2	1.2365935
11	0x3f2f8802	0.68566906
12	0x3ed67cdb	0.41892132
13	0x3f39438f	0.7236871
14	0x3f398621	0.7247029
15	0x3f6432f3	0.8914024
16	0x3f4e9d24	0.8070853
17	0x3f42377b	0.75865906
18	0x3f1f9153	0.6233112
19	0x3f5e6e20	0.8688679
20	0x3f27718a	0.6540762
21	0x3f6ad42a	0.91729987
22	0x3f128205	0.57229644
23	0x3f976032	1.1826231
24	0x3f5d2387	0.86382335
25	0x3f874007	1.0566415
26	0x3f8532e0	1.0406151
27	0x3f3216d0	0.6956606
28	0x3f061115	0.52369815
29	0x3f957a44	1.1677938
30	0x3f92f3ff	1.1480712
31	0x3f80db74	1.0066972
32	0x3fb5ec30	1.4212704
33	0x3f6d81bf	0.927761
34	0x3f60609c	0.87647414
35	0x3ec840ea	0.39112025
36	0x3ed50eec	0.41612947
37	0x3f6bcbe1	0.9210797
38	0x3f609704	0.8773043
39	0x3f6bc051	0.92090327
40	0x3f6e0757	0.9297995
41	0x3f8da18c	1.1064925
42	0x3f029e07	0.5102238
43	0x3fac0649	1.3439418
44	0x3f64bb71	0.8934851
45	0x3f7e76f2	0.99400246
46	0x3f35d70e	0.7103127
47	0x3f7c92f4	0.9866173

dense2.0.bn1.bias f4 [48]
0	0xbf00024b	-0.500035
1	0x3e123a84	0.14280134
2	0xbec604a0	-0.38675404
3	0xbed862ee	-0.42262977
4	0x3eed5ad4	0.4635836
5	0x3d31d8de	0.04341971
6	0x3c528907	0.012850053
7	0xbe6c51fa	-0.23078147
8	0xbe886b39	-0.26644304
9	0xbec27b59	-0.37984732
10	0x3f98067a	1.1876976
11	0xbe654bf4	-0.22392255
12	0xbe2d9a20	-0.16953325
13	0xbc03bd7b	-0.008040781
14	0xbe3e7136	-0.18597874
15	0xbe66abff	-0.22526549
16	0xbe0ef690	-0.13961244
17	0x3cd4e3f1	0.025987597
18	0xbeedc25d	-0.4643735
19	0xbd9cae67	-0.07650452
20	0xbf28b160	-0.6589565
21	0xbd9205a5	-0.07129983
22	0x3f3ec7d1	0.74523646
23	0xbe83d5c4	-0.25749028
24	0xbec09ea8	-0.37621045
25	0x3e3fcbdd	0.18730111
26	0xbf1a389a	-0.6024262
27	0xbec5e641	-0.38652232
28	0xbeba8b40	-0.36434364
29	0xbb356497	-0.0027678364
30	0x3ee29b26	0.44258994
31	0xbe760e99	-0.24029006
32	0x3f87ead9	1.0618545
33	0xbf420f32	-0.75804436
34	0xbf046bd0	-0.5172701
35	0xbe3c0fd9	-0.1836542
36	0xbe8dd3db	-0.27700695
37	0xbdf17b71	-0.11791123
38	0xbeb610a3	-0.35559568
39	0x3f269343	0.65068454
40	0xbd829717	-0.06376474
41	0xbefbb2f9	-0.49159983
42	0xbeb0b0cc	-0.34509885
43	0xbca45d19	-0.020063924
44	0xbcc9fb7f	-0.024656055
45	0x3e2e7e03	0.17040257
46	0x3e0e28d5	0.13882764
47	0xbec1c61d	-0.3784646

dense2.0.conv1.weight f4 [12, 48, 3, 3]
0	0x3d855f86	0.0651236
1	0xbe01c4ca	-0.12672725
2	0xbea682c8	-0.32521653
3	0xbcd67098	-0.026176736
4	0x3db05392	0.0860969
5	0xbd5caa2c	-0.053873226
6	0xbe15d706	-0.14632806
7	0x3dac2a68	0.08406526
8	0xbe7fd0a8	-0.2498194
9	0xbda912a8	-0.082555115
10	0xbdf838ad	-0.12120185
11	0xbdcec5f7	-0.100963525
12	0xbad383f3	-0.0016137346
13	0xbce0ad59	-0.027426409
14	0x3b6b3d76	0.0035894788
15	0x3e5e0e05	0.21685036
16	0x3dc7f5bf	0.09763669
17	0x3e03e343	0.12879662
18	0x3dba3a8a	0.09093197
19	0xbd5591c4	-0.052140966
20	0x3e5873ed	0.21137972
21	0xbe9cc4a5	-0.30618778
22	0xbec3f576	-0.3827321
23	0x3d121f8a	0.03567461
24	0x3da37953	0.07982125
25	0xbe33600f	-0.17517112
26	0x3d390118	0.04516706
27	0x3ef4675b	0.47735104
28	0x3e7e0eba	0.24810305
29	0xbe216f3d	-0.1576509
30	0x3e8c96c8	0.27458787
31	0x3cae9ea6	0.021315884
32	0xbed06566	-0.4070236
33	0x3e935f0d	0.28783455
34	0x3d90be94	0.070676
35	0xbea43be7	-0.32076952
36	0xbf02e721	-0.51133925
37	0xbeae912c	-0.34095132
38	0x3e8633da	0.26211435
39	0xbecf6faf	-0.40514895
40	0xbe09873c	-0.13430494
41	0x3ef0f55b	0.4706219
42	0xbee0e7c1	-0.43926814
43	0xbeb1e50d	-0.34745064
44	0x3ebf244c	0.3733238
45	0x3df72fed	0.12069688
46	0xbe101018	-0.1406864
47	0xbdd915ed	-0.10599885
48	0x3d7e47af	0.06208008
49	0xbdb79408	-0.089637816
50	0xbbfd0502	-0.0077215442
51	0x3da7d251	0.081944115
52	0xbabd8f2b	-0.0014462223
53	0x3b50516b	0.003178681
54	0xbe7ff89d	-0.24997182
55	0x3e1f5448	0.15559494
56	0x3e15d5c2	0.14632323
57	0xbed4ae46	-0.4153921
58	0x3cb88033	0.022522068
59	0x3e3b3140	0.18280506
60	0xbe5c30aa	-0.21502939
61	0xbd8ab05d	-0.0677192
62	0x3dce448c	0.10071668
63	0xbe91e870	-0.28497648
64	0xbe29a1b5	-0.16565593
65	0xbe672464	-0.22572476
66	0x3da80dd3	0.08205762
67	0xbdb68196	-0.08911435
68	0xbdb9df92	-0.09075846
69	0xbe252da8	-0.16130698
70	0xbdedffbe	-0.116210446
71	0xbe02b3cb	-0.12763898
72	0xbe439ffe	-0.19104001
73	0xbceac468	-0.028658107
74	0xbe7f0a99	-0.24906386
75	0x3e447653	0.19185762
76	0xbcfac5a7	-0.030611826
77	0xbe26281c	-0.16226238
78	0x3ea848e5	0.32868114
79	0xbcfd9478	-0.030954584
80	0xbea4d13b	-0.3219088
81	0x3e4a686b	0.19766395
82	0x3dd20ae5	0.10255984
83	0xbeabf0eb	-0.33582243
84	0x3e938b9a	0.28817445
85	0x3ea0a65a	0.31376916
86	0xbf10c0a2	-0.56543934
87	0x3e84f197	0.25965568
88	0x3d94f1cb	0.07272681
89	0xbf1207b1	-0.57042986
90	0xbe88084d	-0.26568833
91	0x3c3ce439	0.011529022
92	0x3ee459e6	0.44599837
93	0xbeeb08bd	-0.45905104
94	0xbd8bd8f1	-0.06828488
95	0x3f146874	0.5797188
96	0xbeb282b3	-0.3486534
97	0xbc4fb5da	-0.012677634
98	0x3f4c763e	0.79867923
99	0x3e144285	0.144785
100	0xbdfb29c7	-0.12263828
101	0xbe856241	-0.26051524
102	0x3e968db4	0.29404986
103	0xbcb3e15f	-0.021958051
104	0xbe6c0110	-0.2304728
105	0x3e53f0f8	0.20697391
106	0xbde0c01d	-0.10974143
107	0xbe884fd0	-0.26623392
108	0x3e81e8b6	0.25372857
109	0x3cde68a4	0.027149506
110	0xbe70d114	-0.23517257
111	0x3e63f8be	0.22262856
112	0x3ccbdd6f	0.024885861
113	0xbe3cf7b2	-0.18453863
114	0x3e61cd0d	0.22050877
115	0x3d94dd48	0.072687685
116	0xbdf52945	-0.11970762
117	0x3de34b6a	0.110983685
118	0xbdb8ecf2	-0.09029569
119	0xbdd87b1e	-0.10570358
120	0x3dddfad5	0.10838858
121	0xbe5aefba	-0.21380511
122	0xbe58bd2d	-0.21165915
123	0x3eb22b00	0.3479843
124	0xbd92bfc3	-0.07165482
125	0xbd5b8721	-0.053595666
126	0x3e39ac07	0.1813203
127	0xbd9999be	-0.07500027
128	0xbee2fa4f	-0.44331595
129	0x3e9229ee	0.28547615
130	0x3db109a6	0.086444184
131	0xbedfea46	-0.43733424
132	0x3e2f0889	0.170931
133	0x3c561177	0.013065687
134	0xbeb48d6c	-0.35264146
135	0x3f156839	0.58362156
136	0xbdc6e8d9	-0.09712381
137	0xbec63070	-0.3870883
138	0x3f08672f	0.53282446
139	0xbeb8343c	-0.35977352
140	0xbf06fcb2	-0.5272933
141	0x3ef9060f	0.48637435
142	0xbe299b64	-0.16563183
143	0xbea915be	-0.330244
144	0xbe0db3b3	-0.13838081
145	0xbcef233e	-0.02919161
146	0x3e487564	0.19576031
147	0xbdbf7c79	-0.09349913
148	0x3d4cf36c	0.050036833
149	0x3e9ee5dc	0.31034744
150	0xbe8766cc	-0.26445615
151	0xbdb807cf	-0.08985864
152	0x3e2d2972	0.16910341
153	0x3e3e23b2	0.18568304
154	0xbd6a7d95	-0.05724867
155	0xbe6681cc	-0.22510451
156	0x3e17aeb0	0.14812732
157	0xbc527458	-0.012845121
158	0xbe4134cb	-0.18867795
159	0x3e3d16cc	0.18465728
160	0x3e100a81	0.14066507
161	0xbdec6e29	-0.11544449
162	0x3deb32db	0.11484309
163	0x3b6ab008	0.003581049
164	0x3d6187c1	0.055061106
165	0x3e425f63	0.189817
166	0xbd6e2b8d	-0.058147002
167	0xbd99ce70	-0.07510078
168	0x3df0e18d	0.117617704
169	0xbd9cdbf7	-0.076591425
170	0xbd9a2566	-0.075266644
171	0x3f1eadf8	0.61984205
172	0x3c8ef576	0.01745103
173	0xbef09ec0	-0.46996117
174	0x3e9c9eed	0.3059
175	0xbe3dc305	-0.18531425
176	0xbf0a2f84	-0.53978753
177	0x3e92f84d	0.28705063
178	0xbd932d1d	-0.07186339
179	0xbed8df35	-0.42357793
180	0x3bb90d46	0.0056473343
181	0x3db743c7	0.089484744
182	0x3dca79e4	0.0988653
183	0x3d771e10	0.060331404
184	0x3da2ebb5	0.07955114
185	0x3d8f501d	0.06997702
186	0xbd280cec	-0.04102795
187	0xbe5621c9	-0.20911326
188	0xbee48ea7	-0.44640085
189	0xbebe5712	-0.37175804
190	0xbc363696	-0.011121413
191	0x3bd69324	0.0065483022
192	0xbe8cf593	-0.27531108
193	0x3c6e9446	0.014561718
194	0x3e89b7f7	0.26898167
195	0xbe4320f5	-0.19055541
196	0x3d867818	0.06565875
197	0x3da9e02b	0.0829471
198	0xbd46fbdf	-0.048580047
199	0xbbd0aa6c	-0.006367972
200	0x3df3e48c	0.11908826
201	0xbe1ef84e	-0.15524408
202	0xbac006fa	-0.0014650517
203	0x3e7d8139	0.24756326
204	0xbe037643	-0.12838082
205	0x3c3f24f8	0.011666529
206	0x3eb188cd	0.34674683
207	0xbd5440db	-0.051819663
208	0xbe67b697	-0.22628246
209	0x3d0d572b	0.034506958
210	0x3dbf98d2	0.0935532
211	0xbdfe341a	-0.12412281
212	0xbd4deeca	-0.050276555
213	0x3e128cbf	0.14311503
214	0x3ba2deec	0.004970422
215	0xbc98d4dc	-0.018656187
216	0xbbf8444c	-0.007576501
217	0xbe0c1e08	-0.13683331
218	0xbe60b24f	-0.2194302
219	0x3d9842f0	0.07434642
220	0x3d067c97	0.032833662
221	0xbeb63553	-0.35587558
222	0x3e95441e	0.29153532
223	0x3e111035	0.14166339
224	0xbeae5a28	-0.3405316
225	0xbed48eb3	-0.4151512
226	0xbe42afc7	-0.19012366
227	0x3e866a1b	0.26252827
228	0xbed93b99	-0.42428282
229	0xbe1fecfc	-0.15617746
230	0x3ea28894	0.31744826
231	0xbedf030a	-0.43557006
232	0xbe346195	-0.1761535
233	0x3de42e29	0.11141617
234	0x3cbcc390	0.02304247
235	0x3d099c77	0.033596482
236	0x3ea71df2	0.32640034
237	0xbe8d1e31	-0.27562097
238	0xbe05d805	-0.13070686
239	0x3e6672d7	0.22504745
240	0xbe749e71	-0.23888566
241	0xbe09385a	-0.13400403
242	0x3e4a10fc	0.19733042
243	0xbe3f2b47	-0.18668853
244	0xbe591cba	-0.21202365
245	0x3dda68b5	0.106645025
246	0xbe4d2dc1	-0.20036985
247	0xbe7912b0	-0.24323535
248	0x3df024ba	0.11725755
249	0x3dd40fb0	0.10354555
250	0xbe1057a0	-0.14095926
251	0xbbaaddbd	-0.0052144215
252	0xbe39e144	-0.18152338
253	0xbcdd562d	-0.02701863
254	0x3db80c95	0.08986775
255	0xbdb1fc94	-0.086907536

dense2.1.bn1.weight f4 [60]
0	0x3f327b7c	0.6971967
1	0x3f6a6393	0.9155819
2	0x3f8c92f9	1.0982352
3	0x3f59a791	0.8502131
4	0x3f180d07	0.5939488
5	0x3f0b37cc	0.54382014
6	0x3f5e1129	0.86744934
7	0x3f556bf8	0.8336787
8	0x3ee16fb1	0.44030526
9	0x3ee1e0b5	0.4411675
10	0x3f718c6a	0.9435488
11	0x3f2bc6bf	0.6710014
12	0x3f7bea40	0.9840431
13	0x3f4f158f	0.8089227
14	0x3f2cca9c	0.6749666
15	0x3f3de5ec	0.7417896
16	0x3eecf3d4	0.46279776
17	0x3f3aab46	0.7291759
18	0x3f151468	0.5823426
19	0x3f2f33ad	0.68438226
20	0x3ed75d73	0.42063484
21	0x3f4b8a6b	0.79508084
22	0x3f0afb9a	0.54290164
23	0x3f74c301	0.9561005
24	0x3f15f817	0.5858168
25	0x3f1d1ba0	0.6137028
26	0x3f687a8c	0.9081199
27	0x3f98749d	1.1910588
28	0x3f3d54ce	0.73957527
29	0x3f2d8e21	0.67794997
30	0x3f5bae5a	0.85812914
31	0x3f3e0063	0.7421934
32	0x3f4aaae3	0.79167
33	0x3f64ae60	0.89328575
34	0x3f7e9ff7	0.99462837
35	0x3f57238c	0.84038615
36	0x3f5c07d9	0.85949475
37	0x3f56f4d2	0.83967316
38	0x3f63c0c2	0.88966
39	0x3f4cbf3b	0.79979295
40	0x3f8e07ed	1.1096169
41	0x3f495668	0.7864747
42	0x3f4262db	0.7593209
43	0x3f6a779e	0.9158877
44	0x3f952376	1.1651447
45	0x3f50fa14	0.8163159
46	0x3ef16f11	0.4715505
47	0x3f426709	0.7593847
48	0x3fabf1b4	1.3433137
49	0x3f558520	0.8340626
50	0x3f1d9f59	0.6157127
51	0x3f6c7030	0.92358685
52	0x3f7bc192	0.9834224
53	0x3f61ff99	0.88280636
54	0x3f48a737	0.7838015
55	0x3eedb5d5	0.4642779
56	0x3f878c4e	1.0589693
57	0x3f09f26b	0.53885525
58	0x3f8e4694	1.1115289
59	0x3f3497fb	0.70544404

dense2.1.bn1.bias f4 [60]
0	0xbf2e4fbc	-0.68090415
1	0x3cc7764f	0.024348406
2	0xbe91f336	-0.28505868
3	0xbf21830c	-0.63090587
4	0x3ec99b9b	0.3937653
5	0xbdde7824	-0.10862759
6	0xbe5ca3ff	-0.21546935
7	0xbeda7a6f	-0.42671534
8	0xbe328671	-0.17434098
9	0xbe59d8c8	-0.21274102
10	0x3ee754dc	0.4518193
11	0xbf24fc33	-0.64447325
12	0xbf32bb90	-0.6981745
13	0xbe40d087	-0.18829547
14	0xbc63e04e	-0.013908459
15	0xbeaa2a90	-0.33235598
16	0xbe7f346b	-0.2492234
17	0xbd6541aa	-0.055970825
18	0xbed921b9	-0.4240854
19	0xbcbd99c4	-0.02314461
20	0xbf3e7496	-0.74396646
21	0xbd6abb04	-0.05730726
22	0x3f3094c8	0.6897702
23	0xbec6c90d	-0.38825265
24	0xbebf2fa3	-0.3734103
25	0x3dfe1e05	0.124080695
26	0xbed98749	-0.42486027
27	0xbefa5cfc	-0.48899066
28	0xbcad9c7b	-0.02119278
29	0x3ec909b9	0.3926523
30	0x3e77b314	0.24189407
31	0xbeec531f	-0.46157166
32	0x3f30184a	0.6878706
33	0xbedf0b7b	-0.43563446
34	0xbef8788a	-0.48529464
35	0xbe6f4be1	-0.2336879
36	0xbeaa55b7	-0.3326852
37	0xbe7c8bf5	-0.24662764
38	0xbe8bf72a	-0.2733701
39	0xbe994329	-0.29934052
40	0xbf19d4f6	-0.6009058
41	0xbf102f32	-0.56322014
42	0xbe66ffd0	-0.22558522
43	0x3ead7d56	0.33884686
44	0xbf2fdb20	-0.68693733
45	0x3d4cd8eb	0.050011557
46	0x3cd609da	0.026127744
47	0xbf13d451	-0.57745844
48	0x3c8ad775	0.016948441
49	0xbe473f71	-0.19457795
50	0x3e13d89d	0.144381
51	0xbecef8dd	-0.40424243
52	0xbe70ca06	-0.23514566
53	0x3dc840cf	0.09777986
54	0xbe6be19e	-0.23035285
55	0x3f24fe7e	0.64450824
56	0x3d1e374e	0.03862696
57	0xbe447dad	-0.19188567
58	0x3ba86eb4	0.00514015
59	0xbe88411a	-0.2661217
