independent_train_1000.0/client97/checkpoint_1000.0.pth (torch, 930411 bytes, 56 tensors)

conv1.weight f4 [24, 3, 3, 3]
0	0x3e79d15c	0.2439627
1	0xbeb4e1bc	-0.35328472
2	0x3ebb1c1d	0.36544886
3	0xbf80e9ee	-1.007139
4	0xbfd32208	-1.649476
5	0xbf46547c	-0.7747266
6	0xbf451e8d	-0.7699974
7	0xbfbb960e	-1.4655168
8	0xbf142a3b	-0.5787694
9	0x3e97d14e	0.29651874
10	0x3ed71c5c	0.42013824
11	0x3e968116	0.2939536
12	0x3ef497ba	0.47772008
13	0x3f36beb2	0.7138473
14	0x3f0e7699	0.55649716
15	0x3e88dfa8	0.26733136
16	0x3ed9b834	0.42523348
17	0x3ebb9d30	0.36643362
18	0xbf0a0de1	-0.5392743
19	0xbd99594b	-0.074877344
20	0xbf424180	-0.75881195
21	0x3f0b31e5	0.5437301
22	0x3f9ccb77	1.2249593
23	0x3ec4ca4b	0.38435587
24	0x3eaa5078	0.33264518
25	0x3f7120e9	0.9419084
26	0x3e526ced	0.20549364
27	0x3dbfcecc	0.09365615
28	0x3ecaa54a	0.3957923
29	0x3e1211c9	0.14264597
30	0xbf70cec5	-0.94065505
31	0x3e881822	0.26580912
32	0x3e997087	0.29968664
33	0xbf5cdbb8	-0.86272764
34	0xbb80a1b6	-0.0039255274
35	0x3e96fe63	0.29490957
36	0xbe7f7eef	-0.24950765
37	0x3ec3f85c	0.3827542
38	0xbe49566e	-0.19661877
39	0xbf57f224	-0.8435385
40	0x3f41a0e8	0.7563615
41	0x3ee0121e	0.43763822
42	0xbf5867d7	-0.8453345
43	0x3ee1aa82	0.440754
44	0x3ed6362b	0.41838202
45	0xbe96827b	-0.29396424
46	0x3dd3edff	0.103481285
47	0xbefa7455	-0.4891688
48	0xbf00bfee	-0.5029286
49	0x3f3ffcf7	0.7499537
50	0x3e7a4506	0.24440393
51	0xbef050b5	-0.46936575
52	0x3f24a257	0.6431021
53	0x3eb6677e	0.35625833
54	0x3d758a21	0.059946183
55	0xbe6b3ec3	-0.2297316
56	0x3c6acaa6	0.014330542
57	0xbed2d709	-0.41179684
58	0xbf35beb5	-0.7099412
59	0xbeded24e	-0.43519825
60	0xbe6981e1	-0.22803451
61	0xbf070650	-0.5274401
62	0xbe90d518	-0.28287578
63	0x3e8ee148	0.2790625
64	0x3eb873eb	0.36025938
65	0x3e91ea3a	0.28499013
66	0x3e7a393f	0.244359
67	0x3ebbba47	0.36665556
68	0x3e93dd4d	0.28879777
69	0x3e6fa716	0.23403582
70	0x3ea503e0	0.3222952
71	0x3e84e9ff	0.25959775
72	0xbd77266c	-0.060339376
73	0x3e4daa7b	0.20084564
74	0xbdad9b1f	-0.084768526
75	0x3e705907	0.23471461
76	0x3f164d65	0.58711845
77	0x3e659874	0.22421438
78	0x3dcb884f	0.09938108
79	0x3ecd7ba1	0.40133384
80	0x3d6876b8	0.056753844
81	0xbe43ee02	-0.19133762
82	0xbf93716c	-1.1518989
83	0xbf0f85e0	-0.5606365
84	0x3dc54b4d	0.09633503
85	0x3b2b1cfe	0.002610981
86	0x3e8947e8	0.26812673
87	0x3d1b8200	0.037965775
88	0x3f29c184	0.66310906
89	0x3f053a4f	0.52042097
90	0xbe58eb27	-0.21183454
91	0xbf9576d8	-1.1676893
92	0xbf4206d4	-0.7579167
93	0x3e9f01c2	0.3105603
94	0x3e6b99a5	0.2300783
95	0x3e989967	0.29804537
96	0x3e7377a9	0.23776115
97	0x3f690ba5	0.91033393
98	0x3f0ec90d	0.5577553
99	0xbe69050c	-0.22755831
100	0xbf916e5c	-1.1361804
101	0xbf48480a	-0.7823492
102	0x3e824488	0.2544291
103	0x3d92269d	0.07136271
104	0x3e0fccb7	0.14042936
105	0x3ecb5655	0.39714304
106	0x3f61dc4c	0.8822677
107	0x3f1bbb60	0.60832787
108	0xbf57243c	-0.84039664
109	0xbf328171	-0.6972876
110	0xbf6ff842	-0.93738186
111	0x3c7e0efe	0.015506504
112	0x3f17f1dc	0.59353423
113	0xbe20c2d0	-0.15699315
114	0x3f16b75b	0.5887353
115	0x3f8cb924	1.0994
116	0x3ec0781f	0.37591645
117	0x3dc7f4c6	0.09763484
118	0x3ed66f8f	0.41881987
119	0x3d4843a8	0.048892647
120	0x3eae5884	0.34051907
121	0x3f7df614	0.9920361
122	0x3e62eb44	0.22160059
123	0x3e09de9b	0.13463823
124	0x3f1e69d3	0.61880225
125	0x3c36322e	0.011120362
126	0x3f0ae5a7	0.5425667
127	0x3e433ad7	0.19065414
128	0x3f5dbab4	0.8661301
129	0xbf4b533d	-0.79423887
130	0xbf83f427	-1.0308884
131	0xbebd83d8	-0.3701465
132	0xbf84105a	-1.031749
133	0xbfb98de1	-1.4496423
134	0xbf216f78	-0.6306071
135	0xbd06e1be	-0.03293013
136	0xbefd93ec	-0.49526918
137	0xbd5ed427	-0.054401543
138	0xbd9234cf	-0.07138979
139	0x3e2aeab4	0.16691095
140	0x3e55fe85	0.20897873
141	0xbe6de8e2	-0.23233369
142	0xbeab8c0c	-0.33505285
143	0xbe83d17a	-0.25745755
144	0xbe4b222e	-0.19837257
145	0xbebfb44f	-0.37442252
146	0xbe888769	-0.2666581
147	0x3e6fa1b8	0.23401535
148	0x3f5ffa5a	0.8749138
149	0x3f098e85	0.5373309
150	0xbd8c8c84	-0.06862739
151	0x3e77258f	0.24135421
152	0xbd733869	-0.05937997
153	0xbf09340f	-0.5359506
154	0xbf338d6a	-0.70137656
155	0xbf3643b0	-0.7119703
156	0x3e0f770d	0.14010258
157	0x3f3a4cab	0.72773236
158	0x3e9b2c1a	0.30307084
159	0x3de1fb10	0.110342145
160	0x3eeaaa1d	0.4583291
161	0x3ddb099b	0.106951915
162	0x3f197f8d	0.5996025
163	0x3d4b0c62	0.049572356
164	0xbeb5a0a1	-0.35474113
165	0x3f9ae8ba	1.2102273
166	0xbe7be984	-0.24600798
167	0xbfc36e67	-1.5268067
168	0x3e0ba8b4	0.13638574
169	0xbdb20692	-0.086926594
170	0xbe22147a	-0.15828124
171	0x3f84e63d	1.0382763
172	0x3d6b48ae	0.05744236
173	0xbf5add3c	-0.85493827
174	0x3fe89977	1.8171834
175	0xbd861fef	-0.065490596
176	0xbff60add	-1.9222065
177	0x3f26c1af	0.6513929
178	0x3dd75be4	0.105155736
179	0xbece126f	-0.4024844
180	0x3ee5474a	0.44780952
181	0x3c331ba0	0.010931879
182	0xbeefc943	-0.46833238
183	0x3f9326f7	1.1496266
184	0xbdb7c1bb	-0.08972498
185	0xbfbabffd	-1.458984
186	0x3e925685	0.28581634
187	0x3da22fca	0.07919271
188	0xbe5a2ffa	-0.21307364
189	0xbf15dafa	-0.58537257
190	0xbdb00bd3	-0.08596005
191	0xbedba5db	-0.42899975
192	0xbe5e437d	-0.21705432
193	0x3e4ec4f3	0.20192318
194	0x3e0ce701	0.13759996
195	0xbe1bbc38	-0.15208519
196	0xbe7ddf02	-0.24792102
197	0x3ee0da79	0.4391668
198	0x3e87eea8	0.26549268
199	0x3f61cf74	0.88207173
200	0x3da3baf4	0.07994643
201	0x3e922613	0.28544673
202	0x3f5297da	0.8226296
203	0x3eb70ae8	0.35750508
204	0xbf1d63eb	-0.6148059
205	0xbf1c5275	-0.6106332
206	0xbe14884c	-0.14505118
207	0x3e8e197d	0.2775382
208	0x3f39e6ba	0.72617686
209	0xbd891450	-0.066933274
210	0x3ed75ed9	0.4206455
211	0x3f470e10	0.7775583
212	0x3e2196ba	0.15780154
213	0xbf348097	-0.7050871
214	0xbf4f9afa	-0.8109585
215	0xbf208047	-0.62695736
216	0x3f6642e6	0.8994583
217	0x3fec25da	1.8449051
218	0x3f9b2d49	1.2123195
219	0x3c9aa262	0.018876258
220	0xbe4b1b75	-0.19834693
221	0xbd220b93	-0.03956182
222	0xbf5718a3	-0.8402197
223	0xbfef6fae	-1.8705957
224	0xbf68508c	-0.90747905
225	0x3f1606ea	0.586043
226	0x3fb35189	1.4009258
227	0x3f1bd0f6	0.60865724
228	0x3e217444	0.15767008
229	0xbddbf42d	-0.10739932
230	0xbe2c9ce5	-0.16856726
231	0xbef0c8ca	-0.4702819
232	0xbfbe9101	-1.4888002
233	0xbf31f558	-0.6951499
234	0xbe404947	-0.18777953
235	0x3f2c6028	0.6733422
236	0x3a71b98e	0.000922107
237	0x3e208d27	0.15678845
238	0x3e660c49	0.22465624
239	0x3de9d958	0.11418408
240	0xbb025d8d	-0.0019892186
241	0xbf0e0c3a	-0.55487406
242	0x3c7270fc	0.014797445
243	0xbebaf781	-0.36516955
244	0xbd51a1ac	-0.051179573
245	0x3f43d7fa	0.7650143
246	0x3f018fe0	0.5061016
247	0x3e895f70	0.26830626
248	0xbfec458d	-1.8458725
249	0xbdef5a35	-0.116871275
250	0x3f50809e	0.81446254
251	0xbecd2dc5	-0.40073982
252	0xbf16481f	-0.587038
253	0x3e41035c	0.18848938
254	0x3f50bbd7	0.8153662
255	0x3f0a7b1c	0.540941

dense1.0.bn1.weight f4 [24]
0	0x3efaf7f8	0.4901731
1	0x3f7cbae6	0.98722684
2	0x3f2aa145	0.6665233
3	0x3f508b0f	0.81462187
4	0x3f310cf9	0.6916042
5	0x3f7e0c26	0.9923729
6	0x3f200154	0.62502027
7	0x3f7f79f8	0.99795485
8	0x3f3dcc21	0.741396
9	0x3fde6ad4	1.7376351
10	0x3ff696c9	1.9264766
11	0x3f1947b0	0.5987501
12	0x3f788ac4	0.9708674
13	0x3ed1a497	0.40945885
14	0x3f250612	0.6446239
15	0x3f00659f	0.5015506
16	0x3edd1c5c	0.431857
17	0x3eb199cc	0.3468765
18	0x3f2f9006	0.6857914
19	0x3ed51e54	0.416247
20	0x3f493383	0.78594226
21	0x3f428112	0.75978196
22	0x3ed2d38f	0.4117703
23	0x3f03e02b	0.5151393

dense1.0.bn1.bias f4 [24]
0	0xbe1a911a	-0.15094414
1	0x3f01e0d2	0.50733674
2	0xbebd0625	-0.3691875
3	0x3ec122de	0.37721914
4	0x3e301959	0.1719717
5	0x3ebd1857	0.36932632
6	0x3f168992	0.58803666
7	0x3ec8287f	0.39093396
8	0x3f1033cd	0.5632904
9	0x3f680fbc	0.9064901
10	0x3f6f31de	0.93435466
11	0x3dea65f8	0.1144523
12	0x3e9898a7	0.29803964
13	0x3e79b2fe	0.24384686
14	0x3e35e111	0.17761637
15	0xbf177030	-0.5915556
16	0xbe59fdd7	-0.21288238
17	0xbe3aae93	-0.18230657
18	0xbecef7b3	-0.40423355
19	0xbe8efcf1	-0.27927354
20	0xbf2e8dff	-0.6818542
21	0xbef08ae2	-0.4698096
22	0x3eacb33e	0.337305
23	0xbafd89a8	-0.0019343393

dense1.0.conv1.weight f4 [12, 24, 3, 3]
0	0x3c0b4f0b	0.008502732
1	0x3e051b4e	0.12998697
2	0xbc7ade5b	-0.015311803
3	0x3cc96e7d	0.024588818
4	0x3e1e9b1a	0.15488854
5	0x3cbef39d	0.023309523
6	0xbd913831	-0.07090796
7	0x3d090b7a	0.03345821
8	0xbda110fe	-0.07864569
9	0x3e6b9fd9	0.23010196
10	0x3eb849b3	0.35993728
11	0x3ea7f8e3	0.32807073
12	0x3d972be8	0.07381421
13	0x3e90e47b	0.28299317
14	0x3e9eeb7c	0.31039035
15	0xbe991283	-0.29896936
16	0xbdb29920	-0.087206125
17	0xbdb43296	-0.08798711
18	0x3cf34d45	0.02969993
19	0x3df4fe79	0.11962599
20	0xbb2bc628	-0.002621064
21	0x3de84fec	0.11343369
22	0x3e385c49	0.18003954
23	0x3d764970	0.06012863
24	0x3dda0b27	0.106466584
25	0x3e3007ee	0.17190525
26	0x3db820f2	0.08990659
27	0xbb7c250f	-0.0038474237
28	0x3dd96395	0.10614697
29	0x3e22318e	0.15839216
30	0xbd13ab0a	-0.036051787
31	0x3e0f5407	0.13996898
32	0x3e3eb1d4	0.18622524
33	0x3dd167fa	0.1022491
34	0x3e7a3b6d	0.24436732
35	0x3e63d74c	0.22250098
36	0xbcaa30d2	-0.020775232
37	0xbe5f9c43	-0.21836953
38	0xbe58b35e	-0.21162173
39	0x3e96ba13	0.29438838
40	0x3de20b2a	0.110372856
41	0x3d1c0851	0.03809387
42	0x3f1b895c	0.6075647
43	0x3efc715c	0.49305236
44	0x3eb69135	0.3565766
45	0x3e99bc9e	0.30026716
46	0x3ef6f801	0.48236087
47	0x3e7d01b8	0.24707687
48	0x3e07e1bb	0.13269703
49	0x3eb513e6	0.35366744
50	0x3e0deee5	0.13860662
51	0xbe5a5d49	-0.21324648
52	0x3cc23936	0.02370892
53	0xbde88387	-0.11353212
54	0x3e0447ff	0.1291809
55	0x3e14010e	0.14453527
56	0x3e84295d	0.25812808
57	0x3e708297	0.23487316
58	0x3e696f83	0.22796445
59	0x3e3ba671	0.18325211
60	0x3d6e6fda	0.05821214
61	0xbe163c48	-0.14671433
62	0xbe0ab877	-0.1354693
63	0xbf064de1	-0.52462584
64	0xbe574eba	-0.21026126
65	0xbe38bcc0	-0.18040752
66	0x3d424ea6	0.047438286
67	0x3edb231a	0.42800218
68	0x3ebd10be	0.36926836
69	0x3de5e55e	0.11225389
70	0x3f0408fa	0.515762
71	0x3ec5132f	0.38491198
72	0x3d1bdeae	0.03805416
73	0x3e648138	0.22314918
74	0x3dac3175	0.08407871
75	0x3cc86dad	0.02446636
76	0x3e37f192	0.17963246
77	0x3d90f830	0.07078588
78	0xbe9798d3	-0.29608783
79	0xbe5dc964	-0.21658856
80	0xbe373341	-0.17890646
81	0x3e140c2d	0.1445777
82	0x3dd482a3	0.103764795
83	0xbeb27805	-0.34857193
84	0x3f040732	0.5157348
85	0x3ef2736f	0.47353694
86	0xbe2a0407	-0.16603099
87	0x3e1c6c42	0.15275672
88	0x3dd9d66a	0.10636599
89	0xbe555d7f	-0.20836447
90	0xbd998bcf	-0.074973695
91	0x3dea13e0	0.11429572
92	0xbd5f961e	-0.054586522
93	0x3a35d167	0.00069358054
94	0x3e98be5d	0.29832736
95	0x3d96676d	0.07343946
96	0xbe6ecbac	-0.23319882
97	0x3e8418db	0.25800213
98	0x3d97d533	0.074137114
99	0xbee3bf8c	-0.44482076
100	0xbe8aeed3	-0.27135333
101	0x3c5d465f	0.013505547
102	0xbe70e28c	-0.23523921
103	0xbcf6c81e	-0.03012472
104	0x3e57611f	0.21033143
105	0x3e2cf782	0.16891292
106	0x3ed1e42c	0.40994394
107	0x3f05386c	0.5203922
108	0xbe9430f8	-0.2894361
109	0xbea3ee0c	-0.32017553
110	0xbd4636d4	-0.048392132
111	0xbec1e67a	-0.37871152
112	0xbed70ca3	-0.4200183
113	0xbe06d61e	-0.13167617
114	0xbe4243ad	-0.18971129
115	0xbe65daba	-0.22446719
116	0x39f87a13	0.00047393198
117	0xbe2bb98b	-0.16769998
118	0xbe7b4087	-0.24536334
119	0xbcd8b2c3	-0.026452428
120	0xbe8cc3c4	-0.27493107
121	0xbec56133	-0.3855072
122	0xbe0e6fcf	-0.13909839
123	0xbdd7ee04	-0.10543445
124	0xbe4431db	-0.19159643
125	0xba58555b	-0.0008252465
126	0xbe1e58e8	-0.15463603
127	0xbe5a37e5	-0.21310385
128	0xbe823dd6	-0.25437802
129	0xbe14e8ae	-0.14541885
130	0xbe1fb769	-0.15597309
131	0xbe57c491	-0.21071078
132	0xbd94267c	-0.07233903
133	0xbdcdc4db	-0.10047313
134	0xbe533574	-0.2062586
135	0x3c5cb057	0.013469777
136	0x3c97a249	0.01851
137	0x3d25e950	0.040505707
138	0xbdc81392	-0.09769358
139	0xbdae6558	-0.085154235
140	0xbd3dd3dd	-0.046344627
141	0xbe017e57	-0.12645851
142	0xbdca64c3	-0.098825
143	0xbd92abe4	-0.07161692
144	0x3cca6627	0.024706913
145	0xbda5fd89	-0.081049986
146	0x3ca351bf	0.01993644
147	0xbd79a7d6	-0.060951076
148	0xbe5dfab9	-0.21677674
149	0xbe0d7009	-0.1381227
150	0x3d3a3457	0.04546007
151	0xbe024309	-0.12720884
152	0xbd95c091	-0.0731212
153	0xbdb37d44	-0.08764127
154	0xbd432fbd	-0.04765295
155	0xbe17e8f5	-0.1483496
156	0xbcf0c55c	-0.029390983
157	0xbc20bb8e	-0.0098103415
158	0xbde38d61	-0.1111095
159	0xbda65172	-0.08121003
160	0xbd74c596	-0.059758745
161	0xbe211d2d	-0.15733786
162	0xbc709eba	-0.014686281
163	0xbdfefbb9	-0.12450356
164	0xbdbe0271	-0.092778094
165	0xbe327606	-0.17427835
166	0xbe8f0931	-0.279367
167	0xbe7e3b3c	-0.24827284
168	0xbd2941d6	-0.04132255
169	0xbdf71b5b	-0.120657645
170	0xbda653c9	-0.081214495
171	0xbdb4ee2a	-0.08834489
172	0xbd652f54	-0.05595334
173	0x3b12c340	0.002239421
174	0xbe058fa9	-0.13043083
175	0xbdc54de0	-0.09633994
176	0xbd0191c3	-0.03163315
177	0xbd348998	-0.044076532
178	0xbce220cf	-0.027603535
179	0x3d1ffd69	0.03906003
180	0xbcabf8a6	-0.020992588
181	0x3c5949bd	0.0132622095
182	0xbe028a76	-0.12748131
183	0xbd86fb43	-0.06590893
184	0xbb9d6a18	-0.004803907
185	0xbd77684e	-0.060402207
186	0xbdc20306	-0.09473233
187	0x3bd3753f	0.006453186
188	0xbdb13625	-0.086529054
189	0xbdfbf2c3	-0.123021625
190	0xbd8d644a	-0.06903894
191	0xbe4d6a7e	-0.20060155
192	0xbd29a3b6	-0.041415893
193	0x3c8002d2	0.015626345
194	0xbe14c7fc	-0.14529413
195	0xbd601539	-0.05470774
196	0x3a83f8af	0.001006862
197	0xbe03e98f	-0.12882064
198	0xbdec7421	-0.11545587
199	0xbe2a6ed9	-0.16643848
200	0xbe843183	-0.25819024
201	0xbe108fe7	-0.14117394
202	0xbe4e6140	-0.20154285
203	0xbea3a1d8	-0.31959414
204	0xbe7c0588	-0.24611485
205	0xbe99ec7b	-0.30063233
206	0xbede966f	-0.43474147
207	0xbce3653d	-0.027758235
208	0xbcc2668b	-0.023730537
209	0x3db1889a	0.08668633
210	0xbdbe0cdb	-0.09279796
211	0xbdc0b579	-0.09409613
212	0x3d14168b	0.03615431
213	0x3d48cc41	0.049022917
214	0x3d849a31	0.06474722
215	0x3e1e9375	0.15485938
216	0xbccc6797	-0.02495174
217	0xbd7b16fa	-0.06130121
218	0xbcd87dde	-0.026427206
219	0xbc98a5f1	-0.018633815
220	0xbdd2c90c	-0.10292253
221	0xbd48e9ba	-0.049051024
222	0x3e0bee80	0.136652
223	0x3db3ff6e	0.08788954
224	0x3db8eaf3	0.09029188
225	0x3c937d19	0.018003987
226	0x3da623bd	0.08112285
227	0x3e3f2d1c	0.18669552
228	0xbe24121c	-0.16022533
229	0xbcfd6451	-0.030931624
230	0x3dbfe013	0.09368911
231	0x3ccc4008	0.024932876
232	0xbaa8a4b5	-0.0012866469
233	0xbe16b32d	-0.14716788
234	0xbd80e291	-0.06293214
235	0xbd6d2476	-0.0578961
236	0xbcbadce8	-0.022810414
237	0xbd9b25f1	-0.07575596
238	0xbdc1c50d	-0.094614126
239	0xbd5ec0f1	-0.054383222
240	0x3bbc9e6d	0.0057561905
241	0xbc590472	-0.013245689
242	0x3c955e8c	0.01823356
243	0xbf048d4c	-0.517781
244	0xbf2c2aee	-0.67253006
245	0xbec062f9	-0.3757551
246	0xbe4db67f	-0.20089148
247	0xbd04a659	-0.032385204
248	0xbdc84c5a	-0.09780188
249	0x3ed067ce	0.40704197
250	0x3f23f333	0.6404297
251	0x3e06e1e0	0.13172102
252	0xbe31c0b9	-0.17358674
253	0xbe8819c1	-0.2658215
254	0xbe02061d	-0.12697645
255	0x3d2e3cac	0.04253833

dense1.1.bn1.weight f4 [36]
0	0x3f028f26	0.5099968
1	0x3ec63c26	0.38717765
2	0x3e89bf7d	0.26903906
3	0x3ec6f193	0.38856182
4	0x3f509556	0.8147787
5	0x3ed366d6	0.41289395
6	0x3ef3c37b	0.47610077
7	0x3e9a8d1e	0.3018579
8	0x3ee15564	0.4401046
9	0x3ef313cd	0.47476044
10	0x3ec5435e	0.3852796
11	0x3fa0df73	1.2568191
12	0x3e00081d	0.12503095
13	0x3e4aaa0b	0.19791429
14	0x3eacc120	0.33741093
15	0x3e29da0f	0.16587089
16	0x3f99d207	1.201722
17	0x3f7f940c	0.99835277
18	0x3f195a71	0.5990363
19	0x3f34f80a	0.7069098
20	0x3f21d3b7	0.63213676
21	0x3f51da62	0.8197385
22	0x3e99fef4	0.30077326
23	0x3ebf1e06	0.37327594
24	0x3edfcd59	0.43711355
25	0x3f2f3f02	0.6845552
26	0x3f68946d	0.9085148
27	0x3f8f5ecc	1.1200805
28	0x3f126494	0.5718472
29	0x3e327531	0.17427517
30	0x3f6a7a20	0.915926
31	0x3fa0f2db	1.2574114
32	0x3f4794ef	0.7796163
33	0x3f1dac12	0.61590683
34	0x3ecd9dac	0.40159357
35	0x3f3a5609	0.7278753

dense1.1.bn1.bias f4 [36]
0	0x3df1c057	0.11804264
1	0xbe38953a	-0.18025675
2	0xbe3ea6c0	-0.18618298
3	0xbeafed5c	-0.34360778
4	0x3e946b58	0.28988147
5	0xbe2a8faf	-0.16656373
6	0x3bc33e5c	0.0059583616
7	0xbdbe3420	-0.09287286
8	0x3e307e5e	0.17235705
9	0xbc9de807	-0.019275678
10	0x3cbb56f7	0.022868617
11	0x3d09ee76	0.03367468
12	0xbca3efe9	-0.020011859
13	0xbe1f8a44	-0.15580088
14	0xbe378784	-0.17922789
15	0xbe3ba14a	-0.18323246
16	0xbd717b72	-0.058955617
17	0x3e9b5f79	0.30346277
18	0xbe7a5dcc	-0.24449843
19	0xbecea494	-0.40359938
20	0xbee8a6fc	-0.454399
21	0xbf146569	-0.5796724
22	0x3d7cc004	0.061706558
23	0xbe7c65b0	-0.24648166
24	0xbe95e8e7	-0.29279253
25	0x3f3a98c8	0.72889376
26	0x3eb99f76	0.36254472
27	0x3ddc8dcd	0.10769234
28	0xbe88b212	-0.26698357
29	0xbe332d08	-0.17497647
30	0xbe3c604c	-0.1839611
31	0x3f28a1fb	0.6587216
32	0xbcca373e	-0.024684545
33	0xbe03b58d	-0.12862225
34	0xbdc67861	-0.09690929
35	0x3e312510	0.17299294

dense1.1.conv1.weight f4 [12, 36, 3, 3]
0	0xbe04ab76	-0.12956032
1	0x3e1c2c21	0.15251209
2	0x3ed9fbf8	0.4257505
3	0xbe92d978	-0.2868154
4	0xbc45159c	-0.012029078
5	0x3e96c38b	0.29446062
6	0xbead4a4d	-0.3384575
7	0xbe4ae205	-0.19812782
8	0x3db013e1	0.085975416
9	0xbce0f2d6	-0.027459543
10	0xbcc51a65	-0.024060437
11	0xbe494462	-0.19654992
12	0xbda92fde	-0.08261083
13	0xbc449ebb	-0.012000735
14	0xbe094fea	-0.13409391
15	0xbd0eaabb	-0.03483079
16	0xbcfa55e7	-0.03055854
17	0xbc15a4dc	-0.009133544
18	0xbd95d8f0	-0.07316768
19	0x3d13a514	0.036046103
20	0x3e0c1a0f	0.13681816
21	0xbdb1dade	-0.08684324
22	0x3d1cdcec	0.038296625
23	0x3df8344b	0.12119349
24	0xbd75b734	-0.05998917
25	0x3cd52dcd	0.026022816
26	0x3de3a673	0.11115732
27	0xbd8787c4	-0.06617692
28	0xbc43dc46	-0.011954373
29	0x3d7da0e1	0.061921004
30	0x3cfbcf1f	0.030738411
31	0xbcaaef10	-0.020865947
32	0x3d956fd9	0.07296724
33	0x3df31dcb	0.11870917
34	0x3d2d947b	0.04237793
35	0x3e0065e3	0.12538867
36	0xbe0e1c94	-0.13878089
37	0x3ee45e36	0.44603127
38	0x3e667ddb	0.22508948
39	0xbe44b46a	-0.19209448
40	0x3e91f0d3	0.28504047
41	0x3d972f27	0.073820405
42	0xbe393fde	-0.1809077
43	0xbd559ec8	-0.05215338
44	0xbe4dfb70	-0.20115447
45	0xbd054487	-0.032536056
46	0xbc5cbb90	-0.013472453
47	0x3b2318b6	0.0024886555
48	0xbd16a9d0	-0.03678304
49	0xbd2f255a	-0.04276023
50	0xbba47fac	-0.0050201025
51	0xbb4b82e3	-0.0031053356
52	0xbcbf02d5	-0.02331678
53	0x3d0b99ea	0.03408233
54	0xbe1d417d	-0.15357013
55	0xbe473354	-0.19453174
56	0xbedb5167	-0.42835543
57	0xbe312359	-0.1729864
58	0xbda14aec	-0.07875618
59	0xbe15a311	-0.14612986
60	0x3c00bab3	0.007857013
61	0x3ddf294f	0.10896551
62	0xbec7cff7	-0.39025852
63	0x3d0ba98d	0.034097243
64	0x3d6b9053	0.057510685
65	0xbc8acead	-0.016944254
66	0xbc96dbf8	-0.018415436
67	0x3d16fbae	0.036861114
68	0xbd63da6a	-0.055628218
69	0xbceccfca	-0.028907675
70	0xbc43768d	-0.01193012
71	0xbceb0d08	-0.028692737
72	0x3b626a7e	0.0034548338
73	0xbe3b752e	-0.18306419
74	0x3cf0e825	0.02940757
75	0xbe54b5ed	-0.20772524
76	0xbc518fc7	-0.012790627
77	0x3d65aae0	0.056071162
78	0xbdb1bf17	-0.086790256
79	0x3dba7948	0.09105164
80	0xbd1c0ad6	-0.03809627
81	0xbde10e93	-0.10989108
82	0x3c6f261b	0.014596487
83	0xbdd56fdd	-0.10421727
84	0xbe19eaf5	-0.15031035
85	0xbcbbe897	-0.022938056
86	0xbdbc1b31	-0.09184874
87	0xbd53fd63	-0.05175532
88	0xbd6c4e25	-0.057691712
89	0xbe672efb	-0.22576515
90	0xbe71479f	-0.23562478
91	0x3df3e33d	0.11908577
92	0xbcea623e	-0.028611299
93	0xbe55afc8	-0.20867836
94	0x3d78649d	0.060642827
95	0xbe033e1d	-0.12816663
96	0xbb43b174	-0.002986041
97	0xbe1f79af	-0.15573762
98	0x3c9526e5	0.018207023
99	0xbc9ea375	-0.019365052
100	0x3d8de6db	0.06928798
101	0x3e43ee74	0.19133931
102	0xbdef0e84	-0.116726905
103	0xbd313466	-0.04326286
104	0x3e0a9783	0.1353436
105	0xbcdef072	-0.027214263
106	0xbdadb00f	-0.08480846
107	0x3d8f76ad	0.070050575
108	0xbd18099a	-0.03711853
109	0x3b418eec	0.002953465
110	0xbd4b9430	-0.04970187
111	0xbd32c5fe	-0.04364585
112	0x3ce01465	0.027353475
113	0xbcd14bd9	-0.025548862
114	0xbc01a3e1	-0.007912607
115	0x3b753829	0.0037417507
116	0xbc54b639	-0.012982898
117	0x3b641a81	0.0034805837
118	0x3d3af50a	0.045643844
119	0x3ba9597c	0.005168138
120	0xbaf521a3	-0.0018702041
121	0x3d538eaa	0.051649727
122	0x3a49074f	0.00076686306
123	0xbc417579	-0.011807793
124	0x3b2a50cd	0.0025988102
125	0xbc9646e0	-0.018344343
126	0xbd8f4fcd	-0.06997643
127	0xbc9be6e8	-0.019031003
128	0x3d07c054	0.033142403
129	0x3d03329d	0.03203069
130	0xbc431d41	-0.01190883
131	0x3cfc4744	0.0307957
132	0x3e02fa3c	0.1279077
133	0x3cbb8a09	0.022892969
134	0x3daf9c2b	0.085747086
135	0x3d6ef36d	0.058337618
136	0x3cee3526	0.029078078
137	0x3b8e9546	0.004351291
138	0x3d26567d	0.040609825
139	0x3c76caef	0.015063032
140	0xbae2b361	-0.0017295891
141	0x3ce46127	0.027878357
142	0x3c902386	0.017595064
143	0x3d04587a	0.03231094
144	0xbe1b640e	-0.15174887
145	0x3b8ccb14	0.0042966697
146	0xbe2941fb	-0.16529076
147	0xbda3f91d	-0.08006499
148	0x3e8b92d4	0.27260458
149	0x3db03532	0.08603896
150	0x3c95e534	0.01829777
151	0x3e5efa0c	0.21775073
152	0x3c330abd	0.010927853
153	0x3d26117c	0.04054402
154	0x3eacb4af	0.337316
155	0x3e8d7c8e	0.2763409
156	0xbe4238d3	-0.18966989
157	0x3e08af5d	0.13348146
158	0x3e14b6ee	0.14522907
159	0xbec6bd85	-0.38816467
160	0xbe5bab44	-0.21452051
161	0xbe647564	-0.22310406
162	0x3e1d54ce	0.15364382
163	0x3e22cef6	0.15899262
164	0x3d6cb7b8	0.057792395
165	0x3cd72564	0.026262946
166	0x3df70de7	0.120631985
167	0x3dc19efe	0.094541535
168	0xbd88b786	-0.06675629
169	0x3d4a0eb8	0.049330443
170	0x3def35fc	0.116802186
171	0xbdede8ed	-0.11616693
172	0x3d9979ff	0.07493972
173	0x3e3cb7c2	0.18429473
174	0xbbfb16c1	-0.0076626246
175	0x3e0e7eee	0.13915607
176	0x3e428778	0.1899699
177	0x3d324e65	0.043531794
178	0x3dff06a3	0.12452438
179	0x3dead76c	0.1146687
180	0xbe0c1cb9	-0.13682832
181	0xbea57dc5	-0.32322517
182	0xbe28b002	-0.16473392
183	0xbe020da0	-0.1270051
184	0xbe8ae1cb	-0.2712539
185	0xbd9e53bf	-0.07730817
186	0xbcef80db	-0.029236248
187	0xbe5e8cde	-0.21733424
188	0x3e18e040	0.14929295
189	0xbe0b9ce2	-0.13634065
190	0x3db57b98	0.08861464
191	0x3e4d088f	0.20022796
192	0xbe1338ac	-0.14377087
193	0x3dac3bbf	0.08409833
194	0x3e6f9b11	0.23398997
195	0xbdb0b303	-0.08627894
196	0x3daff2f5	0.08591262
197	0x3e5dc750	0.21658063
198	0x3c472e55	0.0121570425
199	0x3d6ed816	0.058311544
200	0x3c0168e9	0.007898548
201	0x3d4bdead	0.049772907
202	0x3d701f59	0.058623645
203	0x3bd2c2b3	0.0064319014
204	0x3d3025f0	0.04300493
205	0x3d67e8f8	0.05661866
206	0x3c79be98	0.015243195
207	0xbdbb958e	-0.09159385
208	0x3d091cfc	0.033474907
209	0x3d9411f7	0.07229989
210	0xbc0c347c	-0.008557435
211	0x3dcbd712	0.09953131
212	0x3df9ac91	0.121911176
213	0x3c9b5220	0.018960059
214	0x3da50edf	0.08059477
215	0x3d837195	0.064181484
216	0x3dce95b4	0.10087147
217	0x3c3f7cd5	0.011687477
218	0x3db09893	0.08622851
219	0xbca4e105	-0.020126829
220	0xbd8c4542	-0.068491474
221	0x3e07fc71	0.13279893
222	0x3c30ee07	0.010798938
223	0xbd34b0c7	-0.0441139
224	0x3c8f134b	0.017465254
225	0x3d976ae7	0.07393437
226	0x3e163f10	0.14672494
227	0xbe6d34fb	-0.23164742
228	0x3ed039fd	0.40669242
229	0xbeb57afa	-0.35445386
230	0xbdf3800f	-0.118896596
231	0xbd854190	-0.06506646
232	0x3da05c92	0.078301564
233	0x3ea03ccd	0.31296387
234	0x3c5b0119	0.013366961
235	0xbec228ce	-0.37921757
236	0x3cabf7c0	0.02099216
237	0xbeffba3b	-0.4994677
238	0x3e18dfcb	0.1492912
239	0x3ebeb029	0.37243775
240	0xbb91bd37	-0.004447605
241	0x3eab1291	0.33412603
242	0xbd7ab9fe	-0.061212532
243	0xbe871f27	-0.26390955
244	0xbea16ded	-0.3152918
245	0x3d629ddf	0.05532634
246	0xbf8147a6	-1.009999
247	0x3f85bbdc	1.0447955
248	0x3e9dc2d2	0.308127
249	0x3ed79736	0.42107552
250	0xbe8e7195	-0.2782103
251	0xbec4134c	-0.38295972
252	0x3c7db416	0.01548483
253	0x3d151788	0.036399394
254	0x3d9457c9	0.07243306
255	0x3d4818f5	0.048851926

dense1.2.bn1.weight f4 [48]
0	0x3ec5ddeb	0.38645872
1	0x3e2f0322	0.17091039
2	0x3ed9f643	0.42570695
3	0x3f0e03d9	0.5547462
4	0x3f5b3581	0.85628515
5	0x3e178972	0.14798525
6	0x3ec9f396	0.39443654
7	0x3ea95762	0.3307448
8	0x3e680b5d	0.22660585
9	0x3ea8d02a	0.32971317
10	0x3e5d4a5e	0.216104
11	0x3f48c0f4	0.78419423
12	0x3dbd87dc	0.09254429
13	0x3ecf7aff	0.40523526
14	0x3df11d9f	0.11773228
15	0x3eb7d28a	0.35902816
16	0x3ef8329a	0.48476106
17	0x3f142027	0.5786156
18	0x3ef8bca3	0.48581418
19	0x3e2cd4d7	0.16878067
20	0x3f438448	0.7637372
21	0x3da64135	0.08117906
22	0x3e984cd6	0.2974612
23	0x3df97cc3	0.121819995
24	0x3f133c88	0.5751424
25	0x3eeffcf1	0.46872666
26	0x3e6f2486	0.23353776
27	0x3f778697	0.9668974
28	0x3d4dff26	0.050292157
29	0x3e144993	0.14481191
30	0x3f1e31ab	0.6179454
31	0x3f659741	0.8968392
32	0x3e914b6b	0.28377852
33	0x3e68d22e	0.22736427
34	0x3e96999d	0.29414073
35	0x3f243f75	0.6415933
36	0x3fbf5fee	1.495115
37	0x3f79994f	0.97499555
38	0x3e6f7504	0.23384482
39	0x3f245a71	0.642005
40	0x3f47d771	0.7806311
41	0x3f02fc7f	0.5116653
42	0x3ebb15cd	0.3654007
43	0x3f89b3be	1.0757978
44	0x3fa4e539	1.2882453
45	0x3efd9f25	0.4953548
46	0x3e5104de	0.20412013
47	0x3f2febe9	0.68719345

dense1.2.bn1.bias f4 [48]
0	0x3ca886bd	0.02057206
1	0xbd75168a	-0.059835948
2	0xbea03169	-0.31287697
3	0xbeb9ac48	-0.36264253
4	0x3eaa7a7d	0.33296576
5	0xbd45ea76	-0.048319302
6	0x3daf97e4	0.08573893
7	0xbe42822e	-0.18994972
8	0x3d3415df	0.04396617
9	0x3d88ba5c	0.0667617
10	0xbd1484ef	-0.036259588
11	0x3e76f01a	0.24115029
12	0xbd86d340	-0.065832615
13	0xbd631008	-0.05543521
14	0x3cc33151	0.023827227
15	0xbf198cbf	-0.59980386
16	0x3e8a481a	0.27008134
17	0xbec43de5	-0.38328472
18	0xbe3758ac	-0.1790492
19	0xbe8fcd4f	-0.28086326
20	0x3ecf1578	0.40446067
21	0xbd455c50	-0.04818374
22	0xbdf92cb5	-0.1216673
23	0xbe546c9d	-0.20744558
24	0xbf22ed89	-0.636437
25	0x3e91315c	0.2835797
26	0x3d555f2c	0.052092716
27	0x3a17cadf	0.0005790423
28	0xbd894027	-0.06701689
29	0xbe0e1782	-0.13876155
30	0x3ce53439	0.027979003
31	0x3ecf893e	0.40534395
32	0xbdbae512	-0.09125723
33	0x3da82071	0.08209313
34	0xbe4920c7	-0.1964141
35	0xbe5fe8ee	-0.218662
36	0x3f15a296	0.5845121
37	0xbd4fe4bb	-0.050755244
38	0xbe9c3c7d	-0.305149
39	0xbe2705e4	-0.16310841
40	0xbf12c603	-0.5733339
41	0xbe9568f7	-0.29181644
42	0xbdd567dc	-0.104202
43	0xbe8cc24b	-0.27491984
44	0x3eb35052	0.35022217
45	0xbd3eab5c	-0.04655014
46	0xbd33026d	-0.043703485
47	0x3eacf42b	0.33780035

dense1.2.conv1.weight f4 [12, 48, 3, 3]
0	0x3dda06bc	0.10645816
1	0xbd58a695	-0.05289324
2	0xbdbeb6ad	-0.093121864
3	0x3dbebea8	0.093137085
4	0xbd90c099	-0.07067985
5	0xbde2af10	-0.11068547
6	0x3dd044ab	0.101693474
7	0xbd453036	-0.04814168
8	0xbd32d7e3	-0.043662917
9	0x3b334af7	0.0027357915
10	0x3cdbe0f1	0.026840659
11	0x3c97b9bf	0.018521188
12	0x3c1b3781	0.009473682
13	0x3cef8810	0.029239684
14	0x3cf80c60	0.030279338
15	0x3c9e7ed9	0.019347595
16	0x3c8321a7	0.016007258
17	0x3bb5b421	0.0055451547
18	0x3cbad8f5	0.022808531
19	0xbc448bf3	-0.011996257
20	0xbcac2141	-0.02101195
21	0x3c5ebd53	0.013594943
22	0xbd251e8b	-0.04031233
23	0xbd3f1199	-0.04664764
24	0x3c385fa0	0.0112532675
25	0xbcf3ba06	-0.029751789
26	0xbd4d4a0f	-0.050119456
27	0xbda5f854	-0.081040055
28	0xbdc5b490	-0.0965358
29	0xbdd37ccb	-0.10326537
30	0x3d4d367c	0.05010079
31	0x3d1d4106	0.03839209
32	0x3a9ba5bc	0.0011874954
33	0x3cbff787	0.02343346
34	0x3d459739	0.04823992
35	0x3d28fb0b	0.04125504
36	0xbd23c673	-0.039984178
37	0x3d90c3f3	0.07068624
38	0x3db375e9	0.08762724
39	0xbce910fb	-0.02845048
40	0x3dc98f04	0.09841731
41	0x3de28e06	0.11062245
42	0xbd8481aa	-0.06470044
43	0x3d052eb8	0.032515258
44	0x3ce9e26b	0.028550347
45	0xbc26793c	-0.01016074
46	0xbd0af327	-0.033923294
47	0xbd23cfa3	-0.03999294
48	0x3a841749	0.001007774
49	0xbc7f7203	-0.015591147
50	0xbd0035a8	-0.03130117
51	0xb9164471	-0.00014330611
52	0xbcda6a9a	-0.02666216
53	0xbc598887	-0.01327718
54	0x3dc7ac34	0.09749642
55	0xbe558ff1	-0.2085569
56	0xbc768f46	-0.0150488075
57	0x3e94cd14	0.29062712
58	0x3d82648b	0.06366833
59	0x3ebc2a13	0.3675085
60	0x3e60ea6d	0.21964426
61	0x3d407994	0.046990946
62	0x3ea41dcc	0.32053983
63	0xbc6c9bb9	-0.014441424
64	0xbc3337db	-0.01093861
65	0x3bf7b653	0.0075595765
66	0x3bbc5c2f	0.005748294
67	0xbcb910ff	-0.022591112
68	0xbc92274b	-0.017841002
69	0xbb540139	-0.0032349362
70	0xbcb0c45d	-0.021578008
71	0xbd2fd9cd	-0.04293232
72	0xbda98233	-0.08276787
73	0x3cca6470	0.024706095
74	0x3e4c04bc	0.19923681
75	0x3bbf79b1	0.005843364
76	0x3daccffd	0.08438108
77	0x3e1aed67	0.15129624
78	0x3e193b31	0.14963986
79	0x3df2ee3e	0.11861847
80	0x3d8fe84c	0.07026729
81	0x3d5d02cf	0.053957757
82	0x3a4e7b36	0.0007876636
83	0x3d602363	0.054721247
84	0x3e002802	0.12515262
85	0x3dbadf32	0.091246024
86	0x3e04cb53	0.12968187
87	0x3db3fe5b	0.08788749
88	0x3d0331be	0.03202986
89	0x3cd3a56e	0.025835719
90	0x3d180858	0.037117332
91	0x3c8ccdff	0.01718807
92	0x3bb6114b	0.0055562607
93	0x3cb30fcd	0.02185812
94	0xbcd71772	-0.026256297
95	0xbd49acb6	-0.049236976
96	0x3ca3121c	0.019906096
97	0xbc76e6df	-0.015069692
98	0xbd133ce9	-0.03594676
99	0x3d9f7b64	0.07787207
100	0x3c9b5761	0.018962564
101	0x3dacec4b	0.08443507
102	0x3d7f7a58	0.062372535
103	0xbc927621	-0.017878594
104	0x3d236a54	0.039896324
105	0x3d2f4f53	0.04280026
106	0xbd6642de	-0.056216113
107	0xbd3941e1	-0.045228843
108	0x3bee0d3e	0.007264762
109	0x3baf4f6a	0.005350043
110	0x3bbd9c11	0.005786427
111	0xbb56e404	-0.0032789716
112	0xbb423406	-0.002963306
113	0x3a3ecc41	0.0007278361
114	0xbc59050f	-0.013245835
115	0xbc4a3c46	-0.012343472
116	0xbbae369d	-0.005316569
117	0xbc9f8496	-0.019472402
118	0x3d531bd0	0.051540196
119	0x3ddef793	0.10887065
120	0xbd2b7b9f	-0.04186594
121	0x3ca15dea	0.019698102
122	0x3da0aa69	0.07845003
123	0xbda8e605	-0.08246998
124	0xbd0b7af1	-0.034052793
125	0x3cd0be0c	0.025481246
126	0xbc156fff	-0.00912094
127	0xbbe3e8a3	-0.0069552227
128	0xbca01b05	-0.019544134
129	0x3cbd5a44	0.023114331
130	0x3cc6f522	0.02428681
131	0x3cc1ac5e	0.023641761
132	0x3aa120df	0.0012293122
133	0x3ce7d320	0.028298914
134	0x3cc06546	0.023485791
135	0xbbcd80fd	-0.00627148
136	0x3cb3a094	0.021927156
137	0x3dbf04b1	0.09327067
138	0xbcca335f	-0.024682699
139	0xbb08aca9	-0.0020854867
140	0x3dde1c37	0.10845225
141	0xbcd87fc2	-0.026428107
142	0x3cd281eb	0.025696715
143	0x3de4704c	0.111542314
144	0xbc3d9fea	-0.011573771
145	0x3da59eb3	0.0808691
146	0x3e3f4a1b	0.18680613
147	0xbd2b0b01	-0.04175854
148	0x3da31ed9	0.07964868
149	0x3e4a20e9	0.19739117
150	0xbdac8804	-0.084243804
151	0x3d478ade	0.04871642
152	0x3e255654	0.16146213
153	0x3dfe187e	0.12407015
154	0x3c5cdda2	0.013480576
155	0xbde24dcf	-0.11049997
156	0x3dc018ba	0.09379716
157	0xbbbcb8da	-0.0057593407
158	0xbde5dd61	-0.11223865
159	0x3d110c2d	0.035412002
160	0xbd41bcdf	-0.047299262
161	0xbdcec887	-0.10096841
162	0xbe07b602	-0.13253024
163	0x3d4b32db	0.049609046
164	0x3e80563f	0.250658
165	0xbe2444e9	-0.16041912
166	0x3cc2ddef	0.023787467
167	0x3e70e638	0.23525321
168	0xbe0ac445	-0.13551433
169	0x3cc3e589	0.023913162
170	0x3e354777	0.17703043
171	0x3d0f8030	0.03503436
172	0x3d088d87	0.033338096
173	0x3ca1441f	0.019685803
174	0x3d13723a	0.035997607
175	0x3d2b2ecf	0.041792687
176	0x3c3d4174	0.01155125
177	0x3c402874	0.011728395
178	0x3bf90282	0.007599176
179	0x3aef067b	0.0018236184
180	0xbeddc44f	-0.43313834
181	0xbe8ab3a8	-0.27090192
182	0xbeb2195c	-0.34784973
183	0xbf28d117	-0.65944046
184	0xbf028a5d	-0.50992376
185	0xbf27bdb3	-0.65523833
186	0xbee986d2	-0.45610672
187	0xbeb21769	-0.34783486
188	0xbef3966c	-0.475757
189	0xbc05f8b6	-0.008176973
190	0xbbcce3e6	-0.0062527535
191	0x37f4e4f0	2.9193674e-05
192	0xbbb4f43a	-0.005522278
193	0xbc1df1e0	-0.009640187
194	0xbc475735	-0.012166788
195	0xbbfcdf16	-0.0077170236
196	0xbb98ec6e	-0.0046668565
197	0xbca44b0f	-0.020055322
198	0x3cbb7483	0.022882706
199	0x3d3c5c40	0.045986414
200	0x3d860fdb	0.06545993
201	0xbb7ed235	-0.0038882617
202	0x3d46db17	0.048548784
203	0x3db3c594	0.087779194
204	0xbbc101da	-0.0058901133
205	0x3cab0db1	0.020880552
206	0x3dc608a3	0.09669616
207	0x3b9f78ea	0.004866709
208	0x3c75ca04	0.015001778
209	0x3b911b43	0.0044282987
210	0x3c21b237	0.00986915
211	0xb8842604	-6.3013315e-05
212	0xbb79953c	-0.0038083335
213	0x3c346c16	0.011012098
214	0x3bf8835f	0.00758402
215	0xbc262684	-0.010141019
216	0x3e20b468	0.1569382
217	0xbb9ee06b	-0.00484853
218	0xbd737fab	-0.059447926
219	0x3e2ff744	0.17184168
220	0xbc8d62fb	-0.017259112
221	0xbdc7d77c	-0.09757897
222	0x3e075b16	0.1321834
223	0xbd864ef2	-0.065580264
224	0xbe174821	-0.14773609
225	0xbd28cccc	-0.041210935
226	0xbb53b359	-0.0032302944
227	0x3d610dfa	0.05494497
228	0xbdf7c250	-0.12097609
229	0xbc1cfe34	-0.009582091
230	0x3e632407	0.22181712
231	0xbd828e99	-0.063748546
232	0x3c8f6127	0.01750238
233	0x3e8296f8	0.25505805
234	0xbc4e0948	-0.012575455
235	0xbbbba164	-0.0057260264
236	0x3d9e81bb	0.07739588
237	0x3def1bee	0.11675249
238	0x3d7a638c	0.06113009
239	0x3bcf6bf6	0.0063300086
240	0x3e0ba756	0.13638052
241	0x3d672e0b	0.056440394
242	0xbb46770f	-0.0030283367
243	0x3dabc03e	0.08386277
244	0xbd93800a	-0.07202156
245	0xbe0c389b	-0.13693468
246	0x3f12b180	0.57302094
247	0x3eab6d40	0.3348179
248	0x3d9f6e00	0.07784653
249	0x3e36869b	0.17824785
250	0x3defb2c1	0.117040165
251	0xbda89b09	-0.082326956
252	0x3c007c3f	0.007842123
253	0x3b846727	0.004040617
254	0x3c35fc00	0.011107445
255	0xbc12a9f7	-0.008951656

dense1.3.bn1.weight f4 [60]
0	0x3e84599d	0.2584962
1	0x3e7b3f0d	0.2453577
2	0x3e516448	0.2044841
3	0x3efe6172	0.4968372
4	0x3f06e9e8	0.5270066
5	0x3e511af9	0.20420446
6	0x3f9f5fdd	1.245113
7	0x3ea698b1	0.3253837
8	0x3ef6c426	0.48196524
9	0x3e8a82b9	0.27052858
10	0x3ddfb1e0	0.10922599
11	0x3e5f50d5	0.21808179
12	0x3e46f0d8	0.19427812
13	0x3e347325	0.17622049
14	0x3f352ece	0.70774543
15	0x3e0e0a91	0.13871218
16	0x3e87160c	0.26384008
17	0x3dc6e8ee	0.097123966
18	0x3e4356cc	0.19076079
19	0x3e2e719f	0.1703553
20	0x3fad2736	1.3527591
21	0x3e8744cf	0.26419684
22	0x3e04ab38	0.1295594
23	0x3dd58794	0.1042625
24	0x3e6ac6e0	0.22927427
25	0x3f57a0ce	0.84229743
26	0x3ee10e57	0.43956253
27	0x3f506d9f	0.8141727
28	0x3e909d85	0.28245178
29	0x3ed5bb16	0.41744298
30	0x3f3b1f6f	0.7309484
31	0x3f763f34	0.9619019
32	0x3eb8fc60	0.36130047
33	0x3efa82b8	0.48927855
34	0x3e00e818	0.12588537
35	0x3f38f1cc	0.7224395
36	0x3f642a26	0.89126813
37	0x3f69c735	0.9131959
38	0x3de1a762	0.11018254
39	0x3f7f334c	0.9968765
40	0x3f15e1fb	0.58547944
41	0x3e29e94e	0.16592905
42	0x3e16c2dc	0.1472277
43	0x3f093339	0.53593785
44	0x3eed26f3	0.46318778
45	0x3ecd3348	0.40078187
46	0x3f998374	1.1993241
47	0x3ec54957	0.38532516
48	0x3f660f08	0.89866686
49	0x3eb205c4	0.34770024
50	0x3e1da43e	0.15394685
51	0x3f097911	0.5370036
52	0x3e972333	0.29519042
53	0x3e0d09f7	0.13773333
54	0x3fcb9dba	1.5907509
55	0x3f36cee0	0.71409416
56	0x3fa41833	1.2819885
57	0x3e504e55	0.20342381
58	0x3d42dca9	0.04757372
59	0x3ec89dfa	0.39183027

dense1.3.bn1.bias f4 [60]
0	0xbdeb1feb	-0.11480697
1	0x3cfb153b	0.030649772
2	0xbdf3f2d3	-0.119115494
3	0x3e2ea946	0.1705676
4	0x3d260ff3	0.040542554
5	0x3c77d22f	0.015125795
6	0xbc251682	-0.010076167
7	0x3b9f145a	0.004854721
8	0xbe2dd852	-0.16977051
9	0xbc7fa97a	-0.015604371
10	0xbcb402f6	-0.021974068
11	0xbce4d991	-0.027935775
12	0xbca3056d	-0.019900048
13	0xbc8d2ca6	-0.017233204
14	0x3e5012cd	0.20319672
15	0xbe4fb593	-0.20284109
16	0xbe3e3d28	-0.18578017
17	0xbdcf98f7	-0.101365976
18	0xbc07a9e4	-0.008280251
19	0xbda15db7	-0.07879203
20	0x3e051c84	0.12999159
21	0x3ce9902c	0.02851113
22	0xbdb0167c	-0.085980386
23	0xbd484978	-0.04889819
24	0xbe0b0f2b	-0.13580005
25	0xbdda6e53	-0.10665574
26	0xbe9cadc6	-0.3060133
27	0xbe9352f9	-0.2877424
28	0xbe0c92e8	-0.13727915
29	0xbe3aa13b	-0.18225567
30	0xbddc69dd	-0.10762379
31	0xbf0e3243	-0.55545443
32	0xbe8a7d6b	-0.2704881
33	0x3df812be	0.1211295
34	0xbdd6c952	-0.104876176
35	0xbe1eda7e	-0.15513036
36	0xbe9b1e61	-0.30296615
37	0x3ed7edc9	0.42173603
38	0xbe47f9c3	-0.1952887
39	0xbe5558d8	-0.20834672
40	0xbeab1a06	-0.33418292
41	0xbe3aa838	-0.18228233
42	0xbd87453c	-0.06605002
43	0x3ceb92b4	0.028756477
44	0xbe246fd0	-0.16058278
45	0xbd43eb66	-0.047831915
46	0x3e6b7448	0.22993577
47	0xbde1e446	-0.11029868
48	0xbcd44154	-0.025910057
49	0x3d7bb05e	0.061447494
50	0xbbd96212	-0.0066340053
51	0xbd6cbc68	-0.057796866
52	0x3df7e8ea	0.12104972
53	0xbd757e2e	-0.059934787
54	0x3d46d39a	0.048541643
55	0x3d6b6736	0.057471476
56	0x3dca80a6	0.09887819
57	0xbba10ed0	-0.004915096
58	0xbc19d401	-0.009388925
59	0x3c5c68f2	0.013452755

dense1.3.conv1.weight f4 [12, 60, 3, 3]
0	0x3d2d9e4f	0.042387303
1	0xbcb2ae7c	-0.021811716
2	0x3b0064cc	0.001959133
3	0x3d08ec9e	0.03342878
4	0xbd541e83	-0.05178691
5	0xbd738321	-0.059451226
6	0x3d166b46	0.036723398
7	0xbcdf67cb	-0.027271172
8	0xbc915b19	-0.017743634
9	0x3ba51c92	0.0050388062
10	0xbb570910	-0.0032811798
11	0xbc958366	-0.018251132
12	0xbc45bac4	-0.012068454
13	0xbca88de5	-0.020575473
14	0xbc6e9a10	-0.014563099
15	0xbc8cb515	-0.01717619
16	0xbc2e2bbd	-0.010630545
17	0xbb9d3c5e	-0.004798456
18	0x3bca5d43	0.0061756684
19	0x3c666703	0.014062646
20	0x3c879f33	0.016555404
21	0xbb969013	-0.0045948117
22	0xbc64c0fd	-0.013962028
23	0xbbbec700	-0.0058220625
24	0x3b951185	0.0045492076
25	0xbc8cffa1	-0.017211737
26	0xbb4acf42	-0.003094629
27	0x3c51c293	0.012802738
28	0xbb8210d1	-0.00396929
29	0x3d026bdb	0.03184114
30	0x3dafbfd4	0.0858151
31	0x3d39662c	0.045263454
32	0x3dd8fc43	0.1059499
33	0xbbe470c3	-0.00697145
34	0xbd19cc70	-0.037548482
35	0x3d45bd8c	0.04827647
36	0x3e329a25	0.17441614
37	0x3e125a89	0.14292349
38	0x3cae42de	0.02127212
39	0x3e0ccd7b	0.1375026
40	0x3dd5d6fb	0.10441395
41	0xbc8fed67	-0.017569257
42	0x3d943551	0.07236732
43	0x3d41dfbb	0.047332507
44	0xbd5bb663	-0.053640734
45	0xbc82872c	-0.015933596
46	0xbc23e0f6	-0.010002365
47	0xbb9fb093	-0.004873344
48	0xbc492bbe	-0.012278495
49	0xbc0023f9	-0.007821077
50	0xbc8d0cc1	-0.017217996
51	0xbc0597c7	-0.008153862
52	0xbbeb777d	-0.007185875
53	0x3ae75104	0.0017648046
54	0xbded13c7	-0.11576038
55	0xbe41e119	-0.18933524
56	0x3df91bc6	0.121635005
57	0xbd38c63e	-0.045110933
58	0xbe017b17	-0.12644611
59	0x3df0daec	0.11760506
60	0x3bec13dc	0.007204516
61	0xbe0fce7f	-0.14043616
62	0x3c8f75cf	0.01751223
63	0x3da7076c	0.081557125
64	0x3d483480	0.048878193
65	0x3d2dbcf5	0.04241653
66	0x3cb00a0e	0.02148917
67	0x3b84f31d	0.0040573017
68	0x3c676e82	0.014125468
69	0xbc69d909	-0.014272937
70	0xbcbd80a2	-0.023132626
71	0xbc5ce569	-0.01348243
72	0x3da92ceb	0.082605205
73	0x3df39912	0.1189443
74	0x3e4c06e0	0.19924498
75	0x3cbddf82	0.023177866
76	0x3d455d9f	0.048184987
77	0x3dbaa2dc	0.09113094
78	0xbce0af85	-0.027427444
79	0x3a743d32	0.000931698
80	0x3ce6cc5b	0.028173616
81	0x3b0b0032	0.0021209833
82	0xbcb999fe	-0.022656437
83	0xbc91f88c	-0.017818712
84	0x3c8a6e4d	0.016898299
85	0xbcb40b22	-0.021977965
86	0xbd2ffaf7	-0.042963948
87	0xbbb5d2ca	-0.0055488097
88	0xbce98f3d	-0.028510684
89	0xbcccfabf	-0.025021909
90	0x3cb13618	0.02163224
91	0xbaa1802d	-0.0012321525
92	0x3c13bbdf	0.00901696
93	0xbc22da5c	-0.009939756
94	0xbcde6c97	-0.027151389
95	0xbb47cd1f	-0.0030487252
96	0xbc439b48	-0.011938877
97	0xbceb377f	-0.028712986
98	0xbcb4b5b0	-0.022059292
99	0xbc467633	-0.012113142
100	0xbc2918a0	-0.010320812
101	0x3bbda56b	0.0057875416
102	0xbc97f50c	-0.018549465
103	0xbce1a1ef	-0.027543036
104	0xbca31459	-0.019907163
105	0xbbce4032	-0.006294274
106	0xbd1b69eb	-0.037942808
107	0xbb0981ad	-0.0020981834
108	0x3c2d5494	0.010579247
109	0x3b8f89f4	0.004380459
110	0xbb2570de	-0.0025244276
111	0x3ba44890	0.005013533
112	0xbc0ee2e0	-0.008721083
113	0x3b240c91	0.0025031904
114	0x3ba5bd21	0.0050579463
115	0x3a452507	0.0007520471
116	0xbac5c556	-0.0015088718
117	0x3cead658	0.02866666
118	0x3d097848	0.033561975
119	0x3d056e8f	0.03257614
120	0x3cf5346b	0.029932221
121	0x3cabeedb	0.020987919
122	0x3c901d27	0.017592026
123	0x3ca827ca	0.020526785
124	0x3bef58f5	0.0073043057
125	0xbb619c93	-0.00344256
126	0xbda3b606	-0.079937026
127	0xbd7d0176	-0.06176897
128	0x3d06eab4	0.032938674
129	0x3cc18fb9	0.023628103
130	0x3c17b528	0.0092595
131	0x3de5934e	0.11209737
132	0xbd3e7711	-0.04650027
133	0xbd53aebf	-0.051680323
134	0x3c7c7796	0.015409371
135	0xbaa0dd61	-0.0012273007
136	0x3c326d03	0.010890248
137	0x3d284707	0.041083362
138	0xbbab8d45	-0.0052353465
139	0x3b85ed91	0.004087158
140	0x3d29ce21	0.041456345
141	0xbcc34062	-0.023834411
142	0xbc448a23	-0.011995825
143	0x3d180e9b	0.037123304
144	0x3ccd3d50	0.02505365
145	0x3cf25c52	0.029585037
146	0x3d4ec302	0.050478943
147	0x3ce9a430	0.028520674
148	0x3cacc731	0.021091076
149	0x3d4b06e8	0.049567133
150	0x3d56958d	0.052388716
151	0x3d1e6aaf	0.03867596
152	0x3cf3c3db	0.029756477
153	0x3cf94408	0.030427948
154	0x3c9f7c21	0.019468369
155	0xbb172735	-0.002306414
156	0x3d004151	0.03131229
157	0x3d15ebca	0.03660182
158	0xbc12f7d1	-0.008970217
159	0x3cb3676d	0.021899903
160	0x3c30d29b	0.0107924
161	0xbae3c413	-0.001737716
162	0x3d894a77	0.06703656
163	0x3d8c79ff	0.068592064
164	0x3d9479b9	0.07249779
165	0x3d82e5b9	0.06391472
166	0x3d606212	0.054781027
167	0x3d43af61	0.047774676
168	0x3d28a985	0.04117729
169	0x3cee0902	0.02905703
170	0x3cc440ad	0.023956621
171	0x3ce244fb	0.027620783
172	0x3c932eaa	0.017966587
173	0x3d1bf39e	0.03807413
174	0x3cfd443f	0.030916331
175	0x3cf9aa05	0.03047658
176	0x3cc691c8	0.024239436
177	0x3ce15362	0.02750558
178	0x3cb04d17	0.021521134
179	0x3cdb3d9a	0.026762772
180	0x3e28832a	0.16456285
181	0xbe174379	-0.14771833
182	0xbe9e42f5	-0.3091046
183	0x3d89d53f	0.067301266
184	0xbe2d8f20	-0.16949129
185	0xbe7a17be	-0.2442312
186	0xbd35e4a6	-0.04440751
187	0xbe44cdd9	-0.1921915
188	0xbe50fe2e	-0.20409462
189	0x3cac3c98	0.021024987
190	0x3ca099b7	0.019604547
191	0x3d88abe6	0.06673412
192	0xbcb64ff5	-0.022254923
193	0xbc859e67	-0.016310884
194	0x3d168160	0.036744475
195	0xbb44be1a	-0.0030020536
196	0xbc25806a	-0.010101417
197	0x3d38962f	0.0450651
198	0x3c71bb12	0.014754074
199	0x3c5a03db	0.013306583
200	0x3b1a005a	0.0023498745
201	0x3c412354	0.011788208
202	0x3bbaf2dd	0.005705221
203	0xbb01f2ae	-0.0019828486
204	0xbc52bab2	-0.012861894
205	0x3b84a8e9	0.004048456
206	0x3c2c964a	0.010533879
207	0x3af56d94	0.0018724673
208	0x3c78bb35	0.015181352
209	0x3c97905e	0.018501457
210	0xbbcda82d	-0.0062761516
211	0x3b3bbbde	0.0028645913
212	0x3cc10e00	0.023566246
213	0x3c564b21	0.013079436
214	0x3c70055c	0.014649715
215	0x3c73bce9	0.014876583
216	0x3c53eb97	0.012934587
217	0xbc6a22f8	-0.014290564
218	0x3d3cc568	0.0460867
219	0xbb762f04	-0.0037564645
220	0xbc4ce637	-0.012506059
221	0x3cce9e89	0.02522208
222	0xbc84d8be	-0.016216632
223	0xbc6d1cc9	-0.014472195
224	0x3d0a9802	0.033836372
225	0xbd081c04	-0.033229843
226	0xbe146b4f	-0.1449406
227	0xbd8a97c0	-0.06767225
228	0xbd367e0a	-0.044553794
229	0xbd7f6e46	-0.062361024
230	0x3d109e23	0.03530706
231	0xbd53d111	-0.051713053
232	0xbd1cc601	-0.03827477
233	0x3cbe4bb2	0.023229454
234	0xbc1425db	-0.009042229
235	0xbbcf9467	-0.0063348296
236	0x3bd204b0	0.00640925
237	0xbd1b99c6	-0.037988447
238	0xbd66dfac	-0.056365654
239	0xbd0cd29b	-0.034380537
240	0xbd2feb2f	-0.042948898
241	0xbd3b861a	-0.045782186
242	0xbc9230d2	-0.017845545
243	0x3db1c0b4	0.08679333
244	0xbcd7c2c9	-0.026337998
245	0xbdf3d548	-0.119059145
246	0x3daca3d5	0.08429686
247	0xbd3d7a3e	-0.046259157
248	0xbe089976	-0.1333979
249	0x3dbaaceb	0.09115013
250	0xbdcb0ac2	-0.09914161
251	0xbe2bd278	-0.16779506
252	0x3b450c9c	0.003006733
253	0x3c06adcb	0.008220146
254	0x3d00a173	0.03140397
255	0xbc05c58e	-0.0081647765

dense1.4.bn1.weight f4 [72]
0	0x3f277dc9	0.6542631
1	0x3ea72756	0.32647198
2	0x3f171f88	0.5903249
3	0x3f73b775	0.9520181
4	0x3f83d15f	1.029827
5	0x3e24bfe6	0.16088828
6	0x3ee32769	0.44366005
7	0x3f080670	0.5313482
8	0x3f9bef62	1.2182429
9	0x3e5d6c35	0.21623309
10	0x3e3fbd2b	0.18724506
11	0x3dcab446	0.09897666
12	0x3df8980e	0.12138377
13	0x3eaa3b5a	0.33248407
14	0x3f49e192	0.7885982
15	0x3f1e1d5e	0.6176356
16	0x3f15c374	0.5850136
17	0x3f09be7d	0.5380629
18	0x3e87285d	0.26397982
19	0x3ecde6b1	0.40215066
20	0x3f099128	0.53737116
21	0x3e48d8eb	0.19613998
22	0x3d940db4	0.07229176
23	0x3e002be0	0.12516737
24	0x3ea121c3	0.3147107
25	0x3f66cbda	0.901548
26	0x3f01b9d7	0.50674194
27	0x3e36f6eb	0.17867629
28	0x3e6e89ee	0.23294804
29	0x3e37b3b9	0.17939653
30	0x3ec32540	0.38114357
31	0x3e9c1cee	0.30490822
32	0x3eceb45e	0.40371984
33	0x3ef8c5b9	0.4858835
34	0x3ebfbb4f	0.37447593
35	0x3f0695a8	0.5257211
36	0x3f1928d1	0.59827906
37	0x3f86b6ed	1.0524575
38	0x3e7284c7	0.23683463
39	0x3e59be08	0.21263897
40	0x3ec43234	0.38319552
41	0x3d93a9dd	0.07210133
42	0x3eab39a1	0.33442405
43	0x3f0db4aa	0.55353796
44	0x3e9e3c2e	0.30905288
45	0x3f1bdba1	0.60882
46	0x3f5c856b	0.8614108
47	0x3ed6229d	0.41823283
48	0x3eb47ca3	0.3525134
49	0x3e286c1d	0.16447492
50	0x3eab7951	0.33490995
51	0x3ee5038b	0.44729266
52	0x3ea1c87d	0.31598273
53	0x3e78be45	0.24291332
54	0x3eba098a	0.36335403
55	0x3e9a5faf	0.30151126
56	0x3f9c7dfd	1.2225949
57	0x3e95898c	0.29206502
58	0x3e4a66a8	0.19765723
59	0x3f1e9373	0.6194374
60	0x3e58f90f	0.21188758
61	0x3e31cf70	0.17364287
62	0x3fc5d82a	1.5456593
63	0x3e6f385a	0.2336134
64	0x3e0dd73d	0.13851638
65	0x3da29fe5	0.07940654
66	0x3dca98a0	0.09892392
67	0x3f5b6613	0.8570263
68	0x3d8b2104	0.067934066
69	0x3f254ec7	0.6457333
70	0x3e9a6aef	0.3015971
71	0x3e2ef370	0.17085052

dense1.4.bn1.bias f4 [72]
0	0xbf15a349	-0.5845228
1	0x3b1277c0	0.0022349209
2	0xbea6e4e1	-0.32596496
3	0xbd0b8713	-0.034064364
4	0xbebe73d5	-0.37197748
5	0xbc801260	-0.015633762
6	0xbd847993	-0.06468501
7	0x3bd2621e	0.006420388
8	0x3e099ea5	0.13439424
9	0x3b91579d	0.004435493
10	0xbcf6ac3e	-0.030111428
11	0xbdab672c	-0.08369288
12	0xbd2c690b	-0.042092364
13	0xbe0302ee	-0.12794086
14	0x3cf71e84	0.030165918
15	0xbe34231a	-0.17591515
16	0xbefd11ea	-0.4942773
17	0xbe9c5325	-0.30532184
18	0xbe80b23f	-0.2513599
19	0xbead888f	-0.33893248
20	0xbe8c0623	-0.27348432
21	0x3dafc0d8	0.08581704
22	0x3c9c57cf	0.01908484
23	0x3d44f660	0.048086524
24	0x3d486a39	0.048929427
25	0x3d553d81	0.052060608
26	0xbe548c78	-0.2075671
27	0xbe3a8cb7	-0.18217741
28	0xbbf4ad1f	-0.0074669267
29	0xbd7c73d5	-0.061633904
30	0xbd051b66	-0.032496832
31	0xbd5b739e	-0.053577058
32	0xbe2897ce	-0.16464159
33	0xbdea40e6	-0.1143816
34	0xbe071980	-0.13193321
35	0x3c62a4ce	0.013833238
36	0xbe176ab8	-0.14786804
37	0xbe149786	-0.14510927
38	0xbeec15e8	-0.46110463
39	0xbcccc539	-0.024996387
40	0xbe23be3d	-0.15990539
41	0xbdb6afc3	-0.08920243
42	0xbd90e356	-0.07074611
43	0xbe0d35c7	-0.13790046
44	0x3c1d0a6d	0.009585005
45	0x3e189054	0.14898807
46	0xbdd276a1	-0.10276533
47	0x3ed943b8	0.42434478
48	0x3d48cf0b	0.049025577
49	0x3d6f395e	0.05840432
50	0x3c18a8d7	0.009317598
51	0x3ca9f5ed	0.02074715
52	0x3d72873a	0.059210993
53	0xbd7d96e1	-0.061911467
54	0x3cba5e03	0.022749906
55	0xbdafa1d3	-0.085757874
56	0xbe3492a9	-0.17634071
57	0x3c8c0feb	0.017097434
58	0x3d259bb5	0.040431697
59	0x3e2707b0	0.16311526
60	0xbd0b2ba2	-0.03397716
61	0xbd3e4be1	-0.046459083
62	0xbe890d26	-0.26767844
63	0x3cf29743	0.029613143
64	0xbc62ae26	-0.013835466
65	0x3cd4d876	0.025982123
66	0xbd16ed11	-0.036847178
67	0x3d3d3707	0.046195056
68	0xbdae3127	-0.08505469
69	0x3ddea499	0.10871238
70	0x3c73485b	0.014848794
71	0x3d07d269	0.033159647
