independent_train_0.0/client48/checkpoint_0.0.pth (torch, 930411 bytes, 56 tensors)

conv1.weight f4 [24, 3, 3, 3]
000000 0d 8f 42 3e 4d e3 c7 be 15 38 ac 3e 8b 70 88 bf
       0.18999882 -0.39040604 0.33636537 -1.0659345
000010 fc 6e d8 bf 60 e0 4e bf e0 91 51 bf bc 8a bf bf
       -1.690887 -0.8081112 -0.8186321 -1.4964213
000020 d9 66 19 bf ab fe 7a 3e e9 6d c7 3e f7 34 8c 3e
       -0.5992256 0.2451121 0.38951042 0.2738416
000030 e2 b8 e2 3e b2 1e 33 3f 6b 58 0c 3f eb ca 80 3e
       0.4428168 0.6996871 0.54822415 0.25154814
000040 af 8b dc 3e 61 e9 c0 3e 1c f5 20 bf 2c 62 11 be
       0.4307532 0.37678054 -0.6287401 -0.14197606
000050 ad f1 53 bf 7d 55 fd 3e 6d 51 99 3f b6 0e b3 3e
       -0.8279064 0.49479285 1.1977974 0.3497216
000060 bd bf 9d 3e 54 69 70 3f d5 97 46 3e 72 57 dc 3d
       0.30810347 0.9391072 0.19393857 0.10758866
000070 29 e3 d2 3e 74 06 1e 3e 8f 3a 71 bf 99 9c 8a 3e
       0.41188934 0.15432149 -0.9422998 0.270726
000080 65 28 99 3e 49 12 5b bf 4f e6 d1 ba de 3c 91 3e
       0.2991363 -0.85574776 -0.0016014072 0.2836675
000090 d7 07 64 be e8 1d ca 3e 4e 97 3d be e8 f8 53 bf
       -0.22268616 0.39475942 -0.1851475 -0.82801676
0000a0 86 29 46 3f 36 ce ea 3e 39 1b 51 bf 58 47 f1 3e
       0.7740711 0.4586045 -0.81682163 0.47124743
0000b0 94 ee e4 3e b4 97 87 be 43 57 ef 3d 64 27 fa be
       0.4471327 -0.26482928 0.11686566 -0.48858178
0000c0 02 31 f7 be 8c e7 43 3f 22 ab 81 3e 62 62 db be
       -0.48279577 0.7652519 0.25325876 -0.42848498
0000d0 19 ea 2c 3f 49 c1 c0 3e b8 8a ba 3c 7d 5a 82 be
       0.67544705 0.37647465 0.022771224 -0.25459662
0000e0 56 f5 d6 bb 72 79 e6 be dc b3 3b bf e0 35 e8 be
       -0.006560008 -0.4501453 -0.7332132 -0.45353603
0000f0 cc 9d 87 be 35 05 0d bf a6 2a 99 be 69 ab 69 3e
       -0.26487577 -0.5508607 -0.2991535 0.22819294
000100 1e fc a3 3e fd e0 7e 3e 93 46 47 3e d0 b1 a9 3e
       0.32028288 0.24890514 0.19460516 0.33143473
000110 80 0f 84 3e 70 3a 3f 3e c0 df 93 3e 44 5d 6d 3e
       0.25793076 0.18674636 0.28881645 0.2318011
000120 1d b3 0a bd 43 0c 72 3e 13 7d 5b bd 51 f5 85 3e
       -0.033862222 0.2363749 -0.053586077 0.26163724
000130 8f 6d 20 3f 7a 4f 85 3e 1d d3 fd 3d 5a 5a e0 3e
       0.62667173 0.26037198 0.12393782 0.43818933
000140 b8 7d bc 3d f6 66 60 be ff 96 96 bf 07 30 15 bf
       0.092036664 -0.21914276 -1.176483 -0.5827641
000150 5c a8 91 3d a3 c5 7e bc 5a d5 80 3e 91 c0 6e bc
       0.0711219 -0.01555005 0.25162774 -0.014572279
000160 74 49 20 3f ec c3 fb 3e fe 31 6b be 53 04 99 bf
       0.6261208 0.49172914 -0.2296829 -1.1954445
000170 cb 63 4a bf ac bc 9b 3e d6 d5 63 3e 7a 78 91 3e
       -0.7905852 0.30417383 0.2224954 0.2841223
000180 19 18 59 3e 48 d5 65 3f d0 3f 0b 3f 2a 3c 6b be
       0.21200599 0.89778566 0.54394245 -0.2297217
000190 2f d7 92 bf b1 62 4b bf a8 c8 85 3e 3c 18 a3 3d
       -1.1471919 -0.79447466 0.2612965 0.07963607
0001a0 35 35 18 3e 87 e0 c7 3e 56 90 63 3f d1 b3 1e 3f
       0.14864047 0.39038488 0.88892114 0.6199313
0001b0 c1 d7 55 bf 77 2a 37 bf 43 96 7a bf ec eb 44 3d
       -0.8353234 -0.7154917 -0.9788553 0.048076555
0001c0 3f 34 1d 3f ec 36 22 be cb 97 1d 3f 58 06 8f 3f
       0.61407846 -0.15841264 0.6155974 1.1173811
0001d0 d3 7f c5 3e 52 08 14 3e e7 c9 e0 3e 28 2c 47 3d
       0.38574085 0.14456299 0.4390404 0.048626095
0001e0 f4 62 d6 3e fe 16 87 3f 7e b2 87 3e be 2d 5d 3e
       0.4187237 1.0553892 0.26503366 0.2159948
0001f0 58 07 31 3f 3c 52 9e 3d 7d 4a 1b 3f b5 9a 6a 3e
       0.6915183 0.07730529 0.60660535 0.22910579
000200 77 3d 65 3f 06 80 33 bf 55 c3 73 bf d8 26 99 be
       0.8954691 -0.70117223 -0.9521993 -0.29912448
000210 0c eb 6b bf 67 9c ac bf 7d 1d 07 bf 0d 7f 02 bd
       -0.9215553 -1.348523 -0.5277937 -0.031859446
000220 72 d4 fb be 63 1e 31 bd 56 d5 83 bd 47 52 38 3e
       -0.4918552 -0.04324187 -0.06437175 0.18000136
000230 75 f1 66 3e d3 d7 81 be b2 b6 b2 be 07 9b 88 be
       0.22553046 -0.25359973 -0.3490501 -0.26680776
000240 9b e1 43 be 21 c2 be be b2 f5 82 be f3 dd 7f 3e
       -0.1912903 -0.37257484 -0.25578076 0.2498701
000250 8e 2a 65 3f d8 df 0f 3f fe 2d 98 bd 8b 44 7a 3e
       0.8951806 0.56200933 -0.07430647 0.2444021
000260 d4 2b 53 bd cf f4 0a bf 92 8d 37 bf 9d ff 38 bf
       -0.05155547 -0.542798 -0.71700394 -0.72265035
000270 63 13 17 3e 23 03 3c 3f 03 b4 9f 3e aa 95 ca 3d
       0.14753489 0.73442286 0.31192026 0.098918274
000280 cd 62 e5 3e fe f8 cb 3d 08 22 1d 3f 08 4d 93 3d
       0.44801942 0.09959601 0.6138005 0.07192427
000290 bb 52 a7 be db 05 9a 3f 9f 50 7c be 2e 34 c3 bf
       -0.32680306 1.2033037 -0.2464013 -1.5250299
0002a0 a7 fa f6 3d aa e6 a5 bd 4b 9b 0a be 38 af 83 3f
       0.12059527 -0.08100636 -0.13535802 1.0287848
0002b0 95 e9 51 3d ee be 5d bf a3 75 e7 3f 85 c5 a1 bd
       0.05124815 -0.8661946 1.8082775 -0.07899002
0002c0 a3 78 f9 bf e5 03 23 3f 7f 6b cd 3d 2c ac ce be
       -1.948994 0.6367782 0.10030269 -0.40365732
0002d0 a4 f9 e3 3e da 4a 84 3c c2 3e ee be cd 16 95 3f
       0.44526398 0.016148973 -0.46532255 1.1647583
0002e0 72 88 99 bd 3a 36 ba bf 4a 5c 9c 3e b8 35 e3 3d
       -0.07496728 -1.4547799 0.3053916 0.110942304
0002f0 3a 90 35 be be 17 1d bf b0 d2 df bd 56 be e8 be
       -0.177308 -0.6136435 -0.10928857 -0.45457715
000300 61 79 7b be cc 5b 39 3e 12 ce f4 3d 48 f9 38 be
       -0.24558021 0.18101424 0.11953367 -0.18063843
000310 73 ea 8c be 64 2f d7 3e bb 12 87 3e ad 7e 62 3f
       -0.2752262 0.42028344 0.26381478 0.8847454
000320 f1 7f 9a 3d bf 78 92 3e f6 6a 54 3f 42 9c b9 3e
       0.07543934 0.28607747 0.8297571 0.36252028
000330 3d 78 1f bf ae 3d 1e bf 70 1f 16 be ae 54 86 3e
       -0.62292844 -0.61812866 -0.1466043 0.2623648
000340 0c 99 37 3f db b1 ae bd 95 00 d1 3e a0 1e 45 3f
       0.71717906 -0.08530017 0.40820757 0.76999855
000350 8c b3 13 3e 9e 82 39 bf 1b 12 55 bf 50 0c 26 bf
       0.1442396 -0.7246493 -0.8323075 -0.6486254
000360 43 91 5f 3f 16 97 ea 3f 44 95 9b 3f cc b5 70 bc
       0.87331027 1.8327358 1.2154927 -0.014691781
000370 e6 82 61 be b5 ca 2a bd e9 62 5d bf 29 a4 f1 bf
       -0.2202259 -0.041697223 -0.8647905 -1.8878223
000380 3f 0b 68 bf 7a 44 12 3f d2 c6 b3 3f b2 4e 1d 3f
       -0.9064216 0.57135737 1.404505 0.61448205
000390 29 47 04 3e 9f 8e fa bd b4 86 34 be b7 94 00 bf
       0.1291777 -0.12234234 -0.1762951 -0.5022692
0003a0 b8 96 c1 bf b4 48 35 bf 88 18 58 be fc 90 2c 3f
       -1.5124121 -0.7081406 -0.21103108 0.6740873
0003b0 9d 98 c0 3b 0b 0b df 3d bc 92 45 3e a6 bf b6 3d
       0.005877568 0.10890778 0.19294256 0.08923273
0003c0 d6 77 65 bd 79 46 19 bf ef 28 a2 bc 27 03 c2 be
       -0.056022488 -0.5987316 -0.01979491 -0.3789303
0003d0 90 b2 8c bd d4 01 44 3f 1e cf f7 3e fe 6d 82 3e
       -0.068699956 0.7656529 0.48400205 0.25474542
0003e0 3c bd ef bf 6c 9f 17 be 6b 34 52 3f 0f 69 cb be
       -1.8729625 -0.14806908 0.82111233 -0.3972859
0003f0 76 be 1f bf b5 0c 1d 3e 08 b7 4f 3f 68 b3 04 3f
       -0.62399995 0.15336879 0.8113866 0.5183625

dense1.0.bn1.weight f4 [24]
000000 15 9e de 3e 52 52 78 3f bf 7b 1f 3f 8b a2 46 3f
       0.43479982 0.9700061 0.62298197 0.7759177
000010 15 bc 2d 3f d1 0b 88 3f 9d 19 02 3f 7c f1 84 3f
       0.67865115 1.0628606 0.5082033 1.0386195
000020 45 e3 3a 3f e5 2c e6 3f b5 03 02 40 db 7c 26 3f
       0.73003036 1.7982451 2.0314763 0.65034264
000030 dd d9 80 3f ad 89 c6 3e 39 92 2c 3f f6 9e 0c 3f
       1.0066487 0.38776913 0.6741062 0.54930055
000040 cd b5 db 3e 18 2a b9 3e 91 d0 33 3f e4 b0 ed 3e
       0.4291214 0.36164927 0.7024012 0.4642402
000050 70 70 5a 3f f2 aa 2e 3f 7d 2e dc 3e ed 86 04 3f
       0.85327816 0.6822959 0.43004218 0.5176838

dense1.0.bn1.bias f4 [24]
000000 e4 a6 51 be 28 62 1b 3f 38 b0 c3 be 4a b9 e4 3e
       -0.2047382 0.6069665 -0.38220382 0.44672614
000010 da 4a 99 3e 80 7b c3 3e 58 c2 1f 3f bf 6f d4 3e
       0.2993992 0.3818016 0.6240592 0.41491506
000020 7b 81 16 3f 4d 7f 7f 3f a9 d0 93 3f cd b7 86 3d
       0.5879132 0.9980362 1.1548053 0.06578026
000030 de d2 6d 3e 51 1e 74 3e 9c 66 6e 3e a7 04 15 bf
       0.2322497 0.2383969 0.2328133 -0.58210224
000040 1f 90 63 be ab 1c 51 be 2f 39 e2 be fb 92 78 be
       -0.22222947 -0.20421092 -0.44184253 -0.24274819
000050 8b 1f 2d bf 6b 38 0f bf 5f 1d a2 3e 0f ea 19 bd
       -0.67626256 -0.5594546 0.31663033 -0.03757673

dense1.0.conv1.weight f4 [12, 24, 3, 3]
000000 1d 94 e0 3b 28 46 05 3e c0 d7 7d bc fb 3a dc 3c
       0.006853594 0.13015044 -0.015493333 0.026883593
000010 e9 45 23 3e 96 51 d8 3c bd 0e 85 bd f2 1d 2a 3d
       0.15944637 0.02640609 -0.06496952 0.041532464
000020 ec 5b 97 bd 08 ca 73 3e c5 e5 b7 3e 77 f9 a9 3e
       -0.073905796 0.23807538 0.35917488 0.3319814
000030 08 49 ba 3d b1 fd 93 3e 0e be a4 3e 62 e5 93 be
       0.09095961 0.2890449 0.3217625 -0.28885943
000040 88 99 a7 bd 8f fe 96 bd 29 32 d8 3c 02 22 ef 3d
       -0.08183581 -0.07372772 0.026391106 0.11676408
000050 bf 45 14 bc 99 6c e8 3d 00 1a 39 3e f7 bb 69 3d
       -0.009049832 0.11348838 0.18076324 0.057064023
000060 80 72 dd 3d 85 c5 32 3e b1 f6 b6 3d 7d d2 36 bc
       0.10812855 0.1745816 0.089337714 -0.011158583
000070 68 d3 c7 3d f3 c6 14 3e 07 b8 f3 bc 48 ec 18 3e
       0.097571194 0.14529018 -0.029750837 0.14933884
000080 71 2f 47 3e ba 33 c5 3d 76 eb 78 3e 8e 18 69 3e
       0.19451691 0.09629007 0.24308571 0.22763273
000090 cd 43 c7 bc bf 09 62 be 66 53 59 be cd e1 9c 3e
       -0.024324322 -0.2207403 -0.2122322 0.30641022
0000a0 ba 80 fe 3d 1f fc 50 3d 44 ba 1f 3f de da 02 3f
       0.124268964 0.05102169 0.62393594 0.51115215
0000b0 52 d2 be 3e e2 c1 9a 3e ae 53 f8 3e 87 20 7d 3e
       0.37269837 0.30226046 0.48501343 0.2471944
0000c0 ac f4 10 3e 78 f5 b9 3e e6 3f 14 3e 8c 90 54 be
       0.14155835 0.3632009 0.144775 -0.20758265
0000d0 82 95 02 3d 6c 40 d5 bd fd c0 f9 3d 09 3b 0e 3e
       0.031880863 -0.10412678 0.12195013 0.13889708
0000e0 1a 00 84 3e 9a a0 69 3e bb e3 6a 3e eb fa 47 3e
       0.25781327 0.22815171 0.22938435 0.19529311
0000f0 68 a7 1f 3d e8 c8 25 be f3 bc 0a be 2d ef 07 bf
       0.03897801 -0.16189921 -0.13548641 -0.5309933
000100 ab 8d 63 be 80 97 45 be 80 a1 42 3d a0 52 d9 3e
       -0.22222011 -0.19296074 0.0475173 0.4244585
000110 8f b0 b9 3e 99 54 f4 3d c3 df 05 3f 29 95 c6 3e
       0.36267516 0.11930198 0.5229456 0.38785675
000120 5e 39 a3 3d 9c b4 83 3e fa c8 eb 3d fe d0 75 3d
       0.07969926 0.25723732 0.115129426 0.060013764
000130 4f f2 54 3e 4c fc c2 3d c4 8e 8d be 87 74 4e be
       0.20795558 0.09520778 -0.27647984 -0.20161639
000140 a0 53 2f be 45 7a 0e 3e 11 cd d4 3d a9 d1 ab be
       -0.17121744 0.1391383 0.10390676 -0.33558396
000150 5d b2 04 3f 88 d6 fa 3e 8e 04 08 be 2e 7b 10 3e
       0.5183466 0.489918 -0.13282987 0.1410949
000160 72 93 c9 3d 94 64 4d be c0 c7 b4 bd c4 21 b9 3d
       0.09842576 -0.20057899 -0.08827162 0.090396434
000170 32 8e a1 bd e7 d9 2e bb 5e 99 93 3e 8e 67 5d 3d
       -0.0788845 -0.0026680173 0.28827947 0.054053836
000180 5f 8d 61 be 24 d1 8b 3e 1e d4 ac 3d a0 d6 dc be
       -0.22026585 0.27308 0.08438896 -0.43132496
000190 30 66 85 be ef ce b3 3c 5a bc 5b be 68 f1 49 bc
       -0.26054525 0.02194926 -0.21458569 -0.012325622
0001a0 28 1c 67 3e 40 51 48 3e 56 d5 de 3e 4d f9 0a 3f
       0.22569335 0.19562244 0.43522137 0.5428665
0001b0 09 aa 96 be b4 34 a6 be ee 7a 4a bd 5f 53 c3 be
       -0.29426602 -0.32462084 -0.04943364 -0.38149545
0001c0 71 d3 d8 be f6 cb 07 be 07 08 45 be 98 83 69 be
       -0.42348817 -0.13261399 -0.19241343 -0.22804105
0001d0 bf 05 02 bb 2f 5a 2c be d9 4b 7a be c2 40 af bc
       -0.001983985 -0.16831277 -0.24442996 -0.021393184
0001e0 cc be 8c be 55 25 c5 be 8e b9 0a be af 81 d6 bd
       -0.27489316 -0.38505045 -0.13547346 -0.10473954
0001f0 91 5e 43 be 41 03 f4 3a 44 29 27 be a7 0b 66 be
       -0.19079043 0.0018616692 -0.16324335 -0.22465383
000200 56 f2 89 be dc 8c 17 be 4a 04 23 be 74 9f 5c be
       -0.269427 -0.14799827 -0.15919605 -0.21545202
000210 e0 dc aa bd 2d 3f e6 bd 13 8c 5d be 5d 91 af bb
       -0.0834291 -0.112425186 -0.21635465 -0.005357905
000220 eb 33 35 bb 6c 89 8f 3c b2 cc ea bd 03 43 d6 bd
       -0.0027649354 0.017521583 -0.11464824 -0.10462
000230 bf 36 8a bd 28 bd 0f be cb 0d eb bd 53 7c b6 bd
       -0.06748723 -0.14037001 -0.1147724 -0.08910432
000240 d1 27 bc 3c bb 3d ad bd c1 b0 96 3c 0b 58 80 bd
       0.022968205 -0.0845904 0.01839483 -0.06266793
000250 92 28 62 be af d8 0f be ad a2 3c 3d 5f f4 03 be
       -0.22085789 -0.14047502 0.046053577 -0.12886189
000260 0c 2a 96 bd 78 28 b1 bd e1 e0 3c bd 2e f8 15 be
       -0.073322386 -0.08650297 -0.0461129 -0.14645454
000270 c8 6b dc bc 61 21 ed bb 88 ee de bd d1 82 9c bd
       -0.026906863 -0.007236645 -0.1088534 -0.07642139
000280 c7 0a 61 bd a0 26 1d be 0a ca d3 bc 50 60 09 be
       -0.05494192 -0.15346766 -0.025853176 -0.13415647
000290 9f ee d4 bd 9c ae 3a be 26 55 93 be 07 da 84 be
       -0.10397076 -0.1823067 -0.287759 -0.25947592
0002a0 c8 13 50 bd 65 c1 05 be 6b ad c2 bd 18 82 d0 bd
       -0.050800115 -0.13062055 -0.09505733 -0.101810634
0002b0 14 ba 8f bd 62 eb 4e bc d7 61 13 be a0 60 e1 bd
       -0.070179135 -0.012629362 -0.14392792 -0.11004758
0002c0 72 77 3b bd eb 8f 60 bd 1d 19 1d bd ca fe e6 3c
       -0.04576821 -0.05482475 -0.038354028 0.028197665
0002d0 ea 49 35 bd a6 f9 5b bc 4f 2c 1c be 3b 4b b3 bd
       -0.044259943 -0.01342622 -0.15251277 -0.087545834
0002e0 8e ad 03 bd 8e 47 ab bd 96 6f ed bd 88 3c a9 bc
       -0.032147937 -0.08363257 -0.11593549 -0.020658746
0002f0 d9 90 d8 bd 51 76 04 be 76 b1 9d bd 65 ca 59 be
       -0.105745025 -0.12935759 -0.076998636 -0.21268614
000300 f4 d8 2e bd fb d4 4f 3c 77 d5 1c be 7a fd 60 bd
       -0.04268737 0.012685056 -0.15315805 -0.054929234
000310 ad b2 1a ba e8 31 0a be a4 3b ec bd 5d e0 29 be
       -0.00059012586 -0.134956 -0.11534813 -0.16589494
000320 ec a1 83 be be 52 09 be e7 19 47 be df c6 9f be
       -0.25709474 -0.1341047 -0.19443475 -0.31206414
000330 5a 79 78 be dd 5b 98 be 36 15 dd be b9 70 66 bd
       -0.24265042 -0.29757586 -0.43180245 -0.056259844
000340 da b4 5b bd 80 15 71 3d fe 35 f7 bd 23 01 fb bd
       -0.05363927 0.058858395 -0.12070845 -0.12256076
000350 26 e2 23 3c 44 b1 cf 3c 8c 73 2a 3d 02 a6 09 3e
       0.010002648 0.025353082 0.0416141 0.13442233
000360 e6 02 96 bc 78 fd 60 bd 17 04 b7 bc 61 7f 8e bc
       -0.018311929 -0.054929227 -0.022340817 -0.017394723
000370 cd 4e d1 bd 6f 18 4d bd 3a 56 09 3e 43 e7 ad 3d
       -0.10220108 -0.05007213 0.13411799 0.08491375
000380 47 bb b0 3d 3e e7 31 3d cd ff a9 3d e6 1c 3e 3e
       0.0862947 0.04343342 0.08300743 0.18565711
000390 1e ea 05 be 35 33 c9 bc d0 97 c2 3d 30 0d 7f 3d
       -0.1307759 -0.02456055 0.09501612 0.062268436
0003a0 32 9f 2d 3c bf c7 13 be ca fa 51 bd db 2d 4b bd
       0.010597037 -0.14431666 -0.05126456 -0.049604278
0003b0 82 06 5a bc 3d 0c 85 bd e5 8c b2 bd 5a d0 3c bd
       -0.013307216 -0.06496475 -0.0871828 -0.046097137
0003c0 44 23 46 3c 36 2c 24 bc ba 96 b3 3c 9e 22 01 bf
       0.012093369 -0.010020306 0.021922458 -0.50443447
0003d0 39 94 27 bf 8b 1c bb be 66 ea 2d be b0 85 e6 3b
       -0.65460545 -0.36545214 -0.16983947 0.0070349798
0003e0 4f 73 79 bd da 54 df 3e 2e 8c 2e 3f 70 0a 31 3e
       -0.060900982 0.43619424 0.6818265 0.17289138
0003f0 eb f7 4c be 46 af 95 be e6 c8 1c be 05 be d4 3c
       -0.20016448 -0.29235286 -0.15311012 0.025969515

dense1.1.bn1.weight f4 [36]
000000 8e 63 19 3f 24 f7 c9 3e 4d 9a 8e 3e 10 75 a1 3e
       0.59917533 0.39446366 0.27852097 0.31534624
000010 32 f6 39 3f bb a2 c1 3e e8 ec e4 3e 8d 5e 95 3e
       0.7264129 0.37819466 0.44711995 0.291737
000020 4e 49 c5 3e a3 32 f5 3e e1 a5 bd 3e 50 91 97 3f
       0.3853249 0.47890195 0.37040618 1.1841221
000030 fd 82 05 3e 6c 00 0d 3e d1 c2 99 3e 5e ba 47 3e
       0.1303825 0.13769692 0.30031446 0.19504687
000040 60 b3 90 3f 6e 4b 89 3f 46 7c 14 3f d3 1b 36 3f
       1.1304741 1.0726144 0.58002126 0.71136206
000050 2e 73 1f 3f 12 59 6b 3f e3 5e a2 3e 7d 5b c7 3e
       0.62285125 0.91932786 0.31713018 0.38936988
000060 a5 06 e2 3e 21 53 42 3f 10 b1 79 3f 90 d2 99 3f
       0.44145694 0.75908095 0.975358 1.2017384
000070 0a ad 0a 3f ae ae 30 3e 8a cf 73 3f ca 59 a7 3f
       0.54170287 0.17254135 0.95238554 1.3074276
000080 5b cf 47 3f bc 38 12 3f fc dc c8 3e c6 75 3b 3f
       0.78050774 0.5711782 0.39231098 0.73226583

dense1.1.bn1.bias f4 [36]
000000 f9 1e 38 3e 8d f6 34 be 08 d1 3e be 49 83 be be
       0.17980565 -0.17672177 -0.18634427 -0.37209538
000010 11 2d b2 3e 6e 2e 48 be 89 a9 63 3c cd 14 c5 bd
       0.34800008 -0.19548962 0.013895401 -0.09623108
000020 68 7f 08 3e fc 0e 09 3d b0 57 60 3d 4c 16 0d be
       0.13329852 0.033461556 0.054771125 -0.13778037
000030 11 4d 04 bc d2 a2 41 be 49 36 4a be 04 0b 30 be
       -0.008075015 -0.18909767 -0.1974727 -0.17191702
000040 1f 83 48 be ba b7 a4 3e d3 b9 77 be 15 5e b7 be
       -0.19581269 0.32171422 -0.2419198 -0.35813966
000050 2d dd e6 be e7 6b fb be 72 5e 9f 3d b0 28 59 be
       -0.4509062 -0.4910576 0.07781686 -0.21206927
000060 52 f5 92 be 8c 03 52 3f 3d cf ce 3e 45 9e 94 3d
       -0.2870279 0.8203666 0.40392485 0.0725675
000070 c8 3e 87 be 82 e7 30 be d2 c7 01 be 0b 3b 21 3f
       -0.26415086 -0.17275813 -0.12673882 0.6298072
000080 1d fa f2 bc 9a 78 2f be cc 6c de bd e4 7a 4d 3e
       -0.029660279 -0.1713585 -0.10860595 0.2006641

dense1.1.conv1.weight f4 [12, 36, 3, 3]
000000 af 52 ea bd c1 57 28 3e 94 76 de 3e c0 0e 90 be
       -0.11441552 0.16439725 0.43449843 -0.28136253
000010 05 19 d3 bb 56 98 99 3e d0 51 ae be 13 ef 49 be
       -0.0064421915 0.29999036 -0.34046793 -0.19720106
000020 30 ee b6 3d 1c c5 c9 bc 4a 4d c3 bc de 67 4c be
       0.089321494 -0.024630122 -0.023840565 -0.19961497
000030 46 42 a2 bd 9c 1c 46 bc c3 98 0e be 2a 36 07 bd
       -0.07922797 -0.012091782 -0.13925461 -0.03301064
000040 fa 55 03 bd 7f b3 58 bc f3 e4 8a bd 59 bf 2c 3d
       -0.032064416 -0.013226389 -0.0678195 0.04217467
000050 9e ac 12 3e c4 9d ab bd 16 bd 2f 3d ab 68 01 3e
       0.1432366 -0.08379701 0.042904936 0.12637584
000060 31 61 6f bd ac d8 eb 3c c1 67 ea 3d f1 8b 73 bd
       -0.0584423 0.02878984 0.11445571 -0.05945963
000070 75 5c 8c bb 1c fd 86 3d 73 a3 19 3d 64 54 85 bc
       -0.0042834827 0.065912455 0.037509393 -0.016275592
000080 d9 aa 99 3d 6f 61 ef 3d 24 37 1d 3d a3 16 fb 3d
       0.0750329 0.11688506 0.038382664 0.12260177
000090 40 be 14 be 21 9f e2 3e c5 d8 6f 3e 9c be 4d be
       -0.145257 0.4426203 0.23422535 -0.20092243
0000a0 7b 5b 90 3e 74 9d ad 3d 00 27 3f be 99 1c 58 bd
       0.28194794 0.084772974 -0.18667221 -0.052761648
0000b0 6b e2 40 be 48 9d fd bc 4b 70 1c bc 3e 20 e5 3b
       -0.18836372 -0.030958787 -0.009548257 0.006992369
0000c0 db e7 01 bd 20 fd 1a bd c0 b2 e1 ba 34 bf a1 bb
       -0.031715255 -0.037839055 -0.0017219409 -0.0049361233
0000d0 e4 4a d4 bc dd 80 02 3d e2 f2 18 be da c9 43 be
       -0.025914617 0.031861175 -0.14936402 -0.19119969
0000e0 f8 0b da be bb 6d 2b be 07 ce 93 bd a9 65 0a be
       -0.42587256 -0.16741078 -0.07217031 -0.13515343
0000f0 96 3c be 3c 1d 8c 01 3e 88 e0 c0 be 5e 8b 1f 3d
       0.023222249 0.12651105 -0.37671304 0.03895127
000100 48 b7 7f 3d a3 09 44 bc a7 30 8f bc e3 ee 26 3d
       0.06243065 -0.011965188 -0.017479254 0.040755164
000110 33 86 50 bd 92 f1 d8 bc 3a d6 d0 bb 97 e7 bc bc
       -0.050909232 -0.026482377 -0.006373194 -0.02305965
000120 76 16 d3 3c 1f ae 25 be 68 31 51 3d 43 1d 3f be
       0.025767546 -0.16179703 0.051072508 -0.18663506
000130 aa cc 58 3c 1c 7d b4 3d eb fe 83 bd a7 98 f6 3d
       0.013232389 0.08812925 -0.06445106 0.12040835
000140 83 06 90 bb 45 89 e9 bd bd 29 25 3c 90 08 d8 bd
       -0.0043953075 -0.11403135 0.010080752 -0.10548508
000150 21 48 1d be 30 6c b6 bc 23 c8 b6 bd 3f e3 45 bd
       -0.15359546 -0.022268385 -0.08924892 -0.048312422
000160 fa 8c 58 bd 0f f4 65 be 75 13 70 be 3a 64 00 3e
       -0.05286882 -0.22456382 -0.23444922 0.12538233
000170 79 70 c2 bc 55 ed 50 be 7e 93 8d 3d 5d 71 fe bd
       -0.023735272 -0.20403035 0.069128975 -0.12423966
000180 40 c4 25 bb 77 46 20 be c5 60 86 3c 62 1c f6 bb
       -0.0025293976 -0.1565188 0.016403565 -0.0075107077
000190 43 c0 9e 3d f0 e6 41 3e 2e 8f de bd e8 d6 1f bd
       0.07751515 0.18935752 -0.10867153 -0.03902331
0001a0 22 b1 05 3e 2a ad a6 bc 8e 91 a4 bd e1 28 90 3d
       0.13055852 -0.020346243 -0.08035575 0.07039047
0001b0 03 3a 24 bd 96 19 46 39 20 f7 56 bd 98 c1 3f bd
       -0.040094387 0.00018892283 -0.05248177 -0.046815485
0001c0 16 c3 cb 3c 80 27 e5 bc 34 75 2f bc 3b d6 ad 3a
       0.024873298 -0.027972937 -0.010709096 0.0013262698
0001d0 de f6 74 bc dd ea 4b bb 9b 44 1e 3d d5 3f fb ba
       -0.014951436 -0.0031115331 0.038639646 -0.0019168804
0001e0 fa 53 10 bc 63 78 36 3d 25 ec d7 bb 8b 58 9d bc
       -0.008809084 0.044548403 -0.00658943 -0.01920726
0001f0 ef 48 99 bb e0 74 ce bc e0 6f 7c bd 6f b6 0a bc
       -0.004677884 -0.025202215 -0.06163013 -0.008466347
000200 a3 4c 28 3d 1a 71 23 3d 93 d2 cc bb 17 78 0b 3d
       0.04108871 0.039902784 -0.0062506883 0.034050073
000210 da 56 04 3e 76 18 b1 3c e2 24 ae 3d 71 68 6c 3d
       0.12923756 0.02161811 0.085031286 0.05771679
000220 db cf dd 3c 05 9b a2 3a 6d 70 27 3d 88 79 64 3c
       0.027076652 0.0012405819 0.040878702 0.013944991
000230 19 79 74 bb a9 01 e5 3c 0c e9 86 3c 1f fa 00 3d
       -0.0037303625 0.027954893 0.016468547 0.031488534
000240 a3 50 3a be c2 de 2c bd 9f 5a 54 be 86 2a e6 bd
       -0.18194823 -0.042204626 -0.20737694 -0.112385795
000250 23 23 64 3e b1 12 27 3d 87 41 bf bc 5f 6f 2a 3e
       0.22279029 0.04078931 -0.023346676 0.16644047
000260 28 25 fb bc 65 d8 61 3d e3 0e b9 3e 50 82 9f 3e
       -0.030657366 0.05513801 0.3614417 0.31154108
000270 91 8f 33 be 77 b5 25 3e 5b f2 41 3e 78 e3 bf be
       -0.17535235 0.16182505 0.18940108 -0.37478232
000280 8a 0c 40 be b7 f2 38 be e1 bb 0d 3e 7e 45 0e 3e
       -0.18754783 -0.18061338 0.13841201 0.13893697
000290 df db 0c 3d d0 7d 20 3c 47 82 cf 3d 4b 10 93 3d
       0.034389373 0.009795621 0.1013227 0.07180842
0002a0 6a b7 b4 bd 0f 1a de 3c 8c 78 c0 3d c8 a9 08 be
       -0.08824046 0.027112035 0.093979925 -0.13346016
0002b0 d3 7a 71 3d 16 a5 2d 3e 10 7d dc bc 75 24 f5 3d
       0.058955025 0.16957507 -0.026915103 0.11969844
0002c0 8f 14 2f 3e 16 0a bc 3c 38 d4 d5 3d 1c 2e c3 3d
       0.17097686 0.022954028 0.10440868 0.09530279
0002d0 aa 1f 05 be e7 9e a2 be 8b 2c 3a be 10 ed f0 bd
       -0.1300036 -0.31761858 -0.18181054 -0.11763966
0002e0 4f 78 8a be 50 af c0 bd 40 41 bc bc 2f aa 61 be
       -0.27044913 -0.09408438 -0.022980332 -0.22037576
0002f0 e3 78 07 3e 02 36 e6 bd 89 dd ef 3d 71 80 69 3e
       0.13229708 -0.1124077 0.11712176 0.22802903
000300 ab f6 fb bd 18 c5 db 3d 66 b1 82 3e 9b d6 8e bd
       -0.123029076 0.10730952 0.2552597 -0.069745265
000310 9c 63 ce 3d 76 b1 6b 3e 16 49 30 3c 4a c2 6c 3d
       0.10077593 0.23016915 0.010759613 0.057802476
000320 3f a8 ef 3b fc f7 4b 3d ff 9a 71 3d 61 4a e2 3b
       0.0073137577 0.049797043 0.058985706 0.0069058393
000330 fa fb 39 3d 2c c8 71 3d 43 1c 95 3c 82 0d ca bd
       0.04540632 0.05902879 0.018201953 -0.09865858
000340 03 8a da 3c 3f af 83 3d 09 1a 83 bc 43 fd bb 3d
       0.026677137 0.0642991 -0.016003625 0.09179165
000350 ec 28 e6 3d 7b 14 44 3c 3e 4b 95 3d ba bd 5e 3d
       0.11238274 0.011967774 0.07289742 0.054380156
000360 61 29 e2 3d a4 af b2 3c 78 ca cb 3d b7 d7 5b bc
       0.11043049 0.021812268 0.09950727 -0.01341813
000370 4f 42 6e bd b3 df 16 3e 65 84 82 3c 04 7c 12 bd
       -0.058168706 0.14733772 0.015932271 -0.0357628
000380 52 15 d7 3c 85 30 4a 3d 8b 3c 02 3e 6a fa 85 be
       0.026255284 0.049362678 0.12718408 -0.26167613
000390 57 ea d1 3e 92 83 b3 be 42 95 f6 bd 82 56 2d bd
       0.409991 -0.35061318 -0.120401874 -0.04231883
0003a0 f5 e4 e5 3d d5 c6 b6 3e 54 0e 3c 3d 01 30 b4 be
       0.11225311 0.35698572 0.045912102 -0.35192874
0003b0 d4 de 38 3d cd de f4 be 1c 9e 33 3e e7 52 cd 3e
       0.04513438 -0.47826234 0.17540783 0.40102312
0003c0 0f 83 07 3c 9d 38 b7 3e bc d9 48 bd 61 b9 8c be
       0.008270993 0.3578538 -0.049035773 -0.27485183
0003d0 97 e6 a7 be 2a 85 58 3d c9 70 81 bf 3f fe 87 3f
       -0.32793114 0.05286137 -1.0112544 1.0624465
0003e0 3e 47 ac 3e dd 3b de 3e b6 a2 83 be c7 ff b8 be
       0.33648103 0.43405047 -0.25710076 -0.36132643
0003f0 bb ba e4 3c 4f 98 5d 3d f4 b7 c6 3d f2 9a 83 3d
       0.027921071 0.05410033 0.09703055 0.06426038

dense1.2.bn1.weight f4 [48]
000000 3c 79 dc 3e e1 ba 35 3e 3e 57 d2 3e 1c 46 fc 3e
       0.43061244 0.1774707 0.41082186 0.4927224
000010 77 af 62 3f 69 7a 1c 3e a5 bc d0 3e 6c 9e ae 3e
       0.8854899 0.15281071 0.40768924 0.3410524
000020 ab 9b 80 3e 9e 3d ac 3e c9 4d 6a 3e 59 28 1f 3f
       0.25118765 0.3364076 0.22881235 0.6217094
000030 51 5f c4 3d 04 3b b6 3e 37 23 ef 3d c3 75 e9 3e
       0.09588493 0.355919 0.116766386 0.45597658
000040 ab 54 ac 3e 49 87 0c 3f 82 b1 10 3f c2 36 88 3e
       0.33658347 0.5489393 0.56520855 0.26604277
000050 d2 8e 34 3f ce 1a 93 3d c6 b7 a5 3e 26 5e 4b 3e
       0.70530427 0.07182847 0.3236677 0.19860134
000060 00 ab 36 3f 01 3f df 3e 2a 88 80 3e 38 da 86 3f
       0.71354675 0.43602756 0.25103885 1.0535345
000070 bb 81 46 3d 60 1a 2d 3e 6f 25 27 3f 73 2a 71 3f
       0.048463564 0.16904593 0.65291494 0.942054
000080 21 56 9f 3e c2 73 61 3e 38 b5 99 3e e6 32 2b 3f
       0.311204 0.22016814 0.3002107 0.6687454
000090 53 70 bd 3f 29 58 81 3f 7e 46 9d 3e d3 10 2a 3f
       1.4799904 1.0105029 0.30717844 0.6643192
0000a0 10 91 59 3f ac 98 e6 3e 3b a4 bc 3e a2 28 82 3f
       0.8498697 0.45038354 0.36844048 1.016865
0000b0 3e aa aa 3f 7f c5 ee 3e 7a 1d 4f 3e 79 9e 2c 3f
       1.3333204 0.46635053 0.20226088 0.6742931

dense1.2.bn1.bias f4 [48]
000000 51 dc b3 bc 9d 96 46 bd 42 ea aa be 94 57 cf be
       -0.021955641 -0.04848348 -0.3338185 -0.40496504
000010 5b 98 90 3e a8 a1 25 bd 12 6e 0d 3e 02 55 3d be
       0.28241238 -0.04043737 0.1381152 -0.18489459
000020 0e 89 f8 3c f5 6e 81 3d c1 a5 bb bc 3a 9d be 3e
       0.03033879 0.063199915 -0.022906186 0.3722933
000030 d7 14 82 bd 7a 77 ae bd 2a 0a 0a 3d 0a f2 0e bf
       -0.06351631 -0.08518882 0.0337011 -0.5583807
000040 cb 90 7a 3e 58 11 e1 be 70 7d 82 be e6 48 6d be
       0.24469297 -0.43958545 -0.25486326 -0.2317234
000050 fd 77 de 3e 72 3e 78 bd 59 c6 f5 bd 79 e6 31 be
       0.4345092 -0.060606427 -0.120007224 -0.17373075
000060 e7 ec 07 bf 05 11 b5 3e a1 69 3d 3d 6a 0b b7 3d
       -0.5309586 0.35364547 0.046243314 0.08937724
000070 bd d0 8b bd 80 51 fe bd da be ab 3d cf e4 c7 3e
       -0.06826923 -0.12417889 0.083860114 0.39041755
000080 8b fa 91 bd d3 8a 9c 3d 15 26 40 be e6 1e 4e be
       -0.071278654 0.07643666 -0.18764527 -0.20128974
000090 c0 a1 12 3f e7 d9 75 bc 44 8c 83 be 4f 2d 19 be
       0.5727806 -0.015005565 -0.25692952 -0.1495869
0000a0 29 3f 06 bf 6c 09 a3 be 88 30 bc bd 12 c0 aa be
       -0.52440125 -0.31843126 -0.09188944 -0.33349663
0000b0 41 30 b5 3e 7d 26 28 bd bd 9b 33 bd 27 20 c2 3e
       0.35388377 -0.04105233 -0.043849695 0.37915155

dense1.2.conv1.weight f4 [12, 48, 3, 3]
000000 dc 93 c8 3d 46 84 7a bd 82 77 d7 bd 8d 9f b3 3d
       0.09793827 -0.061161302 -0.10520841 0.08770666
000010 78 98 99 bd 3b fc f3 bd ed ad bf 3d 84 a9 61 bd
       -0.07499784 -0.119133435 0.093593456 -0.055093303
000020 e3 51 5e bd 92 cb 57 3b e3 1d e2 3c a6 30 9b 3c
       -0.054277312 0.0032927734 0.027602142 0.018944096
000030 36 ac 20 3c 5a 98 f5 3c 68 19 fe 3c 92 e5 9f 3c
       0.009806683 0.029979873 0.031017974 0.019518647
000040 c9 75 84 3c 10 3a bb 3b ce 67 b6 3c 10 93 70 bc
       0.016169446 0.0057137087 0.022266295 -0.0146835
000050 7a a8 d3 bc ec d5 69 3c 6a 87 2c bd 2e 5c 51 bd
       -0.025837172 0.014272194 -0.04212133 -0.0511133
000060 d6 f9 47 3c 08 72 fe bc 77 22 5f bd 4d 71 9d bd
       0.012205562 -0.031060234 -0.054476228 -0.07687626
000070 e0 76 bf bd ae 8d ce bd 03 11 71 3d 0b 1d 44 3d
       -0.093488455 -0.10085617 0.058854114 0.04787926
000080 00 51 28 3c 58 32 f8 3c 62 f8 6f 3d 61 5b 5b 3d
       0.010273218 0.030297443 0.058586486 0.053553943
000090 57 76 ae bb 6f b8 e4 3d d8 0c 06 3e 57 29 e1 ba
       -0.005324166 0.111679904 0.13090837 -0.0017178458
0000a0 63 08 07 3e cc bb 17 3e a8 67 14 bd 27 cd 84 3d
       0.13186793 0.14817733 -0.036231667 0.06484442
0000b0 40 0c 81 3d 8a 34 22 bc 17 07 0c bd 60 a3 26 bd
       0.063011646 -0.009900222 -0.03418645 -0.04068315
0000c0 b1 f5 a6 3a 21 15 80 bc 4f 50 02 bd 84 d1 4a 39
       0.0012738017 -0.015635075 -0.03181487 0.00019342272
0000d0 2d 74 d8 bc d8 14 53 bc 68 a2 af 3d 11 11 52 be
       -0.026422584 -0.0128833875 0.085758984 -0.20514323
0000e0 d6 3b 9f 3b e2 a0 8e 3e 07 27 86 3d ce aa c5 3e
       0.004859428 0.2785712 0.065504126 0.38606876
0000f0 0f 89 4f 3e 1a 9e 31 3d f7 fa a9 3e bf 36 8e bc
       0.20267127 0.043363668 0.33199283 -0.01736009
000100 61 a9 65 bc 75 ea 82 3b e1 17 82 3b 0b 09 c8 bc
       -0.014017434 0.0039952346 0.0039701317 -0.024418375
000110 d6 49 a6 bc e9 f1 9c bb 31 29 bb bc 7a 2d 37 bd
       -0.02029888 -0.00478958 -0.02284679 -0.044721104
000120 a1 f8 c5 bd 48 03 4e 3c cc d9 40 3e 58 e4 c6 3a
       -0.09666563 0.0125740245 0.18833083 0.0015174253
000130 36 43 a7 3d 09 49 17 3e 5e e9 16 3e 47 ca ec 3d
       0.08167116 0.14773954 0.1473746 0.11562019
000140 ec 94 85 3d 9a 05 5c 3d f2 21 80 3b ca 44 74 3d
       0.06522545 0.05371628 0.0039102966 0.059635915
000150 24 27 01 3e 61 a9 c1 3d ad 94 08 3e 2e 6c b1 3d
       0.12612587 0.094561346 0.13337965 0.08663212
000160 5a 50 09 3d 1a fa e0 3c 78 1a 19 3d a0 b3 90 3c
       0.033523895 0.027463008 0.03737876 0.017663777
000170 17 ef a8 3b 92 32 af 3c 18 00 dd bc 6d 1e 4f bd
       0.005155455 0.021386418 -0.026977584 -0.050566126
000180 67 9a b0 3c 88 a7 5f bc af db 10 bd c9 38 ad 3d
       0.021558 -0.013650782 -0.035365757 0.084580965
000190 63 7c be 3c c7 fa af 3d 91 a5 8f 3d fd 75 3b bc
       0.023252672 0.08592754 0.07014001 -0.011441705
0001a0 c7 51 2e 3d 26 69 70 3d f7 43 29 bd 6f 4f 12 bd
       0.042558458 0.058694027 -0.041324582 -0.035720285
0001b0 24 47 01 3c 6f 6c c2 3b c1 d9 ce 3b 90 cd 35 bb
       0.007890496 0.0059333364 0.0063125794 -0.0027740933
0001c0 93 44 22 bb e3 d3 9e 3a e7 ba 52 bc 90 16 44 bc
       -0.0024760112 0.001211759 -0.012861944 -0.01196827
0001d0 e9 98 a0 bb 8a 50 f6 bb 59 6f 85 3d 93 67 fa 3d
       -0.004901041 -0.007516925 0.065153785 0.122267865
0001e0 f4 f7 02 bd 5d 70 06 3d 9e d7 bd 3d c6 3c 97 bd
       -0.031974748 0.032822 0.09269641 -0.073846385
0001f0 89 4b b5 bc 1b 6d 1e 3d 1a 25 fd bb 74 82 ad bb
       -0.022130745 0.03867827 -0.00772537 -0.0052950922
000200 8a b4 90 bc 12 d8 c5 3c db 66 d3 3c 32 bf d1 3c
       -0.017664213 0.024150882 0.025805881 0.025603864
000210 55 54 9e 3a 07 69 f1 3c 70 c2 cf 3c c7 9e 83 b7
       0.0012079576 0.029469026 0.02536127 -1.5690353e-05
000220 b9 db f1 3c 99 e6 cf 3d be 0c a0 bc a5 2e 7e 3b
       0.029523717 0.10151405 -0.019537326 0.0038785127
000230 e6 f2 eb 3d 39 f3 c3 bc cf a4 ea 3c 57 25 eb 3d
       0.115209386 -0.023919689 0.02864304 0.114817314
000240 f6 41 ca 3b 68 32 c7 3d 15 5e 4f 3e 87 7e f8 bc
       0.006172414 0.09726411 0.20250733 -0.03033377
000250 2e c5 b8 3d af f7 54 3e 74 88 92 bd cf 5f 7b 3d
       0.09021984 0.20797609 -0.071549326 0.061370667
000260 7e e6 32 3e e5 31 04 3e 43 c5 51 3c 47 4e f1 bd
       0.17470738 0.12909658 0.0128033785 -0.11782508
000270 c9 25 c6 3d a6 37 ea bb 5f 53 f3 bd d1 db 0f 3d
       0.09675176 -0.007147747 -0.11881136 0.035121743
000280 ab a2 4e bd 67 89 db bd da 25 ca bd 34 d1 a9 3d
       -0.0504481 -0.10719567 -0.09870501 0.082918555
000290 84 7c 8f 3e 3d 59 02 be 5a ef 6b 3d 1a 69 88 3e
       0.28024685 -0.12729354 0.05760131 0.26642686
0002a0 93 6e d1 bd ca c1 70 3d b7 b7 57 3e e0 79 32 3d
       -0.102261685 0.05877856 0.21066175 0.04357326
0002b0 7c f4 27 3d d4 72 d2 3c 4a fe 30 3d b5 bb 46 3d
       0.041004643 0.02568952 0.04321126 0.048518855
0002c0 57 31 8a 3c 0f 3d 8e 3c 7e d8 55 3c 30 28 d3 3b
       0.01686923 0.0173631 0.013052104 0.0064439997
0002d0 ba 23 dd be d3 e9 8a be 8f 5b b9 be 78 39 29 bf
       -0.4319132 -0.2713152 -0.36202666 -0.66103315
0002e0 c1 ed 02 bf ec 09 2b bf 6a 34 e8 be 2b 77 b1 be
       -0.51144034 -0.66812015 -0.4535249 -0.3466123
0002f0 94 da f6 be 43 10 dd bb 6c ab b0 bb fc df 17 3a
       -0.48213637 -0.0067463233 -0.005391529 0.0005793569
000300 cc 48 75 bb 64 34 0e bc ef 61 41 bc 34 3c b3 bb
       -0.0037427424 -0.008679483 -0.011803134 -0.0054698233
000310 b3 39 47 bb e9 3b 9d bc d7 c4 f2 3c b5 16 57 3d
       -0.0030399382 -0.019193606 0.029634876 0.05251189
000320 80 74 92 3d 8b 1c 1c 3b cb e6 5f 3d 22 ca be 3d
       0.07151127 0.0023820724 0.05466346 0.093158975
000330 70 d4 12 b9 a8 84 d3 3c e7 b4 ce 3d fd 66 4a 3c
       -0.00014002784 0.025820091 0.10093098 0.012353656
000340 0a 5f b2 3c 75 73 1d 3c f0 f2 85 3c 9b ce b8 3b
       0.021773834 0.009610047 0.016351193 0.0056398637
000350 cb 7c 47 3a 2b 09 83 3c ee 73 47 3c 29 f1 d5 bb
       0.0007609843 0.015995583 0.012173636 -0.0065289927
000360 c5 01 33 3e 2c 0e 1d 3c dc df 4a bd bb 68 49 3e
       0.17481144 0.009585898 -0.049529895 0.19668858
000370 1c 73 1d 3b a1 0f b2 bd 6e 2f 1f 3e de 5f 42 bd
       0.002402491 -0.08694387 0.15545437 -0.047454707
000380 38 ad 0d be 2a fc fd bc ef 5b 3a 3b 47 52 81 3d
       -0.13835609 -0.03100403 0.0028436144 0.06314521
000390 89 51 f9 bd 37 3f e2 bb 8d c4 6c 3e bf ba 81 bd
       -0.12173755 -0.0069045085 0.23121853 -0.06334447
0003a0 39 32 c1 3c 02 a4 88 3e c9 62 5d bc 67 f7 86 bb
       0.023583518 0.26687628 -0.013512322 -0.004118848
0003b0 85 5b a5 3d af 82 f5 3d a4 d5 84 3d 4c c8 16 3c
       0.080740966 0.119878165 0.06486061 0.009203028
0003c0 1c 89 12 3e dd fd 7b 3d 01 0c 43 3a cc 9b a2 3d
       0.14310116 0.0615214 0.00074404484 0.07939872
0003d0 76 b5 38 bd 49 5c eb bd 52 7f 15 3f 3d 19 b8 3e
       -0.04509493 -0.11492211 0.583974 0.35956755
0003e0 de 27 b9 3d 11 2b 3f 3e 48 35 06 3e b0 31 9e bd
       0.09040807 0.18668772 0.13106263 -0.07724321
0003f0 75 04 cf 3b ac 83 17 3b cc 87 19 3c 5b e4 2b bc
       0.00631767 0.0023119254 0.009370755 -0.010491456

dense1.3.bn1.weight f4 [60]
000000 4d 8c 96 3e 80 da 7a 3e cc 60 51 3e 2c 0e 01 3f
       0.29403916 0.24497414 0.20447081 0.5041225
000010 a3 00 10 3f 61 fa 54 3e 0f b4 96 3f 09 81 aa 3e
       0.5625097 0.20798637 1.17737 0.3330157
000020 b7 b3 f5 3e 9b f8 8a 3e ec 06 dc 3d 14 cf 64 3e
       0.47988674 0.27142796 0.10743508 0.22344619
000030 5c e1 38 3e 0f bd 0f 3e 1e bd 31 3f e4 c1 25 3e
       0.18054718 0.14036964 0.69429195 0.16187245
000040 f7 79 82 3e 76 d6 e9 3d 2c 30 70 3e ef 87 2d 3e
       0.25483677 0.11417858 0.23455876 0.16946386
000050 8d 69 9d 3f 80 a6 62 3e e3 98 11 3e 3b ef d8 3d
       1.2297837 0.22133827 0.14218478 0.105925046
000060 cc f2 4e 3e 29 11 3d 3f 7c c8 d1 3e bb 73 38 3f
       0.20209807 0.7385431 0.4097327 0.7205159
000070 8e 19 6b 3e c1 88 a6 3e 19 de 36 3f fd 8a 82 3f
       0.22958967 0.3252621 0.71432644 1.0198666
000080 c0 84 d0 3e 89 97 e6 3e d2 48 fc 3d 79 48 38 3f
       0.4072628 0.45037487 0.12318577 0.71985584
000090 0f 8c 6c 3f 55 40 73 3f 27 2e 0e 3e 37 85 86 3f
       0.9240121 0.9502004 0.13884793 1.0509404
0000a0 db 0d 10 3f 66 2f 31 3e c2 07 18 3e c5 f0 0f 3f
       0.5627114 0.17303237 0.1484671 0.5622676
0000b0 43 22 ef 3e a7 f9 d8 3e 58 33 9b 3f 6f f1 c4 3e
       0.46705827 0.4237797 1.2125044 0.3846545
0000c0 2a 2a 74 3f fd 75 b5 3e a0 18 21 3e 8f f5 03 3f
       0.9537684 0.3544158 0.1573205 0.5154657
0000d0 17 d7 96 3e 05 b5 12 3e a2 8f d3 3f a1 65 3b 3f
       0.29460976 0.14326866 1.6528208 0.7320195
0000e0 57 fb 9e 3f 74 3d 52 3e d2 e1 46 3d 96 63 db 3e
       1.2420453 0.20531255 0.048555203 0.42849416

dense1.3.bn1.bias f4 [60]
000000 24 13 cd bd fc 57 66 bc ab d0 ed bd 93 ec 3a 3e
       -0.100134164 -0.014059063 -0.11612066 0.18254308
000010 37 76 27 3d 5d 8c 14 3d 6f c2 6d bd 61 fb 52 3d
       0.040884223 0.036266673 -0.058046754 0.051509265
000020 3e 24 02 be 8e e5 ae bc ab 5b d1 bc b8 1c 38 bd
       -0.12709138 -0.021349695 -0.025556406 -0.044949263
000030 32 71 36 bd 39 a8 4d bd 1c 5c 1a 3e e5 56 46 be
       -0.044541545 -0.050209258 0.150742 -0.19369085
000040 2a eb 44 be e2 b5 ca bd 99 1b f1 bc bb 56 94 bd
       -0.19230333 -0.09897973 -0.029432105 -0.07243105
000050 f4 52 88 bd 92 7c 45 3d 6d 2a 91 bd 14 70 46 bd
       -0.06656447 0.048214503 -0.0708817 -0.04844673
000060 0c a8 26 be 17 1d 48 be 33 21 aa be 9e 56 8f be
       -0.16275042 -0.19542347 -0.33228454 -0.2799577
000070 5c 05 37 be ba 7a 82 be 78 7a 2d be 57 99 0b bf
       -0.17873138 -0.25484258 -0.1694125 -0.54530853
000080 75 b4 6e be 31 26 97 3d fe 38 dd bd 31 ea 3c be
       -0.23311026 0.07380331 -0.10801886 -0.18448712
000090 a0 9f 8d be 0a a2 c5 3e f8 aa 3b be 61 a4 4d be
       -0.27660847 0.38600188 -0.18326938 -0.20082237
0000a0 bf c7 b9 be 77 70 36 be 9b 60 8c bd 76 7e f7 3c
       -0.36285207 -0.1781634 -0.068543635 0.030211668
0000b0 26 6d 22 be 09 37 ea 3c 6e 0f 65 3e 1c 33 f5 bd
       -0.1586195 0.028590696 0.22369167 -0.11972639
0000c0 05 0d e9 3c c7 a3 b1 3d 62 ff d6 bb 94 17 74 bd
       0.028448591 0.08673816 -0.0065612057 -0.0595928
0000d0 ec e5 05 3e b0 91 65 bd 96 e2 24 bc 0b 02 ba 3d
       0.1307599 -0.05604714 -0.010063788 0.09082421
0000e0 de 6a a5 3d c2 36 0b bb ef bd cf bb f5 2f bb 3d
       0.08077024 -0.0021242355 -0.0063397805 0.091400065

dense1.3.conv1.weight f4 [12, 60, 3, 3]
000000 42 ee 5b 3d 74 18 22 bc f6 a2 70 3c a1 f0 38 3d
       0.053694017 -0.009893525 0.01468729 0.045151357
000010 4a 2f 23 bd 26 11 42 bd b2 9d 3f 3d 4f 53 8b bc
       -0.03984002 -0.047379635 0.04678125 -0.017007498
000020 96 6a f2 bb 14 d6 db 3b 06 33 0f bb a6 13 8b bc
       -0.00739796 0.0067088697 -0.002185048 -0.016977143
000030 f6 6b 31 bc 4a 39 a2 bc 70 e9 5a bc ce 22 87 bc
       -0.010828963 -0.019802708 -0.01336132 -0.016496088
000040 71 ce 23 bc 14 00 71 bb 7e 5c 24 3c 54 d5 95 3c
       -0.00999795 -0.0036773728 0.0100318175 0.0182902
000050 8e 53 ac 3c a0 2d 14 ba 75 d9 20 bc 36 5c c7 ba
       0.021035936 -0.00056525506 -0.009817471 -0.0015209976
000060 b1 62 0a 3c 3a e4 5b bc 80 74 5e 3a f1 ef c5 3c
       0.008446381 -0.013421113 0.0008485988 0.024162265
000070 ed 89 d8 3b cb 00 2a 3d 22 ec bb 3d c5 50 4d 3d
       0.006608239 0.041504662 0.09175898 0.050125856
000080 b1 bc e2 3d a0 bb 86 bb ce d7 11 bd 96 b1 4d 3d
       0.11071146 -0.004111722 -0.035606198 0.050218187
000090 eb 7d 42 3e c5 c2 20 3e 04 1c fe 3c 58 4e 1a 3e
       0.18993346 0.15699299 0.031019218 0.15068948
0000a0 43 6d ee 3d af 92 1c bc 8a ba a7 3d 34 7e 65 3d
       0.11641934 -0.0095564565 0.081898764 0.05602856
0000b0 f7 7b 45 bd f1 bb 57 bc 2e f2 ef bb 55 eb 21 bb
       -0.048213925 -0.013167367 -0.0073225712 -0.002470692
0000c0 70 41 24 bc 88 ea b9 bb 0a eb 7d bc 38 15 cc bb
       -0.010025367 -0.0056737103 -0.015497932 -0.0062281154
0000d0 60 23 aa bb 92 5c 75 3b 83 0c df bd 90 d7 2a be
       -0.0051922053 0.003743921 -0.10891058 -0.16683793
0000e0 57 04 0c 3e c7 6d 0c bd 1d 4b d4 bd 14 1d 07 3e
       0.1367353 -0.03428438 -0.10365889 0.13194686
0000f0 5b 73 8f 3c d1 ad fa bd d3 e5 ea 3c a1 3b b3 3d
       0.01751106 -0.12240184 0.028674042 0.08751608
000100 e4 9c 60 3d 01 21 45 3d 91 f6 e2 3c 86 9c 27 3c
       0.054837123 0.048127178 0.027705463 0.010230189
000110 28 9f a4 3c 91 05 06 bc 83 26 8b bc 68 b8 f2 bb
       0.020095423 -0.008180038 -0.016986137 -0.007407237
000120 97 39 ba 3d 6c fd 01 3e 80 17 54 3e bc eb 0d 3d
       0.09093016 0.12694329 0.2071209 0.034648642
000130 6d 82 70 3d 78 0e ce 3d b8 8f 61 bc 42 98 6a 3c
       0.058718134 0.100613534 -0.013767175 0.014318528
000140 98 86 26 3d 9c b1 88 3b dc f9 a3 bc 11 0c 86 bc
       0.040655702 0.0041715633 -0.020016603 -0.016363176
000150 80 a5 9b 3c ea 15 9f bc b4 0c 2c bd 77 b1 75 bb
       0.018999815 -0.01941963 -0.042004302 -0.003748981
000160 8a b8 d5 bc 15 e3 c4 bc f5 e8 b8 3c 4c 4d a7 b9
       -0.026088972 -0.024034062 0.02257202 -0.00031910313
000170 e7 eb 21 3c 3c 31 1b bc 8a b4 db bc 04 45 2e bb
       0.009882904 -0.009472188 -0.026819486 -0.002659143
000180 09 50 3a bc 65 5b e8 bc f6 2b b3 bc 56 ac 24 bc
       -0.011371621 -0.028363893 -0.021871548 -0.010050854
000190 b9 94 02 bc d0 e9 04 3c e1 38 8c bc ed 8c d3 bc
       -0.007970029 0.008112386 -0.017116966 -0.025824035
0001a0 07 c4 95 bc 6f f6 a6 bb ad a3 15 bd 14 da bf b9
       -0.01828195 -0.005095295 -0.036533047 -0.0003659284
0001b0 2b 6d 48 3c c2 06 be 3b a8 cc ae ba 90 1b d7 3b
       0.012233059 0.0057991454 -0.0013336139 0.006564565
0001c0 17 4d f5 bb 41 64 70 3b cc 89 d2 3b b4 8c fc 3a
       -0.0074859965 0.003668085 0.006425118 0.0019268007
0001d0 ac ab 0b ba a9 a6 01 3d c7 4c 14 3d 8c 66 0e 3d
       -0.00053280103 0.03165308 0.036206033 0.034765765
0001e0 9c 5c 06 3d e7 94 c0 3c a8 15 a1 3c 58 d4 ba 3c
       0.032803163 0.023508502 0.019663647 0.022806332
0001f0 6b de 18 3c 65 42 fc ba 25 98 88 bd 8f c0 4d bd
       0.009330372 -0.0019245861 -0.06669644 -0.050232466
000200 88 f3 31 3d 6b 51 ec 3c 4e 25 55 3c 01 e1 ed 3d
       0.04344514 0.028847417 0.013009382 0.11615182
000210 00 63 3b bd d1 d5 54 bd a6 ef 7f 3c 5e 40 ea b9
       -0.04574871 -0.051961724 0.0156211015 -0.00044679915
000220 8e 96 42 3c f2 ff 2d 3d a6 f1 94 bb f2 07 a5 3b
       0.011876715 0.042480417 -0.0045454083 0.0050363475
000230 bf f4 2f 3d ad 48 be bc ea 8e 35 bc 9f 5a 1e 3d
       0.042958017 -0.023228014 -0.011081437 0.03866064
000240 8f 18 f7 3c 61 b2 0e 3d 19 f9 61 3d e5 90 08 3d
       0.030163078 0.034838084 0.0551692 0.033341307
000250 7e 51 d5 3c 32 47 5d 3d 4b 34 68 3d 21 86 30 3d
       0.026039835 0.054022975 0.056690495 0.043096665
000260 8f 96 08 3d 25 a9 05 3d e5 8d ac 3c 36 82 c4 ba
       0.03334671 0.032632012 0.021063754 -0.0014992419
000270 f8 1a 09 3d ef ee 1c 3d 13 cc 07 bc 02 68 c1 3c
       0.033472985 0.038313802 -0.008288401 0.023609165
000280 7f af 42 3c 1c 42 a1 ba 21 34 98 3d 01 2f 9a 3d
       0.011882662 -0.0012303027 0.07431818 0.075284965
000290 e1 c5 a0 3d 6a 1e 92 3d 73 33 7c 3d a9 3f 5b 3d
       0.078502424 0.07134707 0.061572503 0.053527508
0002a0 b3 14 47 3d ba 15 13 3d 81 b2 f3 3c a8 2d f9 3c
       0.048603725 0.035909392 0.029748203 0.030417278
0002b0 3f 42 a8 3c 02 a7 26 3d 5c 8b 09 3d c4 a0 07 3d
       0.020539401 0.040686615 0.03358017 0.033112302
0002c0 09 5a db 3c d6 5a f5 3c 8e 14 c4 3c 95 d8 ef 3c
       0.02677633 0.02995054 0.023935582 0.029278079
0002d0 17 b5 31 3e 08 0c 11 be 5c 69 9a be fd 0b 96 3d
       0.17354237 -0.14164746 -0.30158508 0.07326505
0002e0 a7 d4 29 be aa 9d 72 be cf 14 33 bd 23 d8 42 be
       -0.16585027 -0.23692957 -0.043721016 -0.19027762
0002f0 27 5f 49 be 8e 3f de 3c b9 63 d6 3c 98 d5 96 3d
       -0.19665204 0.027129915 0.026170598 0.073649585
000300 17 20 8b bc 5b a1 2d bc 00 7f 2f 3d a5 f7 11 3b
       -0.016983075 -0.010597552 0.042845726 0.0022272852
000310 83 16 9e bb 8a 69 4f 3d 65 ff 75 3c 34 38 5e 3c
       -0.004824461 0.05063776 0.015014504 0.013563205
000320 e8 2d 25 3b f6 c9 45 3c cc 0f c3 3b 6c 22 ea ba
       0.0025204364 0.012072077 0.005952811 -0.0017863042
000330 50 c2 4f bc d8 27 92 3b 09 d4 34 3c de 5c 4f 3b
       -0.012680605 0.004460316 0.011036881 0.0031641047
000340 5c dd 88 3c 69 f3 a3 3c cc 4c ae bb 2f 1b 84 3b
       0.016707115 0.020013528 -0.0053192135 0.004031561
000350 6a ff cc 3c 01 c0 64 3c 98 91 80 3c 65 b5 83 3c
       0.025024135 0.013961793 0.015694425 0.016077707
000360 22 e9 7f 3c 62 8f 1d bc c3 2c 4d 3d 89 8d 98 38
       0.015619548 -0.009616705 0.050091516 7.274288e-05
000370 17 c4 de bb 1d 74 ef 3c e5 37 3d bc 54 01 0a bc
       -0.006798278 0.029230172 -0.011548971 -0.008423168
000380 05 48 1a 3d 1b 28 ec bc 51 57 11 be 28 68 82 bd
       0.03766634 -0.028827718 -0.14193465 -0.063675225
000390 af 75 43 bd 62 fb 84 bd 10 59 06 3d 75 68 79 bd
       -0.047719654 -0.0649326 0.03279978 -0.060890634
0003a0 8f ca 4a bd 64 bb 36 3c b4 f8 c1 bb 53 70 71 bb
       -0.04950958 0.011153076 -0.0059195403 -0.0036840632
0003b0 f6 05 1b 3c 5c ef 08 bd 23 fe 52 bd 9d c8 f9 bc
       0.00946187 -0.033431396 -0.051511895 -0.030491168
0003c0 f7 9e 0b bd 35 8c 1a bd 05 2b 39 bc 97 67 d1 3d
       -0.034087148 -0.037731368 -0.011301761 0.10224836
0003d0 b2 51 43 bb 24 68 da bd 0f 5c d7 3d 92 ae a9 bc
       -0.0029803333 -0.106643945 0.10515606 -0.020713124
0003e0 f4 e0 00 be a3 19 e3 3d 62 0e 9a bd f0 9b 27 be
       -0.12585813 0.11088874 -0.075222746 -0.16368079
0003f0 d5 cd 30 3a 9b 0b de 3b 9c cb fb 3c 71 cd ec bb
       0.00067445386 0.006776286 0.030736737 -0.007226639

dense1.4.bn1.weight f4 [72]
000000 ef 91 1b 3f 78 ae a5 3e e2 6b 17 3f 9e 86 77 3f
       0.6076955 0.32359672 0.5914899 0.96689785
000010 2d 43 80 3f 15 13 26 3e d5 b3 d9 3e c8 61 05 3f
       1.00205 0.16218217 0.42520013 0.5210233
000020 0e 6d 93 3f 3e 2b 5b 3e b5 38 3e 3e ab da cd 3d
       1.1517656 0.21403214 0.1857632 0.10051473
000030 d2 5a f8 3d fa ec a5 3e 37 4b 41 3f ee e7 03 3f
       0.121266976 0.3240736 0.75505394 0.5152577
000040 bd b7 27 3f 81 13 f0 3e 5a 30 9b 3e f1 b8 c7 3e
       0.6551474 0.4688988 0.30310327 0.39008287
000050 86 d4 07 3f 64 9f 5b 3e d8 57 93 3d 13 81 fc 3d
       0.5305866 0.21447521 0.07194489 0.123293065
000060 93 72 90 3e de b8 7a 3f 25 cc 08 3f 74 bd 38 3e
       0.28212413 0.97938335 0.534365 0.1804102
000070 92 05 86 3e 02 a1 2b 3e 52 3e c2 3e f0 94 99 3e
       0.26176125 0.16760638 0.37938172 0.29996443
000080 c7 be cd 3e e1 99 eb 3e b6 3a c7 3e d4 40 04 3f
       0.40184614 0.46015838 0.3891198 0.5166142
000090 1d 4b 1a 3f 70 1e 89 3f 2c 19 a5 3e ed 30 4b 3e
       0.60270864 1.0712414 0.32245767 0.19842882
0000a0 3f ff b4 3e a4 8f a4 3d b8 7c aa 3e 77 68 0e 3f
       0.35350987 0.0803521 0.33298278 0.5562815
0000b0 07 fa 9e 3e 20 34 24 3f 9f 0e 5c 3f cd a8 e4 3e
       0.3105013 0.64142036 0.8595981 0.44660035
0000c0 1f df b2 3e c9 42 22 3e 43 3d a9 3e 59 2d db 3e
       0.34935853 0.15845789 0.3305455 0.42808035
0000d0 6d 0a a2 3e 08 85 78 3e 23 8d ae 3e a4 d5 9e 3e
       0.3164858 0.24269497 0.34092054 0.3102237
0000e0 c7 c5 9c 3f 6f 6d 94 3e 3b 54 45 3e 03 0a 24 3f
       1.2247857 0.2898974 0.19270413 0.64077777
0000f0 24 29 55 3e da 15 2f 3e a1 06 c2 3f 9c d8 6c 3e
       0.20816475 0.1709818 1.5158273 0.23129505
000100 f7 66 10 3e d6 5d a4 3d ed ef d5 3d 57 c5 58 3f
       0.14101778 0.0802571 0.10446153 0.84676117
000110 2c 12 99 3d a0 ef 25 3f f0 37 9e 3e 37 35 32 3e
       0.07474169 0.64818764 0.30902052 0.17403112

dense1.4.bn1.bias f4 [72]
000000 14 90 09 bf ba 00 c5 bc e9 cb a0 be cd 37 21 bd
       -0.5373547 -0.024048198 -0.3140557 -0.039359856
000010 6c 87 c0 be 6f f1 76 bc cf 7b df bd aa ca 38 bc
       -0.3760332 -0.015072211 -0.109122865 -0.011278788
000020 45 f3 7a 3d 1b e8 b9 ba cb 02 07 bd 17 5d aa bd
       0.061267156 -0.0014183553 -0.032961648 -0.08318537
000030 62 98 31 bd b8 7a ed bd fc af 5f 3d 54 a4 86 be
       -0.043358214 -0.11595672 0.05461119 -0.26297247
000040 13 eb e8 be 95 ba c2 be 98 71 6a be cf ae ab be
       -0.45491847 -0.38032976 -0.22894895 -0.33531806
000050 68 e8 95 be db 99 0c 3e cd 6f 39 3c f2 15 5d 3d
       -0.29278874 0.13730566 0.011318159 0.053976007
000060 59 d3 46 3d 11 f9 d9 3d 87 c8 57 be 6f 33 3a be
       0.0485414 0.10643209 -0.21072589 -0.18183683
000070 55 83 19 3d f1 f8 7b bd e1 7d f4 bc 72 41 69 bd
       0.037478764 -0.061516706 -0.02984518 -0.05694718
000080 a7 be 0d be 38 51 08 be 1c ac a5 bd ca ef 08 3d
       -0.1384226 -0.13312232 -0.08089468 0.033431806
000090 fe 42 24 be 1e 35 dc bd 97 d3 df be 45 b2 ec bc
       -0.1604118 -0.10752319 -0.43716118 -0.0288936
0000a0 a1 a6 40 be 44 9c a6 bd bd 6e 80 bd 5f 96 18 be
       -0.18813564 -0.08135274 -0.06271122 -0.14901112
0000b0 43 ee e1 bc 65 ba 4a 3d 2e ab e1 bd dd d8 d3 3e
       -0.027579432 0.049494166 -0.11018978 0.4137639
0000c0 55 9c ee 3c 90 e1 1e 3d fc f1 2d bd cf d0 c3 bc
       0.02912728 0.038789332 -0.042467102 -0.023903279
0000d0 4e f8 5c 3d 24 06 a1 bd 85 66 86 3c db da a9 bd
       0.05394774 -0.07862499 0.016406307 -0.082936965
0000e0 ab 3c 40 be 29 ad 81 bc 4a b0 60 3c 79 83 fc 3d
       -0.18773143 -0.01582964 0.013713906 0.12329764
0000f0 4b 93 29 bd 7e 62 4f bd fc 44 90 be 3e 55 e8 3c
       -0.041400235 -0.05063104 -0.2817763 0.02836096
000100 d0 c5 66 bc bb 21 ca 3c f0 8e 07 bd 86 fd 80 bb
       -0.014085248 0.024674287 -0.0330953 -0.0039364723
000110 fb 02 a8 bd 4d 34 0a 3e 71 c7 0e 3d 64 63 14 3d
       -0.082036935 0.13496514 0.03485817 0.0362276
