independent_train_0.0/client76/checkpoint_0.0.pth (torch, 420139 bytes, 98 tensors)

conv1.0.weight f4 [16, 3, 3, 3]
0	0x3d7e4633	0.062078666
1	0xbd8cde65	-0.06878356
2	0x3ec641bd	0.3872203
3	0xbebe9a37	-0.37227032
4	0xbf536d9a	-0.82589114
5	0xbe9bfbdf	-0.304656
6	0xbe300178	-0.1718806
7	0xbf244f44	-0.6418345
8	0xbe446eea	-0.19182935
9	0x3ccea2c5	0.025224099
10	0xbe8b753a	-0.27237874
11	0x3d9402d9	0.07227106
12	0xbd9f23e4	-0.077705175
13	0xbf212759	-0.62950665
14	0xbe5be668	-0.21474612
15	0x3eb4e9e4	0.35334694
16	0xbe3a77e0	-0.18209791
17	0x3e37ff2d	0.17968436
18	0xbcc07b28	-0.023496225
19	0xbd70825c	-0.05871807
20	0x3e76448d	0.24049588
21	0xbeaec961	-0.34138015
22	0xbf1b6f22	-0.6071645
23	0xbe51880b	-0.20462053
24	0xbe85b9ac	-0.2611822
25	0xbf071d46	-0.5277904
26	0xbe1d5239	-0.15363397
27	0xbf3533f3	-0.70782393
28	0xbf1f97dc	-0.62341094
29	0xbf2028ac	-0.6256206
30	0xbf89b15c	-1.0757251
31	0xbf828d00	-1.019928
32	0xbf6979d3	-0.91201514
33	0xbf894a05	-1.0725714
34	0xbf9da0ec	-1.2314734
35	0xbf81c5d0	-1.0138493
36	0x3f5721f2	0.8403617
37	0x3f859954	1.0437417
38	0x3f4c34c9	0.79768044
39	0x3f6a9bbf	0.916439
40	0x3f988a59	1.191722
41	0x3f811719	1.0085174
42	0x3f6158e1	0.88026243
43	0x3f6f0441	0.93365866
44	0x3f4f926c	0.810828
45	0xbe64a256	-0.22327551
46	0xbe0a963b	-0.13533871
47	0xbead17dd	-0.3380727
48	0x3d90f966	0.07078819
49	0x3e869835	0.26288
50	0x3cf211ed	0.029549563
51	0x3e957e31	0.2919784
52	0x3e9a5541	0.3014317
53	0x3dce1b6c	0.10063824
54	0xbeb7d44b	-0.35904154
55	0x3e8f0dbe	0.27940172
56	0xbeb9a14e	-0.36255878
57	0xbe452bc8	-0.19254982
58	0x3f5af85a	0.85535204
59	0xbf136c64	-0.57587266
60	0x3eaffcab	0.34372458
61	0x3f89fe55	1.0780741
62	0xbf5bf7bd	-0.85924894
63	0xbed8d37c	-0.4234885
64	0x3f2bfd42	0.67183316
65	0xbf4daf34	-0.80345464
66	0xbe712a75	-0.23551352
67	0x3f9ab40d	1.2086197
68	0xbf96e810	-1.178957
69	0x3e3ac4d7	0.18239151
70	0x3fa37259	1.2769271
71	0xbfc7a1f8	-1.5596304
72	0xbe560242	-0.20899299
73	0x3ef72e5c	0.48277557
74	0xbe671ffc	-0.22570795
75	0xbc4c6a70	-0.012476549
76	0x3f8a6552	1.081217
77	0xbf251c70	-0.6449652
78	0x3eae4efe	0.3404464
79	0x3f89a1f2	1.0752547
80	0xbf9294db	-1.1451677
81	0x3e0cff87	0.13769351
82	0xbcbe7044	-0.023246892
83	0x3dba44e0	0.09095168
84	0x3d1257ba	0.035728194
85	0xbd3f5123	-0.046708237
86	0x3e1e2d56	0.15446982
87	0x3ec5dd72	0.38645512
88	0x3e5cb28c	0.21552485
89	0x3f00b87a	0.5028149
90	0xbf370344	-0.7148936
91	0xbf804727	-1.0021714
92	0xbf3f048a	-0.746163
93	0xbf8872fe	-1.0660093
94	0xbfb08d35	-1.3793093
95	0xbf8f1697	-1.1178769
96	0xbf5592a3	-0.83426875
97	0xbfa0b19f	-1.2554206
98	0xbf75e8ad	-0.9605816
99	0x3f51c563	0.81941813
100	0x3f6dff5c	0.9296777
101	0x3f6588f2	0.89662087
102	0x3f6ee3d3	0.9331638
103	0x3f8f9626	1.1217697
104	0x3f79f8fb	0.9764554
105	0x3f663dad	0.8993786
106	0x3f69a393	0.9126522
107	0x3f426516	0.75935495
108	0xbeea5f7a	-0.45775968
109	0x3e3368c0	0.17520428
110	0x3eadbc2e	0.33932632
111	0x3fb5c787	1.4201516
112	0x3c73c753	0.014879066
113	0xbf8b4928	-1.08817
114	0x3ff1452e	1.8849237
115	0xbf2ffe31	-0.6874724
116	0xbfcd3f8a	-1.6035016
117	0xbeb1d6ff	-0.34734342
118	0x3c45964e	0.012059761
119	0x3c3c91e8	0.011509396
120	0x3fd2e51a	1.6476166
121	0xbd0b8dcf	-0.034070786
122	0xbfa88ceb	-1.3168005
123	0x400c2938	2.1900158
124	0xbf193050	-0.59839344
125	0xbfcfb811	-1.6228048
126	0xbeb9eec5	-0.3631498
127	0xbccb58d9	-0.02482264
128	0x3e941953	0.2892557
129	0x3fc1b90e	1.5134599
130	0xbe28ad33	-0.1647232
131	0xbf90e606	-1.1320198
132	0x40016bea	2.0222116
133	0xbf4d5b16	-0.8021711
134	0xbfcefe81	-1.6171418
135	0x3d8606aa	0.0654424
136	0x3dc24e18	0.094875515
137	0x3d3a35c6	0.04546144
138	0x3ed734d4	0.42032492
139	0x3f244042	0.6416055
140	0x3ee61307	0.44936392
141	0x3e032d0b	0.12810151
142	0x3ec1a428	0.37820554
143	0x3e9145df	0.2837362
144	0xbdc614d0	-0.096719384
145	0xbdc1a698	-0.09455603
146	0xbdedccf6	-0.11611359
147	0x3e92fda3	0.28709134
148	0x3ef65c7e	0.4811744
149	0x3e9c0e24	0.30479538
150	0xbccc412b	-0.024933418
151	0x3e3bb32e	0.1833007
152	0x3dd3f285	0.10348991
153	0x3d94fa16	0.072742626
154	0x3c9de026	0.019271921
155	0x3ca444f4	0.02005241
156	0x3eca862b	0.39555487
157	0x3f0abb0e	0.5419167
158	0x3ed58ad5	0.41707483
159	0xbe01771e	-0.12643096
160	0x3d0606a4	0.032721177
161	0x3c4ede49	0.012626239
162	0x3f0ea18d	0.55715257
163	0x3f0890a3	0.533457
164	0x3e238e3e	0.1597223
165	0x3f66dd23	0.9018118
166	0x3f8db45c	1.1070666
167	0x3f34098a	0.70327055
168	0x3f0bd19f	0.5461673
169	0x3f7200fb	0.94532746
170	0x3f1541e5	0.5830367
171	0x3db2ac05	0.08724216
172	0xbdc0e5c1	-0.09418822
173	0xbc3b3bf8	-0.011427872
174	0xbdcbc887	-0.09950357
175	0xbe8af5af	-0.27140567
176	0xbe1b63c2	-0.15174773
177	0xbeb250a8	-0.3482716
178	0xbeba31cb	-0.36366114
179	0xbe337f88	-0.17529118
180	0xbee3b9c2	-0.4447766
181	0xbf16e574	-0.5894387
182	0xbea4cd75	-0.32188
183	0xbf338af7	-0.7013392
184	0xbf7d1c5a	-0.98871386
185	0xbf1af96c	-0.6053684
186	0xbf420907	-0.75795025
187	0xbf77a13a	-0.9673039
188	0xbf046341	-0.5171395
189	0xbf900de2	-1.1254237
190	0x3f565ca8	0.8373513
191	0x3f8ffc51	1.1248876
192	0x3f8d0a3f	1.1018752
193	0x3fbb5f85	1.4638525
194	0x3f130451	0.5742846
195	0xbc960e47	-0.018317355
196	0xbfe0d384	-1.756455
197	0xc0241bcb	-2.5641963
198	0xbf76ab2c	-0.9635494
199	0x3f58c171	0.8467017
200	0x3fa277b0	1.2692776
201	0x3f92f47d	1.1480862
202	0x3fba99b9	1.4578162
203	0x3f49d749	0.78844124
204	0xbdeec4e5	-0.116586484
205	0xbfedaac9	-1.8567744
206	0xc018918e	-2.383884
207	0xbfbe9b8e	-1.4891222
208	0x3bea196d	0.0071441443
209	0x3f02574d	0.5091446
210	0x3f854941	1.041298
211	0x3fae8136	1.3633182
212	0x3f5d0207	0.8633122
213	0x3ed8334b	0.42226633
214	0xbf8195db	-1.0123857
215	0xbfb128a8	-1.3840532
216	0x3f1d55b6	0.6145891
217	0x3f50ecca	0.8161131
218	0x3ef1df83	0.47240838
219	0x3f61f29a	0.88260806
220	0x3fa6a7ed	1.3019997
221	0x3f51583e	0.8177527
222	0x3f03f278	0.5154185
223	0x3f71ea5b	0.94498223
224	0x3ed1a12d	0.4094328
225	0xbf814856	-1.01002
226	0xbf9d187c	-1.2273097
227	0xbf8a619b	-1.0811037
228	0xbfaf3717	-1.3688687
229	0xbfc09606	-1.5045784
230	0xbfaaf221	-1.3355142
231	0xbf9ee699	-1.2414123
232	0xbfa5deb9	-1.2958595
233	0xbf8c5337	-1.0962895
234	0x3efbc0bd	0.49170485
235	0x3f078419	0.5293594
236	0x3edfc8ad	0.4370779
237	0x3ef92de5	0.48667827
238	0x3f33edee	0.70284927
239	0x3f14a80d	0.58068925
240	0x3e9a679a	0.30157167
241	0x3f05c34c	0.52251124
242	0x3ec743d7	0.38918945
243	0xbf008e2b	-0.5021693
244	0xbfa665a1	-1.2999765
245	0xbf3030c1	-0.6882439
246	0xbf1c5bac	-0.6107738
247	0xbf194e7c	-0.5988538
248	0xbef8e538	-0.4861238
249	0x3f9dc0ba	1.232444
250	0x40032a21	2.0494463
251	0x3fa184b8	1.2618628
252	0xbee04f99	-0.43810728
253	0xbfa6b85f	-1.3025016
254	0xbf20b1bc	-0.627712
255	0xbf09e851	-0.5387011

conv1.1.weight f4 [16]
0	0x3fd0fe6a	1.6327641
1	0x3fd4ff67	1.6640443
2	0x3fe7ff17	1.8124722
3	0x3fdac6a0	1.7091866
4	0x4009c357	2.1525476
5	0x3fb1a55d	1.387859
6	0x3fccb3e8	1.5992403
7	0x400c9f7f	2.1972349
8	0x3fbf7ab8	1.4959326
9	0x3fd500c5	1.664086
10	0x3fdf274a	1.7433865
11	0x3fd651e5	1.6743742
12	0x3fc0c2b9	1.5059425
13	0x3fbf5c0e	1.4949968
14	0x3fc01fc5	1.5009695
15	0x3fd1eee7	1.6401032

conv1.1.bias f4 [16]
0	0xbe477662	-0.19478753
1	0x3f1222dc	0.5708444
2	0x3f81f884	1.0153966
3	0x3f015a58	0.5052848
4	0xbe0463f1	-0.1292875
5	0x3eb14564	0.34623253
6	0x3f2a6e87	0.665749
7	0xbeeb353f	-0.4593906
8	0x3f2c3392	0.6726619
9	0xbe717927	-0.23581372
10	0x3f05d1a3	0.52273005
11	0xbd7157cb	-0.058921617
12	0x3e563747	0.20919524
13	0x3f669994	0.9007809
14	0xbcb39ed8	-0.021926329
15	0x3e5160cd	0.20447083

stage2.0.branch1.0.weight f4 [16, 1, 3, 3]
0	0xbd5e5f44	-0.05429007
1	0xbdd9352f	-0.10605847
2	0x3f0f3a0a	0.55947936
3	0x3ecd5ca6	0.40109748
4	0xbebc442e	-0.36770767
5	0x3ed74563	0.42045125
6	0x3e4d24b0	0.20033526
7	0xbf260a25	-0.6485923
8	0xbd819aee	-0.063283786
9	0x3ea0df2b	0.31420264
10	0xbe6ff3f7	-0.23432909
11	0xbf2ab8c1	-0.6668816
12	0xbf05dab5	-0.52286845
13	0x3e11a739	0.14223947
14	0x3f4d6c6c	0.80243564
15	0xbf29a774	-0.6627114
16	0x3f669d85	0.90084106
17	0x3fe87fff	1.8164061
18	0x3c5784ce	0.013154222
19	0x3a1bf0e5	0.0005948677
20	0xbd89007e	-0.06689547
21	0x3e6ecee2	0.23321107
22	0xbfa43832	-1.282965
23	0x3f5fc85a	0.8741509
24	0x3f8485eb	1.0353369
25	0xc0317f8b	-2.7734096
26	0x3ff7032b	1.9297842
27	0x3e9026cd	0.28154603
28	0xbef0893c	-0.46979702
29	0xbec662dc	-0.387473
30	0xbf0a912c	-0.54127765
31	0xbe20ede1	-0.15715744
32	0x3f02e6dc	0.51133513
33	0xbf06d064	-0.5266173
34	0x3f1cd825	0.6126731
35	0x3fb98b4c	1.4495635
36	0xbcad8a78	-0.021184191
37	0x3d945c17	0.07244127
38	0xbcf3be5a	-0.029753853
39	0x3f0e59a1	0.5560551
40	0x3f270d1e	0.6525439
41	0x3ef854e8	0.48502278
42	0x3e442677	0.19155298
43	0x3eec0db0	0.46104193
44	0x3f8e7c81	1.1131746
45	0xbd147ac6	-0.0362499
46	0xbe547f56	-0.207517
47	0xbf146d1b	-0.5797898
48	0xbd1fbad5	-0.038996536
49	0x3ebce7f8	0.36895728
50	0x3e1d45da	0.15358678
51	0xbe7c1b47	-0.2461978
52	0x3f0bc463	0.5459654
53	0x3f7803d6	0.96880853
54	0xbf0c5009	-0.54809624
55	0x3efef958	0.4979961
56	0x3f55f909	0.8358312
57	0x3e28eff3	0.16497783
58	0xbf0bdc9b	-0.5463349
59	0xbf873b53	-1.0564979
60	0x3f7d9a84	0.990639
61	0xbf0ea010	-0.55712986
62	0xbfa37a7f	-1.2771758
63	0xbe09ba05	-0.13449867
64	0x3d1f2192	0.038850375
65	0x3ed902fd	0.42385092
66	0x3ebc2456	0.36746472
67	0x3f8e9e6a	1.1142094
68	0x3f3c73ab	0.73613995
69	0x3ed68e8a	0.41905624
70	0x3f9c5422	1.2213175
71	0x3f3a771b	0.7283799
72	0xbeb77fb6	-0.35839623
73	0x3e9dec5f	0.308444
74	0x3f380be6	0.71893156
75	0x3f08caad	0.5343426
76	0x3d0693a2	0.032855637
77	0xbf0d5602	-0.5520936
78	0x3f692211	0.91067606
79	0xbf4b6f44	-0.7946665
80	0xbffe7c0e	-1.9881608
81	0x3e6631eb	0.2247998
82	0xbe695cab	-0.22789256
83	0xbf3f6bcc	-0.7477386
84	0x3edf0ded	0.43565312
85	0xbf480182	-0.781273
86	0xbf94bc64	-1.1619992
87	0x3bff6276	0.00779372
88	0xbface67f	-1.3507842
89	0xbf96eebd	-1.1791607
90	0x3d39f67e	0.04540109
91	0x3f98c1cb	1.1934141
92	0xbfbe1054	-1.4848733
93	0xbfea7d0f	-1.8319415
94	0x3f13bb13	0.5770733
95	0x3fa6f13f	1.3042372
96	0x3fc5ad12	1.5443442
97	0xbfeb010d	-1.8359696
98	0x3e49e597	0.19716488
99	0xbde795e4	-0.11307886
100	0x3e0284a0	0.12745905
101	0x3e221226	0.15827236
102	0xbf1d9b26	-0.6156486
103	0xbf1972e9	-0.59940964
104	0xbe505284	-0.20343977
105	0xbefd417e	-0.4946403
106	0xbf0dc856	-0.55383813
107	0xbf4ef854	-0.8084767
108	0xbcc31c1a	-0.02381711
109	0xbd836548	-0.06415802
110	0xbc4a7a6f	-0.012358292
111	0x3df310b6	0.11868422
112	0x3de1e03f	0.110291
113	0x3e03ec7a	0.12883177
114	0xbd488518	-0.048955053
115	0xbcd91b49	-0.026502268
116	0x3982aef5	0.00024925885
117	0x3f44d7ad	0.76891595
118	0x3db18433	0.08667793
119	0xbf085d7a	-0.53267634
120	0x3f8da8a0	1.1067085
121	0x3da7e54c	0.08198032
122	0xbf5087e3	-0.81457347
123	0x3f05c238	0.5224948
124	0xbe9c8ca8	-0.30576062
125	0xbf5ae7c4	-0.85509896
126	0xbeb023c7	-0.34402296
127	0x3f2c989a	0.6742035
128	0x3f721eeb	0.9457843
129	0x3f0b4f62	0.54418004
130	0x3c2a4a26	0.010393655
131	0xbedd317d	-0.4320182
132	0x3f331a64	0.69962144
133	0xbf7fd301	-0.9993134
134	0xbfbf7ee3	-1.4960598
135	0xbcd8c1e8	-0.02645965
136	0x3e3952a3	0.1809793
137	0x3e41d997	0.1893066
138	0x3e426b0e	0.1898615
139	0xbf009782	-0.5023118
140	0xbf570d5a	-0.8400475
141	0x3f277e2f	0.65426916
142	0xbed59b7c	-0.41720188
143	0xbf586a59	-0.84537274

stage2.0.branch1.1.weight f4 [16]
0	0x3f94c24a	1.1621792
1	0x3fdfeb87	1.7493752
2	0x3fffb285	1.9976355
3	0x3fd55655	1.6666971
4	0x3fbb186e	1.461683
5	0x3fa1bb25	1.2635237
6	0x3fd3ff64	1.6562314
7	0x3faf349f	1.3687934
8	0x3fe8200a	1.8134778
9	0x3f981e29	1.1884204
10	0x4012bbc4	2.2927103
11	0x3fbbe22e	1.46784
12	0x3ebc088c	0.3672527
13	0x3f825fb3	1.0185455
14	0x3fbe05e8	1.4845552
15	0x3fbdca67	1.4827393

stage2.0.branch1.1.bias f4 [16]
0	0x3dd93f49	0.10607774
1	0xbeba8b7b	-0.3643454
2	0x3f6d57d0	0.92712116
3	0x3d22c9db	0.039743286
4	0xbebc81f3	-0.36817893
5	0xbe3390bb	-0.17535679
6	0x3fb03676	1.376662
7	0xbedbe01f	-0.42944428
8	0xbdc7c863	-0.097550176
9	0x3f3de74e	0.7418107
10	0xbf866cc6	-1.0501945
11	0x3ea623cf	0.32449195
12	0xbe367477	-0.17817865
13	0xbea1bbc3	-0.31588563
14	0xbeac754a	-0.33683234
15	0x3dbfc0d4	0.09362951

stage2.0.branch1.2.weight f4 [16, 16, 1, 1]
0	0x3e5b285d	0.21402116
1	0x3f2a893c	0.66615653
2	0x3bc0051f	0.0058599855
3	0x3f826a90	1.018877
4	0xbe25c4f2	-0.1618841
5	0x3ee83b59	0.4535778
6	0x3f3854aa	0.7200419
7	0x3eee928a	0.46596175
8	0x3ec84461	0.3911467
9	0xbf5f9e08	-0.8735051
10	0x3dbb3fc4	0.09143022
11	0xbdd322ed	-0.10309396
12	0xbe0986f7	-0.13430391
13	0xbf00cb6c	-0.503104
14	0xbfacdb5f	-1.3504447
15	0x3fa7cc53	1.310923
16	0xbf1b8e8e	-0.60764396
17	0xbddf4c7f	-0.10903262
18	0x3da8eb6a	0.08248027
19	0x3e11550c	0.14192599
20	0xbe0deba9	-0.13859428
21	0xbdd31165	-0.10306052
22	0x3d8747e1	0.06605507
23	0x400b6862	2.178246
24	0xbe02529c	-0.12726825
25	0xbf5732ab	-0.8406169
26	0xbe13a4dd	-0.14418359
27	0x3be425dc	0.006962521
28	0x3d654b0d	0.055979777
29	0x3d9a77f3	0.0754241
30	0x3edd3723	0.43206128
31	0xbe58b28a	-0.21161857
32	0xbc32a90e	-0.010904564
33	0x3f1ad5bd	0.6048239
34	0x3d54f8e4	0.051995173
35	0xbf9a55c4	-1.2057424
36	0x3d072ce6	0.033001803
37	0xbec23489	-0.37930706
38	0xbf002136	-0.50050676
39	0x3e5af486	0.21382341
40	0x4004fab0	2.0778008
41	0x3d8eefc4	0.069793254
42	0x3dc6fb2f	0.09715878
43	0x3d60ff6f	0.0549311
44	0x3e06327b	0.13105194
45	0xbcf792e1	-0.030221405
46	0x3e41e4d5	0.18934949
47	0xbf6c9160	-0.92409325
48	0xbe939fff	-0.28833005
49	0xbf94cb90	-1.1624622
50	0x3b198cf8	0.0023429971
51	0xbf65bbdd	-0.8973978
52	0xbd34457d	-0.04401158
53	0xbf9b49e2	-1.2131922
54	0xbf8755a3	-1.0573009
55	0xbd9a78ca	-0.0754257
56	0x3ea08451	0.3135095
57	0x3f1840bf	0.59473795
58	0x3de2dd30	0.110773444
59	0x3e8f82a9	0.28029373
60	0xbd16e0b8	-0.036835402
61	0x3e1e68e5	0.15469702
62	0x3ce3df08	0.02781631
63	0x3f65570d	0.89585954
64	0x3eb77835	0.35833898
65	0x3e3f3c3c	0.18675321
66	0xbe46a216	-0.19397768
67	0x3e825698	0.2545669
68	0x3f44bdef	0.76852316
69	0x3e8bb3d1	0.27285627
70	0x3e8995f7	0.26872227
71	0x3d55f97c	0.05223988
72	0xba65a62a	-0.0008760417
73	0x400eb090	2.2295265
74	0x3ec1fad1	0.3788667
75	0xbeca7008	-0.39538598
76	0xbdd558da	-0.10417338
77	0x3ebdcc6d	0.37070027
78	0xbd9d2ebb	-0.07674929
79	0xbe008dc6	-0.12554082
80	0xbe89d64d	-0.2692131
81	0xbe4550ea	-0.19269148
82	0x4002d07d	2.043975
83	0xbd709f74	-0.058745816
84	0xbdc1373c	-0.09434363
85	0xbe3dffc5	-0.185546
86	0x3e574cf7	0.21025454
87	0xbe283cb4	-0.16429406
88	0x3dc19d05	0.09453777
89	0x3d1bb288	0.038012058
90	0xbe4766e2	-0.1947284
91	0xbde7244e	-0.112862214
92	0x3d5c0b70	0.053721845
93	0xbfada4f1	-1.3565961
94	0xbe6093c5	-0.2193137
95	0x3d9066f4	0.07050887
96	0x3e6bbad7	0.23020492
97	0x3bf3cf30	0.00744047
98	0x3e509cca	0.2037231
99	0x3e5df516	0.21675524
100	0x3daeea2c	0.085407585
101	0x3ed6d7fa	0.41961652
102	0xbdf0a210	-0.11749661
103	0xbe239b97	-0.15977322
104	0x3cece2f8	0.02891682
105	0x3d51ccc5	0.051220674
106	0x402d0aee	2.703792
107	0x3e21c335	0.15797122
108	0x3db2a1d8	0.087222755
109	0x3ba72f50	0.0051020756
110	0xbae4982c	-0.001744037
111	0x3d9539d8	0.072864234
112	0x3da9a2bd	0.08282993
113	0xbfdf9d12	-1.7469809
114	0xbc0143b1	-0.007889674
115	0x3ca24d52	0.01981226
116	0xbd565928	-0.05233112
117	0x3ecbb205	0.39784256
118	0xbfb1900f	-1.3872088
119	0x3e4b20af	0.19836687
120	0xbf4e3c6a	-0.80560935
121	0xbda5bed6	-0.0809304
122	0x3dabd30e	0.08389865
123	0xbde00abc	-0.109395474
124	0x3cc44ac6	0.023961436
125	0xbc921cc8	-0.01783599
126	0x3f41d107	0.75709575
127	0xbe3f5b76	-0.18687233
128	0xbed5fcd6	-0.4179446
129	0x3decf6d7	0.115705185
130	0xbe8427fc	-0.25811756
131	0xbd52db43	-0.051478636
132	0x3e6f312a	0.23358598
133	0xbf51af03	-0.8190767
134	0xbe51766e	-0.20455334
135	0x3dd104e9	0.10206015
136	0x3f306419	0.68902737
137	0x3f886b00	1.0657654
138	0xbd0792ee	-0.033099107
139	0x3df34fbb	0.11880442
140	0xbc48714f	-0.012234046
141	0x3e0f6f79	0.14007367
142	0x3dfc674c	0.1232439
143	0xbe14872e	-0.14504692
144	0xbe32d35a	-0.17463437
145	0xbcc81f17	-0.024428887
146	0xbf1fcd12	-0.6242229
147	0xbdf46ae7	-0.119344525
148	0xbef65122	-0.48108774
149	0xbdbbeae2	-0.0917566
150	0x3df4c5b1	0.11951769
151	0x3dbce8b4	0.09224072
152	0xbb90676f	-0.0044068615
153	0xbe6e3a81	-0.23264505
154	0x3ca77883	0.020443207
155	0x4021c781	2.5278018
156	0xbdf5aa87	-0.11995416
157	0xbea07e90	-0.3134656
158	0xbec883a7	-0.39162943
159	0xbdc35985	-0.09538559
160	0xbe181706	-0.14852533
161	0xbe922f5d	-0.2855176
162	0xbeba061d	-0.3633279
163	0x3dfd53cb	0.12369498
164	0x3f4741e3	0.7783491
165	0xbe2f571d	-0.17123075
166	0x3e3edaae	0.18638107
167	0xbf76de63	-0.96433085
168	0x3e9d69fb	0.3074492
169	0xbe6d5b0d	-0.23179264
170	0xbea38cdd	-0.31943408
171	0x3d4bd912	0.04976756
172	0xbd0697f4	-0.032859758
173	0xbf3ee1df	-0.745634
174	0x3e04a087	0.12951861
175	0x3f060dbd	0.5236471
176	0xbebe37ea	-0.37152034
177	0xbf4373ba	-0.7634846
178	0x3e01414e	0.12622568
179	0xbe1d4ef8	-0.15362155
180	0xbdd733d6	-0.10507934
181	0xbf16ee4f	-0.5895738
182	0xbf829684	-1.0202184
183	0xbecf487e	-0.40484995
184	0xbee47e54	-0.4462763
185	0x3e67716d	0.22601862
186	0x3d213919	0.039361093
187	0xb909331a	-0.00013084375
188	0x3c0fadee	0.008769495
189	0x3e44190a	0.19150177
190	0x3f1f30d1	0.6218386
191	0xbec53baa	-0.38522083
192	0xbe22115c	-0.15826935
193	0x3f329414	0.697572
194	0x3ee214e2	0.44156557
195	0x3ede897a	0.4346426
196	0x3e5ad0c0	0.21368694
197	0x3ec75983	0.3893548
198	0x3f20885a	0.62708056
199	0xbed160f8	-0.40894294
200	0x3f0056bd	0.5013235
201	0x3e9c9c3d	0.3058795
202	0xbc98e28d	-0.018662715
203	0xbf1010d3	-0.5627567
204	0x3d4cd3d2	0.050006695
205	0x3de47a0d	0.11156092
206	0xbf6535c7	-0.8953518
207	0x3d8b9c9a	0.06816979
208	0x3f028527	0.50984424
209	0x3dbbfd2d	0.09179149
210	0xc00d2d0d	-2.2058747
211	0x3e0aef80	0.13567924
212	0xbec20adb	-0.37898907
213	0x3ea45591	0.32096532
214	0xbca377b6	-0.019954544
215	0xbd91c984	-0.07118514
216	0x3d08bb34	0.033381656
217	0x3e109758	0.14120233
218	0xbd66a097	-0.056305494
219	0xbd880b60	-0.066427946
220	0x3dc5ffa1	0.09667898
221	0xbd8d5a74	-0.06902018
222	0xbdc31300	-0.09525108
223	0xbdea5415	-0.114418186
224	0x3ebf28c2	0.37335783
225	0x3d3d1c80	0.046169758
226	0xbee0a01c	-0.43872154
227	0x3ee6fa69	0.45112923
228	0xc02a1f95	-2.6581776
229	0x3e3d2be4	0.18473774
230	0xbd3025db	-0.04300485
231	0x3e4b55b1	0.19856907
232	0xbe94ee8c	-0.29088247
233	0x3d539366	0.051654242
234	0x3d8f3eeb	0.069944225
235	0x3dabb1df	0.083835356
236	0x3c458030	0.012054488
237	0x3e0b259f	0.1358857
238	0x3e19aed6	0.15008101
239	0xbe837b53	-0.25680026
240	0x3ec8e7a2	0.39239222
241	0x3f66aeb9	0.90110356
242	0x3d323ca3	0.04351486
243	0xbf1850a4	-0.5949805
244	0xbe16b683	-0.1471806
245	0x3d04c55a	0.03241477
246	0x3f5e1a78	0.8675914
247	0xbe870b45	-0.26375785
248	0x3eec0c2e	0.46103042
249	0xbea9f8db	-0.33197674
250	0xbb040fd4	-0.0020151036
251	0x3dad4365	0.0846012
252	0xbcb9791a	-0.022640754
253	0xbe3af1f9	-0.18256368
254	0xbef83511	-0.48477986
255	0xbf3901c5	-0.72268325

stage2.0.branch1.3.weight f4 [16]
0	0x3fd1a83f	1.637947
1	0x3fb654c8	1.4244623
2	0x40007fb1	2.0077937
3	0x4006435e	2.0978618
4	0x3fd11424	1.6334271
5	0x3ff761ea	1.9326756
6	0x3ff8ab5a	1.9427292
7	0x3fdb7688	1.7145548
8	0x3f877255	1.0581766
9	0x3fa56800	1.2922363
10	0x3f6f81ec	0.9355762
11	0x3f8a984d	1.0827729
12	0x3f6c4ea8	0.9230752
13	0x3fcaba2e	1.5838068
14	0x3fab4ba2	1.3382456
15	0x3f8e0f07	1.1098336

stage2.0.branch1.3.bias f4 [16]
0	0xbd3b45de	-0.045720927
1	0x3f71370d	0.94224626
2	0x3d49bf2c	0.04925458
3	0x3f152ed4	0.5827458
4	0x3e72f34f	0.23725627
5	0xbed3ed89	-0.41392162
6	0xbe0d27ad	-0.13784666
7	0x3d99d79f	0.075118296
8	0x3f006ea7	0.5016884
9	0x3e9cca74	0.3062321
10	0x3f142088	0.5786214
11	0x3e927bf8	0.28610206
12	0x3ea2f951	0.31830838
13	0xbcf1f1c2	-0.029534224
14	0x3de38e14	0.111110836
15	0x3ef6b93d	0.481882

stage2.0.branch2.0.weight f4 [16, 16, 1, 1]
0	0x3d5ce44a	0.05392865
1	0xbe919cd1	-0.28439954
2	0x3e077da6	0.13231525
3	0x3e7ad75e	0.24496219
4	0xbca71ee3	-0.02040047
5	0x3fc33af9	1.5252372
6	0x3effbb73	0.499477
7	0xbeeca550	-0.46219873
8	0xbed09995	-0.40742174
9	0x3d3dfd21	0.04638398
10	0xbce6e802	-0.028186802
11	0xbd37b00a	-0.04484562
12	0x3f6e2d16	0.93037546
13	0x3f10ac75	0.5651315
14	0x3f2e9be0	0.68206596
15	0xbe964b81	-0.2935448
16	0x3ef3c316	0.47609776
17	0x3deb936a	0.115027264
18	0xbf8576d1	-1.0426885
19	0xbddd1bba	-0.10796304
20	0xbf45ad78	-0.7721782
21	0x3cb4b19b	0.022057345
22	0x3edc5891	0.4303632
23	0x3f5db08b	0.8659751
24	0x3ebc97ea	0.3683465
25	0x3ed234f7	0.41056034
26	0x3ec8edc9	0.39243916
27	0xbebc2455	-0.3674647
28	0x3efc81dc	0.49317825
29	0x3efcd1e0	0.49378872
30	0x3eb6d354	0.35708106
31	0xbdbd92fb	-0.0925655
32	0x3fae1191	1.3599111
33	0xbe4d5b6c	-0.20054406
34	0x3e573c59	0.21019115
35	0x3dd9be70	0.10632026
36	0x3d965cd3	0.073419236
37	0xbd91286f	-0.0708779
38	0xbf3e04c1	-0.74226004
39	0x3ef5dc49	0.48019627
40	0x3db6538d	0.08902655
41	0x3f2370b1	0.6384383
42	0xbe6e338b	-0.2326185
43	0x3c42b8f6	0.011884918
44	0x3d735d1d	0.05941497
45	0xbe107a04	-0.14109045
46	0xbd98c3ec	-0.07459244
47	0x3ea67872	0.32513767
48	0x3f8aa30c	1.0831008
49	0x3dcbb6a4	0.09946945
50	0xbba15791	-0.004923769
51	0x3eb59b8f	0.35470244
52	0x3e6fc990	0.23416734
53	0xbcfc2507	-0.030779375
54	0xbf37b8fa	-0.71766627
55	0xbf0e181d	-0.55505544
56	0xbee2ba7a	-0.44282895
57	0xbec22b43	-0.3792363
58	0x3e2ec79d	0.17068334
59	0x3f19eb32	0.60124505
60	0xbe452d12	-0.19255474
61	0xbc85f3a0	-0.016351521
62	0x3f21dc6e	0.63226974
63	0xbe5bc0ad	-0.21460219
64	0x3fb1a65a	1.3878891
65	0xbeda859c	-0.4268006
66	0xbf3c3491	-0.7351771
67	0xbd8658f5	-0.06559936
68	0x3f747936	0.95497453
69	0x3dc373a2	0.095435396
70	0x3f1f1093	0.62134665
71	0x3d8e8f7e	0.06960963
72	0x3e8e4244	0.27784932
73	0x3e38c5ae	0.18044159
74	0xbdaaad4e	-0.083338365
75	0x3f742df0	0.95382595
76	0x3d8ec3b4	0.06970921
77	0xbeb0cb53	-0.34530124
78	0xbe015f1d	-0.12633939
79	0x3ecd6ea2	0.4012347
80	0x3d2094db	0.03920446
81	0x3ead9c5f	0.33908364
82	0x3f0332d5	0.5124944
83	0xbdce9c28	-0.10088378
84	0x3f714d21	0.94258314
85	0x3f1c6408	0.61090136
86	0x3e47f104	0.19525534
87	0x3daf2ccb	0.085534655
88	0x3f2cd5da	0.6751381
89	0x3c22fed4	0.009948451
90	0xbe5f1e2f	-0.21788858
91	0x3f53c945	0.8272899
92	0x3f3af6d0	0.73032856
93	0x3e8bd5cc	0.27311552
94	0xbe605e71	-0.21911027
95	0x3e6baf21	0.23016025
96	0x3e51d1ee	0.20490238
97	0x3ea64d59	0.32480887
98	0x3e686c3e	0.22697541
99	0xbef37b51	-0.4755502
100	0x3e61d419	0.22053565
101	0x3f88cfd5	1.0688425
102	0x3f8dbd76	1.1073444
103	0x3c0c65d9	0.008569204
104	0x3ef3c049	0.4760764
105	0x3e3f0518	0.18654287
106	0x3e5d2e47	0.21599685
107	0x3daa39a8	0.08311778
108	0x3f7a0f27	0.9767937
109	0xbccfe361	-0.025376977
110	0xbf0615bf	-0.5237693
111	0x3f577155	0.84157306
112	0x3f51cd6e	0.81954086
113	0xbf337a4c	-0.70108485
114	0x3e6774f2	0.22603205
115	0xbd29641f	-0.04135525
116	0x3ebcdc64	0.36886895
117	0xbf8f3138	-1.1186895
118	0x3f0ed659	0.5579582
119	0x3f3a014f	0.72658247
120	0xbde8c171	-0.11365021
121	0x3cc17392	0.023614679
122	0x3e3e366d	0.1857545
123	0xbd4eb1c6	-0.050462507
124	0xbf4249b9	-0.7589374
125	0xbf5190a5	-0.81861335
126	0x3e436c6e	0.19084331
127	0xbf605737	-0.8763308
128	0xbe25f278	-0.16205776
129	0xbe2c7730	-0.16842341
130	0xbf35238e	-0.7075738
131	0xbea4c3a6	-0.32180518
132	0xbff5cdd3	-1.9203438
133	0xbe739799	-0.23788299
134	0x3ee6f9dd	0.45112506
135	0x3faf84b1	1.3712369
136	0xbe0c5fc4	-0.13708407
137	0xbe25da9e	-0.16196677
138	0xbebc2602	-0.36747748
139	0xbfb696ea	-1.4264805
140	0x3ed33c3b	0.4125689
141	0xbecaef4c	-0.39635694
142	0xbdd78bd4	-0.10524717
143	0x3ea4ac16	0.3216254
144	0x3f7013df	0.9378032
145	0x3dd7f412	0.105445996
146	0x3df248fb	0.11830326
147	0xbec88c8f	-0.39169738
148	0xbeab19c9	-0.3341811
149	0xbf139bad	-0.5765942
150	0x3dd5db3a	0.10442205
151	0xbd191f07	-0.037383106
152	0xbf42d855	-0.76111346
153	0x3f1355cf	0.5755281
154	0x3e766bdb	0.24064581
155	0xbee11ec9	-0.439688
156	0xbdb8f3af	-0.09030854
157	0x3cb51730	0.022105783
158	0x3e757bf5	0.23973067
159	0x3f78c337	0.97172874
160	0x3ed3fbca	0.41403037
161	0xbbb17512	-0.005415567
162	0xbb583a41	-0.0032993706
163	0x3e396a2f	0.18106912
164	0xbdf09421	-0.11747003
165	0x3f004672	0.5010749
166	0x3dd2769c	0.10276529
167	0xbe884487	-0.26614782
168	0x3dc47695	0.0959293
169	0xbe1ad9ee	-0.15122196
170	0x3ef258f2	0.47333485
171	0xbd8a8fdd	-0.06765721
172	0x3e88c2e9	0.26711205
173	0xbd08cf8b	-0.033401053
174	0xbef3f5a1	-0.47648337
175	0xbe587b84	-0.21140867
176	0x3db21706	0.086957976
177	0xbe133f79	-0.14379682
178	0xbe16a56f	-0.14711545
179	0xbfbc5ac1	-1.4715196
180	0x3d77bd86	0.060483478
181	0x3e7cee07	0.24700175
182	0x3f61c73c	0.8819463
183	0xbd4c1815	-0.049827654
184	0xbf590a09	-0.8478094
185	0x3e8f33af	0.2796912
186	0xbe12427a	-0.14283171
187	0xbdbfb355	-0.09360377
188	0x3ebba22b	0.36647162
189	0x3de48977	0.11159032
190	0xbf930181	-1.1484834
191	0x3f966823	1.175053
192	0xbe32b2e8	-0.1745106
193	0x3fb5daeb	1.4207433
194	0xbd8078ea	-0.062730625
195	0x3e68bbe9	0.22727932
196	0xbe4e90a6	-0.20172366
197	0x3ce9fff8	0.028564438
198	0xbe0b98e4	-0.13632542
199	0xbe69f034	-0.22845536
200	0xbf64a42b	-0.89313
201	0xbe1960a6	-0.14978275
202	0x3dbbbf09	0.091672964
203	0xbce71bfc	-0.028211586
204	0xbe93b82f	-0.28851458
205	0xbe60836d	-0.21925135
206	0x3f902120	1.1260109
207	0x3eb32eb2	0.34996563
208	0x3ebdf2dd	0.37099352
209	0x3ee50e1a	0.4473732
210	0x3f381dce	0.7192048
211	0x39fd6f4f	0.00048338852
212	0xbd279384	-0.040912166
213	0x3a743712	0.00093160674
214	0x3f029e61	0.5102292
215	0x3d5ec252	0.054384537
216	0x3ec07022	0.3758555
217	0x3ef31592	0.47477394
218	0x3e0fbf01	0.14037706
219	0xbec45cd6	-0.38352078
220	0x3eb304bd	0.34964553
221	0xbfdfa376	-1.7471759
222	0xbdbd035a	-0.09229155
223	0x3e89ab88	0.2688868
224	0x3e209769	0.15682758
225	0xbee76edd	-0.4520177
226	0xbb79a70e	-0.0038093957
227	0x3fe93713	1.8219932
228	0x3de58d30	0.1120857
229	0xbe6b3e19	-0.22972907
230	0x3f827cb0	1.0194302
231	0xbd23c01c	-0.03997813
232	0x3fa251ab	1.2681173
233	0x3dd883ec	0.10572037
234	0xbd8be252	-0.068302765
235	0xbe715310	-0.23566842
236	0xbf2c1313	-0.67216605
237	0x3d8e7249	0.06955392
238	0x3eee1b73	0.46505317
239	0xbf30ec38	-0.6911044
240	0xbd7d9ade	-0.06191527
241	0x3e8eef7a	0.2791708
242	0xbcb432a2	-0.0219968
243	0xbf350c1a	-0.7072159
244	0x3f1bc8d9	0.60853344
245	0xbedf4078	-0.43603873
246	0x3f349e29	0.70553833
247	0xbeda40c6	-0.42627543
248	0xbf8649b3	-1.0491241
249	0xbeee8d75	-0.46592298
250	0xbef447fd	-0.47711173
251	0x3f1e6f84	0.6188891
252	0xbe443588	-0.19161046
253	0xbdc8f561	-0.09812427
254	0xbe6cb276	-0.23114952
255	0xbeb0ea74	-0.34553874

stage2.0.branch2.1.weight f4 [16]
0	0x3f8ad914	1.0847497
1	0x3f82aeb0	1.020956
2	0x3f8a8537	1.0821904
3	0x3f7de3ca	0.99175704
4	0x3fe25bbb	1.7684244
5	0x3f933e82	1.1503451
6	0x3f599e7c	0.8500745
7	0x3f93f1c2	1.1558154
8	0x3fd78e85	1.6840369
9	0x3f9083b8	1.1290197
10	0x3eb7b3cd	0.35879365
11	0x3fa53f57	1.2909955
12	0x3fb24da1	1.392994
13	0x3f843337	1.032813
14	0x3fb52a28	1.415349
15	0x3f92741b	1.1441683

stage2.0.branch2.1.bias f4 [16]
0	0xbf91f341	-1.140236
1	0x3f0f8f1d	0.5607775
2	0x3ee14dad	0.44004574
3	0x3e9d165d	0.30681124
4	0x3e3b888c	0.18313807
5	0xbe61c2a8	-0.22046912
6	0xbd940301	-0.072271354
7	0x3f95b8b3	1.1696991
8	0x3e927ac3	0.28609285
9	0x3ea6fbbd	0.32613936
10	0x3f82f7c5	1.0231863
11	0x3f6de1fa	0.9292294
12	0xbf1ff1f4	-0.62478566
13	0x3e0a66e1	0.13515808
14	0xbf942411	-1.1573507
15	0x3f9c6617	1.2218655

stage2.0.branch2.3.weight f4 [16, 1, 3, 3]
0	0xbd96a0db	-0.073548995
1	0x3eb6778f	0.3563809
2	0x3ecbc004	0.39794934
3	0x3e1bcd27	0.15214978
4	0xbec109f7	-0.37702915
5	0xbf12eea0	-0.5739536
6	0x3dedff60	0.116209745
7	0xbf73bc17	-0.9520888
8	0xbf57afe6	-0.84252775
9	0x3ed766f8	0.42070746
10	0x3f1d27fc	0.61389136
11	0x3e9a0b7b	0.30086884
12	0xbee658c8	-0.4498961
13	0xbe408e73	-0.1880434
14	0x3e272eab	0.16326396
15	0xbf24f193	-0.64431113
16	0xbf68e018	-0.9096694
17	0xbeef7c9e	-0.46774763
18	0x3d2dfa99	0.042475317
19	0xbe85e7b7	-0.26153347
20	0xbef0d3f3	-0.47036704
21	0xbe2ac07f	-0.16674994
22	0x3eca4383	0.39504632
23	0x3eeaa8e0	0.45831966
24	0xbec3d7b3	-0.38250503
25	0x3f5f4483	0.87213916
26	0x3f6796c6	0.90464437
27	0xbe0a8da7	-0.13530599
28	0xbe00db2a	-0.12583604
29	0xbe3718f0	-0.17880607
30	0x3c7837cb	0.015150021
31	0x3eb718bc	0.35761058
32	0x3f1bca45	0.60855514
33	0xbd1a0844	-0.03760554
34	0x3ef882a3	0.48537168
35	0x3f55b472	0.8347846
36	0xbcfc367b	-0.030787697
37	0x3ea80f9d	0.32824412
38	0x3eb7ecc7	0.35922834
39	0x3db07dad	0.08617721
40	0xbed111c7	-0.40833876
41	0xbf5123b4	-0.81695104
42	0xbe7bfb08	-0.2460748
43	0xbf2f23d4	-0.68414044
44	0xbfba2240	-1.4541702
45	0xbe04f5f3	-0.12984447
46	0x3d838acf	0.0642296
47	0xbf105253	-0.56375617
48	0xbe08de8c	-0.13366145
49	0xbf2dfc14	-0.67962766
50	0xbf7993d8	-0.97491217
51	0x3e36f1fc	0.17865747
52	0x3d62ecb0	0.055401504
53	0xbe072adc	-0.13199943
54	0xbea79128	-0.32727933
55	0x3ddcdcad	0.10784278
56	0x3f28fdcf	0.6601228
57	0x3eb56cc1	0.35434535
58	0xbd99e451	-0.07514251
59	0xbf00928f	-0.5022363
60	0x3f416e7f	0.7555923
61	0xbea9ac3d	-0.3313922
62	0xbfce8849	-1.6135341
63	0xbd3784a4	-0.04480423
64	0x3e4f72d2	0.20258644
65	0xbeb2f8df	-0.349555
66	0xbe59b7dd	-0.21261545
67	0xbefd9999	-0.49531248
68	0xbee3ef3b	-0.44518456
69	0xbf0761cf	-0.5288362
70	0xbf4fa84d	-0.8111618
71	0xbf0ec1a2	-0.5576421
72	0xbe5a80df	-0.21338223
73	0x3e55c42b	0.20875613
74	0x3ed6368d	0.41838494
75	0xbe2724a8	-0.16322577
76	0x3f1a54a5	0.6028541
77	0x3f7ce48b	0.9878623
78	0x3e2b7f41	0.16747762
79	0x3f19be2d	0.6005581
80	0x3f669e3b	0.9008519
81	0xbe3758b7	-0.17904936
82	0x3dac8b3a	0.08424993
83	0xbe089fb1	-0.13342167
84	0xbe68a7d3	-0.2272027
85	0x3f06d0f7	0.52662605
86	0x3f12dcc8	0.57368135
87	0xbd2ab380	-0.04167509
88	0x3f2304b6	0.63679063
89	0x3f83ecd0	1.0306644
90	0x3f459469	0.7717958
91	0x3e1eaa8f	0.1549475
92	0x3e6d6d53	0.23186235
93	0x3f32443f	0.69635385
94	0xbea7b3a0	-0.3275423
95	0xbe5d9c1f	-0.21641587
96	0x3f36739a	0.71270144
97	0xbed30bb8	-0.41219878
98	0xbe4663f9	-0.19374074
99	0xbdd08c4f	-0.10183012
100	0xbe71a34a	-0.23597446
101	0xbf37023d	-0.7148779
102	0xbed86af0	-0.42269087
103	0x3e623634	0.2209099
104	0x3e994e78	0.2994268
105	0xbeb7d5bb	-0.3590525
106	0x3f931173	1.14897
107	0x3fe1ec37	1.7650212
108	0x3d36bcfe	0.04461383
109	0xbe396904	-0.18106467
110	0xbf7a2762	-0.97716343
111	0xbe93012e	-0.28711838
112	0x3e87b359	0.2650402
113	0x3edf6686	0.43632907
114	0xbee1423d	-0.43995848
115	0x3f131387	0.5745167
116	0x3fcc0bf8	1.5941153
117	0x3e8ba35e	0.27273077
118	0x3f10ea71	0.5660773
119	0x3ed134bb	0.40860543
120	0xbec40ab5	-0.3828942
121	0xbe79dfcf	-0.24401782
122	0xb9f62154	-0.00046945608
123	0xbeb4ef6d	-0.35338917
124	0xbf804406	-1.0020759
125	0xbf7a72b6	-0.97831285
126	0xbe3476fa	-0.17623511
127	0x3e58d135	0.21173556
128	0x3f551618	0.8323684
129	0x3e927df7	0.2861173
130	0xbece8b64	-0.40340722
131	0xbf151ce6	-0.5824722
132	0x3f47a0ac	0.7797954
133	0xbf1c3dde	-0.610319
134	0xbfbaf4a3	-1.4605907
135	0xbdf35b9f	-0.1188271
136	0xbe3d1f42	-0.18468955
137	0xbf0cca19	-0.54995877
138	0xbe35ecde	-0.17766139
139	0x3e7949a6	0.24344501
140	0x3f2581e0	0.646513
141	0xbca5e672	-0.020251486
142	0x3f1f31b2	0.62185204
143	0x3fb5c1a9	1.4199725

stage2.0.branch2.4.weight f4 [16]
0	0x3face9cc	1.3508849
1	0x3f9e50b2	1.2368376
2	0x3fa63c8c	1.2987227
3	0x3fbe24c4	1.485497
4	0x3f469125	0.7756522
5	0x3f8f58c8	1.1198969
6	0x3fbc07e1	1.4689904
7	0x3f8ec79b	1.1154665
8	0x3fb80346	1.4375999
9	0x3f9430ae	1.1577356
10	0x3f87b3fa	1.06018
11	0x3fab9b3e	1.3406751
12	0x3fba1c5b	1.4539903
13	0x3fa14b0c	1.2601027
14	0x3fac08f5	1.3440233
15	0x3f95fae1	1.1717187

stage2.0.branch2.4.bias f4 [16]
0	0xbdcddce1	-0.10051895
1	0x3d493a3e	0.04912781
2	0xbf889b32	-1.0672362
3	0xbfba09fe	-1.4534299
4	0x3f451d6d	0.76998025
5	0x3edb6882	0.4285317
6	0xbdba3c86	-0.09093575
7	0x3f4c4698	0.7979522
8	0xbe94ca41	-0.29060557
9	0xbf4d88aa	-0.8028666
10	0xbf0f397a	-0.5594708
11	0xbedd4a5e	-0.432208
12	0xbc8a8044	-0.016906865
13	0x3f853296	1.0406063
14	0x3f64aeb5	0.8932908
15	0xbe883a25	-0.2660686

stage2.0.branch2.5.weight f4 [16, 16, 1, 1]
0	0x3ea14f78	0.31505942
1	0x3ef8adc6	0.4857008
2	0x3f4ab006	0.7917484
3	0x3f508ad7	0.8146185
4	0xbeb7d39e	-0.3590364
5	0xbd26cbf9	-0.040721867
6	0x3fa0f0b1	1.2573453
7	0xbf57ac4f	-0.842473
8	0x3d9c6007	0.07635503
9	0xbd4c179f	-0.049827214
10	0xbef422db	-0.47682843
11	0xbf42a97e	-0.76039875
12	0xbf469e44	-0.77585244
13	0x3e6096ac	0.21932477
14	0x3f061b55	0.52385455
15	0xbe4879f3	-0.1957777
16	0x3f39c15b	0.7256066
17	0xbd273d86	-0.040830158
18	0xbe9654ca	-0.29361564
19	0xbee0c077	-0.4389684
20	0x3ea0c3f6	0.31399506
21	0x3e882243	0.2658864
22	0x3f18632c	0.59526324
23	0xbe3f1321	-0.18659641
24	0xbede1e8f	-0.4338269
25	0xbf505fc9	-0.81396157
26	0xbf516d47	-0.8180737
27	0xbf1a198b	-0.60195225
28	0xbe317c8b	-0.17332666
29	0x3eb7699c	0.3582276
30	0x3e64e33c	0.22352308
31	0x3ea1421b	0.31495747
32	0x3d92198f	0.07133781
33	0x3e82dfbb	0.25561318
34	0x3f3ddb4c	0.74162745
35	0xbe0d4012	-0.13793972
36	0xbf271e20	-0.6528034
37	0x3f380eb0	0.7189741
38	0x3e61a867	0.22036897
39	0xbf669d64	-0.9008391
40	0xbe52aa10	-0.20572686
41	0x3e54ceac	0.20781964
42	0xbe9086c6	-0.28227824
43	0x3ef8a65a	0.48564416
44	0x3e1a2204	0.15052038
45	0xbeed103a	-0.46301442
46	0x3e1c16c1	0.15243055
47	0x3dd6a83d	0.10481308
48	0xbf8f5214	-1.1196923
49	0x3e01e98a	0.12686744
50	0x3ca12df9	0.019675242
51	0xbf1d3af7	-0.614181
52	0x3e975a55	0.29561105
53	0xbea02386	-0.31277102
54	0xbe4390c3	-0.19098191
55	0x3f3173d5	0.6931737
56	0xbe988787	-0.297909
57	0xbf80175a	-1.0007126
58	0xbec3f63f	-0.38273808
59	0xbdbae90f	-0.09126484
60	0x3dad22e3	0.0845392
61	0x3dcd43e4	0.10022715
62	0x3e56652b	0.2093703
63	0xbf095d3a	-0.5365788
64	0x3f017896	0.50574625
65	0x3e77818b	0.2417051
66	0xbf52ba9e	-0.82316005
67	0xbf7cfaca	-0.98820174
68	0x3dce4934	0.10072556
69	0x3e388b49	0.18021883
70	0x3cca064f	0.024661211
71	0xbe9b8ef2	-0.30382496
72	0x3dabdbb4	0.083915144
73	0x3eec6fd3	0.46179065
74	0xbebadd8a	-0.36497146
75	0x3f72b5a7	0.9480843
76	0xbf348c65	-0.70526725
77	0xbd8db770	-0.069197536
78	0x3f08243c	0.5318029
79	0x3f0b5d67	0.54439396
80	0x3d31e6fe	0.043433182
81	0x3e021074	0.12701589
82	0x3ecda78c	0.4016689
83	0xbf09039a	-0.5352112
84	0x3f8ad2bf	1.0845565
85	0x3fa4a740	1.2863541
86	0x3ef32875	0.47491804
87	0x3f13675c	0.5757959
88	0x3e8b5836	0.27215737
89	0x3f6f74cb	0.93537587
90	0xbea54c45	-0.32284752
91	0x3e5727fa	0.21011344
92	0xbe37f222	-0.1796346
93	0xbd313cd6	-0.04327091
94	0x3eb6f4bf	0.357336
95	0xbeda7f63	-0.42675313
96	0x3f0e5aea	0.55607474
97	0x3d3f18f8	0.04665467
98	0xbc12425b	-0.008926953
99	0x3eaf2117	0.34204933
100	0x3f00685f	0.5015926
101	0x3e8261d9	0.25465277
102	0x3f2b1021	0.66821486
103	0xbeb6dbb3	-0.35714492
104	0xbf10dab8	-0.5658374
105	0xbe8ae108	-0.2712481
106	0xbe9a2de2	-0.3011313
107	0xbf38fa95	-0.7225736
108	0x3f5296b8	0.8226123
109	0xbed1b3c3	-0.4095746
110	0xbfa91ec3	-1.3212513
111	0xbeeebe5c	-0.46629608
112	0x3e99b55b	0.30021176
113	0xbf8af830	-1.0856991
114	0xbddf5e50	-0.109066606
115	0xbee44188	-0.44581246
116	0x3e4c7305	0.19965751
117	0x3e4e62a0	0.2015481
118	0xbc2c515a	-0.010517443
119	0xbf0721e7	-0.52786106
120	0x3fb51846	1.4148033
121	0xbe50c099	-0.2038597
122	0xbef75539	-0.48307207
123	0xbf526b1d	-0.8219469
124	0xbce0caee	-0.027440514
125	0xbe78b777	-0.24288736
126	0x3eb69ea5	0.3566791
127	0xbecc583f	-0.39911076
128	0xbe61a178	-0.22034252
129	0x3dfc7382	0.12326719
130	0x3bc3f406	0.0059800176
131	0xbf47c554	-0.78035474
132	0x3a92cdd8	0.0011200262
133	0xbf02180c	-0.5081794
134	0xbf12b7a3	-0.5731146
135	0xbf00676e	-0.5015782
136	0xbf0925ba	-0.5357319
137	0xbe602b05	-0.2189141
138	0x3d902df7	0.07040017
139	0xbe9fb17f	-0.31190106
140	0xbf6fb8f9	-0.9364162
141	0xbf85d7f7	-1.0456532
142	0xbed532ee	-0.4164042
143	0x3ef6c81c	0.48199546
144	0x3ed34472	0.41263157
145	0xbe073738	-0.13204658
146	0x3f6a144d	0.91437227
147	0x3f14d585	0.58138305
148	0xbe9dc8fa	-0.30817395
149	0xbec27283	-0.3797799
150	0x3e086da3	0.13323073
151	0xbee4f0f1	-0.44715074
152	0xbec2412c	-0.37940347
153	0x3f0220c0	0.5083122
154	0x3e640ce3	0.22270541
155	0xbcfc9927	-0.030834747
156	0xbd7b49bf	-0.061349627
157	0xbe9d49bb	-0.30720314
158	0xbecc4b00	-0.3990097
159	0xbf111e7d	-0.56687146
160	0xbf172ca3	-0.59052485
161	0xbe1b130a	-0.15143982
162	0xbebb2e03	-0.36558542
163	0x3d95f9d3	0.07323041
164	0xbe29f0bb	-0.16595738
165	0xbe1ccaf2	-0.15311792
166	0xbe3fed36	-0.18742833
167	0x3e8928d8	0.26788974
168	0x3e5a4349	0.2131473
169	0x3eb2f5ae	0.34953064
170	0x3eb2214b	0.34791026
171	0x3f2a2f56	0.6647848
172	0x3f26c312	0.65141404
173	0x3ea9d8c1	0.33173183
174	0x3e7ab5f0	0.24483466
175	0x3d147df9	0.03625295
176	0xbf254774	-0.64562154
177	0xbded5df2	-0.11590184
178	0x3e0984dc	0.13429588
179	0x3c9dae2b	0.019248089
180	0xbe0ec8d9	-0.13943805
181	0x3d2ce084	0.042206302
182	0xbf40cbaf	-0.75310796
183	0xbe82cd81	-0.25547412
184	0x3e97631c	0.29567802
185	0xbe5dc670	-0.21657729
186	0xbde52240	-0.11188173
187	0xbf3a52aa	-0.72782385
188	0x3cf6c6e0	0.030124128
189	0xbdeb1e1f	-0.114803545
190	0xbf5b415b	-0.856466
191	0xbf1687cd	-0.58800966
192	0x3cc35f59	0.023849176
193	0xbf675194	-0.90358853
194	0x3eb55c62	0.35422045
195	0xbef432b6	-0.4769494
196	0x3ebdfa2b	0.37104926
197	0xbec42f11	-0.3831716
198	0xbe332ba1	-0.17497112
199	0xbdefdb4d	-0.1171175
200	0xbecb7db4	-0.3974434
201	0x3e3d10fa	0.18463507
202	0x3eda24f8	0.4260633
203	0x3e56f6ce	0.20992586
204	0x3f02b99d	0.51064473
205	0x3f721ddc	0.9457681
206	0xbdfd9f03	-0.12383845
207	0xbedee5a2	-0.4353457
208	0x3eebdf24	0.4606868
209	0x3ed31a14	0.41230834
210	0x3d979bdc	0.07402775
211	0xbdbde588	-0.09272295
212	0x3e62524a	0.22101703
213	0xbec68728	-0.3877499
214	0x3e90224d	0.2815117
215	0xbe7f503c	-0.2493295
216	0xbf3e570e	-0.74351585
217	0x3f02e02a	0.511233
218	0xbd139d03	-0.03603841
219	0xbd81f822	-0.06346156
220	0x3f35535f	0.7083034
221	0xbebda22b	-0.37037787
222	0x3f0e4488	0.5557332
223	0x3f284a56	0.6573843
224	0x3e766ceb	0.24064986
225	0xbd435fea	-0.047698893
226	0xbd63e120	-0.055634618
227	0xbb86f201	-0.0041182046
228	0x3e6b74c5	0.22993763
229	0x3c681041	0.0141640315
230	0x3f3808a0	0.7188816
231	0x3e60efd8	0.21966493
232	0x3e4012f5	0.18757232
233	0x3e8936eb	0.26799712
234	0x3d6eedd3	0.058332276
235	0xbf09f48d	-0.5388878
236	0x3e23705e	0.15960833
237	0xbf453850	-0.7703905
238	0x3e981b50	0.29708338
239	0xbd76158b	-0.06007914
240	0x3e348458	0.1762861
241	0x3eddfc34	0.43356478
242	0x3e0f5ba0	0.13999796
243	0xbedcffc2	-0.43163878
244	0x3ee81cf6	0.45334595
245	0x3c5c7486	0.013455516
246	0xbe8201de	-0.2539205
247	0x3d5c3511	0.053761546
248	0x3eaabb0a	0.33345824
249	0x3eccdb59	0.400111
250	0x3f523953	0.8211872
251	0x3f0a076e	0.53917587
252	0x3f03f623	0.5154745
253	0xbf52549d	-0.8216036
254	0xbe7fcc76	-0.2498034
255	0xbf0dee76	-0.5544199

stage2.0.branch2.6.weight f4 [16]
0	0x3fd172cd	1.636316
1	0x3fc63436	1.5484684
2	0x3fdbd7f3	1.7175277
3	0x3fac8a03	1.3479618
4	0x3fc6b136	1.552283
5	0x3f986eaf	1.1908778
6	0x3fc6d9c4	1.5535207
7	0x3fabdf22	1.342747
8	0x3f2774c2	0.65412533
9	0x3f7bb7af	0.98327154
10	0x3f845d4c	1.0340972
11	0x3f7a7abb	0.9784352
12	0x3f524d01	0.8214875
13	0x3f38ed44	0.7223704
14	0x3f41a3b5	0.7564042
15	0x3f4ea594	0.807214

stage2.0.branch2.6.bias f4 [16]
0	0xbe4572d9	-0.19282092
1	0x3f12093a	0.5704533
2	0x3d775608	0.06038478
3	0x3ec99d44	0.39377797
4	0xbd3896f5	-0.04506584
5	0x3f93d8de	1.1550558
6	0x3f20bbf3	0.6278679
7	0x3d0431fd	0.032274235
8	0x3f2d5876	0.67713106
9	0xbdb5bb93	-0.088736676
10	0xbf2cbe48	-0.67477846
11	0xbddd9c30	-0.10820806
12	0x3f406e30	0.7516813
13	0x3eece75c	0.46270263
14	0x3ef48c2e	0.477632
15	0x3f16308e	0.5866784

stage2.1.branch2.0.weight f4 [16, 16, 1, 1]
0	0xbd3bd482	-0.04585696
1	0xbe85cb8b	-0.26131853
2	0x3fb33ee1	1.4003564
3	0x3ee51e4c	0.44749677
4	0xbdde9ca2	-0.10869719
5	0xbcabcbe6	-0.02097125
6	0xbe6f72f2	-0.23383692
7	0x3e2d6756	0.16933951
8	0xbecddf19	-0.40209273
9	0x3d4dbf43	0.05023123
10	0xbfeb8338	-1.839942
11	0xbe6152b9	-0.22004212
12	0x3fafbcd6	1.3729503
13	0x3d4886d4	0.048956707
14	0x3ea9626a	0.33082896
15	0x3d4b8d1b	0.049695116
16	0xbf721976	-0.945701
17	0x3f1bbeff	0.6083831
18	0xbef21ca8	-0.47287488
19	0xbed31b4d	-0.41231766
20	0xbe06020b	-0.13086717
21	0x3f2b6d8c	0.6696403
22	0x3e22ead5	0.15909894
23	0x3f227e95	0.634744
24	0x3ec49999	0.38398436
25	0x3d164837	0.036689963
26	0xbba34827	-0.0049829665
27	0xbebc245b	-0.36746487
28	0xbe7ee508	-0.24892056
29	0xbe560251	-0.20899321
30	0x3d481151	0.04884464
31	0x3dc8de29	0.09807999
32	0xbe87a08f	-0.26489684
33	0x3eed417b	0.4633902
34	0x3cfca7b3	0.030841684
35	0x3e9babcf	0.30404517
36	0xbe587d7e	-0.21141621
37	0x3f10d7dc	0.56579375
38	0x3f8e6c34	1.1126771
39	0x3e3d5c74	0.184923
40	0xbee8b6d0	-0.45451975
41	0xbbebbf14	-0.007194409
42	0x3e4db0ba	0.20086947
43	0xbf01a0c2	-0.5063592
44	0xbded43cc	-0.11585197
45	0xbdbf338e	-0.09336005
46	0xbefddc2f	-0.4958205
47	0xbed919e7	-0.42402574
48	0xbea140c6	-0.3149473
49	0xbeb953bc	-0.36196697
50	0xbf2477a4	-0.6424506
51	0xbde00b6f	-0.10939681
52	0x3e1dfba0	0.15428019
53	0x3e918095	0.28418413
54	0x3e98f405	0.29873672
55	0x3eed8526	0.46390647
56	0x3f0a4633	0.54013366
57	0x3f8f73ec	1.1207252
58	0xbe9aee8f	-0.3026013
59	0x3db22923	0.086992525
60	0x3f02083c	0.50793815
61	0xbef838ff	-0.48480985
62	0x3f0efe44	0.5585673
63	0x3e72ce82	0.23711589
64	0xbe40cd4f	-0.18828319
65	0xbe5b7d40	-0.21434498
66	0xbe08558b	-0.13313882
67	0xbd6ab9d8	-0.05730614
68	0xbd1ade07	-0.037809398
69	0xbd9c4ad4	-0.0763146
70	0xbddadcd0	-0.10686648
71	0x3d3e206b	0.046417635
72	0xbd01b00d	-0.031662036
73	0xbc50acb5	-0.012736489
74	0x3dfe5a92	0.12419619
75	0xbd908100	-0.07055855
76	0xbd968e4d	-0.073513605
77	0xbda69a5f	-0.08134913
78	0x3d5a7742	0.05333639
79	0xbd3fe7f1	-0.046852056
80	0xbe422338	-0.18958747
81	0xbe5ba08b	-0.21447961
82	0xbe08ebb5	-0.13371165
83	0xbd6d5efe	-0.05795192
84	0xbd1c0978	-0.038094968
85	0xbd9b9d5d	-0.07598374
86	0xbddb0781	-0.10694791
87	0x3d3a5e03	0.045499813
88	0xbd01f608	-0.031728774
89	0xbc542454	-0.012948114
90	0x3dff3e48	0.12463051
91	0xbd9139ed	-0.070911266
92	0xbd95e962	-0.07319905
93	0xbda727af	-0.08161866
94	0x3d5a8a54	0.053354576
95	0xbd3b6851	-0.04575378
96	0xbd6bb5af	-0.057546314
97	0xbd8b8233	-0.06811943
98	0xbe23bbd2	-0.15989617
99	0xbea32892	-0.3186689
100	0x3d1e37c5	0.038627405
101	0x3ed4f07c	0.41589725
102	0x3e807ec9	0.2509673
103	0x3ef1599c	0.4713868
104	0x3f47c716	0.78038156
105	0x3f49f917	0.78895706
106	0xbf58df48	-0.847157
107	0x3e390080	0.18066597
108	0x3f37502a	0.71606696
109	0xbf18f4c1	-0.59748465
110	0x3ed187fe	0.40924066
111	0xbe9dca31	-0.30818322
112	0xbe433a51	-0.19065215
113	0xbe5d079f	-0.21584938
114	0xbe0aff3b	-0.13573925
115	0xbd7147be	-0.05890631
116	0xbd21b8e2	-0.03948296
117	0xbd9c22de	-0.07623838
118	0xbddde9ac	-0.10835585
119	0x3d3d2072	0.04617352
120	0xbcf91ba9	-0.030408697
121	0xbc3fee21	-0.011714489
122	0x3e0042bb	0.12525456
123	0xbd92db7c	-0.071707696
124	0xbd914a29	-0.07094223
125	0xbda5deeb	-0.08099159
126	0x3d57e3fc	0.052707657
127	0xbd411d8f	-0.04714733
128	0xbd8e3926	-0.06944494
129	0xbebdcbdc	-0.37069595
130	0xbde1d175	-0.11026279
131	0xbe71241b	-0.2354893
132	0xbe4af934	-0.19821626
133	0x3e2e2eaa	0.17009988
134	0xbd922b4c	-0.071371645
135	0xbe422a14	-0.18961364
136	0xbe64ce50	-0.22344327
137	0xbe4ecce7	-0.20195352
138	0xbf3aae6a	-0.72922385
139	0xbdbdf86a	-0.09275897
140	0xbc744003	-0.01490784
141	0xbcfe1d4b	-0.031019827
142	0x3d4ab4af	0.04948872
143	0xbe4b4f33	-0.19854431
144	0x3d828350	0.06372702
145	0x3ed7b294	0.42128432
146	0x3f158ac0	0.5841484
147	0x3ee5fdd9	0.44920233
148	0x3f8e0510	1.1095295
149	0xbe3b61f0	-0.18299079
150	0x3e8e5119	0.27796248
151	0xbd05f617	-0.032705393
152	0xbd37642b	-0.044773262
153	0xbf372bee	-0.71551406
154	0xbe04a3eb	-0.12953155
155	0x3eeac35e	0.45852178
156	0xbe4cee61	-0.2001281
157	0x3ee19527	0.44059107
158	0xbe3e9893	-0.1861289
159	0x3f132ef3	0.57493514
160	0x3f34e088	0.7065511
161	0x3f6bd9f8	0.9212947
162	0x3c8d129b	0.017220786
163	0x3f23749e	0.6384982
164	0xbf6f8ee7	-0.93577427
165	0xbe98ff43	-0.2988225
166	0x3e5da039	0.21643151
167	0xbe95bd24	-0.29245865
168	0xbdc62ff1	-0.09677113
169	0x3eb03a14	0.3441931
170	0xbd9bd817	-0.07609575
171	0x3f3f70cb	0.74781483
172	0xbe20c627	-0.15700589
173	0xbdb18f65	-0.086699285
174	0xbf2f88ed	-0.6856831
175	0x3e91e12c	0.28492105
176	0x3f92e38d	1.1475693
177	0xbed09555	-0.4073893
178	0xbe4c9261	-0.19977714
179	0x3f6d4ceb	0.9269549
180	0xbe51c121	-0.20483829
181	0xbe9c7994	-0.30561507
182	0x3ea92bdc	0.33041275
183	0xbe80e634	-0.2517563
184	0x3d18ebf4	0.037334397
185	0xbf1c9895	-0.6117032
186	0x3cc4d242	0.02402604
187	0x3e716eb8	0.23577392
188	0xbda90d9e	-0.082545504
189	0xbe13e3e3	-0.144424
190	0xbe3576c1	-0.17721082
191	0xbea97cc1	-0.33102992
192	0xbe8b3165	-0.27186123
193	0xbe1e6ae7	-0.15470468
194	0xbe408c01	-0.18803407
195	0xbe858df1	-0.26084855
196	0x3dec7367	0.11545449
197	0xbe1dd50d	-0.15413304
198	0x3cf3699b	0.029713443
199	0x3ca469bc	0.02006995
200	0xbe999034	-0.2999283
201	0xbe6e06a3	-0.23244719
202	0x3fc1030e	1.5079057
203	0xbf026a60	-0.50943565
204	0xbe543ca6	-0.2072626
205	0xbdb3bfc6	-0.08776812
206	0x3e03bf3c	0.12865919
207	0xbe88a21a	-0.26686174
208	0x3d9a03ca	0.07520254
209	0xbf252bbf	-0.64519876
210	0xbe0327e8	-0.12808192
211	0x3ece8136	0.40332955
212	0xbd035b71	-0.032069627
213	0xbe970add	-0.29500476
214	0xbf3bf2b9	-0.7341724
215	0x3e908bc4	0.28231633
216	0x3f1b88f3	0.6075584
217	0x3cee3c8d	0.029081607
218	0xbd65a2a5	-0.056063313
219	0x3e9c2730	0.30498648
220	0x3e0157b5	0.12631114
221	0x3f04527b	0.51688355
222	0x3f9334fb	1.1500543
223	0x3f2bedc1	0.6715966
224	0xbc909c42	-0.017652635
225	0xbf6c574f	-0.9232072
226	0xbe8673c2	-0.2626019
227	0xbf247bc3	-0.64251345
228	0xbee0ce13	-0.43907222
229	0xbe94b870	-0.29046965
230	0xbe082359	-0.13294734
231	0xbe154930	-0.145787
232	0x3f48240b	0.7818
233	0xbd8e3057	-0.06942814
234	0x3ec1bc3a	0.37838918
235	0x3f763760	0.96178246
236	0xbe89bdcc	-0.26902616
237	0x3e949b8d	0.29024926
238	0x3e6c5be7	0.23081933
239	0xbee3d43b	-0.44497856
240	0x3eca69dc	0.3953389
241	0x3e0f9266	0.1402069
242	0xbe8bc50a	-0.27298766
243	0x3dfed835	0.12443582
244	0xbe3e4b45	-0.185834
245	0x3f3480d8	0.705091
246	0x3f5d7286	0.86502874
247	0x3f669218	0.9006667
248	0x3c2e5e79	0.010642641
249	0xbe9c4dfc	-0.30528247
250	0xbcf618dc	-0.03004115
251	0xbe03f8e8	-0.12887919
252	0x3e8776ad	0.2645773
253	0xbf513718	-0.8172469
254	0x3ef1369c	0.47111976
255	0x3fa6467e	1.2990263

stage2.1.branch2.1.weight f4 [16]
0	0x3f6b1c3a	0.91839945
1	0x3f89f2d5	1.0777231
2	0x3f942794	1.1574578
3	0x3fb1b704	1.3883977
4	0x3b60e88c	0.0034318296
5	0x3b5abb28	0.0033375714
6	0x3fa4f0e3	1.2886013
7	0x3baaec6e	0.005216173
8	0x3c4b4305	0.012406115
9	0x3f947ab2	1.1599944
10	0x3fa1e3d3	1.2647651
11	0x3f8c7ccd	1.0975586
12	0x3f5981e0	0.849638
13	0x3f92ac45	1.1458822
14	0x3f8b2cef	1.0873088
15	0x3fa1a665	1.2628905

stage2.1.branch2.1.bias f4 [16]
0	0x3ea2b054	0.31775153
1	0x3f479798	0.7796569
2	0x3f331bd0	0.69964314
3	0x3f0ab0e9	0.54176193
4	0xb9a710e0	-0.00031865295
5	0xb9b3357f	-0.00034181398
6	0x3ebb659f	0.36600968
7	0xba6a53d9	-0.0008938886
8	0x3bb775b0	0.0055987462
9	0x3ee5c485	0.44876495
10	0x3ea45b7e	0.32101053
11	0x3f839745	1.0280539
12	0x3ef26bd7	0.473479
13	0x3f2c4b77	0.6730265
14	0x3f922e66	1.142041
15	0x3da13151	0.078707345

stage2.1.branch2.3.weight f4 [16, 1, 3, 3]
0	0x3ec9ec59	0.3943813
1	0xbec20693	-0.3789564
2	0x3e9829d7	0.2971942
3	0x3e13dc38	0.14439476
4	0xbfc98966	-1.5745056
5	0xbf4d891d	-0.80287343
6	0x3f150d0d	0.5822304
7	0xbf13ea28	-0.5777917
8	0x3d2ae4e6	0.0417222
9	0xbc715aa3	-0.014731082
10	0xbd6c6f9e	-0.057723634
11	0xbea2cb6e	-0.3179583
12	0x3bd14a87	0.006387058
13	0xbfb14a45	-1.385079
14	0x3ec7940e	0.38980144
15	0x3e7bbffb	0.24584953
16	0x3fba266e	1.4542978
17	0xbe2a6f12	-0.16643932
18	0xbe60b0a5	-0.21942385
19	0xbe6af53a	-0.22945109
20	0xbe0b3ca6	-0.13597354
21	0xbe9f6017	-0.31127998
22	0xbfb69f0d	-1.4267288
23	0xbd0f3abc	-0.034968123
24	0x3f000048	0.5000043
25	0x3fb6da3a	1.4285347
26	0x3bff4658	0.007790368
27	0x3e0f5c74	0.14000112
28	0xbf08201a	-0.53173983
29	0x3e905c7f	0.2819557
30	0x3f410ce9	0.75410324
31	0xbf95cd23	-1.1703228
32	0xbe50ca03	-0.20389561
33	0xbec1eb59	-0.3787487
34	0xbf6114bc	-0.87922263
35	0x3fb885ee	1.4415872
36	0x3a9033eb	0.0011001801
37	0xb96db26a	-0.00022668546
38	0x39a6abc2	0.00031789957
39	0xba4b0902	-0.0007745178
40	0xba6d0ee7	-0.0009043053
41	0x3a84c5ac	0.0010129712
42	0x39df7915	0.00042624088
43	0x3997742b	0.00028887516
44	0x3a87c2bd	0.0010357719
45	0xba871c74	-0.0010308162
46	0x3a093bfe	0.0005235075
47	0xba23ffbc	-0.0006256064
48	0x3a547ac2	0.00081054505
49	0x3a8c3199	0.0010695934
50	0x3a9a8941	0.0011790172
51	0x39578cfa	0.00020556516
52	0xb9e711fb	-0.0004407315
53	0xba669980	-0.0008796677
54	0xbea664a2	-0.32498652
55	0x3e1bce2d	0.15215369
56	0x3e696198	0.22791135
57	0x3cef6972	0.029225085
58	0xbf9b6721	-1.2140847
59	0x3fd0ae9a	1.6303284
60	0x3e63675d	0.22207399
61	0x3e53f9a3	0.20700698
62	0xbf70d223	-0.94070643
63	0x3b1ba0f7	0.0023747066
64	0x3a22e3b4	0.000621374
65	0x3aa744c3	0.0012761581
66	0x3b022a64	0.0019861693
67	0xb91422d8	-0.0001412736
68	0x3b0e6087	0.0021725015
69	0xb93f99e0	-0.00018272502
70	0x3a8d6cca	0.0010789868
71	0x3ab4a55e	0.0013782193
72	0x398fd525	0.0002743389
73	0x3b47ef41	0.0030507597
74	0x3b425531	0.0029652829
75	0x3b4086c8	0.002937721
76	0x3b9bb8e1	0.004752264
77	0x3b9ab7e9	0.004721631
78	0x3b28f901	0.0025783184
79	0x3bb57252	0.0055373097
80	0x3b340ed1	0.0027474652
81	0x3e7733ae	0.24140808
82	0xbed44039	-0.41455248
83	0xbe651aef	-0.22373556
84	0x3e8dbe37	0.27684185
85	0x3f9e7fdc	1.238277
86	0xc0011dce	-2.0174441
87	0xbec75a58	-0.38936114
88	0xbde91ec8	-0.11382824
89	0x3f8f30ac	1.1186728
90	0xbb40fb8e	-0.0029446813
91	0x3ee66e23	0.45005903
92	0xbe83d727	-0.25750086
93	0x3f103dd4	0.5634434
94	0xbac67187	-0.0015140035
95	0xbf8aed1b	-1.0853609
96	0xbea56ee0	-0.32311153
97	0xbf9d0b59	-1.2269088
98	0x3fcd6573	1.6046585
99	0x3ce435a9	0.027857618
100	0xbe742009	-0.23840345
101	0xbe283c28	-0.16429198
102	0x3f465260	0.77469444
103	0x3f64680a	0.8922125
104	0x3f66d42a	0.90167487
105	0xbf854eee	-1.0414712
106	0xbf7662e6	-0.9624466
107	0xbf2edb7c	-0.68303657
108	0xbdbd82f5	-0.09253494
109	0xbbe1b10f	-0.006887562
110	0xbe6e3b8f	-0.23264907
111	0xbe2bf5ff	-0.16793059
112	0xbf62401f	-0.8837909
113	0xbf14633c	-0.5796392
114	0xbe4fee43	-0.20305733
115	0xbdb83a41	-0.08995486
116	0xbe90a01d	-0.28247157
117	0xbe3357fa	-0.17514029
118	0x3ef4b4ba	0.47794133
119	0xbe86ef74	-0.26354563
120	0xbf283dfd	-0.65719587
121	0x400cd1e7	2.2003114
122	0xbfaeb080	-1.3647614
123	0xbb9906c6	-0.004669997
124	0x3e7fd69f	0.24984215
125	0xbd974ea6	-0.07388048
126	0x3e225685	0.15853317
127	0xbdeb6e2e	-0.114956245
128	0xbd87d543	-0.06632473
129	0x3e87a559	0.26493338
130	0x3fcbe267	1.5928468
131	0x3e792c3d	0.24333282
132	0xbf194816	-0.5987562
133	0xbfaa805f	-1.3320426
134	0xbef0e2a5	-0.47047916
135	0xbc9d8012	-0.019226108
136	0xbea4f80e	-0.322205
137	0x3e9476c8	0.28996873
138	0x3f08ed6e	0.5348729
139	0xbfea7ff4	-1.8320298
140	0x3f9a732f	1.2066401
141	0x3e6a97c5	0.22909458
142	0xbf1408dc	-0.5782602
143	0x3e3a92cf	0.18220066

stage2.1.branch2.4.weight f4 [16]
0	0x3fb2c541	1.3966447
1	0x3fa41e13	1.2821678
2	0x3f9b2421	1.2120401
3	0x3f8ac94d	1.0842682
4	0x3c545311	0.012959258
5	0x3c89930a	0.016793747
6	0x3fabd654	1.3424783
7	0x3cbada03	0.022809034
8	0x3d1e45c7	0.038640764
9	0x3fb25dce	1.3934877
10	0x3fbf3467	1.4937867
11	0x3faebe63	1.3651851
12	0x3fa7d63e	1.3112257
13	0x3fb721da	1.4307206
14	0x3fb3688b	1.4016279
15	0x3fb2b5ca	1.3961728
