independent_train_1000.0/client71/checkpoint_1000.0.pth (torch, 420139 bytes, 98 tensors)

conv1.0.weight f4 [16, 3, 3, 3]
000000 b1 71 93 3d 5e ac 52 bd a7 c9 cd 3e 24 16 bd be
       0.07199419 -0.051433913 0.4019291 -0.36930954
000010 5e 80 50 bf 96 8c 97 be c8 46 26 be 42 ee 1f bf
       -0.8144587 -0.29599446 -0.16237938 -0.6247293
000020 8e 56 38 be ad c9 82 3d cd f4 6a be 81 b5 da 3d
       -0.18001768 0.06386123 -0.22944947 0.106791504
000030 ef 9a 61 bd 48 55 1a bf f2 be 48 be 86 92 bf 3e
       -0.055079397 -0.6028638 -0.1960409 0.37416476
000040 b1 5a 23 be 48 15 45 3e 0a be 26 bd 96 3f b2 bd
       -0.15952565 0.192464 -0.04070858 -0.08703534
000050 2c 89 51 3e e2 be b9 be b5 2b 23 bf a1 03 78 be
       0.20462483 -0.36278445 -0.63738567 -0.24220134
000060 76 36 8e be 95 c9 0d bf 1c e2 41 be 33 95 36 bf
       -0.27775925 -0.55385715 -0.1893391 -0.7132141
000070 10 ee 23 bf 17 e0 28 bf f6 44 87 bf 36 00 81 bf
       -0.6403513 -0.65966934 -1.056792 -1.0078189
000080 d1 61 6b bf 8f 8d 84 bf b7 0d 99 bf 6f 70 7e bf
       -0.9194613 -1.03557 -1.195731 -0.9939031
000090 aa 74 4a 3f d7 74 7b 3f b9 52 3b 3f 6f 16 62 3f
       0.79084265 0.9822516 0.731731 0.8831548
0000a0 a2 56 93 3f 21 1d 76 3f 0a c5 5d 3f 98 91 6b 3f
       1.1510813 0.961382 0.8662878 0.92019033
0000b0 57 03 4b 3f d3 45 36 be f2 b2 cf bd 5c 07 a3 be
       0.7930197 -0.17800073 -0.10141553 -0.31841552
0000c0 0a 20 0b 3e 37 55 a4 3e 6b 3a 96 3d c8 6a bc 3e
       0.1358644 0.32096264 0.07335361 0.36800218
0000d0 35 28 c2 3e 3d e4 2c 3e d8 68 98 be 1d 95 9b 3e
       0.379213 0.16883941 -0.2976749 0.30387202
0000e0 e2 1c ba be 12 4e 19 be 6e 34 5b 3f 5a 83 12 bf
       -0.3635016 -0.14971188 0.85626876 -0.57231677
0000f0 67 0a d3 3e ef 06 8c 3f 54 6d 58 bf fe 36 c5 be
       0.41218874 1.0939616 -0.8454182 -0.38518518
000100 ee 76 26 3f 52 8e 52 bf c6 dc 60 be e3 be 94 3f
       0.6502522 -0.82248414 -0.21959218 1.1620754
000110 31 1a 99 bf 89 9c 5e 3e bd 91 9e 3f 1b ab c8 bf
       -1.1961118 0.21739401 1.2388226 -1.5677217
000120 c3 e1 4b be ba b9 f1 3e ac 2c 77 be 9c ed cc bc
       -0.1991034 0.4721201 -0.24138135 -0.025015645
000130 b9 0f 86 3f dc 80 28 bf b3 dd b2 3e 26 6d 86 3f
       1.0473548 -0.65821624 0.34934768 1.050206
000140 d2 d7 93 bf 2a 5c 48 3e 52 4c d5 3c aa ef 19 3e
       -1.1550238 0.19566408 0.026037369 0.15032831
000150 66 83 a4 3d 15 1d 07 bc b3 4c 4f 3e ee f6 cf 3e
       0.08032875 -0.00824668 0.20244102 0.4061808
000160 76 27 73 3e cf f7 08 3f 4d cb 3a bf b3 8c 82 bf
       0.23745522 0.53503126 -0.7296646 -1.0199188
000170 f3 12 40 bf e3 f8 8a bf 81 f2 b2 bf 75 bc 8f bf
       -0.75028914 -1.0857204 -1.3980256 -1.1229388
000180 d9 b4 5c bf e7 45 a3 bf 38 53 78 bf 8c a6 47 3f
       -0.8621345 -1.2755708 -0.9700198 0.77988505
000190 50 55 62 3f 29 9e 5e 3f 1b 26 64 3f c5 ec 89 3f
       0.88411427 0.86960083 0.89120644 1.0775381
0001a0 6d db 72 3f 02 72 5c 3f 24 43 61 3f e5 88 3d 3f
       0.9486607 0.8611146 0.87993073 0.7403701
0001b0 c4 fc 00 bf 9d 9d 00 3e 64 40 8c 3e 5f d8 ab 3f
       -0.5038569 0.12560125 0.27392876 1.3425406
0001c0 da 61 23 bd 10 c3 91 bf 29 aa e5 3f be eb 3e bf
       -0.03988824 -1.1387653 1.7942554 -0.74578464
0001d0 bb 33 d4 bf 29 8a b1 be dc 4e 97 3a a0 69 4b bc
       -1.6578287 -0.3467572 0.0011543888 -0.01241532
0001e0 d2 46 cd 3f 92 62 85 bd 24 ea ab bf b2 e7 07 40
       1.6037238 -0.065129414 -1.3430829 2.1235166
0001f0 0f 40 25 bf 78 5d d5 bf ce 01 9d be fe 75 31 3c
       -0.6455087 -1.6669149 -0.3066544 0.010831354
000200 f5 d2 9a 3e ba cc c3 3f 66 e3 13 be 5c 2d 8f bf
       0.30239072 1.5296853 -0.14442214 -1.1185718
000210 6d 13 01 40 fa ca 4b bf 13 1a cf bf 3e 68 07 3d
       2.0168107 -0.7960659 -1.6179832 0.033058397
000220 10 3f 86 3d b3 10 5b 3c b7 8b c8 3e e7 e6 1c 3f
       0.06554997 0.013370681 0.39169094 0.6128983
000230 5c eb d5 3e e3 02 c4 3d 0d 45 b0 3e f7 a9 7d 3e
       0.41781127 0.09570863 0.34427682 0.24771868
000240 f3 07 d8 bd ff c3 c0 bd af 65 ed bd 7e 2a 8f 3e
       -0.10548391 -0.09412383 -0.1159166 0.27962106
000250 dc f1 f5 3e a6 f4 9b 3e 6f b8 15 bd 05 6d 35 3e
       0.48036087 0.3046009 -0.036552843 0.17717369
000260 3e 7b cb 3d dd 07 60 3d 89 6c 1e 3c 5f a3 30 3c
       0.09935616 0.054695 0.0096694315 0.010781138
000270 68 7e c2 3e cf 01 08 3f 28 f7 d0 3e c8 aa 10 be
       0.37987065 0.5312776 0.40813565 -0.14127648
000280 42 30 ac 3c a0 72 72 3b 5d 76 1c 3f 4a b9 18 3f
       0.021019105 0.0036994591 0.6111811 0.5965773
000290 e5 36 61 3e 75 72 73 3f 29 30 95 3f 82 60 46 3f
       0.21993597 0.9509652 1.1655322 0.7749101
0002a0 fc a2 11 3f 4b ac 78 3f 52 b2 21 3f 79 01 02 3e
       0.5688932 0.971379 0.6316272 0.12695874
0002b0 6f 17 49 bd 28 81 e1 3c 18 7d 89 bd b3 65 68 be
       -0.049094614 0.027527407 -0.06713313 -0.22695045
0002c0 79 ac c6 bd 92 b8 b2 be 03 13 b8 be b9 e9 1a be
       -0.09700865 -0.3490644 -0.35952005 -0.1512822
0002d0 cd ca ce be e7 82 0a bf 59 73 8d be 99 19 27 bf
       -0.403891 -0.5410599 -0.27627066 -0.65273434
0002e0 85 fa 6b bf b2 39 07 bf f8 ff 3d bf 69 76 70 bf
       -0.9217914 -0.5282241 -0.742187 -0.9393068
0002f0 59 32 f3 be f8 5b 8b bf e5 fe 59 3f 2d ad 93 3f
       -0.4749935 -1.0887442 0.85154563 1.1537224
000300 c8 ef 8f 3f 17 7a bc 3f 32 9c 1b 3f dc 39 f4 3c
       1.124505 1.4724759 0.6078521 0.029812746
000310 c0 cb da bf 8d f4 1f c0 fa e4 77 bf 87 ab 50 3f
       -1.709343 -2.4993012 -0.96833766 0.8151173
000320 d1 21 a0 3f 11 12 90 3f 8a 16 b5 3f 18 c7 44 3f
       1.251032 1.1255513 1.4147503 0.7686629
000330 2c 96 e3 bd aa 0e ee bf 57 d8 17 c0 39 91 c0 bf
       -0.111126274 -1.8598225 -2.3725793 -1.5044318
000340 da 14 50 bd 72 95 f0 3e 51 da 81 3f 88 40 a6 3f
       -0.050801136 0.46989018 1.014475 1.2988443
000350 aa e8 53 3f b4 1f d7 3e bd 10 85 bf 1f fe b1 bf
       0.8277689 0.42016375 -1.0395733 -1.3905677
000360 99 d4 24 3f 67 44 5e 3f f8 98 0c 3f dd 26 66 3f
       0.643869 0.86823124 0.5492091 0.8990305
000370 2e 12 ac 3f 6d b2 65 3f c7 1d 02 3f 59 19 78 3f
       1.3443048 0.8972538 0.50826687 0.9691368
000380 8a 14 f5 3e c0 52 80 bf 4f 0e 98 bf 33 c6 82 bf
       0.47867233 -1.0025253 -1.1879367 -1.0216736
000390 23 f8 ae bf df 8f bb bf 5e e0 a1 bf 35 99 a1 bf
       -1.3669475 -1.4653281 -1.2646596 -1.262488
0003a0 30 5a a3 bf 87 3f 85 bf 0d 7e e9 3e 07 71 06 3f
       -1.2761898 -1.0410012 0.45603982 0.52516216
0003b0 67 34 e5 3e d4 67 e8 3e 4a 63 34 3f fe 07 1a 3f
       0.44766542 0.45391715 0.70464003 0.60168445
0003c0 1c 7e 85 3e 35 1c 05 3f 3e c7 d2 3e 57 69 fc be
       0.26072776 0.51996166 0.41167635 -0.49299118
0003d0 10 44 a6 bf 74 9e 31 bf fb ea 17 bf 0b 09 1a bf
       -1.2989521 -0.69382405 -0.59342927 -0.6017005
0003e0 74 0a fb be 64 44 9d 3f fb f4 00 40 a6 fc 9d 3f
       -0.49031413 1.2286496 2.0149524 1.2342727
0003f0 f0 62 ea be 77 79 aa bf b0 5f 29 bf 06 65 0d bf
       -0.45778608 -1.3318318 -0.6616163 -0.55232275

conv1.1.weight f4 [16]
000000 d1 c3 da 3f 7f d3 cf 3f 2a 4b e7 3f 64 86 dc 3f
       1.7091008 1.6236418 1.8069813 1.7228513
000010 f8 5e 0b 40 15 4d ad 3f 51 cd d5 3f 9b 11 09 40
       2.1776714 1.3539149 1.6703283 2.1416996
000020 86 85 bf 3f 50 39 d7 3f e8 d3 d0 3f 44 c0 d4 3f
       1.4962623 1.6814365 1.6314669 1.6621175
000030 f4 e9 bc 3f 31 fc bd 3f bf 3c c2 3f 5a 21 cd 3f
       1.4758897 1.4842588 1.5174788 1.6025803

conv1.1.bias f4 [16]
000000 c5 8a 8b be 0d 5c 12 3f 76 1c 7b 3f 9d 69 03 3f
       -0.2725431 0.5717171 0.980903 0.5133303
000010 4c 44 2e be 4a 33 c1 3e 3b 17 27 3f 99 18 bf be
       -0.1701824 0.37734443 0.6526982 -0.37323454
000020 40 aa 22 3f dc 48 30 be b7 48 00 3f 0a 19 00 be
       0.6354103 -0.17215294 0.50110954 -0.12509552
000030 35 8d 53 3e 0b 25 4b 3f 96 c4 5f bd db 72 41 3e
       0.20659335 0.793534 -0.05463084 0.1889147

stage2.0.branch1.0.weight f4 [16, 1, 3, 3]
000000 39 ea aa bd ea 94 07 be ac 2b 09 3f 11 7e ad 3e
       -0.08345456 -0.132404 0.53582263 0.33885244
000010 8c ac da be d8 5b bb 3e ef 3f 17 3e 0f b3 33 bf
       -0.42709768 0.3659351 0.14770482 -0.70195097
000020 6f 66 ef bd b6 46 8f 3e 5c 5e 76 be 64 14 29 bf
       -0.116894595 0.27983636 -0.24059433 -0.6604674
000030 e3 23 08 bf 9d c7 1c 3e 2b 50 54 3f 2e 3f 32 bf
       -0.5317976 0.15310521 0.82934827 -0.69627655
000040 d4 4b 62 3f 72 4e e9 3f be 8e 83 bd 2a b5 a5 bd
       0.88396955 1.8227065 -0.0642371 -0.08091195
000050 7b 2e e6 ba 6e 14 39 3e 6e 4c a4 bf 3b e9 61 3f
       -0.001756146 0.180742 -1.2835824 0.88246506
000060 b0 a3 75 3f 06 db 30 c0 86 cb ef 3f e0 20 8b 3e
       0.9595289 -2.7633681 1.8733985 0.2717352
000070 3f b4 ed be 5d 80 c0 be b1 a2 08 bf b5 14 13 be
       -0.4642658 -0.37597933 -0.5337325 -0.14363368
000080 0a 52 06 3f 3d bd 04 bf 42 4b 1e 3f 4a ff b9 3f
       0.5246893 -0.51851255 0.61833584 1.4531033
000090 d1 60 09 bd e9 19 04 3e 26 90 29 3d f1 67 11 3f
       -0.033539597 0.12900509 0.041397236 0.56799227
0000a0 50 7b 26 3f 6f d0 06 3f db d0 6c 3e e2 d5 ec 3e
       0.6503191 0.52661794 0.23126547 0.4625693
0000b0 87 d6 97 3f 6e 21 ad bb fd 96 1a be 20 28 03 bf
       1.1862344 -0.005283526 -0.1509666 -0.512331
0000c0 24 78 cd 3b 34 88 d1 3e 26 e3 41 3e 1e 15 47 be
       0.0062704254 0.40924227 0.18934307 -0.1944165
0000d0 3e 00 17 3f c5 31 7f 3f f1 4f 03 bf aa 33 08 3f
       0.58984745 0.9968532 -0.51293856 0.53203833
0000e0 fd b9 57 3f 6a 31 77 3e 39 1e f2 be dc 8d 7c bf
       0.8426817 0.24139944 -0.47288683 -0.9865396
0000f0 22 45 83 3f cb fa fc be d5 0d 9c bf 9a bd de bd
       1.0255473 -0.4941009 -1.2191721 -0.108760074
000100 c4 da 18 3d 89 48 bf 3e b4 d4 b1 3e fe d1 89 3f
       0.037318006 0.37360027 0.34732592 1.076721
000110 4c 6a 33 3f 2b ff d4 3e 9f 8d 9b 3f ec f0 3a 3f
       0.7008407 0.41600928 1.2152594 0.7302387
000120 b9 ab bd be 08 0e aa 3e 33 d7 3c 3f 6f 83 04 3f
       -0.37045076 0.3321383 0.7376587 0.5176305
000130 ac e2 f7 3c d6 29 11 bf 9c 58 58 3f 7d da 58 bf
       0.030259453 -0.5670446 0.8451021 -0.84708387
000140 ee 03 03 c0 ae 5a 3f 3e 20 ff 81 be 0a e1 40 bf
       -2.0471148 0.18686935 -0.25389957 -0.7534338
000150 a6 e8 dc 3e b0 71 4b bf 50 ef 94 bf 4a 48 c5 3c
       0.43146247 -0.7947035 -1.1635532 0.024082322
000160 52 b0 aa bf a3 42 93 bf f3 d2 d9 3d 0b 62 a1 3f
       -1.3335059 -1.1504711 0.106359385 1.2608045
000170 de d6 ac bf 52 b0 e5 bf c6 d1 10 3f 6a ec a6 3f
       -1.3503072 -1.7944434 0.5657009 1.3040898
000180 7a a7 b9 3f b6 80 eb bf 6d 57 5b 3e a1 f0 9e bd
       1.4504235 -1.8398654 0.21420069 -0.0776074
000190 2d fc 99 3d dd 8f 44 3e ac 43 0f bf a7 03 1b bf
       0.07518802 0.19195504 -0.55962634 -0.6055245
0001a0 f7 bb 09 be 9a 9a ed be 8e a3 0d bf 63 80 45 bf
       -0.13450609 -0.46407014 -0.5532769 -0.7714903
0001b0 48 37 92 3b 87 d0 ee bc 7a ea b9 3c 5b e8 18 3e
       0.0044621564 -0.029152168 0.022694815 0.14932387
0001c0 53 df 17 3e ee 5e 2a 3e cc d6 88 bc 62 d9 41 3c
       0.14831285 0.16637775 -0.016703986 0.011831613
0001d0 f0 05 1a 3d a6 2d 40 3f b5 72 8b 3d d1 b6 09 bf
       0.03760332 0.75069654 0.06808988 -0.5379458
0001e0 f9 2a 8a 3f 62 14 d0 3d 79 9d 4d bf 0b 2b 00 3f
       1.0794364 0.10160138 -0.8031841 0.5006568
0001f0 ba bd 94 be 56 e2 56 bf c6 7d cc be 99 ae 1f 3f
       -0.29051 -0.8393911 -0.39939708 0.6237579
000200 a9 98 64 3f 12 c3 da 3e 19 e2 9a bd 77 70 03 bf
       0.8929544 0.42726952 -0.07562656 -0.5134348
000210 47 f4 17 3f d1 cb 87 bf 41 b1 c8 bf db 38 03 bb
       0.5935711 -1.0609075 -1.5679094 -0.0020022902
000220 af 9b 5a 3e d5 27 68 3e ad c8 48 3e ac f7 ff be
       0.21348451 0.22671445 0.19607802 -0.49993646
000230 dd 01 58 bf 66 2d 23 3f 40 af df be dc eb 5f bf
       -0.84377843 0.6374115 -0.43688393 -0.8746927

stage2.0.branch1.1.weight f4 [16]
000000 7d 9d 99 3f fa 27 d9 3f a5 97 f3 3f 3e fe d2 3f
       1.2001187 1.6965325 1.9030653 1.6483839
000010 92 61 ba 3f 2f 8b a6 3f a7 5b cd 3f dc cb 9d 3f
       1.4561026 1.3011225 1.6043595 1.2327838
000020 58 e4 f0 3f 1c 37 9f 3f a1 33 10 40 f2 b2 bd 3f
       1.8819685 1.2438693 2.2531512 1.4820235
000030 69 dc b5 3e d1 1e 88 3f 01 0e bf 3f fb 00 c6 3f
       0.35519722 1.0634404 1.4926149 1.5469049

stage2.0.branch1.1.bias f4 [16]
000000 0e 3b 06 3e 58 77 be be dd 71 56 3f 59 f3 3b 3d
       0.13108465 -0.37200427 0.8376749 0.04588637
000010 e0 d7 ed be 6a 3c 37 be 1c 12 ad 3f a3 45 e3 be
       -0.46453762 -0.1789414 1.3521152 -0.44389066
000020 c5 dc b4 bd 66 84 3a 3f 4a f3 7b bf 42 9f ad 3e
       -0.08831171 0.72858274 -0.98418105 0.33910567
000030 32 69 2c be 5e fd a6 be 08 14 af be 6f a6 16 3e
       -0.16837004 -0.3261518 -0.3419497 0.14711927

stage2.0.branch1.2.weight f4 [16, 16, 1, 1]
000000 9a 00 66 3e 2d 2a 2d 3f 63 11 f0 bb e2 62 82 3f
       0.22461167 0.6764248 -0.0073262914 1.0186427
000010 ac 9c 00 be 52 c8 f0 3e a6 1d 24 3f 34 2d 15 3f
       -0.12559766 0.47027832 0.6410774 0.582721
000020 0c 0c c6 3e a5 cc 49 bf 8e ee 46 3e 59 76 3c be
       0.38681066 -0.7882789 0.19426939 -0.18404521
000030 4e 0f 02 be 51 14 0b bf c8 46 b7 bf 98 e4 a2 3f
       -0.12701151 -0.54327875 -1.4318476 1.2726011
000040 e5 27 26 bf bd fb 76 be bc 5c 4e bc 47 f0 51 3e
       -0.64904624 -0.24119468 -0.012595352 0.20501815
000050 03 fc 8a bd 90 e3 66 be 01 cc ea 3d 4f fe 05 40
       -0.06786349 -0.22547746 0.11464692 2.0936468
000060 3c 77 7b be a5 02 60 bf 6b 9f 20 be df 85 38 3d
       -0.24557203 -0.87504035 -0.15685813 0.045049544
000070 8f 42 2f 3d 1b 8f 0d 3e 58 bc d4 3e d4 6b 13 be
       0.042788085 0.13824122 0.41549945 -0.14396602
000080 a4 8e 59 ba 63 1b 2c 3f 08 52 98 bb 88 bf 92 bf
       -0.0008299148 0.6722929 -0.0046484508 -1.1464701
000090 59 1a 59 bd 55 a5 aa be 51 6c 19 bf b1 75 00 3e
       -0.053003643 -0.33329263 -0.599309 0.12544896
0000a0 2b fb 03 40 ee a7 4c 3d 6e e4 cc 3d 39 1b 09 3d
       2.062205 0.049964838 0.10004507 0.033473227
0000b0 85 ca 01 3e a1 3c 5d bd 7b 7f c4 3d bd c8 69 bf
       0.12674911 -0.0540129 0.095946275 -0.9132193
0000c0 83 e2 94 be 82 8f 91 bf a1 e0 8e 3d 1d 33 5e bf
       -0.29079065 -1.137192 0.06976438 -0.8679674
0000d0 c0 67 46 be c0 80 97 bf c5 d8 7a bf 7e 5f 97 bd
       -0.19375515 -1.1836166 -0.97987014 -0.073912606
0000e0 23 6b 9e 3e 8a f9 16 3f 95 09 fe 3d 62 ff a8 3e
       0.30941114 0.58974516 0.124041714 0.33007342
0000f0 b4 2b 00 bd bc 2d 4d 3e cd 6f bf bc 40 98 7f 3f
       -0.03129168 0.20036978 -0.02336874 0.9984169
000100 79 dc d0 3e 96 b6 d2 3d 68 18 fc bd be b9 8c 3e
       0.40793207 0.10288732 -0.123093426 0.2748546
000110 02 f0 43 3f 24 c2 cc 3e 70 8f 38 3e 38 64 b3 3c
       0.765381 0.39991868 0.18023467 0.021898374
000120 01 4e bd 3c e6 13 0e 40 37 4f c9 3e bc a2 ce be
       0.023108484 2.2199645 0.3931825 -0.4035853
000130 d1 69 be bd b0 58 bd 3e 36 d2 d4 bd d5 ee 05 be
       -0.09297527 0.36981726 -0.10391657 -0.13079388
000140 d6 31 86 be 39 07 83 be bd c9 f9 3f 0b e5 ea bd
       -0.26209897 -0.25591448 1.9514691 -0.11469468
000150 83 29 bd 3d ba a8 59 be af 4f 44 3e 4c 29 3d be
       0.09236433 -0.2125577 0.19171022 -0.18472785
000160 cd 35 6f 3d f1 61 d5 bc d9 e3 11 be db 21 3b be
       0.058400918 -0.026047679 -0.14247073 -0.18274634
000170 90 2b 3f 3d 1c 20 ae bf f5 2a 5b be 7d a5 46 3e
       0.046672404 -1.3603549 -0.21403106 0.19399066
000180 d2 ce 3a 3e 70 80 bb bd 98 38 f6 3c 15 d9 87 3e
       0.18242958 -0.09155357 0.030056283 0.26532808
000190 d7 d8 04 3e b8 7e a4 3e 3d 4d 37 3d 7f 2b 1a be
       0.12973343 0.3212793 0.044751395 -0.15055655
0001a0 83 26 8a 3c c7 07 33 3c e0 d6 28 40 2e eb d6 3d
       0.016864067 0.010927147 2.638115 0.10494076
0001b0 d1 6d a4 3d 81 eb a5 3d 67 6f 92 bd 08 05 43 3e
       0.08028758 0.081015594 -0.071501546 0.19044888
0001c0 94 8f e7 3d 8a d1 d6 bf ae f1 67 3d 90 25 91 3d
       0.11306682 -1.6782696 0.056626968 0.070872426
0001d0 9c 38 af bd cf cd f2 3e c0 b2 bb bf 6c b5 7e 3e
       -0.08555719 0.47422644 -1.4663925 0.24873894
0001e0 6c 22 54 bf c9 14 43 3c d7 e5 1f 3d ef fa bf bd
       -0.82865024 0.011906811 0.03903755 -0.09374034
0001f0 2c 1a 18 3d 7f 97 0c bc 01 49 3b 3f 5f ec b2 be
       0.037134334 -0.008581041 0.7315827 -0.34945962
000200 4a 96 dc be 0e 93 c6 3d 07 cb 6a be ed b7 d3 bc
       -0.4308341 0.09696017 -0.22929011 -0.025844539
000210 d9 47 2d 3e 5e 43 58 bf 3e 3a 1b be 40 52 96 3d
       0.16921939 -0.84477794 -0.15158936 0.07339907
000220 64 7b 34 3f b5 20 89 3f 6a 29 c8 bc 0a f9 d1 3d
       0.7050078 1.0713106 -0.02443381 0.102525786
000230 b3 3e 67 bc eb 10 17 3e e9 f2 92 3d 94 d7 c1 bd
       -0.01411407 0.14752547 0.07175238 -0.094649464
000240 e1 8c 26 be 9a ef 39 3c 17 b6 0b bf af 1a 18 be
       -0.16264679 0.011348629 -0.5457472 -0.14853929
000250 44 31 10 bf a0 5a 84 bd ed b9 d4 3d 59 d5 c7 bc
       -0.56325173 -0.06462598 0.10387025 -0.024393724
000260 cb 98 fc bc 5b 1c 94 be 97 92 05 3d 9d d6 20 40
       -0.030834576 -0.28927884 0.032610502 2.513099
000270 10 27 eb bd 24 d3 95 be e6 19 b8 be 20 7d 0c be
       -0.1148206 -0.2926265 -0.3595726 -0.13719606
000280 66 f1 1c be e0 91 86 be 0a fe b5 be 51 78 de 3d
       -0.15326461 -0.2628317 -0.3554538 0.10862792
000290 0e e2 4e 3f 39 17 46 be b0 88 69 3e 24 38 6f bf
       0.8081368 -0.19344796 0.22806048 -0.9344504
0002a0 3d 8a bb 3e b1 b4 83 be 2b 7f 8c be 81 40 c2 3d
       0.36628905 -0.25723794 -0.2744077 0.094849594
0002b0 cd 85 06 bd 29 53 3e bf ce 7d 27 3e a0 f6 f0 3e
       -0.032842446 -0.7434564 0.16356584 0.4706316
0002c0 f8 b2 bb be d8 bd 4c bf 54 d0 81 3d d1 86 ba bd
       -0.3665998 -0.7997718 0.063385636 -0.091077454
0002d0 a7 56 e6 bd f2 fc 1a bf 64 28 63 bf d3 71 b2 be
       -0.112469964 -0.60542214 -0.88733506 -0.34852466
0002e0 3e 84 07 bf 7f 2c a7 3e 72 60 a0 bb 6b 03 73 bd
       -0.5293616 0.32651135 -0.0048943097 -0.05932943
0002f0 39 79 96 3b be b1 0c 3e 75 ad 1c 3f 0c 98 ba be
       0.0045920876 0.13739678 0.61202174 -0.36444128
000300 32 47 19 be 4a 60 27 3f 31 b5 ea 3e eb 60 e4 3e
       -0.14968565 0.653813 0.45841363 0.44605193
000310 72 89 62 3e 82 c9 cb 3e 71 78 1a 3f 48 89 c6 be
       0.22122744 0.39802176 0.6034003 -0.38776612
000320 dd 86 f6 3e e0 e2 98 3e f0 e6 90 bd 48 0f 0a bf
       0.48149768 0.29860592 -0.07075298 -0.5392957
000330 b8 ff 4a 3d 0a 1e 0b 3e 5e 93 5c bf 2b 60 69 3d
       0.04956028 0.13585678 -0.86162364 0.05697648
000340 34 9e 05 3f 2d 5e b5 3c 6d 14 0c c0 43 2c 18 3e
       0.52194524 0.022139633 -2.1887467 0.14860635
000350 84 aa 98 be 99 8b 7a 3e c2 66 45 bd b4 ea 36 bd
       -0.29817593 0.24467315 -0.0481937 -0.044657424
000360 d3 18 41 3d 56 b3 05 3e 29 4e e7 ba 5c b0 9d 3c
       0.047142815 0.13056692 -0.0017647195 0.019249134
000370 80 99 b7 3d 74 8b 03 be 17 62 00 be 2a 9e b1 bd
       0.08964825 -0.12846166 -0.12537418 -0.086727455
000380 f1 c0 c0 3e 8a 3b eb 3d 7f 5e ed be 34 02 e2 3e
       0.37647203 0.114859655 -0.46361157 0.44142306
000390 31 1a 29 c0 30 99 44 3e 81 9d 6c bc e5 9d 15 3e
       -2.6422236 0.19199061 -0.014441849 0.14611013
0003a0 bd 4d 9d be 3c 07 c4 bb bd 68 7c 3d 2e cc 7c 3d
       -0.30723372 -0.0059823077 0.061623324 0.06171816
0003b0 f4 65 6b 3c 77 f8 16 3e 0b 1c 2d 3e 46 52 93 be
       0.014367569 0.1474322 0.16905229 -0.28773707
0003c0 8d b7 c5 3e d3 c9 5b 3f 7d a1 fa 3c ea 45 23 bf
       0.386166 0.85854834 0.030594582 -0.63778555
0003d0 66 aa e3 bd af 54 4f 3d d6 7d 60 3f a1 b1 40 be
       -0.11116485 0.05061787 0.8769201 -0.1881776
0003e0 34 43 0b 3f 42 2e c7 be be ce 2b bd a6 38 14 3e
       0.5439942 -0.3890248 -0.04194521 0.14474735
0003f0 ba 49 b0 bc 3e 7c 03 be d6 7a d5 be b4 32 42 bf
       -0.02151953 -0.12840363 -0.4169528 -0.75858617

stage2.0.branch1.3.weight f4 [16]
000000 f6 75 d9 3f 29 a2 b9 3f 56 93 03 40 2e 6f 05 40
       1.6989124 1.4502612 2.0558677 2.0849109
000010 2b 7f d1 3f 4e af ef 3f b5 15 ec 3f 2c 8e e5 3f
       1.6366934 1.8725374 1.8444124 1.7934012
000020 8c a4 86 3f 2d 12 a4 3f 57 d2 6d 3f 3e 3b 89 3f
       1.0518966 1.2818047 0.9289908 1.0721204
000030 7d 00 5e 3f 91 49 c9 3f 3a e1 aa 3f ae 40 8e 3f
       0.86719495 1.5725576 1.3349984 1.1113489

stage2.0.branch1.3.bias f4 [16]
000000 91 80 b7 bd 1d 52 6f 3f bd 6e e7 3d 58 07 22 3f
       -0.08960069 0.9348467 0.113004185 0.63292456
000010 71 f0 31 3e d2 72 e5 be 51 b1 0b be 41 a5 f7 3d
       0.17376877 -0.44814163 -0.1364186 0.120920666
000020 fd d2 0f 3f 2a b5 b3 3e e9 ef 14 3f 59 c3 93 3e
       0.5618132 0.35099155 0.58178574 0.28859976
000030 32 1a ac 3e c3 6e d3 3d 9a b5 4f 3e 7c 13 e1 3e
       0.33613735 0.103238605 0.20284119 0.43960178

stage2.0.branch2.0.weight f4 [16, 16, 1, 1]
000000 ae 54 25 3d 3c d9 a4 be c3 2a 95 3d 87 b9 25 3e
       0.04036396 -0.32196987 0.07283547 0.16184054
000010 65 a5 1c bd e7 87 ba 3f 93 b3 e0 3e 2f af ec be
       -0.03824367 1.4572724 0.43887004 -0.46227404
000020 0d 04 ea be 7a 1f 2a 3d b1 0e 70 bd 85 07 a2 bc
       -0.45706216 0.041533925 -0.05860776 -0.019778976
000030 f7 27 66 3f 8b 0b 0c 3f e7 ad 26 3f 9d dc a5 be
       0.8990473 0.54705113 0.65109104 -0.32394877
000040 93 3f f8 3e f1 e6 46 3d d8 52 89 bf ee 44 1d be
       0.48486003 0.048560087 -1.0728407 -0.15358326
000050 0d b1 40 bf fe f0 d7 3b e5 0a c6 3e d6 88 5f 3f
       -0.7527016 0.006590008 0.38680187 0.8731817
000060 e0 e4 9d 3e 8e 29 ac 3e 1d c8 b9 3e f6 f8 bb be
       0.3083868 0.33625454 0.36285487 -0.3671338
000070 bc 40 f5 3e 7d e2 f0 3e 31 85 95 3e bb 19 92 bd
       0.4790095 0.47047797 0.2920318 -0.07133814
000080 25 90 b0 3f 1d d0 51 be fd 53 4f 3e 53 bc 82 3d
       1.379399 -0.20489545 0.20246883 0.06383576
000090 a9 ab 92 3d f5 f8 48 bb 72 c3 36 bf 60 f2 da 3e
       0.07161648 -0.0030665968 -0.71391976 0.42763042
0000a0 7c 74 8f 3d 43 bf 34 3f e6 9f 53 be ff 1d d4 3c
       0.070046395 0.7060434 -0.20666465 0.02589321
0000b0 a1 ef de 3d 1a 31 d8 bd 82 3c 17 be 1b 9b d0 3e
       0.10885549 -0.105562404 -0.14769176 0.40743336
0000c0 38 d3 7f 3f f8 fe b6 3d 92 6d c5 bc 73 74 aa 3e
       0.9993167 0.0893535 -0.024100099 0.3329197
0000d0 14 80 55 3e 29 78 c8 3c ab e3 44 bf b9 55 15 bf
       0.20849639 0.02447136 -0.76909894 -0.5833393
0000e0 3b 38 0b bf 4f 14 b4 be 9d 0c 2d 3e 86 20 0c 3f
       -0.54382676 -0.35171744 0.16899343 0.54737127
0000f0 02 24 41 be 21 8b 4d bd 64 58 1e 3f b7 51 9a be
       -0.18861392 -0.05018151 0.61853623 -0.30140468
000100 02 fa bc 3f b1 16 c2 be ec 6d 3e bf dc 8f 42 bd
       1.4763796 -0.37907937 -0.7438648 -0.047500476
000110 f7 77 6f 3f dc 0c dd 3d 73 1e 0b 3f 39 d4 41 3d
       0.93542427 0.10793468 0.54343337 0.047321532
000120 21 98 34 3e d3 30 60 3e 2f d8 95 bd d1 d6 73 3f
       0.17636158 0.21893625 -0.073166244 0.9524966
000130 a5 eb 9a 3d 06 b8 b0 be c8 c9 c3 bd bf 11 f3 3e
       0.07564477 -0.345154 -0.09559971 0.47474477
000140 d0 b9 3a bd 5a 4c d0 3e 53 f4 06 3f 10 49 3e 3c
       -0.04558736 0.40683252 0.5271656 0.011614099
000150 7f a7 6d 3f 7c 70 2d 3f fa 55 20 3e b8 b2 ce 3d
       0.92833704 0.6774976 0.15657797 0.10092682
000160 a7 11 25 3f ed b1 a5 bc 2d a5 59 be b8 1a 65 3f
       0.6448006 -0.020226443 -0.21254416 0.89493895
000170 32 d2 40 3f b1 7f a9 3e c5 68 c1 bd 0b 86 6e 3e
       0.7532073 0.33105233 -0.09443811 0.23293321
000180 cc b0 3b 3e 6d 36 c2 3e 38 97 6c 3e 25 47 cf be
       0.18329161 0.3793215 0.2310456 -0.40483966
000190 b2 6f 36 3e e2 d5 89 3f c5 e8 8d 3f 5b 54 e6 3c
       0.17816046 1.0768397 1.1086661 0.028116396
0001a0 b3 64 03 3f b0 f9 21 3e 29 14 44 3e 2f 0e 84 3d
       0.5132553 0.15817904 0.19148315 0.06448018
0001b0 c8 5f 75 3f ea 43 78 bc 00 f1 d4 be 0c bd 59 3f
       0.95849276 -0.015152911 -0.41590118 0.8505409
0001c0 4d 13 5e 3f 2d a1 2e bf bc 23 77 3e 40 a5 bd 3d
       0.867482 -0.68214685 0.24134725 0.092600346
0001d0 0d bb b2 3e f9 bd 8a bf d6 5a 36 3f 3f 85 30 3f
       0.34908333 -1.0839225 0.71232355 0.6895332
0001e0 42 be 90 3d 08 27 b3 3c f7 22 5a 3e c4 68 cf bc
       0.07067539 0.021869197 0.213024 -0.02531851
0001f0 3c a0 30 bf e2 ab 43 bf 26 19 28 3e 08 43 43 bf
       -0.689945 -0.7643415 0.16415843 -0.76274157
000200 0f 48 6f be 68 89 4e be ed 0f 37 bf 31 82 9c be
       -0.23367332 -0.20169604 -0.71508676 -0.30568078
000210 70 b2 f4 bf c7 17 4e be eb d1 d0 3e 80 cc a9 3f
       -1.9116955 -0.20126258 0.40785155 1.3265533
000220 c3 7d 00 be a3 44 37 be dc b3 c0 be 2e dd b7 bf
       -0.12547974 -0.17897277 -0.37637222 -1.4364374
000230 5e ea d1 3e e7 08 cf be c7 e1 42 be ba 33 93 3e
       0.4099912 -0.4043648 -0.1903144 0.28750402
000240 42 cc 69 3f 10 d9 01 3c 6c 40 2c 3e 95 a9 a4 be
       0.913273 0.007925287 0.1682145 -0.3216063
000250 47 ac 89 be 85 70 0b bf e3 0a 3f 3e 62 9e 2f bd
       -0.2688925 -0.54468566 0.18656497 -0.042875655
000260 0d 3e 38 bf bd d5 10 3f 0f 27 87 3e 3f 58 e3 be
       -0.7196968 0.5657614 0.26396987 -0.44403264
000270 1e 13 b0 bd df 44 c0 3c 2f a2 69 3e 22 45 6e 3f
       -0.08597396 0.02347034 0.22815774 0.9307424
000280 76 ae d2 3e a1 ec 6d bb bc d1 58 3c 4e 5a 43 3e
       0.41148728 -0.0036304372 0.013233598 0.19077417
000290 31 ba d3 bd 61 75 09 3f 68 35 ed 3d a3 87 88 be
       -0.103382476 0.5369473 0.11582452 -0.26665983
0002a0 10 9a ee 3d af d8 12 be c2 a8 f3 3e b4 94 20 bd
       0.11650479 -0.1434047 0.4758969 -0.039204314
0002b0 61 93 92 3e 79 17 2b bc 26 8f f9 be 76 af 57 be
       0.28628066 -0.010442608 -0.48742026 -0.21063027
0002c0 9c 31 e9 3d 8c c8 77 be bb 7a 16 be eb 39 c2 bf
       0.11386415 -0.24197596 -0.14695255 -1.5173925
0002d0 6e 31 01 3c 47 e2 44 3e e2 26 8a 3f f3 e0 13 bd
       0.00788532 0.19226943 1.0793116 -0.0361032
0002e0 12 f0 42 bf ae 80 9a 3e 03 4d 1a be 3e 48 11 be
       -0.7614757 0.301763 -0.1506844 -0.14187714
0002f0 33 e0 c4 3e 87 9f b2 3d 56 f3 94 bf d4 d0 8c 3f
       0.384523 0.08721834 -1.163676 1.1001229
000300 28 c6 0e be 89 70 a5 3f 05 67 79 bd 21 ab c3 3e
       -0.13942778 1.2924968 -0.060889263 0.38216498
000310 43 12 7e be 4c 52 e2 3a 05 c2 3f be 34 2f 84 be
       -0.24811654 0.0017266958 -0.18726356 -0.25817263
000320 ec 8c 4f bf 10 b8 dc bd 05 1a d0 3d 7c 0b e1 bd
       -0.81074405 -0.10777295 0.10161213 -0.109885186
000330 3c 16 ab be be 29 8c be dc 37 96 3f c4 77 94 3e
       -0.334154 -0.27375597 1.1735797 0.28997624
000340 b4 ea ce 3e f8 fc ed 3e 6f 1e 39 3f c4 c1 da 3c
       0.4041344 0.46482062 0.7231206 0.026703723
000350 ef be bf bd 27 9a 5e bc b4 6e 14 3f 1d de c4 bc
       -0.093625896 -0.0135865575 0.5798142 -0.024031693
000360 78 02 dc 3e 22 14 01 3f 21 69 27 3e f1 a8 d2 be
       0.42970634 0.50421345 0.16348697 -0.41144517
000370 02 d9 a7 3e 0d b6 dc bf d4 65 e0 bc 2b 9b 93 3e
       0.3278275 -1.7243057 -0.027392305 0.2882932
000380 cf d5 c1 3c 91 3c e5 be 7e ed 9f bd b7 b2 e7 3f
       0.023661522 -0.4477277 -0.0780897 1.8101414
000390 f2 79 9c 3d 13 30 49 be cd 50 81 3f 9d 3c 80 3b
       0.07640447 -0.19647245 1.0102783 0.0039134757
0003a0 a9 56 9d 3f d4 20 de 3d 18 5e d0 bd 42 dd 53 be
       1.2292072 0.10846105 -0.10174197 -0.20689872
0003b0 dd 42 29 bf 62 ed 86 3d 4b 2f d8 3e cc 61 2e bf
       -0.6611765 0.06588246 0.42223582 -0.68117976
0003c0 6e f9 2d bc 30 0c 57 3e 32 fb d3 3a 6e 2d 27 bf
       -0.010618551 0.21000743 0.0016172884 -0.65303695
0003d0 90 7b 19 3f 1a 70 f5 be 8a cb 33 3f d1 29 d6 be
       0.59954166 -0.4793709 0.7023245 -0.41828778
0003e0 b2 df 80 bf a3 1a e0 be 32 d7 f3 be 74 bc 17 3f
       -1.0068266 -0.43770322 -0.47625118 0.5927193
0003f0 df 9a 53 be ae ac 0a be 63 5b 59 be cb 64 c9 be
       -0.20664547 -0.13542435 -0.21226268 -0.3933471

stage2.0.branch2.1.weight f4 [16]
000000 3a a8 85 3f c4 2e 74 3f 1e b4 87 3f 95 bc 73 3f
       1.0441964 0.9538386 1.0601842 0.9520963
000010 06 a6 e7 3f 5e 8f a0 3f 85 e0 56 3f db 0a 86 3f
       1.8097541 1.2543752 0.8393634 1.0472063
000020 5d 52 d6 3f 20 27 87 3f a9 b5 cb 3e 65 35 af 3f
       1.6743885 1.0558815 0.39787033 1.368817
000030 bb 71 ac 3f 83 cb 85 3f 2e 2f ba 3f 57 57 8f 3f
       1.3472208 1.0452732 1.4545648 1.1198529

stage2.0.branch2.1.bias f4 [16]
000000 e6 e3 93 bf 92 22 07 3f b2 74 e7 3e 19 1a a2 3e
       -1.1553924 0.52787125 0.4520622 0.31660536
000010 49 63 2f 3e 4e 63 e3 bd 18 dc fe b9 a6 63 96 3f
       0.17127718 -0.11102925 -0.00048610638 1.174916
000020 6e ef 90 3e 02 b9 c4 3e 7e 87 89 3f 77 23 49 3f
       0.2830767 0.384224 1.0744474 0.7856974
000030 c1 af 11 bf 69 f0 24 3e cb 32 95 bf d2 73 97 3f
       -0.56908804 0.16107334 -1.1656126 1.183222

stage2.0.branch2.3.weight f4 [16, 1, 3, 3]
000000 ad 14 98 bd 73 22 ae 3e 07 cc c1 3e e3 2d 18 3e
       -0.074258186 0.34010658 0.37850973 0.14861254
000010 2a f0 c3 be cd ac 15 bf 2a 53 01 3e 1c dc 6e bf
       -0.38269168 -0.584668 0.12629381 -0.9330461
000020 8b ce 54 bf 0a 7a d2 3e 51 5d 1d 3f 3f 74 ac 3e
       -0.8312766 0.41108733 0.61470515 0.3368244
000030 8a 76 d9 be fe 63 1a be e3 fc 4f 3e 78 9b 20 bf
       -0.4247325 -0.15077206 0.20311312 -0.62737226
000040 88 ac 55 bf 81 ad de be 43 e7 10 3d 3f 7d 8c be
       -0.83466387 -0.43491748 0.0353768 -0.27439305
000050 70 8a f3 be 3c 2b 1e be 92 a0 c7 3e 19 ca f0 3e
       -0.47566557 -0.1544618 0.38989693 0.47029188
000060 3f 9c bd be 72 6e 59 3f 93 3b 64 3f a2 7a 2d be
       -0.3703327 0.8493415 0.89153403 -0.16941312
000070 d8 16 26 be db 16 47 be 2a c7 9b 3c aa 02 b2 3e
       -0.16219652 -0.19442312 0.019015867 0.34767658
000080 83 88 1a 3f 7d 61 4b bd 96 3d e3 3e f9 2c 4d 3f
       0.6036455 -0.04965352 0.44382924 0.8014675
000090 4c b9 41 bd 46 a0 a1 3e 8b d4 98 3e 4f ce 0f 3d
       -0.047295853 0.3156759 0.29849657 0.03510886
0000a0 72 e2 d3 be a9 96 5e bf 70 d3 93 be 39 d7 2a bf
       -0.41383702 -0.8694864 -0.28872252 -0.66734654
0000b0 55 1f be bf 99 53 28 be 45 cc b6 3b 0c 0e 17 bf
       -1.4853312 -0.1643814 0.00557855 -0.5900581
0000c0 34 5b 33 be f6 e3 3b bf 7f 36 81 bf 23 7e 0d 3e
       -0.1751526 -0.73394716 -1.0094756 0.13817649
0000d0 8e 83 a7 bc 7b cc 4a be 17 59 89 be e0 e9 2c 3e
       -0.020448472 -0.19804566 -0.26825783 0.16886091
0000e0 2c e2 35 3f 74 8a cd 3e 43 82 0b bd f7 9a ed be
       0.71048236 0.40144694 -0.034059774 -0.4640729
0000f0 0a 18 4e 3f af 13 8c be 46 e0 c7 bf 5d 04 67 bd
       0.8050543 -0.27358767 -1.5615318 -0.056400646
000100 6e c7 44 3e fd 16 b8 be fd 80 58 be 1f 49 ed be
       0.19216701 -0.3595504 -0.21142955 -0.4634485
000110 22 37 d2 be 1c e2 03 bf 15 be 42 bf c5 1e ff be
       -0.41057688 -0.5151689 -0.7607129 -0.49828163
000120 1c 14 5c be 47 db 67 3e 03 a3 cf 3e 79 be 24 be
       -0.21492046 0.22642241 0.40554056 -0.16088285
000130 d4 8e 24 3f a2 c2 80 3f cf 42 18 3e 6d 06 16 3f
       0.6428044 1.0059397 0.14869235 0.58603555
000140 34 5d 59 3f c0 07 6f be d6 83 d0 3c 05 9d 3f be
       0.8490784 -0.233428 0.02545349 -0.18712242
000150 8f 72 80 be b7 9a f9 3e 03 dd 05 3f 77 33 4d bd
       -0.250874 0.4875085 0.5229036 -0.05009791
000160 91 04 1d 3f 14 58 80 3f ae fc 4d 3f 03 92 3c 3e
       0.6133509 1.0026879 0.80463684 0.18415074
000170 87 33 85 3e 13 9f 3d 3f 03 e3 94 be 12 95 37 be
       0.26015875 0.74070853 -0.29079446 -0.1792796
000180 5d f7 41 3f df bf be be aa 52 1f be fe 84 67 bd
       0.7576807 -0.3725576 -0.15558878 -0.056523316
000190 df 89 3c be e2 05 2f bf a5 89 b7 be d9 bd 8b 3e
       -0.18411969 -0.6836835 -0.35847202 0.2729328
0001a0 97 2e af 3e 84 c5 aa be 59 7f 93 3f c5 d5 e1 3f
       0.34215233 -0.33353817 1.1523238 1.7643362
0001b0 5a 0a 10 3e 81 53 9a bd 57 63 61 bf fa f2 5a be
       0.14066449 -0.07535458 -0.88042206 -0.2138175
0001c0 60 af 9d 3e b5 74 f0 3e 3a 1a d6 be 11 d6 12 3f
       0.30797863 0.4696404 -0.41816884 0.5735789
0001d0 71 9d ca 3f 86 61 7a 3e 35 a2 01 3f b1 40 ce 3e
       1.5829297 0.24451265 0.50638133 0.4028373
0001e0 f4 77 c6 be a9 14 92 be 46 91 31 bd 9e de be be
       -0.38763392 -0.28531387 -0.043351434 -0.37279218
0001f0 8d bb 81 bf 0f f2 7c bf fd f9 57 be 36 34 5f 3e
       -1.0135361 -0.9880685 -0.21091457 0.2179726
000200 9b e5 59 3f 69 70 a5 3e ac 35 c0 be 9c a2 0a bf
       0.85115975 0.32312325 -0.37540948 -0.5415437
000210 35 58 58 3f 67 d2 1b bf 9d 58 bc bf 36 a2 47 be
       0.84509593 -0.60867923 -1.4714543 -0.19495472
000220 d9 a9 45 be 7d 82 10 bf d2 ce 7e be f1 38 64 3e
       -0.19303073 -0.5644911 -0.24883583 0.22287346
000230 63 e2 1d 3f 96 c8 cf bd 11 85 11 3f 16 0d b0 3f
       0.61673564 -0.101456806 0.5684367 1.3753994

stage2.0.branch2.4.weight f4 [16]
000000 07 a3 ae 3f 0f 2a 93 3f 0a a6 a9 3f e0 52 b6 3f
       1.3643502 1.149721 1.3253796 1.4244041
000010 85 05 62 3f 21 42 8b 3f 8d 56 be 3f 28 82 85 3f
       0.8828967 1.0879556 1.4870163 1.0430346
000020 c7 83 b1 3f 10 c0 93 3f 6e f5 88 3f f7 cb ab 3f
       1.386834 1.1542988 1.0699899 1.342162
000030 56 af c3 3f 22 ff 9d 3f 57 fe b3 3f 1c d6 95 3f
       1.5287883 1.2343485 1.4061993 1.1705966

stage2.0.branch2.4.bias f4 [16]
000000 ff 8d 19 bd 26 9a 81 3d 7b 48 79 bf 43 dd b6 bf
       -0.037488934 0.063282296 -0.9737622 -1.4286274
000010 8b 4c 42 3f c2 32 f0 3e 69 61 6f bd 2d c4 3d 3f
       0.75898045 0.46913725 -0.058442507 0.74127465
000020 c2 30 a2 be a6 25 40 bf dd b2 05 bf ba 93 c5 be
       -0.31677824 -0.75057447 -0.5222605 -0.3858927
000030 d6 e5 e0 3b 49 8a 87 3f ae b6 66 3f 77 32 89 be
       0.006863336 1.0589076 0.901225 -0.26796314

stage2.0.branch2.5.weight f4 [16, 16, 1, 1]
000000 2b a4 b7 3e 05 90 fe 3e 03 0b 4a 3f d1 dd 43 3f
       0.35867438 0.49719253 0.7892305 0.7651034
000010 54 7b ba be 6a 5f 28 be 04 51 a1 3f 80 3b 4d bf
       -0.36422217 -0.16442648 1.2602849 -0.80168915
000020 08 0d 0d 3e 2e 32 e2 bd 14 ac d9 be 84 b7 33 bf
       0.13774502 -0.11044727 -0.42514098 -0.702019
000030 f2 09 28 bf 27 09 5a 3e bf 0e 01 3f f4 3c 4e be
       -0.65640175 0.21292554 0.50413126 -0.2014044
000040 71 32 3b 3f b5 f8 12 bd f8 d1 8f be 90 2f c2 be
       0.7312384 -0.035881717 -0.2808988 -0.37926912
000050 2d fd ab 3e 6b 38 89 3e 39 7c 13 3f 66 4a 1c be
       0.33591595 0.26800856 0.57611424 -0.15262756
000060 48 18 d1 be 22 72 47 bf ba 4e 50 bf dd 4d eb be
       -0.40838838 -0.7790853 -0.8137013 -0.45957842
000070 6b 05 61 be 8e 83 c1 3e 54 e6 68 3e e9 3a b5 3e
       -0.21974723 0.3779568 0.22744113 0.35396507
000080 ed 03 88 3d ab bc 7b 3e ad ad 49 3f e6 41 34 be
       0.06641374 0.2458369 0.78780633 -0.17603263
000090 2c 60 39 bf 42 f7 31 3f ba 19 59 3e 01 2c 54 bf
       -0.7241237 0.6951791 0.2120122 -0.82879645
0000a0 61 a0 68 be a2 82 ce 3e 61 41 96 be c1 c9 00 3f
       -0.2271743 0.4033404 -0.29346755 0.5030785
0000b0 34 60 24 3e f3 1a f5 be 87 d9 02 bd b4 7e c5 3d
       0.16052324 -0.47872123 -0.03194573 0.09643307
0000c0 11 c1 93 bf 23 1f b7 3d 57 8a e2 3c 36 bd 05 bf
       -1.1543294 0.08941486 0.027653856 -0.5224184
0000d0 29 7e d6 3e a1 84 97 be 07 2f 03 be 70 17 24 3f
       0.41893128 -0.29593375 -0.12810908 0.6409826
0000e0 8c 21 79 be 1c 3b 81 bf e1 b9 ae be 48 4b 8e bd
       -0.24329203 -1.0096164 -0.3412619 -0.069479525
0000f0 88 2a f9 3d 24 bd 79 3d 4f ed 88 3e 6b c8 1a bf
       0.12166315 0.060971394 0.26743552 -0.60462064
000100 a7 29 04 3f 47 90 59 3e 6f fd 41 bf 6b 94 6b bf
       0.51626056 0.21246444 -0.75777334 -0.9202334
000110 38 71 85 3d a2 56 64 3e 97 ea 09 bd c3 35 cd be
       0.065157354 0.22298673 -0.033670988 -0.4008008
000120 f3 41 4f 3d bb c2 c6 3e 03 2d e9 be 82 a4 7c 3f
       0.050600003 0.38820443 -0.45542154 0.9868852
000130 42 d0 3a bf bd 24 eb bd ca 3a de 3e 44 cf fc 3e
       -0.72974026 -0.11481617 0.43404227 0.4937688
000140 8d 3d 18 3b 09 45 2d 3e eb b8 b2 3e d3 76 1e bf
       0.0023230046 0.16920866 0.34906706 -0.6190006
000150 55 20 88 3f eb 4b a3 3f 16 87 08 3f cc 30 0d 3f
       1.0634867 1.2757543 0.53331125 0.55152583
000160 21 96 53 3e b1 f7 61 3f 56 80 9e be 3d 98 95 3e
       0.20662738 0.8826857 -0.30957288 0.2921771
000170 24 69 1f be ed 28 18 be 0e f5 af 3e 10 21 ce be
       -0.15567452 -0.14859362 0.3436665 -0.402596
000180 9b da ee 3e 22 f2 9c bb 21 54 aa bd 9d 2f d8 3e
       0.46651158 -0.0047896067 -0.083168276 0.42223826
000190 a7 4b eb 3e b6 d9 29 3e fb 36 11 3f c5 10 d8 be
       0.45956156 0.16586956 0.5672452 -0.42200294
0001a0 30 bb 0b bf 27 df 81 be d9 16 98 be c0 d7 4c bf
       -0.545825 -0.25365564 -0.2970493 -0.8001671
0001b0 be 43 7c 3f c2 2f ae be 07 74 b8 bf 5a f0 de be
       0.98540866 -0.3402081 -1.4410409 -0.4354275
0001c0 f2 97 a1 3e 82 79 82 bf 0f 6d ca bd 52 b2 eb be
       0.31561238 -1.0193331 -0.098840825 -0.46034485
0001d0 0c 3d 55 3e 2c 19 67 3e 08 c2 cd 3b 75 d0 ef be
       0.20824069 0.22568196 0.006279234 -0.46838728
0001e0 a0 48 b3 3f f3 92 63 be 10 dd f3 be 68 45 4b bf
       1.4006538 -0.22224025 -0.47629595 -0.7940278
0001f0 c1 5b 1e bd 3e ae 6f be b2 b7 cb 3e 93 9f c8 be
       -0.038661722 -0.23406312 0.39788586 -0.39184245
000200 13 fc 59 be d1 cd a8 3d 90 62 0a 3b 82 d9 40 bf
       -0.21287565 0.08242381 0.0021115877 -0.7533189
000210 f1 4b 89 bd ae 4d 04 bf 34 5c 1f bf 9d bd 07 bf
       -0.06703938 -0.5168103 -0.62250066 -0.530237
000220 96 59 ff be e5 17 44 be cb 0b 73 3d c1 2c c6 be
       -0.49873036 -0.1914974 0.05933742 -0.3870602
000230 20 3d 71 bf 6b 14 85 bf d7 80 c3 be 0f ab e5 3e
       -0.94233894 -1.0396856 -0.38184234 0.4485707
000240 a3 96 ce 3e aa f7 09 be 3c 0b 62 3f 0e 30 11 3f
       0.40349302 -0.13473383 0.8829839 0.5671395
000250 3d ca a3 be 0d bc c9 be d1 50 00 3e e1 9d d8 be
       -0.31990233 -0.39401284 0.12530829 -0.42307952
000260 69 ed c0 be 7c 5c 05 3f ba 98 70 3e 52 aa 7a bc
       -0.3768113 0.52094245 0.2349576 -0.015299397
000270 1c 4c ff bd ba 5d 80 be 16 a2 af be 88 55 11 bf
       -0.124656886 -0.25071508 -0.3430335 -0.56771135
000280 30 db 12 bf 1a ab 07 be 43 cd b6 be 43 2a b9 3d
       -0.57365704 -0.13248864 -0.35703477 0.09041264
000290 e3 06 35 be 7d 75 3a be 5c bf 24 be e9 9a 83 3e
       -0.17678408 -0.1820888 -0.16088623 0.25704125
0002a0 85 ea 35 3e b7 f2 b7 3e a3 54 a6 3e 07 2a 14 3f
       0.17765243 0.35927364 0.32486448 0.5787663
0002b0 18 a9 2d 3f e4 c7 a3 3e b5 40 79 3e 34 8e fc 3c
       0.6783614 0.31988442 0.2434109 0.030829526
0002c0 fd 53 25 bf 7d 0a 03 be c9 6e ed 3d 91 da 7e bd
       -0.6458128 -0.1279697 0.11593396 -0.06222016
0002d0 b9 df 92 bd 2d 3b 83 bd 29 dd 49 bf d2 2f 3a be
       -0.07171578 -0.06407771 -0.7885309 -0.18182305
0002e0 18 4f a1 3e 55 4b 7a be 0b ac ac bd da ce 37 bf
       0.31505656 -0.244428 -0.08431252 -0.71800005
0002f0 4a 0b 3c 3c 29 12 e6 bd 07 c5 5c bf 60 f9 1b bf
       0.011477301 -0.112339325 -0.8623814 -0.6092739
000300 21 55 46 3d 37 35 60 bf 14 09 c6 3e 62 90 02 bf
       0.04842103 -0.875812 0.386788 -0.5100156
000310 87 50 94 3e ff 55 c8 be 02 b2 23 be 92 47 21 be
       0.28967687 -0.3912811 -0.15985873 -0.15749958
000320 e7 96 d6 be ed 8a 27 3e ae 3d e4 3e 51 13 a4 3e
       -0.41912004 0.1636159 0.44578308 0.32045987
000330 b8 58 c2 3e 68 0c 71 3f e6 36 26 be eb 93 c8 be
       0.37958312 0.94159555 -0.1623188 -0.39175352
000340 c2 c5 ea 3e 07 91 d8 3e 80 ad 41 3d d8 fe a3 bd
       0.45854002 0.42298147 0.047284603 -0.08007592
000350 7f aa 8b 3e f9 c3 b6 be 5b f4 5f 3e 6b fe 66 be
       0.27278516 -0.3569639 0.21870558 -0.2255799
000360 d9 35 42 bf 2d 95 f1 3e 44 d7 8a bc a5 01 d6 3c
       -0.75863415 0.47184125 -0.01694835 0.026123831
000370 95 56 35 3f 41 18 af be 0a 27 05 3f a9 c3 20 3f
       0.7083524 -0.34198192 0.52012694 0.62798554
000380 07 a9 61 3e 30 29 9f bc c0 2a 83 bd 62 cb 46 3d
       0.22037135 -0.01942882 -0.06404638 0.048533805
000390 a6 4e 70 3e c3 0c fe 3c ca d1 34 3f 4d 96 5a 3e
       0.23467502 0.031011945 0.7063261 0.21346398
0003a0 ec 0d 56 3e 19 47 83 3e b3 79 2b 3d b1 70 08 bf
       0.20903748 0.2564018 0.04186411 -0.53296953
0003b0 f5 48 1a 3e 40 e4 43 bf 17 e4 9d 3e b5 dd b2 bc
       0.15066893 -0.76520157 0.3083808 -0.021834234
0003c0 97 08 05 3e a9 43 ca 3e 57 d7 ec 3d ea 7e c3 be
       0.12991558 0.39504746 0.1156451 -0.38182765
0003d0 ed d4 ff 3e dc 66 2b bd e0 98 be be ca ed f1 3d
       0.49967137 -0.04184614 -0.3722601 0.11812933
0003e0 b1 5b 88 3e 0d 8d bf 3e 11 2a 50 3f 09 ca 0a 3f
       0.26632455 0.374123 0.8131419 0.5421453
0003f0 ea f4 1a 3f 19 5e 59 bf 22 4f 64 be c8 6a 1a bf
       0.6052996 -0.84909207 -0.22295812 -0.60319185

stage2.0.branch2.6.weight f4 [16]
000000 29 38 d2 3f e3 c6 c2 3f 9a 74 e0 3f 35 ec b2 3f
       1.6423389 1.5216945 1.7535584 1.3978335
000010 c9 1e c1 3f be c3 9a 3f e3 b4 d7 3f 6e 7f a5 3f
       1.508752 1.2090986 1.6852077 1.2929513
000020 8b ab 2d 3f 31 0d 6f 3f c4 20 75 3f 86 7b 81 3f
       0.6783988 0.93379503 0.9575312 1.0115821
000030 f0 e4 47 3f 94 c9 22 3f 18 f9 37 3f af b4 58 3f
       0.78083706 0.63588834 0.7186446 0.846507

stage2.0.branch2.6.bias f4 [16]
000000 69 40 3c be 8e 74 1a 3f da cc 74 3d 9c 4b b3 3e
       -0.18383946 0.603341 0.059765674 0.35018623
000010 e6 51 9d bd 6d 01 9a 3f 0f 57 29 3f 99 ae 09 3c
       -0.076816365 1.2031685 0.66148466 0.008403444
000020 4d 88 27 3f 15 4a a3 bd 6c 25 30 bf 1b 75 f7 bd
       0.65442353 -0.079731144 -0.688071 -0.12082883
000030 b5 80 4f 3f c1 8e e2 3e aa 95 d4 3e e3 f1 29 3f
       0.81055766 0.44249538 0.41520435 0.66384715

stage2.1.branch2.0.weight f4 [16, 16, 1, 1]
000000 b4 fd 6f bd f5 ed 3f be 71 43 b1 3f 25 25 e1 3e
       -0.05859156 -0.18743117 1.3848706 0.43973652
000010 a3 68 0e be af 4d 33 bc 63 42 3f be 9b 5d 0f 3e
       -0.13907103 -0.010943814 -0.18677668 0.14000551
000020 35 9a da be d7 1e c5 3d 42 6f e5 bf e1 7a 33 be
       -0.42695776 0.09625023 -1.7924578 -0.17527343
000030 79 88 af 3f 8d 47 a7 bc 3d fa b6 3e c3 a9 a5 3d
       1.3713523 -0.02041986 0.35737792 0.0808902
000040 09 ad 67 bf 30 bd 28 3f c3 c1 f7 be fb e6 c3 be
       -0.90498406 0.6591368 -0.48390016 -0.38262162
000050 58 2e 17 be d8 39 21 3f 35 79 2b 3e da cc 2a 3f
       -0.14763772 0.6297889 0.16745456 0.6671883
000060 16 a4 cd 3e 8a 82 6e 3b 8d b1 e4 3d db 69 b6 be
       0.4016425 0.0036393725 0.111666776 -0.35627636
000070 c7 00 7b be 67 9c 45 be 52 2d 84 3d f1 3d ef 3d
       -0.24512015 -0.19297944 0.06453957 0.11681736
000080 0b 8f 73 be d1 e9 04 3f 8b 75 5e bd 2f 05 a1 3e
       -0.23785035 0.51919276 -0.054311316 0.31449267
000090 99 51 6a be 41 a6 fa 3e c1 10 8b 3f 3f 8b 7f 3e
       -0.2288269 0.48954967 1.0864488 0.24955462
0000a0 4d 40 d8 be f4 c5 9e bc 77 41 78 3e c1 a2 03 bf
       -0.42236558 -0.0193815 0.24243723 -0.5142022
0000b0 1a ee c0 bd a4 19 44 bd fa 8a 05 bf 8f 67 fe be
       -0.09420414 -0.047876015 -0.52165186 -0.49688384
0000c0 70 0d 97 be 57 14 8b be e5 20 20 bf ef ea b5 bd
       -0.2950244 -0.27163956 -0.62550193 -0.08882701
0000d0 83 b2 08 3e 7b fc 9a 3e ac 06 ab 3e c0 41 dc 3e
       0.13349347 0.30270752 0.33403528 0.43018913
0000e0 4f 22 f5 3e 30 1a 8f 3f d2 50 89 be b9 8d 01 3d
       0.47877738 1.1179867 -0.26819474 0.031629298
0000f0 06 04 06 3f 88 65 02 bf 97 b5 07 3f de 00 68 3e
       0.5234989 -0.50936174 0.5301146 0.22656581
000100 2f 70 41 be bb ff 59 be b1 d8 05 be 97 c7 60 bd
       -0.18890451 -0.2128896 -0.13070942 -0.054877844
000110 31 45 07 bd 65 cc 98 bd 10 d2 e7 bd 7a 3f 35 3d
       -0.03302497 -0.0746086 -0.11319363 0.04424999
000120 6d 27 17 bd e1 66 92 bc 43 43 02 3e 69 83 8e bd
       -0.036902834 -0.017871322 0.12720971 -0.06958658
000130 1d 4f 96 bd a7 19 9f bd ff 39 5b 3d 8d ae 32 bd
       -0.073393084 -0.07768565 0.053522106 -0.043623496
000140 4b c1 42 be 14 23 5a be fd 6b 06 be fa 60 63 bd
       -0.19019048 -0.21302444 -0.13127132 -0.055512406
000150 05 69 08 bd 0f 22 98 bd a5 fc e7 bd d2 87 31 3d
       -0.03330328 -0.07428371 -0.11327485 0.04334242
000160 8a 6f 17 bd c2 27 94 bc 2d b3 02 3e 4d 3b 8f bd
       -0.036971606 -0.018085364 0.12763663 -0.069937326
000170 db ae 95 bd 50 a3 9f bd cc 4b 5b 3d fe 41 2e bd
       -0.07308742 -0.07794821 0.053539082 -0.042543404
000180 18 5d df bc 0f c6 dd bd 16 e2 87 be d6 5c 8a be
       -0.02726607 -0.10828792 -0.26539677 -0.27023953
000190 9f 08 2f bc 14 ed e9 3e 51 72 88 3e d2 57 fc 3e
       -0.010683208 0.4568869 0.26649716 0.49285752
0001a0 e7 66 46 3f 25 ce 48 3f 43 08 5f bf 02 7a 10 3e
       0.77500767 0.7843955 -0.8712198 0.14109042
0001b0 65 9e 2e 3f 78 9b 15 bf 6f 64 d4 3e 9a d0 ba be
       0.6821044 -0.5844035 0.41482875 -0.36487275
0001c0 9d d5 43 be 85 85 5b be ca 76 08 be af 36 67 bd
       -0.19124456 -0.21437652 -0.13326564 -0.056448635
0001d0 2e fb 0d bd 83 a3 98 bd 62 da ea bd ce 4a 34 3d
       -0.03466337 -0.074530624 -0.114674345 0.04401665
0001e0 b1 05 12 bd b0 26 8a bc e4 53 03 3e 35 d6 90 bd
       -0.03564996 -0.01686415 0.1282497 -0.07072107
0001f0 a3 1b 91 bd ab 54 9e bd e2 bb 58 3d 23 e9 33 bd
       -0.070853494 -0.07730993 0.052913554 -0.04392351
000200 e1 ad b0 bd 66 cc c9 be c6 3d f6 bd db f9 74 be
       -0.08626915 -0.39413756 -0.12023501 -0.23923437
000210 a2 e0 5d be ee 0f 2f 3e 35 04 6b bd 25 15 44 be
       -0.21667722 0.1709592 -0.05737706 -0.19148691
000220 35 27 75 be 58 ab 51 be ca c5 44 bf a8 83 ef bd
       -0.23940738 -0.20475519 -0.768643 -0.11695033
000230 9a d1 c5 bc cb 3c 44 bd 10 ad 03 3d bf 9c 59 be
       -0.024147797 -0.04790954 0.032147467 -0.212512
000240 b2 7a 04 3d 4f d2 cf 3e 12 ba 16 3f 23 3f d9 3e
       0.032343574 0.4059014 0.5887767 0.42430982
000250 95 18 8d 3f a9 90 38 be 6a cf 77 3e 1a 9c b6 bc
       1.1023127 -0.18023933 0.24200216 -0.022291232
000260 f0 7f 6f bc b4 af 32 bf a6 9b 64 be 5e c7 d7 3e
       -0.014617905 -0.6979935 -0.22325 0.42144293
000270 60 9a 3f be 80 e3 cb 3e 43 31 1e be ed 64 15 3f
       -0.18711233 0.39822006 -0.1544848 0.58357126
000280 4e 1b 35 3f 5b 5b 60 3f b8 7f 70 3d a1 0f 18 3f
       0.7074479 0.876394 0.058715552 0.5939885
000290 3a b0 67 bf fa 80 a3 be c9 58 8b 3e e9 0f 89 be
       -0.90503275 -0.3193434 0.27216175 -0.2676995
0002a0 83 7e 82 bd 67 4e c3 3e e7 ca 1f be 60 ba 45 3f
       -0.063717864 0.38145754 -0.15604745 0.7723751
0002b0 58 e0 c9 bd 49 50 ae bd 70 43 39 bf 36 7a ad 3e
       -0.09857243 -0.08511407 -0.72368526 0.33882302
0002c0 fc fe 9b 3f 7d d2 c0 be 9a 71 4f be 93 a0 71 3f
       1.218719 -0.3766059 -0.2025818 0.9438564
0002d0 38 ec 34 be e3 1e 96 be 71 a0 ab 3e 6b ff 7e be
       -0.17668235 -0.2932044 0.33520845 -0.24902122
0002e0 24 a3 d9 3c 90 b1 1f bf 03 ad 2b 3d ed 26 88 3e
       0.02656705 -0.62380314 0.041913044 0.26592198
0002f0 57 f3 9b bd 61 d7 cf bd 59 63 15 be 63 4c 9e be
       -0.07614773 -0.10148502 -0.1458868 -0.30917653
000300 81 63 7c be 2f 85 27 be 02 0e 2a be 97 b3 80 be
       -0.24647333 -0.163594 -0.16606906 -0.25137016
000310 85 dc 09 3e a8 04 20 be 59 fa 3d 3d c4 93 23 3c
       0.13463028 -0.15626776 0.04638133 0.009983961
000320 39 ee aa be ef 5b 85 be 37 a6 bf 3f 34 cc f7 be
       -0.33384874 -0.26046702 1.49726 -0.48397982
000330 1d 15 78 be 15 c6 7c bd 0c 50 f4 3d b9 55 93 be
       -0.24226804 -0.061712343 0.1192933 -0.2877634
000340 d8 67 81 3d 6b ba 30 bf f6 6c 01 be f7 09 c0 3e
       0.06318635 -0.6903445 -0.12639222 0.37507603
000350 53 7b c0 bc 86 2e 9c be 9d b4 46 bf 59 a0 8f 3e
       -0.023496306 -0.30504245 -0.77619344 0.28052023
000360 44 dc 18 3f cb cc e3 3c f4 fa 81 bd f8 69 80 3e
       0.597111 0.027807614 -0.06346694 0.25080848
000370 c4 95 64 3d 75 16 02 3f 37 e0 8b 3f 73 3b 22 3f
       0.05580689 0.50815517 1.09278 0.6337196
000380 5e 31 d1 bc 6d d1 66 bf 94 a5 81 be 6a 2b 24 bf
       -0.025536235 -0.9016331 -0.2532164 -0.64128745
000390 36 3a e7 be 04 aa 90 be 7c 2f c8 bd f3 04 09 be
       -0.451616 -0.28254712 -0.09774682 -0.13380794
0003a0 fa 06 3e 3f fb 37 8b bd 17 ce 98 3e 81 b2 68 3f
       0.74229395 -0.06797787 0.29844734 0.90897375
0003b0 77 22 8a be 0b a3 80 3e 14 77 25 3e d5 6d cb be
       -0.2697942 0.25124392 0.16158706 -0.39732233
0003c0 ed 36 b4 3e 62 17 fe 3d c7 55 86 be 7d a8 f1 3d
       0.35198155 0.12406804 -0.26237318 0.11799715
0003d0 10 85 74 be e1 a4 28 3f 24 02 52 3f 16 1e 69 3f
       -0.23878884 0.65876585 0.82034516 0.9106153
0003e0 90 19 95 3d 4b c1 80 be 2d dd 2e 3d f0 d7 00 be
       0.07280266 -0.2514747 0.0426914 -0.12582374
0003f0 b1 a0 ba 3e d6 ce 49 bf e9 26 06 3f 62 4f a9 3f
       0.36450723 -0.7883123 0.5240312 1.3227351

stage2.1.branch2.1.weight f4 [16]
000000 47 93 4f 3f 7c 94 8a 3f 1d ae 9a 3f 4f 05 aa 3f
       0.810841 1.0826564 1.2084385 1.328287
000010 2c 6f 5e 3b 6e 54 58 3b de ce a9 3f ef 0d a9 3b
       0.0033940775 0.0033009308 1.3266256 0.0051591317
000020 0d ff 48 3c 9a 5b 8f 3f 78 89 a0 3f 4d 43 94 3f
       0.01226784 1.119983 1.2541952 1.1583039
000030 95 90 4c 3f d3 d1 91 3f 82 01 78 3f 2f 3a a1 3f
       0.79908115 1.1392158 0.968773 1.2595881

stage2.1.branch2.1.bias f4 [16]
000000 50 33 b7 3e 20 a4 49 3f 54 fa 2c 3f f9 80 0a 3f
       0.35781336 0.7876606 0.6756947 0.54103047
000010 7e 37 a6 b9 0e e4 b1 b9 2d 3f a8 3e 43 8d 67 ba
       -0.00031703332 -0.00033929985 0.328607 -0.00088330003
000020 5d b5 b5 3b ac 24 e5 3e cc 8d d0 3e 57 bc 89 3f
       0.005545302 0.4475454 0.40733182 1.0760602
000030 de 4a f5 3e b1 57 29 3f 81 f5 90 3f 6a ad ad 3d
       0.47908682 0.6614943 1.1324922 0.08480342
