independent_train_0.0/client95/checkpoint_0.0.pth (torch, 225067 bytes, 29 tensors)

conv1.weight f4 [24, 3, 3, 3]
000000 2d 46 63 3e 22 89 ff 3e fb c2 5c 3e 53 5d 1e 3f
       0.22194739 0.49909312 0.21558754 0.6186115
000010 44 c3 75 3f 5e f4 20 3f 3c cb b6 3d 52 dd d6 3e
       0.96001077 0.62872875 0.08925483 0.4196573
000020 58 14 f3 3d 59 82 4c bd f9 ba bd bd 1c 27 34 3c
       0.11869115 -0.049928997 -0.09264178 0.0109956525
000030 45 6c 19 be f3 1c 68 be e0 5a dd bd 41 e2 cd bd
       -0.14982708 -0.22667293 -0.10808349 -0.1005292
000040 54 6c 43 be ff 6f dc bd e1 df 0e be e5 0f d7 be
       -0.19084293 -0.10763549 -0.1395259 -0.42004314
000050 d0 16 27 be ca d1 b2 be 80 38 2a bf 39 32 bc be
       -0.16317296 -0.3492568 -0.6649246 -0.36757067
000060 dd aa 05 3d aa 16 84 be 78 09 20 3c ca 48 c4 bf
       0.03263365 -0.2579854 0.0097678825 -1.5334713
000070 eb a9 e1 bf b0 ae bf bf 4f 1a 0d 3f d3 e7 65 3f
       -1.762998 -1.4975185 0.5511827 0.8980686
000080 15 b3 29 3f fa 8e 46 3f 8d b1 94 3f 09 60 39 3f
       0.6628888 0.77561915 1.1616684 0.72412163
000090 cc d6 76 bf 95 ff 9d bf e7 64 78 bf bd f0 b3 3e
       -0.96421504 -1.2343622 -0.97028965 0.35144606
0000a0 d3 fa 22 3f e0 d3 fb 3e 12 aa c5 3e a5 3e 38 3f
       0.6366398 0.49185085 0.38606316 0.7197059
0000b0 98 60 e7 3e b6 7a 01 bc 09 de e7 be 4c 48 d9 bd
       0.45190883 -0.007902792 -0.45286587 -0.10609493
0000c0 05 99 7f 3e c3 10 80 3e d1 00 a9 3e 83 2f 00 be
       0.24960716 0.25012788 0.33008435 -0.12518124
0000d0 f9 c5 fd bd 4e a1 9a bd 42 b2 93 bd aa be 89 3e
       -0.12391276 -0.07550298 -0.07211734 0.26903278
0000e0 a6 6a 2f bd d7 17 95 3d 1b 0a d5 3e 0c be 5a 3e
       -0.042826317 0.07279938 0.41609272 0.2136156
0000f0 45 33 a4 bd 67 c0 69 3e f2 14 f2 3d 35 a6 3e 3e
       -0.080175914 0.22827302 0.11820401 0.1861809
000100 92 1f 6d 3e 66 66 2e 3e b5 3f 09 be d5 b7 f5 bd
       0.23156574 0.1703125 -0.13403209 -0.11997954
000110 11 94 ba bd 61 8b 20 be ec 92 49 be 95 0f be bd
       -0.09110273 -0.15678169 -0.19684952 -0.09280316
000120 63 1e 02 3e 67 3a 8f bd fa 44 11 3b f2 17 c7 be
       0.12706904 -0.06993561 0.0022166357 -0.38885456
000130 b2 20 2e bf 14 f9 f7 be c9 fb 95 be b4 61 1a bf
       -0.6801864 -0.4843222 -0.2929366 -0.60305333
000140 4d 3f bc be bd ea 53 3c 45 69 31 bd c5 f8 86 3e
       -0.36767045 0.012934384 -0.043313283 0.2636167
000150 9c db a3 3f ae 1f 17 be 9c 6f 9f bf 80 c9 e1 3e
       1.2801394 -0.14758179 -1.2455935 0.44099045
000160 dd af 9e bd d9 5e 13 be d0 c2 3d 3f 37 ce a6 be
       -0.07748387 -0.1439165 0.74125385 -0.32579204
000170 22 d2 21 bf e6 20 10 40 0d a6 80 be f5 2e 07 c0
       -0.6321126 2.252008 -0.25126687 -2.112241
000180 b0 be 9b 3f 31 3b 29 be a3 6c 52 bf 83 0e 96 3e
       1.2167568 -0.16526486 -0.82197016 0.29307947
000190 0a 7b 87 be cf e0 1f be a1 b2 f0 3f c4 01 df bd
       -0.2646106 -0.15613101 1.8804513 -0.10889009
0001a0 25 4c d3 bf c8 ff 86 3f c3 ab 9d bd 03 11 36 bf
       -1.6507612 1.0546808 -0.076987766 -0.7111971
0001b0 f9 c2 55 bf 61 a4 a7 3c 2b bc 33 3f 10 b0 64 3f
       -0.8350063 0.020464124 0.70208997 0.8933115
0001c0 bf 91 0f 40 06 5d b3 bf 38 88 77 bf 82 7e 72 3f
       2.2432706 -1.4012764 -0.9669223 0.94724286
0001d0 9e 3a ec be 9e 43 28 bf 97 d2 be bd 5a 70 83 3e
       -0.4613847 -0.65728176 -0.093175106 0.25671655
0001e0 62 c3 e7 3e cc 52 d2 3f e1 fb 08 c0 4a 00 85 bf
       0.45266253 1.6431518 -2.1403735 -1.0390713
0001f0 bf 7c 60 3f df 34 91 be fc 9d 1c bf b1 4e b2 be
       0.8769035 -0.2836065 -0.61178565 -0.34825662
000200 e7 8f 11 3f cc 92 a2 3e f4 6e a9 3f 5a 6b be bf
       0.568602 0.31752622 1.3236985 -1.4876511
000210 9f 0a 34 bf be 2a 63 3f 60 cc b1 3e b4 1e 86 3e
       -0.70328707 0.88737094 0.34726238 0.261953
000220 ec 00 34 3d 49 79 47 3e de 4e c3 bd e6 94 8e be
       0.04394619 0.1947986 -0.09536527 -0.27847975
000230 21 09 32 be 78 68 45 3d 1a 05 9d bd 4a be 4d bd
       -0.17386295 0.048195332 -0.07666989 -0.050230302
000240 26 3f d7 be 40 b1 0a bf 6b c5 d6 be 86 d5 15 bf
       -0.42040366 -0.5417671 -0.41947493 -0.58528936
000250 26 41 21 bf b6 14 14 bf 43 dc 2d bf e0 f7 37 bf
       -0.62990034 -0.578441 -0.6791422 -0.718626
000260 a3 88 31 bf 68 6d 69 3c 13 3e b9 3e 57 8d 16 3e
       -0.69349116 0.014247276 0.3618017 0.14702354
000270 de e8 46 3f d0 f5 a0 3f 82 00 6d 3f 7b c7 b9 3e
       0.7769908 1.2575016 0.925789 0.36285004
000280 20 58 57 3f 41 79 f7 3e ee d8 d3 be ce 7f 3e bd
       0.84118843 0.48334697 -0.41376442 -0.046508603
000290 16 41 f9 be 04 fd 2e 3f e0 59 a5 3f 52 b1 33 3f
       -0.4868247 0.6835482 1.2918053 0.70192444
0002a0 33 c0 bd 3e ce 27 79 3f 38 c1 c3 3e d0 4f 10 be
       0.370607 0.9732636 0.38233352 -0.14092946
0002b0 ce bf de be a9 50 91 bd ec 13 61 bf fc bf 9c bf
       -0.4350571 -0.07095463 -0.87921023 -1.2246089
0002c0 c7 fd 38 bf 4a a8 30 bf d9 57 87 bf 1f c4 1a bf
       -0.72262233 -0.6900679 -1.0573684 -0.6045551
0002d0 a4 a1 17 3f 43 80 d8 3e 08 5e 15 3f 7e 74 46 3e
       0.5923102 0.42285356 0.58346605 0.19380376
0002e0 23 9d 69 bc 14 fa 75 3e f7 8a ef 3d 9f 20 0c be
       -0.014258656 0.24021178 0.11696427 -0.13684319
0002f0 4e 23 f0 3d f1 02 98 3e 88 6b 03 3f d8 fb b8 3e
       0.11725484 0.29689744 0.51335955 0.36129642
000300 c1 3d c4 3e 69 40 2c 3f 8e 40 18 3f 6e d6 7a be
       0.38328364 0.6728578 0.594735 -0.24495861
000310 3a 11 13 bd 53 ef 33 3b 2f e3 04 3e 78 8f 86 3e
       -0.0359051 0.002745588 0.12977289 0.26281333
000320 c8 ed 91 3e da 5c 0c bd c1 a8 ad 3d e6 7d 3f 3e
       0.28501725 -0.034268238 0.08479453 0.1870037
000330 01 8c d4 be 0f b0 cd be 2e 28 81 be 02 5e 13 3c
       -0.41513065 -0.40173385 -0.25225967 0.008994581
000340 6c a9 7e 3b 3b 54 f7 3d 1e 6d 4e be db 14 5b be
       0.0038858308 0.120766126 -0.20158812 -0.21394674
000350 d7 81 06 bd 25 62 84 be 26 c4 97 be 4b 7e e8 bd
       -0.03283867 -0.25856128 -0.29641837 -0.113522135
000360 8a b8 39 bd 02 34 7b 3f 42 c8 a7 3d c0 74 7d 3f
       -0.045342006 0.9812623 0.08192493 0.9900627
000370 ac b8 bc bf 50 9b 2d 3f e9 9c 53 3e 3d b3 4c bf
       -1.4743857 0.67815113 0.20665325 -0.79960996
000380 01 86 05 3f 7c 54 cb 3d 83 20 ad 3e 30 ea 0d 3e
       0.521576 0.099282235 0.33813867 0.13858867
000390 1e d9 d0 3e 6f 5e 31 c0 26 ca 84 bd c7 fa 25 3f
       0.40790647 -2.7713888 -0.06483869 0.6483578
0003a0 ab 48 3e bf 3c 41 85 3f 7b c8 46 be 24 f3 10 3f
       -0.7432963 1.0410533 -0.19412415 0.56621003
0003b0 76 e5 39 3e 07 eb 99 3e 52 53 02 c0 c9 47 32 3e
       0.18153939 0.30062124 -2.0363355 0.17410196
0003c0 5d 8d b5 3e 80 3e de be 05 24 85 3f c0 9c 70 be
       0.35459414 -0.4340706 1.0401617 -0.23497295
0003d0 cb 56 12 bf 5a 78 89 be 28 6f 05 bf 86 fe 63 bf
       -0.57163686 -0.26849633 -0.52122736 -0.89060247
0003e0 b4 ee 17 bf 9c bd 0b bf c8 8a 6c bf 1f 26 17 bf
       -0.5934861 -0.54586196 -0.92399263 -0.59042543
0003f0 97 bf 1e 3f 35 10 4a 3f 8b 8b 2b 3f 10 7b 8a 3f
       0.6201109 0.7893098 0.670098 1.0818806

dense1.0.bn1.weight f4 [24]
000000 2b 5b 40 3f 11 be df 3e 63 4a 12 3f e3 4b 6f 3f
       0.7513911 0.43699697 0.57144755 0.9347517
000010 13 a5 fa 3f 55 58 c4 3e d4 7e 9f 3f bb 99 27 3f
       1.9581627 0.38348642 1.246058 0.6546895
000020 64 9e 04 40 c7 ac c9 3e 16 1a 03 3f d7 e6 a6 3e
       2.0721674 0.3938963 0.5121168 0.32597992
000030 50 a0 dd 3e a8 d9 c1 3e 57 2e 66 3f 1c 24 89 3f
       0.4328637 0.3786137 0.8991446 1.0714145
000040 bc 52 9b 3e f8 f3 bf 3e 05 7c 8e 3e 23 4d 28 3f
       0.3033656 0.3749082 0.27828994 0.657427
000050 e9 1f 07 3f c8 24 78 3f 20 4e cc 3e ff 7c 08 3f
       0.52783066 0.96931124 0.39903355 0.5331573

dense1.0.bn1.bias f4 [24]
000000 d7 99 0e bf f4 24 b9 be 90 03 9f bd 04 21 e4 3e
       -0.5570349 -0.36161005 -0.07764351 0.4455644
000010 38 8f 32 3f e6 73 7b be f8 2a a2 bf 93 9d ea be
       0.69749784 -0.2455593 -1.2669363 -0.45823345
000020 5a 5b 39 3f db 77 2a be 34 6d 5a be f8 90 15 3e
       0.72405016 -0.16647284 -0.2133072 0.14606082
000030 de e1 35 3d 4b 1d c0 3e 4f 40 b4 3e 9d 0d 62 3e
       0.044404857 0.3752235 0.35205314 0.22075506
000040 fa cb 71 be 79 e0 9d be db 5c a2 be 74 a0 5d 3e
       -0.23612967 -0.30835322 -0.31711468 0.2164324
000050 8e 66 ea be a6 01 2c 3f bb 89 aa 3d ae 24 6d be
       -0.45781368 0.67190015 0.08327051 -0.23158523

dense1.0.conv1.weight f4 [12, 24, 3, 3]
000000 98 cb a1 3d 8a ad 34 3b ee 5d 2c 3e 76 d0 c4 3b
       0.079001606 0.0027569258 0.16832706 0.006006296
000010 2c 55 f1 bd 62 93 4f 3d 8e 7c 16 3d c7 d7 15 be
       -0.11783823 0.050677665 0.03673988 -0.14633094
000020 2f f6 e7 3b 6a 12 03 3d 9f 69 2f be e2 36 02 3e
       0.007078908 0.031999983 -0.17130135 0.12716249
000030 63 e2 4a bd bf f0 34 be a1 19 1f 3d 22 ee 88 3d
       -0.049532305 -0.17669962 0.0388428 0.06686045
000040 48 1e 59 3d f1 63 2f 3d d1 09 86 3d 1d 68 24 bd
       0.053007394 0.04281992 0.06544841 -0.040138353
000050 5b 3e 73 3e 23 8b 1c 3d 5d 70 cf bd 3f 4f 56 3e
       0.23754255 0.03821863 -0.101288535 0.20928667
000060 7e 9c 29 bd e5 7f 76 be d2 99 39 3d 8b e0 76 3e
       -0.04140901 -0.24072225 0.04531271 0.24109094
000070 e3 e7 2b be a8 82 97 be e9 8e 90 3f 6c 4a 9b ba
       -0.16787677 -0.2959187 1.1293613 -0.0011847741
000080 e1 ef 6c bf 6b ba 18 be 75 f3 f3 bd 36 12 a2 be
       -0.92553526 -0.14914863 -0.1191167 -0.3165452
000090 1b b2 0b 3f df 2c a5 bf 86 d2 24 3f c7 6c bd 3f
       0.5456864 -1.2904319 0.64383733 1.4798821
0000a0 fb f8 dd bf 31 4c b0 3e 12 82 ae 3e c1 79 45 bf
       -1.7341608 0.3443313 0.3408361 -0.77138907
0000b0 32 04 d6 3e f0 2f fc bb 99 ca b5 3b 81 e9 96 3d
       0.41800076 -0.0076961443 0.005547833 0.07368756
0000c0 ee 33 69 bd 86 92 a1 bd ed e5 20 bc 8d 91 19 3d
       -0.05693429 -0.07889275 -0.009820444 0.037492324
0000d0 34 dc 6a 3c 42 2d 78 3d 32 ff 13 be cb 46 1f be
       0.014334727 0.060590036 -0.14452818 -0.15554349
0000e0 4a 04 47 3c c8 54 a5 bd 55 7d 1c be 4d f4 5a bc
       0.012147019 -0.08072811 -0.15282185 -0.01336391
0000f0 21 9b 98 3d dc e0 5c bd 5a 54 8f bc 70 4e 91 3b
       0.074514635 -0.05392538 -0.017496277 0.0044343993
000100 ad 32 31 3d 36 0f ba 3d 67 50 db bd 56 04 b0 bd
       0.04326122 0.090849325 -0.10708695 -0.08594577
000110 12 da b2 3d 68 e6 1e bd d8 86 d8 bb dd fc 2f 3e
       0.08733 -0.03879395 -0.0066078715 0.17186303
000120 e6 59 8c be 85 92 5f 3f bd fa 1c bf 60 e0 10 bf
       -0.27412337 0.87332946 -0.61320096 -0.5659237
000130 24 7b c0 3f 2c fd 89 bf 54 3c 3f be 7f 68 d5 3d
       1.503758 -1.0780387 -0.18675357 0.10420322
000140 ed ba 69 be c7 d8 4e 3d 6d d8 15 bd fd f5 9b 3d
       -0.22825213 0.050499704 -0.036583353 0.07615278
000150 4b 5c 9e 3d 2d e8 ac bc 15 fc 56 3d f4 69 e5 3d
       0.07732447 -0.021106804 0.052486498 0.112018496
000160 38 2b 93 bc b4 e5 16 3d 25 89 02 3e 18 2d 93 3c
       -0.017964944 0.036840156 0.12747629 0.017965838
000170 f7 e4 56 3d 1a 2d 87 3d df 7a 8e bd 41 43 a0 bb
       0.05246445 0.06600399 -0.069570296 -0.00489083
000180 d0 29 c4 3d d7 b6 e3 bb c0 fe 29 3d f4 6b c6 3c
       0.095782876 -0.0069492864 0.041502714 0.024221398
000190 6b 31 67 bd 7d 1f 08 3e 79 40 05 bd d2 88 da bd
       -0.056443613 0.13293262 -0.03253219 -0.10670628
0001a0 65 3b bf 3d aa 45 bf 3d 73 69 cd bb 60 36 14 3e
       0.093375005 0.09339459 -0.006268674 0.14473867
0001b0 e3 8f 3e 3e c1 d6 d0 3c bf 9d 01 3e b8 ec c0 3d
       0.18609576 0.025493028 0.12657832 0.094201505
0001c0 a0 29 f1 bc 13 a3 e9 3c c5 50 0a 3e 8f 33 2a 3c
       -0.029438794 0.028520143 0.13507374 0.010388269
0001d0 b1 dc 9f 3d 0e 77 84 bd e6 70 89 bd 36 d2 15 3d
       0.078057654 -0.064680204 -0.06710987 0.036577426
0001e0 56 06 83 3b dd 49 f2 bd 63 a0 07 3e 18 6b 2e 3e
       0.003998558 -0.118304946 0.13244776 0.1703304
0001f0 5e c8 b2 bc ca e9 8b 3e 82 7a 91 3e b9 fb fc bd
       -0.021824058 0.27326804 0.2841378 -0.123527
000200 75 3b 93 3e 67 16 8f 3e 12 6b 4e be ba 99 ab 3d
       0.287563 0.2794678 -0.20158032 0.083789304
000210 91 0d 86 3d 62 a9 30 be e8 1e 2c bc 84 4d 78 3b
       0.06545556 -0.17252114 -0.0105054155 0.0037888
000220 31 10 92 3d f7 6c da 3d 5b fe 29 be b5 b4 9c 3d
       0.071319945 0.10665315 -0.16600935 0.07651655
000230 c6 53 05 3e fe 31 39 be 67 20 db bb 85 35 0f 3e
       0.13020238 -0.18085477 -0.0066872123 0.1398526
000240 d7 d8 ca 3b ec 07 2f bd a0 8e 1e bc 4a 80 35 3d
       0.0061904 -0.042732164 -0.009677559 0.0443118
000250 be b1 0b 3c b5 e2 79 bc 16 1a 9a 3d e9 ec 48 3d
       0.008526264 -0.015251805 0.07524507 0.04905406
000260 e0 5d 3a 3c 53 a1 8c 3d 96 f2 ab 3c b8 7e 65 3d
       0.011374921 0.06866708 0.020989697 0.05602905
000270 9f b7 fe 3c f5 7b d5 bc 9a 5a c3 3c bf 80 e8 bc
       0.031093417 -0.026060084 0.023846913 -0.028381703
000280 4f b4 b2 bd 6e 9e 76 bd 2a 4b 1e bd 1c 3c 4a bd
       -0.087257974 -0.060209684 -0.0386459 -0.04937373
000290 84 bd 7f bc 8f 9b 49 bd 42 c7 9d bd 56 0d ed bc
       -0.015609149 -0.049220618 -0.07704021 -0.028937023
0002a0 9f 0e 22 3d 92 72 a6 bb 66 c6 95 3c 68 e9 79 bc
       0.039564725 -0.005079576 0.01828308 -0.015253402
0002b0 68 50 11 be eb ee 42 bd 61 92 d3 3e a5 6e d7 bd
       -0.14190829 -0.04759113 0.41322616 -0.10519151
0002c0 d4 75 3b be 1b 6e 78 3e 5a 18 5c be 08 a3 90 be
       -0.18306667 0.24260752 -0.21493664 -0.28249383
0002d0 e1 da 84 bd 93 18 3b be f5 29 39 bd b9 63 1c ba
       -0.0648706 -0.18271093 -0.04520603 -0.00059657876
0002e0 8c 96 af bd a2 8e df 3c 4b e4 f2 3d 33 df e9 3d
       -0.085736364 0.027289692 0.1185995 0.11419525
0002f0 8a a0 21 3e 1e 26 5a bf 39 26 8d bc 2c 2f 0d 3f
       0.15783897 -0.8521441 -0.01723014 0.55150104
000300 4a 0e 71 bf 8e 87 d4 be 5f a1 d8 3f 44 ce 3c be
       -0.9416243 -0.4150967 1.6924247 -0.18438059
000310 dc 39 62 bf 18 67 37 3e eb 99 22 3d 44 f2 83 bd
       -0.88369536 0.17910421 0.03969757 -0.06442693
000320 b7 7c ea b9 8e d2 32 3d fc ab 95 bb 17 d8 48 3d
       -0.00044724878 0.04365783 -0.0045676213 0.049034204
000330 c3 5f b0 bd df c8 13 be 75 0a 05 bd 62 08 f5 3d
       -0.08612015 -0.14432095 -0.032480676 0.119644895
000340 4f da 0d 3e 99 39 64 3e 02 af d9 3d 01 3a d2 3d
       0.1385281 0.22287597 0.10629083 0.102649696
000350 4c 19 88 3e 6b bc 42 be 44 79 96 be 70 b7 ea bd
       0.265818 -0.19017188 -0.29389393 -0.11460769
000360 8c fc 93 be d6 0c 28 be b2 3c 5a be c2 0c 27 be
       -0.28903615 -0.16411147 -0.21312216 -0.1631346
000370 21 11 41 bc 82 a3 b9 bd bf 15 69 be 10 ac d2 bd
       -0.011783869 -0.0906439 -0.22762202 -0.102867246
000380 e1 e9 41 be 06 b5 24 3e 29 4a 2d 3e b2 6d 57 3e
       -0.18936874 0.1608468 0.16922821 0.21037939
000390 85 44 a4 3d 2b c3 89 3d 3f 70 88 3d 48 04 01 3d
       0.080208816 0.067266785 0.06662034 0.031498224
0003a0 9d da c2 bb 03 42 0e bd 92 c6 c2 3d d0 55 24 3e
       -0.005946471 -0.034730922 0.095105305 0.1604836
0003b0 fb 99 a7 3d 06 d2 49 3e 32 a3 8e 3e 1c 83 45 3e
       0.08183666 0.19709024 0.27858883 0.19288296
0003c0 e2 86 b9 3d cc 86 3c 3e 5d a0 af 3d 24 09 cf bc
       0.0905893 0.18410796 0.08575509 -0.025272913
0003d0 f6 47 1f 3e 69 4e e9 bc 80 02 30 3d ba ae 5c 3e
       0.15554795 -0.028479772 0.042971134 0.21551028
0003e0 c4 30 20 bd df e3 a9 bc 66 2e 28 3e f4 d0 c6 3b
       -0.039109007 -0.02073854 0.1642395 0.0060673896
0003f0 22 04 a5 be 20 20 e0 bd 30 ef 9b be 92 da fb 3d
       -0.32229716 -0.10943627 -0.30455923 0.12297548

dense1.1.bn1.weight f4 [36]
000000 98 41 f1 3e d3 58 5f 3f 3d 39 8f 3e fb 2b 36 3f
       0.47120357 0.8724491 0.27973357 0.7116086
000010 75 36 4d 3f 5c 2e 26 3f 88 8a 3c 3e 6a bc 2d 3f
       0.8016122 0.6491449 0.1841222 0.6786562
000020 ae 10 05 3f 47 03 e8 3e 38 5f b3 3e 97 6f c4 3e
       0.51978576 0.45315 0.35033584 0.38366386
000030 5c 2c d1 3e 04 cc 26 3f 99 29 e0 3e 5a 5f 70 3d
       0.40854156 0.65155053 0.43781736 0.058684684
000040 f6 97 c5 3e 67 1d 31 3f de 7b d3 3e 34 05 07 40
       0.385925 0.6918549 0.4130544 2.1096926
000050 a8 19 a1 3f fb 63 07 40 61 42 20 3f bb 53 64 3f
       1.2585955 2.1154773 0.62601286 0.8919026
000060 d6 af ba 3f 9d 33 57 3e dc 5b bc 3f 99 af c0 3f
       1.4584911 0.21015783 1.4715533 1.5053588
000070 28 e1 f2 3e ed f1 d6 3e ca 4a aa 3f 36 a6 23 3f
       0.47437406 0.4198145 1.3304074 0.6392549
000080 8d e0 03 3f 56 89 67 3f 49 f1 af 3f 78 ca e0 3f
       0.5151451 0.90443933 1.3745509 1.7561789

dense1.1.bn1.bias f4 [36]
000000 a3 8e ca be 98 f3 4e 3e 91 34 5a be 58 11 06 bf
       -0.39561948 0.20210111 -0.21309115 -0.52370214
000010 46 22 fc bc 9e 9e a5 be 0b 88 1a 3d 35 e4 05 bf
       -0.030778062 -0.32347578 0.037727397 -0.5230134
000020 4e eb 1c be 64 eb 19 bc e3 00 91 be 6b 3a 50 be
       -0.15324137 -0.0093945 -0.2832099 -0.20334785
000030 16 86 c3 be 02 59 ab 3e a5 fa 19 be cf 4c d2 bc
       -0.38188237 0.33466345 -0.1503702 -0.02567139
000040 2e e6 96 be f8 49 4e bf 10 6f 59 be 42 fc 42 bf
       -0.29472488 -0.8058162 -0.21233773 -0.76166165
000050 93 cb 05 bf 98 52 31 bf bd f4 f1 bd 79 57 05 bf
       -0.52263755 -0.69266653 -0.11814258 -0.520866
000060 bf a6 ae bd 58 92 32 bb f6 23 8d be 24 8e 03 3e
       -0.08527898 -0.0027247872 -0.275665 0.12847191
000070 39 22 9c 3b f9 e9 35 be cc 5d 69 3e ec bb f3 be
       0.004764822 -0.17765035 0.22789687 -0.4760431
000080 18 a0 d4 bd 5e ca bf be fb d7 a2 3d 93 1b cd 3e
       -0.10382098 -0.3745908 0.07951351 0.400601

dense1.1.conv1.weight f4 [12, 36, 3, 3]
000000 35 20 da bd 70 e9 9e bd 24 9b ab bd 0a 16 be bb
       -0.10650674 -0.077593684 -0.083792 -0.005800967
000010 97 d2 94 39 14 e1 1d bc 30 bf 9b 3d 1b 3d c3 3d
       0.0002838566 -0.009636182 0.076048255 0.09533139
000020 79 4b c4 3d cf 06 5f 3d ac a5 6b 3c d4 e4 d3 3d
       0.09584708 0.054449853 0.014382761 0.1034638
000030 f3 58 b1 3d 5e d9 9e 3d 06 31 0f 3e ae 5b df 3c
       0.08659544 0.07756303 0.13983545 0.027265396
000040 9b 1b ba bc c0 e3 c7 3c bf 00 10 bc 65 15 2b bd
       -0.022718241 0.024400592 -0.00878924 -0.04176845
000050 24 1e d8 bc 11 ce 4e bb 06 99 b3 bc b0 7b 88 bc
       -0.02638156 -0.003155593 -0.021923553 -0.016660541
000060 01 cc 64 3b f1 5e 09 bb 0a 44 00 bc 37 b4 ae 3d
       0.0034911635 -0.002096113 -0.007828722 0.08530467
000070 a9 37 a9 3d b6 d7 2b 3d b9 a4 11 bd 52 ae 16 3d
       0.082625695 0.041953765 -0.035557482 0.03678734
000080 0d 4f 46 3c a0 28 eb bd 89 08 83 bd af ae 17 bd
       0.012103808 -0.11482358 -0.06398112 -0.037031826
000090 a4 94 a8 3c da de 12 bc f9 83 30 bd 6f 1a da bc
       0.02057869 -0.008964265 -0.04309461 -0.026623933
0000a0 00 8a 3b bd 91 33 9d bd 2d 90 a0 bd 9e 40 c3 bd
       -0.045785904 -0.07675851 -0.07839999 -0.09533809
0000b0 ff fb d2 bd 72 85 7b bd ba 57 ad bd c2 7a 94 bd
       -0.10301971 -0.06140656 -0.08463998 -0.07249977
0000c0 93 44 e9 bc 94 a6 51 bd 4d 0e fa bc a9 3e 10 3b
       -0.028475082 -0.051184252 -0.030524397 0.0022010005
0000d0 51 5e 92 bc 84 e9 0d bb 9f f9 51 3d e8 a5 0f 3d
       -0.01786724 -0.0021654079 0.051263448 0.03507033
0000e0 be 33 87 3d 5b 1e c2 3d b2 88 d4 3d cd b2 c8 3d
       0.06601666 0.09478446 0.10377635 0.097997285
0000f0 c7 a9 dd 3d d1 9a e2 3d 99 52 e1 3d 98 df a9 3d
       0.10823398 0.11064685 0.110020824 0.082946
000100 69 c0 b3 3d 0b c0 cf 3d 60 4e dc 3b 90 28 20 3d
       0.08776934 0.10144051 0.00672321 0.039101183
000110 3d a0 58 3d b1 c8 a0 3d 1b fc ab 3d 5c 40 f8 3d
       0.05288719 0.07850779 0.08397695 0.121216506
000120 83 b3 87 3b a5 de 23 bd a3 95 c2 bc 47 00 7f bd
       0.0041412725 -0.040007252 -0.023752993 -0.062256124
000130 ba 27 8f bd 7c cf 0a bd b1 b7 18 bd 58 98 40 bd
       -0.06989999 -0.03388928 -0.037284557 -0.047020286
000140 8d f7 3c bd a3 f1 6f bd de 90 b1 bd 48 c9 ca bc
       -0.04613452 -0.058580052 -0.08670209 -0.024754182
000150 d8 ce 22 be df 25 34 be f9 4f fd bd 0b f9 93 bd
       -0.15899217 -0.17592572 -0.12368769 -0.072252356
000160 f4 14 bd bd 21 c4 4b bd 2d 3e 98 3d 45 3a ae 3d
       -0.09232512 -0.04974759 0.07433734 0.08507208
000170 42 40 c3 3d 54 f6 92 3d ae 85 8d 3d 0d 74 b1 3d
       0.095337406 0.071758896 0.06910263 0.08664713
000180 2a 94 a2 3d 2e 5a 9a 3d a6 96 c2 3d fb a5 55 bd
       0.07938416 0.07536732 0.0950139 -0.052160244
000190 9b 01 6e bd da 18 74 bd 31 99 c1 bb 4f 56 26 3a
       -0.058107 -0.059594013 -0.0059081544 0.00063452584
0001a0 2b ee 49 bc c4 a8 5e 3c 9f 0d f7 3c 30 ea fc 3c
       -0.01232485 0.013590042 0.030157862 0.030873388
0001b0 3c 47 42 3c 0a 2e f0 38 28 24 8a 3c 8c 8e 9f bc
       0.011857804 0.00011452667 0.016862944 -0.019477151
0001c0 a9 64 08 bd d4 c9 20 bc 04 93 0c bb fc ff ce bc
       -0.033299122 -0.009813745 -0.0021449933 -0.025268547
0001d0 b8 1c 8f bb 16 5a 94 3e 92 b2 e9 3d 0c b1 18 3e
       -0.004367437 0.2897498 0.11411013 0.14911288
0001e0 06 36 41 3d 45 21 bb bd 1e 55 34 bd e2 51 a8 3e
       0.04717066 -0.09137205 -0.044026487 0.32874972
0001f0 17 0c 45 3e 6b 7c 67 3e d7 74 88 3c a7 3b 02 3c
       0.19242893 0.22606055 0.016657276 0.007948793
000200 52 80 13 3d 70 17 0d bd c5 71 e8 bc b5 f9 2c bc
       0.036011048 -0.03444618 -0.028374562 -0.010557582
000210 5b 1e 50 bd ea 01 9e bd 9e da d0 bc 4e 3a 81 3b
       -0.0508102 -0.07715209 -0.02549487 0.003943718
000220 2f 9c ac bb a5 ff 4f 3b 71 68 92 3b c1 56 96 bb
       -0.005267642 0.003173807 0.004468017 -0.0045879786
000230 a9 41 81 b8 db da 19 bc 20 2c 8d bc b0 88 c8 3b
       -6.1634295e-05 -0.009390558 -0.017232955 0.00611981
000240 e5 ef ef 3c dd 72 3b 3d b2 cb 1a 3d 52 46 bc b9
       0.029289195 0.04576384 0.037791915 -0.00035910547
000250 c1 81 25 3c 2d 72 3d 3c 2c 8f 48 3d c5 2d 1d 3d
       0.0101017365 0.011562866 0.048964664 0.038373727
000260 a8 e7 11 3d d4 b2 e7 3d 9f 19 da 3d 26 4b dc 3d
       0.035621315 0.11313406 0.10649418 0.10756521
000270 7b 02 2c 3e d5 d0 4f 3e 04 08 4f 3e b4 2a 75 3e
       0.16797821 0.20294507 0.20217901 0.23942071
000280 00 33 86 3e c9 b1 81 3e 0e 9b 49 3c db 42 b4 3b
       0.26210785 0.25330952 0.012305034 0.005501134
000290 32 01 61 3d 52 a7 31 3d 09 0e 38 3d 9c b0 8c 3d
       0.05493278 0.04337246 0.04493526 0.06869623
0002a0 8d 56 b0 3d 6b 10 b9 3d d4 0f fe 3d 12 ff 34 3e
       0.08610258 0.090363346 0.12405363 0.17675427
0002b0 d7 73 f0 3d 66 58 f9 3d 63 14 a0 bd a3 a0 0f be
       0.11740845 0.12175064 -0.078163885 -0.14026122
0002c0 9a 30 4b be cd 30 e4 3d 68 ca 27 3b db 00 1d be
       -0.19842759 0.111421205 0.0025602821 -0.15332358
0002d0 ea fd 08 3e 46 9e bd 3d 26 b4 be 3d cc 7e 2e 3e
       0.1337811 0.09258704 0.09311704 0.17040557
0002e0 da 72 ef 3d 02 5e 0d 3e fa e0 fa bb 21 9c 16 bd
       0.11691828 0.13805392 -0.007656214 -0.03676999
0002f0 e4 8a c0 bc ac f1 32 3e 89 9a 35 3e 56 bf 20 3e
       -0.023503728 0.17475003 0.17734732 0.15697989
000300 5f 94 6c 3c 56 e2 97 3d 81 d9 94 bd 7a 77 d8 bd
       0.014439671 0.07416217 -0.07268048 -0.10569663
000310 04 dc e5 bd 62 3c 5e be 61 e6 a1 3d 79 dd 47 3d
       -0.11223605 -0.21702722 0.079052694 0.048795197
000320 47 09 86 3d 84 18 a7 3d 65 b7 71 3d 21 e9 84 3d
       0.06544738 0.08158973 0.05901279 0.06489778
000330 de f0 2e 3e 8c b2 2c 3e 48 43 37 3e 9c 0c a4 3d
       0.17084071 0.16864985 0.1789676 0.080102175
000340 e0 01 68 3d 05 80 94 3d d1 81 a5 3d 0f f8 44 3d
       0.056642413 0.0725098 0.08081401 0.04808813
000350 d3 36 3e 3d d2 f9 33 3e ac 1e 1a 3e 68 5a 23 3e
       0.046439003 0.17575768 0.15050763 0.15952456
000360 0c 2d 20 be b2 f6 0f be f5 ee 88 be 40 2c 19 bf
       -0.15642184 -0.1405895 -0.2674481 -0.59833145
000370 fd 86 10 bf bd 8f 1d bf 47 63 2d bf 6a ad 1f bf
       -0.56455976 -0.6154745 -0.6772961 -0.62373984
000380 42 d9 2a bf f9 19 7f bc 96 a9 e6 bc 84 74 be bc
       -0.6673776 -0.015570157 -0.028157037 -0.023248918
000390 2d e5 a7 ba 91 16 3d 3c 7d 23 8f 3b e2 63 25 3c
       -0.0012809389 0.011541025 0.004368244 0.010094615
0003a0 e6 3a 36 3c b9 21 59 3c 49 1a fb be f4 d3 cf be
       0.011122441 0.013252669 -0.4904349 -0.40591395
0003b0 63 14 f8 be 13 02 11 bf 12 15 0c bf 2e d7 15 bf
       -0.48453054 -0.5664379 -0.5471965 -0.58531463
0003c0 60 ac f8 be ea 96 c7 be d0 94 f6 be 29 66 f4 3e
       -0.48569012 -0.38982326 -0.4816041 0.47734192
0003d0 2b f1 bd 3e 63 6c a2 3e 67 e6 3a 3d 23 84 0e bd
       0.3709806 0.31723318 0.045629885 -0.034793984
0003e0 a0 f0 9d bc 07 7c 71 3e 9e f7 70 3d bb a3 a8 bc
       -0.019279778 0.23582469 0.058829896 -0.020585885
0003f0 54 b4 af bc 77 6a 0b bd b3 13 29 bd a6 37 c4 3c
       -0.021448292 -0.03403708 -0.041278552 0.023952316

trans1.bn1.weight f4 [48]
000000 e6 8e 37 3f 1c f2 a7 3f 89 f2 68 3f d0 e5 a8 3f
       0.7170242 1.3120761 0.9099508 1.3195133
000010 d7 9f 97 3f fb 4e 82 3f 1b 06 85 3f 5c e8 61 3f
       1.1845654 1.0180353 1.0392488 0.8824518
000020 3b dd 3d 3f 36 3c 8d 3f eb 81 39 3f 23 24 8f 3f
       0.74165696 1.1034 0.72463864 1.1182903
000030 45 fa 85 3f 2b 09 8e 3f 7e 38 a6 3f 4d a0 49 3d
       1.0467001 1.1096548 1.298599 0.04922514
000040 b2 48 47 3f 1d 1a 58 3f cb aa 81 3f 9f 55 53 3f
       0.778453 0.84414846 1.0130247 0.8255252
000050 cc 52 85 3f 69 b7 75 3f 42 61 87 3f f0 21 79 3f
       1.0415893 0.95982987 1.0576556 0.9731741
000060 f6 c0 cb 3f 2a 92 b3 3f aa 08 d5 3f 47 81 f5 3f
       1.5918262 1.4028981 1.6643269 1.9180077
000070 d6 97 c9 3f 95 f6 9f 3f 92 41 e8 3f c9 04 83 3f
       1.5749462 1.2497126 1.814501 1.0235835
000080 ab c3 ba 3f 5d 61 c4 3f 6f 38 00 40 bf 15 04 40
       1.4590963 1.5342213 2.0034444 2.0638273
000090 0d 6d a1 3f bc f5 15 40 04 1b f2 3f ff 71 bd 3f
       1.2611405 2.3431234 1.8914495 1.4800414
0000a0 35 44 12 40 68 a8 06 40 48 e5 9b 3f ea 93 0b 40
       2.285413 2.1040287 1.2179346 2.180903
0000b0 c6 0f c5 3f 6f d5 0f 40 42 ad 96 3f c8 c3 b4 3f
       1.5395439 2.247402 1.1771624 1.4122248

trans1.bn1.bias f4 [48]
000000 e6 d3 0c 3e 1c 37 94 be 89 eb b9 be 18 dc d3 bd
       0.13752708 -0.28948295 -0.36312512 -0.10344714
000010 e6 92 a7 be e8 05 57 3e 3e de 4a 3e 4c 67 a9 be
       -0.32729262 0.20998347 0.19811341 -0.33086622
000020 11 5f 85 bd 51 52 ed 3d 36 1f 1e be db 89 32 3e
       -0.06512273 0.11587966 -0.15441594 0.174354
000030 22 53 d5 bd ec 2d 4e be c1 a8 b3 be 77 84 d2 bc
       -0.10416247 -0.20134705 -0.35089687 -0.02569793
000040 51 09 d8 3c 20 cf 82 3e 00 22 11 3e 71 17 30 bf
       0.02637163 0.2554865 0.14173126 -0.6878577
000050 4a bf ac be 08 58 2c be ea 46 8a be 63 96 d8 be
       -0.33739692 -0.16830456 -0.27007228 -0.42302236
000060 fc 2d 6d be d7 ce bd 3e 30 2e 5e be 92 74 01 be
       -0.23162073 0.3707187 -0.21697307 -0.12642124
000070 37 cd 32 bf d3 53 21 be b6 7b 4d bf ed be cc be
       -0.69844383 -0.15754633 -0.8026689 -0.39989415
000080 86 3f cf be 76 49 8c bd 2d 54 54 be a2 26 65 bf
       -0.40478152 -0.06849949 -0.20735236 -0.89512074
000090 27 5e 5f 3e b0 af 64 bd f7 db c8 be d1 1f a1 be
       0.2181326 -0.05583161 -0.3923032 -0.31469586
0000a0 63 d4 7f 3d 22 90 97 be c2 ed 7d bf 09 4b 7b bd
       0.062458407 -0.29602152 -0.99190915 -0.061350856
0000b0 ab 24 50 bf 2c 89 95 bd a9 2e a6 bf 35 e6 9a 3e
       -0.8130595 -0.07301554 -1.298299 0.3025376

trans1.conv1.weight f4 [48, 48, 1, 1]
000000 e9 06 a9 3d d9 f9 20 3f ca 02 ae bd 92 47 d6 be
       0.08253271 0.6288124 -0.08496626 -0.4185148
000010 31 41 1d bd 75 08 3c be 0b c2 cf 3e d3 4e 78 bd
       -0.03839225 -0.18362601 0.4057773 -0.060622048
000020 3c 0e 89 bd 8b 82 60 be 36 96 1b 3d e4 d3 aa 3e
       -0.06692168 -0.21924798 0.03798505 0.33364785
000030 0c 69 a8 3d f6 37 b6 be c2 f5 2c be e7 9d 9f 3b
       0.08223161 -0.3558957 -0.16890624 0.0048711183
000040 30 62 1f 3d f9 cd b9 be 43 14 8b be 02 74 14 3d
       0.038912 -0.36289957 -0.27163896 0.036243446
000050 c6 cc ab bd f5 06 f3 3e 09 15 54 3d cd 1e 5f be
       -0.08388667 0.47466245 0.051777873 -0.21789093
000060 e5 42 e8 3c bd 74 bd 3d 37 35 5f be de f4 74 3e
       0.02835221 0.09250782 -0.21797644 0.23921534
000070 12 04 b8 3e f0 5f e4 3d 40 44 66 3e fe 06 8e bd
       0.35940605 0.11151111 0.22486973 -0.069349274
000080 d1 7f b1 3e c9 d5 5b 3f c0 78 0e 3e 64 7a c8 3d
       0.3466783 0.85873085 0.1391325 0.09788969
000090 d2 46 48 3e 62 bb be bd 31 0d 51 3c 41 b3 9e be
       0.19558266 -0.09313084 0.012759493 -0.30996135
0000a0 f4 42 45 3e a0 17 7f 3e 8b 41 b7 be ae fb 71 be
       0.19263822 0.24911356 -0.35792193 -0.23631164
0000b0 05 1b 29 3e 0b 41 15 be 13 7a 85 3e a2 49 3e 3e
       0.16514213 -0.14575593 0.26069698 0.18582776
0000c0 19 a5 83 3e 28 92 8e be a1 2a 19 3d 17 73 18 3c
       0.25711897 -0.27845883 0.03739417 0.009304783
0000d0 7e a9 86 bc 36 96 ac 3c b1 94 29 3e a3 c6 f0 bc
       -0.016438242 0.02106772 0.16560628 -0.029391592
0000e0 8a 07 11 bd da cc 58 bf 59 08 21 bd f1 1d 5b 3e
       -0.03540758 -0.8468758 -0.0393146 0.2139814
0000f0 0f 8b d6 be 54 62 d1 bd 0c 80 44 be 73 b4 b5 b9
       -0.41902968 -0.10223833 -0.19189471 -0.00034657455
000100 d5 eb 5e bd ad 5d b1 bd 7a ff 2c bf da f2 b2 3c
       -0.054424126 -0.08660445 -0.67577326 0.021844316
000110 11 d2 c4 3d 9d 15 ef 3d 04 48 be bd a4 61 5b 3d
       0.096103795 0.11674044 -0.0929108 0.053559914
000120 12 e5 d2 be 50 25 cd 3e 86 28 78 be a6 5b e0 be
       -0.41190392 0.4006753 -0.24234208 -0.43819922
000130 5b 1f 05 bf 91 76 2c 3e 24 cc 96 be 35 03 5d bd
       -0.5200097 0.16842104 -0.29452622 -0.053958137
000140 c8 53 7d be f5 d5 40 be f9 a6 17 bf 1d 1f 88 be
       -0.24738991 -0.18831618 -0.59239155 -0.26586238
000150 34 01 63 3e 40 2b a4 3e 5b 86 6b 3d 25 f1 b8 be
       0.22168428 0.32064247 0.05750118 -0.3612148
000160 19 5a 1d be 05 23 19 be 0e 17 6a bd 68 65 2b 3f
       -0.15366401 -0.14954765 -0.057150893 0.6695161
000170 f8 39 2e 3c 33 8c cf bc 55 b2 15 bf 7c a6 89 3e
       0.010633938 -0.025335407 -0.5847524 0.2688483
000180 03 33 e4 3e 0d 1d 08 be c3 e5 a7 be 15 90 9e bd
       0.4457017 -0.13292332 -0.32792482 -0.07742325
000190 9d e4 84 3e 0f 93 6e 3f 03 ba 63 3f 26 73 7f 3d
       0.25955668 0.93193144 0.88955706 0.062365673
0001a0 21 f0 86 3d ab 52 03 bf 5d 56 b7 bd 71 0b a4 3f
       0.0658877 -0.51298016 -0.08952019 1.2815992
0001b0 03 d7 a6 3e d3 6f f5 bd 2c 29 3d 3d 2b 83 6c 3c
       0.32585916 -0.119842194 0.046181843 0.01443557
0001c0 29 c2 54 be 40 d9 59 bf 09 1e 94 be bb db 86 3e
       -0.20777191 -0.8509712 -0.28929165 0.26339516
0001d0 fe d0 1f 3e a3 68 1c 3e 68 d8 66 be 10 1f 80 be
       0.15607068 0.1527429 -0.2254349 -0.250237
0001e0 c4 1b 7f bd 77 99 c0 3e 34 29 53 be 56 a7 fd bc
       -0.06228234 0.37617084 -0.20621186 -0.030963581
0001f0 b7 76 59 3e a6 ab 86 be 3a 90 aa 3d db 03 ad be
       0.21236692 -0.26302832 0.0832829 -0.33792004
000200 95 f7 6a be ec 0a 96 be 02 4d 07 be 2e c2 df bd
       -0.22946008 -0.29305208 -0.1321297 -0.10925709
000210 91 61 5b be 0a 2b 05 bd 48 49 89 bd 95 56 7e be
       -0.21423937 -0.03251175 -0.067034304 -0.24837716
000220 88 26 5f 3d 4d 2d b3 bd cf 0e 81 be e3 03 05 3c
       0.054480106 -0.08748875 -0.2520661 0.008118602
000230 8f df 8a bd fb c5 dd bd 41 52 61 3d 86 da b2 bd
       -0.06780922 -0.108287774 0.055010084 -0.08733086
000240 22 e7 8c 3e 7d 8e 92 3e 0d 88 7a 3e f2 13 e4 be
       0.2752009 0.28624335 0.24465962 -0.44546467
000250 11 5a dd bd 9f 67 1e 3e fc ed fe 3e 2f d5 27 3e
       -0.108081944 0.15469216 0.49790943 0.16389917
000260 88 dc fe 3c 5b cd 9e bd 3f 98 4e 3e 19 e8 f9 3e
       0.031111017 -0.07754012 0.20175265 0.4880989
000270 49 00 7b 3d 57 79 83 3e d9 7e 63 3d bc c7 c6 bb
       0.06127957 0.25678512 0.055540893 -0.0060662907
000280 40 33 b3 bc a7 f7 0a bf f8 1b 15 3f 71 60 93 be
       -0.021875024 -0.5428414 0.582458 -0.28784516
000290 1c 30 ef be f8 4e 26 bf 15 95 0a 3e 7c 88 ae 3c
       -0.46716392 -0.64964247 0.13533433 0.021305315
0002a0 0b 2b 9e be f6 63 e2 3e b6 7e b9 bc 79 13 c9 3e
       -0.30892214 0.4421689 -0.022643428 0.3927267
0002b0 24 50 5d 3f 6f 53 1b 3e cb cd 95 3e 63 6d 98 bd
       0.8645041 0.15168546 0.2925857 -0.07442739
0002c0 55 6d f2 3e 43 a0 1c be 5f ed 00 3f 84 5e a4 bd
       0.4734904 -0.1529551 0.503622 -0.0802584
0002d0 96 12 90 3e 71 1f 75 be 28 3d b7 be 8a 03 0b bf
       0.2813918 -0.23937775 -0.35788846 -0.54302275
0002e0 c4 5c 84 3f 17 c0 9e be b3 a3 ba be f4 ef 83 be
       1.034081 -0.31005928 -0.36453018 -0.25769007
0002f0 94 d7 9b 3d 39 82 99 3c 92 7f 63 bd a4 35 29 bf
       0.07609478 0.018738853 -0.055541582 -0.66097474
000300 77 a6 72 be 7f f9 3a bf 93 c7 06 be 74 50 81 3b
       -0.23696314 -0.7303695 -0.13162069 0.0039463583
000310 52 bc b4 bd f1 be a9 3e a8 14 26 bc 50 f2 37 be
       -0.08824982 0.3315349 -0.010136761 -0.17963529
000320 a9 78 9e 3d 7b f9 05 3e 2c 8b 7c bd 77 37 9f 3d
       0.07737858 0.1308345 -0.061656162 0.07774251
000330 1b d2 8b bb 63 72 18 bf 90 5e 92 be 10 99 c2 b9
       -0.00426699 -0.5954954 -0.2858777 -0.00037116604
000340 61 8d 8a bc c6 50 06 bf fe 0c f6 3e d3 02 67 be
       -0.016913118 -0.52467 0.48056787 -0.22559671
000350 b0 7a dc be a8 d8 eb bd c6 7e b8 3d 8c a9 4a be
       -0.43062353 -0.11515933 0.09008555 -0.1979124
000360 e0 ad 4b 3f e6 36 0e bd 78 51 a5 3e 55 6a c2 3e
       0.7956219 -0.034720324 0.32288718 0.3797175
000370 91 f8 3a 3e 9f 79 ed 3d 2c 48 31 bf 7e c8 8d 3d
       0.18258883 0.11595463 -0.6925075 0.069230065
000380 73 b9 b5 be e8 b6 a1 be 63 d5 d9 3c 3c 1d 55 bc
       -0.3549305 -0.3158486 0.026591009 -0.013007458
000390 2a b8 f8 be e1 27 be 3e 3b 6c 11 bf 67 be 0d 3f
       -0.48578006 0.371398 -0.5680577 0.55368656
0003a0 99 46 95 bf c3 62 eb 3e 31 3c 64 39 9b 69 90 be
       -1.166217 0.45973787 0.00021766197 -0.2820557
0003b0 69 bb 72 3e c8 08 7f bf 66 2d cd 3c 33 ce 85 3d
       0.23704304 -0.99622774 0.025046062 0.0653347
0003c0 6d 5e f1 be a0 53 76 3d cc e6 d3 be b5 58 2b be
       -0.47142354 0.060138345 -0.41387022 -0.16733058
0003d0 4b 32 e5 3d 97 25 ac 3e 24 07 db bb b9 b7 33 bd
       0.11191233 0.3362243 -0.006684201 -0.043876383
0003e0 fd 0f 8a 3d 63 bb 01 bd 39 d1 70 be 96 10 58 3e
       0.06741331 -0.031672847 -0.23517312 0.21100077
0003f0 e0 14 4d 3f 09 62 8a be 61 7b 82 bd 1c 05 d6 39
       0.8010998 -0.2702792 -0.06371189 0.00040821068

dense2.0.bn1.weight f4 [48]
000000 80 9e 3d 3f 17 8c 48 3f da 9b 83 3f d1 9a 65 3f
       0.74069977 0.7833876 1.0281937 0.89689356
000010 6f 3d 73 3f f0 58 02 3f 96 9f 88 3f 72 ac 81 3f
       0.95015615 0.5091696 1.0673702 1.0130751
000020 7c 73 3b 3f 16 1e 41 3f 8f cd 92 3f d6 15 27 3f
       0.7322309 0.7543653 1.1468982 0.65267694
000030 7e 17 fb 3e 19 4a 41 3f 2d b3 44 3f 6b 98 67 3f
       0.4904136 0.7550369 0.768359 0.90466946
000040 ce d6 5c 3f eb e4 3f 3f 04 a2 2b 3f 64 a4 67 3f
       0.86265266 0.74958676 0.6704409 0.90485215
000050 5b b0 41 3f c1 d1 69 3f 41 41 14 3f a7 00 a0 3f
       0.7565972 0.91335684 0.5791207 1.2500199
000060 0f be 61 3f f2 4c 8a 3f 97 a6 7f 3f 84 f7 27 3f
       0.8818063 1.0804732 0.9986357 0.65612054
000070 3c 5c 1b 3f 97 75 93 3f 18 af 90 3f 74 79 81 3f
       0.60687613 1.152026 1.1303434 1.011519
000080 f9 ac be 3f 02 db 69 3f 7e 80 5e 3f 87 04 ba 3e
       1.4896537 0.91349804 0.86914814 0.3633158
000090 2d 82 08 3f cd 05 76 3f ec cf 6d 3f d1 ec 5d 3f
       0.5332363 0.961026 0.9289539 0.8668948
0000a0 2e 8b 75 3f 7d 67 92 3f ce f4 01 3f f4 02 ad 3f
       0.95915496 1.1437832 0.5076417 1.3516526
0000b0 fc 0e 61 3f d9 72 79 3f 66 6c 34 3f b9 55 83 3f
       0.8791349 0.9744087 0.704779 1.0260535

dense2.0.bn1.bias f4 [48]
000000 4c d0 04 bf 59 dc 3a 3e ad 4a b2 be f8 7b e5 be
       -0.51880336 0.18248118 -0.34822598 -0.44821143
000010 9f 2a de 3e c7 44 8f bc 24 e5 86 3d 9f d1 47 be
       0.43391892 -0.01748885 0.06586674 -0.19513558
000020 35 d5 86 be 32 b6 b0 be fb ee 92 3f c3 ee 86 be
       -0.2633454 -0.34514004 1.1479181 -0.26354036
000030 61 f8 01 be 27 8c d0 3c 8c 42 d0 bd fa ce 6d be
       -0.12692405 0.025457455 -0.10168943 -0.23223487
000040 18 7b fa bd cb c5 a7 bc 08 9c e4 be 9e 59 ce bc
       -0.122305095 -0.020480057 -0.44650292 -0.025189217
000050 8d 14 27 bf a7 70 9e bd 00 b9 2f 3f e1 e4 84 be
       -0.65265733 -0.077363305 0.6864166 -0.2595587
000060 29 67 d3 be 00 e7 40 3e a1 94 26 bf 73 74 c8 be
       -0.41289642 0.1883812 -0.6507054 -0.39151344
000070 f3 94 96 be 2e a7 5d bc 90 48 e1 3e 2b 64 3d be
       -0.29410514 -0.013528628 0.44000673 -0.18495242
000080 3d 20 83 3f 3f 46 44 bf 17 22 0d bf ad 8f 54 be
       1.0244213 -0.7666969 -0.5513014 -0.20757933
000090 37 b6 76 be b0 d4 02 be f5 b1 98 be 0b 2f 46 3f
       -0.24092947 -0.12776446 -0.2982327 0.7741553
0000a0 cd 26 61 bd 40 37 df be f8 e5 b1 be 47 ac e0 bc
       -0.054968644 -0.4359684 -0.34745765 -0.027425898
0000b0 36 bd 63 bc d8 e0 08 3e 1c 56 14 3e 36 d0 b6 be
       -0.013900092 0.13367021 0.14485973 -0.35705727

dense2.0.conv1.weight f4 [12, 48, 3, 3]
000000 d0 ed 8b 3d 56 a3 09 be 6a fa a7 be 12 dc e9 bc
       0.068324685 -0.13441214 -0.32808238 -0.02854732
000010 15 9d ac 3d 21 fb 40 bd bf fe 0f be 5a 93 b7 3d
       0.084283985 -0.047114495 -0.14062022 0.08963652
000020 38 20 79 be ac a9 df bd ad 27 10 be 50 25 de bd
       -0.24328697 -0.10921034 -0.14077635 -0.108469605
000030 bd 7d 01 bd 3b de 3b bd f1 98 1d ba 82 30 44 3e
       -0.031614054 -0.045866232 -0.0006011865 0.1915913
000040 99 ed b1 3d 10 f8 06 3e 7b 9a a8 3d f3 db 7b bd
       0.08687896 0.13180566 0.0823259 -0.061489057
000050 d7 16 4d 3e 9a fc a9 be 6d 0d ce be e2 88 ad 3c
       0.20028244 -0.33200532 -0.40244618 0.021183435
000060 fb 95 46 3d cf 81 4d be 63 bd cc 3c 46 aa f0 3e
       0.048482876 -0.2006905 0.02499265 0.47004908
000070 d2 a8 6f 3e 23 d4 2d be 31 ac 8f 3e 97 86 af 3c
       0.23404244 -0.16975455 0.2806106 0.021426482
000080 31 2b d3 be ee c1 8e 3e cc a2 50 3d 0a c6 aa be
       -0.4124389 0.27882332 0.050936505 -0.33354217
000090 cf 48 07 bf b8 b9 b2 be 49 72 86 3e dd 02 d4 be
       -0.5284547 -0.34907317 0.26259068 -0.41408435
0000a0 d6 8f 09 be 28 17 ea 3e 35 c7 de be b9 f1 b2 be
       -0.13433775 0.45720792 -0.43511358 -0.34950045
0000b0 20 46 b6 3e 2d cf f1 3d 42 c7 12 be d5 89 d2 bd
       0.35600376 0.11807094 -0.14333823 -0.102801956
0000c0 2c d1 81 3d 57 1b b3 bd 03 49 45 bb 0f 6c 9e 3d
       0.063387245 -0.08745449 -0.0030103333 0.07735454
0000d0 3a 72 db bb 55 14 f6 3a 1d 03 74 be 9f f4 32 3e
       -0.0066969665 0.001877437 -0.23829313 0.17476128
0000e0 1e f7 2f 3e b9 02 d5 be f6 cc 02 3d 9d 23 4d 3e
       0.17184111 -0.4160364 0.031933747 0.20033117
0000f0 8b b5 5b be 9b b1 61 bd f2 6e df 3d 99 19 81 be
       -0.21455972 -0.05510102 0.10909833 -0.25214842
000100 bb e1 aa bd ed 77 35 be d4 87 de 3d d1 41 35 bd
       -0.08343836 -0.1772153 0.10865751 -0.04425222
000110 9b 5a 8d bd 56 37 13 be 20 23 9d bd 39 2d f1 bd
       -0.06902047 -0.14376578 -0.07672715 -0.11776204
000120 45 4d 38 be da a1 24 bc 06 3b 74 be 4f 3e 3d 3e
       -0.17998226 -0.010048354 -0.2385064 0.184808
000130 3f 0e 06 bd 74 3e 25 be 5a 32 ac 3e 95 4a 89 bc
       -0.03272843 -0.16137105 0.33632165 -0.016759196
000140 dd 53 a0 be 60 22 66 3e e3 b3 0a 3e b9 45 a1 be
       -0.31313983 0.2247405 0.13545184 -0.31498507
000150 65 32 9b 3e dc 71 a9 3e ab bb 0e bf d6 05 79 3e
       0.30311885 0.3309468 -0.5575511 0.24318632
000160 2e 34 84 3d c2 4c 12 bf 64 f9 86 be 2c 7d 33 bd
       0.06455265 -0.57148373 -0.26362145 -0.043820545
000170 97 32 b4 3e b2 75 e7 be af 6c ef bd d6 5a 02 3f
       0.35194847 -0.45206982 -0.116906516 0.50919855
000180 55 0a ad be 9f 58 41 bd 2f c2 3d 3f b8 f7 12 3e
       -0.33796945 -0.047203656 0.74124426 0.1435231
000190 fe 9b d9 bd df d2 75 be 0a f9 8c 3e a8 78 bb bc
       -0.10625456 -0.24006222 0.27533752 -0.022884682
0001a0 58 0b 68 be 4f 23 4e 3e 9f 14 ce bd 9b b6 83 be
       -0.22660577 0.20130657 -0.10062527 -0.25725254
0001b0 58 ba 82 3e f5 e4 aa 3c a7 9c 7b be 02 ac 60 3e
       0.25532794 0.020861128 -0.24571477 0.21940616
0001c0 98 e3 80 3c fc e0 49 be 08 65 5b 3e f4 23 82 3d
       0.015733525 -0.19714731 0.21425259 0.06354514
0001d0 e6 a3 08 be a1 38 1b 3e 8f 29 80 bd cb 1f b8 bd
       -0.13343772 0.15158321 -0.06257927 -0.08990439
0001e0 a2 7a 15 3e 18 7e 42 be 50 0b 47 be 13 22 c0 3e
       0.14597562 -0.18993413 -0.19437909 0.37525997
0001f0 3a 4f 5b bd ce 7c 1e bd 3c 23 68 3e c5 3d 99 bc
       -0.053542353 -0.03869324 0.22669691 -0.018706212
000200 e7 35 ca be 56 22 a8 3e e6 26 0c 3e 27 47 cc be
       -0.3949425 0.32838696 0.13686714 -0.39898035
000210 46 e6 48 3e 79 95 34 3d 53 da a4 be e9 12 15 3f
       0.19619092 0.04408786 -0.32197818 0.5823198
000220 f2 30 e7 bd 09 63 c9 be 11 b7 08 3f 8d 20 bd be
       -0.112886325 -0.3933337 0.5340434 -0.36938897
000230 71 e5 06 bf 33 da f8 3e 16 cb 2b be ed e3 a5 be
       -0.5269385 0.48603973 -0.1677669 -0.32400456
000240 08 fd 13 be 7a c8 26 bd 12 da 43 3e 29 3f bb bd
       -0.14451993 -0.040718533 0.19126156 -0.09142906
000250 de b1 40 3d f4 da 9e 3e 54 14 87 be e3 73 bd bd
       0.047044627 0.31026423 -0.26382697 -0.09250619
000260 ee 92 2d 3e 70 b8 33 3e 12 5a 8a bd e0 53 64 be
       0.1695058 0.17550826 -0.06755461 -0.22297621
000270 2d a2 11 3e 20 78 5d bc dd ce 37 be c7 c0 33 3e
       0.14222021 -0.01351741 -0.17950006 0.17554007
000280 0c 24 0a 3e 96 ce e4 bd f8 42 03 3e 3c a1 2f 3c
       0.13490313 -0.11172216 0.12818515 0.010719594
000290 53 66 71 3d bc 94 4d 3e 61 cd 54 bd 2a f1 95 bd
       0.058935475 0.20076269 -0.051953677 -0.07321389
0002a0 d8 11 0a 3e 11 e4 7c bd d0 db 86 bd a2 d7 1f 3f
       0.1348337 -0.06174094 -0.06584895 0.62438405
0002b0 44 4b ff 3c dd ed f0 be 27 04 9a 3e cc 57 37 be
       0.03116382 -0.47056475 0.30081293 -0.17904586
0002c0 3a e7 0a bf e1 c6 8c 3e 6b ca 9e bd 62 09 e1 be
       -0.54259074 0.27495483 -0.07753452 -0.4395247
0002d0 40 93 f5 bb 7c 47 b4 3d 6b cb ea 3d 67 97 3f 3d
       -0.00749436 0.08802697 0.1146458 0.046775248
0002e0 8e cc 9f 3d 7b f2 a4 3d c7 ae 55 bd c1 c5 55 be
       0.078026876 0.08054062 -0.052168634 -0.20876218
0002f0 ee 7b e4 be cb 75 c4 be 6a 1d 54 3a 6f 78 29 3d
       -0.446258 -0.3837112 0.0008091541 0.04137462
000300 e7 cb 91 be 47 b6 80 3c 85 94 95 3e fa 7f 48 be
       -0.28475878 0.015711917 0.29214874 -0.19580069
000310 aa 13 87 3d 67 af c3 3d 05 ef 31 bd ab 70 dd bc
       0.065955475 0.0955494 -0.043440837 -0.027031263
000320 33 80 a3 3d e0 8a 1e be 77 a8 d1 bc 52 af 56 3e
       0.079834364 -0.15482664 -0.025593026 0.20965317
000330 67 1c 0a be df 9f 56 bc 90 7e a0 3e 0c b6 0f bd
       -0.13487397 -0.01309964 0.3134656 -0.035085723
000340 f7 d2 56 be 87 61 ee 3c 82 da ad 3d 3e a5 04 be
       -0.20978914 0.029099239 0.08488943 -0.1295366
000350 b7 94 8e bd 67 5f 06 3e 48 35 1f bc 26 68 50 bd
       -0.06961959 0.1312233 -0.009717293 -0.050880574
000360 70 ef 83 bc f9 8e 00 be 7b 8e 3b be 85 90 96 3d
       -0.016105384 -0.1255454 -0.1831607 0.07351784
000370 01 48 58 3d 76 d1 a9 be d7 b7 91 3e 92 d4 0c 3e
       0.052803043 -0.3316762 0.2846057 0.13752964
000380 cf 08 ac be a7 66 d9 be 93 e4 68 be 1e d8 67 3e
       -0.3360047 -0.4246113 -0.22743444 0.22641036
000390 e6 9b e0 be 96 91 4c be ba 02 8f 3e a0 3c e1 be
       -0.4386894 -0.19977412 0.27931768 -0.43991566
0003a0 95 67 4b be 1c 4a af 3d cb d3 7b 3c 8f a5 bf 3c
       -0.19863732 0.08559057 0.01537032 0.023394374
0003b0 95 48 a2 3e e6 9e 8f be f0 49 0b be fc 30 63 3e
       0.31696 -0.28050917 -0.13602424 0.22186655
0003c0 0d 3e 78 be 2f 37 0c be 23 2b 48 3e 32 15 2f be
       -0.2424242 -0.13692926 0.19547705 -0.17097929
0003d0 e3 29 46 be 3e 9e f5 3d 65 54 43 be c3 c4 68 be
       -0.19351916 0.11993073 -0.19075163 -0.22731309
0003e0 80 c2 03 3e 2d 6f ef 3d cb 37 00 be d5 02 d1 3b
       0.12867165 0.11691127 -0.12521283 0.0063785114
0003f0 bb 8e 2c be 07 a8 2a bc 07 c6 d5 3d 7b 38 a6 bd
       -0.16851322 -0.010416037 0.10438161 -0.081162415

dense2.1.bn1.weight f4 [60]
000000 81 f0 43 3f ec 41 6a 3f 71 c3 88 3f 06 c0 7a 3f
       0.76538855 0.9150684 1.0684644 0.97949255
000010 18 d8 2e 3f c0 a3 10 3f 4d 02 5c 3f 8d d5 44 3f
       0.6829848 0.5649986 0.8594101 0.7688835
000020 92 22 03 3f 5f 55 e5 3e d8 e9 6f 3f 66 88 39 3f
       0.51224625 0.44791695 0.9371619 0.7247375
000030 f0 98 82 3f 09 55 5b 3f 54 7e 16 3f 1b bd 3d 3f
       1.0202923 0.8567663 0.5878651 0.7411668
000040 9c 51 06 3f a7 f0 39 3f 81 ed 19 3f 90 1f 26 3f
       0.52468276 0.7263283 0.6012803 0.6489191
000050 75 f1 04 3f a9 1f 48 3f 30 96 e0 3e 15 fa 77 3f
       0.51930934 0.7817331 0.43864584 0.9686597
000060 0b 66 24 3f c9 1b 27 3f 62 bc 7b 3f 9a 61 a3 3f
       0.64218205 0.6527677 0.98334324 1.2764161
000070 ba 98 3d 3f 89 fc 33 3f 45 10 54 3f 66 88 38 3f
       0.7406117 0.70307213 0.82837325 0.7208313
000080 8f 8d 2b 3f d0 8d 76 3f 0f 7b 82 3f ca d4 4a 3f
       0.67012876 0.9631014 1.0193805 0.7923094
000090 5e 4f 4d 3f 26 e5 50 3f 2c ad 6a 3f 3a 58 50 3f
       0.8019923 0.8159965 0.9167049 0.81384623
0000a0 c4 71 8e 3f 42 eb 61 3f a9 05 41 3f 8c be 69 3f
       1.1128469 0.882496 0.7539926 0.91306376
0000b0 23 ec 94 3f e0 9d 4b 3f 7f 53 ec 3e 33 3f 66 3f
       1.1634563 0.79537773 0.46157452 0.89940184
0000c0 74 2a 9b 3f 9d d1 3e 3f e2 b1 20 3f 0a 9a 67 3f
       1.2122331 0.74538594 0.6277143 0.9046942
0000d0 4c fc 81 3f 55 a4 61 3f cd c1 71 3f a0 5a 00 3f
       1.015512 0.88141376 0.9443634 0.5013828
0000e0 c1 60 94 3f 2f 63 11 3f 02 ef 8c 3f 61 ab 32 3f
       1.1592027 0.5679197 1.1010439 0.69792753

dense2.1.bn1.bias f4 [60]
000000 4a 60 25 bf 02 0d 60 3d 7b 9a ab be 9c 0a 19 bf
       -0.6460005 0.054699905 -0.33516297 -0.59781814
000010 1c 86 fc 3e e9 5d f9 bd 47 eb 55 be 49 3f f1 be
       0.49321067 -0.12176115 -0.20890532 -0.47118595
000020 68 f1 b2 bd 26 ab 4a be fb 30 c2 3e 20 49 1a bf
       -0.08737451 -0.1979185 0.37927994 -0.6026783
000030 6e 61 3d bf 9e 75 f2 bd 81 14 db 3c 08 c3 ab be
       -0.7397679 -0.1183884 0.026743175 -0.33547235
000040 a9 06 46 be 1b 1d f9 bc 9e 87 d2 be 89 64 a1 bc
       -0.19338478 -0.030409386 -0.41119093 -0.01970126
000050 c5 3e 35 bf dc 84 98 bd 76 8a 4f 3f 46 26 be be
       -0.70798904 -0.07447216 0.8107065 -0.37138575
000060 82 94 b0 be 5b e2 3f 3e d8 7b c6 be f1 11 de be
       -0.34488302 0.18738692 -0.3876636 -0.43373063
000070 2d a6 9d bd 0d 7d c5 3e a5 b3 88 3e 86 b8 ee be
       -0.07697711 0.3857197 0.26699558 -0.46625155
000080 c9 c8 21 3f 0d dc e6 be aa cc e2 be 07 63 95 be
       0.63197 -0.4508976 -0.4429677 -0.29177114
000090 6c 64 d0 be ab 23 89 be e2 c0 65 be 50 c1 92 be
       -0.40701616 -0.26785025 -0.2243686 -0.2866311
0000a0 79 93 22 bf f7 88 e7 be f4 0f 6f be 7d 48 ad 3e
       -0.63506275 -0.45221683 -0.2334593 0.33844367
0000b0 f9 95 35 bf c8 14 0d bc fb 33 8c 3b 07 c5 de be
       -0.70931965 -0.008610912 0.0042786575 -0.43509695
0000c0 a3 b0 4b bd e6 f4 7d be 66 f9 03 3e 6d 26 da be
       -0.049729 -0.24800453 0.12888107 -0.42607442
0000d0 4e 90 7c be c2 d7 e6 3d 52 75 48 be 90 e6 2d 3f
       -0.24664423 0.11271621 -0.19576004 0.67929935
0000e0 4a 0c 8b 3d 30 b3 1c be 6e 6a 57 bd 3f 45 82 be
       0.06789453 -0.1530273 -0.052591734 -0.25443456
