independent_train_1000.0/client39/checkpoint_1000.0.pth (torch, 930411 bytes, 56 tensors)

conv1.weight f4 [24, 3, 3, 3]
0	0x3e4ad85d	0.19809099
1	0xbec7eb2d	-0.39046612
2	0x3e9eae1b	0.30992207
3	0xbf8886ef	-1.0666178
4	0xbfd948b0	-1.6975307
5	0xbf568795	-0.8380063
6	0xbf580054	-0.843755
7	0xbfc3abd5	-1.5286814
8	0xbf26ef0d	-0.6520851
9	0x3e789eeb	0.24279372
10	0x3ec10222	0.3769694
11	0x3e7be8d5	0.24600537
12	0x3edba2ac	0.42897546
13	0x3f2d4dc0	0.6769676
14	0x3f037610	0.51352024
15	0x3e5c64e7	0.21522866
16	0x3ec4e24c	0.384539
17	0x3ea36304	0.3191148
18	0xbf180945	-0.59389144
19	0xbded32c6	-0.1158195
20	0xbf4d0718	-0.8008895
21	0x3f02e2ed	0.5112751
22	0x3f9ac1ac	1.2090354
23	0x3ebd2a1b	0.36946186
24	0x3e9a163d	0.3009509
25	0x3f6d708f	0.92749876
26	0x3e43eb58	0.19132745
27	0x3e18f02f	0.14935373
28	0x3eeebaea	0.4662698
29	0x3e3ce45e	0.1844649
30	0xbf674211	-0.90335184
31	0x3e9d9e9f	0.3078508
32	0x3ea66b20	0.32503605
33	0xbf56549b	-0.8372285
34	0x3cb9a881	0.022663357
35	0x3e9c53ae	0.30532593
36	0xbe42734a	-0.18989292
37	0x3ee310f9	0.44348887
38	0xbe1e9bb9	-0.15489091
39	0xbf4c9b50	-0.7992449
40	0x3f4d4899	0.801889
41	0x3ef2664c	0.4734367
42	0xbf4cb37e	-0.79961383
43	0x3efb2063	0.49048147
44	0x3eec0348	0.46096253
45	0xbe8f06d7	-0.27934906
46	0x3de9d4bd	0.1141753
47	0xbefd4c5e	-0.49472326
48	0xbefec68b	-0.4976085
49	0x3f3d61ef	0.7397756
50	0x3e665640	0.2249384
51	0xbee5149b	-0.44742283
52	0x3f2501ae	0.6445569
53	0x3eb06b3f	0.34456822
54	0x3d328544	0.043584123
55	0xbe754c8b	-0.2395498
56	0x3c18afab	0.009319226
57	0xbee646b2	-0.4497581
58	0xbf3de070	-0.7417059
59	0xbeecb620	-0.462327
60	0xbe8eeff2	-0.2791744
61	0xbf12fd21	-0.57417494
62	0xbea553c3	-0.32290468
63	0x3e8e069a	0.27739412
64	0x3ebb003f	0.36523625
65	0x3e96e7f9	0.29473856
66	0x3e680936	0.22659764
67	0x3eb714a5	0.35757938
68	0x3e91557f	0.2838554
69	0x3e51b53a	0.20479289
70	0x3e9a98cd	0.30194703
71	0x3e7b181b	0.24520914
72	0x3c1369ad	0.008997363
73	0x3e8cbaf1	0.27486375
74	0xbc0672c0	-0.0082060695
75	0x3e93efd7	0.2889392
76	0x3f266575	0.6499856
77	0x3e94f97f	0.290966
78	0x3e0ccd7f	0.13750266
79	0x3ee69b5a	0.450404
80	0x3de539ad	0.111926414
81	0xbe58cea7	-0.21172582
82	0xbf94b34a	-1.1617215
83	0xbf11969e	-0.5687045
84	0x3d9f09fe	0.07765578
85	0xbbe14a6c	-0.006875327
86	0x3e84a840	0.25909615
87	0xbcb172ee	-0.021661248
88	0x3f1ec1ad	0.62014276
89	0x3ef67a44	0.48140156
90	0xbe601d1e	-0.21886107
91	0xbf9624b8	-1.1729956
92	0xbf44fe04	-0.769501
93	0x3ea0f23e	0.31434816
94	0x3e72ae58	0.2369932
95	0x3e9642c1	0.29347804
96	0x3e4f4ef8	0.20244968
97	0x3f64496c	0.8917453
98	0x3f07b5b3	0.53011626
99	0xbe7cff79	-0.2470683
100	0xbf9410aa	-1.1567585
101	0xbf504219	-0.81350857
102	0x3e804ebc	0.2506007
103	0x3d87a5ff	0.06623458
104	0x3df65b6c	0.12029156
105	0x3eb91ac6	0.3615324
106	0x3f5b4c8c	0.85663676
107	0x3f127bbc	0.57220054
108	0xbf557cf3	-0.8339378
109	0xbf346405	-0.7046512
110	0xbf74dcbc	-0.95649314
111	0x3d05b6ce	0.03264504
112	0x3f1ca48e	0.6118859
113	0xbe1900b0	-0.14941669
114	0x3f18efb1	0.5974074
115	0x3f8eeb50	1.1165562
116	0x3ec7b2b8	0.3900354
117	0x3dd0b66f	0.101910464
118	0x3ecbce15	0.39805666
119	0x3cc327c8	0.02382268
120	0x3ebc4779	0.3677328
121	0x3f80eb8c	1.0071883
122	0x3e6c04d8	0.23048723
123	0x3e2a06a9	0.16604103
124	0x3f257c81	0.646431
125	0x3d203b70	0.039119184
126	0x3f0a91f8	0.5412898
127	0x3e1ecd29	0.1550795
128	0x3f537e6e	0.8261479
129	0xbf44009d	-0.76563436
130	0xbf826462	-1.0186884
131	0xbeb75137	-0.3580415
132	0xbf7c879d	-0.9864443
133	0xbfb4820e	-1.410219
134	0xbf156742	-0.58360684
135	0xbcffe957	-0.031239195
136	0xbef6d7e9	-0.482116
137	0xbd35aefa	-0.044356324
138	0xbda28858	-0.07936162
139	0x3e2db621	0.16964008
140	0x3e54a569	0.20766224
141	0xbe864638	-0.26225448
142	0xbeb12822	-0.3460093
143	0xbe8b89b6	-0.27253503
144	0xbe2ea445	-0.17054851
145	0xbeaf3293	-0.34218273
146	0xbe70fc2b	-0.23533694
147	0x3e81f993	0.25385723
148	0x3f66ebbc	0.9020345
149	0x3f0fa148	0.5610547
150	0xbd90b44e	-0.070656404
151	0x3e84379a	0.2582367
152	0xbd3803be	-0.044925444
153	0xbf099eb9	-0.53757817
154	0xbf35088c	-0.70716166
155	0xbf38e9de	-0.72231853
156	0x3e06d447	0.13166915
157	0x3f3633bc	0.7117269
158	0x3e9112fc	0.28334796
159	0x3dabe88b	0.083939634
160	0x3ede332e	0.43398422
161	0x3da4a6ea	0.08039649
162	0x3f1fa1b2	0.623561
163	0x3da74cb1	0.081689246
164	0xbea42515	-0.3205954
165	0x3f9b4c83	1.2132725
166	0xbe68339a	-0.22675934
167	0xbfc14f5a	-1.5102341
168	0x3e230317	0.15919147
169	0xbd4ab0e1	-0.04948509
170	0xbe0422c3	-0.12903886
171	0x3f805237	1.002509
172	0x3cddaa14	0.027058639
173	0xbf62441e	-0.8838519
174	0x3fe247c3	1.767815
175	0xbdd61cb4	-0.104546934
176	0xbffb37fa	-1.9626458
177	0x3f1f0c34	0.62127995
178	0x3da8f4ca	0.08249815
179	0xbeddd9c3	-0.43330202
180	0x3edccb40	0.43123817
181	0xbb9c12bc	-0.0047629755
182	0xbef681ee	-0.48146003
183	0x3f91228e	1.133867
184	0xbdbf2a03	-0.09334185
185	0xbfbaf276	-1.4605243
186	0x3e985c48	0.29757905
187	0x3dd5066d	0.10401616
188	0xbe461cfa	-0.19346991
189	0xbf0ecc84	-0.55780816
190	0xbd83bb1c	-0.06432173
191	0xbed30778	-0.41216636
192	0xbe4c7f22	-0.19970372
193	0x3e5f7060	0.21820211
194	0x3e2208b4	0.15823632
195	0xbe144efa	-0.14483252
196	0xbe7a1039	-0.24420251
197	0x3ee5f3d5	0.44912592
198	0x3e9154a0	0.28384876
199	0x3f634d4a	0.8878981
200	0x3daadc40	0.083427906
201	0x3e9e04a2	0.3086291
202	0x3f564a40	0.83707047
203	0x3ec0c3cd	0.37649384
204	0xbf184444	-0.59479165
205	0xbf1a309a	-0.6023041
206	0xbe06043f	-0.13087557
207	0x3e893ed4	0.26805747
208	0x3f33b1c1	0.70193106
209	0xbdb7d288	-0.089757025
210	0x3ed8f95a	0.4237774
211	0x3f4418b5	0.766002
212	0x3e1d627a	0.15369597
213	0xbf32eb14	-0.6988995
214	0xbf52eacf	-0.8238954
215	0xbf228fa1	-0.6350041
216	0x3f6e97ea	0.9320055
217	0x3fef5db4	1.8700471
218	0x3fa0bd03	1.2557682
219	0x3d622019	0.055206392
220	0xbe247eb8	-0.16063964
221	0x3c5cfb94	0.013487715
222	0xbf4e6a7e	-0.80631244
223	0xbfea90c3	-1.8325428
224	0xbf5c4b33	-0.86052245
225	0x3f0ef3cd	0.5584076
226	0x3fae58ad	1.3620812
227	0x3f13cb6e	0.57732284
228	0x3e08312a	0.13300005
229	0xbe0aff7e	-0.13574025
230	0xbe419a46	-0.18906507
231	0xbefe05b6	-0.49613732
232	0xbfc21b3d	-1.5164562
233	0xbf382b6f	-0.71941274
234	0xbe239bae	-0.15977356
235	0x3f2f10ea	0.68385184
236	0x3c8eb0b2	0.01741824
237	0x3e33d9ad	0.17563505
238	0x3e69543f	0.22786044
239	0x3df865c7	0.121287875
240	0x3c9c67f2	0.019092534
241	0xbf0c8320	-0.5488758
242	0x3c868d74	0.016424872
243	0xbea3b48e	-0.3197369
244	0xbd5434f4	-0.051808313
245	0x3f4962e5	0.78666526
246	0x3f061d68	0.5238862
247	0x3e8afe90	0.2714734
248	0xbfeaafbc	-1.833488
249	0xbd8f036a	-0.06983073
250	0x3f5822b7	0.8442797
251	0xbebf14cd	-0.37320557
252	0xbf114277	-0.5674204
253	0x3e321929	0.1739241
254	0x3f55d415	0.83526736
255	0x3f0d940d	0.5530403

dense1.0.bn1.weight f4 [24]
0	0x3efcb8fc	0.49359882
1	0x3f82f4c9	1.0230953
2	0x3f2e1274	0.6799691
3	0x3f38396a	0.71962607
4	0x3f27faff	0.65617365
5	0x3f818d5c	1.0121264
6	0x3f278021	0.65429884
7	0x3f7d5cb8	0.989696
8	0x3f53839c	0.82622695
9	0x3fdf767f	1.7458037
10	0x3ff11750	1.883524
11	0x3f2a0110	0.6640787
12	0x3f7b91ee	0.98269546
13	0x3ec08b87	0.3760645
14	0x3f2ead6e	0.6823338
15	0x3f1c7cee	0.6112813
16	0x3edca974	0.43098032
17	0x3eb7bf78	0.35888267
18	0x3f2f5385	0.68486816
19	0x3ee0de60	0.4391966
20	0x3f5fae1d	0.8737505
21	0x3f3afb3c	0.73039603
22	0x3ee2c626	0.442918
23	0x3ef89b0f	0.485558

dense1.0.bn1.bias f4 [24]
0	0xbe2a19b9	-0.16611375
1	0x3f2e6c52	0.68134034
2	0xbec2acdb	-0.38022503
3	0x3ee4b97f	0.44672772
4	0x3e979105	0.2960283
5	0x3e9c0ca7	0.30478403
6	0x3effa07d	0.4992713
7	0x3e947bbe	0.29000658
8	0x3f0e0ec2	0.5549127
9	0x3f5f1ccf	0.87153333
10	0x3f903598	1.1266356
11	0x3d6f11ba	0.058366515
12	0x3e031e9c	0.12804645
13	0x3e476681	0.19472696
14	0x3e19555d	0.1497397
15	0xbf0ad494	-0.5423062
16	0xbe5043a6	-0.20338306
17	0xbe4ff953	-0.20309953
18	0xbefb39e2	-0.490676
19	0xbe932347	-0.28737852
20	0xbf29e8c1	-0.6637078
21	0xbf09e05c	-0.5385797
22	0x3e4ae3f2	0.19813517
23	0xbdc21396	-0.09476392

dense1.0.conv1.weight f4 [12, 24, 3, 3]
0	0x3c5f73f8	0.013638489
1	0x3e098d7a	0.13432875
2	0xbc5093a0	-0.012730509
3	0x3d0de7e4	0.034644976
4	0x3e287c17	0.16453587
5	0x3cf52a6b	0.029927453
6	0xbd6d0ddc	-0.057874545
7	0x3d3d89b9	0.04627392
8	0xbd906d10	-0.07052052
9	0x3e744810	0.23855615
10	0x3ebc2fdb	0.3675526
11	0x3eaf2dc4	0.34214604
12	0x3db6b634	0.08921471
13	0x3e975e79	0.29564264
14	0x3ea95edf	0.33080193
15	0xbe9371be	-0.28797716
16	0xbd973e52	-0.073849335
17	0xbd866924	-0.06563023
18	0x3d104b01	0.03522778
19	0x3e01f88a	0.12692466
20	0x3adc67e4	0.001681563
21	0x3df6454f	0.12024938
22	0x3e415b23	0.18882422
23	0x3d8782b4	0.066167265
24	0x3de60abf	0.112325184
25	0x3e37c3f5	0.17945845
26	0x3dc21cf9	0.09478182
27	0xbd30406d	-0.04303019
28	0x3d74c52f	0.05975836
29	0x3ddeb104	0.10873607
30	0xbd0daf1f	-0.034590837
31	0x3e0c013b	0.13672344
32	0x3e36ecae	0.17863724
33	0x3e044b2e	0.12919304
34	0x3e8a0553	0.26957187
35	0x3e7dabfc	0.24772638
36	0xbc2405d3	-0.010011154
37	0xbe4d62a1	-0.20057155
38	0xbe44ee2e	-0.19231483
39	0x3e9f24be	0.3108272
40	0x3e08367e	0.13302037
41	0x3d77bb20	0.06048119
42	0x3f2052da	0.6262642
43	0x3f03ffbf	0.5156211
44	0x3ec0ce4d	0.37657395
45	0x3e93d1f1	0.2887111
46	0x3eefae0f	0.46812484
47	0x3e6c3dde	0.23070475
48	0x3e0fc4ff	0.14039992
49	0x3eb823ea	0.359649
50	0x3e10e730	0.14150691
51	0xbe44a7d9	-0.19204654
52	0x3d3b209f	0.045685407
53	0xbdba0392	-0.09082712
54	0x3e00db1a	0.1258358
55	0x3e0caba9	0.13737358
56	0x3e82da47	0.25557157
57	0x3e6d667e	0.23183629
58	0x3e68905d	0.2271132
59	0x3e434d64	0.19072491
60	0x3d450b05	0.048106212
61	0xbe1c96e6	-0.15291938
62	0xbe05a831	-0.13052441
63	0xbf07750f	-0.5291299
64	0xbe5eccc2	-0.21757796
65	0xbe4058bc	-0.1878385
66	0x3d1c3bd7	0.038143005
67	0x3ed61388	0.41811776
68	0x3eb7905b	0.35852322
69	0x3dd7e259	0.10541219
70	0x3f02d8ee	0.5111226
71	0x3ec0ba40	0.37642097
72	0x3da10fc6	0.07864337
73	0x3e8696d9	0.26286963
74	0x3e01bd81	0.12669946
75	0x3d569ae7	0.05239382
76	0x3e562084	0.20910841
77	0x3dd4e8ea	0.10395987
78	0xbe9a2793	-0.30108318
79	0xbe5e2504	-0.21693808
80	0xbe3982c7	-0.18116294
81	0x3e133e6b	0.1437928
82	0x3de9ad23	0.11409976
83	0xbeacdbe9	-0.33761528
84	0x3f0497b2	0.5179397
85	0x3efd19fb	0.49433884
86	0xbe0d1754	-0.1377843
87	0x3e1ad561	0.1512046
88	0x3dede7f6	0.11616509
89	0xbe43c846	-0.19119367
90	0xbd8d6158	-0.069033325
91	0x3de7754f	0.11301672
92	0xbd834d1b	-0.06411191
93	0x3bf5b5ef	0.007498495
94	0x3e9c2df4	0.3050381
95	0x3d86a9a4	0.06575325
96	0xbe551c3c	-0.20811552
97	0x3e934232	0.2876144
98	0x3dba7f2f	0.091062896
99	0xbed786e5	-0.42095104
100	0xbe8338c3	-0.25629243
101	0x3ca236e3	0.019801563
102	0xbe59042d	-0.21192999
103	0xbc8040bd	-0.01565587
104	0x3e5e59e3	0.21713977
105	0x3e417159	0.18890895
106	0x3ed8ab12	0.42318016
107	0x3f07401d	0.52832204
108	0xbe92d8eb	-0.2868112
109	0xbea29d57	-0.31760666
110	0xbd4db2f2	-0.050219484
111	0xbec039c7	-0.3754408
112	0xbed5e6fd	-0.41777793
113	0xbe09dc50	-0.13462949
114	0xbe45e804	-0.19326788
115	0xbe6ad3b8	-0.22932327
116	0xbc277954	-0.010221798
117	0xbe21bdf3	-0.15795116
118	0xbe6fb0f2	-0.23407343
119	0xbc81e32a	-0.01585539
120	0xbe890215	-0.267594
121	0xbec173ce	-0.37783664
122	0xbe08879d	-0.13332982
123	0xbdd4cfd7	-0.10391205
124	0xbe43544a	-0.19075122
125	0xbb41df38	-0.0029582512
126	0xbe41ab32	-0.18912962
127	0xbe80c1d0	-0.25147867
128	0xbe97d4e9	-0.29654625
129	0xbe20eec8	-0.15716088
130	0xbe2ed31b	-0.17072718
131	0xbe6bd7fd	-0.23031612
132	0xbd8b537b	-0.06803032
133	0xbdc8ee3c	-0.098110646
134	0xbe547844	-0.20749003
135	0x3c048f45	0.008090799
136	0x3c2b5cf8	0.010459177
137	0x3cee702a	0.029106218
138	0xbdcaa479	-0.09894652
139	0xbdb477b4	-0.08811894
140	0xbd55838b	-0.052127402
141	0xbe020c99	-0.12700118
142	0xbdce6315	-0.10077492
143	0xbd9a5b26	-0.075369164
144	0x3c360b0f	0.011111035
145	0xbdc5bdec	-0.09655365
146	0x3b83b119	0.0040189144
147	0xbd93c2fd	-0.072149254
148	0xbe6ba2c9	-0.23011316
149	0xbe1c2254	-0.1524747
150	0x3d0fd98a	0.03511957
151	0xbe0ec144	-0.13940912
152	0xbdb0c7ba	-0.08631845
153	0xbd9a68e2	-0.07539536
154	0xbd0a3bce	-0.03374844
155	0xbe08f273	-0.13373737
156	0xbc8bc479	-0.017061459
157	0x3b87806d	0.0041351826
158	0xbdc649ed	-0.09682069
159	0xbd8a5e65	-0.067562856
160	0xbd37d509	-0.0448809
161	0xbe1203fe	-0.14259335
162	0xbcee25c1	-0.029070737
163	0xbe0adab8	-0.13559997
164	0xbddb890b	-0.10719498
165	0xbe401a76	-0.18760094
166	0xbe953720	-0.2914362
167	0xbe8762ef	-0.26442668
168	0xbd7aaa13	-0.06119735
169	0xbe10978d	-0.14120312
170	0xbddbc5b7	-0.107310705
171	0xbddd0680	-0.107922554
172	0xbd9930b7	-0.07479995
173	0xbc897597	-0.016779704
174	0xbe1ce51c	-0.15321773
175	0xbdf293de	-0.1184461
176	0xbd5cbd72	-0.053891607
177	0xbd876830	-0.06611669
178	0xbd4a6596	-0.049413286
179	0x3c8abc7e	0.016935583
180	0xbd2bfa79	-0.041986916
181	0xbbf6e21c	-0.0075342786
182	0xbe13ba8e	-0.14426634
183	0xbdba903e	-0.09109543
184	0xbcefbf1c	-0.029265933
185	0xbd9f72f3	-0.07785597
186	0xbdee5760	-0.11637759
187	0xbc65b059	-0.014019095
188	0xbdcac5cf	-0.0990101
189	0xbdf81b64	-0.12114599
190	0xbd8a84ad	-0.06763587
191	0xbe5106a5	-0.20412691
192	0xbd1a88c5	-0.03772809
193	0x3c9c5166	0.019081783
194	0xbe159ba5	-0.14610155
195	0xbd533f9f	-0.051574346
196	0x3b7bf5ee	0.0038446146
197	0xbe04bad8	-0.129619
198	0xbddbe1be	-0.10736416
199	0xbe2195be	-0.15779778
200	0xbe80b943	-0.25141343
201	0xbe002120	-0.12512636
202	0xbe3d40c3	-0.18481736
203	0xbe9bc45a	-0.30423242
204	0xbe7019b1	-0.234473
205	0xbe93e904	-0.28888714
206	0xbed91930	-0.4240203
207	0xbd735973	-0.059411477
208	0xbd6451a9	-0.05574194
209	0x3d643865	0.055717845
210	0xbe05a438	-0.13050926
211	0xbe070147	-0.13184081
212	0xb9f37a3e	-0.0004643965
213	0x3c19143a	0.009343201
214	0x3ccc7cad	0.024961794
215	0x3def4e36	0.116848394
216	0x3c4ee4c8	0.012627788
217	0xbd132261	-0.03592146
218	0xbc4a535c	-0.012348976
219	0x3ca7f8bf	0.020504354
220	0xbd9b8b3d	-0.07594917
221	0xbd0a2730	-0.03372878
222	0x3e307dc6	0.17235479
223	0x3de263e3	0.11054208
224	0x3dd3b601	0.10337449
225	0x3b9525c8	0.004551623
226	0x3db99c37	0.09062999
227	0x3e40806d	0.1879899
228	0xbe30c70d	-0.17263432
229	0xbce07429	-0.02739914
230	0x3db103bd	0.08643291
231	0x3cacf58f	0.021113185
232	0xbb3db200	-0.0028945208
233	0xbe2fed58	-0.17180383
234	0xbd3027a1	-0.043006543
235	0xbd33a51c	-0.043858632
236	0xbc0fbb39	-0.008772665
237	0xbd576e84	-0.05259563
238	0xbd9fe5c9	-0.078075
239	0xbd1faa1e	-0.038980596
240	0x3cce5214	0.025185622
241	0xba12605d	-0.0005583817
242	0x3cee9fe9	0.029128985
243	0xbefaab97	-0.48959038
244	0xbf23f3ab	-0.6404368
245	0xbeb4e573	-0.35331306
246	0xbe1a85d0	-0.15090108
247	0x3caedbbb	0.02134501
248	0xbd67f8d6	-0.056633793
249	0x3ee7b6d6	0.4525668
250	0x3f30b017	0.6901869
251	0x3e2beb1d	0.16788907
252	0xbe5a9e3a	-0.21349421
253	0xbe996d7a	-0.29966336
254	0xbe26b4d7	-0.16279922
255	0x3c263b24	0.010145936

dense1.1.bn1.weight f4 [36]
0	0x3f1d983e	0.6156043
1	0x3ec46871	0.38360932
2	0x3e825473	0.25455055
3	0x3ea9b378	0.33144736
4	0x3f3b169e	0.73081386
5	0x3ec6dc6c	0.38840044
6	0x3ee90f04	0.4551927
7	0x3e9385a2	0.2881289
8	0x3ead9904	0.33905804
9	0x3ef511e5	0.47865215
10	0x3eba208c	0.36352956
11	0x3f9d2431	1.227667
12	0x3e058828	0.1304022
13	0x3e39a87a	0.18130675
14	0x3eaad316	0.3336417
15	0x3e427646	0.1899043
16	0x3f8423c1	1.0323411
17	0x3f7272a1	0.9470616
18	0x3f08a7ae	0.5338086
19	0x3f34f51a	0.70686495
20	0x3f23a524	0.6392386
21	0x3f578a37	0.84195274
22	0x3eb15968	0.34638524
23	0x3eb87880	0.36029434
24	0x3ee74c17	0.4517524
25	0x3f313603	0.6922304
26	0x3f63d75d	0.89000493
27	0x3f9c596e	1.2214792
28	0x3f0cc548	0.5498853
29	0x3e2b9b83	0.16758542
30	0x3f731c75	0.94965297
31	0x3fa3c05c	1.2793078
32	0x3f3525f4	0.70761037
33	0x3f0da8c3	0.55335635
34	0x3eb5392e	0.35395187
35	0x3f3f057a	0.7461773

dense1.1.bn1.bias f4 [36]
0	0x3dae68ab	0.085160576
1	0xbe4870f2	-0.19574335
2	0xbe4c230e	-0.19935247
3	0xbeb8a3bb	-0.36062416
4	0x3ec4fce3	0.38474187
5	0xbe44f10b	-0.19232576
6	0x3ddf9abf	0.10918187
7	0xbdc85286	-0.09781365
8	0x3e18c9e6	0.14920768
9	0x3cd4f90c	0.025997661
10	0xbb3b811f	-0.0028610898
11	0xbdf456f1	-0.11930645
12	0xbc6aba0f	-0.014326586
13	0xbe29d50c	-0.16585177
14	0xbe30aa51	-0.1725247
15	0xbe13673b	-0.14394848
16	0xbe682659	-0.22670878
17	0x3edb5513	0.42838344
18	0xbe92e4f1	-0.28690293
19	0xbeb9f814	-0.3632208
20	0xbee156e4	-0.44011605
21	0xbf112af0	-0.5670614
22	0x3dcf9919	0.10136623
23	0xbe72d10d	-0.23712559
24	0xbe8c3729	-0.27385834
25	0x3f43d011	0.7648936
26	0x3e9b8b60	0.30379772
27	0xbcc82268	-0.024430469
28	0xbe8ef255	-0.2791926
29	0xbe33ef99	-0.17571868
30	0xbe3ac0ad	-0.18237562
31	0x3f20d96a	0.6283175
32	0xbdfae64b	-0.12250956
33	0xbe30d388	-0.17268193
34	0xbe1c1997	-0.15244137
35	0x3e21091f	0.15726136

dense1.1.conv1.weight f4 [12, 36, 3, 3]
0	0xbdd0f107	-0.10202222
1	0x3e356977	0.17716013
2	0x3ee83dd0	0.4535966
3	0xbe87ab4d	-0.2649788
4	0x3c377885	0.011198168
5	0x3ea45b9b	0.3210114
6	0xbea2c8f2	-0.31793934
7	0xbe2f662d	-0.1712882
8	0x3dec2e17	0.115322284
9	0xbcf49efa	-0.029860962
10	0xbd09b964	-0.033624068
11	0xbe512892	-0.20425633
12	0xbdac8de5	-0.08425502
13	0xbcba4955	-0.022740046
14	0xbe14090d	-0.14456578
15	0xbd1be075	-0.038055856
16	0xbd2cc3c3	-0.04217888
17	0xbcaa39c5	-0.0207795
18	0xbda42065	-0.08013991
19	0x3ceb030a	0.028687973
20	0x3e04f8d4	0.12985545
21	0xbdc3f232	-0.095676795
22	0x3cf08436	0.029359918
23	0x3de816c2	0.11332466
24	0xbd8daee3	-0.069181226
25	0x3c8da935	0.017292598
26	0x3dd3e213	0.103458546
27	0xbd677c52	-0.056515045
28	0xb9b22bd3	-0.00033983457
29	0x3d90c981	0.07069684
30	0x3d0cb7d5	0.034355003
31	0xbc91778a	-0.017757196
32	0x3d94228d	0.072331525
33	0x3dee7791	0.11643899
34	0x3d1bf8b7	0.03807899
35	0x3dfa84f9	0.12232394
36	0xbdedcf1c	-0.116117686
37	0x3ef0ec48	0.47055268
38	0x3e88cdd1	0.26719525
39	0xbe369937	-0.17831884
40	0x3e9a4cfb	0.30136856
41	0x3dddb4cb	0.10825499
42	0xbe34ae92	-0.17644718
43	0xbd3a11c0	-0.045427084
44	0xbe36c5d4	-0.17848903
45	0xbd0a491c	-0.03376113
46	0xbc5533f7	-0.013012878
47	0x3bab7b37	0.005233194
48	0xbd16979b	-0.036765676
49	0xbd2d56b7	-0.042319026
50	0xbb9f3507	-0.0048586163
51	0xbbcb7552	-0.006209054
52	0xbcd61a5e	-0.02613562
53	0x3d01d2c2	0.031695135
54	0xbe24c8a1	-0.16092159
55	0xbe475c09	-0.19468702
56	0xbed53715	-0.41643587
57	0xbe389b28	-0.18027937
58	0xbda2c0bb	-0.07946917
59	0xbe0eee41	-0.13958074
60	0x3bad16fb	0.0052822805
61	0x3dd5031f	0.10400986
62	0xbec81c2e	-0.39084
63	0x3d0380da	0.032105304
64	0x3d6c681c	0.057716474
65	0xbc71d88a	-0.0147611
66	0xbcbd5ce0	-0.023115575
67	0x3d05377d	0.03252362
68	0xbd704ffb	-0.058670025
69	0xbd09fde1	-0.033689383
70	0xbc88be0f	-0.01669219
71	0xbd056b10	-0.032572806
72	0x3c6d7d01	0.014495135
73	0xbe291c24	-0.16514641
74	0x3d2f4ccd	0.042797852
75	0xbe458f78	-0.1929301
76	0x3c0d30b4	0.008617569
77	0x3da0fa5a	0.07860251
78	0xbdaed017	-0.08535784
79	0x3dc682b0	0.096928954
80	0xbcd43e98	-0.025908753
81	0xbdec42f2	-0.11536206
82	0x3b668dcf	0.003517974
83	0xbde04fdc	-0.10952732
84	0xbe213279	-0.1574191
85	0xbd073b36	-0.033015452
86	0xbdc65993	-0.09685054
87	0xbd708421	-0.058719758
88	0xbd9001c7	-0.07031589
89	0xbe6b832d	-0.22999258
90	0xbe6f9da1	-0.23399974
91	0x3df0e1ee	0.11761843
92	0xbcd6b25b	-0.026208093
93	0xbe557499	-0.2084526
94	0x3d6ec9a1	0.058297757
95	0xbe046111	-0.12927653
96	0xbbb493a7	-0.0055107656
97	0xbe24fa9e	-0.16111228
98	0x3c4ff9d7	0.012693844
99	0xbda4dd45	-0.08050016
100	0x3c8c5d2c	0.017134272
101	0x3e1deecd	0.15423127
102	0xbe35db10	-0.17759347
103	0xbdcfc7eb	-0.10145553
104	0x3daacbe3	0.083396696
105	0xbdb54e0f	-0.08852779
106	0xbe1943e3	-0.14967303
107	0x3c59cb22	0.01329306
108	0xbd1fba8e	-0.03899627
109	0x3a6da98d	0.00090660976
110	0xbd50b9c5	-0.050958414
111	0xbd389887	-0.045067336
112	0x3cd59b9e	0.02607518
113	0xbcd5a58e	-0.02607992
114	0xbc199bd9	-0.009375536
115	0x3b2d5680	0.0026449263
116	0xbc5b04b8	-0.013367824
117	0xbae45b8b	-0.0017422301
118	0x3d247ec6	0.040159963
119	0x3a78657c	0.00094755716
120	0xbc0787a9	-0.00827209
121	0x3d3aeef2	0.045638032
122	0xbb80e2c5	-0.003933283
123	0xbc9b5a1d	-0.018963868
124	0xbb5c519e	-0.0033617984
125	0xbcbc983f	-0.023021815
126	0xbd64ff99	-0.05590782
127	0xbacedf46	-0.0015783093
128	0x3d4fdad9	0.05074582
129	0x3d1ac991	0.037789885
130	0xbba11d0e	-0.0049167937
131	0x3d13a143	0.036042463
132	0x3e064239	0.131112
133	0x3cc7205e	0.024307426
134	0x3db35864	0.087570935
135	0x3d6a6f13	0.057234835
136	0x3cda012d	0.026611889
137	0x3b715720	0.0036825612
138	0x3d33a989	0.043862853
139	0x3c872ed3	0.01650182
140	0x3994a747	0.0002835339
141	0x3d022bfc	0.031780228
142	0x3ca7811a	0.020447303
143	0x3d115b39	0.035487387
144	0xbe40ee99	-0.18841018
145	0xbd2c4be3	-0.04206456
146	0xbe4774c5	-0.19478138
147	0xbde4cb89	-0.11171634
148	0x3e6ecc46	0.23320112
149	0x3d82641a	0.06366749
150	0xbcb56eb7	-0.02214752
151	0x3e336d82	0.17522243
152	0xbc2e7064	-0.010646913
153	0x3d3f4d2b	0.046704452
154	0x3eb29214	0.34877074
155	0x3e98464a	0.29741126
156	0xbe3ef5e2	-0.18648484
157	0x3e18924f	0.14899562
158	0x3e324dd1	0.17412497
159	0xbecb2631	-0.39677575
160	0xbe57f975	-0.21091254
161	0xbe525571	-0.20540406
162	0x3e0a156b	0.13484733
163	0x3e07a3ad	0.13246031
164	0x3d02636f	0.03183311
165	0x3c028c68	0.007968046
166	0x3dcae982	0.09907819
167	0x3d96363a	0.07334562
168	0xbdbafd37	-0.09130328
169	0x3cd20b36	0.025640111
170	0x3dc288e1	0.09498764
171	0xbe0f5f7d	-0.1400127
172	0x3d57b19f	0.052659627
173	0x3e27882d	0.1636054
174	0xbd00e5eb	-0.031469267
175	0x3df23514	0.1182653
176	0x3e305848	0.17221177
177	0x3cb7da41	0.022442939
178	0x3ddaf77c	0.10691735
179	0x3dcded38	0.100550115
180	0xbe056064	-0.13025051
181	0xbea6b5ea	-0.32560664
182	0xbe37d992	-0.1795409
183	0xbdfddf79	-0.1239614
184	0xbe9129bf	-0.28352162
185	0xbdb8fd67	-0.09032708
186	0xbd104679	-0.035223458
187	0xbe7480f0	-0.23877311
188	0x3e03fb71	0.12888886
189	0xbe228c00	-0.15873718
190	0x3d779972	0.06044907
191	0x3e33e0b9	0.17566194
192	0xbe31097b	-0.17288773
193	0x3d337900	0.043816566
194	0x3e4bb8f5	0.19894774
195	0xbdee24fa	-0.116281465
196	0x3d3ee9d4	0.046609715
197	0x3e3a3422	0.1818395
198	0x3c92f15b	0.017937353
199	0x3d822c7c	0.06356141
200	0x3c5b0648	0.013368197
201	0x3d6fe76e	0.058570318
202	0x3d883c64	0.066521436
203	0x3c6ab245	0.014324729
204	0x3d61589c	0.055016145
205	0x3d8a8b85	0.067648925
206	0x3cd5e392	0.02610949
207	0xbdd5caab	-0.104390465
208	0x3ca40de5	0.020026157
209	0x3d7019a4	0.058618203
210	0xbca53b47	-0.020169867
211	0x3db37faf	0.08764588
212	0x3de3203e	0.11090134
213	0x3c229ddf	0.009925335
214	0x3d911c08	0.07085425
215	0x3d6387cb	0.055549424
216	0x3df47247	0.11935859
217	0x3ce18959	0.027531313
218	0x3dd6c1a8	0.10486156
219	0xbc184e68	-0.009296037
220	0xbd6673de	-0.056262843
221	0x3e190a32	0.14945295
222	0x3caee5ab	0.021349749
223	0xbcee9683	-0.029124504
224	0x3d0b339a	0.033984758
225	0x3d219cee	0.0394563
226	0x3debd92d	0.11516032
227	0xbe8a7daf	-0.27049014
228	0x3ec82a20	0.3909464
229	0xbebed296	-0.3727004
230	0xbe058a2c	-0.1304099
231	0xbd8de27d	-0.06927965
232	0x3db12e57	0.08651417
233	0x3eaf6a91	0.3426099
234	0x3c79a5f6	0.015237322
235	0xbeb44552	-0.35209137
236	0x3d6f2bae	0.058391266
237	0xbf015795	-0.50524265
238	0x3e17baa0	0.14817286
239	0x3ec13633	0.37736663
240	0xbd063a7f	-0.03277063
241	0x3ea572dc	0.32314193
242	0xbda2a192	-0.07940973
243	0xbe86a8fd	-0.26300803
244	0xbe99ac04	-0.3001405
245	0x3ddc0966	0.1074398
246	0xbf80c7f0	-1.0061016
247	0x3f8917fc	1.0710444
248	0x3eaee730	0.34160757
249	0x3edbdb2b	0.4294065
250	0xbe882b70	-0.2659564
251	0xbeb5e0b7	-0.35523006
252	0x3c6e2b10	0.014536634
253	0x3d29b12b	0.041428726
254	0x3da4d989	0.08049304
255	0x3d485d52	0.048917122

dense1.2.bn1.weight f4 [48]
0	0x3efe9cb4	0.4972893
1	0x3e32015b	0.1738333
2	0x3ee593a2	0.44839197
3	0x3f0a559f	0.540369
4	0x3f71d2f6	0.94462526
5	0x3e1d8ecf	0.15386508
6	0x3ed803d6	0.42190427
7	0x3ead842a	0.33889896
8	0x3eab2d8f	0.33433196
9	0x3ea9270a	0.33037597
10	0x3e6dffeb	0.23242156
11	0x3f307aef	0.6893758
12	0x3dc4f67b	0.09617325
13	0x3ebc83e9	0.3681939
14	0x3dda47f2	0.10658254
15	0x3ef3dc56	0.4762904
16	0x3ecee34a	0.40407783
17	0x3f0830ad	0.53199273
18	0x3f12e2b9	0.573772
19	0x3e8162ee	0.2527079
20	0x3f1c9789	0.61168724
21	0x3d849704	0.064741164
22	0x3e90b475	0.28262678
23	0x3e4c80b5	0.19970973
24	0x3f3590a0	0.70923805
25	0x3ee0c137	0.4389741
26	0x3e607b93	0.2192214
27	0x3f7aa1e1	0.9790326
28	0x3d648893	0.05579431
29	0x3e26cb3e	0.16288468
30	0x3f24dc35	0.6439851
31	0x3f5be4b7	0.85895866
32	0x3e94ae0b	0.29039034
33	0x3e45caaf	0.19315599
34	0x3e7274fd	0.2367744
35	0x3f299c88	0.6625447
36	0x3fbef306	1.4917915
37	0x3f7b1fbd	0.98095304
38	0x3ea8d416	0.3297431
39	0x3f1b82ae	0.60746276
40	0x3f5352ae	0.82548034
41	0x3efe419a	0.49659425
42	0x3ebad0a9	0.3648732
43	0x3f867b9a	1.050647
44	0x3fa34b51	1.275736
45	0x3eee0ec0	0.46495628
46	0x3e4427a9	0.19155754
47	0x3f2985b2	0.6621963

dense1.2.bn1.bias f4 [48]
0	0x3d50b673	0.050955247
1	0xbd4211db	-0.04738031
2	0xbe8e52a6	-0.2779743
3	0xbebf44b0	-0.37357092
4	0x3e60b6e9	0.21944775
5	0xbd06f640	-0.032949686
6	0x3de651e5	0.11246089
7	0xbe479825	-0.19491632
8	0x3d8a3046	0.06747489
9	0x3d7f411e	0.06231796
10	0xbcaa999c	-0.0208252
11	0x3ec4362a	0.38322574
12	0xbd7c3046	-0.061569475
13	0xbe01e89f	-0.12686394
14	0x3d00f9d7	0.031488266
15	0xbf0dd7ab	-0.5540721
16	0x3d96124f	0.07327711
17	0xbeee8170	-0.46583128
18	0xbe9fa27a	-0.31178647
19	0xbe722107	-0.23645411
20	0x3f02557c	0.5091169
21	0xbd8354d8	-0.06412667
22	0xbe0ec9d1	-0.13944174
23	0xbe3194a5	-0.1734186
24	0xbf0d4844	-0.55188394
25	0x3e96944c	0.29410017
26	0x3cfe3fb6	0.03103624
27	0x3bad091d	0.0052806274
28	0xbd852cf8	-0.06502718
29	0xbe08fc00	-0.1337738
30	0x3c8acac4	0.01694239
31	0x3eb610de	0.35559744
32	0xbd95aa46	-0.07307868
33	0x3dcd5958	0.100268066
34	0xbe64f339	-0.22358407
35	0xbe46d74b	-0.19418065
36	0x3f079da8	0.5297494
37	0xbd96ef9b	-0.0736992
38	0xbe809948	-0.25116944
39	0xbe45a21a	-0.19300118
40	0xbf04ac05	-0.5182498
41	0xbe8715cb	-0.26383814
42	0xbdbacb34	-0.09120789
43	0xbe968712	-0.29399925
44	0x3e971954	0.2951151
45	0xbdaa3dc8	-0.08312565
46	0xbd58fb6f	-0.05297416
47	0x3ebf2f71	0.37340882

dense1.2.conv1.weight f4 [12, 48, 3, 3]
0	0x3d9b1dad	0.075740196
1	0xbda37808	-0.079818785
2	0xbdf42ecb	-0.119229876
3	0x3d726fad	0.059188534
4	0xbdcc0358	-0.09961575
5	0xbe0da50c	-0.13832492
6	0x3d88166c	0.06644902
7	0xbd9e5e6c	-0.07732853
8	0xbd903c54	-0.07042757
9	0x3b4a1844	0.0030837217
10	0x3cd60938	0.026127443
11	0x3c928786	0.017886888
12	0x3c15c909	0.009142169
13	0x3ce643ca	0.028108496
14	0x3cf06e97	0.029349608
15	0x3c9e438d	0.01931932
16	0x3c7134c5	0.014722054
17	0x3b92b826	0.0044775186
18	0x3ca6969a	0.020335484
19	0xbc908bf9	-0.01764487
20	0xbcee28f0	-0.029072255
21	0x3c25b8d3	0.010114866
22	0xbd41a188	-0.04727319
23	0xbd683616	-0.056692205
24	0x3bbd937c	0.005785404
25	0xbd1bcd7a	-0.038037755
26	0xbd7a020c	-0.06103711
27	0xbd93ef50	-0.072233796
28	0xbdb30e2b	-0.08742937
29	0xbdc3d906	-0.09562878
30	0x3d7c2458	0.061558098
31	0x3d5734c8	0.05254057
32	0x3c78c80d	0.015184415
33	0x3d12b07d	0.035812844
34	0x3d87345d	0.066017844
35	0x3d7cefcc	0.061752126
36	0x3bbbc618	0.0057304017
37	0x3df83b93	0.12120738
38	0x3e0caedc	0.13738579
39	0x3c1ebace	0.009688092
40	0x3e10203c	0.14074796
41	0x3e1cb1e2	0.15302232
42	0xbcae2aae	-0.021260586
43	0x3d9b6cca	0.07589109
44	0x3d8f7397	0.07004469
45	0xbc2cdfe4	-0.010551427
46	0xbd0dcfd3	-0.034622025
47	0xbd275d88	-0.040860683
48	0x39f9862d	0.0004759295
49	0xbc8439d5	-0.016140858
50	0xbd026c54	-0.03184159
51	0x3a09a1ff	0.00052502746
52	0xbcd11e22	-0.025527064
53	0xbc424a8c	-0.011858594
54	0x3db90e06	0.09035878
55	0xbe416e9e	-0.18889853
56	0x3c50ee90	0.01275219
57	0x3e909c3d	0.282442
58	0x3da72066	0.081604764
59	0x3eca1752	0.39470917
60	0x3e596303	0.21229176
61	0x3d85daeb	0.06535896
62	0x3eb16b5c	0.3465222
63	0xbc6457a4	-0.013936911
64	0xbc23d1f5	-0.009998788
65	0x3c192b75	0.00934874
66	0x3beca0df	0.0072213258
67	0xbcac31f1	-0.021019908
68	0xbc84e141	-0.01622069
69	0x39fbf411	0.00048056294
70	0xbc98ac2f	-0.018636791
71	0xbd265173	-0.04060502
72	0xbdb8e7ed	-0.09028611
73	0x3cbd59a4	0.023114033
74	0x3e4e8a5c	0.20169967
75	0x3ba611be	0.005068033
76	0x3db79a6d	0.08965001
77	0x3e24529f	0.16047142
78	0x3e21f4c3	0.15816025
79	0x3e0427ff	0.12905882
80	0x3da64f4c	0.081205934
81	0x3d5e87c8	0.05432871
82	0x3bc52b40	0.0060171187
83	0x3d7ec1d0	0.062196553
84	0x3e01a191	0.12659289
85	0x3dc47bc2	0.095939174
86	0x3e0a8346	0.1352664
87	0x3db3c0e4	0.08777025
88	0x3d1480cb	0.03625564
89	0x3cf6c88c	0.030124925
90	0x3d1a258a	0.037633456
91	0x3c8fcba7	0.017553164
92	0x3bb5d6d7	0.0055492925
93	0x3c9d4f44	0.019202836
94	0xbceb1323	-0.028695649
95	0xbd525c1f	-0.051357385
96	0x3cad916e	0.02118751
97	0xbc60c1ab	-0.013718049
98	0xbd0e9886	-0.034813426
99	0x3da8b8b2	0.08238353
100	0x3cba0365	0.022706697
101	0x3daa8a9a	0.083272174
102	0x3d87ffcc	0.06640586
103	0xbc51c7ee	-0.012804015
104	0x3d2299b9	0.039697383
105	0x3d691bbd	0.05691122
106	0xbd21dc9e	-0.039517038
107	0xbd08036d	-0.033206392
108	0x3bed57c6	0.0072431294
109	0x3bac3bb9	0.005256143
110	0x3bb69d7a	0.005572972
111	0xbb5b6d73	-0.0033481985
112	0xbb4aa73a	-0.0030922429
113	0x3a0434d8	0.0005043275
114	0xbc59cb08	-0.013293035
115	0xbc4ba38e	-0.012429131
116	0xbbb31498	-0.0054651015
117	0xbc554c10	-0.013018623
118	0x3d6f0f9c	0.058364496
119	0x3de6f288	0.11276728
120	0xbd1356b5	-0.035971362
121	0x3ce071a9	0.027397947
122	0x3dac480e	0.08412181
123	0xbd9afd67	-0.07567864
124	0xbccf64f3	-0.025316691
125	0x3d044919	0.032296274
126	0xbc0d850b	-0.008637677
127	0xbbb60058	-0.00555424
128	0xbc8f1483	-0.017465835
129	0x3cb311f5	0.021859149
130	0x3cc60662	0.024172965
131	0x3cca29fa	0.02467822
132	0xb817b899	-3.6173125e-05
133	0x3ceb3ae4	0.028714605
134	0x3cd16a9d	0.025563532
135	0xbb7a4c09	-0.0038192293
136	0x3ce9d831	0.02854547
137	0x3dd01d27	0.1016181
138	0xbcc81ee7	-0.024428798
139	0x3aad3bb8	0.001321665
140	0x3de7ab2d	0.11311946
141	0xbcfe8687	-0.031070007
142	0x3cc12519	0.02357726
143	0x3de37b5f	0.111075155
144	0xbc027459	-0.00796231
145	0x3dab54b5	0.08365766
146	0x3e3f3a8b	0.18674676
147	0xbd320055	-0.043457348
148	0x3d9e79fb	0.0773811
149	0x3e44f655	0.19234593
150	0xbda2f6b3	-0.079572104
151	0x3d5b93be	0.053607695
152	0x3e27ad97	0.16374813
153	0x3dfb82fe	0.12280844
154	0x3c2a6a65	0.010401343
155	0xbded9b81	-0.11601926
156	0x3dbc5201	0.091953285
157	0xbc05e846	-0.008173054
158	0xbded8d6e	-0.11599241
159	0x3cfffa06	0.03124715
160	0xbd50b9d2	-0.050958462
161	0xbdd64444	-0.104622394
162	0xbde2ea24	-0.11079815
163	0x3d96d751	0.07365287
164	0x3e8c1584	0.27360165
165	0xbe0fcd54	-0.1404317
166	0x3d3e9423	0.046527993
167	0x3e83c6de	0.2573766
168	0xbde584de	-0.11206983
169	0x3d4e3d31	0.050351325
170	0x3e5016e9	0.2032124
171	0x3d2cd626	0.042196415
172	0x3d1febb0	0.03904313
173	0x3cbdc2b5	0.023164133
174	0x3d302275	0.04300161
175	0x3d42a218	0.047517866
176	0x3c77917f	0.015110373
177	0x3c8ed1c4	0.017434008
178	0x3c4d0694	0.012513775
179	0x3ba169c6	0.0049259393
180	0xbedf344f	-0.43594596
181	0xbe9143e3	-0.28372106
182	0xbebbb8be	-0.36664385
183	0xbf2b1faf	-0.6684522
184	0xbf06cc70	-0.52655697
185	0xbf2d4256	-0.67679346
186	0xbeeb60a3	-0.45972165
187	0xbeb83dad	-0.35984555
188	0xbefa9e9e	-0.4894914
189	0xbbd8c398	-0.0066151135
190	0xbbb327bd	-0.0054673837
191	0x399cdf74	0.00029921124
192	0xbb85d503	-0.004084231
193	0xbc149279	-0.009068125
194	0xbc4830f3	-0.012218702
195	0xbbc87c87	-0.0061183604
196	0xbb72a79e	-0.0037026177
197	0xbca0cd8b	-0.01962926
198	0x3cd277ad	0.025691831
199	0x3d4e23f8	0.05032727
200	0x3d91b45a	0.071144775
201	0xbae1e6b4	-0.0017234893
202	0x3d542a6f	0.05179828
203	0x3dbca32a	0.092108086
204	0xbb9c1aad	-0.004763922
205	0x3cb82270	0.022477359
206	0x3dcab81b	0.098983966
207	0x3c2d402a	0.01057438
208	0x3c9a7a3c	0.018857114
209	0x3bc0062a	0.00586011
210	0x3c7270b0	0.014797375
211	0x3b5189fa	0.003197311
212	0xbb3b12be	-0.0028545107
213	0x3c6a9a0d	0.014318955
214	0x3c1f2dd3	0.009715515
215	0xbc21a141	-0.009865106
216	0x3e25783d	0.16159149
217	0xb9987335	-0.00029077535
218	0xbd5cf0b6	-0.053940497
219	0x3e332aa1	0.1749673
220	0xbc82d66e	-0.015971389
221	0xbdc44079	-0.0958261
222	0x3e077cff	0.13231276
223	0xbd8899ac	-0.066699356
224	0xbe173c60	-0.14769125
225	0xbd45f888	-0.04833272
226	0xbc57f931	-0.01318197
227	0x3d5164ff	0.051121708
228	0xbe071979	-0.13193311
229	0xbc7c4094	-0.015396256
230	0x3e64ce0d	0.22344227
231	0xbd96cbeb	-0.07363113
232	0x3c8e918d	0.017403388
233	0x3e86b3c5	0.26309028
234	0xbc15ba73	-0.009138691
235	0x392f6208	0.0001672582
236	0x3dab8b17	0.08376139
237	0x3df34f48	0.11880356
238	0x3d85b6f7	0.065290384
239	0x3c34c5d2	0.011033492
240	0x3e160692	0.14650944
241	0x3d8692e8	0.06570989
242	0x3b8b19b5	0.004245008
243	0x3d8efbfd	0.06981657
244	0xbd38b263	-0.045091998
245	0xbdd23331	-0.1026367
246	0x3f0e479a	0.55578005
247	0x3eb0fb63	0.34566793
248	0x3ddd02d9	0.10791559
249	0x3e3cb834	0.18429643
250	0x3e151865	0.14560087
251	0xbd3cc430	-0.046085536
252	0x3bb5b60a	0.0055453824
253	0x3b0ca98a	0.0021463358
254	0x3c1f4c3c	0.009722766
255	0xbc343053	-0.0109978495

dense1.3.bn1.weight f4 [60]
0	0x3e992020	0.29907322
1	0x3e782287	0.24231921
2	0x3e4cf7a4	0.20016342
3	0x3f0566f7	0.52110237
4	0x3f05da8e	0.52286613
5	0x3e501e45	0.20324047
6	0x3f9a00b5	1.2031466
7	0x3ea4554f	0.32096335
8	0x3ee46ba5	0.44613376
9	0x3e8b3767	0.27190706
10	0x3dddaa7c	0.10823533
11	0x3e7b063e	0.245141
12	0x3e3671fc	0.17816919
13	0x3e083c8a	0.13304344
14	0x3f36c1fe	0.7138976
15	0x3e162e85	0.14666183
16	0x3e8848c6	0.26618022
17	0x3dfde614	0.123973995
18	0x3e65d45a	0.22444287
19	0x3e4a5b36	0.19761357
20	0x3fac983a	1.3483956
21	0x3e2c8e14	0.16851074
22	0x3e14c307	0.14527522
23	0x3df21c7e	0.11821841
24	0x3e5cbd58	0.21556604
25	0x3f60c779	0.8780437
26	0x3ecafed1	0.39647534
27	0x3f47644e	0.7788743
28	0x3e67084b	0.22561757
29	0x3eaf0bdb	0.34188733
30	0x3f3b9b5a	0.7328392
31	0x3f86da35	1.0535342
32	0x3ec7eccb	0.39047846
33	0x3f0662c5	0.5249446
34	0x3e0b470b	0.1360132
35	0x3f2e5d3d	0.6811102
36	0x3f68f139	0.90993077
37	0x3f70fa0b	0.94131535
38	0x3dec9661	0.1155212
39	0x3f88d13e	1.0688856
40	0x3f03c521	0.5147267
41	0x3e498cc6	0.19682607
42	0x3e18aa41	0.14908697
43	0x3f10b2e4	0.56522965
44	0x3efced17	0.49399635
45	0x3ed475e2	0.41496187
46	0x3f95792b	1.1677603
47	0x3ec3b747	0.38225767
48	0x3f736c95	0.9508756
49	0x3eb9bdc9	0.36277607
50	0x3e1c5516	0.15266833
51	0x3efab037	0.48962566
52	0x3e997dc6	0.2997877
53	0x3e16aa55	0.14713414
54	0x3fca3a1a	1.5798981
55	0x3f383cc1	0.71967703
56	0x3fab17e9	1.3366672
57	0x3e4cdaa6	0.20005283
58	0x3d20d6b4	0.039267257
59	0x3ecc01e2	0.39845186

dense1.3.bn1.bias f4 [60]
0	0xbddce679	-0.10786147
1	0xbc3f36ab	-0.011670749
2	0xbdef2da8	-0.1167863
3	0x3e0e6a72	0.13907793
4	0x3d3ac247	0.045595434
5	0x3cbf08c4	0.02331961
6	0xbe22e8d5	-0.15909131
7	0x3c874031	0.016510101
8	0xbe300487	-0.17189227
9	0xbc922dc9	-0.017844098
10	0xbcb244ff	-0.021761416
11	0xbda0b401	-0.07846833
12	0xbd43be97	-0.047789183
13	0xbd44139c	-0.047870263
14	0x3e1137c0	0.14181423
15	0xbe5707ed	-0.20999117
16	0xbe4bf6dd	-0.1991839
17	0xbdba3a45	-0.09093145
18	0xbd0a33c6	-0.03374078
19	0xbd533a85	-0.05156948
20	0x3d82c6dd	0.063855864
21	0x3d9c9d4c	0.076471895
22	0xbd80385a	-0.06260748
23	0xbd1c3549	-0.038136754
24	0xbe2460e6	-0.16052589
25	0xbde725e4	-0.11286524
26	0xbeac242c	-0.33621347
27	0xbe879d8a	-0.2648738
28	0xbe2cbe57	-0.16869484
29	0xbe7ef83e	-0.24899384
30	0xbe13a41f	-0.14418076
31	0xbf0268d4	-0.50941205
32	0xbe764d77	-0.24052988
33	0x3dd23421	0.10263849
34	0xbdcba3e2	-0.099433675
35	0xbe57be1e	-0.21068618
36	0xbe80776e	-0.25091118
37	0x3ed976ce	0.42473453
38	0xbe4532c8	-0.19257653
39	0xbe50ce7c	-0.20391268
40	0xbece4434	-0.4028641
41	0xbe26f359	-0.16303767
42	0xbd83c54e	-0.06434117
43	0x3d600d40	0.054700136
44	0xbdeac80a	-0.11463936
45	0x3d68851a	0.05676756
46	0x3e3a87c7	0.18215857
47	0xbdd9bc6a	-0.1063164
48	0x3c544e9e	0.012958197
49	0x3d93992c	0.072069496
50	0xbc4b7d0a	-0.012419948
51	0xbdb7b0ca	-0.08969267
52	0x3e053cee	0.13011524
53	0xbd556447	-0.052097585
54	0x3bee81ab	0.007278641
55	0x3d8db222	0.06918742
56	0x3dbf5bbb	0.09343668
57	0xbbbf47e6	-0.0058374284
58	0xbc668112	-0.014068859
59	0x3d23b6f5	0.039969403

dense1.3.conv1.weight f4 [12, 60, 3, 3]
0	0x3d1d6f42	0.03843618
1	0xbcd922c1	-0.02650583
2	0xba3d0ca6	-0.00072116626
3	0x3cdc4f20	0.026893198
4	0xbd71edef	-0.0590648
5	0xbd852156	-0.06500499
6	0x3cfd7262	0.030938331
7	0xbd0a8f0c	-0.033827826
8	0xbcbc722a	-0.023003656
9	0x3c12c5cf	0.008958294
10	0xba9ba6f8	-0.0011875322
11	0xbc8be628	-0.01707752
12	0xbc078f4e	-0.008273913
13	0xbc966e31	-0.01836309
14	0xbc59627e	-0.013268111
15	0xbc5cbda5	-0.013472949
16	0xbc0114f7	-0.007878534
17	0xbb40bc4a	-0.0029409104
18	0x3c0cb1f7	0.008587352
19	0x3c86a3cf	0.016435532
20	0x3ca29b9f	0.019849597
21	0xbb26ee09	-0.002547147
22	0xbc433b30	-0.011915967
23	0xbb351a86	-0.0027634217
24	0x3beb0749	0.0071724993
25	0xbc6e8186	-0.014557248
26	0x3a1b2af5	0.0005919182
27	0x3ca8c589	0.020602005
28	0x3b868bcc	0.0041060206
29	0x3d27251e	0.040806882
30	0x3db3eb3b	0.08785101
31	0x3d490ac4	0.049082533
32	0x3de525f6	0.11188881
33	0xbbf61778	-0.007510122
34	0xbd123488	-0.03569463
35	0x3d54dc7d	0.051968087
36	0x3e3f6e45	0.18694408
37	0x3e1d0658	0.15334451
38	0x3ce185ab	0.027529558
39	0x3e187123	0.14886908
40	0x3de9839a	0.11402054
41	0xbc3ffa08	-0.011717327
42	0x3da64f3c	0.081205815
43	0x3d60086f	0.054695543
44	0xbd4a99a4	-0.04946293
45	0xbc74c6c2	-0.014939966
46	0xbc187f6a	-0.009307722
47	0xbb7f54f5	-0.003896055
48	0xbc39b2b7	-0.011334113
49	0xbbe0a94a	-0.0068561183
50	0xbc81a8dd	-0.01582759
51	0xbbf173e8	-0.0073685534
52	0xbbc28002	-0.00593567
53	0x3b63298e	0.003466222
54	0xbdebc8db	-0.115129195
55	0xbe39d7ec	-0.18148774
56	0x3e0b630c	0.13612002
57	0xbd39c0bd	-0.045349825
58	0xbdfa39dc	-0.12218067
59	0x3e08f762	0.13375619
60	0xbba69916	-0.0050841672
61	0xbe166a4c	-0.14688987
62	0x3d187e33	0.037229728
63	0x3db12deb	0.08651336
64	0x3d597602	0.053091057
65	0x3d3d9956	0.04628881
66	0x3cdc58c1	0.02689779
67	0x3c08c440	0.008347571
68	0x3c94c6ad	0.018161142
69	0xbc04829e	-0.008087782
70	0xbc8feecc	-0.017569922
71	0xbc01aeef	-0.007915243
72	0x3da506fe	0.08057974
73	0x3dee7f87	0.11645418
74	0x3e489932	0.1958969
75	0x3cd34ab7	0.025792463
76	0x3d4beade	0.049784534
77	0x3dbd29c0	0.09236479
78	0xbca35b88	-0.019941106
79	0x3c07001a	0.00823977
80	0x3d132be2	0.03593052
81	0x3b5dcd47	0.0033844279
82	0xbcab1690	-0.020884782
83	0xbc896aa5	-0.016774485
84	0x3c8d1081	0.017219784
85	0xbcac549d	-0.02103644
86	0xbd2c2606	-0.04202845
87	0xbbd07daa	-0.0063626366
88	0xbce5acd3	-0.02803651
89	0xbcc41e5d	-0.02394026
90	0x3cb67577	0.022272808
91	0xba2de059	-0.00066328567
92	0x3c1d47c8	0.0095996335
93	0xbc1e27fb	-0.009653087
94	0xbcdd8c19	-0.027044343
95	0xbb339f49	-0.0027408174
96	0xbc41a5c9	-0.011819311
97	0xbcea5c84	-0.028608568
98	0xbcb2d14d	-0.021828318
99	0xbc40c591	-0.0117658535
100	0xbc221cd4	-0.0098945685
101	0x3bc1e726	0.0059174476
102	0xbc9a7d83	-0.018858677
103	0xbce56d15	-0.028006116
104	0xbcab6705	-0.020923147
105	0xbbf09d1f	-0.007342949
106	0xbd21285d	-0.039345134
107	0xbb8563f5	-0.0040707537
108	0x3c3598f9	0.011083835
109	0x3b98445c	0.004646821
110	0xbb1da27d	-0.002405315
111	0x3bb72565	0.0055891746
112	0xbc0915f7	-0.008367053
113	0x3b306de3	0.0026920966
114	0x3bb848f7	0.0056239325
115	0x3a929392	0.0011182895
116	0xbaac250b	-0.0013133598
117	0x3cec2678	0.028826937
118	0x3d076202	0.033052452
119	0x3cfff2bf	0.03124368
120	0x3cf89618	0.030345008
121	0x3cab7432	0.02092943
122	0x3c893c8f	0.01675251
123	0x3caaaa8c	0.020833276
124	0x3bf1286a	0.007359554
125	0xbb883b74	-0.004157478
126	0xbd898e87	-0.06716638
127	0xbd4b80e4	-0.049683467
128	0x3d353f10	0.044249594
129	0x3cdf76a8	0.02727826
130	0x3c700eda	0.014651978
131	0x3df4fe34	0.11962548
132	0xbd426edd	-0.04746901
133	0xbd4b351c	-0.049611196
134	0x3ca7922b	0.02045544
135	0xbadd402b	-0.0016880085
136	0x3c2b33f9	0.010449403
137	0x3d25d463	0.04048575
138	0xbbaa1d25	-0.0051914626
139	0x3b884656	0.0041587753
140	0x3d291d3c	0.041287646
141	0xbcc10161	-0.023560228
142	0xbc406be6	-0.011744475
143	0x3d17fb1c	0.03710471
144	0x3cc06555	0.023485819
145	0x3ce3ba6c	0.027798854
146	0x3d418450	0.047245324
147	0x3cdfd550	0.027323395
148	0x3ca2d49e	0.019876774
149	0x3d3fddd5	0.046842415
150	0x3d52750a	0.05138115
151	0x3d1a3af6	0.037653886
152	0x3ce0168c	0.027354501
153	0x3d058dc9	0.03260592
154	0x3cac360f	0.02102187
155	0xbabacf3a	-0.0014252432
156	0x3d0915b2	0.033467956
157	0x3d1bd9be	0.038049452
158	0xbc0606c1	-0.008180321
159	0x3cc26947	0.02373184
160	0x3c42a27a	0.011879558
161	0xba9fe579	-0.0012199125
162	0x3d947561	0.07248951
163	0x3d940c5c	0.0722892
164	0x3d979425	0.07401303
165	0x3d9173b8	0.0710215
166	0x3d7674b1	0.06016988
167	0x3d4f0065	0.050537486
168	0x3d4a767a	0.049429394
169	0x3d12c22f	0.03582972
170	0x3ce69fa4	0.028152294
171	0x3d070779	0.03296611
172	0x3cbcbfbc	0.023040645
173	0x3d2e1258	0.042497963
174	0x3d198b2e	0.037486248
175	0x3d17008a	0.03686575
176	0x3cf65766	0.030070972
177	0x3d0cd714	0.034384802
178	0x3ce7a102	0.028275017
179	0x3d0757fa	0.033042885
180	0x3e4be91f	0.19913147
181	0xbe0c2863	-0.13687281
182	0xbea1515e	-0.3150739
183	0x3dc6af1c	0.09701368
184	0xbe24f683	-0.16109662
185	0xbe7e0af8	-0.24808872
186	0xbcc89c45	-0.024488578
187	0xbe3d9d1f	-0.18516968
188	0xbe521fdd	-0.20519967
189	0x3cfe338c	0.031030439
190	0x3cf8f798	0.0303915
191	0x3da0a773	0.078444384
192	0xbc62e673	-0.013848889
193	0xbbef7782	-0.0073079476
194	0x3d3f6429	0.04672638
195	0x3bb16a90	0.0054143146
196	0xba8a404b	-0.0010547725
197	0x3d60d74b	0.05489282
198	0x3c6b7abc	0.014372524
199	0x3c5459b8	0.012960844
200	0x3b0ae794	0.002119516
201	0x3c3f6c51	0.0116835395
202	0x3bb70b0c	0.0055860337
203	0xbb06cdd2	-0.0020569456
204	0xbc4a1e25	-0.012336289
205	0x3b94f5c7	0.0045459005
206	0x3c3475e4	0.011014435
207	0x3ba5b077	0.0050564366
208	0x3c96ff5b	0.01843231
209	0x3cb04aa6	0.02151997
210	0xbb11a2ef	-0.002222236
211	0x3be3c601	0.006951094
212	0x3ce15150	0.027504593
213	0x3c8e0e88	0.017340913
214	0x3c9b2e94	0.018943109
215	0x3c9c4f15	0.019080678
216	0x3c839589	0.016062515
217	0xbc189468	-0.009312727
218	0x3d550524	0.052006856
219	0x399980dc	0.00029278442
220	0xbbe4f0b7	-0.0069867033
221	0x3d0125f1	0.031530324
222	0xbc3b727d	-0.01144087
223	0xbc07c98b	-0.008287798
224	0x3d263bc5	0.040584344
225	0xbd2d97c1	-0.042381052
226	0xbe18432c	-0.14869374
227	0xbd86cfe6	-0.06582622
228	0xbd5945d7	-0.05304512
229	0xbd76e7a1	-0.060279492
230	0x3d205534	0.039143756
231	0xbd5e4512	-0.05426509
232	0xbd1fa161	-0.038972262
233	0x3cb98ea5	0.022651026
234	0xbb7918b2	-0.0038009104
235	0xbab37e5d	-0.0013694275
236	0x3c40e92e	0.011774344
237	0xbd0c45f7	-0.03424641
238	0xbd52c437	-0.051456656
239	0xbceb9a29	-0.028760033
240	0xbd13555a	-0.03597007
241	0xbd1c50c9	-0.03816298
242	0xbc283c08	-0.010268219
243	0x3dcb42fa	0.09924884
244	0xbbee1588	-0.0072657503
245	0xbde5907a	-0.11209197
246	0x3dbdd33d	0.09268806
247	0xbd11441e	-0.035465352
248	0xbe0336a5	-0.12813814
249	0x3db7abf1	0.08968342
250	0xbdaceeb7	-0.08443969
251	0xbe20b373	-0.15693454
252	0x392c43ab	0.00016428407
253	0x3bc9f4c8	0.0061632134
254	0x3cf7468e	0.03018501
255	0xbbde5077	-0.0067844945

dense1.4.bn1.weight f4 [72]
0	0x3f26d8d2	0.6517459
1	0x3e9f70eb	0.31140837
2	0x3f2c98b8	0.6742053
3	0x3f75198a	0.95742095
4	0x3f7e6801	0.9937745
5	0x3e2402fd	0.16016765
6	0x3ece2ca4	0.40268433
7	0x3f0552af	0.5207929
8	0x3f9e24ec	1.2355018
9	0x3e5a7675	0.2133425
10	0x3e3ed2b7	0.18635069
11	0x3db12313	0.08649268
12	0x3dfa9e3c	0.12237212
13	0x3ea2c709	0.31792477
14	0x3f3fa0ff	0.74855036
15	0x3f02b344	0.5105479
16	0x3f13efb7	0.5778765
17	0x3f024f5a	0.5090233
18	0x3ea20744	0.31646168
19	0x3ededeb9	0.435293
20	0x3f01120d	0.5041817
21	0x3ea1888a	0.31549484
22	0x3d9946ef	0.07484233
23	0x3e062e91	0.13103701
24	0x3eb3d285	0.3512155
25	0x3f806d7a	1.003341
26	0x3f093dae	0.5360974
27	0x3e3ddb87	0.18540774
28	0x3e7db38c	0.24775523
29	0x3e3fb4f1	0.18721367
30	0x3ec9451c	0.3931054
31	0x3e97e9f6	0.29670686
32	0x3ed7792f	0.42084643
33	0x3eec44bd	0.46146193
34	0x3ee361ae	0.4441046
35	0x3f033177	0.5124735
36	0x3f10e244	0.56595254
37	0x3f8c47a1	1.095936
38	0x3e8d6b34	0.27620852
39	0x3e52fb25	0.20603617
40	0x3ead6b7f	0.33871076
41	0x3dcc8dbf	0.099879734
42	0x3ea4b360	0.32168102
43	0x3f120711	0.5704203
44	0x3e94877b	0.29009613
45	0x3f1eed63	0.62080973
46	0x3f59254d	0.8482254
47	0x3ee1c884	0.44098294
48	0x3eac20d4	0.33618796
49	0x3e2300f2	0.1591833
50	0x3ea43681	0.32072833
51	0x3ecf230a	0.4045642
52	0x3e9e6dd1	0.30943158
53	0x3e5f903c	0.21832365
54	0x3eb0d392	0.34536415
55	0x3e947980	0.28998947
56	0x3f9990ea	1.1997349
57	0x3e8df7d0	0.27728128
58	0x3e3e0a39	0.18558587
59	0x3f165d15	0.5873578
60	0x3e4fc0ba	0.20288363
61	0x3e2a0d73	0.16606693
62	0x3fca5926	1.5808456
63	0x3e677a54	0.22605258
64	0x3e0cd390	0.1375258
65	0x3da2ac21	0.07942987
66	0x3dc69c50	0.09697783
67	0x3f57aa71	0.8424445
68	0x3d880b6a	0.06642802
69	0x3f203b41	0.62590414
70	0x3e980896	0.2969405
71	0x3e2e3629	0.17012848

dense1.4.bn1.bias f4 [72]
0	0xbeffaa0e	-0.4993443
1	0xbcde9c03	-0.027174002
2	0xbe5f2bf5	-0.21794112
3	0x3c5aafa7	0.013347543
4	0xbeabdbb0	-0.33566046
5	0xbc725a9f	-0.014792114
6	0xbdf8c2ee	-0.12146555
7	0xbba147b1	-0.0049218764
8	0x3e04bc84	0.12962538
9	0x3a826ef9	0.0009951285
10	0xbcd6935f	-0.026193319
11	0xbdbab090	-0.09115708
12	0xbd20b195	-0.039231855
13	0xbe0dfe21	-0.13866474
14	0x3cfaa592	0.030596528
15	0xbe9600ad	-0.2929739
16	0xbf0dd5dc	-0.5540445
17	0xbeb4643f	-0.35232732
18	0xbe6c586d	-0.23080607
19	0xbe9cf592	-0.30656105
20	0xbe9427a3	-0.2893649
21	0x3e2685fc	0.16262048
22	0x3cda868f	0.02667549
23	0x3daad156	0.08340709
24	0x3db2b74a	0.08726366
25	0xbd0076b0	-0.03136319
26	0xbe48ff97	-0.1962875
27	0xbe30ea9c	-0.17276996
28	0x3cc983b2	0.02459893
29	0xbd6e2ff5	-0.058151204
30	0xbbceed94	-0.0063149426
31	0xbd7a354b	-0.06108598
32	0xbe017c7f	-0.12645148
33	0xbdeee0e0	-0.11663985
34	0xbd22b345	-0.039721746
35	0x3cfdb604	0.03097058
36	0xbe3a2088	-0.18176472
37	0xbda4a656	-0.080395386
38	0xbee782e2	-0.45217043
39	0xbccabd3c	-0.024748437
40	0xbe484e5d	-0.19561143
41	0xbd923756	-0.07139461
42	0xbd89e8c5	-0.067338504
43	0xbe35b972	-0.17746523
44	0xbc6c434c	-0.014420342
45	0x3da33418	0.079689205
46	0xbde785c4	-0.11304811
47	0x3ee19cf5	0.4406506
48	0x3d0ecd3e	0.034863703
49	0x3d44b889	0.04802755
50	0xbce559fe	-0.027997013
51	0xbd10111c	-0.035172567
52	0x3d6efa24	0.05834402
53	0xbdda7123	-0.1066611
54	0x3d16cda8	0.036817223
55	0xbdda5f70	-0.106627345
56	0xbe6d02fd	-0.23145671
57	0xbc386e67	-0.011256791
58	0x3d56dda7	0.052457478
59	0x3e2bd156	0.16779074
60	0xbcb2ef9b	-0.021842768
61	0xbd0a0c18	-0.03370294
62	0xbe6c256c	-0.2306115
63	0x3d0e6e52	0.03477318
64	0xbc96e144	-0.018417962
65	0x3cc6cc69	0.024267392
66	0xbd13a9c6	-0.03605058
67	0x3bcf1cbe	0.006320565
68	0xbdb02220	-0.08600259
69	0x3e2f2044	0.17102152
70	0x3cb4deda	0.02207892
71	0x3d0fd262	0.035112746
