independent_train_1000.0/client37/checkpoint_1000.0.pth (torch, 930411 bytes, 56 tensors)

conv1.weight f4 [24, 3, 3, 3]
000000 7b c6 44 3e eb 09 c5 be 7a 0b b2 3e f2 6f 86 bf
       0.1921634 -0.3848413 0.3477438 -1.0502913
000010 f2 d7 d5 bf 01 cd 47 bf 3e 3c 4d bf 7c ec bc bf
       -1.6706526 -0.78047186 -0.8017005 -1.4759669
000020 ec 98 12 bf 23 e6 8a 3e 4d 08 d2 3e 50 69 9e 3e
       -0.5726459 0.27128705 0.41021958 0.30939722
000030 72 a4 ea 3e a2 16 36 3f a3 f7 14 3f 75 f5 84 3e
       0.45828587 0.71128285 0.58190364 0.2596852
000040 fa 5b df 3e 37 a0 cf 3e c0 37 11 bf 03 c8 b3 bd
       0.4362486 0.40551922 -0.5672569 -0.087783836
000050 42 88 40 bf 7d a1 08 3f 17 81 9d 3f 1f 9b d3 3e
       -0.7520791 0.5337141 1.230502 0.41329286
000060 58 2b a9 3e 09 d6 74 3f cc c9 7a 3e 16 ab 55 3d
       0.3304088 0.9563909 0.24491042 0.052165113
000070 cb 63 cf 3e a9 d2 30 3e 95 b0 78 bf 7b 9f 8a 3e
       0.40505823 0.1726786 -0.9714444 0.270748
000080 c9 4c a5 3e 46 7c 62 bf 92 a4 e7 bb 01 12 9d 3e
       0.32285145 -0.88470876 -0.007069179 0.30677798
000090 89 5c 8a be 37 a6 bb 3e ba b2 45 be f4 65 5b bf
       -0.27023724 0.3665025 -0.1930646 -0.85702443
0000a0 eb 72 3e 3f 5f 1a e3 3e c1 1f 58 bf 38 6d e1 3e
       0.743941 0.44356057 -0.8442345 0.4402864
0000b0 63 ef dd 3e 64 18 a8 be 5a 59 ba 3d 02 d6 ff be
       0.433467 -0.3283111 0.09099074 -0.49967963
0000c0 81 55 08 bf 45 aa 3a 3f 3e 7e 68 3e b9 ba f5 be
       -0.5325547 0.7291606 0.22704408 -0.4799402
0000d0 00 0b 21 3f e3 5b b1 3e 50 08 11 3d 95 76 76 be
       0.6290741 0.34640417 0.035408318 -0.24068673
0000e0 7e 6c 2d 3c a3 c7 dc be 48 50 36 bf 92 5d da be
       0.010584949 -0.4312106 -0.7121625 -0.42649513
0000f0 34 a5 7c be ee 75 07 bf ed c1 89 be ab e1 80 3e
       -0.24672395 -0.5291432 -0.26905766 0.2517217
000100 ae 72 ae 3e 50 00 8c 3e 7e d2 5f 3e a9 ea b4 3e
       0.3407187 0.27343988 0.2185764 0.35335281
000110 cf 1f 93 3e af aa 4f 3e 08 ea 9b 3e 6f df 83 3e
       0.28735206 0.20279954 0.3045199 0.25756404
000120 58 dc bb bc f2 f5 76 3e a3 da 21 bd b6 8a 89 3e
       -0.022932217 0.24117258 -0.03951515 0.2686364
000130 9f b7 20 3f b0 99 8c 3e 04 87 f3 3d 9a a1 db 3e
       0.62780184 0.27461004 0.118909866 0.4289673
000140 12 26 c9 3d 10 d1 43 be 7a ab 8f bf 01 c2 05 bf
       0.098217145 -0.1912272 -1.1224205 -0.5224915
000150 bf 39 db 3d a9 d1 2d 3d d0 28 9f 3e 20 60 38 3c
       0.107043736 0.042436276 0.31085825 0.011253387
000160 5c d5 2b 3f 9a a5 0a 3f 8e ca 77 be fb ec 97 bf
       0.67122436 0.5415894 -0.24198362 -1.1869196
000170 91 03 47 bf 86 04 9c 3e c0 69 76 3e 48 33 9c 3e
       -0.77739817 0.304722 0.24063778 0.30507874
000180 1e aa 55 3e 8e c6 68 3f 41 02 10 3f a0 38 85 be
       0.20865676 0.9092797 0.5625344 -0.26019764
000190 d8 a4 94 bf d7 7e 4d bf 94 9e 7a 3e 7e 49 9a 3d
       -1.1612806 -0.8027167 0.24474555 0.07533549
0001a0 4b 33 13 3e 0b 07 be 3e 6e 84 60 3f c6 5c 1c 3f
       0.14375035 0.37114748 0.8770207 0.6107906
0001b0 34 3e 50 bf 87 35 31 bf fb d1 73 bf 49 44 24 3d
       -0.81344914 -0.692223 -0.9524228 0.040104184
0001c0 c3 c1 1b 3f 2b 05 17 be 51 ec 16 3f 6d 5a 8c 3f
       0.6084253 -0.14748065 0.5895434 1.0965096
0001d0 d7 e4 c3 3e 97 c1 a6 3d 3e d3 c3 3e 25 d3 24 3b
       0.38260528 0.08142393 0.38247102 0.0025150266
0001e0 ed 09 aa 3e 83 21 7a 3f d2 ff 57 3e 35 2a f3 3d
       0.33210698 0.97707385 0.21093681 0.11873285
0001f0 92 d8 1a 3f 50 77 67 3c c3 a1 10 3f 52 fe 49 3e
       0.6048671 0.014127567 0.5649683 0.19725922
000200 51 a1 5a 3f 5c b3 46 bf 8f 3b 82 bf f4 f9 b8 be
       0.854024 -0.7761743 -1.0174426 -0.361282
000210 30 95 81 bf 6f c5 b6 bf d9 b7 19 bf 79 a1 ef bc
       -1.0123653 -1.4279002 -0.60046154 -0.0292518
000220 7d b3 f5 be 8c ab ff bc 08 f7 34 bd 34 42 55 3e
       -0.479885 -0.03120973 -0.0441809 0.20826036
000230 cd 8f 84 3e c2 b1 6e be b3 75 a2 be 58 e3 6a be
       0.2589096 -0.23309997 -0.31730422 -0.22938287
000240 c7 9e 42 be b0 a8 bd be 2a 5e 80 be d0 79 82 3e
       -0.19005881 -0.3704276 -0.2507184 0.2548356
000250 ef 13 66 3f 6b 26 13 3f 8c bd 7e bd 19 5e 84 3e
       0.89874166 0.57480496 -0.062192485 0.2585304
000260 a2 9a ec bc 61 a0 06 bf 22 6a 31 bf 84 12 32 bf
       -0.028882328 -0.5258847 -0.6930257 -0.695595
000270 9d 60 32 3e d7 9e 43 3f 97 18 b4 3e d9 1e 07 3e
       0.17419668 0.76414245 0.3517501 0.13195361
000280 2c d0 f8 3e 22 4c 1a 3e b0 62 25 3f 0a b7 a9 3d
       0.48596323 0.15068105 0.6460371 0.08286865
000290 92 c4 a4 be 99 e9 a1 3f 99 d0 4a be 0f d0 bd bf
       -0.3218122 1.2649413 -0.19806136 -1.482912
0002a0 88 c7 3a 3e 5e 04 36 bd 33 81 f7 bd 63 cb 86 3f
       0.18240178 -0.04443776 -0.1208519 1.0530819
0002b0 eb eb 6a 3d e9 4f 5e bf 5c fe eb 3f 64 0f 5c bd
       0.057353895 -0.86840683 1.8436999 -0.053725615
0002c0 e5 fb f6 bf 34 da 27 3f 89 c8 c2 3d 7c 0e db be
       -1.9295622 0.65567327 0.09510905 -0.42784488
0002d0 10 f6 ee 3e f8 73 9c 3c 77 0b ea be de bb 98 3f
       0.46672106 0.019098267 -0.45711872 1.1932333
0002e0 66 56 54 bd 42 3f b6 bf b8 51 a6 3e b3 e5 ec 3d
       -0.05184021 -1.4238055 0.3248422 0.11567249
0002f0 c8 6b 3c be 2e 89 0d bf 2f 11 50 bd 81 28 d0 be
       -0.1840049 -0.55287445 -0.050797638 -0.40655902
000300 95 fa 51 be 0b d7 5c 3e 92 61 12 3e 83 38 18 be
       -0.20505746 0.21566407 0.14295033 -0.14865308
000310 25 4d 81 be 39 56 d9 3e be 66 8c 3e 7d 56 64 3f
       -0.2525417 0.42448595 0.27422136 0.8919447
000320 97 be a5 3d 97 4c 92 3e c7 4b 52 3f b4 3d b2 3e
       0.08092993 0.28574058 0.8214688 0.348127
000330 35 56 1e bf f4 41 20 bf f3 6d 2f be c9 81 91 3e
       -0.6185029 -0.62600636 -0.17131786 0.2841933
000340 34 c4 3e 3f 74 06 62 bd 07 55 d4 3e 2b 60 47 3f
       0.7451813 -0.055181935 0.4147112 0.77881116
000350 ab fc 1d 3e 51 20 38 bf bd 12 54 bf 38 18 27 bf
       0.15428416 -0.7192431 -0.8284109 -0.6527133
000360 e8 61 67 3f db fc eb 3f 1e bc 9a 3f c4 64 1e 3d
       0.9038377 1.843654 1.2088659 0.038670316
000370 7b 1a 38 be fc 94 bc bc 5a 83 47 bf 07 4b e8 bf
       -0.17978851 -0.02302026 -0.779348 -1.8147897
000380 1c 9f 5c bf e3 ff 0d 3f 82 f5 af 3f b6 bc 10 3f
       -0.8618028 0.5546858 1.3746798 0.5653795
000390 38 af 00 3e 08 ef 07 be 6e 40 58 be 1f cf f5 be
       0.1256684 -0.13274777 -0.21118328 -0.48009583
0003a0 d0 ae bf bf fd 69 39 bf 99 5d 54 be 1d 86 2b 3f
       -1.4975224 -0.7242735 -0.2073883 0.67001516
0003b0 ab 14 13 bc 0f 03 da 3d 53 6b 41 3e 5f 8e 93 3d
       -0.008977096 0.10645115 0.18888597 0.072048895
0003c0 f2 5e 47 bd 0f a2 17 bf 2f 9a 0e bd 61 f4 c8 be
       -0.04867453 -0.59231657 -0.03481501 -0.39248946
0003d0 de a6 cc bd 01 59 34 3f 5a 06 04 3f c6 4f 8e 3e
       -0.09992765 0.7044831 0.5157219 0.27795237
0003e0 e0 33 ec bf ae 60 f2 bd b1 b2 56 3f 08 bf c9 be
       -1.8453331 -0.118348464 0.8386641 -0.39403558
0003f0 8c f7 20 bf 1e 62 00 3e 7e d8 47 3f 90 7a 0b 3f
       -0.62877727 0.12537429 0.78064716 0.5448389

dense1.0.bn1.weight f4 [24]
000000 d8 f6 e9 3e fe fa 81 3f c4 62 1a 3f 9a ea 4a 3f
       0.4569614 1.0154722 0.60306954 0.79264224
000010 e1 3e 24 3f 8f fa 86 3f b3 b3 20 3f d1 7d 85 3f
       0.64158446 1.0545214 0.627742 1.0429021
000020 bf c9 30 3f e1 ec da 3f 95 d1 f5 3f 11 dc 1d 3f
       0.6905784 1.710354 1.9204584 0.6166392
000030 ab aa 78 3f 9e 5d c6 3e 2b 18 26 3f 37 0c 07 3f
       0.9713542 0.387433 0.6488063 0.52753013
000040 17 03 db 3e a5 10 bb 3e 63 67 25 3f 33 1f d2 3e
       0.42775795 0.36536136 0.6461088 0.41039428
000050 cd a9 53 3f ad c5 2b 3f 8d 98 b8 3e e2 33 00 3f
       0.8268097 0.67098504 0.36053887 0.50079167

dense1.0.bn1.bias f4 [24]
000000 35 5a 26 be 47 33 14 3f 68 bf cd be 4b 50 da 3e
       -0.16245349 0.57890743 -0.40185094 0.42639384
000010 33 9d ad 3e 0c 1f bd 3e 4d 9a 08 3f d9 d0 cf 3e
       0.33908996 0.3693775 0.53360444 0.40589026
000020 45 a9 f3 3e 4e 54 74 3f 95 f3 89 3f 4e 3b 4f 3d
       0.4759008 0.9544114 1.077746 0.050593667
000030 d5 14 97 3e 6a d6 46 3e e1 b5 80 3e 7b 3b 19 bf
       0.2950808 0.1941773 0.25138763 -0.59856385
000040 4f d2 66 be 8f 48 33 be 63 9a eb be 12 72 84 be
       -0.22541164 -0.17508148 -0.46016225 -0.2586828
000050 d3 d1 1f bf 83 47 0c bf cf 13 d1 3e b2 dc 73 bd
       -0.6242954 -0.5479662 0.40835425 -0.059536643

dense1.0.conv1.weight f4 [12, 24, 3, 3]
000000 59 f7 fe bb 6e 1a e9 3d ae 09 f8 bc ba 8b 54 3c
       -0.007780951 0.11381994 -0.030278053 0.0129727665
000010 11 c8 13 3e a0 29 58 3c 5c 86 9f bd c4 9c e2 3c
       0.14431788 0.013193518 -0.07789299 0.027662642
000020 9f 24 b0 bd 01 36 6b 3e c0 e8 b3 3e 93 f6 a2 3e
       -0.08600735 0.2296982 0.35138512 0.31828746
000030 7b a6 a5 3d 89 a3 8f 3e 54 71 9f 3e 16 42 9a be
       0.08088394 0.28054455 0.3114115 -0.30128545
000040 f5 da bd bd 82 9e a1 bd fa 81 c9 3c 48 bb e9 3d
       -0.09270278 -0.07891561 0.02459811 0.11412674
000050 7b e1 1d bc 1c 19 ec 3d 58 fd 39 3e a3 48 74 3d
       -0.009636278 0.11528227 0.18163049 0.059639584
000060 1f c3 e4 3d 41 45 35 3e 92 10 bf 3d a9 0b a6 bb
       0.11170029 0.177022 0.093293324 -0.005067308
000070 9b de d0 3d 67 d7 1a 3e 77 ce 96 bc 88 b8 23 3e
       0.101987086 0.15121232 -0.018408997 0.15988362
000080 b9 ef 55 3e 68 df 9f 3d db e2 65 3e 85 b0 5d 3e
       0.20892228 0.07806283 0.2244982 0.21649368
000090 c9 86 80 bc e2 c9 5a be ae fb 57 be df 24 9e 3e
       -0.01568927 -0.21366075 -0.21092102 0.30887505
0000a0 b3 33 ff 3d b0 38 42 3d 1c 3f 1e 3f 1d 8e 00 3f
       0.12461033 0.047417343 0.6181505 0.5021685
0000b0 5e 31 b9 3e cc 5d 99 3e 66 b1 f5 3e cd 15 7c 3e
       0.36170477 0.29954374 0.47986907 0.24617691
0000c0 9a 50 0e 3e 89 6f b7 3e 0f 5b 14 3e 39 47 5e be
       0.13897935 0.35827282 0.14487861 -0.21706857
0000d0 76 90 9d 3c bd 33 e5 bd 86 15 04 3e c7 d6 08 3e
       0.019233923 -0.11191509 0.12898836 0.13363181
0000e0 e4 4c 87 3e 96 88 70 3e f4 93 62 3e cb 88 4d 3e
       0.2642585 0.23489603 0.22126752 0.20071714
0000f0 72 1c 47 3d 49 fb 2c be 79 86 07 be 3a af 04 bf
       0.048611112 -0.16892733 -0.13234891 -0.51829875
000100 f2 15 5b be 59 6d 3f be 65 6a 73 3d 64 29 df 3e
       -0.2139509 -0.18694057 0.059427638 0.43586266
000110 00 f6 bf 3e 55 b6 06 3e 03 40 09 3f 45 ae cf 3e
       0.3749237 0.13155492 0.536133 0.40562645
000120 e1 3d 8f 3d 10 a0 79 3e e3 f1 d3 3d 2f 48 91 3d
       0.06994224 0.24377465 0.103488706 0.07093846
000130 26 57 61 3e e5 50 da 3d b8 c3 70 be b2 78 1e be
       0.220059 0.10659961 -0.23512161 -0.15475729
000140 8f d7 00 be de 41 09 3e 30 20 ca 3d f6 71 a4 be
       -0.12582229 0.13404033 0.098694205 -0.32118195
000150 4c 1a 04 3f 8c 7f f6 3e 12 dc fc bd 64 7f 19 3e
       0.51602626 0.48144186 -0.123466626 0.14990002
000160 af 44 c2 3d d4 a3 45 be b0 d8 a1 bd 75 1a cc 3d
       0.094857566 -0.19300777 -0.07902658 0.09965984
000170 c0 ba 86 bd 5f d3 b2 bb 92 7b 91 3e df a5 7d 3d
       -0.065785885 -0.0054573263 0.2841459 0.061925765
000180 0b b5 6f be 35 e2 80 3e 80 a1 9a 3d e5 92 d3 be
       -0.23408906 0.25172582 0.07550335 -0.4132301
000190 65 15 7a be 02 bb 1a 3d 04 31 50 be 50 d1 40 bb
       -0.24422224 0.037776 -0.20331198 -0.0029421635
0001a0 f0 64 72 3e 2e 95 4c 3e ec d8 df 3e b2 80 0c 3f
       0.23671317 0.19978783 0.43720186 0.54883873
0001b0 ee 7e 95 be 0b de a4 be 99 3f 47 bd 80 e1 c1 be
       -0.29198402 -0.32200655 -0.048644636 -0.37867355
0001c0 22 3f d7 be 38 71 07 be 08 e1 42 be 24 70 67 be
       -0.42040354 -0.13226783 -0.19031155 -0.22601372
0001d0 3e 23 29 bb 69 be 2a be 5e b1 7a be c8 88 d5 bc
       -0.002580836 -0.16674198 -0.24481723 -0.026066199
0001e0 d4 ad 8a be ab ef c3 be 48 93 0d be 32 ff d0 bd
       -0.27085745 -0.3826879 -0.13825715 -0.10204925
0001f0 74 7c 42 be ec ab fa ba 87 e0 1c be 5f d0 58 be
       -0.18992788 -0.0019124723 -0.15320025 -0.21173237
000200 6c 37 83 be 64 20 0e be df 59 17 be df 99 4f be
       -0.2562822 -0.13879544 -0.14780377 -0.20273541
000210 e0 e7 cb bd 63 9c 02 be 30 4b 69 be 88 25 c7 bb
       -0.09956336 -0.1275497 -0.22782588 -0.006077472
000220 e6 33 5e bb 61 65 89 3c ab eb ee bd 53 09 da bd
       -0.0033905446 0.016771974 -0.11666044 -0.1064631
000230 5d dc 8d bd 0a 5a 12 be 97 30 ef bd 94 fa b9 bd
       -0.069267966 -0.1429216 -0.1167919 -0.09080997
000240 e5 c9 b3 3c df 50 af bd 98 d3 87 3c d0 3b 7c bd
       0.021946857 -0.08560347 0.016580388 -0.06158048
000250 25 95 60 be c9 a0 0e be 99 a6 46 3d ae d5 00 be
       -0.21931894 -0.13928522 0.048498724 -0.12581512
000260 a7 e7 8f bd 20 4d 8f bd 0c 1c f9 bc 6d 0a 07 be
       -0.07026606 -0.06997132 -0.030408882 -0.13187571
000270 2b 9c 54 bc e0 5e be 3b f6 83 c5 bd e7 42 83 bd
       -0.0129766865 0.00580965 -0.0964431 -0.06409245
000280 02 9e 32 bd 3a c4 11 be 88 f3 51 bc d0 e7 f5 bd
       -0.04360772 -0.1423501 -0.01281441 -0.12007105
000290 0c 5a b8 bd 83 fd 27 be 33 25 89 be fb 6d 75 be
       -0.0900155 -0.16405301 -0.26786193 -0.23967735
0002a0 3c 87 ef bc c6 58 d9 bd a6 13 90 bd 18 0c da bd
       -0.02923929 -0.10612635 -0.07034998 -0.10646838
0002b0 b2 93 94 bd 78 76 5d bc 4b e4 15 be 08 9e e1 bd
       -0.07254733 -0.013517015 -0.14637868 -0.1101647
0002c0 ee 63 36 bd 30 43 5f bd 2a 10 13 bd 76 81 fe 3c
       -0.044528894 -0.054507434 -0.035904087 0.031067591
0002d0 18 35 0b bd cf 7e 04 bc 8b e5 1e be 77 90 99 bd
       -0.03398618 -0.008086874 -0.15517251 -0.074982576
0002e0 5a 4a dd bc 1f 0e b7 bd a7 b6 da bd a0 3a 9c bc
       -0.027012993 -0.0893824 -0.106793694 -0.019070923
0002f0 86 5c e5 bd e4 ad 00 be ef ee 93 bd cf 7f 52 be
       -0.11199288 -0.12566334 -0.07223307 -0.20556568
000300 3a f0 0d bd 46 83 b4 3c f6 63 10 be 63 ac 37 bd
       -0.034652926 0.022035252 -0.14100632 -0.044842135
000310 da 89 2f 3c de 1a f8 bd 82 b5 d5 bd 55 14 1e be
       0.010714019 -0.121144995 -0.104350105 -0.15437444
000320 b8 57 7a be 23 7f 00 be c3 2d 3e be fa b0 9a be
       -0.24447525 -0.12548499 -0.18572144 -0.30213147
000330 d9 dd 71 be a7 3b 95 be 50 7e d9 be 05 6a 8d bd
       -0.23619784 -0.29147074 -0.4247918 -0.06904987
000340 40 68 7c bd eb 7c 5a 3d a8 50 04 be fb 5d 01 be
       -0.061622858 0.053341787 -0.12921393 -0.12633507
000350 93 12 0c 3c d7 91 a5 3c 27 b5 23 3d 6f fb 09 3e
       0.00854935 0.020211143 0.039967682 0.1347482
000360 e9 4d 09 bd 52 8f 84 bd 33 f7 fb bc 58 b3 e0 bc
       -0.033521567 -0.06472649 -0.030757522 -0.027429268
000370 e7 e5 d9 bd 59 64 5b bd bf 49 04 3e 71 2f ae 3d
       -0.106395535 -0.053562496 0.12918757 0.085051425
000380 3c f3 af 3d d2 0b 9a 3c 98 97 a8 3d f0 07 43 3e
       0.08591315 0.018804464 0.08232039 0.19045997
000390 6f ec 13 be 1d 6c 8a bc 49 84 df 3d 12 b5 78 3d
       -0.14445661 -0.016897256 0.10913903 0.060719557
0003a0 ac fd 03 3d e9 d4 ec bd 22 ed 93 bd 50 c8 87 bd
       0.032224342 -0.11564047 -0.07222964 -0.066300035
0003b0 b3 d5 db bc 6e cf ab bd 9c fb cf bd be 6f 69 bd
       -0.026835298 -0.083891734 -0.101554126 -0.05699133
0003c0 a1 c2 95 bb 45 59 af bc 85 87 69 3c d1 dc 03 bf
       -0.0045703207 -0.021404872 0.014253502 -0.51508814
0003d0 a4 48 29 bf 82 c1 b8 be 36 61 31 be 8a 10 06 3c
       -0.66126466 -0.36085135 -0.1732224 0.008182654
0003e0 62 d2 4c bd 9a 34 e8 3e 4d 0e 34 3f b0 c9 4d 3e
       -0.050005324 0.45352632 0.7033432 0.20096469
0003f0 ab 7e 29 be 26 21 85 be 9a 65 ff bd 5a 0d 79 3d
       -0.16552226 -0.26001853 -0.12470551 0.06080375

dense1.1.bn1.weight f4 [36]
000000 29 d0 18 3f 5a d7 cb 3e b3 bb 92 3e 5c 95 b1 3e
       0.5969263 0.39812738 0.28658828 0.34684265
000010 d8 6c 15 3f 12 f9 ce 3e 50 4e e3 3e 01 e6 9d 3e
       0.5836921 0.404244 0.44395685 0.30839542
000020 60 be 9b 3e f9 cd f3 3e 74 86 c4 3e 20 43 90 3f
       0.30418682 0.47618082 0.3838383 1.1270485
000030 32 17 04 3e f7 a8 27 3e da aa a2 3e 87 0b 3c 3e
       0.12899473 0.16373049 0.31770974 0.18363772
000040 e1 17 9c 3f c2 7f 7b 3f 11 1e ea 3e 6b 71 18 3f
       1.2194787 0.9824182 0.45726064 0.5954806
000050 bb f4 2a 3f 54 50 72 3f 51 0b a1 3e 02 b2 a9 3e
       0.6677968 0.9465382 0.31453946 0.33143622
000060 74 19 02 3f 22 1a 53 3f d9 1a 6a 3f 31 b0 95 3f
       0.5082009 0.8246175 0.91447216 1.1694394
000070 2a 15 0d 3f 7a 57 27 3e 7e b4 73 3f 44 14 9e 3f
       0.5511042 0.16341963 0.95197284 1.2349935
000080 84 8c 3f 3f ea 06 16 3f 4d bb ce 3e b7 93 48 3f
       0.74823785 0.586043 0.40377274 0.78350395

dense1.1.bn1.bias f4 [36]
000000 23 1e 53 3e 59 66 29 be b5 ec 34 be 3a 43 b1 be
       0.20616965 -0.16542949 -0.17668422 -0.34621602
000010 a8 96 c2 3e 8f 07 30 be 9d 6f 69 3b 59 95 bb bd
       0.38005567 -0.17190383 0.0035619505 -0.09159345
000020 02 4b cb 3d bb 0e 82 bc e5 03 76 3c aa 96 a6 bd
       0.09926416 -0.015876165 0.015015577 -0.08134206
000030 83 fa af bb 39 cb 34 be 09 4c 36 be 9d 49 2b be
       -0.0053704395 -0.17655648 -0.17802443 -0.167273
000040 79 d0 7f be fe f6 aa 3e bd 7f ac be d8 24 d5 be
       -0.2498187 0.33391565 -0.33691207 -0.41629672
000050 7d 65 ca be 22 a0 ea be f1 1e 82 3d 52 94 73 be
       -0.39530554 -0.45825297 0.06353558 -0.23787048
000060 f1 d3 79 be 13 5c 50 3f a4 35 c9 3e 72 7d a5 3d
       -0.24397255 0.81390494 0.39298737 0.080805674
000070 6a 39 80 be 50 16 34 be a4 fd 20 be 8d 39 2f 3f
       -0.25043803 -0.17586637 -0.15721756 0.6844719
000080 d9 7c 73 bd 89 96 15 be 9a 20 ce bd cb 3b 6e 3e
       -0.059445236 -0.14608206 -0.10064812 0.23264997

dense1.1.conv1.weight f4 [12, 36, 3, 3]
000000 08 9f a2 bd 37 cf 48 3e ce 75 ed 3e 9b 2f 80 be
       -0.07940489 0.19610296 0.4637894 -0.2503632
000010 a1 af a2 3c c7 e4 a4 3e 43 18 9d be e7 b8 2a be
       0.019859137 0.32205793 -0.30682573 -0.16672097
000020 f2 25 f1 3d 4b 36 de bc 37 7f ea bc e0 ce 4b be
       0.117748156 -0.027125498 -0.028625114 -0.19903135
000030 62 5e a4 bd 2e b2 98 bc 3e f0 10 be 4d 1a 04 bd
       -0.080258146 -0.01863965 -0.14154145 -0.032251645
000040 0a d2 1b bd 05 56 a0 bc 00 d1 7b bd b6 7e 41 3d
       -0.038042106 -0.019572267 -0.061478615 0.04723998
000050 86 66 18 3e 39 1b 9f bd a2 6d 41 3d 7e 57 06 3e
       0.1488286 -0.07768864 0.047223695 0.13119313
000060 8f c0 5c bd bb 7c 03 3d f3 e1 f1 3d 4b ea 76 bd
       -0.053894576 0.032101374 0.118106745 -0.060282033
000070 6b d1 9d bb 53 85 81 3d 23 fc cd 3c ce e4 c7 bc
       -0.0048162243 0.06324258 0.025144642 -0.024401095
000080 71 13 88 3d 43 5d db 3d cf 28 02 3d 36 bd eb 3d
       0.06644333 0.10711148 0.0317772 0.115106985
000090 6e 7c 03 be f0 a3 e5 3e 42 7e 72 3e 6b 05 38 be
       -0.12840435 0.44851637 0.23680976 -0.17970817
0000a0 8b d7 95 3e 16 db ba 3d 46 49 2b be ef b8 2e bd
       0.2926601 0.091238186 -0.1672717 -0.042656835
0000b0 5a 46 40 be 34 3b fb bc 4a 1d 28 bc 4d 79 c1 3b
       -0.18776837 -0.030667879 -0.010260889 0.0059043528
0000c0 26 5e 1c bd 84 44 35 bd 26 ac f2 bb c0 99 c4 bb
       -0.038175724 -0.044254795 -0.0074057756 -0.0059997737
0000d0 2f 54 d7 bc 01 3e 02 3d f0 19 14 be 94 3f 4b be
       -0.026285259 0.031797413 -0.1446302 -0.19848472
0000e0 02 36 d2 be 65 bd 26 be a8 43 b0 bd 18 bd 02 be
       -0.4105683 -0.16283186 -0.086066544 -0.12767446
0000f0 59 c4 b5 3c 9f 95 d2 3d a7 a9 bd be 96 1a 02 3d
       0.022188352 0.10282444 -0.37043497 0.031763636
000100 94 35 70 3d 39 77 60 bc db 50 a2 bc fa b0 19 3d
       0.058644846 -0.0137003 -0.019813946 0.037522294
000110 12 f1 59 bd 0d da f4 bc df 0c 30 bc b3 91 df bc
       -0.05320842 -0.029889131 -0.010745256 -0.027291154
000120 f2 40 81 3c 28 99 28 be b0 e9 4c 3d de 6c 41 be
       0.015778039 -0.16464674 0.05002755 -0.18889186
000130 10 d6 2c 3c 49 14 b4 3d 46 e3 a1 bd c3 41 df 3d
       0.010549083 0.087929316 -0.07904677 0.10901215
000140 35 2d ca bb a7 0c e0 bd e7 e3 33 3c 78 ef ce bd
       -0.00616994 -0.10939913 0.010979629 -0.10104269
000150 8c e9 18 be 1b 6b e3 bc 7d 05 b1 bd 3a 9d 4c bd
       -0.14932841 -0.027761033 -0.08643625 -0.04995463
000160 fc 61 77 bd d7 f0 60 be cd 45 6c be 38 0e f9 3d
       -0.06039618 -0.21966873 -0.23073502 0.12160915
000170 d0 5a b7 bc 8c bb 50 be b0 1f 85 3d e4 2d fb bd
       -0.02238217 -0.20384043 0.065001845 -0.12264612
000180 a8 f4 08 3b b4 96 1a be 3a 9c b0 3c 3a f8 15 ba
       0.002089778 -0.15096551 0.02155887 -0.00057208876
000190 0e f9 93 3d 7a 94 35 3e 12 73 cf bd 72 37 33 bd
       0.07225238 0.1773242 -0.1012937 -0.04375405
0001a0 ff d7 f2 3d 17 f5 a8 bc 25 48 ba bd 6c b5 62 3d
       0.11857604 -0.02062468 -0.09095792 0.0553488
0001b0 cb 29 1c bd a4 f1 dc 3a aa 0e 4f bd 13 9f 36 bd
       -0.038125794 0.0016856682 -0.050551094 -0.0445853
0001c0 c5 e1 d5 3c b3 da d5 bc d2 ac 12 bc a1 ca 2b 3b
       0.026108632 -0.02610526 -0.008952336 0.0026213306
0001d0 ed 73 5b bc 33 f6 49 bb 60 32 19 3d 50 ec 5a bb
       -0.013394338 -0.0030816912 0.037401557 -0.0033405013
0001e0 6a 23 14 bc 2f f5 30 3d fe 2a 01 bc 14 20 9c bc
       -0.0090416465 0.043202575 -0.007883785 -0.019058265
0001f0 76 8a a8 bb 0e 12 d4 bc fc a2 83 bd c2 09 50 bc
       -0.005143459 -0.025887515 -0.06427571 -0.012697639
000200 33 af 14 3d 7d 31 ec 3c 07 e2 79 bc b9 a4 cf 3c
       0.036299895 0.028832192 -0.015251643 0.0253471
000210 a3 30 f1 3d ea e9 38 3c 5c 3e 97 3d a7 d0 68 3d
       0.11776855 0.011286238 0.07384941 0.05683961
000220 53 cd ce 3c be f3 53 ba 04 27 29 3d 9d bb 64 3c
       0.02524439 -0.00080853316 0.041296974 0.013960746
000230 6b a9 64 bb 17 ee eb 3c 83 20 90 3c 7a 75 06 3d
       -0.003489102 0.028800054 0.017593628 0.032826878
000240 f7 b4 1b be ac 40 4e bc ff 89 33 be 6c ed 9b bd
       -0.15205751 -0.012588661 -0.1753311 -0.07613644
000250 97 a0 84 3e 25 67 a4 3d 0a 63 5d 3c 77 b0 4c 3e
       0.2590377 0.08027486 0.013512382 0.19989191
000260 64 61 33 3b 23 df d4 3d eb f6 c9 3e 7f 7b ab 3e
       0.0027371282 0.103941225 0.39446196 0.33492658
000270 12 93 08 be 7b 5e 42 3e a4 58 54 3e e3 a5 aa be
       -0.13337353 0.18981354 0.20736939 -0.33329687
000280 2f 3a 20 be c4 33 25 be c0 ae 18 3e d9 dc 16 3e
       -0.15647195 -0.16133028 0.14910412 0.14732684
000290 05 19 19 3d a9 40 97 3c 43 77 dc 3d 88 87 95 3d
       0.037377376 0.01846345 0.10764935 0.07301241
0002a0 fe 7d a3 bd fc 14 0c 3d 57 89 c7 3d 3c d8 11 be
       -0.079830155 0.0341997 0.09742992 -0.14242643
0002b0 41 a1 40 3d 50 69 1f 3e 4e 73 22 bd d9 3e db 3d
       0.047028784 0.15567517 -0.039660744 0.107053466
0002c0 f6 9f 22 3e eb 63 30 3c 26 e4 bf 3d cd 5a ad 3d
       0.15881333 0.01076601 0.09369688 0.084645845
0002d0 a7 d8 0c be ea ee a3 be 7e 8a 3a be 65 e3 01 be
       -0.13754521 -0.32018214 -0.18216893 -0.126844
0002e0 07 7d 8f be 58 4b cd bd 86 8a e5 bc 60 28 6f be
       -0.28025076 -0.10024136 -0.028020155 -0.23355246
0002f0 74 e4 ea 3d ae b4 ef bd 1e df d8 3d ee 25 62 3e
       0.11469355 -0.11704384 0.10589431 0.22084782
000300 1a 8c 07 be 2c f5 bf 3d 61 d1 7b 3e 5d 14 a4 bd
       -0.13237038 0.09372935 0.2459159 -0.080116965
000310 f0 9f b1 3d 63 93 61 3e 84 54 a4 3c c5 0a 84 3d
       0.08673084 0.2202888 0.020059831 0.064473666
000320 60 1b 68 3c 31 a6 73 3d 1c 87 89 3d cf 57 81 3c
       0.014166683 0.059484664 0.06715223 0.01578894
000330 00 52 5e 3d aa a8 88 3d 7e 27 db 3c c8 0c cf bd
       0.05427742 0.06672795 0.02675223 -0.1010986
000340 9e 98 b3 3c dc 6f 74 3d 8d a7 a0 bc 38 43 b3 3d
       0.02192336 0.05967699 -0.019611144 0.08753055
000350 28 5c e1 3d d3 b5 03 3c 05 69 90 3d ea 6d 5a 3d
       0.110039055 0.008038956 0.07051281 0.05332748
000360 28 f5 fe 3d b0 66 00 3d 3c f9 e2 3d 74 a5 10 3b
       0.124491036 0.03134793 0.11082694 0.0022071274
000370 2d 5a 4b bd 3d 62 1f 3e 55 32 f4 3c f8 27 d6 bc
       -0.049646545 0.15564819 0.029809156 -0.026142105
000380 f3 97 1c 3d a2 11 ba 3d 0f 1a 1b 3e 43 36 78 be
       0.038230848 0.090853944 0.1514666 -0.24239449
000390 41 d3 db 3e 52 81 b4 be de 49 09 be bf a0 5f bd
       0.4293461 -0.35254914 -0.13407084 -0.05459666
0003a0 aa 6d 96 3d cd 73 9e 3e bd 55 9c 3c 04 4f b7 be
       0.073451355 0.30947724 0.019083852 -0.35802472
0003b0 b1 6b 50 3d b6 5e fb be 29 d3 2b 3e aa 85 d5 3e
       0.050883953 -0.49095696 0.1677977 0.4170354
0003c0 91 52 e3 3c d4 c6 cb 3e a3 2e a6 3c 2f c6 83 be
       0.027749332 0.3980013 0.02028591 -0.2573714
0003d0 69 68 a6 be bb 1f 83 3d 4d 30 7e bf c3 df 85 3f
       -0.32501534 0.064025365 -0.9929245 1.0458912
0003e0 1e cc b3 3e da fc db 3e 9c b7 83 be 64 53 a0 be
       0.35116667 0.42966348 -0.2572602 -0.31313622
0003f0 b7 d2 0b 3d 8f 10 70 3d 09 76 d7 3d 17 b2 83 3d
       0.0341365 0.05860954 0.1052056 0.06430452

dense1.2.bn1.weight f4 [48]
000000 8a 6f f6 3e 85 e7 2e 3e 10 8c 94 3e 8a 99 12 3f
       0.48131973 0.17080505 0.2901311 0.5726553
000010 6d 79 54 3f f2 38 20 3e 2d 12 cb 3e 2b 23 b6 3e
       0.8299778 0.15646723 0.39662305 0.35573706
000020 0c 0a 84 3e ca 36 a6 3e 7d d8 70 3e ce 59 32 3f
       0.25788915 0.32463676 0.23520084 0.6966828
000030 4c d7 c6 3d ea fd 85 3e f7 ac 06 3e fd 44 ee 3e
       0.09709033 0.26170284 0.13151918 0.4653701
000040 e0 a5 87 3e 69 f5 fc 3e 1e e2 2b 3f 4c 34 51 3e
       0.2649374 0.49405983 0.671419 0.20430106
000050 c7 00 3a 3f 83 e0 6a 3d 2a e6 aa 3e 4d 6b 1b 3e
       0.72657436 0.057343017 0.33378726 0.15177651
000060 48 7f 18 3f 7a b6 fb 3e 51 bf 78 3e 00 11 78 3f
       0.59569216 0.49162656 0.24291731 0.9690094
000070 0e 0c 4a 3d 29 88 18 3e 8f 07 23 3f d0 64 56 3f
       0.049327902 0.14895691 0.6368341 0.8374758
000080 02 6c a0 3e 1b 3c 6a 3e 9d 47 9f 3e 69 5b 30 3f
       0.31332403 0.22874491 0.31109324 0.6888948
000090 da ba b6 3f 11 09 7e 3f 91 10 92 3e 09 57 29 3f
       1.4275773 0.99232584 0.28528264 0.6614843
0000a0 6d 27 5c 3f ee 9e f3 3e c4 3f bd 3e 4b e7 86 3f
       0.8599766 0.4758219 0.36962712 1.0539335
0000b0 73 9d 9f 3f 82 99 f9 3e bb dd 53 3e ea bf 26 3f
       1.2469925 0.4874993 0.20690052 0.6513659

dense1.2.bn1.bias f4 [48]
000000 2b 6e 5e 3d c7 36 34 bd 16 f1 cc be 60 d6 b7 be
       0.054304283 -0.043997552 -0.40027684 -0.35905743
000010 8a 80 8d 3e 59 e7 34 bd f5 0b 06 3e e9 70 37 be
       0.2763713 -0.044165943 0.13090499 -0.17914166
000020 73 cf 4e bd 5c 52 ce 3c 4e 3c a1 bc a5 02 57 3e
       -0.050490808 0.025185756 -0.019682076 0.20997103
000030 12 74 76 bd ed 39 0f be 29 61 e5 3c 8b 91 0e bf
       -0.060169287 -0.1398694 0.028000431 -0.5569083
000040 59 50 66 3e e0 12 fe be b4 06 78 be b5 e0 87 be
       0.22491588 -0.49623775 -0.24221307 -0.26538625
000050 5e f2 e2 3e 03 9a 89 bd 24 5f f8 bd 22 ba 45 be
       0.44325536 -0.067188285 -0.12127522 -0.19309285
000060 4b 8d 1a bf 98 0f 8b 3e 4f 5f 06 3d ed 5b 2d bd
       -0.60371846 0.27160335 0.032805737 -0.042323995
000070 ee fc 8a bd f7 99 0c be f7 be 5b 3d 65 33 e5 3e
       -0.06786524 -0.13730608 0.053648915 0.44765773
000080 3a 5e 83 bd 1a 4a e9 3d 59 8f 39 be a9 d5 64 be
       -0.06414457 0.11391087 -0.18121089 -0.2234713
000090 82 3e 18 3f de ad 8c 3a e7 f9 82 be 3f b3 1d be
       0.5947038 0.0010732969 -0.25581285 -0.15400408
0000a0 c3 cd f0 be 05 8e a1 be 7e df 99 bd 9d de a2 be
       -0.47031984 -0.31553665 -0.07513331 -0.31810465
0000b0 c1 1d 8a 3e 01 11 76 3c b2 f8 28 bd f8 fb 9c 3e
       0.26975825 0.0150187025 -0.0412528 0.30660987

dense1.2.conv1.weight f4 [12, 48, 3, 3]
000000 df d0 a0 3d 40 9c a3 bd d3 36 f9 bd c8 dd 8d 3d
       0.07852339 -0.07988787 -0.1216866 0.06927067
000010 0a 7a bd bd 64 8f 09 be 2e 2f 9f 3d 56 e3 8f bd
       -0.09251793 -0.13433605 0.07772671 -0.07025783
000020 b8 f1 8a bd 4c 77 27 3b 2e e4 dd 3c c7 83 96 3c
       -0.067843854 0.0025553284 0.027086344 0.018373383
000030 48 76 0f 3c ae de ef 3c 4d 59 f7 3c c9 a4 97 3c
       0.008756228 0.029280987 0.03019395 0.018511193
000040 e1 c1 80 3c ae f8 ac 3b cb 30 ba 3c f0 b6 61 bc
       0.015717449 0.0052786684 0.022728344 -0.013776526
000050 30 10 ce bc 67 54 7d 3c 44 6a 25 bd 13 4f 4b bd
       -0.025154203 0.015462018 -0.040384546 -0.049635958
000060 5a a5 63 3c 4a 23 ed bc 91 fa 55 bd 52 a9 99 bd
       0.013894403 -0.028947491 -0.052240912 -0.075029984
000070 70 29 c3 bd ef fa d5 bd 59 8e 59 3d e1 bb 24 3d
       -0.09529388 -0.104482524 0.05311427 0.040218238
000080 9e a9 07 3b c8 47 c9 3c c4 66 4a 3d 87 e7 2a 3d
       0.0020700465 0.02457036 0.04941441 0.041724708
000090 ab 73 ee bc b2 41 b7 3d 08 c8 d7 3d 9c 61 b4 bc
       -0.02910789 0.08948077 0.105362 -0.0220192
0000a0 e7 e7 e2 3d c5 0c fc 3d 7f 44 6a bd 62 b9 34 3d
       0.11079388 0.12307123 -0.05719423 0.044122107
0000b0 ab f0 26 3d 90 4b 25 bc ed 5c 0d bd 27 4c 28 bd
       0.040756863 -0.010088816 -0.03451245 -0.04108825
0000c0 43 fa 4d 3a e3 f7 83 bc eb 4f 03 bd 37 50 38 ba
       0.00078574213 -0.016109413 -0.032058638 -0.0007030996
0000d0 28 47 de bc 0c 18 62 bc 93 66 aa 3d 13 8a 53 be
       -0.02713354 -0.0137996785 0.08320346 -0.2065814
0000e0 27 05 9a bb ba 92 8e 3e bb 4a 7d 3d a6 0c bf 3e
       -0.0047003212 0.27846318 0.061838847 0.37314337
0000f0 c8 57 5a 3e 4b 18 43 3d d4 4f a6 3e aa 1b 91 bc
       0.21322548 0.04763059 0.3248278 -0.017713387
000100 b6 d6 6d bc 43 96 52 3b e2 8f 49 3b c6 64 ca bc
       -0.014516523 0.003213302 0.0030755927 -0.024706256
000110 4f 26 a5 bc 53 07 b3 bb 0d b0 ba bc f4 11 33 bd
       -0.020159869 -0.0054635196 -0.022789026 -0.043718293
000120 62 ce be bd 59 e9 55 3c 32 2a 3d 3e b4 6f 8c 3b
       -0.09316708 0.013056123 0.18473127 0.004285777
000130 b1 83 ac 3d 10 a2 19 3e 67 60 17 3e 12 85 f1 3d
       0.08423556 0.15003228 0.14782868 0.11792959
000140 b4 58 8c 3d d8 fc 47 3d 51 4a bb 3a 3a 25 69 3d
       0.06852856 0.048825115 0.0014289116 0.056920268
000150 94 ee f6 3d 99 e9 b9 3d b4 3b 05 3e eb e4 ab 3d
       0.12057224 0.09077758 0.13011056 0.08393272
000160 b0 48 04 3d a2 ca d6 3c 49 ed 13 3d 05 10 8c 3c
       0.032295883 0.02621967 0.036114965 0.017097482
000170 6a b9 8f 3b 31 eb a9 3c 7b e7 da bc 52 43 4d bd
       0.0043861168 0.02074203 -0.026721707 -0.05011303
000180 b7 fc 9b 3c d1 83 76 bc 2e 88 13 bd ff 1c 89 3d
       0.019041402 -0.015046076 -0.036018543 0.06694984
000190 ab 7f 01 3c c6 2e a3 3d fc 15 61 3d ec 92 bd bc
       0.007903974 0.07967906 0.054952607 -0.023141347
0001a0 f0 17 28 3d 99 3c 5c 3d fb 0a 27 bd 02 66 d2 bc
       0.041038454 0.053768728 -0.040781956 -0.025683407
0001b0 9f 2c e3 3b ff 4b a2 3b 76 85 ad 3b 89 30 6d bb
       0.0069328095 0.004952907 0.005295451 -0.003619226
0001c0 d0 69 5d bb d3 90 86 39 7a f0 5d bc a3 d1 50 bc
       -0.0033784993 0.00025666374 -0.013546104 -0.012745294
0001d0 f1 d5 bd bb 2f 18 d0 bc ca 0c 37 3d 1d ec cb 3d
       -0.005793326 -0.025402157 0.04468993 0.099571444
0001e0 cb 73 3e bd 43 87 7b 3c 92 cb 94 3d 63 cc ad bd
       -0.046497148 0.015352073 0.072653905 -0.08486249
0001f0 54 96 15 bd 7a ab ae 3c e4 88 fd bb da 2f ac bb
       -0.036520317 0.021322 -0.007737266 -0.005254728
000200 78 be 8e bc 54 3b b8 3c dd 11 c5 3c 54 68 c4 3c
       -0.017424807 0.022489227 0.02405637 0.023975529
000210 5d c7 c2 3a d7 23 ee 3c 8b d1 c8 3c 98 81 12 3c
       0.001486044 0.029069824 0.02451398 0.00894203
000220 66 7d 1f 3d ac 1b e3 3d 1f c7 db bb 86 6c 95 3c
       0.03893795 0.11089262 -0.0067070867 0.018240225
000230 76 d3 04 3e 31 b6 11 bc 19 f4 3b 3d 93 78 08 3e
       0.12971291 -0.0088935355 0.045887087 0.13327245
000240 3a aa a7 bc 74 66 8b 3d f6 e6 2d 3e 29 83 4d bd
       -0.020466913 0.06806651 0.16982636 -0.050173912
000250 6f 14 8b 3d 62 7d 3a 3e 77 dc a8 bd ee 52 44 3d
       0.06791007 0.18211892 -0.08245175 0.04793065
000260 b6 e5 20 3e 58 be e6 3d b0 b1 a2 ba 99 d6 04 be
       0.15712628 0.11266774 -0.0012412574 -0.12972488
000270 06 5d a3 3d 58 61 b6 bc 54 39 07 be 44 43 94 3c
       0.07976727 -0.022263214 -0.13205463 0.018098481
000280 ff 62 87 bd 38 8c f9 bd 01 ec 00 be de a9 61 3d
       -0.06610679 -0.12184948 -0.12590028 0.05509364
000290 b7 09 81 3e d4 34 14 be bc e0 24 3d af c2 7e 3e
       0.25202724 -0.14473277 0.040253386 0.24878953
0002a0 1f a3 e0 bd da 0e 52 3d d1 54 4f 3e 57 6c 27 3d
       -0.10968613 0.051283695 0.20247199 0.040874805
0002b0 fd 3c 18 3d a9 d9 b0 3c 8e 7d 28 3d 16 ae 37 3d
       0.037167538 0.021588163 0.041135363 0.044843756
0002c0 63 ed 54 3c 16 19 87 3c 89 4a 2b 3c 09 e9 4a 3b
       0.0129960505 0.016491454 0.010454782 0.0030961654
0002d0 f6 cb e3 be bd 04 91 be 8a e7 bd be 4d aa 2b bf
       -0.44491547 -0.28323928 -0.37090713 -0.67056733
0002e0 1d be 04 bf 07 df 2b bf 9d 65 ec be 8f 02 b4 be
       -0.5185259 -0.6713719 -0.46171275 -0.35158202
0002f0 99 57 f7 be 1f 49 d7 bb d0 38 a8 bb 9b 36 4b 3a
       -0.4830902 -0.006569996 -0.0051337257 0.00077519723
000300 fd b8 66 bb 42 95 08 bc 0e be 3a bc 4e ad ac bb
       -0.0035205476 -0.008336367 -0.011397852 -0.005269683
000310 a5 b4 36 bb fe 0c 99 bc 26 3c 11 3d 4a ae 72 3d
       -0.0027878669 -0.018682953 0.035457753 0.059248246
000320 43 09 a1 3d 14 6d 27 3c 88 20 82 3d ce ce d1 3d
       0.07863095 0.010218877 0.06353861 0.10244523
000330 00 ea 29 3c 2b c9 1c 3d cf 32 e9 3d 4b b9 17 3c
       0.010370731 0.038277786 0.11386644 0.009260486
000340 b2 53 91 3c 6f da a7 3b 32 c9 66 3c bc 13 11 3b
       0.017740104 0.005122475 0.014086055 0.0022137007
000350 37 53 5a bb 8b d0 72 3c bf c4 1d 3c 86 b9 21 bc
       -0.003331376 0.014820228 0.009629427 -0.009870892
000360 a1 2a 2b 3e fe f2 c6 3b 94 35 68 bd f8 27 3d 3e
       0.1671548 0.0060714474 -0.05669172 0.18472278
000370 c2 6f a7 bb 89 29 c7 bd d4 52 10 3e 81 82 6b bd
       -0.005109758 -0.09724719 0.14094096 -0.057497505
000380 99 83 1a be e5 2a 2a bd 9c d7 df bb 43 ad 57 3d
       -0.15089263 -0.041544814 -0.0068311226 0.05265547
000390 26 d4 f2 bd 88 bb 37 bc ac db 5f 3e f7 b3 37 bd
       -0.1185687 -0.0112141445 0.21861142 -0.044849362
0003a0 10 ed 1f 3d 36 49 8d 3e 12 c5 4a bc 2e 36 a4 bb
       0.03904444 0.27594918 -0.012376087 -0.0050113415
0003b0 1d 19 9e 3d 03 5b f8 3d fc b9 89 3d df 61 39 3c
       0.07719634 0.12126734 0.06724927 0.011314838
0003c0 67 ed 11 3e be 25 7e 3d bd 26 cb 3a 42 ab 75 3d
       0.14250718 0.062047713 0.0015499216 0.059977777
0003d0 cc 9b 28 bd 47 bf e9 bd a8 2b 0e 3f 64 ec b5 3e
       -0.041164204 -0.114134364 0.55535364 0.35531914
0003e0 7d 14 c3 3d 24 c8 2e 3e 6f 88 06 3e bd 60 92 bd
       0.09525392 0.17068535 0.13137983 -0.071473576
0003f0 28 d1 d1 3b a6 99 2e 3b 67 87 20 3c d1 00 26 bc
       0.006403107 0.0026641875 0.009797907 -0.010132031

dense1.3.bn1.weight f4 [60]
000000 f4 c0 98 3e 02 2b 76 3e b0 d0 4c 3e e4 ee 02 3f
       0.29834712 0.24039844 0.20001483 0.5114577
000010 10 3d 15 3f c5 12 54 3e b8 81 a0 3f 11 c5 a6 3e
       0.582963 0.20710285 1.2539587 0.32572225
000020 bd 3f e6 3e 0f 60 8a 3e a2 8c de 3d ba 33 6d 3e
       0.44970503 0.27026412 0.10866667 0.23164263
000030 fc 22 33 3e 8e 4f 03 3e 2b 2c 3d 3f 0d 66 43 3e
       0.17493814 0.12823316 0.7389552 0.19081898
000040 58 59 8a 3e c6 0c fe 3d 22 4a 60 3e 89 39 4f 3e
       0.2702129 0.1240478 0.2190328 0.20236792
000050 a7 2e a6 3f 48 7d 49 3e 93 a3 3a 3e c0 f1 0d 3e
       1.2982987 0.19676697 0.18226461 0.13861752
000060 48 f1 76 3e 41 66 4c 3f 32 5f db 3e 05 06 48 3f
       0.24115479 0.7984353 0.42846066 0.78134185
000070 c0 d3 8a 3e 3c 44 c7 3e 8e 20 3b 3f 73 c9 6b 3f
       0.27114677 0.38919246 0.7309655 0.9210426
000080 fc ba ce 3e 2d bf f6 3e 39 b6 fa 3d 86 e1 3b 3f
       0.40377033 0.4819273 0.122417875 0.73390996
000090 26 fe 6c 3f bd a4 78 3f 5c 60 d5 3d 55 c6 82 3f
       0.925753 0.9712637 0.1041877 1.0216776
0000a0 55 cf 04 3f e5 4a 25 3e 5e c2 19 3e eb 9d 0a 3f
       0.51878864 0.16141851 0.15015551 0.54147214
0000b0 7c bc e8 3e 70 3e d5 3e 2e bf 97 3f ae 89 ce 3e
       0.45456302 0.416492 1.1855218 0.40339416
0000c0 c4 38 6f 3f 3e 00 b6 3e 29 f0 1d 3e 86 b1 02 3f
       0.9344599 0.3554706 0.15423645 0.5105213
0000d0 5e 0b 97 3e 20 fb 14 3e 7a eb d4 3f f6 eb 32 3f
       0.2950086 0.14548922 1.6634362 0.698913
0000e0 b4 a8 a3 3f a5 37 50 3e 27 cc 3a 3d 79 fb d9 3e
       1.2785859 0.20333727 0.04560485 0.4257467

dense1.3.bn1.bias f4 [60]
000000 72 a5 e0 bd 84 da 07 bd 6a 2a ed bd be a3 02 3e
       -0.10969056 -0.033167377 -0.115803555 0.12757775
000010 fe 3c 09 3d 6f 2b 03 3d 92 73 84 bd 1d 97 08 3d
       0.033505432 0.032023843 -0.06467356 0.033347238
000020 2a 25 41 be ef ec 4f bc 8e d4 ac bc 58 f9 26 bd
       -0.18861833 -0.012690767 -0.021097448 -0.040765136
000030 62 d2 5e bd a4 81 70 bd 5e c5 17 3e 33 4e 3b be
       -0.054399855 -0.058717385 0.14821383 -0.1829155
000040 04 8c 47 be 02 77 c5 bd 35 31 8e 3c 6a 02 e1 bc
       -0.19487005 -0.096418396 0.017357448 -0.027466971
000050 bf ae 4b 3d de 7f c5 bb 04 76 18 bd b5 9e a7 bc
       0.049727198 -0.006027206 -0.037221923 -0.02046142
000060 45 0e 11 be 85 c0 39 be a3 0b 9e be 7f 56 80 be
       -0.141656 -0.18139847 -0.30868253 -0.2506599
000070 5c 00 1e be b5 42 52 be a1 7b f7 bd 5f dd 23 bf
       -0.15429825 -0.20533259 -0.12084127 -0.6400966
000080 2e 47 78 be cf 94 d2 3d 42 1f e1 bd bd 78 12 be
       -0.24245903 0.10282289 -0.1099229 -0.1430387
000090 ea 51 81 be 05 4d 01 3f 87 67 49 be aa 49 4d be
       -0.25257808 0.5050815 -0.19668399 -0.20047632
0000a0 65 7f c8 be d4 e6 3c be 76 38 71 bd 37 1f 83 3d
       -0.39159694 -0.18447429 -0.058891736 0.06402438
0000b0 13 81 27 be 34 8c 9a 3a be ab 1f 3e de b5 fa bd
       -0.16357832 0.0011791051 0.15592858 -0.1224172
0000c0 cc 43 80 3c a2 bd 5a 3d b2 ea 0c bc 10 3a 59 bd
       0.015657328 0.053403504 -0.008600878 -0.05303389
0000d0 8f f1 f5 3d 8f 6a 6c bd 64 89 6f 3d c1 e4 8c 3c
       0.12008964 -0.05771881 0.058480635 0.017198922
0000e0 ff 28 01 3e aa 40 8f ba 0b 09 18 bc f0 09 06 3c
       0.12613295 -0.0010929306 -0.0092795 0.00818108

dense1.3.conv1.weight f4 [12, 60, 3, 3]
000000 94 02 37 3d 8f 96 98 bc e3 30 fe 3b 10 32 18 3d
       0.044680193 -0.01862648 0.0077572926 0.03715712
000010 2d 0c 42 bd cd 09 58 bd ca 2e 27 3d e7 00 bc bc
       -0.047374893 -0.05274372 0.040816106 -0.022949649
000020 b5 39 41 bc f1 bc c8 3b c7 31 05 bb 2c 4b 89 bc
       -0.011793544 0.006126039 -0.002032386 -0.016759478
000030 e0 24 39 bc 05 9d 9e bc 04 9d 54 bc 26 88 8c bc
       -0.011300296 -0.019361982 -0.012976889 -0.017154764
000040 13 fa 20 bc 0d 2e 62 bb 3f 63 1e 3c d7 5a 95 3c
       -0.009825247 -0.0034512312 0.009667217 0.018231792
000050 28 5f b0 3c a5 70 64 ba c9 c5 1e bc 1f fa 71 ba
       0.021529749 -0.0008714295 -0.00969071 -0.00092306914
000060 83 a8 0a 3c 27 d7 53 bc d7 42 dd 3a 94 81 a2 3c
       0.008463028 -0.012929714 0.0016880882 0.019837178
000070 cc da c0 3a b7 20 11 3d 73 c7 ba 3d f9 08 47 3d
       0.0014713644 0.03543159 0.09120073 0.04859254
000080 ee 67 dd 3d e5 7a 34 bc 08 cf 35 bd 3f c4 20 3d
       0.10810839 -0.011015628 -0.044386894 0.039249655
000090 d4 4b 38 3e 44 af 18 3e a2 22 df 3c 1f cf 13 3e
       0.17997676 0.14910609 0.027238194 0.14434479
0000a0 a4 ff e3 3d ca dc 3a bc 19 23 a4 3d 0d 97 5f 3d
       0.11132744 -0.011405179 0.08014507 0.054587413
0000b0 15 d8 42 bd 69 2c 5b bc 9b b5 fd bb d1 9a 3d bb
       -0.047569353 -0.013377287 -0.0077425963 -0.002893139
0000c0 69 d4 13 bc 8d ab 9e bb 93 4a 6c bc 0a 0c ec bb
       -0.0090228105 -0.004842228 -0.014422077 -0.0072035836
0000d0 9d 77 ca bb 83 97 39 3b f4 25 f0 bd 22 4a 45 be
       -0.00617881 0.0028319068 -0.11725989 -0.1926656
0000e0 fa 9e ec 3d b5 76 44 bd 41 e3 0e be 7f 1e e1 3d
       0.1155376 -0.04796477 -0.13953878 0.10992145
0000f0 6d 7c b5 bb a8 e3 28 be 1f 79 07 3c 58 84 b0 3d
       -0.0055385143 -0.16493094 0.008268624 0.086189926
000100 43 48 57 3d f5 cb 37 3d f5 cc e4 3c 37 eb 1a 3c
       0.05255915 0.044872243 0.027929762 0.009455494
000110 c9 ed 96 3c 51 23 ef bb 34 a6 87 bc f5 9c f5 bb
       0.018423932 -0.007297911 -0.016558744 -0.0074955174
000120 1d ad c0 3d 6d 0e 01 3e f8 b0 4d 3e c6 c5 24 3d
       0.09408019 0.12603159 0.2008704 0.040227674
000130 a1 e9 73 3d 90 a7 c8 3d 03 05 3c bc c4 75 5b 3c
       0.059548978 0.09797585 -0.011475804 0.013394777
000140 97 bc 19 3d 99 44 09 3b 40 c5 b7 bc 3f c1 8e bc
       0.03753337 0.0020945428 -0.022432923 -0.017426131
000150 3e e4 83 3c 98 42 b5 bc 91 d4 2d bd d7 6b dd bb
       0.016100045 -0.022126481 -0.042439047 -0.0067572403
000160 2c 94 ea bc 17 b5 ca bc 1f 50 b7 3c 41 04 bb b9
       -0.028635107 -0.024744553 0.022377072 -0.0003567059
000170 96 f5 21 3c 57 50 0e bc f6 bc d4 bc 0e fd 00 bb
       0.009885212 -0.008686147 -0.02596901 -0.0019682082
000180 fd 0e 3c bc 13 59 e7 bc fd d9 b0 bc 23 7c 82 bc
       -0.011478183 -0.028240716 -0.02158832 -0.015928334
000190 a7 ae 6d bc 7d f4 95 3a 5e 08 bd bc 5c 02 04 bd
       -0.014506972 0.0011440661 -0.023075279 -0.032228813
0001a0 56 a8 ca bc 1d 7d 2c bc 8b 17 2c bd 6a b1 c3 bb
       -0.024738472 -0.010527876 -0.04201464 -0.005972077
0001b0 1b c9 46 3c 9a be b4 3b ae 90 df ba 80 7b d0 3b
       0.012132908 0.0055158855 -0.0017056668 0.0063623786
0001c0 76 12 ff bb 7c 9b 49 3b b9 24 c9 3b 1f c7 be 3a
       -0.007784183 0.0030762842 0.006138411 0.0014555192
0001d0 6f 65 93 ba cf 6f fd 3c f7 15 11 3d a8 1f 0b 3d
       -0.001124544 0.030937104 0.035421338 0.033965737
0001e0 5c cb 03 3d 8a c1 bb 3c 27 81 9b 3c cd 26 ba 3c
       0.03217636 0.022919435 0.018982483 0.02272358
0001f0 85 0c 18 3c a1 8e 04 bb ab af 99 bd 12 1d 73 bd
       0.009280329 -0.0020226615 -0.07504209 -0.059353895
000200 03 e8 04 3d a9 d7 d1 3c 45 80 1e 3c 82 1e e4 3d
       0.032447826 0.02561553 0.0096741365 0.111386314
000210 35 bc 61 bd 4b 27 7e bd 8d 64 52 3b 14 57 0f bb
       -0.05511113 -0.06204919 0.003210339 -0.002187197
000220 2c 8e 22 3c 2b 40 24 3d 26 83 c5 bb 61 9f 5d 3b
       0.009921592 0.040100258 -0.006027597 0.003381692
000230 0c fd 26 3d f2 1f c8 bc b6 12 4c bc ed 69 16 3d
       0.040768668 -0.024429295 -0.012455633 0.036722112
000240 61 f1 e8 3c 73 fd 02 3d 5d 80 51 3d 32 af fa 3c
       0.028435411 0.03197999 0.051147807 0.030601118
000250 ab 5a b7 3c 26 50 49 3d 98 49 5b 3d 18 f2 20 3d
       0.022382101 0.0491487 0.05353698 0.03929338
000260 6d 49 ec 3c c6 ad fb 3c 4c 7c a0 3c 32 11 16 bb
       0.028843606 0.03072251 0.01959052 -0.0022898433
000270 a5 5b 01 3d de f8 15 3d b3 06 15 bc 46 cb b5 3c
       0.03158154 0.03661429 -0.0090958355 0.022191655
000280 e4 43 2f 3c 93 2e 04 bb aa df 9a 3d 4e f2 9c 3d
       0.010697339 -0.0020169362 0.07562192 0.076634035
000290 e1 39 a3 3d c0 c5 96 3d b5 6c 82 3d d6 1e 61 3d
       0.07970024 0.073619366 0.063683905 0.054961048
0002a0 4b a4 53 3d 28 c3 1d 3d 2e 63 01 3d 83 ed ec 3c
       0.051670354 0.038516194 0.031588726 0.028921848
0002b0 50 16 9f 3c fd d0 22 3d cd 70 05 3d 57 76 04 3d
       0.01941982 0.039750088 0.03257828 0.03233942
0002c0 78 6a d7 3c b5 98 f1 3c 9d 95 c2 3c f7 97 ee 3c
       0.026295885 0.029491762 0.023752982 0.029125197
0002d0 c8 3c 25 3e 2b 94 17 be 24 64 a2 be b4 f9 80 3d
       0.16136467 -0.14802615 -0.31717026 0.06297627
0002e0 30 dc 2d be 63 dd 7f be f9 5c 55 bd 9a cf 46 be
       -0.16978526 -0.24986796 -0.05209062 -0.19415131
0002f0 a2 c2 55 be 41 ac e2 3c ea 7b e3 3c 6f b7 9c 3d
       -0.20875028 0.027670028 0.027769048 0.07652175
000300 54 d7 6a bc 98 4b e1 bb 0f 63 43 3d 0a 14 9d 3b
       -0.014333565 -0.0068754666 0.04770189 0.0047936486
000310 b5 ef 86 ba dd cb 62 3d 50 a3 6c 3c 9f 5a 59 3c
       -0.0010294827 0.0553702 0.014443234 0.013266235
000320 09 79 33 3b 33 5d 44 3c 1f 69 ca 3b 49 83 8f ba
       0.0027385375 0.011985111 0.006177082 -0.001094916
000330 9a 63 41 bc 4b 56 b0 3b 1d 90 48 3c 61 fe 5b 3b
       -0.011803532 0.0053813807 0.0122413905 0.003356837
000340 2d 48 8a 3c 2c fc a5 3c 5e 15 97 bb 3c fb 9b 3b
       0.01688012 0.020261846 -0.0046107015 0.004760174
000350 41 f7 d0 3c 76 6a 6f 3c e1 ab 86 3c bd 64 89 3c
       0.025508525 0.014612785 0.01643938 0.016771669
000360 a2 4f 73 3c cf 57 25 bc cc 75 4d 3d bf 65 9f 3a
       0.014850529 -0.010091736 0.050161168 0.001216106
000370 6d b1 b6 bb 42 f2 00 3d 39 78 30 bc c7 1b fe bb
       -0.00557535 0.031481035 -0.010770851 -0.007754776
000380 d9 bd 20 3d d3 42 37 bd b6 a6 1e be 08 47 a3 bd
       0.039243553 -0.044741463 -0.15493283 -0.079725325
000390 2f 68 5d bd 27 1e 91 bd 84 ee 9c 3c 15 b4 5a bd
       -0.054054435 -0.07085829 0.019156702 -0.053394396
0003a0 7c 9e 40 bd 9d 2c bb 3b 6c 6f ac bb 8b cd d6 bb
       -0.047026142 0.0057121054 -0.005262306 -0.0065552644
0003b0 c4 e6 93 3b 99 19 f0 bc a4 bb 4a bd ce 97 f2 bc
       0.0045135934 -0.02930908 -0.049495354 -0.029613402
0003c0 14 91 01 bd 2f 0a 0f bd ed 8d 1f bc ae f5 b2 3d
       -0.031632498 -0.03492182 -0.009738428 0.08738266
0003d0 42 8b 7e bc 47 4a e3 bd 4a 14 b4 3d e4 d6 06 bd
       -0.015536131 -0.11098152 0.08792932 -0.03291978
0003e0 4f 32 00 be c9 cc b3 3d b6 95 b4 bd ac b5 24 be
       -0.12519191 0.08779294 -0.088176176 -0.16084927
0003f0 47 cd 9c 3b a7 62 2d 3c 13 02 0b 3d 52 1f 2c ba
       0.004785213 0.010582603 0.033937525 -0.00065659464

dense1.4.bn1.weight f4 [72]
000000 df 48 36 3f b8 62 a7 3e 3c c0 21 3f 93 37 7d 3f
       0.7120494 0.32692504 0.6318395 0.98912925
000010 c8 39 86 3f 04 fa 23 3e 7e 03 d7 3e 9f c7 05 3f
       1.0486383 0.16013342 0.41994852 0.5225772
000020 e2 5d 99 3f d3 8d 5b 3e 2a 6c 41 3e 96 03 a9 3d
       1.1981776 0.2144082 0.18888918 0.08252637
000030 2b 87 f0 3d c3 97 90 3e e3 7d 41 3f 5d f4 02 3f
       0.11744531 0.28240785 0.7558271 0.5115412
000040 46 c0 1b 3f cf cd d3 3e 4b 7b 8d 3e c9 66 c4 3e
       0.6084026 0.41367957 0.27633128 0.3835967
000050 b6 ee 00 3f d8 44 78 3e 10 cd b7 3d c5 35 c9 3d
       0.50364244 0.24245012 0.089746594 0.09824709
000060 10 ea c5 3e 44 ed 77 3f 65 0a 06 3f f2 8c 45 3e
       0.38655138 0.96846414 0.5235961 0.19292048
000070 78 b7 aa 3e 52 42 44 3e 14 65 c4 3e b2 98 a0 3e
       0.333431 0.19165924 0.38358366 0.31366497
000080 c3 fa d3 3e fd 78 f3 3e 1e ea db 3e 12 01 03 3f
       0.41402254 0.47553244 0.42952055 0.5117351
000090 26 ac 1b 3f 55 94 86 3f 94 d9 a4 3e 0a d3 4c 3e
       0.6080955 1.0514017 0.3219725 0.2000238
0000a0 23 d0 bf 3e 9b 7f b6 3d 9f bf ad 3e 28 78 0e 3f
       0.37463483 0.089110576 0.33935258 0.55652094
0000b0 70 0e a0 3e a8 73 1a 3f 5f 13 60 3f 28 66 d7 3e
       0.31261015 0.6033273 0.8752956 0.42070127
0000c0 be 36 bb 3e 9d d9 22 3e 8a 00 aa 3e 77 a4 d5 3e
       0.36565202 0.15903325 0.33203536 0.4172704
0000d0 af ca a2 3e 18 40 75 3e 6d 1e b9 3e 22 8d 9d 3e
       0.3179526 0.23950231 0.36156026 0.30771738
0000e0 f8 e5 a0 3f 28 1e 93 3e a2 75 3f 3e 24 d5 22 3f
       1.2570181 0.28733945 0.18697217 0.63606477
0000f0 74 ff 47 3e ee 94 36 3e cb 96 ca 3f 6c 31 6e 3e
       0.19531041 0.1783025 1.5827268 0.2326104
000100 72 9b 0d 3e 8b aa a5 3d ec fb cd 3d 4a 5f 61 3f
       0.13828829 0.08089169 0.10057816 0.88036025
000110 80 d8 80 3d a6 31 22 3f 39 3c 9a 3e f2 e9 2e 3e
       0.06291294 0.6335701 0.3012407 0.1708143

dense1.4.bn1.bias f4 [72]
000000 24 3b fc be 3f 92 6b bc d5 d8 90 be 0d b5 5b bd
       -0.4926387 -0.0143781295 -0.2829043 -0.05363946
000010 4d 1f 2a be e5 78 3a bc a1 b9 cf bd d9 c2 6b 3c
       -0.16613503 -0.011381363 -0.10142828 0.014389717
000020 2a 63 ac 3d 10 05 56 3c 2b b5 a3 bc 68 07 bc bd
       0.084173515 0.01306273 -0.019983849 -0.091811
000030 89 58 35 bd a4 23 29 be e7 1a 1a bd 20 2f 94 be
       -0.044273887 -0.16517502 -0.037623312 -0.28942204
000040 f4 9b cd be e2 cd d9 be 13 76 7d be ff 55 a5 be
       -0.40158045 -0.4253989 -0.24752073 -0.32292172
000050 09 e7 9c be 83 21 d3 3c ca 48 b2 3c 63 17 40 3d
       -0.30645016 0.025772816 0.021763224 0.046897303
000060 38 7a 88 3d 11 eb 7d bb 40 dd 54 be fd a4 2e be
       0.066639364 -0.0038744847 -0.20787525 -0.17055126
000070 bc 9c 0c bc 01 19 57 bd 6a 23 af bc 7f 3d 1d bd
       -0.00858229 -0.05251408 -0.021379191 -0.038388725
000080 d3 d8 08 be f5 94 14 be 4a 84 8f bd f4 c4 53 bb
       -0.13363962 -0.14509948 -0.07007654 -0.0032313438
000090 94 fa 05 be ea 6d 69 be 73 dd dc be 82 34 b7 3b
       -0.13083869 -0.22795835 -0.43137702 0.005590976
0000a0 9d 7f 21 be 42 01 94 bd a8 38 95 bc 04 09 10 be
       -0.15771337 -0.072268024 -0.018215492 -0.14065939
0000b0 10 6e c3 3c b7 96 00 3e 18 e4 d2 bd 4a 18 f9 3e
       0.023856193 0.12557493 -0.10297412 0.48651344
0000c0 59 98 50 3d 7a 4e 73 3d 79 cf a3 3b a0 9a 5c 3b
       0.05092654 0.059401013 0.004999098 0.00336615
0000d0 38 02 96 3d 23 6a a7 bd 70 8b fc 3b be 9e ad bd
       0.07324642 -0.08174541 0.007707052 -0.08477543
0000e0 1a 02 33 be 31 9a 06 3d a4 ee 61 3d ce e2 55 3e
       -0.1748127 0.032861892 0.055159226 0.208873
0000f0 3f bc d1 bc 43 d5 3c bd 99 2c 43 be 4b 75 fe 3c
       -0.025602458 -0.04610182 -0.19059981 0.031061789
000100 8b ce 19 bc 70 35 ed 3c aa dc 18 bd dc e8 cc 3c
       -0.009387623 0.028956145 -0.037319817 0.02501338
000110 b5 61 b3 bd 3d 67 f3 3d c1 ce 0c 3d f3 e7 05 3d
       -0.087588705 0.118849255 0.034376863 0.032691907
