independent_train_1000.0/client32/checkpoint_1000.0.pth (torch, 930411 bytes, 56 tensors)

conv1.weight f4 [24, 3, 3, 3]
00000000: 4a4d 3e3e a6a1 c9be 4450 983e bb6f 87bf
00000010: 5e49 d7bf 8a1b 55bf 3d57 4dbf 2b61 bdbf
00000020: 5793 1bbf f8ac 893e a861 ce3e 07f0 873e
00000030: b98f ec3e 33f0 343f 0eba 093f d9f9 893e
00000040: b9ab de3e 9aa1 bd3e 6b14 1fbf af0b 12be
00000050: 52ca 53bf 9225 013f 6157 993f 190d b73e
00000060: eb04 a63e 9985 713f d868 573e baf5 c13d
00000070: 86b2 d13e 259d 463e 291b 75bf bab8 7a3e
00000080: 5ce7 9a3e 5a59 63bf f03b 38bd 938e 863e
00000090: f0a2 71be 97c8 c63e f163 27be 6d6a 54bf
000000a0: 78f6 403f 3bd6 e93e c6e0 53bf 4a91 e33e
000000b0: c7ab df3e ec08 9cbe 356b 973d 0e46 fdbe
000000c0: 0e24 03bf 56d3 353f c9a4 653e 73da ebbe
000000d0: 0171 1e3f 6487 af3e b88d 4e3d e249 6abe
000000e0: c452 c23c 2ad0 d9be 2d60 36bf 80a9 dbbe
000000f0: c765 73be a670 07bf cce6 8bbe 6d33 953e
00000100: 6253 c13e 5a74 a03e 8908 833e 852e c53e
00000110: 7812 a33e 7656 7c3e 3911 ae3e 0f6e 943e
00000120: 4954 15bd e660 663e f9bd 3ebd 10d0 873e
00000130: 20dd 1e3f b6cb 8b3e 8f6b 0b3e 4daa e13e
00000140: 5c0e e63d 85bb 43be 6e2b 91bf 12df 0abf
00000150: 34fa a63d ffeb 843b 7f5c 8c3e 1ae1 80bc
00000160: 5784 203f 0f3d fd3e 4866 51be 8117 94bf
00000170: d3cb 42bf f1ed 9f3e d1ed 713e 3586 983e
00000180: 2e1d 563e 7e84 643f bfc4 0a3f 9edf 64be
00000190: 6040 90bf b0f0 47bf af93 823e 3f43 a13d
000001a0: 2a3e 173e ed13 c23e 68da 5f3f 4e62 1b3f
000001b0: f597 45bf 2dc8 26bf 9f8c 72bf 8195 c13d
000001c0: 0956 283f 7e34 11be b6ac 213f a1c3 903f
000001d0: 082e c03e 052b 0c3e d8ee d83e 641e b13b
000001e0: 5984 c93e 2865 823f 6ef5 533e 2675 2b3e
000001f0: 2858 223f f83f 3f3a c221 1b3f 44d2 5d3e
00000200: a8dd 5a3f 81f3 3abf 219b 7fbf 11b1 bbbe
00000210: 5cb7 77bf 14b4 b4bf be41 1cbf 349d 5fbd
00000220: fb93 00bf 9021 36bd 73a8 babd ef92 203e
00000230: 7b00 5b3e b8b3 8ebe 1c45 bebe c0ae 90be
00000240: 18cf 3abe c9f8 b4be b4de 6bbe 509d 823e
00000250: eba8 663f 4bf0 143f ea45 71bd 5d5a 853e
00000260: a755 ccbc 9ca9 0bbf 8c9b 36bf df3b 34bf
00000270: 9d74 123e e4fc 3a3f 6a88 a83e 8102 db3d
00000280: ce49 ea3e 16d9 033e 2567 213f c962 b73d
00000290: 4b8a 9bbe 01c4 993f 6d2a 73be 22a8 bfbf
000002a0: 74f4 0a3e cab8 8fbd f6ee fbbd 0ec3 803f
000002b0: 334f 013d 7ac4 5ebf 609b e13f f303 e2bd
000002c0: 3d32 fabf 4413 1a3f 08f1 783d 0679 e0be
000002d0: 586f c93e efb9 0dbd ca13 00bf 35f1 8b3f
000002e0: db5d 09be 1282 bebf 8648 7e3e 2167 573d
000002f0: bec5 6abe 1539 1bbf 6628 f0bd cb5c f0be
00000300: 9f45 73be 2716 2b3e f494 cb3d 075d 39be
00000310: 6e1f 95be 6fbf cb3e 0d5d 993e bdb8 683f
00000320: b09c cb3d d033 a53e d43d 593f 37c4 c13e
00000330: 76e1 17bf 3e61 19bf 55dc 0abe cd60 973e
00000340: 0636 3f3f e8fd 46bd cf87 dd3e dcbe 483f
00000350: b421 263e d94b 35bf cf32 52bf 679b 23bf
00000360: 3e9b 663f d584 e93f e458 973f 79dd 9a3c
00000370: 4902 58be fdc3 65bd c8ee 53bf 96f8 edbf
00000380: 38bc 65bf a628 213f 7dc8 b73f 4840 213f
00000390: 0a9c 3f3e 85b9 a4bd 1bd7 1dbe 5198 e7be
000003a0: c663 bbbf 63fa 2dbf 8dc7 5dbe aded 223f
000003b0: 51e4 44bd 6fa1 b93d f520 1c3e 0b99 dc3c
000003c0: 5b2f a4bd 107f 21bf 166f 9ebd 02b2 c7be
000003d0: 4a5c 8cbd e1fb 383f d658 ea3e 2501 693e
000003e0: 5aef f2bf 05f7 23be 0d1f 483f 8593 dabe
000003f0: 1982 15bf 4763 493e 0beb 4e3f c0b2 093f
0.18584171 -0.3938114 0.29748738 -1.0580972 -1.6819265 -0.83245146 -0.8021124 -1.4795278
-0.607717 0.26889777 0.4030888 0.26550314 0.46203402 0.70679015 0.5379952 0.2694843
0.4349039 0.37037355 -0.6214053 -0.1426227 -0.8273059 0.5044795 1.1979791 0.3575218
0.32425627 0.9434448 0.21036088 0.09470697 0.40956515 0.19395883 -0.9574457 0.2448453
0.30254638 -0.88808215 -0.044979036 0.2628065 -0.23597312 0.38824913 -0.16346718 -0.8297489
0.7537608 0.45671257 -0.8276485 0.44446784 0.43685743 -0.30475557 0.07393495 -0.4946751
-0.5122689 0.710256 0.22426142 -0.460651 0.6189118 0.34282982 0.050428122 -0.22879747
0.023721106 -0.4254163 -0.712405 -0.42902756 -0.23769294 -0.5290626 -0.27324522 0.29140797
0.3775893 0.3133877 0.2559245 0.38512054 0.31850028 0.24642357 0.33997515 0.28990218
-0.036457334 0.22497901 -0.04656789 0.26525927 0.6205616 0.27303857 0.13615249 0.44075242
0.112332076 -0.19114502 -1.1341379 -0.5424663 0.08153191 0.0040564532 0.2741432 -0.015732337
0.62701935 0.49460647 -0.20449173 -1.1569673 -0.7609226 0.31236222 0.23625876 0.29789892
0.20909569 0.8926467 0.5420646 -0.22350928 -1.1269646 -0.78101635 0.255033 0.07874154
0.14769807 0.37905827 0.87442636 0.60696876 -0.77184993 -0.65149194 -0.9474582 0.09452344
0.6575628 -0.1418018 0.6315416 1.1309701 0.3753512 0.13688286 0.42369723 0.005405234
0.39358786 1.018712 0.20699093 0.16743907 0.63415766 0.0007295604 0.60598385 0.21662241
0.8549447 -0.7302781 -0.9984608 -0.36658528 -0.9676416 -1.4117455 -0.61037815 -0.05459328
-0.502258 -0.0444656 -0.091141604 0.1568105 0.21386902 -0.2787149 -0.371621 -0.28258324
-0.18243062 -0.35346058 -0.23034173 0.25510645 0.901015 0.5817916 -0.058904566 0.26045504
-0.024943186 -0.5455568 -0.71331096 -0.70403856 0.14302297 0.7304213 0.32916576 0.10693837
0.45759434 0.1287578 0.6304801 0.08954389 -0.30378947 1.2012941 -0.23746653 -1.4973185
0.13569814 -0.070176676 -0.123014376 1.0059526 0.03156967 -0.8701855 1.7625542 -0.110359095
-1.9546582 0.60185647 0.06077674 -0.43842334 0.3934276 -0.03460115 -0.50030196 1.0932986
-0.1341471 -1.4883444 0.24832353 0.052588586 -0.22926995 -0.60633975 -0.117264554 -0.46945795
-0.23757027 0.16707669 0.0994052 -0.18101893 -0.2912554 0.3979449 0.29953805 0.9090689
0.09941995 0.32266092 0.8485997 0.37845013 -0.593284 -0.59914005 -0.13560612 0.2956604
0.7469181 -0.048581988 0.43267676 0.7841623 0.16223794 -0.7081886 -0.8210878 -0.63909
0.9008063 1.8243662 1.1824002 0.018904435 -0.21094622 -0.056095112 -0.82786226 -1.8591487
-0.89740324 0.6295265 1.4358059 0.6298871 0.18711868 -0.080431975 -0.15414087 -0.45233396
-1.4639823 -0.67960185 -0.21658154 0.63643914 -0.048069302 0.09063994 0.15246947 0.026928445
-0.08016845 -0.63084507 -0.07736032 -0.39002997 -0.0685354 0.72259337 0.457709 0.22754343
-1.8979294 -0.16012199 0.7817238 -0.42690673 -0.5840164 0.19666778 0.808274 0.53788376

dense1.0.bn1.weight f4 [24]
00000000: ff51 a93e e785 793f 9fdd 2a3f e0aa 3b3f
00000010: 26f0 203f 4d4a 8b3f a594 2c3f d646 8c3f
00000020: 7cbc 573f 6187 e13f 4027 f73f 6e0e 203f
00000030: 65c5 7e3f 7a75 cb3e 1ac3 273f 61f1 133f
00000040: 9ccf d63e d165 9f3e 2513 263f 80fa d73e
00000050: 76af 4e3f ac79 2c3f b711 de3e 56c0 fa3e
0.3307037 0.97469944 0.66744417 0.7330761 0.6286644 1.088205 0.67414314 1.0959117
0.8427198 1.7619439 1.9308853 0.6252202 0.9951995 0.39738065 0.65532076 0.5779019
0.41955268 0.31132367 0.6487296 0.42183304 0.8073648 0.67373157 0.4337289 0.48974866

dense1.0.bn1.bias f4 [24]
00000000: ed56 86be c48c 313f 23ef b0be 6180 003f
00000010: e154 933e 0396 953e 0f06 063f 6d83 ce3e
00000020: 29b3 113f 37a5 733f 4a10 833f e00f a43d
00000030: 1e19 913e 1bf7 6d3e fa4c 873e 5d5e 10bf
00000040: 772d 80be 68d6 77be 440a febe 2c25 8cbe
00000050: 33ae 2dbf 333a 10bf b2d2 693e b17f 32bd
-0.26238194 0.69355416 -0.34557447 0.5019589 0.28775695 0.29216012 0.52352995 0.40334645
0.56914 0.9517397 1.0239346 0.080108404 0.28339475 0.23238795 0.26425916 -0.56393987
-0.25034687 -0.24202883 -0.49617207 -0.2737211 -0.6784393 -0.56338805 0.2283428 -0.043578807

dense1.0.conv1.weight f4 [12, 24, 3, 3]
00000000: bed3 453c 6c0c 093e 157d 1fbc 2122 053d
00000010: 9726 273e 885f 043d 9ca6 77bd a0f3 343d
00000020: 4906 8ebd 4d6a 823e 390d c03e d281 b33e
00000030: 711d eb3d 2b9d a13e 24c5 b23e 261a 86be
00000040: 87bb 4ebd a143 30bd b1bd 0b3d 4f83 003e
00000050: 4c99 893b bcc8 fc3d ff18 453e aa51 973d
00000060: 9073 f33d 6cf3 3f3e fc07 db3d 1f1d 1f3c
00000070: 9b79 f63d bd8d 333e 5662 afbc cab1 233e
00000080: e40e 5a3e 4b69 db3d 1aa2 823e f7b3 7c3e
00000090: 76a6 bfbc 910e 61be dd12 5cbe 200c 963e
000000a0: 2178 e43d 3063 183d 7e51 1b3f 6077 fd3e
000000b0: 9bef b63e d8dc a23e 506e 003f 6dad 893e
000000c0: 6143 203e 4440 c23e c2e2 293e 62b7 4abe
000000d0: 9ca3 293d 4831 babd 7899 073e 09a6 1e3e
000000e0: 5d54 8d3e 80f8 733e 72e5 753e f482 553e
000000f0: 2aa9 553d 22c6 17be 1b60 f7bd c07c 06bf
00000100: f9f5 63be 0621 4abe 61dd 763d 6c61 dd3e
00000110: ff1c bd3e bfb0 013e 1374 073f b8c2 ca3e
00000120: 1281 7b3d d671 6b3e 3326 aa3d d0b8 783d
00000130: c4a1 4d3e 8169 ad3d f13a 90be 06f4 57be
00000140: d9f1 3bbe ffb6 f13d dfad c33d 8e47 afbe
00000150: a817 003f 3d4d f73e 194c 0abe c3e7 0e3e
00000160: 3b9f d53d 5f2c 48be 775b bcbd a092 b93d
00000170: a8ea a2bd f4a2 253c 61e2 9d3e be56 973d
00000180: 2261 66be 0c85 8b3e d510 ae3d b77b e4be
00000190: b56e 8ebe 84e4 da3b 1b0c 6ebe 47db 05bd
000001a0: 9417 563e 02cc 353e e528 d43e 0feb 063f
000001b0: bfcf 97be d411 a8be 8ee5 6bbd 1644 c5be
000001c0: e52e dbbe 0af0 10be 6530 4cbe fde2 70be
000001d0: 205f 47bc 6fba 2bbe aad8 7bbe a5ba eabc
000001e0: d3d7 8dbe b822 c7be a13e 14be 642f e5bd
000001f0: 57f4 4bbe 7ba6 28bc a5db 16be a644 51be
00000200: a099 79be f2c3 0ebe 0f02 16be 6a03 4abe
00000210: 8bd6 95bd 5c82 cabd 5eae 4abe a54a 2dbc
00000220: cd6c e7bb 7ffe 7a3c 9f7d f5bd 3f7d dfbd
00000230: ae29 8ebd b12f 16be 8ef0 f6bd 7c94 bcbd
00000240: f202 893c db70 b6bd 7c52 5a3c b6d7 8bbd
00000250: c667 66be a102 15be 355f 243d 9bce 08be
00000260: 7863 a1bd d657 8cbd 8ec0 dfbc 7d4c 02be
00000270: 76d5 35bc 437f 183c 0718 bcbd 3af6 81bd
00000280: 7605 2bbd 2947 0fbe b64e 8abc 31fc ffbd
00000290: 466b c7bd f6e6 32be 0846 8fbe ed00 82be
000002a0: 31fb 47bd 4d36 04be 4b82 c2bd 5e0f e3bd
000002b0: d695 a0bd dfc9 9fbc 2abd 1dbe 3570 f3bd
000002c0: 90ba 55bd 2d1f 89bd 7ce1 46bd 3d2a ad3c
000002d0: d43e febc 0c34 acbb d5e7 12be f42a 8fbd
000002e0: 1409 aebc de46 9ebd dfda bebd 7b78 8dbb
000002f0: 075b c4bd cad7 04be 241b 99bd ba7c 53be
00000300: 5baa 1abd 378b a43c d00a 11be 101b 40bd
00000310: 822f 1f3c 6cae f8bd 8e3f e1bd cbdc 22be
00000320: 49b7 7dbe 9a8e 06be e7e0 42be 4162 9cbe
00000330: 9f0a 77be d609 97be 2e58 dabe 6849 83bd
00000340: 7920 77bd eb8d 583d 9562 01be 4f69 01be
00000350: 0e70 023c 783f 923c 2cd4 133d 3926 073e
00000360: d8ad ebbc 8c60 83bd ebd3 0fbd f875 d5bc
00000370: 2e40 ddbd ee81 72bd de76 fd3d a7cd 9d3d
00000380: 040c 9b3d 97bd 9f3c 3645 853d 3e4f 263e
00000390: b44d 11be fdef c4bc 4876 ae3d 486a 653d
000003a0: 249e b93c 055a 11be b267 71bd 2642 72bd
000003b0: a796 efbc 9af9 9dbd 4c7d cdbd 8637 82bd
000003c0: dbe6 95bb 21da ddbc 22f4 503b 691e 02bf
000003d0: d53f 25bf 5fd0 b3be 2403 3cbe 24ae bb3b
000003e0: 376b 47bd fea4 d53e d3a6 2c3f 0b6b 423e
000003f0: 9ee9 42be a13f 8fbe c8d4 11be b55e 043d
0.012074409 0.13383645 -0.009734412 0.03250325 0.16323315 0.03231767 -0.060461625 0.04417765
-0.069347925 0.25471726 0.37510088 0.35059983 0.11480225 0.31565222 0.3491603 -0.26191825
-0.05047181 -0.043033246 0.03411645 0.1255009 0.0041991826 0.123429745 0.19247817 0.07388623
0.11887276 0.18745202 0.10694882 0.009711533 0.12034913 0.17534538 -0.021409195 0.1598579
0.21294743 0.107134424 0.255143 0.24678026 -0.023394804 -0.21978213 -0.21491571 0.29306126
0.11155725 0.037203968 0.6067122 0.49505138 0.3572968 0.31809115 0.50168324 0.26890126
0.15650703 0.37939656 0.16590407 -0.19796517 0.041415796 -0.09091431 0.13242137 0.15493025
0.27603427 0.23825264 0.24013308 0.20850736 0.05216328 -0.14821675 -0.120788775 -0.52534103
-0.222618 -0.1973916 0.060269717 0.4323839 0.36936185 0.1266508 0.5291149 0.39601684
0.061402388 0.22992644 0.08308067 0.060723126 0.2008124 0.08467389 -0.2816997 -0.21089181
-0.18353976 0.11802482 0.09554648 -0.3423428 0.50036097 0.48301116 -0.13505591 0.13955598
0.104307614 -0.19548176 -0.09197133 0.090611696 -0.079549134 0.010109652 0.30836776 0.07389592
-0.2249799 0.27249944 0.08499304 -0.44625637 -0.27818838 0.006680073 -0.23246805 -0.032679822
0.20907432 0.17753604 0.4143745 0.5270242 -0.29650685 -0.32826102 -0.057591967 -0.38528508
-0.42809215 -0.14154068 -0.19940336 -0.23524089 -0.012168676 -0.16770338 -0.2459437 -0.028653452
-0.27703723 -0.38893676 -0.14477016 -0.1119068 -0.19917427 -0.010293598 -0.14732225 -0.20436344
-0.2437501 -0.13941935 -0.14649223 -0.19727865 -0.073163114 -0.09888145 -0.19793078 -0.010576879
-0.0070625306 0.015319466 -0.11986851 -0.10912561 -0.069415435 -0.1466663 -0.12057601 -0.09208009
0.016725037 -0.08908244 0.01332533 -0.06828253 -0.22500524 -0.14551784 0.04012986 -0.13360064
-0.078803 -0.06852691 -0.027313497 -0.1272449 -0.011098256 0.009307685 -0.0918427 -0.06345792
-0.041753255 -0.13991989 -0.016883235 -0.124992736 -0.09737258 -0.17470917 -0.27983117 -0.2539133
-0.04882354 -0.12911339 -0.09497508 -0.110869154 -0.07841079 -0.01950544 -0.15404192 -0.11886636
-0.052179873 -0.066953994 -0.048554882 0.021138305 -0.031035818 -0.005255228 -0.1434625 -0.069906145
-0.021244563 -0.077283606 -0.0931909 -0.004317341 -0.095876746 -0.12972942 -0.0747588 -0.20653048
-0.03776012 0.020085914 -0.14164281 -0.04690081 0.009715917 -0.12142643 -0.1099845 -0.15904538
-0.24776949 -0.13140336 -0.19031106 -0.30543712 -0.24125145 -0.29499692 -0.426454 -0.064104855
-0.060333703 0.05286972 -0.12635262 -0.12637828 0.007961286 0.01785253 0.036091015 0.13198175
-0.028769419 -0.06414899 -0.03511421 -0.026057228 -0.10803257 -0.05920594 0.12376188 0.07705241
0.07570651 0.019499583 0.065073416 0.16241166 -0.14189798 -0.024040217 0.08518654 0.05600956
0.022658415 -0.14194496 -0.058936782 -0.059145115 -0.029246641 -0.07713623 -0.10033664 -0.063582465
-0.0045746393 -0.027081551 0.0031883796 -0.5082765 -0.64550525 -0.35119912 -0.18360573 0.0057275463
-0.048686232 0.41727442 0.67442054 0.18986146 -0.1903443 -0.27978233 -0.14241326 0.032316882

dense1.1.bn1.weight f4 [36]
00000000: 2510 f73e b6d2 ca3e 74db 983e b75e a23e
00000010: 0d8d 2e3f b68f c03e a30f c63e d9c4 983e
00000020: d1da c53e 8d77 ed3e 6a16 b83e 0939 a43f
00000030: 2d2d 003e c838 033e c6d6 a13e 613d 653e
00000040: e3c5 983f eaf1 853f 75fa 0f3f 9df5 2b3f
00000050: 0840 233f 95f0 743f b97c 9e3e b55d c83e
00000060: 8095 e83e ff53 2b3f 72c4 673f 457f 8c3f
00000070: 54b7 0b3f f1a8 2d3e 7ce2 6c3f 200c a63f
00000080: bb21 463f 71de 0d3f 859b bb3e 11e9 383f
0.48254505 0.39613885 0.2985493 0.31712887 0.68183976 0.37609643 0.38683805 0.29837683
0.38643506 0.46380273 0.359546 1.2829906 0.12517233 0.12814629 0.31609172 0.22386695
1.193539 1.0464451 0.5624154 0.6717165 0.6376958 0.956796 0.3095453 0.39133993
0.4542656 0.6692504 0.90534127 1.097634 0.5457661 0.16958977 0.9253309 1.297245
0.7739522 0.55417544 0.3664209 0.7223063

dense1.1.bn1.bias f4 [36]
00000000: 04c2 793d f045 37be 8f95 23be b581 bbbe
00000010: ef01 b53e e843 49be 22bf f23c 8000 a1bd
00000020: 2437 083e edad bb3b 7805 55bb 98fa a0bc
00000030: 5527 a2bc 1a5b 3cbe 2a9b 34be fb8b 1dbe
00000040: 3f92 3dbe b341 d43e ede4 81be 565f c9be
00000050: c148 e6be 1937 00bf 533c db3d 8a1e 56be
00000060: 4896 8cbe 2ae9 673f 5fd1 b63e f3e6 883d
00000070: 655d 7cbe 6bb0 2ebe 970b 1bbe c4b9 143f
00000080: cc44 ae3c 614a 32be c497 fdbd 4a84 313e
0.060976043 -0.17897773 -0.15975021 -0.36622396 0.35353038 -0.1965481 0.029632155 -0.078614235
0.13302284 0.0057275207 -0.003250448 -0.019650742 -0.019794146 -0.18394127 -0.17637315 -0.1538543
-0.1851282 0.41456375 -0.2536997 -0.39330548 -0.44977382 -0.5008407 0.10704865 -0.20910087
-0.27458405 0.90590155 0.35706612 0.06684675 -0.24645002 -0.17059486 -0.1514114 0.58095956
0.02127304 -0.17411186 -0.123824626 0.1733562

dense1.1.conv1.weight f4 [12, 36, 3, 3]
00000000: 8347 8ebd b2ed 4b3e aaa9 eb3e 37a0 6dbe
00000010: 2c50 093d f40f aa3e a13c 91be 0f1d 14be
00000020: c8a2 0b3e 9224 d5bc 8f0b cebc 10ac 4cbe
00000030: 762a a8bd 8bad 7ebc 9016 0fbe 78c1 14bd
00000040: f275 13bd 48a2 8fbc 18c4 87bd ef71 363d
00000050: 71c7 143e e802 adbd 60ee 2f3d a10d 023e
00000060: 40e2 78bd a50d e93c a054 ec3d 8217 92bd
00000070: 54c9 86bc 6782 633d e883 fe3c 7f36 95bc
00000080: 6397 983d 97ef e13d ead2 103d 047b f33d
00000090: 5caa 30be c9c2 d43e 87fa 533e fbb8 60be
000000a0: b460 873e 82e1 893d 97c6 4abe b9d1 80bd
000000b0: 42b5 4ebe a520 19bd 8d93 93bc 27e7 cdba
000000c0: 128f 0fbd 912e 26bd b556 5cbb 26c9 a8bb
000000d0: bf0c cfbc c332 023d 13d8 2ebe 64f2 43be
000000e0: 0cd0 d1be b948 45be 60ca a3bd 8561 07be
000000f0: 83b4 3bbc dae6 da3d 797f c1be 6c8b 1d3d
00000100: f3bc 7f3d a922 40bc c8b5 85bc ff09 273d
00000110: b9f1 4ebd c46f e5bc 8edf 11bc 2ea6 cabc
00000120: 2f04 073d 05e7 14be 441a 813d 29e1 30be
00000130: 403f f73c e054 cd3d e853 80bd 9962 fc3d
00000140: 93f4 763b 46a0 debd 247a 963c 4d1d c4bd
00000150: d36a 1abe 3ca2 9ebc 5dc9 b2bd cbd4 4bbd
00000160: 9558 56bd 72e9 63be 5dee 68be 6c7b 013e
00000170: 1eb7 c7bc 301c 46be 0005 963d d3b3 f5bd
00000180: 9682 213c d0ea 15be 68ee c93c 864d 11bd
00000190: 1391 4e3d ae23 253e c608 13be 3b6e 9fbd
000001a0: 2dbb b33d 185a 89bd 29b8 0abe e2ca 503c
000001b0: 52a5 20bd be62 293a e635 52bd 74ec 3bbd
000001c0: 71b7 cc3c 992f debc b6b4 1dbc 2338 023b
000001d0: 988d 64bc 7bfd 32bb a15f 1d3d 954c e7ba
000001e0: 4c9b 09bc 6d3d 353d 72db c7bb 7408 9abc
000001f0: 652d 85bb 33f5 c3bc 5f79 9cbd 753c c8bc
00000200: c076 d63c 2b31 fc3c bb80 41bc f275 003d
00000210: 4799 f43d 3a07 6b3c 0677 a13d 9a96 8a3d
00000220: 6f0f 123d 7c53 133c 24ec 4e3d 3717 b73c
00000230: c087 853b cdc6 1a3d b4de d73c bdbd 233d
00000240: de48 45be 3832 55bd 9f5f 5bbe 29df 04be
00000250: 32c9 4d3e 96b7 a43c ba5e 17bd 48ab 163e
00000260: 79d3 4ebd fa77 f43b d9c4 a03e 9e18 813e
00000270: 3ef5 52be b173 063e 208a 173e 411b c6be
00000280: 2891 48be f99b 48be 1fda 173e d7d3 183e
00000290: 05ed 3a3d 828b ae3c 7e52 e13d 73f8 a63d
000002a0: 0006 9bbd 4f53 193d c0e1 d63d 059a 0ebe
000002b0: 63f2 463d 363a 213e 4835 16bd ec5b de3d
000002c0: 5567 243e 29db 5b3c 9fc6 c43d ec14 b63d
000002d0: 2c5e 06be b950 a4be 088f 42be d978 fcbd
000002e0: 7c24 91be 48bd c7bd 5261 ebbc 02cc 73be
000002f0: ca74 003e adac 02be f876 d73d b938 653e
00000300: dbad 14be a67d ba3d f462 7d3e 1cd8 c2bd
00000310: 11e2 a93d b4bd 633e 7c5e a63c 6b8f 8b3d
00000320: 1d81 9f3c 718a 773d 7e45 923d 6588 ae3c
00000330: 2bb9 6c3d 44e3 963d 12f7 0b3d e62a ccbd
00000340: 1d8d c53c 0a83 7b3d db7a a4bc 7016 b43d
00000350: eb84 e03d 92f6 d63b 0a92 8e3d 1682 5b3d
00000360: d124 e73d ef40 cd3c be50 ce3d c21b 5bbc
00000370: 5612 66bd 29e4 163e 1093 5e3c b8e9 14bd
00000380: f671 d13c aa54 9c3d 2f12 1c3e 6b48 70be
00000390: 2c65 d73e 4a24 aebe 8d23 d2bd a5d1 29bd
000003a0: da76 f43d b849 b83e 9384 263d 7873 a8be
000003b0: 1cf3 aa3d ec8d eebe b199 473e 81e8 da3e
000003c0: eb45 b63c f3a6 be3e b379 83bc 2443 8bbe
000003d0: 912b 9cbe 1683 c53d ff99 7fbf 5d50 893f
000003e0: c703 a73e 9536 e13e 394d 73be 89d3 b8be
000003f0: 7a0b e33c 404c 443d b5a0 b03d 4459 8d3d
-0.069472335 0.19914892 0.4602788 -0.23205648 0.033523723 0.33215296 -0.2836657 -0.1446421
0.13636315 -0.026018415 -0.025151996 -0.19987512 -0.08211224 -0.015544306 -0.1397345 -0.03631732
-0.036001153 -0.017533436 -0.06629199 0.04454225 0.14529206 -0.0844782 0.04295194 0.12700512
-0.060762644 0.028448889 0.115395784 -0.0713339 -0.016453423 0.055544283 0.031068757 -0.018214462
0.0745075 0.11032026 0.035357393 0.11888698 -0.17252487 0.4155486 0.20701037 -0.21945564
0.26440966 0.06732465 -0.19802319 -0.062900014 -0.20186332 -0.037384648 -0.018014694 -0.0015709148
-0.03504855 -0.040571753 -0.0033621017 -0.005150932 -0.025274632 0.03178669 -0.17074613 -0.19135433
-0.4097904 -0.19266023 -0.07997584 -0.13220794 -0.011456612 0.10688563 -0.37792566 0.03846304
0.062436055 -0.011727014 -0.016322032 0.040781017 -0.050523493 -0.028007396 -0.008903397 -0.024737444
0.032962974 -0.14541252 0.06303838 -0.17273392 0.030181527 0.10025954 -0.06266004 0.123234935
0.0037682399 -0.108704135 0.018368788 -0.09575901 -0.15079813 -0.019364469 -0.08729813 -0.049763482
-0.052330572 -0.22257021 -0.22747178 0.12644738 -0.02437931 -0.1934669 0.073251724 -0.119971894
0.009857794 -0.14640355 0.024649814 -0.035474323 0.050431322 0.16126892 -0.14358816 -0.07784697
0.08775935 -0.06706637 -0.13546814 0.0127436835 -0.03922016 0.0006461552 -0.051320933 -0.045879796
0.024989815 -0.027122306 -0.009625604 0.0019869886 -0.013949774 -0.002731173 0.038421277 -0.0017646725
-0.008398842 0.044248033 -0.006099158 -0.018802859 -0.0040642493 -0.023920631 -0.07640337 -0.02444289
0.026179671 0.030785164 -0.011810477 0.03136248 0.11943298 0.014344985 0.0788403 0.06767006
0.03565925 0.008992072 0.05051817 0.022349937 0.0040750206 0.037787247 0.02635131 0.03997587
-0.19266078 -0.052049845 -0.21423195 -0.12975754 0.20096281 0.020107072 -0.036955573 0.14713776
-0.050494645 0.0074605914 0.31400183 0.25214094 -0.20601365 0.1313007 0.14798784 -0.38692668
-0.19586623 -0.19590749 0.148293 0.1492456 0.045636196 0.021306757 0.11002062 0.08152857
-0.07569504 0.037432965 0.10492277 -0.13925941 0.048571 0.15744862 -0.036671907 0.108573765
0.16055043 0.013418951 0.096081965 0.08890709 -0.13121861 -0.32092836 -0.18999875 -0.12327737
-0.28348148 -0.097528994 -0.02873293 -0.23808292 0.12544551 -0.12761183 0.10520738 0.22384919
-0.14519446 0.09105997 0.24744779 -0.09513876 0.08295072 0.22240335 0.020308726 0.06814464
0.019470746 0.060434762 0.07142161 0.021305272 0.057793777 0.07367566 0.03417117 -0.0996912
0.02411514 0.061404265 -0.020078113 0.08793342 0.10962852 0.006560155 0.069614485 0.053590856
0.11286319 0.025055377 0.10073994 -0.013373317 -0.05616983 0.14735474 0.013584867 -0.036355704
0.025567036 0.07633336 0.15241311 -0.23465125 0.42069376 -0.3401206 -0.10260687 -0.0414597
0.11936732 0.35993743 0.040653776 -0.32900596 0.08347151 -0.46592653 0.19492222 0.4275551
0.022250136 0.37236747 -0.016049242 -0.27199662 -0.3050199 0.09644143 -0.99844354 1.072765
0.3262007 0.43986955 -0.23759927 -0.3609889 0.027715433 0.04792428 0.086244024 0.06901792

dense1.2.bn1.weight f4 [48]
00000000: 7988 b53e c394 363e cadc c73e 3726 053f
00000010: 6e57 5a3f d9ea 1e3e 5c7c aa3e 9b39 af3e
00000020: f3bc 853e 0628 a13e 20b0 753e 73cb 203f
00000030: b453 c83d ad77 bd3e 6e26 083e c71d b73e
00000040: be53 d53e 8124 053f f226 193f d31a 763e
00000050: ecbc 2a3f c615 893d 2c5c ab3e f45f 473e
00000060: 95c0 353f d6ca e53e 7b5c 713e b38f 783f
00000070: 20b7 333d 2062 173e b828 263f a622 5d3f
00000080: 350e 963e d7d0 673e 6fac 873e d009 243f
00000090: 73bf bc3f b44c 7e3f 98e1 853e 678a 253f
000000a0: 765e 4d3f ef93 f83e 706d bd3e fa0c 883f
000000b0: 2663 a63f ff66 ef3e 1ecd 4c3e 6485 2b3f
0.35455683 0.17830186 0.39035636 0.52011436 0.8528966 0.15519275 0.33298004 0.34223637
0.2612072 0.31475848 0.23992968 0.6281044 0.0978159 0.37005368 0.1329591 0.35764906
0.41665453 0.52008826 0.5982505 0.2403367 0.6669452 0.06693606 0.3346876 0.19470197
0.7099698 0.44881314 0.23570435 0.9709427 0.043875813 0.14783525 0.6490588 0.86380994
0.29307714 0.2263826 0.26498744 0.6407747 1.4745926 0.9933579 0.26148677 0.6466431
0.8022226 0.48550364 0.36997557 1.062896 1.2999008 0.46758267 0.20000121 0.6700041

dense1.2.bn1.bias f4 [48]
00000000: b94d dcbd b6f1 51bd 57b4 a7be 6ce4 cebe
00000010: 69d9 9e3e 25f1 21bd 0b71 d33d 9ea6 34be
00000020: 0324 273d a4c0 81bb 039a fdbb a51c ad3e
00000030: 9416 72bd 1542 6dbd 307a 283d 2c18 1bbf
00000040: bae0 973e 74ce ddbe 884c 7abe ffec 7bbe
00000050: f1b8 c83e 7938 7fbd 1ffd f5bd 324d 34be
00000060: 276d 00bf f24e 863e eee3 2e3d 4c18 d63c
00000070: 646c 8fbd abae 08be 568a bc3d 9190 bf3e
00000080: f415 bebd 4e58 713d 5f92 50be 6c4a 6abe
00000090: 6ded 1d3f 45f3 35bd 1530 91be 63c5 19be
000000a0: 6a0a 11bf e4e6 a5be cb55 9bbd f9fa a5be
000000b0: 8c8e a43e fdf7 83bd 443e 33bd 934e 973e
-0.10757012 -0.051255904 -0.32754776 -0.40408647 0.31025246 -0.039536614 0.103242956 -0.17641684
0.040805828 -0.003959732 -0.007739307 0.33810917 -0.059103563 -0.05792435 0.041132152 -0.6058376
0.2966364 -0.43321574 -0.24443257 -0.24602126 0.392036 -0.062309716 -0.1201117 -0.17607573
-0.50166553 0.26232105 0.04269784 0.026134633 -0.07003096 -0.1334788 0.09206073 0.37414983
-0.09281531 0.058922105 -0.20368336 -0.22879952 0.6169041 -0.044421453 -0.28356996 -0.15016703
-0.56656516 -0.32402718 -0.07584723 -0.3241804 0.32140005 -0.064437844 -0.043760553 0.29552135

dense1.2.conv1.weight f4 [12, 48, 3, 3]
00000000: 8512 b33d a304 93bd 2481 efbd b9a0 a33d
00000010: 397a aabd 14d8 03be 532c b53d 049d 77bd
00000020: 7200 7abd 7b7a 4c3b e346 e03c e489 993c
00000030: e3fd 1c3c 0db4 f23c 9a1f fb3c 9a33 9c3c
00000040: 8424 813c 46a5 b93b 9d6c 8f3c 4364 aabc
00000050: 4d00 06bd 53d3 2e3c 7ea4 42bd 8109 6cbd
00000060: d00d 223c f566 13bd d1e5 78bd 9325 a9bd
00000070: b7e7 cfbd ee8f dfbd a534 513d c471 153d
00000080: f927 51bb f3e8 fb3c eef5 5e3d 1c7e 333d
00000090: 8d24 20bd ed10 9e3d 858b cb3d 2ca9 1fbd
000000a0: f858 c23d 349e e93d afe6 97bd 8667 dd3c
000000b0: 68c3 e53c 181a 2fbc 0463 0fbd 94ed 29bd
000000c0: 95ff 2db9 5e31 8cbc e8b7 07bd abd1 c234
000000d0: 1268 d9bc 6f58 59bc 0b8b 863d 0925 6fbe
000000e0: cd01 eabc 9df8 853e a3c2 1e3d 6f38 b43e
000000f0: b47e 473e 5206 e43c 2db3 9d3e 9dc7 6ebc
00000100: dfc8 31bc c100 013c f091 ab3b f7dd b7bc
00000110: 687e 90bc 416a fdba 6a6a a3bc b389 2abd
00000120: cd75 aabd 9e2e ca3c 84b7 4a3e 9760 1b3c
00000130: bf0c b93d 9a20 213e 2653 1b3e b63c f93d
00000140: b7d4 943d 3ff6 3c3d 5774 b8bb e7a2 4e3d
00000150: dc79 f33d 604d af3d 8a39 ff3d 838d a73d
00000160: 861b e33c 785f b03c 3e58 0e3d a2ca 7a3c
00000170: 4fce 3d3b 3978 8b3c 9fb8 f8bc fc3e 5bbd
00000180: 303c 9e3c b023 79bc 7cd6 16bd 8fcd b03d
00000190: 3a4c 023d 9382 d03d 0a01 953d f0b1 04bb
000001a0: b098 723d b0e1 903d 78d0 c2bc e62c 51bc
000001b0: a634 003c 77e2 c33b 2606 d33b 291d 33bb
000001c0: efa8 16bb 276d bf3a 2e76 50bc aff9 3fbc
000001d0: f8bf 97bb f5c9 0f3c 3755 a93d dc6c 103e
000001e0: 1e24 83bc a751 4f3d c78f e53d 8b34 64bd
000001f0: f534 10bb 177b 753d 8e4b 0bbc 9407 d2bb
00000200: 96a4 99bc fd72 b73c 5224 be3c f3c9 b73c
00000210: 2c1a 303b 45f0 f23c 6626 c63c 7008 c9bb
00000220: 2b5b ac3c 6f4e b83d 9fa2 c2bc a053 2dbb
00000230: 65db d63d bc14 debc 0fe3 bc3c 3784 d93d
00000240: 92b7 a83c 7aba ec3d bd92 693e 905b a3bc
00000250: 545e d63d 5c63 6b3e 2905 6abd ff65 a33d
00000260: af78 4c3e ff5d f53d fa26 0c3c 160e efbd
00000270: 0195 b43d 320a 36bc f5b2 f0bd f32d db3c
00000280: 3d2b 62bd 0b8e dcbd 2c22 a8bd caf6 ca3d
00000290: e16e 963e 3fd3 d9bd de73 a23d 1215 933e
000002a0: dae4 a0bd c4d1 aa3d 9e12 713e f453 293d
000002b0: da6a 1f3d c99c c83c 556a 283d 972b 3e3d
000002c0: c2d6 813c 87f9 833c abdd 3f3c a658 bd3b
000002d0: bcca d4be 6855 81be 0fa9 b2be 4a8b 25bf
000002e0: 8924 febe 3593 27bf 59e3 e3be 3e50 acbe
000002f0: 1c2e f0be e392 15bc 53f0 00bc 7e46 e9ba
00000300: d267 cebb 03fc 38bc 2089 68bc 5204 febb
00000310: cd75 b8bb ae26 b0bc 5c29 9f3c de2c 253d
00000320: 0cfd 6c3d fae5 9abb 91e8 393d 76a6 a73d
00000330: 6a3f 8dbb 943e a23c 9ffc bc3d f644 263c
00000340: 5e9f a13c 250b 0e3c 7768 683c b8a9 743b
00000350: d5bb 27b9 5628 703c 3546 333c aa43 e0bb
00000360: 1108 2a3e 439d e93a 5909 6dbd 34fa 3d3e
00000370: c74c fabb 6d93 c8bd 251b 153e 760e 6cbd
00000380: 0ee0 1abe 9bcc 6abd 6e5d bdbc 0889 1a3d
00000390: 74d0 02be 3391 74bc 742c 623e 3d21 69bd
000003a0: 06ba fd3c cc43 8b3e 4f04 83bc 5d61 d2bb
000003b0: df0d a33d 9a43 e43d ec4f 703d 8e48 bb3b
000003c0: 13a0 0b3e 1a3f 693d 316f a7ba 8a7d 8c3d
000003d0: c910 84bd 6dfe fdbd 5a06 103f 1ed7 aa3e
000003e0: cfd2 993d 1d41 423e 91b2 fe3d 04cc aebd
000003f0: cb5c fc3b 6803 863b c82c 393c 1e61 10bc
0.08743767 -0.07178619 -0.116945535 0.0798964 -0.08324093 -0.12875396 0.08846345 -0.060452476
-0.06103558 0.0031200934 0.027377551 0.01874251 0.009582016 0.02962687 0.030654717 0.019067574
0.015764482 0.005665454 0.017507846 -0.020799762 -0.03271513 0.010670501 -0.047520153 -0.05762625
0.0098909885 -0.03598686 -0.060766045 -0.0825912 -0.10151618 -0.10916124 0.051075596 0.03648545
-0.0031914695 0.030750727 0.054433756 0.04382144 -0.039097358 0.07718072 0.099387206 -0.038979694
0.09489626 0.11407128 -0.07417046 0.027026903 0.028047279 -0.010687374 -0.035006538 -0.041486338
-0.00016593777 -0.017113384 -0.03313437 3.628787e-07 -0.026538882 -0.013265713 0.06569489 -0.23353972
-0.028565312 0.2616624 0.03875984 0.35199305 0.19481927 0.027835045 0.30800763 -0.014573959
-0.010851114 0.007873715 0.005235903 -0.022444708 -0.0176384 -0.0019334034 -0.019948203 -0.041635226
-0.0832325 0.024680432 0.19796568 0.009483478 0.09035634 0.15735093 0.15168437 0.12169783
0.07267135 0.046133276 -0.005629103 0.050448325 0.11888477 0.0855968 0.124621466 0.08181288
0.027723085 0.021529898 0.034752123 0.0153071005 0.002896208 0.0170251 -0.030361472 -0.053526863
0.019315809 -0.0152062625 -0.036825642 0.08632957 0.031810977 0.10181155 0.07275589 -0.002024766
0.059227645 0.070742965 -0.023781046 -0.012767052 0.007825052 0.0059779244 0.006439942 -0.0027330613
-0.0022988876 0.0014604673 -0.012723489 -0.011717244 -0.0046310388 0.008776178 0.082682066 0.14104027
-0.016008433 0.05061498 0.11209064 -0.05571417 -0.002200422 0.05993184 -0.0085019 -0.006409595
-0.018755239 0.022393698 0.023210678 0.022435164 0.0026871068 0.029655585 0.024188232 -0.006135039
0.021039566 0.08999335 -0.023759184 -0.002644755 0.10491065 -0.027109496 0.023057489 0.10620921
0.020595346 0.11559005 0.22809882 -0.019941121 0.104672104 0.22987121 -0.057133827 0.079784386
0.19967912 0.11980819 0.008554215 -0.116726086 0.08817483 -0.011110829 -0.11752883 0.026755309
-0.055217016 -0.1076928 -0.08209643 0.099103525 0.2938147 -0.10635995 0.07932256 0.28727013
-0.0785615 0.08340791 0.23542258 0.04133983 0.03892026 0.024488823 0.04111703 0.04642829
0.015849475 0.016110195 0.011710565 0.00577839 -0.41560924 -0.25260472 -0.34894606 -0.64665663
-0.4963725 -0.65458995 -0.4450939 -0.3365497 -0.4691018 -0.009129259 -0.007869798 -0.0017797498
-0.0062989974 -0.011290553 -0.014192849 -0.00775198 -0.0056292773 -0.021502819 0.019428901 0.04032599
0.05785851 -0.0047271224 0.04538781 0.08186047 -0.004310538 0.01980523 0.09227871 0.0101482775
0.019729313 0.008669649 0.014185063 0.0037332606 -0.00015996334 0.014658054 0.010942032 -0.0068440037
0.1660464 0.0017823357 -0.057870243 0.18552476 -0.007638547 -0.09793744 0.14561136 -0.05763098
-0.15124533 -0.057324033 -0.02311584 0.03772834 -0.12774831 -0.014927196 0.2208727 -0.056916464
0.030972492 0.27200162 -0.015993265 -0.006420298 0.0796163 0.111457065 0.05866997 0.0057154363
0.13635282 0.056944944 -0.0012774226 0.06859882 -0.06448514 -0.124020435 0.5625969 0.33367246
0.07510912 0.18970151 0.124364026 -0.08535007 0.0077014915 0.0040897615 0.011302181 -0.008812217

dense1.3.bn1.weight f4 [60]
00000000: 5f67 7a3e aad3 7b3e ef29 4d3e c81f 033f
00000010: 1d56 133f 0868 4e3e 21ff 963f 3716 ae3e
00000020: 96ca ec3e 37f5 8b3e d2c4 db3d d43b 773e
00000030: 1ebb 3e3e 8b46 253e 4b3f 393f fd4c 1a3e
00000040: 792c 883e c521 eb3d 7dfb 693e f1fa 303e
00000050: 8827 9e3f 5580 123e 3c1f 0b3e 455e dd3d
00000060: 5db8 723e 7f33 423f 7098 e93e 821d 443f
00000070: aaee 7d3e 8309 c83e ad36 353f a4de 773f
00000080: 482b c83e 7d9e 073f a033 ef3d bb83 363f
00000090: c03b 6a3f a488 703f 170d fb3d 3559 863f
000000a0: 3164 153f 874f 4d3e dba8 143e 30f7 103f
000000b0: f652 eb3e 7a5e cf3e b4af a03f a012 be3e
000000c0: fe9c 6c3f 97b7 b23e 6b81 1e3e 7ea6 fe3e
000000d0: da0a 923e 20fa 143e 54c6 d03f edc5 343f
000000e0: 189e 9f3f c9ce 513e ef6e 383d a3a3 d73e
0.24453495 0.24592462 0.20035528 0.5122037 0.57553273 0.20156872 1.1796609 0.34001324
0.4624831 0.27335522 0.107309 0.24143916 0.18626067 0.16140191 0.723622 0.15068431
0.2659643 0.114810504 0.22849841 0.17283227 1.2355814 0.14306767 0.13586134 0.10808996
0.23703142 0.75859827 0.45624113 0.76607525 0.24798074 0.39069757 0.70786554 0.968241
0.3909552 0.5297621 0.116797686 0.71294755 0.9149742 0.939585 0.12258356 1.0495974
0.58356005 0.20049869 0.14517538 0.5662718 0.45961732 0.40501767 1.255362 0.37123585
0.9242705 0.34905693 0.15479057 0.49736398 0.28523904 0.1454854 1.6310525 0.7061451
1.2470121 0.20489039 0.04502767 0.42117032

dense1.3.bn1.bias f4 [60]
00000000: a836 e0bd d02b 333c 4ca0 e9bd ebc3 443e
00000010: ab99 223d b1f4 2a3d e1d7 18be 69a1 2c3d
00000020: 539a 15be 9a50 74bc 620b bebc 2835 68bc
00000030: 6947 d9bc bb34 0cbd e316 2f3e 5f8e 4abe
00000040: 2fb2 32be 1fe1 c4bd bee0 07bd 6f06 68bd
00000050: c813 3bbd 5bc1 13bc a972 99bd 3712 0cbd
00000060: 1743 17be 2dcf 5fbe 8c36 9ebe ea8f b0be
00000070: 0957 2dbe 274b 66be 0f69 26be fa67 0fbf
00000080: 9b1d 85be d34b 513d 437a debd 0df8 55be
00000090: 4602 87be 314a da3e 1840 3ebe 38af 37be
000000a0: 6c5a a8be 3d5c 2ebe cdf3 90bd 2402 813d
000000b0: d4aa 1dbe 7c8b 783c 2bbf 5a3e 208a 06be
000000c0: ca59 fdbb 870a a23d 2416 09bc 0bd9 ddbd
000000d0: 30a9 173e 1179 65bd 5bab 883d 2c69 623d
000000e0: 1e0e 003e 6406 273a df32 21bc 05fa ad3d
-0.10947925 0.010935739 -0.11407527 0.19215362 0.03969733 0.041737262 -0.14926101 0.04214612
-0.14609651 -0.014911795 -0.023198787 -0.01417283 -0.026523309 -0.034229975 0.17098574 -0.19780873
-0.17450784 -0.09613251 -0.033173315 -0.05664676 -0.04567316 -0.0090182675 -0.07492573 -0.03419706
-0.14771686 -0.21856375 -0.3090099 -0.34484798 -0.16927733 -0.22489606 -0.16251014 -0.5601803
-0.2599915 0.051097702 -0.10863163 -0.20895405 -0.26368922 0.4263473 -0.18579137 -0.17937934
-0.32881486 -0.17027374 -0.07077751 0.062992364 -0.15397197 0.015169974 0.21361987 -0.13138628
-0.007731651 0.07912164 -0.008367095 -0.10832413 0.14810634 -0.05602366 0.066733085 0.05527608
0.12505385 0.0006371497 -0.009838789 0.08494953

dense1.3.conv1.weight f4 [12, 60, 3, 3]
00000000: 803b 303d d865 acbc c310 593b abe4 0c3d
00000010: 1407 50bd 3af6 6ebd 323a 173d 7625 debc
00000020: 62d8 91bc fc1a bc3b 3613 d2ba 7fa4 87bc
00000030: 88bc 48bc bb95 9fbc 06b2 5abc aef6 91bc
00000040: d5d9 24bc b4c4 7cbb c862 413c cfeb 9c3c
00000050: 221c b03c 5af8 933a 773f 14bc cf4c bcba
00000060: b2cd 203c 2dd8 53bc bcdd e239 0487 bd3c
00000070: 59ef c83b dfe6 2b3d f1b3 b63d a6cf 453d
00000080: 7973 dd3d 2719 39bb 03ed 12bd 76fb 3c3d
00000090: 4e79 3a3e dc7b 1a3e 8f41 eb3c 1ed7 163e
000000a0: ea8f ea3d b110 f4bb e984 a83d e9ed 6b3d
000000b0: b3c7 30bd 4917 7fbc 2e4b 1fbc 92de 96bb
000000c0: 3bb7 53bc 8296 08bc d736 91bc d1b8 05bc
000000d0: 3560 e6bb 25db e73a 8ff8 e4bd 79b9 35be
000000e0: 511f f33d c74e 1fbd 226c ffbd b1ae de3d
000000f0: cf67 173c 3a88 12be b10a 7a3c 7330 ad3d
00000100: 3d6c 543d bab1 383d 4f50 c73c 49f2 e63b
00000110: 0b09 8f3c 6cd3 20bc 4bb2 95bc edc6 01bc
00000120: c3b6 bc3d 2029 013e 4359 4f3e cde5 e33c
00000130: 386d 543d 451d bf3d 620a b3bc 02fd ff3b
00000140: 7d51 153d 5c54 753b 62b3 aabc 4b42 87bc
00000150: 6fbb 933c 6c7f a8bc 6a33 2abd f68c 9abb
00000160: f2ec d9bc 1642 c0bc 0479 ae3c b0b0 99ba
00000170: adfc 143c 77b1 30bc 5f22 e2bc da83 5fbb
00000180: 7327 48bc 9c0d ebbc e697 b4bc 9ad6 08bc
00000190: db32 dcbb 1647 1b3c cba7 89bc 0806 d3bc
000001a0: 3928 93bc 3900 b0bb 5dd8 16bd 8585 35ba
000001b0: 18fe 3c3c 465e a43b fbe6 09bb 852e be3b
000001c0: 2d50 06bc 84f6 3a3b fe9f ba3b 1a08 9a3a
000001d0: 96d4 9cba 2fea fb3c f20d 113d bcbb 0b3d
000001e0: cb99 043d 94f7 be3c 05b5 a03c 3357 c03c
000001f0: ad10 283c 6107 46ba 0ab7 88bd 02ae 4ebd
00000200: 81c5 323d b38d da3c 43a1 323c 31f9 e73d
00000210: 83e5 31bd 6052 54bd a6ea 423c 8cf8 f3b9
00000220: 6427 413c 413f 2b3d d86f 90bb 0999 a83b
00000230: 43a1 2d3d 1ab5 babc 2ed3 2fbc 54a1 1c3d
00000240: 288a e33c 053b 043d 4377 563d 9e4f f43c
00000250: 6958 b73c e3ec 4c3d 3aec 5a3d 0c37 233d
00000260: a7d6 f73c 2f88 fb3c 629b 9f3c 4325 27bb
00000270: 66c9 013d 0511 163d 647a 16bc bd08 b53c
00000280: 504f 2d3c 0db6 0dbb ab1e 973d 3db0 963d
00000290: 21a9 9b3d 2067 903d 85bc 753d c286 513d
000002a0: f1d2 453d 1b23 103d 1ca4 e83c 57c7 023d
000002b0: 98f3 bb3c 6cf4 323d 7d35 163d ca20 173d
000002c0: 72a8 ff3c 1230 0d3d 7a76 ed3c 9492 0d3d
000002d0: b5c2 2c3e fe2c 0ebe 47f5 9abe 68ea 853d
000002e0: 2859 27be e8ba 71be 4743 5fbd 0ea5 42be
000002f0: 01d7 49be 2433 023d 20b8 f23c f390 9c3d
00000300: fa89 4ebc d3ba fdbb 8715 373d 9359 e73b
00000310: 0750 d2ba f728 563d c114 763c 0f44 5f3c
00000320: 86c3 2d3b a2d3 483c 6bb1 cc3b 701d cdba
00000330: 67f3 46bc cc1d 9d3b 5304 353c 7c57 953b
00000340: d652 963c cd21 b43c 3e01 41bb 66eb d83b
00000350: b177 e23c bb7a 8b3c afc6 9a3c 5fd8 9e3c
00000360: cbbf 873c 8109 00bc da3a 523d 9b94 a7b9
00000370: 4934 d8bb 31fe f23c 72a7 38bc 8498 f9bb
00000380: da69 1e3d b3f3 f0bc fc9a 0abe 659f 5fbd
00000390: ae91 31bd 36fa 76bd 563f 043d e9f8 58bd
000003a0: 58d2 31bd 1d10 3b3c eae6 a0bb 7854 48bb
000003b0: a331 163c c414 1cbd 5c70 5bbd f181 fabc
000003c0: b451 1dbd 36fc 21bd 1544 2abc e886 ba3d
000003d0: 1300 16bc d8a9 dfbd e4c4 9b3d bab1 40bd
000003e0: 75e6 08be 659f af3d 7233 bfbd 9d2d 29be
000003f0: 32aa 42bb de3d 7b3b 446d dd3c edfb 3ebc
0.043025494 -0.021044657 0.0033121563 0.034397762 -0.050788 -0.05834029 0.036920734 -0.027117472
-0.017803375 0.0057405215 -0.0016027454 -0.01655793 -0.012251981 -0.019480577 -0.013348108 -0.017817821
-0.010061701 -0.0038569393 0.011803336 0.019155411 0.02149779 0.0011289224 -0.009048334 -0.0014366152
0.009814667 -0.012929958 0.00043271284 0.02313567 0.006132048 0.041968223 0.0892104 0.048293732
0.1081304 -0.0028243752 -0.035870563 0.04613825 0.18210337 0.15086311 0.028717784 0.14730498
0.11453231 -0.007448279 0.082284756 0.057599936 -0.043159198 -0.015569516 -0.009722514 -0.004604169
-0.0129221035 -0.008336665 -0.017726345 -0.008161739 -0.0070305117 0.0017689212 -0.11180221 -0.17746533
0.118712075 -0.038893487 -0.124717966 0.108731635 0.0092410585 -0.14309779 0.015261338 0.084565066
0.051861037 0.04509137 0.024330286 0.0070479256 0.017460367 -0.009816032 -0.018273493 -0.007920963
0.092145465 0.12613344 0.20248894 0.027819538 0.05186197 0.093317546 -0.021855537 0.0078121433
0.036454666 0.0037434315 -0.02083749 -0.016511103 0.018033711 -0.020568572 -0.04155294 -0.004716511
-0.026602242 -0.023469012 0.02129794 -0.0011725631 0.009093446 -0.010784498 -0.02760428 -0.003410569
-0.012216437 -0.028693013 -0.022045087 -0.008351946 -0.0067199296 0.009477397 -0.016803643 -0.025759712
-0.017963516 -0.0053711203 -0.036827434 -0.0006924498 0.01153519 0.005016121 -0.0021042216 0.0058038854
-0.008197826 0.0028528282 0.005695342 0.0011751682 -0.0011965211 0.030751316 0.03541369 0.034114584
0.03237323 0.023311414 0.019617567 0.02347908 0.010257882 -0.00075542 -0.06675537 -0.050458916
0.043645386 0.026678896 0.010902706 0.11326826 -0.04343177 -0.05183637 0.011896765 -0.00046533754
0.011789177 0.04180837 -0.004407864 0.0051451963 0.04239012 -0.022791434 -0.0107315015 0.038239792
0.027775839 0.032282848 0.05235983 0.02982312 0.022381024 0.0500306 0.05344794 0.03984742
0.030253721 0.030704586 0.019483272 -0.0025504387 0.03168621 0.036637325 -0.009184454 0.022098893
0.010577992 -0.0021623403 0.07378896 0.073578335 0.07600618 0.070509195 0.05999424 0.051153906
0.048296873 0.03518973 0.028398566 0.031928387 0.022943303 0.04369013 0.036672104 0.036896504
0.03120825 0.03446967 0.028987158 0.034563616 0.1687115 -0.1388435 -0.30265257 0.0653885
-0.16342604 -0.23606455 -0.05450752 -0.19008276 -0.19710924 0.031787053 0.029628813 0.07644834
-0.012606138 -0.0077432184 0.044698264 0.0070602386 -0.0016045579 0.05228516 0.015019597 0.013627066
0.0026514246 0.012257488 0.006246736 -0.0015649032 -0.012142993 0.004794812 0.011048394 0.004557548
0.018350046 0.021988774 -0.0029450203 0.0066198586 0.027644964 0.017026296 0.018893568 0.019390283
0.016570946 -0.007814766 0.051325656 -0.00031963442 -0.0065980298 0.029662224 -0.011270391 -0.007617058
0.038675167 -0.02941308 -0.13535684 -0.05459537 -0.04335182 -0.060297213 0.032286964 -0.052971754
-0.04341349 0.011417416 -0.0049103396 -0.0030567925 0.009167108 -0.03810574 -0.05357395 -0.030579539
-0.038407996 -0.039547168 -0.010392209 0.091077626 -0.009155291 -0.10921067 0.07605913 -0.047044493
-0.13369162 0.08575324 -0.09335984 -0.16521306 -0.0029703495 0.0038336436 0.027029641 -0.0116567435

dense1.4.bn1.weight f4 [72]
00000000: 2122 393f 4c2e a43e cbd7 2a3f 9c56 6d3f
00000010: 7281 833f 1a48 293e d689 d83e 2106 0c3f
00000020: fb5c 9e3f 9861 5b3e 0fc0 3e3e e7d9 a13d
00000030: 9ebc fc3d b491 923e a36c 3d3f 9981 013f
00000040: 4fc0 033f 0ee8 b73e e294 8a3e 3722 d83e
00000050: eae2 073f 9f2b 5d3e fe3e b93d e2cc f93d
00000060: 7346 c93e b707 713f d245 073f 92dc 503e
00000070: 4e3a 843e a04f 323e 5c53 c83e 07d6 b03e
00000080: 6ea1 e43e cb1a f13e 9f08 d13e b24c 063f
00000090: 9f7c 153f aaba 883f 624c 673e 6c35 583e
000000a0: 9353 ad3e b655 a33d 60f5 a83e d091 093f
000000b0: 33c1 a93e 500f 273f 48c6 543f 2a0f db3e
000000c0: c07a b63e 8a67 1d3e cb32 aa3e 7bdf dd3e
000000d0: 4ef4 9f3e 5a5a 773e 41f1 9b3e 265e a03e
000000e0: 026f 9f3f 71e9 923e 3d55 543e 04d4 223f
000000f0: 9d16 533e f512 343e f3be c63f a966 6d3e
00000100: 2e9e 123e c2de a13d 3a41 d13d 4553 523f
00000110: 9b5e 893d 68be 283f dfb9 9a3e bbe3 2f3e
0.723177 0.32066572 0.66735524 0.9271028 1.0273879 0.16531411 0.4229266 0.5469685
1.2372125 0.21423948 0.18627952 0.0790289 0.123406634 0.28626788 0.7399389 0.50588375
0.51465315 0.3591923 0.27066714 0.42213604 0.5308062 0.21598671 0.09045218 0.121972814
0.3931156 0.94152397 0.5284091 0.20396641 0.25825733 0.17413187 0.39126098 0.3453829
0.4465441 0.47090754 0.4082689 0.5246078 0.5839328 1.0681965 0.22587731 0.21114129
0.33852825 0.079753324 0.32999706 0.5373812 0.33155212 0.6525774 0.83115053 0.42785007
0.35640526 0.15371528 0.33241877 0.43334565 0.31241077 0.2415556 0.304575 0.3132183
1.2455752 0.28693727 0.20735641 0.6360476 0.20614095 0.17585357 1.5527023 0.23183693
0.14318153 0.07903816 0.10217519 0.8215831 0.06707498 0.65915537 0.30219933 0.17176716

dense1.4.bn1.bias f4 [72]
00000000: 8053 fcbe 45aa 0dbc 0507 6ebe 54c8 e2bd
00000010: 3875 e8be 7881 4ebc 94d3 c1bd ea12 d9bc
00000020: 320b 6a3d 793c 2a3b b0f0 0abd d249 babd
00000030: bc49 17bd a95a 20be 219b 533d d26b 84be
00000040: 63e4 fcbe 47a3 cfbe 6c3d 86be 6764 9ebe
00000050: a0de 8dbe 3e0b 0a3e 9e3c e53c ea6b 403d
00000060: 3d52 da3c 890e fb3c 35ed 67be 3cee 27be
00000070: 8a54 febb 6713 86bd 76d2 c7bc 7a65 b9bc
00000080: 0b96 ecbd 33ca c2bd 6b88 3abd d3a5 973c
00000090: 98c6 30be bfed e0bd 30ec f1be 6513 7fbc
000000a0: 04c1 4dbe 7ee8 9cbd 7d5c b6bc 8685 3abe
000000b0: 0928 1c3d bd34 563d f3eb 26be e7df e73e
000000c0: 6a26 2f3d 4194 863d 1501 9a3b c772 f63c
000000d0: 21af 823d 8ba8 49bd 5e23 aebc 4835 a5bd
000000e0: 2eca 1bbe 1bfa baba 3090 723d 50d9 1c3e
000000f0: 278f ebbc 483b 18bd 62cd 6fbe a5fe 4e3d
00000100: 1059 0fbc 79f6 c33c 5292 0bbd 397f 72bd
00000110: 4fa0 afbd 7d6f e63d 9a01 903c 95cb 123d
-0.49282455 -0.008646552 -0.23244865 -0.11073366 -0.4540193 -0.01260411 -0.094641834 -0.026498277
0.057139583 0.0025975986 -0.033920944 -0.09096111 -0.036935553 -0.15659584 0.051661614 -0.2586351
-0.49392995 -0.40554258 -0.26218736 -0.30935976 -0.27708912 0.13480851 0.027983006 0.046977915
0.026650542 0.03064658 -0.22649081 -0.16399473 -0.0077615427 -0.065466695 -0.024392348 -0.022631396
-0.11552056 -0.09511223 -0.045540255 0.018511688 -0.17263258 -0.109828465 -0.4725051 -0.015568589
-0.20093161 -0.07661532 -0.022260899 -0.18214998 0.038124118 0.05229639 -0.16300945 0.4528801
0.042761244 0.06571246 0.004699836 0.030084027 0.063810594 -0.049233 -0.021257099 -0.08066803
-0.15213844 -0.0014265211 0.05921954 0.15317273 -0.028754784 -0.03716591 -0.23418191 0.050535817
-0.0087492615 0.023921238 -0.03407509 -0.05920336 -0.08575498 0.112517335 0.017578889 0.035838682

dense1.4.conv1.weight f4 [12, 72, 3, 3]
00000000: a56f fbbd 2243 32be 8447 07be 5e6e 22be
00000010: 0710 51be 94d9 33be 75d8 d2bd 0fee 11be
00000020: f974 06be c27e 4cbc df8e 8ebc 5e8e e5bc
00000030: 6661 863c 0db4 79bc eab9 d9bb 02ab af3c
00000040: f0cb bf3c df79 f93b eaed 46bd 9c15 9cbd
00000050: bfc4 a8bd 830e a3bd 26fd cdbd 6158 c4bd
00000060: 261f 84bd b9eb dbbd a9dc d7bd aefa c1bd
00000070: 633f 8abd f7be 84bd 0ecc 68bd 18ce 7dbd
00000080: aeb4 13bd 1f5b a7bd c32c c5bd 5186 69bd
00000090: dd7c 86be 0400 65be 1df5 6ebe 9248 74be
000000a0: 611b 6abe 1135 73be 0b1a 77be b413 84be
000000b0: 29a2 8abe 7e8e bcbc 4899 f1bc 0ee0 c7bc
000000c0: 5c13 c2bc 4f43 0cbd 156c fdbc ac81 e8bc
000000d0: 919d febc 42fa 53bc bc3e 6fbc c325 a1bc
000000e0: 058e 843c 8c58 d9bb 977b a2bc b3e7 043d
000000f0: 1396 cebb e92e 4bbb addb bb3c 2987 3e3d
00000100: 0569 793c def2 2d3c 11c3 973c 4a05 b4bc
00000110: 954f a7bc 3ee0 f63a 9891 a2bc 539b 13bd
00000120: 3f06 193e fe0d b33d 010f 513d c90e d23d
00000130: bcc2 293c 925b 9dbd 023d 6abd c2ef b8bd
00000140: 7b61 2cbe d7eb 0ebd c34c 00bd 97b1 80bc
00000150: df05 3dbd 6cac bbbc 4947 05bc 1d65 1cbd
00000160: 8b86 b5bc 8db5 adbc f9f9 2abc 50fe 4cbc
00000170: 967e 27bc b283 d6bc 3017 00bd d728 a1bc
00000180: 4f88 abbc caaa bfbc 2969 4abc 7272 6b3b
00000190: a90b d73b 9fcc ad3b ab2a 52bc 40e0 2dbc
000001a0: 8b29 11bc 9a12 53bc deaf c0bc 5fe6 4ebc
000001b0: 8c0b b4bb 9920 0cbc 0356 ee39 2d0d 7bbb
000001c0: 8352 05bb 2a60 84ba 3f07 59bc cf65 52bc
000001d0: b184 babb 6cab 74bd f3d8 05bd f868 18bd
000001e0: bf5c 93bd d18a 2fbd 36a0 06bd 8b35 6ebd
000001f0: 78b9 51bd 50fd 24bd 2e79 9ebd d91f 6dbd
00000200: 8fbd f9bc a547 31bd 8450 5fbd 2377 9abc
00000210: 51b1 8cbd 5c95 71bd 362f 0bbd 4736 54bd
00000220: b55f c3bd af96 04bd cce9 7fbc fc19 92bd
00000230: 64d4 15bd bd3c 583c bc9a 65bd 1fed 2ebd
00000240: aa46 4abd 2d66 2cbd a25c 813b 46a3 63bd
00000250: f472 14bd c18b 5b3c f89b 35bd 4566 0bbd
00000260: c5d7 8eba 8b95 0dbd b7be cfbc be96 f1bc
00000270: c765 a8bc 02f9 cbbc f13e c2bc 17a2 00bd
00000280: 07d5 39bd bbd7 75bd c6a6 4ebd 39df 80bd
00000290: bd5d 3ebd f5fd d5bc 61e8 08bd 72a3 fcbc
000002a0: eeaa febc 470b f6bc b04e 46bd 7233 02bc
000002b0: d404 52bc 9f3d f7bb c9a3 233c f4cd a63c
000002c0: b325 2e3b d92a de3c 2aad cb3c 868f 803c
000002d0: 38cb 41bc fc82 89bd 231f c2bd 4833 303d
000002e0: d4dc 10bd 0dc6 68bd 62bc 993d 310e ca3c
000002f0: 0000 eebc 4fdb cabd c81a ddbd 70ec c5bd
00000300: dc47 bcbd 87d8 ffbd b1c3 d8bd d23d 91bd
00000310: c29f b3bd 3a99 96bd 032c 003b f65a 723c
00000320: c78c fd3b ccfc 0a3d cf76 a83c 6797 0d3d
00000330: 039e 093d ae54 2c3d 7188 173d 7289 44bd
00000340: b96b 82bd d9ed 47bd dabe 8fbc f53f 4fbc
00000350: a70d 3fbc ca44 e33a e2b7 243b 13e6 833a
00000360: 5004 e3bb 74a3 b2bc f367 38bc 4c19 0abd
00000370: 825e 5bbd 9e9b 31bd 0462 b2bc fcac 68bd
00000380: d7f7 17bd ae8e 1fbe 8bf7 55bd 38a2 f53b
00000390: 5586 c3bd cf6e c3bd 11ea 4fbd 65d5 26b9
000003a0: b6e2 f7bd e358 40be e73c c8bd 8a5b 0dbe
000003b0: 3f34 0dbe fb97 a9bc 8d2e 61bd 67aa 8ebd
000003c0: 302b 663b 8894 64bb 8004 18bb 6f1d 0abd
000003d0: bbcf 18bd 41db 43bc f13f 77bd c254 5abd
000003e0: af86 ffbc b30b 3dbd 047d 03bd 503d d83b
000003f0: f713 a33c 8b53 b6bc 0cdf 1ebd ba8d 483d
-0.12277154 -0.17408422 -0.13210875 -0.15862414 -0.2041627 -0.17563468 -0.10295192 -0.14250968
-0.13130559 -0.012481393 -0.01740211 -0.028021988 0.016403865 -0.015240681 -0.006644477 0.021443848
0.023412675 0.007613405 -0.048566736 -0.07621309 -0.08240651 -0.07961752 -0.1005805 -0.095871694
-0.064512536 -0.1073832 -0.105401345 -0.094716415 -0.06750371 -0.06481736 -0.056835227 -0.061964124
-0.03606098 -0.08171677 -0.09627678 -0.05701286 -0.26267138 -0.22363287 -0.23335691 -0.23855808
-0.22862007 -0.23750712 -0.24131028 -0.25796282 -0.27076843 -0.023017164 -0.029492036 -0.02439883
-0.023690872 -0.034243878 -0.030935327 -0.028382145 -0.031080993 -0.012938084 -0.014602359 -0.019671327
0.016181001 -0.00663287 -0.019834323 0.032447528 -0.0063045113 -0.0031003302 0.022931898 0.046515618
0.0152227925 0.010616986 0.018525632 -0.021975178 -0.02042369 0.001883514 -0.019844815 -0.0360368
0.14943789 0.08742903 0.0510397 0.10256726 0.01036137 -0.07683481 -0.057187088 -0.09030105
-0.16834061 -0.034892883 -0.031323206 -0.015709681 -0.046148177 -0.022909366 -0.0081346715 -0.038182367
-0.022158882 -0.021204734 -0.010435575 -0.012511805 -0.0102230515 -0.026185844 -0.031272113 -0.019672794
-0.02093902 -0.023396868 -0.012354174 0.003592637 0.0065626693 0.0053039338 -0.012827556 -0.010612547
-0.008860002 -0.012882853 -0.02352136 -0.012628167 -0.0054945406 -0.008552694 0.0004545898 -0.0038307414
-0.002034337 -0.001009946 -0.0132463565 -0.012841656 -0.0056920876 -0.059733793 -0.032677602 -0.03720948
-0.07195424 -0.042856995 -0.032867633 -0.05815653 -0.051202267 -0.04028064 -0.07737957 -0.0578917
-0.030485896 -0.043281216 -0.054520145 -0.018855637 -0.06869758 -0.05898033 -0.03398057 -0.051809575
-0.09539739 -0.032370266 -0.015619706 -0.071338624 -0.036579505 0.013198075 -0.05605577 -0.042706605
-0.049383797 -0.04208963 0.0039478103 -0.05557563 -0.03624244 0.013400019 -0.044338197 -0.03403308
-0.0010898045 -0.034566443 -0.025359495 -0.029490825 -0.020556344 -0.02489901 -0.023711653 -0.03140458
-0.045369174 -0.06002019 -0.050452016 -0.06292576 -0.046476115 -0.026122073 -0.03342474 -0.030839656
-0.031087365 -0.030034674 -0.048414886 -0.007946836 -0.012818534 -0.0075451876 0.00998778 0.020361878
0.0026572763 0.02712004 0.024862844 0.015693437 -0.011828236 -0.067144364 -0.09478595 0.043017656
-0.035366848 -0.0568295 0.07506634 0.02466497 -0.029052734 -0.09905111 -0.10796124 -0.096642375
-0.091933936 -0.12492471 -0.105842 -0.070918694 -0.08770706 -0.073534444 0.0019557483 0.014792195
0.007737729 0.033932492 0.020564465 0.034568217 0.033597957 0.042072944 0.036995355 -0.04798264
-0.06368203 -0.048810814 -0.01754706 -0.012649526 -0.01166097 0.0017339226 0.0025134017 0.0010063074
-0.0069280043 -0.021806456 -0.011255252 -0.03371553 -0.053556927 -0.0433613 -0.021775253 -0.056805596
-0.037101593 -0.15581772 -0.05223803 0.0074961446 -0.09547106 -0.095426194 -0.050760332 -0.0001591049
-0.121037886 -0.18783908 -0.09777241 -0.1380445 -0.13789462 -0.020702353 -0.054976035 -0.069660954
0.0035120957 -0.003487857 -0.0023196042 -0.033719476 -0.037307482 -0.01195413 -0.060363714 -0.053303488
-0.031192152 -0.046153735 -0.032101646 0.006599106 0.01990698 -0.022256633 -0.038786933 0.048963286
