independent_train_1000.0/client76/checkpoint_1000.0.pth (torch, 420139 bytes, 98 tensors)

conv1.0.weight f4 [16, 3, 3, 3]
0.070082985 -0.056282237 0.40114352 -0.34545764 -0.7893552 -0.26870832 -0.1316543 -0.59340835
-0.15064053 0.027476966 -0.2553485 0.09069827 -0.05607728 -0.5875187 -0.17300956 0.3804991
-0.13648291 0.21852587 -0.09039287 -0.1112156 0.1934029 -0.37838793 -0.6226556 -0.21772616
-0.27947694 -0.5273713 -0.15869609 -0.7178315 -0.6212068 -0.6002344 -1.0730306 -1.0144024
-0.8793453 -1.073713 -1.2358677 -0.9882817 0.814959 1.028253 0.8069878 0.90477455
1.1794167 1.0263321 0.86560297 0.91441834 0.82434034 -0.21711442 -0.11576381 -0.2883532
0.07993667 0.2768032 0.08235103 0.28933397 0.30108014 0.146598 -0.25637382 0.26476052
-0.34007376 -0.10129436 0.8066913 -0.56599796 0.43578115 1.0164444 -0.86976194 -0.37340716
0.65009475 -0.79174614 -0.19299865 1.1496431 -1.1814071 0.23917873 1.2094384 -1.5810875
-0.24538425 0.4810245 -0.22201577 -0.059439525 1.0459783 -0.64415526 0.30320877 1.0299379
-1.1597664 0.1073309 -0.066391915 0.056183305 -0.0067607937 -0.09760114 0.114832945 0.3453087
0.17200537 0.46249616 -0.71285754 -1.0114459 -0.74349594 -1.0758063 -1.3977929 -1.1218418
-0.8485214 -1.2737113 -0.97139764 0.8086625 0.9008591 0.8811167 0.9037903 1.0778027
0.95018584 0.8692328 0.87666124 0.7376695 -0.4466291 0.1562128 0.32364628 1.4142426
-0.0047382736 -1.0984432 1.8858291 -0.69021726 -1.6052034 -0.34453136 0.0004897132 0.007572925
1.6248984 -0.05530255 -1.3256823 2.1758764 -0.6027467 -1.6248803 -0.35316506 -0.021245431
0.2925608 1.5087953 -0.16082089 -1.1245122 2.031728 -0.7785238 -1.5985214 0.053112797
0.094183214 0.050638374 0.41107807 0.6447721 0.46118882 0.106235005 0.36460078 0.28161317
-0.113703996 -0.09304939 -0.10513882 0.26993278 0.483065 0.31904992 -0.04905992 0.17436437
0.109359756 0.033808455 -0.003718704 0.0063384986 0.36096513 0.5232491 0.40980434 -0.15999612
0.011114868 0.004022395 0.56261265 0.59543085 0.22887725 0.8947715 1.1600289 0.7679149
0.5247634 0.97818744 0.62297064 0.07670801 -0.06054388 0.022445148 -0.115404725 -0.24031444
-0.1136897 -0.379941 -0.35439157 -0.16030727 -0.4339661 -0.53113854 -0.2629878 -0.6890752
-0.9263883 -0.53828114 -0.755467 -0.9230401 -0.47455603 -1.0705283 0.8729985 1.1409726
1.1176801 1.4739369 0.57508665 0.0048838453 -1.7233506 -2.5428064 -0.9130995 0.8849391
1.2916323 1.1599078 1.4692547 0.79068017 -0.10906208 -1.8358159 -2.3768818 -1.4804469
-0.0004720486 0.48508102 1.0210575 1.3385466 0.82762176 0.39492992 -1.029488 -1.4171677
0.54507405 0.76028377 0.4430534 0.80189556 1.2294962 0.7738141 0.4101357 0.8427242
0.32823408 -1.0323315 -1.2284276 -1.0531195 -1.4046892 -1.5254732 -1.3270297 -1.3243557
-1.3735543 -1.1570039 0.5189092 0.58278304 0.5188449 0.50315523 0.7369293 0.6430607
0.2810725 0.5139667 0.4015961 -0.4810045 -1.2911055 -0.6923567 -0.57109845 -0.5812369
-0.4835427 1.2381519 2.0222003 1.2213022 -0.45809948 -1.3262157 -0.6533515 -0.5427611
00000000: ab87 8f3d 3488 66bd af62 cd3e d3df b0be
00000010: 2f13 4abf 2394 89be 63d0 06be 9ce9 17bf
00000020: 8341 1abe 6017 e13c 0abd 82be 04c0 b93d
00000030: 4ab1 65bd a067 16bf 6b29 31be c7d0 c23e
00000040: 2dc2 0bbe 3fc5 5f3e e61f b9bd 01c5 e3bd
00000050: 690b 463e 10bc c1be 5b66 1fbf 9bf3 5ebe
00000060: 9a17 8fbe ce01 07bf 3a81 22be cec3 37bf
00000070: 6907 1fbf f6a8 19bf 1159 89bf f0d7 81bf
00000080: c61c 61bf 6d6f 89bf ea30 9ebf 0800 7dbf
00000090: 27a1 503f cb9d 833f c196 4e3f 4e9f 673f
000000a0: 20f7 963f da5e 833f 2898 5d3f 5217 6a3f
000000b0: f807 533f 3e53 5ebe 9415 edbd 08a3 93be
000000c0: d6b5 a33d 26b9 8d3e a8a7 a83d 9523 943e
000000d0: 2d27 9a3e c91d 163e 6e43 83be b18e 873e
000000e0: 261e aebe 6b73 cfbd 5283 4e3f 3ee5 10bf
000000f0: b51e df3e da1a 823f b8a8 5ebf 392f bfbe
00000100: 9c6c 263f e0af 4abf 70a1 45be 8127 933f
00000110: 5938 97bf 45eb 743e e1ce 9a3f 1361 cabf
00000120: 0246 7bbe d848 f63e 1a58 63be dc76 73bd
00000130: 9ee2 853f 5ce7 24bf 2e3e 9b3e 01d5 833f
00000140: 3a73 94bf 4ed0 db3d 7cf8 87bd 7720 663d
00000150: a689 ddbb 1be3 c7bd 892d eb3d 4dcc b03e
00000160: 2d22 303e 4ccc ec3e d57d 36bf 0f77 81bf
00000170: c055 3ebf 05b4 89bf e1ea b2bf 8398 8fbf
00000180: b338 59bf f908 a3bf 84ad 78bf 8104 4f3f
00000190: b49e 663f dd90 613f cd5e 673f 70f5 893f
000001a0: 613f 733f 0a86 5e3f df6c 603f e9d7 3c3f
000001b0: 92ac e4be 40f6 1f3e f7b4 a53e e705 b53f
000001c0: 8543 9bbb c999 8cbf d962 f13f 14b2 30bf
000001d0: 4e77 cdbf 6a66 b0be 1960 003a 4d26 f83b
000001e0: acfc cf3f ed84 62bd f5af a9bf 8f41 0b40
000001f0: 9c4d 1abf 14fc cfbf 0dd2 b4be e60a aebc
00000200: 87ca 953e 3420 c13f 3bae 24be 04f0 8fbf
00000210: d507 0240 564d 47bf 599c ccbf ce8c 593d
00000220: 21e3 c03d 2f6a 4f3d d378 d23e c90f 253f
00000230: f120 ec3e bd91 d93d f4ac ba3e 9a2f 903e
00000240: a4dd e8bd ae90 bebd 0653 d7bd a134 8a3e
00000250: 4c54 f73e 835a a33e 0ef3 48bd 938c 323e
00000260: 02f8 df3d bc7a 0a3d 80b5 73bb 2eb3 cf3b
00000270: 6cd0 b83e a7f3 053f e0d1 d13e 06d6 23be
00000280: 231b 363c 4bce 833b 6207 103f 286e 183f
00000290: cc5e 6a3e bf0f 653f d47b 943f 1296 443f
000002a0: e556 063f 7e6a 7a3f 017b 1f3f 1719 9d3d
000002b0: dcfc 77bd e3de b73c 5059 ecbd fd14 76be
000002c0: 25d6 e8bd a087 c2be d072 b5be 9727 24be
000002d0: ce30 debe b2f8 07bf 56a6 86be 3b67 30bf
000002e0: c927 6dbf cbcc 09bf 4966 41bf 5b4c 6cbf
000002f0: 02f9 f2be 1207 89bf d47c 5f3f 640b 923f
00000300: 2410 8f3f f7a9 bc3f e138 133f aa08 a03b
00000310: c196 dcbf 57bd 22c0 e4c0 69bf 5e8b 623f
00000320: 3554 a53f dc77 943f 8a10 bc3f 046a 4a3f
00000330: f15b dfbd 04fc eabf d51e 18c0 497f bdbf
00000340: 4a7d f7b9 8a5c f83e 03b2 823f 7f55 ab3f
00000350: 05df 533f 4134 ca3e 43c6 83bf c065 b5bf
00000360: f989 0b3f f5a1 423f e5d7 e23e 0749 4d3f
00000370: 2260 9d3f ae18 463f 4efd d13e c6bc 573f
00000380: 4c0e a83e 7023 84bf 1e3d 9dbf 9fcc 86bf
00000390: dbcc b3bf b542 c3bf 1cdc a9bf 7d84 a9bf
000003a0: a1d0 afbf b418 94bf 3cd7 043f 4531 153f
000003b0: 05d3 043f c8ce 003f 66a7 3c3f a09f 243f
000003c0: bce8 8f3e 5293 033f 019e cd3e 3946 f6be
000003d0: f242 a5bf 4a3e 31bf 8233 12bf f1cb 14bf
000003e0: e992 f7be c37b 9e3f bb6b 0140 a153 9c3f
000003f0: 048c eabe 70c1 a9bf 0b42 27bf 64f2 0abf

conv1.1.weight f4 [16]
1.6099029 1.6175907 1.6614078 1.7247868 2.1897185 1.3808625 1.584751 2.2503176
1.5952606 1.550757 1.687605 1.6701617 1.5057951 1.5234263 1.5149263 1.6254675
00000000: 4c11 ce3f 360d cf3f 03a9 d43f d0c5 dc3f
00000010: 5924 0c40 1ac0 b03f 1fd9 ca3f 3405 1040
00000020: 8031 cc3f 357f c63f 7103 d83f dcc7 d53f
00000030: e5bd c03f a2ff c23f 1be9 c13f 520f d03f

conv1.1.bias f4 [16]
-0.15683931 0.6512825 1.1711365 0.3485517 -0.21023983 0.4560538 0.53317064 -0.18238151
0.5318871 -0.28675687 0.40258506 -0.23669103 0.22431694 0.8588607 0.035515577 0.19711752
00000000: 7c9a 20be 73ba 263f cde7 953f 5e75 b23e
00000010: 1c49 57be e27f e93e df7d 083f 38c2 3abe
00000020: c129 083f ccd1 92be a11f ce3e 225f 72be
00000030: 57b3 653e 4bde 5b3f c878 113d 2dd9 493e

stage2.0.branch1.0.weight f4 [16, 1, 3, 3]
-0.114766344 -0.15852006 0.50017184 0.32546678 -0.4295802 0.35185233 0.12995388 -0.7033465
-0.13846305 0.29320312 -0.2798385 -0.7163006 -0.46714273 0.1668726 0.81801194 -0.61191964
0.9264165 1.8521874 -0.038470138 -0.0827734 -0.08845289 0.18843646 -1.2937063 0.87645036
0.95856637 -2.739021 1.935011 0.35468608 -0.4326815 -0.38573954 -0.43447474 -0.10559195
0.51712394 -0.4180079 0.6588821 1.4521632 -0.05297748 0.06126216 0.008151508 0.54526037
0.6520582 0.5103316 0.18946297 0.47653604 1.1522672 -0.09751589 -0.2661521 -0.6341568
-0.101796895 0.29443675 0.09449594 -0.2991042 0.49053153 0.92830265 -0.5695425 0.45390275
0.7895124 0.14633477 -0.54313093 -1.0450381 0.9750422 -0.52618396 -1.2424666 -0.113278925
0.07067495 0.43939084 0.37765813 1.0891513 0.73895866 0.3860892 1.2206727 0.7196409
-0.30354762 0.3275318 0.722612 0.5352681 0.017073026 -0.55885726 0.86615527 -0.83341235
-2.0319552 0.22768602 -0.20836727 -0.67892206 0.4298248 -0.793736 -1.1471617 0.027306588
-1.3266593 -1.1116642 0.04266091 1.2597725 -1.3149307 -1.7696235 0.5881197 1.355581
1.528058 -1.8062885 0.27923346 -0.07426477 0.15070802 0.119419865 -0.5915549 -0.54509825
-0.2504681 -0.46218315 -0.50897336 -0.8228506 0.027195763 -0.0090687815 0.04575492 0.17328477
0.16879992 0.19022761 0.002926497 0.028026845 0.0575624 0.77184427 0.069252804 -0.5578311
1.0996122 0.08802958 -0.8387133 0.51399773 -0.29802328 -0.8762475 -0.40630686 0.6388413
0.8825033 0.428069 -0.060992345 -0.5138584 0.58535564 -1.0611247 -1.5818671 0.00896577
0.23552902 0.25638774 0.20181316 -0.4813757 -0.80730295 0.6389823 -0.41742995 -0.834841
00000000: 9e0a ebbd 1553 22be 430b 003f 95a3 a63e
00000010: f0f1 dbbe fd25 b43e a112 053e 840e 34bf
00000020: 42c9 0dbe b81e 963e fe46 8fbe 7a5f 37bf
00000030: 552d efbe a7e0 2a3e 3b69 513f c4a6 1cbf
00000040: a229 6d3f 7a14 ed3f dd92 1dbd 1a85 a9bd
00000050: ca26 b5bd 7df5 403e 2b98 a5bf 0d5f 603f
00000060: 9b64 753f 1f4c 2fc0 71ae f73f 6a99 b53e
00000070: 6e88 ddbe a77f c5be 7973 debe 9840 d8bd
00000080: 3c62 043f 2205 d6be 7fac 283f 7ce0 b93f
00000090: eafe 58bd 08ee 7a3d e78d 053c 2f96 0b3f
000000a0: 49ed 263f 17a5 023f 9502 423e 88fc f33e
000000b0: 7e7d 933f 69b6 c7bd 1745 88be 1a58 22bf
000000c0: e47a d0bd 6ac0 963e 1687 c13d 3024 99be
000000d0: f326 fb3e 3ea5 6d3f 8acd 11bf f165 e83e
000000e0: 7c1d 4a3f c8d8 153e a10a 0bbf cfc3 85bf
000000f0: 5e9c 793f feb3 06bf 2509 9fbf c8fe e7bd
00000100: 07be 903d d6f7 e03e 685c c13e 4f69 8b3f
00000110: 652c 3d3f 7cad c53e 013f 9c3f 633a 383f
00000120: 986a 9bbe 40b2 a73e 1afd 383f 5507 093f
00000130: bbdc 8b3c 4511 0fbf 5abc 5d3f 835a 55bf
00000140: 8e0b 02c0 8626 693e 3b5e 55be d6cd 2dbf
00000150: ff11 dc3e 4832 4bbf 32d6 92bf 11b2 df3c
00000160: f9cf a9bf 034b 8ebf 35bd 2e3d 3a40 a13f
00000170: a64f a8bf 0683 e2bf 038f 163f ae83 ad3f
00000180: 6897 c33f 7634 e7bf b0f7 8e3e 2118 98bd
00000190: 3453 1a3e 6792 f43d 2470 17bf 8f8b 0bbf
000001a0: 5b3d 80be 45a3 ecbe 144c 02bf 56a6 52bf
000001b0: a6c9 de3c 3a95 14bc 8369 3b3d 9071 313e
000001c0: e3d9 2c3e 07cb 423e 79ca 3f3b 8e98 e53c
000001d0: 8dc6 6b3d 9697 453f 6ad4 8d3d 05ce 0ebf
000001e0: 18c0 8c3f da48 b43d eab5 56bf 5b95 033f
000001f0: 8296 98be c251 60bf 7407 d0be 1a8b 233f
00000200: bceb 613f dc2b db3e 1cd3 79bd 398c 03bf
00000210: ded9 153f efd2 87bf 9f7a cabf 2ae5 123c
00000220: 852e 713e 4145 833e 1ca8 4e3e e076 f6be
00000230: 68ab 4ebf 5894 233f 61b9 d5be 24b8 55bf

stage2.0.branch1.1.weight f4 [16]
1.1603442 1.6450537 1.8826048 1.6437807 1.4868591 1.2528975 1.7966484 1.3704365
1.7229569 1.2072694 2.2762108 1.4507358 0.3630373 1.0461998 1.5295582 1.4580587
00000000: 2986 943f 1f91 d23f 32f9 f03f 6867 d23f
00000010: 6651 be3f f25e a03f 93f8 e53f 776a af3f
00000020: da89 dc3f ce87 9a3f 70ad 1140 b6b1 b93f
00000030: 06e0 b93e e0e9 853f 90c8 c33f aba1 ba3f

stage2.0.branch1.1.bias f4 [16]
0.10769188 -0.32607967 0.89400804 0.060189903 -0.45977107 -0.17814498 1.4002208 -0.41262782
-0.073017925 0.69968474 -0.99708503 0.34994534 -0.17211626 -0.32972574 -0.3629127 0.13897109
00000000: 8f8d dc3d eaf3 a6be b6dd 643f b089 763d
00000010: 1d67 ebbe a36b 36be 6f3a b33f f443 d3be
00000020: 6c8a 95bd 8a1e 333f f740 7fbf 092c b33e
00000030: 3f3f 30be d0d1 a8be b2cf b9be 704e 0e3e

stage2.0.branch1.2.weight f4 [16, 16, 1, 1]
0.19513908 0.6966689 0.026637388 0.9566306 -0.066215284 0.47405317 0.7722459 0.4757026
0.46285236 -0.78732485 0.075865075 -0.10172145 -0.13116194 -0.48015064 -1.4107841 1.2520213
-0.61884385 -0.2820835 0.007493767 0.12080046 -0.04729747 -0.12568259 0.010602752 2.1611876
-0.11445371 -0.829759 -0.13680871 0.06220387 0.05305602 0.17378338 0.47222313 -0.18091011
0.015237638 0.5508799 0.00781851 -1.2150304 0.07387252 -0.34232172 -0.74848574 0.15970442
1.971372 0.14073704 0.016848393 0.17980063 0.1264818 -0.026095022 0.21123496 -0.923191
-0.2745588 -1.0467212 0.03339174 -0.8888272 -0.0040692203 -1.1675236 -1.0496074 0.03411277
0.40405858 0.6539225 0.10446108 0.32271624 -0.02938878 0.22226971 0.019806538 0.84979075
0.35973904 0.3097989 -0.11063389 0.2871144 0.7557775 0.29570532 0.30286244 0.051351078
-0.06267815 2.254349 0.39026034 -0.37495875 -0.09930292 0.32028195 -0.11280303 -0.20598884
-0.29962984 -0.29516128 1.9395057 -0.120227724 -0.032973878 -0.22110428 0.20972337 -0.19488533
0.15229633 0.0030110371 -0.10752203 -0.23077644 0.056728654 -1.3728977 -0.18454473 0.087077215
0.18337362 -0.26185414 0.0118881045 0.29220694 0.09882866 0.3076109 -0.050191477 -0.1744094
0.015108756 0.090738036 2.6642025 0.08300106 0.08488711 0.08000048 -0.09255585 0.22732085
0.16870971 -1.6537137 0.10321942 -0.0619427 -0.061304048 0.45897827 -1.4813384 0.18025814
-0.7244311 -0.20252694 0.0871665 -0.10155098 0.03125074 0.011230753 0.8056511 -0.31061596
-0.42002848 0.084654965 -0.23410067 -0.024130987 0.23600028 -0.8357987 -0.15608753 0.098719835
0.6916254 1.019101 -0.028980834 0.10707309 -0.015270442 0.16307174 0.10784608 -0.07483286
-0.16269092 0.112024814 -0.6087064 -0.10002933 -0.5396889 -0.054161776 0.09251596 -0.029237216
-0.036361292 -0.15023701 -0.018878656 2.4913821 -0.11390419 -0.28312132 -0.34414032 -0.15620306
-0.15799607 -0.2678072 -0.3385461 0.11731635 0.7668537 -0.17141855 0.19278868 -0.9576146
0.34656316 -0.2359969 -0.3748541 0.057928223 -0.031294353 -0.7431084 0.13149154 0.5018143
-0.35384774 -0.7661947 0.18207708 -0.09839913 -0.17219213 -0.61175597 -0.940589 -0.4336753
-0.4277154 0.14770652 -0.009589232 -0.03026042 0.0030680879 0.1769799 0.6075205 -0.4032071
-0.158676 0.6325978 0.5077053 0.4185528 0.23260061 0.41078043 0.62908375 -0.40344983
0.5046166 0.27801827 -0.005086417 -0.5695505 0.04866199 0.10582122 -0.8537697 0.07543204
0.49090093 -0.09383314 -2.1796484 0.13059655 -0.31174845 0.29914987 -0.06568359 0.09974801
0.041666303 0.023706893 -0.02555691 -0.12506938 0.10246653 -0.08080573 -0.12338697 -0.024038104
0.3798951 0.12871225 -0.41818163 0.4429355 -2.6722143 0.18025546 0.010439064 0.17655401
-0.32926956 0.092538714 0.016010314 0.022605276 0.008414269 0.12826246 0.23789053 -0.24048245
0.38987607 0.91600853 0.057770554 -0.596287 -0.17178702 0.044831846 0.90969026 -0.26335454
0.4633994 -0.3294802 0.001445599 0.11978358 -0.027438879 -0.22132733 -0.424059 -0.76007694
00000000: 8ad2 473e e558 323f a736 da3c bee5 743f
00000010: e19b 87bd 19b7 f23e e8b1 453f 4b8f f33e
00000020: fcfa ec3e 1f8e 49bf 265f 9b3d 5653 d0bd
00000030: 514f 06be 4ed6 f5be 9394 b4bf 3c42 a03f
00000040: 8d6c 1ebf 406d 90be 468e f53b 3b66 f73d
00000050: feba 41bd f0b2 00be 2ab7 2d3c e650 0a40
00000060: b566 eabd 166b 54bf 9517 0cbe 7cc9 7e3d
00000070: 4551 593d 45f4 313e 3bc7 f13e 8040 39be
00000080: 49a7 793c 7706 0d3f 3519 003c 1e86 9bbf
00000090: 7a4a 973d cb44 afbe c39c 3fbf 8e89 233e
000000a0: eb55 fc3f 5f1d 103e a405 8a3c a81d 383e
000000b0: 7284 013e 3ac5 d5bc fa4d 583e 3f56 6cbf
000000c0: f992 8cbe f6fa 85bf c7c5 083d 2e8a 63bf
000000d0: 1857 85bb 6a71 95bf 8959 86bf d5b9 0b3d
000000e0: c4e0 ce3e 7767 273f b1ef d53d 103b a53e
000000f0: bdc0 f0bc ac9a 633e 5241 a23c e38b 593f
00000100: b72f b83e f69d 9e3e 0594 e2bd a900 933e
00000110: a27a 413f b066 973e c910 9b3e 8255 523d
00000120: 675d 80bd 4147 1040 34d0 c73e 98fa bfbe
00000130: 545f cbbd fffb a33e 4605 e7bd bdee 52be
00000140: 1569 99be 611f 97be b941 f83f f439 f6bd
00000150: 9e0f 07bd 2969 62be b9c1 563e 0590 47be
00000160: 92f3 1b3e d254 453b 8334 dcbd a950 6cbe
00000170: 4e5c 683d 1dbb afbf 4bf9 3cbe 8a55 b23d
00000180: 4bc6 3b3e bf11 86be 53c6 423c 269c 953e
00000190: ae66 ca3d 2d7f 9d3e 9495 4dbd 6198 32be
000001a0: b78a 773c ddd4 b93d 4b82 2a40 76fc a93d
000001b0: 4bd9 ad3d 4bd7 a33d ec8d bdbd ccc6 683e
000001c0: 3dc2 2c3e e4ac d3bf b464 d33d a1b7 7dbd
000001d0: f419 7bbd 33ff ea3e 7f9c bdbf 9795 383e
000001e0: 5174 39bf 3963 4fbe 5a84 b23d f6f9 cfbd
000001f0: c700 003d 3101 383c 273f 4e3f 0e09 9fbe
00000200: f90d d7be 955f ad3d 16b8 6fbe 59ae c5bc
00000210: 0faa 713e e7f6 55bf 69d5 1fbe a02d ca3d
00000220: 5d0e 313f e771 823f 3769 edbc 2349 db3d
00000230: e030 7abc 47fc 263e 68de dc3d f841 99bd
00000240: 7398 26be 446d e53d 2fd4 1bbf 2ddc ccbd
00000250: 0d29 0abf bdd8 5dbd 0279 bd3d e382 efbc
00000260: 94ef 14bd bbd7 19be 69a7 9abc ce72 1f40
00000270: 9a46 e9bd 47f5 90be 2933 b0be b2f3 1fbe
00000280: b9c9 21be 061e 89be ea55 adbe 8e43 f03d
00000290: 8650 443f 5888 2fbe 656a 453e 3b26 75bf
000002a0: ba70 b13e 2ca9 71be e0ec bfbe 2546 6d3d
000002b0: 822e 00bd 5a3c 3ebf b8a5 063e e776 003f
000002c0: 882b b5be 5625 44bf 6a72 3a3e 7c85 c9bd
000002d0: 2253 30be 0a9c 1cbf 71ca 70bf b00a debe
000002e0: 83fd dabe 6140 173e 271c 1dbc b3e4 f7bc
000002f0: f911 493b 383a 353e 7786 1b3f 2971 cebe
00000300: f67b 22be eef1 213f f9f8 013f 8d4c d63e
00000310: db2e 6e3e d051 d23e a20b 213f fa90 cebe
00000320: 8e2e 013f 6958 8e3e f5ab a6bb 10ce 11bf
00000330: cb51 473d ccb8 d83d a790 5abf 1d7c 9a3d
00000340: 5e57 fb3e 972b c0bd 5c7f 0bc0 1abb 053e
00000350: 7e9d 9fbe 2c2a 993e 1e85 86bd af48 cc3d
00000360: 49aa 2a3d f534 c23c ba5c d1bc 3012 00be
00000370: f9d9 d13d 797d a5bd 4fb2 fcbd 8feb c4bc
00000380: 9c81 c23e 25cd 033e e71b d6be 71c8 e23e
00000390: 8f05 2bc0 e394 383e 9c08 2b3c 93ca 343e
000003a0: 0596 a8be f084 bd3d 1028 833c b32e b93c
000003b0: 01dc 093c 3c57 033e 9399 733e 0841 76be
000003c0: d69d c73e 897f 6a3f d1a0 6c3d 44a6 18bf
000003d0: f0e8 2fbe 99a1 373d 76e1 683f 68d6 86be
000003e0: b042 ed3e a1b1 a8be 417a bd3a 1851 f53d
000003f0: 80c7 e0bc a2a3 62be 431e d9be 6794 42bf

stage2.0.branch1.3.weight f4 [16]
1.6825819 1.4428769 2.0273964 1.9968319 1.668147 1.8942357 1.9103345 1.8066314
0.98483336 1.2463806 0.93612456 1.0444714 0.92885566 1.5661124 1.4069812 1.1083026
00000000: d85e d73f 31b0 b83f ddc0 0140 3098 ff3f
00000010: d785 d53f 5176 f23f d785 f43f b33f e73f
00000020: 0a1e 7c3f 6689 9f3f dca5 6f3f 3db1 853f
00000030: 7cc9 6d3f 5f76 c83f f617 b43f dcdc 8d3f

stage2.0.branch1.3.bias f4 [16]
-0.07278249 0.9181921 0.11846377 0.55681115 0.28358498 -0.4042523 -0.09334747 0.03488281
0.46422005 0.3141067 0.5632957 0.30412534 0.35272217 0.011031101 0.17722492 0.40108085
00000000: fc0e 95bd a30e 6b3f 229d f23d 2d8b 0e3f
00000010: 0d32 913e 28fa cebe f52c bfbd 47e1 0e3d
00000020: 40ae ed3e 98d2 a03e 2634 103f 51b6 9b3e
00000030: 0098 b43e cbbb 343c 737a 353e 785a cd3e

stage2.0.branch2.0.weight f4 [16, 16, 1, 1]
0.06482159 -0.20251603 0.18340437 0.37029532 -0.02500821 1.5201926 0.48303708 -0.44896826
-0.36927977 0.036424797 -0.008744783 0.0096707335 0.92334557 0.6204365 0.79012096 -0.27824003
0.5101332 0.07874061 -1.0559428 -0.11844844 -0.76229733 0.0006911382 0.38360408 0.88904727
0.36514986 0.31799126 0.372086 -0.39291257 0.47569457 0.4626694 0.33870348 -0.091873705
1.3239405 -0.16957659 0.22544636 0.103848785 0.057179146 -0.048286296 -0.72533274 0.39911184
0.08606371 0.645604 -0.22622542 0.026947293 0.080377124 -0.12492173 -0.10162782 0.37172115
1.07031 0.080946974 -0.032841124 0.19527781 0.21873431 -0.0015449501 -0.720151 -0.6077202
-0.5056982 -0.36441857 0.18838742 0.54025173 -0.15559632 -0.043894894 0.5288618 -0.20085959
1.3803232 -0.37699908 -0.7241816 -0.058730125 1.006956 0.0011315864 0.5357723 0.048139032
0.22700305 0.18098204 -0.06223729 0.9949484 0.0014990632 -0.31798506 -0.16675155 0.51855457
-0.06677925 0.24360403 0.49680522 -0.07993555 0.97146034 0.5754526 0.13610128 0.11079837
0.6393395 0.054184824 -0.213449 0.9108817 0.7015028 0.31007308 -0.20176616 0.13435152
0.15103562 0.28163984 0.21822216 -0.39265028 0.23446518 1.0326566 1.1224773 0.1097833
0.5474061 0.11994136 0.18113214 0.15181486 0.97645086 0.024573537 -0.51025224 0.8202388
0.8243477 -0.7783713 0.1846763 -0.11885684 0.34481546 -1.1558288 0.48311788 0.61387926
-0.10237545 0.09139615 0.18755643 0.017257333 -0.8151632 -0.792145 0.0476337 -0.82020915
-0.049115818 -0.119644344 -0.6417156 -0.21663389 -1.8764848 -0.22112903 0.40342897 1.436206
-0.0715958 -0.16255984 -0.3527766 -1.4236518 0.41636214 -0.38777336 0.01875957 0.32882246
0.937706 0.064582065 0.09169941 -0.434334 -0.37113762 -0.57001823 0.1655812 -0.06066463
-0.7053736 0.57829905 0.22422013 -0.42554364 -0.07858967 0.020162947 0.15347447 1.006906
0.42322797 0.0019458616 0.0054347543 0.20072573 -0.11738207 0.50987905 0.09452184 -0.25528264
0.115551986 -0.12857307 0.4804815 -0.047114402 0.27013746 -0.010433186 -0.47317845 -0.19915017
0.13899614 -0.06494423 -0.08889066 -1.4508632 -0.03564768 0.3267145 0.90116835 -0.003071064
-0.66703135 0.24825555 -0.19523165 -0.008191498 0.34296218 0.22454497 -1.1939993 1.1426934
-0.15328269 1.3402008 -0.11845073 0.22915968 -0.20382065 0.09288213 -0.1651839 -0.18561582
-0.9252369 -0.103851 0.06806694 -0.08466989 -0.27494562 -0.2868102 1.0253127 0.34690002
0.35781205 0.41202256 0.71586186 0.03833358 -0.14126727 0.04547847 0.64321876 0.017947258
0.48316807 0.51603115 0.1398052 -0.36142668 0.38956326 -1.6820853 -0.16327772 0.2887318
0.1350919 -0.50804627 -0.05598978 1.8414516 0.07992376 -0.21932843 1.0737864 -0.06278833
1.2941362 0.011219815 -0.09481484 -0.19970673 -0.59520817 0.07231928 0.4778429 -0.66192794
-0.1110859 0.28774396 -0.040213097 -0.72360873 0.6060418 -0.50094706 0.6742158 -0.44584468
-1.0244046 -0.46439245 -0.4728156 0.5975354 -0.24858417 -0.14259824 -0.2165932 -0.37734163
00000000: 2fc1 843d 5d60 4fbe 5bce 3b3e 5997 bd3e
00000010: 05de ccbc ac95 c23f a350 f73e 2bdf e5be
00000020: 3d12 bdbe 2b32 153d 4746 0fbc ff71 1e3c
00000030: 6060 6c3f edd4 1e3f 5e45 4a3f 7a75 8ebe
00000040: 1798 023f c242 a13d 2229 87bf 1995 f2bd
00000050: eb25 43bf 802d 353a c167 c43e 9a98 633f
00000060: ecf4 ba3e c0cf a23e 0e82 be3e d62b c9be
00000070: 3d8e f33e 01e3 ec3e 8b6a ad3e 4828 bcbd
00000080: e276 a93f 7ca5 2dbe 69db 663e acae d43d
00000090: ae34 6a3d dac7 45bd 68af 39bf 6358 cc3e
000000a0: 2c42 b03d 4e46 253f a3a7 67be 92c0 dc3c
000000b0: c39c a43d f7d6 ffbd 3f22 d0bd 3c52 be3e
000000c0: ebff 883f 87c7 a53d 6a84 06bd e8f6 473e
000000d0: e3fb 5f3e ec7f caba d15b 38bf 8d93 1bbf
000000e0: 7075 01bf 1295 babe a2e8 403e f04d 0a3f
000000f0: a454 1fbe 22cb 33bd 7d63 073f 23ae 4dbe
00000100: 6eae b03f 0606 c1be f763 39bf 008f 70bd
00000110: efe3 803f bd51 943a 6028 093f 6f2d 453d
00000120: 7d73 683e 5b53 393e 87ec 7ebd f0b4 7e3f
00000130: 377c c43a f0ce a2be ebc0 2abe febf 043f
00000140: 8fc3 88bd 5673 793e 415d fe3e 40b5 a3bd
00000150: a0b1 783f dd50 133f 225e 0b3e 41ea e23d
00000160: c1ab 233f e8f0 5d3d 6092 5abe 8b2f 693f
00000170: b095 333f e6c1 9e3e ca9b 4ebe 7293 093e
00000180: 15a9 1a3e 1933 903e a175 5f3e 7509 c9be
00000190: a417 703e 172e 843f 56ad 8f3f 11d6 e03d
000001a0: ce22 0c3f d1a3 f53d b47a 393e 5b75 1b3e
000001b0: aff8 793f 714e c93c e49f 02bf 2cfb 513f
000001c0: 7308 533f 5743 47bf c91b 3d3e 376b f3bd
000001d0: a78b b03e 33f2 93bf 3a5b f73e 3127 1d3f
000001e0: 38aa d1bd e82d bb3d cb0e 403e 405f 8d3c
000001f0: 89ae 50bf 04ca 4abf 8e1b 433d 3af9 51bf
00000200: ab2d 49bd 1808 f5bd 7947 24bf 46d5 5dbe
00000210: a730 f0bf a66f 62be 3e8e ce3e 99d5 b73f
00000220: d2a0 92bd 1676 26be 229f b4be 393a b6bf
00000230: 6b2d d53e 3b8a c6be abad 993c 6b5b a83e
00000240: 800d 703f 9a43 843d e6cc bb3d 0761 debe
00000250: c005 bebe b7ec 11bf 1e8e 293e 7a7b 78bd
00000260: 5d93 34bf 680b 143f f699 653e dbe0 d9be
00000270: 9ff3 a0bd c42c a53c 6928 1d3e 4ce2 803f
00000280: 56b1 d83e 480c ff3a 0616 b23b 0c8b 4d3e
00000290: 0366 f0bd 6f87 023f ab94 c13d 68b4 82be
000002a0: 85a6 ec3d a9a8 03be ac01 f63e 08fb 40bd
000002b0: 754f 8a3e f4ef 2abc 7244 f2be 06ee 4bbe
000002c0: 0155 0e3e 7b01 85bd 4e0c b6bd e3b5 b9bf
000002d0: 4d03 12bd 1f47 a73e f8b2 663f e743 49bb
000002e0: 91c2 2abf b436 7e3e ceea 47be a235 06bc
000002f0: bd98 af3e 1eef 653e f8d4 98bf c743 923f
00000300: 23f6 1cbe b38b ab3f 4c96 f2bd d6a8 6a3e
00000310: 5cb6 50be fc38 be3d f825 29be 1312 3ebe
00000320: 53dc 6cbf d5af d4bd ae66 8b3d 6867 adbd
00000330: acc5 8cbe c9d8 92be 723d 833f e19c b13e
00000340: 2433 b73e 9ff4 d23e b942 373f ac03 1d3d
00000350: 5ea8 10be a247 3a3d fca9 243f 2106 933c
00000360: ce61 f73e 9e1a 043f 1829 0f3e eb0c b9be
00000370: d674 c73e 924e d7bf 4632 27be a8d4 933e
00000380: 8855 0a3e 520f 02bf 8a55 65bd b0b4 eb3f
00000390: 11af a33d a297 60be d571 893f 2b97 80bd
000003a0: 41a6 a53f 51d3 373c 482e c2bd ec7f 4cbe
000003b0: 905f 18bf 211c 943d d3a7 f43e 1c74 29bf
000003c0: 0181 e3bd 2d53 933e 7db6 24bd 6c3e 39bf
000003d0: 8e25 1b3f 113e 00bf 6899 2c3f c145 e4be
000003e0: b11f 83bf d9c4 edbe e314 f2be 14f8 183f
000003f0: d98c 7ebe 4605 12be 9cca 5dbe ec32 c1be

stage2.0.branch2.1.weight f4 [16]
1.2367947 0.99198955 1.0307173 0.94948995 1.7901304 1.2015322 0.8454486 1.0957315
1.6564578 1.1275971 0.34167448 1.2582982 1.3510517 1.0418026 1.4423336 1.2088017
00000000: 4a4f 9e3f 07f3 7d3f 8bee 833f c611 733f
00000010: fe22 e53f cfcb 993f 526f 583f ee40 8c3f
00000020: cf06 d43f 1a55 903f f5ef ae3e ea0f a13f
00000030: 43ef ac3f ca59 853f 639e b83f 04ba 9a3f

stage2.0.branch2.1.bias f4 [16]
-0.9446662 0.57868814 0.45542446 0.36547986 0.14841983 -0.20035008 -0.005880699 1.1650358
0.39163828 0.20778711 0.9967246 0.8636334 -0.72065693 0.21987136 -1.2264134 1.0816345
00000000: a5d5 71bf e824 143f 652d e93e 2d20 bb3e
00000010: 5efb 173e 9228 4dbe e1b2 c0bb e51f 953f
00000020: d084 c83e 25c6 543e 5829 7f3f 1417 5d3f
00000030: f97c 38bf f525 613e 1dfb 9cbf 0073 8a3f

stage2.0.branch2.3.weight f4 [16, 1, 3, 3]
-0.06832743 0.4212983 0.43747875 0.12853076 -0.32987407 -0.54985374 0.08503625 -0.91885304
-0.8331865 0.42298934 0.626684 0.32369533 -0.43374884 -0.14960377 0.18330643 -0.6256947
-0.87964284 -0.47992438 0.051450234 -0.23179726 -0.4630925 -0.16409388 0.38643327 0.432951
-0.37782675 0.86353785 0.87866867 -0.15037882 -0.11929037 -0.18226357 -0.019734075 0.36193353
0.6117417 -0.09841782 0.48101476 0.7952297 -0.115135185 0.23060389 0.31222907 0.013154796
-0.46607682 -0.8460468 -0.28406632 -0.715212 -1.4471267 -0.11369337 0.07324659 -0.57349676
-0.165135 -0.6649158 -1.0164546 0.18533848 0.06413125 -0.1825659 -0.21124566 0.25092185
0.78506553 0.4071444 -0.00075646 -0.4499398 0.79424804 -0.24941272 -1.5393691 -0.083538935
0.11862594 -0.38755858 -0.22381704 -0.48830867 -0.44158617 -0.4956933 -0.7709899 -0.5158141
-0.23748724 0.21473241 0.42374858 -0.16990869 0.576309 0.9731396 0.19472101 0.6173737
0.89452755 -0.12476493 0.10407201 -0.10353421 -0.16850136 0.5458194 0.57278335 -0.020437604
0.63030106 1.0044632 0.7547574 0.16247399 0.23859817 0.68928325 -0.31037807 -0.20002921
0.7066279 -0.3917368 -0.17442793 0.02375355 -0.1599733 -0.6634299 -0.3409176 0.25520548
0.3223234 -0.30794674 1.1325486 1.7606411 0.11078198 -0.11034296 -0.8851167 -0.22699195
0.3301403 0.5178544 -0.40829432 0.586398 1.6191533 0.24057585 0.4903647 0.3253943
-0.3997634 -0.2595069 -0.063288465 -0.30491152 -1.0317055 -1.0386451 -0.1733983 0.18131216
0.8182209 0.29583663 -0.42655864 -0.5868579 0.7885811 -0.6587278 -1.5108446 -0.11689633
-0.16129524 -0.5418794 -0.17427805 0.25029847 0.6132267 -0.02916296 0.6207083 1.3756597
00000000: 40ef 8bbd 69b4 d73e 37fd df3e 919d 033e
00000010: 41e5 a8be 37c3 0cbf 7c27 ae3d f439 6bbf
00000020: b64b 55bf 0f92 d83e 5d6e 203f 65bb a53e
00000030: 5414 debe bb31 19be aeb4 3b3e 872d 20bf
00000040: 4630 61bf a6b8 f5be 7bbd 523d 435c 6dbe
00000050: 761a edbe 3a08 28be 95da c53e c1ab dd3e
00000060: 8272 c1be d110 5d3f 6ef0 603f e8fc 19be
00000070: 824e f4bd 4da3 3abe 5ba9 a1bc 5a4f b93e
00000080: 1b9b 1c3f 488f c9bd 9147 f63e 2c94 4b3f
00000090: ffcb ebbd 6d23 6c3e 7ddc 9f3e 3787 573c
000000a0: 9fa1 eebe 8696 58bf 2471 91be 2218 37bf
000000b0: 733b b9bf 12d8 e8bd 4f02 963d afd0 12bf
000000c0: 2619 29be ec37 2abf 2f1b 82bf 5fc9 3d3e
000000d0: 3f57 833d 8ef2 3abe c850 58be d478 803e
000000e0: 0efa 483f 3b75 d03e 2c4d 46ba 825e e6be
000000f0: d753 4b3f 0c66 7fbe 0c0a c5bf 7616 abbd
00000100: 28f2 f23d 146e c6be 4b30 65be 9803 fabe
00000110: 9517 e2be 83cb fdbe 985f 45bf 650c 04bf
00000120: db2f 73be d0e2 5b3e 93f5 d83e 8bfc 2dbe
00000130: fd88 133f ad1f 793f f264 473e 340c 1e3f
00000140: c2ff 643f c184 ffbd b523 d53d be09 d4bd
00000150: 9f8b 2cbe d2ba 0b3f eea1 123f c36c a7bc
00000160: 695b 213f 4092 803f c837 413f 955f 263e
00000170: 1453 743e de74 303f e0e9 9ebe 75d4 4cbe
00000180: 91e5 343f ba91 c8be 3c9d 32be ce96 c23c
00000190: 0ad0 23be 8bd6 29bf c08c aebe 4baa 823e
000001a0: 9307 a53e 32ab 9dbe 5af7 903f b05c e13f
000001b0: aae1 e23d 7dfb e1bd 0297 62bf 9470 68be
000001c0: 2608 a93e 1b92 043f f40b d1be 2e1e 163f
000001d0: 6a40 cf3f 8459 763e 1511 fb3e 159a a63e
000001e0: caad ccbe 17de 84be 629d 81bd 5d1d 9cbe
000001f0: ed0e 84bf 53f2 84bf 538f 31be e5a9 393e
00000200: ed76 513f e677 973e e565 dabe 523c 16bf
00000210: 73e0 493f 63a2 28bf 5b63 c1bf 5867 efbd
00000220: 942a 25be 9cb8 0abf f275 32be 1f27 803e
00000230: 6dfc 1c3f 29e7 eebc bde6 1e3f 9e15 b03f

stage2.0.branch2.4.weight f4 [16]
1.3578728 1.2235832 1.3007092 1.4873718 0.7872901 1.0998572 1.4840424 1.0346739
1.4182479 1.1389881 1.0059749 1.3623959 1.5054575 1.2298577 1.439462 1.1515447
00000000: c7ce ad3f 609e 9c3f a47d a63f 3362 be3f
00000010: d88b 493f 1fc8 8c3f 1af5 bd3f 3270 843f
00000020: 2689 b53f 5dca 913f c9c3 803f fd62 ae3f
00000030: d5b2 c03f fa6b 9d3f 4a40 b83f d165 933f

stage2.0.branch2.4.bias f4 [16]
-0.09746992 0.06267826 -0.9803311 -1.3896887 0.72453374 0.4339221 -0.06564727 0.7319684
-0.29125103 -0.7961477 -0.5543346 -0.47674775 -0.039783396 1.0406272 0.8960721 -0.25995827
00000000: 4f9e c7bd 765d 803d fbf6 7abf 52e1 b1bf
00000010: 0b7b 393f 0a2b de3e 1372 86bd 4862 3b3f
00000020: db1e 95be 56d0 4bbf dfe8 0dbf 4818 f4be
00000030: eaf3 22bd 4633 853f fb64 653f 4019 85be

stage2.0.branch2.5.weight f4 [16, 16, 1, 1]
0.31836414 0.54011595 0.8014776 0.75714326 -0.29314396 -0.01862944 1.2819688 -0.7454373
0.040248282 0.057720974 -0.45912468 -0.8052923 -0.7948843 0.1784348 0.5599769 -0.17276569
0.74108434 -0.04086861 -0.22963563 -0.38521588 0.27695596 0.38557416 0.64921695 -0.21328159
-0.4481738 -0.6789516 -0.80662465 -0.6149161 -0.16964963 0.33255416 0.30971974 0.3637961
0.08757859 0.26301938 0.7126145 -0.13878664 -0.675337 0.7529402 0.21830584 -0.85471505
-0.23103277 0.19156007 -0.24860045 0.44923684 0.29779866 -0.4064591 0.14707561 0.10339295
-1.1310445 0.028404493 0.039980512 -0.43179667 0.36816418 -0.27904463 -0.15346526 0.6685967
-0.27728137 -1.0483804 -0.3254097 0.09445188 0.0930998 0.15586936 0.51240623 -0.49320543
0.54181373 0.28866318 -0.8056723 -0.94779086 0.094274506 0.2690057 0.13723353 -0.33628738
0.085466005 0.40551502 -0.3530791 0.93319136 -0.76443344 -0.037985038 0.51802313 0.4935444
-0.00537464 0.08927848 0.3865703 -0.5827665 1.0104649 1.2349755 0.4295227 0.57381976
0.2898231 1.021774 -0.30128485 0.2615249 -0.16049606 -0.10396693 0.37043163 -0.41233355
0.46853495 0.014408901 0.03017463 0.45205182 0.5352635 0.17714816 0.5915785 -0.43121865
-0.50526214 -0.2504486 -0.34109622 -0.8215158 0.9426798 -0.40298262 -1.3145071 -0.5201343
0.30281356 -1.0311059 -0.11065834 -0.46460223 0.1690738 0.19782159 -0.03270411 -0.48078626
1.3789129 -0.1577602 -0.43865302 -0.7444514 -0.043448087 -0.25388515 0.3086891 -0.35034388
-0.23004678 0.090806745 -0.049937133 -0.7817904 0.03993154 -0.4746407 -0.57997924 -0.46361837
-0.54939806 -0.20524223 0.018684043 -0.21760747 -0.9036065 -1.0553268 -0.47458848 0.49445507
0.3864072 -0.11686832 0.8608131 0.59676176 -0.32001406 -0.30959418 0.1736846 -0.4527229
-0.4163421 0.50530684 0.1949919 -0.056312025 -0.064768665 -0.26335278 -0.4333046 -0.57665116
-0.59471524 -0.16373572 -0.36525127 0.081438065 -0.20746833 -0.1873227 -0.23186107 0.2648709
0.15464593 0.32999346 0.3390868 0.64403415 0.69220906 0.32922348 0.21403055 0.01872732
-0.6382105 -0.18997541 0.11492484 0.0039012427 -0.1558364 0.048370983 -0.74826145 -0.23074776
0.3371378 -0.227506 -0.085368834 -0.73701155 0.07683089 -0.093609944 -0.83624494 -0.5873972
0.080350064 -0.88949496 0.3589342 -0.5111826 0.31183827 -0.3530963 -0.15297747 -0.16508701
-0.40555 0.1187893 0.45217627 0.1809149 0.43484977 0.94155604 -0.06374486 -0.39765722
0.46292683 0.4841441 0.12139006 -0.07816797 0.2881729 -0.45043662 0.29336262 -0.22754805
-0.7240476 0.42118752 -0.02668932 -0.10529797 0.64895886 -0.35777855 0.50419015 0.6178847
0.23051971 -0.004847025 -0.03472075 0.022801619 0.21323355 0.024543347 0.70416 0.13705193
0.18955511 0.31939128 0.047632486 -0.5252426 0.1151953 -0.7814027 0.24662098 -0.060895473
0.16415808 0.38114992 0.15781423 -0.4639878 0.4860094 0.07759772 -0.252456 0.08367497
0.38196024 0.43538067 0.82000905 0.5971285 0.4289028 -0.8075725 -0.36181116 -0.59915274
00000000: a000 a33e 0a45 0a3f a32d 4d3f 24d4 413f
00000010: f716 96be c49c 98bc 8e17 a43f fbd4 3ebf
00000020: 62db 243d d46c 6c3d 6412 ebbe a327 4ebf
00000030: 8a7d 4bbf 9db7 363e a55a 0f3f 7de9 30be
00000040: b4b7 3d3f d865 27bd 9a25 6bbe 043b c5be
00000050: 2ccd 8d3e fa69 c53e 1533 263f 7d66 5abe
00000060: 0977 e5be c6cf 2dbf f47e 4ebf 246b 1dbf
00000070: a2b8 2dbe 8a44 aa3e 9693 9e3e 7b43 ba3e
00000080: 675c b33d 7aaa 863e e76d 363f 161e 0ebe
00000090: e3e2 2cbf b0c0 403f 918b 5f3e 9bce 5abf
000000a0: db93 6cbe 5328 443e 1e91 7ebe 5f02 e63e
000000b0: 1179 983e 681b d0be fd9a 163e afbf d33d
000000c0: 11c6 90bf 8ab0 e83c 9bc2 233d 7414 ddbe
000000d0: 0480 bc3e f0de 8ebe ff25 1dbe 2729 2b3f
000000e0: d3f7 8dbe 5431 86bf 1a9c a6be fd6f c13d
000000f0: 1cab be3d 389c 1f3e 0e2d 033f 6c85 fcbe
00000100: 4eb4 0a3f a9cb 933e 8a40 4ebf 6ca2 72bf
00000110: fe12 c13d 1dbb 893e f286 0c3e dc2d acbe
00000120: cd08 af3d aa9f cf3e c9c6 b4be a1e5 6e3f
00000130: e9b1 43bf 3396 1bbd 2a9d 043f dab1 fc3e
00000140: c01d b0bb a3d7 b63d 8bec c53e 2f30 15bf
00000150: ea56 813f ad13 9e3f 66ea db3e dae5 123f
00000160: b263 943e 7ec9 823f 0242 9abe 97e6 853e
00000170: 1459 24be 9dec d4bd 37a9 bd3e 621d d3be
00000180: d0e3 ef3e 5013 6c3c c930 f73c 5673 e73e
00000190: 0707 093f 5466 353e b071 173f b1c8 dcbe
000001a0: dc58 01bf cd3a 80be 2aa4 aebe dc4e 52bf
000001b0: 7753 713f bd53 cebe c541 a8bf 8627 05bf
000001c0: 610a 9b3e 47fb 83bf d7a0 e2bd 58e0 edbe
000001d0: af21 2d3e be91 4a3e bff4 05bd 9e29 f6be
000001e0: 3880 b03f e48b 21be 2197 e0be 5e94 3ebf
000001f0: 9ff6 31bd 3cfd 81be 7f0c 9e3e 4660 b3be
00000200: 6291 6bbe e3f8 b93d e18a 4cbd 6a23 48bf
00000210: 418f 233d 1b04 f3be 8579 14bf 635f edbe
00000220: 5aa5 0cbf 052b 52be 470f 993c 7ed4 5ebe
00000230: c152 67bf f314 87bf 43fd f2be 3729 fd3e
00000240: 2ad7 c53e a858 efbd 3f5e 5c3f 61c5 183f
00000250: e2d8 a3be 2183 9ebe 60da 313e 4ccb e7be
00000260: cb2a d5be ca5b 013f f5ab 473e 70a7 66bd
00000270: 6fa5 84bd 2dd6 86be 1ada ddbe 699f 13bf
00000280: 423f 18bf 56aa 27be 3702 bbbe 00c9 a63d
00000290: 9472 54be 86d1 3fbe fd6c 6dbe 299d 873e
000002a0: 815b 1e3e e7f4 a83e c99c ad3e 6cdf 243f
000002b0: 9d34 313f fb8f a83e d32a 5b3e 096a 993c
000002c0: c361 23bf ea88 42be b75d eb3d feab 7f3b
000002d0: 9493 1fbe a720 463d 108e 3fbf 2449 6cbe
000002e0: 539d ac3e 55f7 68be dbd5 aebd caac 3cbf
000002f0: 8359 9d3d 92b6 bfbd 2614 56bf aa5f 16bf
00000300: 938e a43d f1b5 63bf 39c6 b73e dddc 02bf
00000310: 44a9 9f3e 0ac9 b4be 20a6 1cbe 920c 29be
00000320: 40a4 cfbe ce47 f33d a683 e73e c141 393e
00000330: a1a4 de3e d109 713f aa8c 82bd ba99 cbbe
00000340: bf04 ed3e bce1 f73e 5a9b f83d 8716 a0bd
00000350: 668b 933e a19f e6be a033 963e 5b02 69be
00000360: 2f5b 39bf e4a5 d73e 90a3 dabc 76a6 d7bd
00000370: 2b22 263f c02e b7be 9b12 013f b12d 1e3f
00000380: 5c0d 6c3e cbd3 9ebb 5837 0ebd 76ca ba3c
00000390: e559 5a3e 210f c93c d443 343f 5757 0c3e
000003a0: bc1a 423e 4187 a33e 481a 433d 4d76 06bf
000003b0: 83eb eb3d 020a 48bf 368a 7c3e 886d 79bd
000003c0: 0e19 283e 1526 c33e 0e9a 213e cf8f edbe
000003d0: 39d6 f83e 8eeb 9e3d ea41 81be c85d ab3d
000003e0: 4b90 c33e 37ea de3e 1dec 513f 6add 183f
000003f0: 2699 db3e 12bd 4ebf 503f b9be 1362 19bf

stage2.0.branch2.6.weight f4 [16]
1.6163466 1.5278629 1.7326978 1.3941127 1.5677388 1.2095672 1.6426101 1.248193
0.61883014 0.95788836 1.0344541 1.0036643 0.7822277 0.6812685 0.6960949 0.9019451
00000000: 72e4 ce3f 0391 c33f 0bc9 dd3f 4972 b23f
00000010: aaab c83f 19d3 9a3f 0c41 d23f cac4 9f3f
00000020: a76b 1e3f 2c38 753f fe68 843f 1278 803f
00000030: 1340 483f 9d67 2e3f 4633 323f e0e5 663f

stage2.0.branch2.6.bias f4 [16]
-0.15610847 0.54407233 0.11433188 0.3442 -0.08135447 1.1672103 0.5844738 -0.029673966
0.7225729 -0.08576136 -0.63873756 -0.109260276 0.78019655 0.5007278 0.41733223 0.58175534
00000000: e6da 1fbe 5348 0b3f d526 ea3d fb3a b03e
00000010: 2c9d a6bd 2667 953f 13a0 153f d116 f3bc
00000020: 8afa 383f a7a3 afbd 4e84 23bf dac3 dfbd
00000030: f6ba 473f b22f 003f 92ac d53e ebed 143f

stage2.1.branch2.0.weight f4 [16, 16, 1, 1]
-0.12692314 -0.20736319 1.3269925 0.4231182 -0.1579288 -0.016967382 -0.18891455 0.22665854
-0.4053691 0.1402684 -1.8037732 -0.23692453 1.4090322 -0.020148706 0.37648857 0.17265095
-0.91988075 0.625985 -0.45455214 -0.41730136 -0.123932414 0.7006463 0.17256479 0.6283764
0.41992363 0.08119058 -0.02175418 -0.3289275 -0.26609513 -0.20700502 0.10383978 0.16157605
-0.2315571 0.47647136 0.0656944 0.32187137 -0.2213719 0.54827935 1.123161 0.18316677
-0.44922403 0.030848537 0.16683334 -0.46841437 -0.13208978 -0.06890484 -0.45900518 -0.39614877
-0.3245383 -0.37222904 -0.63154614 -0.16031535 0.13553125 0.24107699 0.30521742 0.45208377
0.5269329 1.0927507 -0.3432829 0.050538324 0.50353837 -0.47789878 0.5401054 0.20268413
-0.18741052 -0.22351046 -0.1307506 -0.051609404 -0.036308844 -0.076324135 -0.12712164 0.053601008
-0.023120081 -0.020099191 0.12582652 -0.067441635 -0.072420746 -0.07750784 0.0508183 -0.054152235
-0.1886988 -0.22364041 -0.131313 -0.05224166 -0.036589485 -0.0759969 -0.12720133 0.052699566
-0.02318377 -0.020310055 0.1262578 -0.067791454 -0.072107375 -0.077773236 0.050831135 -0.05306425
-0.029477285 -0.081623346 -0.22832899 -0.31084645 0.04771544 0.36356503 0.28370976 0.4755247
0.7494954 0.7730972 -0.8614969 0.20536579 0.76084614 -0.57678074 0.3196258 -0.35796437
-0.18975471 -0.2250111 -0.13332343 -0.053179573 -0.03796055 -0.07624976 -0.12861663 0.053364728
-0.021880144 -0.019106193 0.12687007 -0.06858181 -0.069885656 -0.07715117 0.050187387 -0.05445689
-0.08468427 -0.40291584 -0.119247645 -0.23901501 -0.22034018 0.16696805 -0.08697661 -0.18943003
-0.23933679 -0.2162959 -0.77178293 -0.11989247 -0.027881738 -0.04551133 0.03535209 -0.22285546
0.076426856 0.43188745 0.6329966 0.44675604 1.136375 -0.1432943 0.21628077 -0.01106469
0.010578084 -0.71710265 -0.13097276 0.4034308 -0.21641332 0.4273282 -0.114579916 0.58928674
0.6832842 0.88733506 0.073379256 0.59809196 -0.90165883 -0.26160285 0.22774293 -0.2766214
-0.12807375 0.31215966 -0.034943778 0.71449465 -0.18256672 -0.08270946 -0.7355894 0.29662955
1.115853 -0.40935275 -0.22174889 0.9285252 -0.18012369 -0.3262981 0.31764442 -0.2540413
0.068538174 -0.652738 -0.047359783 0.25749043 -0.10004995 -0.09241683 -0.1926449 -0.34341684
-0.24198772 -0.18357475 -0.16672161 -0.24776304 0.119786434 -0.14226548 0.03240861 0.0016565372
-0.30573866 -0.25031343 1.4695748 -0.492533 -0.21660404 -0.07004567 0.101661995 -0.26185897
0.12663779 -0.66791624 -0.089161225 0.4469206 0.002565293 -0.27497405 -0.7244936 0.24708343
0.5235194 -0.006171821 -0.16708915 0.29893884 0.061186627 0.47910684 1.1089011 0.72976136
-0.05000644 -0.8873435 -0.31262034 -0.58825094 -0.36288643 -0.29693797 -0.1462284 -0.117658585
0.8579167 -0.017727496 0.37638447 0.99800366 -0.26490268 0.31820944 0.2924796 -0.3953462
0.30159444 0.08147576 -0.2425916 0.13101849 -0.22722076 0.7177101 0.80074674 0.93311065
-0.017631853 -0.24869022 -0.11494474 -0.20949286 0.26887703 -0.7683859 0.47203386 1.3021895
00000000: 24f8 01be 0457 54be e4da a93f f3a2 d83e
00000010: 16b8 21be 2eff 8abc d172 41be 2d19 683e
00000020: 8a8c cfbe 85a2 0f3e 0ae2 e6bf 589c 72be
00000030: 2b5b b43f e60e a5bc 1cc3 c03e 69cb 303e
00000040: 4e7d 6bbf 8e40 203f 0fbb e8be 86a8 d5be
00000050: 47d0 fdbd 8e5d 333f d3b4 303e 47dd 203f
00000060: 3b00 d73e 3f47 a63d d235 b2bc 2f69 a8be
00000070: 9f3d 88be 20f9 53be f3a9 d43d 3174 253e
00000080: 4e1d 6dbe 0ef4 f33e c98a 863d 53cc a43e
00000090: 51af 62be 095c 0c3f bdc3 8f3f 1290 3b3e
000000a0: b100 e6be 12b6 fc3c 5cd6 2a3e 02d4 efbe
000000b0: 8b42 07be fb1d 8dbd ba02 ebbe 03d4 cabe
000000c0: e229 a6be ce94 bebe 02ad 21bf b529 24be
000000d0: b4c8 0a3e e3dc 763e 7545 9c3e 8677 e73e
000000e0: 13e5 063f 41df 8b3f c7c2 afbe 4601 4f3d
000000f0: e4e7 003f 26af f4be 5944 0a3f 6e8c 4f3e
00000100: 8be8 3fbe eddf 64be 7ce3 05be 6264 53bd
00000110: 95b8 14bd d44f 9cbd 2d2c 02be bb8c 5b3d
00000120: 5366 bdbc 0fa7 a4bc abd8 003e d71e 8abd
00000130: 5451 94bd 6ebc 9ebd da26 503d bcce 5dbd
00000140: 423a 41be fe01 65be ea76 06be 5afb 55bd
00000150: dbde 15bd 43a4 9bbd 1141 02be 80db 573d
00000160: e4eb bdbc 4661 a6bc ba49 013e 3fd6 8abd
00000170: 08ad 93bd 9347 9fbd 4f34 503d e659 59bd
00000180: 597a f1bc 242a a7bd 13cf 69be 4427 9fbe
00000190: 4471 433d 3225 ba3e 6842 913e f977 f33e
000001a0: eede 3f3f b3e9 453f 108b 5cbf 694b 523e
000001b0: d0c6 423f e7a7 13bf fea5 a33e 1b47 b7be
000001c0: 0f4f 42be 4f69 66be f085 08be d3d2 59bd
000001d0: 867c 1bbd d628 9cbd 14b4 03be f994 5a3d
000001e0: fd3d b3bc 9784 9cbc 3aea 013e 9f74 8cbd
000001f0: 3620 8fbd 6f01 9ebd 4a91 4d3d 300e 5fbd
00000200: f26e adbd fc4a cebe 1c38 f4bd 5ac0 74be
00000210: dba0 61be acf9 2a3e cb20 b2bd f2f9 41be
00000220: b414 75be ac7c 5dbe 9193 45bf 2f8a f5bd
00000230: 3e68 e4bc 176a 3abd 5acd 103d 3934 64be
00000240: af85 9c3d 5a20 dd3e 110c 223f 35bd e43e
00000250: bc74 913f bebb 12be b578 5d3e ac48 35bc
00000260: b34f 2d3c 0a94 37bf b91d 06be 7b8e ce3e
00000270: 749b 5dbe c3ca da3e e0a8 eabd 7fdb 163f
00000280: b7eb 2e3f 6428 633f dd47 963d 8e1c 193f
00000290: 1dd3 66bf cff0 85be 7135 693e 52a1 8dbe
000002a0: c425 03be 64d3 9f3e 3521 0fbd 1fe9 363f
000002b0: c5f2 3abe 9463 a9bd 964f 3cbf d4df 973e
000002c0: 45d4 8e3f af96 d1be 2412 63be d4b3 6d3f
000002d0: 5872 38be 8b10 a7be 4aa2 a23e b411 82be
000002e0: be5d 8c3d d619 27bf 55fc 41bd c9d5 833e
000002f0: fde6 ccbd 0945 bdbd b444 45be 55d4 afbe
00000300: a1cb 77be 05fb 3bbe 12b9 2abe 98b5 7dbe
00000310: 9752 f53d 0bae 11be e4be 043d 2a20 d93a
00000320: c789 9cbe 1529 80be 071b bc3f 492d fcbe
00000330: 73cd 5dbe 1b74 8fbd 2a34 d03d 6112 86be
00000340: 56ad 013e 8ffc 2abf 299a b6bd c7d2 e43e
00000350: 7a1e 283b 66c9 8cbe 6a78 39bf 7003 7d3e
00000360: 5e05 063f fd3c cabb 6b19 2bbe 830e 993e
00000370: d49e 7a3d 7e4d f53e 79f0 8d3f a4d1 3a3f
00000380: 8ed3 4cbd f228 63bf c60f a0be 9d97 16bf
00000390: 40cc b9be 4108 98be e6bc 15be fcf6 f0bd
000003a0: 6ea0 5b3f 4139 91bc 77b5 c03e 2b7d 7f3f
000003b0: 53a1 87be 59ec a23e e3bf 953e d16a cabe
000003c0: 966a 9a3e c3dc a63d ef69 78be b629 063e
000003d0: 8fac 68be d9bb 373f bdfd 4c3f 57e0 6e3f
000003e0: ad70 90bc a6a8 7ebe 2668 ebbd 4c85 56be
000003f0: 40aa 893e f0b4 44bf 6cae f13e 25ae a63f

stage2.1.branch2.1.weight f4 [16]
0.8545049 1.11611 1.147021 1.3407762 0.0033948624 0.0033013562 1.2946143 0.005160992
0.012275655 1.1821193 1.1971825 1.0999534 0.708738 1.1115291 1.1086916 1.1895999
00000000: d5c0 5a3f b1dc 8e3f 96d1 923f 8e9e ab3f
00000010: 577c 5e3b 915b 583b ecb5 a53f 8a1d a93b
00000020: d41f 493c af4f 973f 473d 993f 46cb 8c3f
00000030: db6f 353f 9646 8e3f 9be9 8d3f cf44 983f

stage2.1.branch2.1.bias f4 [16]
0.32671374 0.78803927 0.74548364 0.50724244 -0.00031342878 -0.00033728516 0.33291867 -0.00088008953
0.0055246498 0.45234686 0.32877538 1.0592219 0.5231991 0.68291575 1.2275553 0.08605292
00000000: 0647 a73e f1bc 493f 04d8 3e3f a4da 013f
00000010: b353 a4b9 a6d5 b0b9 5174 aa3e cfb5 66ba
00000020: 1f08 b53b 029a e73e 3f55 a83e 9594 873f
00000030: 60f0 053f 91d3 2e3f 8820 9d3f 833c b03d

stage2.1.branch2.3.weight f4 [16, 1, 3, 3]
0.38250172 -0.32222846 0.26902643 0.08527382 -1.5430182 -0.8331982 0.55069 -0.57485116
-0.00817274 -0.0060661105 -0.05723035 -0.30767924 -0.015312624 -1.4459288 0.32734138 0.2665774
1.4211047 -0.20501614 -0.20788881 -0.2026061 -0.11238889 -0.30451086 -1.4150184 -0.0075509474
0.5749132 1.4183415 0.06270945 0.09707882 -0.538747 0.23303564 0.6793332 -1.1652884
-0.30504644 -0.44741213 -0.8956712 1.3729285 0.0010887178 -0.00022363459 0.00031501098 -0.00076556223
-0.00089389103 0.0010024828 0.0004220004 0.00028615945 0.0010249333 -0.0010190466 0.00051832956 -0.000618242
0.00080217066 0.0010584248 0.0011666677 0.0002037218 -0.0004354982 -0.0008696256 -0.35943577 0.02121361
0.18035288 -0.059409484 -1.2742047 1.5527517 0.1499067 0.24420924 -0.9861144 0.0023493215
0.000615129 0.001262762 0.0019649868 -0.00013922628 0.0021493156 -0.00018026843 0.0010676658 0.0013636628
0.00027101985 0.0030171142 0.002932563 0.0029053178 0.004700022 0.0046697166 0.0025497964 0.005476463
0.002717069 0.27062562 -0.32599288 -0.19017534 0.30381882 1.2952794 -1.9570539 -0.3864114
-0.08351841 1.1723768 -4.83414e-05 0.46771923 -0.2773361 0.5177869 -0.022192417 -1.0957018
-0.36982933 -1.2226756 1.5204608 0.031154748 -0.26803353 -0.18806708 0.7625054 0.8626811
0.87959284 -1.0594045 -0.98754215 -0.69754773 -0.052216724 0.034116223 -0.21783067 -0.111057594
-0.83961535 -0.5260063 -0.16070051 -0.095772065 -0.27626786 -0.16349044 0.34593204 -0.36204544
-0.6215035 2.155078 -1.4287786 -0.037072364 0.13744271 -0.101497404 0.24178168 -0.107253425
-0.058567982 0.31849375 1.6157575 0.23038478 -0.6073789 -1.3528152 -0.49839777 0.082858175
-0.28399304 0.32710436 0.58683336 -1.8059703 1.1161405 0.2650976 -0.583814 0.094786465
00000000: 44d7 c33e 21fb a4be d5bd 893e 0aa4 ae3d
00000010: 9f81 c5bf 7a4c 55bf 05fa 0c3f 7229 13bf
00000020: f5e6 05bc 39c6 c6bb 5f6a 6abd 2288 9dbe
00000030: cde1 7abc 3214 b9bf 4a99 a73e d57c 883e
00000040: c2e6 b53f c0ef 51be cee0 54be f977 4fbe
00000050: 252c e6bd d9e8 9bbe 531f b5bf f06d f7bb
00000060: 832d 133f 378c b53f d06d 803d 43d1 c63d
00000070: 53eb 09bf e5a0 6e3e c8e8 2d3f 2c28 95bf
00000080: 0c2f 9cbe 3413 e5be b54a 65bf 1fbc af3f
00000090: 4fb3 8e3a 747f 6ab9 0f28 a539 03b0 48ba
000000a0: 0354 6aba be65 833a ef3f dd39 ac07 9639
000000b0: 0e57 863a 8891 85ba 82e0 073a 8511 22ba
000000c0: c348 523a d8ba 8a3a dfea 983a 279e 5539
000000d0: 9453 e4b9 96f7 63ba f707 b8be 2ac8 ad3c
000000e0: 6dae 383e 5c57 73bd 2419 a3bf 91c0 c63f
000000f0: 2481 193e fd11 7a3e fe71 7cbf 13f7 193b
00000100: 9c40 213a 4383 a53a 02c7 003b 45fd 11b9
00000110: 88db 0c3b 7006 3db9 ebf0 8b3a eebc b23a
00000120: ab17 8e39 c7ba 453b 3e30 403b 2567 3e3b
00000130: a402 9a3b 6c04 993b 7c1a 273b e773 b33b
00000140: da10 323b 718f 8a3e 8ae8 a6be 53bd 42be
00000150: 248e 9b3e b7cb a53f be80 fabf b7d7 c5be
00000160: b30b abbd 7110 963f 2fc2 4ab8 e578 ef3e
00000170: fffe 8dbe af8d 043f dfcc b5bc f53f 8cbf
00000180: 455a bdbe a280 9cbf 769e c23f 3e38 ff3c
00000190: b13b 89be a894 40be 8e33 433f abd8 5c3f
000001a0: ff2c 613f 919a 87bf 90cf 7cbf 7d92 32bf
000001b0: 34e1 55bd 74bd 0b3d 010f 5fbe 2a72 e3bd
000001c0: 08f1 56bf 59a8 06bf ad8e 24be 2524 c4bd
000001d0: fb72 8dbe 0a6a 27be 011e b13e 055e b9be
000001e0: da1a 1fbf ccec 0940 38e2 b6bf 31d9 17bd
000001f0: c8bd 0c3e dfdd cfbd 9e95 773e afa7 dbbd
00000200: fbe4 6fbd 9d11 a33e 24d1 ce3f fde9 6b3e
00000210: 2f7d 1bbf 0c29 adbf fe2d ffbe 8cb1 a93d
00000220: 8967 91be 397a a73e b63a 163f 092a e7bf
00000230: b1dd 8e3f dfba 873e d674 15bf 681f c23d

stage2.1.branch2.4.weight f4 [16]
1.3095692 1.3476082 1.3187296 0.98752934 0.01282418 0.016660988 1.3323728 0.022593912
0.038412713 1.3868092 1.4260283 1.357243 1.2609439 1.3997468 1.4689568 1.3441077
00000000: f79f a73f 6d7e ac3f 22cc a83f b9ce 7c3f
00000010: 821c 523c a07c 883c 318b aa3f de16 b93c
00000020: a656 1d3d f782 b13f 1888 b63f 23ba ad3f
00000030: 9c66 a13f e72a b33f c706 bc3f b90b ac3f

stage2.1.branch2.4.bias f4 [16]
1.0240979 -0.33723247 -0.22984749 0.3490162 -0.0019075426 -0.0035152875 -0.07953558 -0.0038263388
0.0043319045 -0.07161061 0.21783721 0.083325684 0.21900643 -0.43918118 0.09806849 0.22434734
00000000: a415 833f bca9 acbe 245d 6bbe 40b2 b23e
00000010: 8206 faba bd60 66bb 8de3 a2bd 50c3 7abb
00000020: a6f2 8d3b 95a8 92bd b810 5f3e a8a6 aa3d
00000030: 3943 603e 5bdc e0be 22d8 c83d 4fbb 653e
