independent_train_1000.0/client75/checkpoint_1000.0.pth (torch, 225067 bytes, 29 tensors)

conv1.weight f4 [24, 3, 3, 3]
0	0x3e420c76	0.18950066
1	0x3ee8dfe8	0.45483327
2	0x3e2e1b93	0.17002706
3	0x3f157aed	0.58390695
4	0x3f69bdd8	0.91305304
5	0x3f153f98	0.5830016
6	0x3d86f9b1	0.065905936
7	0x3ec51b50	0.384974
8	0x3db3004c	0.08740291
9	0xbdaa4652	-0.08314194
10	0xbe084bcf	-0.13310169
11	0xbcf4c6f8	-0.029880032
12	0xbe38447e	-0.17994878
13	0xbe87672a	-0.26445895
14	0xbe13c920	-0.14432192
15	0xbdf0eecb	-0.11764296
16	0xbe5bd963	-0.21469645
17	0xbe03e29e	-0.12879416
18	0xbe1181ba	-0.14209643
19	0xbed961f7	-0.42457554
20	0xbe2f02fd	-0.17090984
21	0xbeb2813d	-0.34864226
22	0xbf2ad11a	-0.66725314
23	0xbebe2e13	-0.37144527
24	0x3d1a46e6	0.03766527
25	0xbe82fd0f	-0.25583693
26	0x3c401cc7	0.011725611
27	0xbfbda86b	-1.4817022
28	0xbfdb43ab	-1.7130026
29	0xbfbad138	-1.4595098
30	0x3f104963	0.5636198
31	0x3f66878c	0.9005058
32	0x3f29eb3f	0.6637458
33	0x3f44a021	0.7680684
34	0x3f9232eb	1.1421789
35	0x3f35028d	0.7070702
36	0xbf6b02df	-0.91801256
37	0xbf98389f	-1.1892279
38	0xbf6fd383	-0.93682116
39	0x3ec00391	0.3750272
40	0x3f26f0e9	0.6521135
41	0x3f013735	0.50474864
42	0x3ecd7e99	0.4013565
43	0x3f394526	0.7237114
44	0x3ee931f8	0.45545936
45	0xbacd7a27	-0.0015676663
46	0xbee37fdb	-0.44433483
47	0xbddd1b2d	-0.10796199
48	0x3e826024	0.25463974
49	0x3e805dd8	0.25071597
50	0x3ea761eb	0.32691893
51	0xbdec4de9	-0.11538298
52	0xbdfa0a68	-0.12209016
53	0xbd9f2fb8	-0.077727735
54	0xbd741cbd	-0.05959772
55	0x3e8b88ce	0.2725281
56	0xbd190ffd	-0.037368763
57	0x3d9c7e99	0.07641334
58	0x3ed336b9	0.41252688
59	0x3e5944df	0.21217678
60	0xbda2d0eb	-0.07950004
61	0x3e64e3d1	0.2235253
62	0x3dec98f2	0.115526095
63	0x3e3a82bc	0.18213934
64	0x3e6250fa	0.22101203
65	0x3e243d11	0.1603892
66	0xbe070304	-0.13184744
67	0xbdfaf0e2	-0.12252976
68	0xbdc09ce9	-0.09404928
69	0xbe1ce9c5	-0.15323551
70	0xbe48c3e3	-0.19605975
71	0xbdbf28dd	-0.09333966
72	0x3e021112	0.12701824
73	0xbd9339bb	-0.071887456
74	0x38bf8907	9.133113e-05
75	0xbec38539	-0.38187578
76	0xbf2c43a3	-0.67290705
77	0xbef5632e	-0.4792723
78	0xbe93fad8	-0.28902316
79	0xbf18d3bf	-0.596981
80	0xbebaa2cb	-0.36452326
81	0x3ca8b819	0.020595597
82	0xbd41154e	-0.04713946
83	0x3e7b6389	0.24549688
84	0x3fa303c8	1.2735529
85	0xbe1dbffd	-0.15405269
86	0xbf9fbad3	-1.2478889
87	0x3ee07769	0.43841103
88	0xbdcc1b17	-0.099661045
89	0xbe377355	-0.1791509
90	0x3f354e72	0.70822823
91	0xbeb2662a	-0.3484357
92	0xbf28af65	-0.6589263
93	0x400c46eb	2.1918285
94	0xbe8f4c3b	-0.27987847
95	0xc007696b	-2.1158092
96	0x3f93a23a	1.1533883
97	0xbe633b6d	-0.22190638
98	0xbf5ee1bb	-0.8706319
99	0x3e9180f2	0.2841869
100	0xbe83dac7	-0.2575285
101	0xbe22ff48	-0.15917695
102	0x3fec3202	1.8452761
103	0xbddaa367	-0.10675698
104	0xbfd04d8b	-1.6273664
105	0x3f81c67c	1.0138698
106	0xbdd1a3d9	-0.102363296
107	0xbf398650	-0.7247057
108	0xbf45e3d0	-0.7730074
109	0x3d938fa1	0.072051294
110	0x3f3f8dbf	0.7482566
111	0x3f6a19dd	0.91445714
112	0x400f5a72	2.2398953
113	0xbfad4dc2	-1.3539355
114	0xbf679bc2	-0.9047204
115	0x3f783062	0.96948826
116	0xbedf69b3	-0.4363533
117	0xbf1cac35	-0.6120027
118	0xbd484eca	-0.048903264
119	0x3e9eaebc	0.30992687
120	0x3ee7602d	0.45190564
121	0x3fd11ab0	1.6336269
122	0xc0049176	-2.0713782
123	0xbf80a95f	-1.0051688
124	0x3f60b78e	0.8778008
125	0xbe84d523	-0.2594386
126	0xbf21a632	-0.6314422
127	0xbeb57b96	-0.3544585
128	0x3f0c9e63	0.5492918
129	0x3e88997b	0.26679596
130	0x3fa3bbf0	1.2791729
131	0xbfbd282a	-1.4777882
132	0xbf38f4b1	-0.7224837
133	0x3f5897e5	0.8460677
134	0x3ea344a0	0.31888294
135	0x3e6013b1	0.21882512
136	0x3b5a0dde	0.0033272426
137	0x3e23c200	0.15991974
138	0xbe0ec98e	-0.13944075
139	0xbea5a0d9	-0.3234928
140	0xbe59ef46	-0.21282682
141	0x3a1d1eed	0.0005993683
142	0xbe02ebef	-0.12785314
143	0xbdbfec64	-0.0937126
144	0xbed968eb	-0.4246286
145	0xbf0a83fd	-0.5410765
146	0xbed31ee2	-0.412345
147	0xbf17622f	-0.5913419
148	0xbf225f55	-0.63426715
149	0xbf12fbd1	-0.5741549
150	0xbf30a727	-0.69005054
151	0xbf3ab85d	-0.72937566
152	0xbf319e19	-0.6938186
153	0x3d42c5cd	0.04755192
154	0x3ec91c06	0.39279193
155	0x3e3e15b9	0.18562974
156	0x3f4d73b8	0.802547
157	0x3fa394c0	1.277977
158	0x3f74e95c	0.9566858
159	0x3ec44b1b	0.3833855
160	0x3f5b2602	0.8560487
161	0x3f029ee1	0.5102368
162	0xbebeebe7	-0.37289354
163	0xbc398ad4	-0.011324603
164	0xbeec913f	-0.46204564
165	0x3f3b36bf	0.7313041
166	0x3faa67ba	1.3312905
167	0x3f3b9f12	0.732896
168	0x3edaacb6	0.42709893
169	0x3f82769f	1.019245
170	0x3ed8a4a0	0.423131
171	0xbe304b5b	-0.17216246
172	0xbef4c30c	-0.4780506
173	0xbdfc145d	-0.123085715
174	0xbf64114c	-0.8908889
175	0xbf9fb5b4	-1.2477326
176	0xbf40540a	-0.75128233
177	0xbf2f5b9a	-0.6849915
178	0xbf880eb8	-1.0629492
179	0xbf1cab67	-0.6119904
180	0x3f070b47	0.5275158
181	0x3eb0c9d6	0.3452899
182	0x3efbea80	0.49202347
183	0x3e1efa71	0.15525223
184	0xbd85098d	-0.06495962
185	0x3e366cf2	0.17814997
186	0x3dcf3f8c	0.101195425
187	0xbe26f115	-0.16302903
188	0x3da88d10	0.082300305
189	0x3e828c9b	0.25497898
190	0x3ef272fc	0.4735335
191	0x3ea69a2e	0.32539505
192	0x3eb05cef	0.34445903
193	0x3f22b59e	0.63558376
194	0x3f0f3759	0.5594383
195	0xbe8bab2c	-0.2727903
196	0xbd7af285	-0.06126644
197	0xbcb4d99b	-0.022076419
198	0x3da1b82d	0.07896457
199	0x3e58c7ba	0.2116994
200	0x3e7357fd	0.23764034
201	0xbda3e430	-0.08002508
202	0x3d2057be	0.039146177
203	0x3e1307c9	0.14358439
204	0xbee6cf72	-0.45080143
205	0xbedef080	-0.43542862
206	0xbe9191f2	-0.2843166
207	0xbcd566a8	-0.026049927
208	0xbcf86869	-0.030323224
209	0x3db48227	0.08813887
210	0xbe6d05eb	-0.23146789
211	0xbe78448c	-0.24244899
212	0xbd7aa851	-0.061195675
213	0xbe9171cd	-0.28407136
214	0xbea37eb9	-0.3193262
215	0xbe0bc660	-0.13649893
216	0xbd42d15b	-0.04756294
217	0x3f795811	0.97400004
218	0x3d9b00a8	0.075684845
219	0x3f7477a7	0.95495075
220	0xbfbacb7a	-1.4593346
221	0x3f2742a2	0.6533605
222	0x3e3c9107	0.18414699
223	0xbf4d7172	-0.8025123
224	0x3efbd717	0.49187538
225	0x3de5f357	0.11228054
226	0x3ea721b2	0.32642895
227	0x3ded4f83	0.11587431
228	0x3ed076c0	0.407156
229	0xc02f3ca8	-2.7380772
230	0xbdb907e4	-0.09034708
231	0x3f29426f	0.66116995
232	0xbf389bcf	-0.72112745
233	0x3f82a23f	1.0205764
234	0xbdf88fad	-0.12136779
235	0x3f17a109	0.59230095
236	0x3e489ca6	0.19591007
237	0x3eb494a9	0.3526967
238	0xbffc64b0	-1.9718227
239	0x3e3d6b8b	0.18498056
240	0x3edad23c	0.4273852
241	0xbeb83bdf	-0.35983178
242	0x3f8a2ff3	1.0795883
243	0xbea32ca1	-0.31869987
244	0xbf29153c	-0.66048026
245	0xbebadcaf	-0.36496493
246	0xbf16e00d	-0.58935624
247	0xbf767176	-0.9626688
248	0xbf2c4be2	-0.6730329
249	0xbf1b85d1	-0.6075106
250	0xbf7c59dd	-0.9857462
251	0xbf28c0e2	-0.65919316
252	0x3f1b9b59	0.60783917
253	0x3f43660e	0.763276
254	0x3f2392d9	0.63895947
255	0x3f888ebe	1.0668561

dense1.0.bn1.weight f4 [24]
0	0x3f45920d	0.7717598
1	0x3eee1ad3	0.4650484
2	0x3f0c1d41	0.5473214
3	0x3f3fd817	0.749391
4	0x3feacd85	1.834397
5	0x3edb4472	0.42825657
6	0x3fa24ee5	1.2680327
7	0x3f30c798	0.69054556
8	0x3fff4bcb	1.9945005
9	0x3ea5d373	0.32387885
10	0x3f153d28	0.5829644
11	0x3ec3fd0f	0.38279006
12	0x3ea71af9	0.32637766
13	0x3f0a0563	0.5391447
14	0x3f613ada	0.87980425
15	0x3f81eb07	1.014985
16	0x3ea78d1b	0.32724842
17	0x3eb84c4e	0.35995716
18	0x3e806100	0.25074005
19	0x3f1d5041	0.6145058
20	0x3efd7091	0.49499944
21	0x3f7f00aa	0.9961039
22	0x3ed0129f	0.40639207
23	0x3f0087b1	0.5020705

dense1.0.bn1.bias f4 [24]
0	0xbf10540b	-0.5637824
1	0xbeb97d81	-0.36228564
2	0xbe34d8c0	-0.17660809
3	0x3f259dd1	0.64693934
4	0x3f0762a7	0.52884907
5	0xbe8f9996	-0.28046864
6	0xbf9deb40	-1.2337418
7	0xbed62ca8	-0.41830945
8	0x3f14b684	0.58090997
9	0xbe8125a6	-0.25224036
10	0xbe09bc18	-0.13450658
11	0x3dd00793	0.10157695
12	0x3dcd5b75	0.1002721
13	0x3e80eb33	0.25179443
14	0x3ea3ac53	0.3196741
15	0x3d120d5a	0.035657264
16	0xbe5c4bdf	-0.21513318
17	0xbe9235fd	-0.28556815
18	0xbeb1ba0d	-0.34712258
19	0x3e012ce5	0.12614782
20	0xbef2fe76	-0.47459763
21	0x3f02fcf5	0.5116723
22	0x3e118bf0	0.14213538
23	0xbe45c927	-0.19315015

dense1.0.conv1.weight f4 [12, 24, 3, 3]
0	0x3d8b9fe4	0.06817606
1	0xbb3e2c9a	-0.0029018284
2	0x3e297251	0.16547514
3	0xbc132b78	-0.008982532
4	0xbe01eb23	-0.12687354
5	0x3d36a5bb	0.044591647
6	0x3cb14209	0.021637933
7	0xbe1e4734	-0.1545685
8	0x3a3fd538	0.0007317844
9	0x3d226f09	0.039656673
10	0xbe23db3c	-0.160016
11	0x3e0d40a0	0.13794184
12	0xbd445410	-0.04793173
13	0xbe310713	-0.17287855
14	0x3d2c8d8d	0.04212718
15	0x3d85d06b	0.06533893
16	0x3d4e32f0	0.050341547
17	0x3d22dfd1	0.03976423
18	0x3dbb4fa6	0.09146051
19	0xbc58810c	-0.013214361
20	0x3e867c58	0.26266742
21	0x3d872ae0	0.06599975
22	0xbd92ed5d	-0.0717418
23	0x3e727390	0.23676896
24	0xbc384376	-0.011246553
25	0xbe53d571	-0.2068689
26	0x3d9e1f7e	0.077208504
27	0x3e75bac3	0.23997025
28	0xbe2d88e1	-0.16946746
29	0xbe98ecc1	-0.2986813
30	0x3f8eed70	1.116621
31	0xbbc3a6a7	-0.0059707942
32	0xbf6a7e94	-0.9159939
33	0xbe08405b	-0.133058
34	0xbdf3a696	-0.11897008
35	0xbea13a50	-0.314898
36	0x3f0a51ab	0.54030865
37	0xbfa14478	-1.259902
38	0x3f2c1689	0.67221886
39	0x3fb96277	1.4483174
40	0xbfd9b2b1	-1.7007657
41	0x3ebcb94c	0.3686012
42	0x3ea7cf74	0.32775462
43	0xbf409bd8	-0.752378
44	0x3edcadaa	0.43101245
45	0xbc2f459c	-0.0106977485
46	0x3b0ed3d2	0.0021793735
47	0x3d90e159	0.07074232
48	0xbd723b46	-0.05913856
49	0xbda5e3a1	-0.081000574
50	0xbc423034	-0.011852313
51	0x3d140eef	0.036147054
52	0x3c554b23	0.013018402
53	0x3d729770	0.059226453
54	0xbe3541af	-0.17700838
55	0xbe3aafe9	-0.18231167
56	0xbc3b4452	-0.011429863
57	0xbdf25f17	-0.11834543
58	0xbe3bbd64	-0.18333966
59	0xbd1dbbae	-0.038509063
60	0x3d144980	0.036202908
61	0xbdac7ee4	-0.0842264
62	0xbd27c62f	-0.040960487
63	0x3b6f64ea	0.0036528655
64	0x3d2f1784	0.042747036
65	0x3db862a1	0.09003187
66	0xbde305ea	-0.110851124
67	0xbdb52117	-0.08844202
68	0x3daad30f	0.083410375
69	0xbd21c225	-0.03949179
70	0xbbd0ee6e	-0.0063760793
71	0x3e2ff77a	0.17184249
72	0xbe8f498b	-0.27985796
73	0x3f5e1c57	0.86761993
74	0xbf120087	-0.57032055
75	0xbf0fc5ca	-0.5616118
76	0x3fbd03e0	1.4766808
77	0xbf84474c	-1.0334258
78	0xbe43481d	-0.19070478
79	0x3dd3173f	0.10307168
80	0xbe41c13a	-0.18921366
81	0x3c8d31b4	0.017235614
82	0xbd8ececc	-0.06973037
83	0x3d27f95e	0.0410093
84	0x3d34a8e1	0.044106368
85	0xbd5d2622	-0.053991444
86	0x3c9584a5	0.018251726
87	0x3da6571c	0.081220835
88	0xbd44b9d3	-0.04802878
89	0x3bbc6a87	0.0057500037
90	0x3dfa1ade	0.12212156
91	0x3c5245b7	0.012834004
92	0x3d3fe64b	0.046850484
93	0x3d893749	0.06699998
94	0xbd8c1082	-0.06839086
95	0xbb9d7a52	-0.0048058415
96	0x3dcecd19	0.10097713
97	0xbb2b89c5	-0.0026174646
98	0x3d38c0f6	0.045105897
99	0x3c45c51f	0.012070923
100	0xbd856216	-0.06512849
101	0x3e003e36	0.12523732
102	0xbd4917f8	-0.049095124
103	0xbdf688c2	-0.12037803
104	0x3da619ea	0.081104115
105	0x3d98165a	0.07426138
106	0xbcbc6f6d	-0.02300235
107	0x3e054ac0	0.13016796
108	0x3e14ff5a	0.14550534
109	0xbc88ee9d	-0.016715342
110	0x3db32216	0.08746736
111	0x3d584e8d	0.052809287
112	0xbd95e3c9	-0.07318837
113	0xbc555a31	-0.013021992
114	0x3dc7df12	0.09759344
115	0xbceffd16	-0.029295485
116	0x3d21f957	0.03954443
117	0xbd013380	-0.031543255
118	0xbd260e2e	-0.040540867
119	0x3d85fec3	0.065427326
120	0x3cf8d7d1	0.030376347
121	0xbdbd3603	-0.092388175
122	0x3e22688f	0.15860198
123	0x3e66e744	0.22549158
124	0x3d2119a5	0.039331097
125	0x3eaaa9c8	0.33332658
126	0x3e612219	0.21985663
127	0xbe4639db	-0.19358008
128	0x3e5d5692	0.21615055
129	0x3e61e111	0.22058512
130	0xbe874034	-0.2641617
131	0x3ca27162	0.019829456
132	0x3c345661	0.011006922
133	0xbe7140d2	-0.23559883
134	0xbd97bdd2	-0.07409252
135	0x3c246606	0.01003409
136	0x3d961921	0.07329012
137	0x3dda5fbd	0.10662792
138	0xbe2499b9	-0.16074266
139	0x3d995451	0.07486785
140	0x3e02b06f	0.12762617
141	0xbe378019	-0.17919959
142	0xbc393011	-0.011302964
143	0x3e099d87	0.13438998
144	0x3a20dedb	0.00061367237
145	0xbd4a791e	-0.049431913
146	0xbc816e30	-0.015799612
147	0x3d258801	0.040412907
148	0x3b626b01	0.0034548643
149	0xbca0708a	-0.019584913
150	0x3d988c93	0.074486874
151	0x3d40615d	0.046967853
152	0x3c1ed699	0.009694719
153	0x3d87e9b8	0.06636375
154	0x3ca564d2	0.020189676
155	0x3d5a6a7b	0.053324204
156	0x3d02a275	0.031893212
157	0xbcc6e497	-0.024278922
158	0x3cc00da3	0.023444002
159	0xbcccb442	-0.024988297
160	0xbdaad2e8	-0.083410084
161	0xbd6ece3f	-0.05830216
162	0xbd516514	-0.051121786
163	0xbd7f1ea6	-0.062285088
164	0xbce87bf2	-0.028379414
165	0xbd7f7abf	-0.06237292
166	0xbdb920d7	-0.09039467
167	0xbd2dfab6	-0.042475425
168	0x3ccfcb70	0.025365561
169	0xbc9ea6cc	-0.019366644
170	0x3b847e1e	0.0040433547
171	0xba94b725	-0.0011346085
172	0xbdffc91f	-0.12489533
173	0xbceb0ed0	-0.028693587
174	0x3ed6401e	0.41845793
175	0xbdb70941	-0.08937312
176	0xbe277312	-0.1635249
177	0x3e8a5a62	0.27022082
178	0xbe377040	-0.17913914
179	0xbe7b38be	-0.24533364
180	0xbd4ed55d	-0.050496448
181	0xbe2aa6eb	-0.16665237
182	0xbcf39121	-0.029732289
183	0x3be44d5e	0.0069672307
184	0xbd9bfdf0	-0.07616794
185	0x3d149e0b	0.036283534
186	0x3df0a166	0.11749534
187	0x3de9ab53	0.114096306
188	0x3e21b32e	0.15791008
189	0xbf5292a3	-0.82255
190	0x3b900391	0.0043949564
191	0x3f17a077	0.59229225
192	0xbf67a967	-0.9049286
193	0xbec23785	-0.37932983
194	0x3fdd4f23	1.7289776
195	0xbe2257b9	-0.15853776
196	0xbf5728a5	-0.84046394
197	0x3e80e6ff	0.25176236
198	0x3ca764ec	0.020433865
199	0xbdb66f93	-0.08908
200	0xbcbf59d7	-0.023358269
201	0x3ce87a94	0.028378762
202	0xbcd25de3	-0.025679534
203	0x3cf22f1c	0.02956348
204	0xbdb9c17f	-0.090701096
205	0xbe1beb50	-0.15226483
206	0xbd2191e1	-0.03944576
207	0x3deded3c	0.116175145
208	0x3e06f23e	0.13178346
209	0x3e5bcee1	0.21465637
210	0x3ddc1f50	0.1074816
211	0x3dd126e7	0.10212498
212	0x3e8707c7	0.2637312
213	0xbe3beed6	-0.18352827
214	0xbe928e34	-0.28624117
215	0xbddd566a	-0.10807498
216	0xbe93742c	-0.2879957
217	0xbe2a9d7f	-0.16661642
218	0xbe5f5d48	-0.21812928
219	0xbe2b1646	-0.16707715
220	0xbca20b5a	-0.019780803
221	0xbdcd5148	-0.10025269
222	0xbe713dc7	-0.23558722
223	0xbde9f95d	-0.114245154
224	0xbe4e0f36	-0.2012299
225	0x3e1cff06	0.15331659
226	0x3e25ec76	0.16203484
227	0x3e4fdf82	0.20300105
228	0x3d9aeddc	0.07564899
229	0x3d8174bb	0.06321093
230	0x3d81ff0b	0.06347474
231	0x3cd5771b	0.02605777
232	0xbc3c13d2	-0.011479335
233	0xbd20a2c1	-0.039217714
234	0x3d94d40f	0.072670095
235	0x3e09e499	0.1346611
236	0x3d61902e	0.05506914
237	0x3e302161	0.17200233
238	0x3e800be6	0.25009078
239	0x3e27cbcd	0.16386338
240	0x3d837731	0.06419218
241	0x3e1e5172	0.15460756
242	0x3d681bee	0.05666726
243	0xbdab46d6	-0.0836312
244	0x3de7cfa1	0.11318899
245	0xbcdae8d4	-0.02672235
246	0xbc332a28	-0.010935344
247	0x3e3224c3	0.17396836
248	0xbd1b9be9	-0.037990484
249	0xbd9bec86	-0.07613473
250	0x3df3c9fd	0.119037606
251	0x3a2f513f	0.0006687827
252	0xbe92b3ec	-0.28652894
253	0xbd61ceaf	-0.05512875
254	0xbe84c959	-0.25934866
255	0x3e1ff2f6	0.15620026

dense1.1.bn1.weight f4 [36]
0	0x3ee77daf	0.45213076
1	0x3f3bca41	0.7335549
2	0x3e77abf1	0.24186684
3	0x3f3dd0c7	0.74146694
4	0x3f48fee1	0.78513914
5	0x3f239dfe	0.6391295
6	0x3e4b62f2	0.19861963
7	0x3f2cf025	0.6755393
8	0x3f0778a0	0.52918434
9	0x3ec51e53	0.38499698
10	0x3eb98b0d	0.362389
11	0x3ee17b83	0.44039544
12	0x3ea1e994	0.31623518
13	0x3f31e34f	0.6948747
14	0x3ece2412	0.40261894
15	0x3d720079	0.059082482
16	0x3ec52282	0.3850289
17	0x3f3963c3	0.7241785
18	0x3f0d0ef8	0.55100965
19	0x400a8a5f	2.1646955
20	0x3faa3c09	1.3299571
21	0x4008b949	2.136309
22	0x3f22b0e4	0.63551164
23	0x3f623a24	0.88369966
24	0x3fbdf113	1.4839195
25	0x3e565d6a	0.20934072
26	0x3fcea4e1	1.6144067
27	0x3fc34e7e	1.5258329
28	0x3ed084b7	0.40726253
29	0x3ed42c41	0.41440013
30	0x3fba00b2	1.4531462
31	0x3f3f861d	0.74814016
32	0x3f09357b	0.5359723
33	0x3f875a60	1.0574455
34	0x3fafc5da	1.3732255
35	0x3fd2ef22	1.6479228

dense1.1.bn1.bias f4 [36]
0	0xbed782df	-0.42092034
1	0x3e55c92f	0.20877527
2	0xbe7d1a9e	-0.24717185
3	0xbef0aa1e	-0.4700479
4	0xbd12891a	-0.03577528
5	0xbea74820	-0.32672215
6	0x3d3926ab	0.045202892
7	0xbf044f94	-0.51683927
8	0xbe004655	-0.1252683
9	0xbc423390	-0.011853114
10	0xbe898093	-0.26855907
11	0xbe2c988c	-0.16855067
12	0xbeda479b	-0.42632756
13	0x3e1b29c9	0.15152659
14	0xbe453154	-0.19257098
15	0xbcc3ba27	-0.023892475
16	0xbe91adde	-0.28452963
17	0xbf465efd	-0.7748869
18	0xbdae2da9	-0.08504803
19	0xbf3b5b86	-0.7318653
20	0xbf00c6b7	-0.50303215
21	0xbf274a03	-0.6534731
22	0x3b3a8b2c	0.00284643
23	0xbf0048cb	-0.50111073
24	0xbe15786c	-0.14596719
25	0x3b4c3abc	0.0031162938
26	0xbe8d7dae	-0.27634948
27	0x3e0ea631	0.13930584
28	0x3d04ebe4	0.032451525
29	0xbe3e927b	-0.18610565
30	0x3e8bf750	0.27337122
31	0xbec792f7	-0.38979313
32	0xbd5f4833	-0.054512214
33	0xbe8a6738	-0.27031875
34	0x3cd93076	0.026512366
35	0x3ea0c0e7	0.31397173

dense1.1.conv1.weight f4 [12, 36, 3, 3]
0	0xbdd50d44	-0.10402921
1	0xbd9a2bdc	-0.07527897
2	0xbda6ac1a	-0.081382945
3	0xbb9871f5	-0.0046522566
4	0x3aa33d20	0.001245413
5	0xbc0f7794	-0.008756537
6	0x3d9b5884	0.075852424
7	0x3dc1d0d6	0.094636604
8	0x3dc21a26	0.09477644
9	0x3d4d107c	0.05006455
10	0x3c048b45	0.008089845
11	0x3dc556ab	0.09635671
12	0x3da9aad5	0.08284537
13	0x3d9173f5	0.07102195
14	0x3e06f65f	0.1317992
15	0x3d2eabae	0.042644195
16	0xbc0f76ac	-0.008756321
17	0x3d12059e	0.03564989
18	0xbc3f2730	-0.011667058
19	0xbd35ebd7	-0.044414368
20	0xbcef3347	-0.029199256
21	0xbbe6269a	-0.0070236446
22	0xbcd378fd	-0.025814528
23	0xbca90c2d	-0.020635689
24	0xba62b9a0	-0.0008648876
25	0xbbdbe6a8	-0.006710846
26	0xbc4c1222	-0.012455495
27	0x3d952c6a	0.07283862
28	0x3d91cc67	0.07119065
29	0x3d088c5e	0.03333699
30	0xbd3a9be7	-0.045558836
31	0x3cdeebd4	0.027212061
32	0x3b9a190c	0.004702693
33	0xbdfd29c0	-0.12361479
34	0xbd9287cf	-0.0715481
35	0xbd30a911	-0.043129984
36	0x3c9fa259	0.019486593
37	0xbc136f13	-0.00899865
38	0xbd2d164d	-0.042257596
39	0xbcde4c9d	-0.027136141
40	0xbd3d276a	-0.046180166
41	0xbd9d5da9	-0.0768388
42	0xbd9bd5f6	-0.07609169
43	0xbdbded86	-0.092738196
44	0xbdcd6783	-0.10029509
45	0xbd9fe901	-0.07808114
46	0xbdd08aaf	-0.10182702
47	0xbdb81883	-0.0898905
48	0xbd397e1e	-0.04528629
49	0xbd8c466f	-0.06849372
50	0xbd44fe1c	-0.0480939
51	0xbc6b9975	-0.014379849
52	0xbd0f787b	-0.03502701
53	0xbca0a427	-0.019609524
54	0x3d5abe1b	0.053403955
55	0x3d18c80d	0.03730016
56	0x3d8af486	0.067849204
57	0x3dc3e013	0.09564223
58	0x3dd5d505	0.10441021
59	0x3dc9e5b1	0.09858263
60	0x3ddda0e6	0.108217046
61	0x3de21a77	0.11040204
62	0x3de09007	0.10964971
63	0x3da81475	0.08207027
64	0x3db22229	0.08697922
65	0x3dce1300	0.10062218
66	0x3bb82f7c	0.005620895
67	0x3d1a74a9	0.037708912
68	0x3d525c19	0.051357362
69	0x3d9cba39	0.07652707
70	0x3da7ec17	0.081993274
71	0x3df36419	0.118843265
72	0x3b93b7a7	0.004507977
73	0xbd1d83fb	-0.038455945
74	0xbcba2f76	-0.02272771
75	0xbd788ef4	-0.060683206
76	0xbd8abb1d	-0.0677397
77	0xbd0628e3	-0.032753836
78	0xbd14ce9b	-0.036329847
79	0xbd3b320f	-0.045702036
80	0xbd39b731	-0.04534072
81	0xbd20f925	-0.039300103
82	0xbd876a45	-0.06612066
83	0xbb85a176	-0.0040780855
84	0xbe0b7001	-0.13616945
85	0xbe1b8dc5	-0.151908
86	0xbdcbed19	-0.09957332
87	0xbd492c78	-0.049114674
88	0xbd8b9e0d	-0.06817255
89	0xbcd1947f	-0.025583504
90	0x3d9a26ee	0.075269565
91	0x3db1dd69	0.08684809
92	0x3dc80f1e	0.097685084
93	0x3d949ec9	0.07256848
94	0x3d916fab	0.07101377
95	0x3db69f56	0.0891711
96	0x3da4de7f	0.0805025
97	0x3d9ef122	0.07760836
98	0x3dc8ab96	0.097983524
99	0xbd5e2a99	-0.054239843
100	0xbd767e6f	-0.06017917
101	0xbd7bf557	-0.06151327
102	0xbc0ffa68	-0.008787729
103	0xbb2c2524	-0.0026267255
104	0xbc7f26f6	-0.015573254
105	0x3c2d9908	0.0105955675
106	0x3cd8814f	0.026428847
107	0x3cdb15d6	0.02674381
108	0x3c87ba8e	0.016568448
109	0x3b990d8b	0.004670804
110	0x3cadf62e	0.021235552
111	0xbc60a690	-0.013711587
112	0xbce2c096	-0.027679723
113	0xbb943915	-0.0045234063
114	0x3b53c449	0.003231304
115	0xbca2f56b	-0.019892415
116	0x3a4472b5	0.00074938993
117	0x3e8cc9b4	0.27497637
118	0x3dd089ea	0.10182555
119	0x3e0bc9c4	0.13651186
120	0x3c8809bc	0.016606204
121	0xbdf51077	-0.11966031
122	0xbd900733	-0.07032623
123	0x3e93c306	0.2885973
124	0x3e1e4c18	0.15458715
125	0x3e43ebc7	0.1913291
126	0x3cd744f3	0.026277995
127	0x3c90fdfd	0.017699236
128	0x3d3a4798	0.045478433
129	0xbcc73958	-0.024319336
130	0xbc968d32	-0.018377874
131	0xba5cde54	-0.00084254635
132	0xbd1b293d	-0.037881125
133	0xbd833064	-0.06405714
134	0xbc5829ab	-0.013193528
135	0x3b7754f2	0.003773984
136	0xbbae7134	-0.0053235535
137	0x3b46875e	0.0030293087
138	0x3b8d1015	0.0043048956
139	0xbb981255	-0.004640857
140	0xb928d68b	-0.00016101652
141	0xbc19590c	-0.009359609
142	0xbc8c2825	-0.017108986
143	0x3bc44df9	0.0059907404
144	0x3d0ec00a	0.03485111
145	0x3d50f79f	0.0510174
146	0x3d2e9201	0.04261971
147	0x3ba43f26	0.0050124107
148	0x3c7980c4	0.015228454
149	0x3c84690f	0.016163377
150	0x3d56efd1	0.0524748
151	0x3d2ba190	0.041902125
152	0x3d1f1e6b	0.03884737
153	0x3df23b2e	0.11827694
154	0x3de6a1df	0.11261343
155	0x3dea6b14	0.11446205
156	0x3e335501	0.17512895
157	0x3e578c74	0.21049672
158	0x3e574aed	0.21024676
159	0x3e7d8f97	0.24761806
160	0x3e8a9a62	0.2707091
161	0x3e865460	0.26236248
162	0x3ca5ea0d	0.020253206
163	0x3c67033e	0.014099894
164	0x3d828a32	0.06374015
165	0x3d56e656	0.05246576
166	0x3d5fc85e	0.054634444
167	0x3da16520	0.07880616
168	0x3dc46883	0.095902465
169	0x3dcd8f09	0.100370474
170	0x3e0945cd	0.13405533
171	0x3e29c1e7	0.16577874
172	0x3dd91b25	0.106008805
173	0x3de4a98c	0.11165151
174	0xbdc380a7	-0.09546023
175	0xbe1fc2f1	-0.15601708
176	0xbe57d4cc	-0.2107727
177	0x3dc1be8b	0.09460171
178	0xbc2049e1	-0.009783239
179	0xbe24a122	-0.16077092
180	0x3db2f15d	0.08737443
181	0x3d43e508	0.047825843
182	0x3d49f65e	0.04930722
183	0x3e026ad0	0.12736058
184	0x3d980fa4	0.07424858
185	0x3dc26da5	0.09493569
186	0xbcf6758e	-0.030085351
187	0xbd76778a	-0.060172595
188	0xbd45b35b	-0.04826675
189	0x3e4ebd40	0.2018938
190	0x3e52ebd6	0.20597777
191	0x3e36a716	0.17837176
192	0x3d294975	0.04132982
193	0x3dd34482	0.10315801
194	0xbd469eb8	-0.04849121
195	0xbda03e8b	-0.07824429
196	0xbdac6afd	-0.08418844
197	0xbe474f47	-0.19463836
198	0x3dcf2602	0.10114671
199	0x3d92073a	0.071302846
200	0x3db28742	0.08717205
201	0x3dce8429	0.10083801
202	0x3da12cac	0.078698486
203	0x3dacb1b0	0.08432329
204	0x3e3f441c	0.18678325
205	0x3e3d1dfd	0.18468471
206	0x3e47996d	0.19492121
207	0x3dc2ae89	0.09505946
208	0x3d933ebb	0.07189699
209	0x3db057f8	0.08610529
210	0x3db8886c	0.090103954
211	0x3d6a29ff	0.057168957
212	0x3d5cff23	0.053954255
213	0x3e3a126a	0.18171087
214	0x3e1f9a9d	0.15586324
215	0x3e270934	0.16312104
216	0xbe2f43ea	-0.17115751
217	0xbe212ee9	-0.15740551
218	0xbe90add0	-0.28257608
219	0xbf1b801c	-0.60742354
220	0xbf12e0db	-0.5737435
221	0xbf203601	-0.62582403
222	0xbf301a4d	-0.6879013
223	0xbf22b27c	-0.63553596
224	0xbf2ddce8	-0.679152
225	0xbc83dff3	-0.016097998
226	0xbce87c10	-0.02837947
227	0xbcbf88ca	-0.023380656
228	0xbb0e2af8	-0.0021693092
229	0x3c2ee732	0.010675238
230	0x3b733d7d	0.0037115507
231	0x3c1431b2	0.009045051
232	0x3c28be4b	0.010299276
233	0x3c4f6292	0.012657778
234	0xbf00f73a	-0.5037724
235	0xbed794d8	-0.42105746
236	0xbf00447c	-0.501045
237	0xbf144571	-0.5791846
238	0xbf0f8a0e	-0.5607003
239	0xbf195ef3	-0.59910506
240	0xbefe1674	-0.49626505
241	0xbece58cb	-0.4030212
242	0xbefd144d	-0.4942955
243	0x3ee7388f	0.45160338
244	0x3eb0bb04	0.34517682
245	0x3e969a63	0.29414663
246	0x3caf2511	0.02137998
247	0xbd84507c	-0.06460664
248	0xbd4f97de	-0.05068194
249	0x3e589034	0.21148759
250	0x3cd4b33b	0.02596437
251	0xbd64af2c	-0.05583112
252	0xbca5972c	-0.020213686
253	0xbd07ac91	-0.033123557
254	0xbd267583	-0.04063941
255	0x3cb7a73d	0.022418613

trans1.bn1.weight f4 [48]
0	0x3f5bd939	0.8587833
1	0x3f9c3162	1.220257
2	0x3f7fe68f	0.9996118
3	0x3fa7ccbc	1.3109355
4	0x3f90e2e7	1.1319245
5	0x3fa05442	1.2525713
6	0x3f8c5b1b	1.0965303
7	0x3f5dd56b	0.86653775
8	0x3f31d924	0.69471955
9	0x3fa970b9	1.3237525
10	0x3f561e79	0.8364025
11	0x3f9bec43	1.2181476
12	0x3fa13162	1.2593195
13	0x3f86474e	1.049051
14	0x3fa41342	1.2818377
15	0x3d4cc285	0.049990196
16	0x3f62eaa0	0.8863926
17	0x3f958de9	1.1683933
18	0x3f981bd5	1.1883494
19	0x3f638b46	0.8888439
20	0x3f89a7af	1.0754298
21	0x3f84500a	1.0336926
22	0x3f8295c3	1.0201954
23	0x3f863a77	1.0486592
24	0x3fc22a71	1.5169202
25	0x3fb101b5	1.3828646
26	0x3fc83a63	1.5642818
27	0x3fed98ff	1.8562316
28	0x3fd15c23	1.6356243
29	0x3f96adea	1.1771824
30	0x3fe29220	1.7700844
31	0x3f72eb6d	0.9489048
32	0x3fbddf31	1.4833738
33	0x3fb79002	1.4340823
34	0x3ffd6cc6	1.979882
35	0x3fffd403	1.9986576
36	0x3f9ddb62	1.2332575
37	0x400db5ee	2.214229
38	0x3fe49c61	1.7860223
39	0x3fb4d49d	1.4127384
40	0x4011db5e	2.279014
41	0x4000070e	2.0004306
42	0x3f9ea255	1.239329
43	0x40132715	2.2992604
44	0x3fc1dcf7	1.5145558
45	0x400e91fa	2.2276597
46	0x3f972926	1.1809433
47	0x3fa8172c	1.3132071

trans1.bn1.bias f4 [48]
0	0x3e504636	0.20339283
1	0xbe885afd	-0.2663192
2	0xbe6c116e	-0.23053524
3	0xbe21caa3	-0.15799956
4	0xbecb0a35	-0.39656225
5	0x3e1e13ae	0.15437195
6	0x3de9e411	0.11420453
7	0xbeb03120	-0.3441248
8	0xbe0e0041	-0.13867284
9	0x3e5e5d78	0.21715343
10	0xbd6e0488	-0.05810979
11	0x3e5c2bcb	0.2150108
12	0xbe16ab14	-0.14713699
13	0xbda8fb55	-0.08251063
14	0xbec7ff6c	-0.3906206
15	0xbcbf853d	-0.023378963
16	0x3e28fcde	0.16502711
17	0x3e8f868c	0.2803234
18	0x3e4552f2	0.19269922
19	0xbf2531a3	-0.64528865
20	0xbe8ffaa8	-0.28120923
21	0xbe0550f3	-0.13019161
22	0xbe5e000e	-0.21679708
23	0xbe9f0380	-0.31057358
24	0xbe67a341	-0.2262087
25	0x3ea8090e	0.32819408
26	0xbe7c2cb7	-0.24626432
27	0xbe5dedd6	-0.21672758
28	0xbf2c1f0a	-0.6723486
29	0xbe7282fd	-0.2368278
30	0xbf4ba602	-0.7955018
31	0xbee32799	-0.44366148
32	0xbed42e2a	-0.4144147
33	0xbe3c811e	-0.1840863
34	0xbe4042e1	-0.18775512
35	0xbf511f94	-0.8168881
36	0x3e80b995	0.25141588
37	0xbccc497e	-0.024937388
38	0xbec2cb7c	-0.3804587
39	0xbe9e85eb	-0.30961546
40	0x3db4be2c	0.08825335
41	0xbe88c902	-0.26715857
42	0xbf7f10cb	-0.99635
43	0x39d8983f	0.00041312163
44	0xbf50e04c	-0.8159225
45	0xbdc1a3b8	-0.09455055
46	0xbfa50186	-1.289109
47	0x3eabc34b	0.33547434

trans1.conv1.weight f4 [48, 48, 1, 1]
0	0x3e1677d1	0.14694144
1	0x3f17db09	0.59318596
2	0xbd9ca239	-0.07648129
3	0xbeca7ac2	-0.39546782
4	0xbc932bdd	-0.017965252
5	0xbe595b48	-0.21226227
6	0x3ee0ddcd	0.4391922
7	0xbd17dfde	-0.03707873
8	0xbd75c1d9	-0.05999932
9	0xbe698380	-0.2280407
10	0x3daa05b8	0.08301872
11	0x3ebbc466	0.36673278
12	0x3ca76002	0.020431522
13	0xbec059b1	-0.3756843
14	0xbe485f9e	-0.19567725
15	0x3b9cc03f	0.0047836597
16	0x3bdb1559	0.0066858944
17	0xbe96245d	-0.29324618
18	0xbe96d4f5	-0.29459348
19	0x3d1bf2d3	0.038073372
20	0xbda4d8d2	-0.08049168
21	0x3ec839e8	0.3910668
22	0x3cee5554	0.029093422
23	0xbe6ca78f	-0.23110794
24	0x3d1bb428	0.038013607
25	0x3e07d459	0.13264598
26	0xbe37ab30	-0.17936397
27	0x3e6ce6b6	0.23134884
28	0x3ebf6ca6	0.3738758
29	0x3ded183d	0.11576889
30	0x3e654a5f	0.22391652
31	0xbd751d69	-0.0598425
32	0x3ec82cf3	0.39096794
33	0x3f528370	0.8223181
34	0x3e0fcfea	0.14044157
35	0x3dce1e74	0.10064402
36	0x3e3841fc	0.17993921
37	0xbdafe4fc	-0.08588597
38	0x3cd2b3d6	0.025720518
39	0xbe937b48	-0.28804994
40	0x3e0e8115	0.13916428
41	0x3e7ce275	0.24695762
42	0xbeb1db27	-0.34737512
43	0xbe692b54	-0.22770435
44	0x3e173232	0.14765242
45	0xbe092da7	-0.13396321
46	0x3e84ea31	0.25959924
47	0x3e149547	0.1451007
48	0x3e97b2da	0.2962864
49	0xbe8a5cfd	-0.2702407
50	0x3d0fd6be	0.035116903
51	0xbb08fcac	-0.0020902557
52	0x3a88e546	0.0010444305
53	0x3cbae2cf	0.022813229
54	0x3e463eda	0.19359913
55	0xb9ab84b0	-0.00032714522
56	0xbcbc2384	-0.022966154
57	0xbf5fafb2	-0.87377465
58	0xbbcd4681	-0.0062645082
59	0x3e7be032	0.24597242
60	0xbed1b9fa	-0.409622
61	0xbd1e6969	-0.038674746
62	0xbe438d34	-0.19096833
63	0xb9d71939	-0.00041026788
64	0xbd86ae07	-0.06576162
65	0xbdc8f583	-0.09812453
66	0xbf2a45a8	-0.66512537
67	0x3d0f2210	0.034944594
68	0x3dcaa2d4	0.09894338
69	0x3e080ff7	0.1328734
70	0xbdc768b3	-0.09736767
71	0x3d7bae5a	0.06144557
72	0xbed5cbdf	-0.41757104
73	0x3ec2bd8a	0.38035232
74	0xbe71b554	-0.23604327
75	0xbed5a544	-0.4172765
76	0xbf0939ec	-0.53604007
77	0x3e3003d6	0.17188963
78	0xbe90568d	-0.28191033
79	0xbd8f1f71	-0.06988419
80	0xbe8d7794	-0.27630293
81	0xbe3f5c5f	-0.1868758
82	0xbf13d0c6	-0.5774044
83	0xbe8d6f39	-0.2762392
84	0x3e76e639	0.2411126
85	0x3ea13d92	0.31492287
86	0x3d7bf2ea	0.061510958
87	0xbeba12d5	-0.36342493
88	0xbdcb9cef	-0.09942042
89	0xbde8e5eb	-0.11371978
90	0xbd4a00ab	-0.049317043
91	0x3f28d97c	0.65956855
92	0x3bfe069f	0.007752254
93	0xb9a1d61b	-0.00030867834
94	0xbf1246b9	-0.57139164
95	0x3e769f33	0.24084167
96	0x3ed317db	0.41229138
97	0xbe1aeca1	-0.1512933
98	0xbe97e7a5	-0.29668918
99	0xbd8b15a8	-0.0679124
100	0x3e7b95e5	0.24568899
101	0x3f7951b0	0.9739027
102	0x3f66b056	0.9011282
103	0x3d11e63d	0.035619963
104	0x3daa69e0	0.08320975
105	0xbf02dc5f	-0.5111751
106	0xbe1887b5	-0.14895518
107	0x3fa8dea1	1.3192941
108	0x3e929459	0.28628805
109	0xbe1c113f	-0.15240954
110	0x3d15853e	0.036504023
111	0x3c69d3bb	0.014271672
112	0xbe85aeff	-0.26110074
113	0xbf5acadd	-0.85465795
114	0xbea7f923	-0.32807264
115	0x3e896e83	0.26842126
116	0x3e4b7051	0.19867064
117	0x3e153260	0.14569998
118	0xbe83d4fc	-0.25748432
119	0xbe6c15a7	-0.23055135
120	0xbc7b449b	-0.015336181
121	0x3eaa3016	0.33239812
122	0xbe6715a8	-0.22566855
123	0x3c95ee4d	0.018302107
124	0x3e8b8e05	0.2725679
125	0xbe897855	-0.2684962
126	0x3cc86443	0.024461871
127	0xbeb5be25	-0.3549663
128	0xbe734732	-0.23757628
129	0xbea53fb1	-0.32275155
130	0xbe078867	-0.13235627
131	0xbd7c69fb	-0.06162451
132	0xbe633e03	-0.22191624
133	0x3c9942ea	0.018708665
134	0xbd753a3c	-0.05986999
135	0xbe8748bc	-0.2642268
136	0x3cde1f6d	0.027114594
137	0xbc76a528	-0.015054025
138	0xbe7f0e54	-0.2490781
139	0xbd4603f6	-0.04834362
140	0xbd88178e	-0.06645118
141	0xbd958244	-0.07300237
142	0x3d854f28	0.065092385
143	0xbe01ba80	-0.126688
144	0x3eac9e2c	0.33714426
145	0x3e8d066a	0.27543956
146	0x3e89e5b1	0.26933053
147	0xbeecce64	-0.46251214
148	0xbddeda5f	-0.10881495
149	0x3dcee163	0.10101583
150	0x3f0d9c82	0.55316937
151	0x3e26f9d6	0.16306242
152	0x3d12605e	0.035736434
153	0xbe078261	-0.1323333
154	0x3e2fe660	0.17177725
155	0x3f0ec91a	0.55775607
156	0xbd04f297	-0.032457914
157	0x3e344867	0.17605744
158	0x3ced1600	0.028941154
159	0xbbc5d119	-0.0060368893
160	0xbd958435	-0.07300607
161	0xbf067d35	-0.525348
162	0x3f010314	0.5039532
163	0xbe9a529d	-0.30141154
164	0xbef53201	-0.47889712
165	0xbf2c1935	-0.6722596
166	0x3d508ca4	0.050915375
167	0x3cc1fd6e	0.023680415
168	0xbe920faf	-0.2852759
169	0x3edde23c	0.43336666
170	0xbd605d14	-0.054776266
171	0x3ed0c0c9	0.40772083
172	0x3f59f31e	0.8513659
173	0x3e2e0984	0.16995817
174	0x3e830dfc	0.25596607
175	0xbe14ab9f	-0.14518593
176	0x3ee94840	0.45562935
177	0xbe305c9d	-0.17222829
178	0x3ee9741b	0.45596394
179	0xbddac27d	-0.10681627
180	0x3e89cfff	0.269165
181	0xbe558ae1	-0.2085376
182	0xbeb3c91a	-0.35114366
183	0xbf0cac62	-0.54950535
184	0x3f894013	1.0722679
185	0xbe9304a7	-0.28714487
186	0xbecf103c	-0.40442073
187	0xbe8bd72d	-0.27312604
188	0x3cdb00bf	0.026733754
189	0xbcf7624d	-0.03019824
190	0xbda2c7e6	-0.07948284
191	0xbf230841	-0.6368447
192	0xbe847a5c	-0.25874603
193	0xbf2e4c71	-0.6808539
194	0xbe05683e	-0.13028046
195	0xbc8a9cd4	-0.016920485
196	0xbdd38d80	-0.10329723
197	0x3eaa8964	0.33307946
198	0xbcd2f5cc	-0.02575197
199	0xbe3eb247	-0.18622695
200	0x3d5d915c	0.054093704
201	0x3e4eb611	0.2018664
202	0xbd775f19	-0.060393427
203	0x3d78265c	0.060583457
204	0xba6e5fa6	-0.0009093232
205	0xbf1a7243	-0.603306
206	0xbe6ac359	-0.22926082
207	0xba145abc	-0.00056592724
208	0xbc8622a5	-0.016373942
209	0xbeeba2e8	-0.46022725
210	0x3f035234	0.51297307
211	0xbe790d8e	-0.24321577
212	0xbed13a7a	-0.40864927
213	0xbde147ab	-0.10999998
214	0x3dc3f889	0.09568889
215	0xbe51f569	-0.20503773
216	0x3f35ced8	0.71018744
217	0xbd51e79a	-0.051246263
218	0x3e87724d	0.26454392
219	0x3ec319f3	0.38105735
220	0x3e302107	0.17200099
221	0x3deff6e6	0.11717014
222	0xbf317e8c	-0.6933372
223	0x3dba2de4	0.09090784
224	0xbeb4925b	-0.3526791
225	0xbe89c057	-0.26904556
226	0x3c902f0b	0.017600557
227	0xbc62f851	-0.013853149
228	0xbeef215b	-0.46705136
229	0x3ea9497d	0.3306388
230	0xbf0e1ba7	-0.55510944
231	0x3ef4e4d6	0.47830838
232	0xbf972ca8	-1.1810503
233	0x3eed6e47	0.46373197
234	0xbd844fe2	-0.06460549
235	0xbea881d1	-0.32911542
236	0x3e7d2887	0.24722491
237	0xbf837357	-1.0269574
238	0x3c06eb98	0.008234881
239	0x3dab19a6	0.083545014
240	0xbefbe69c	-0.49199378
241	0x3d947549	0.07248933
242	0xbed88044	-0.4228536
243	0xbe12ba2d	-0.14328833
244	0x3dd14ba1	0.10219503
245	0x3ec7b956	0.39008588
246	0xbd3a83ba	-0.04553578
247	0xbd504c1a	-0.050853826
248	0x3d5d84c8	0.05408171
249	0x3a76eb21	0.0009419192
250	0xbe86136f	-0.26186702
251	0x3e1eb7a0	0.15499735
252	0x3f649ab3	0.8929855
253	0xbe85727f	-0.26063916
254	0xbce92d2c	-0.028463922
255	0x39db28a2	0.0004180121

dense2.0.bn1.weight f4 [48]
0	0x3f3a905d	0.7287653
1	0x3f4a33db	0.78985375
2	0x3f6b371f	0.91880983
3	0x3f61ada5	0.88155586
4	0x3f76a3bc	0.9634359
5	0x3f096464	0.5366881
6	0x3f84e8c2	1.0383532
7	0x3f72d7c4	0.9486048
8	0x3f461a2a	0.77383673
9	0x3f382c7b	0.7194287
10	0x3f941bdd	1.1571003
11	0x3f1978b2	0.5994979
12	0x3ed7e128	0.42163968
13	0x3f4445b5	0.76668864
14	0x3f313cdd	0.69233495
15	0x3f6d418c	0.9267814
16	0x3f53f186	0.8279041
17	0x3f3e7a84	0.74405694
18	0x3f2909e0	0.66030693
19	0x3f666209	0.8999334
20	0x3f43c7aa	0.7647654
21	0x3f6b5968	0.919333
22	0x3f1186c5	0.56846267
23	0x3f9d4caa	1.2289021
24	0x3f57af4e	0.8425187
25	0x3f8dd0e7	1.1079377
26	0x3f74c8ae	0.9561871
27	0x3f31a1f4	0.69387746
28	0x3f1cf376	0.6130899
29	0x3f8ff247	1.1245812
30	0x3f8bd1ad	1.0923363
31	0x3f80104c	1.0004973
32	0x3fbad6b2	1.459677
33	0x3f848087	1.0351723
34	0x3f71958d	0.9436882
35	0x3eb76f02	0.3582688
36	0x3ee7f0d2	0.4530092
37	0x3f749bc7	0.955502
38	0x3f4fe1e7	0.81204075
39	0x3f5db476	0.86603487
40	0x3f62694d	0.88441926
41	0x3f8dea0b	1.1087049
42	0x3f18ab2d	0.59636194
43	0x3fab4ff9	1.3383781
44	0x3f582113	0.8442547
45	0x3f78d5d9	0.97201306
46	0x3f3278bc	0.69715476
47	0x3f846a02	1.0344851

dense2.0.bn1.bias f4 [48]
0	0xbf05cdf6	-0.52267396
1	0x3e3dc554	0.18532306
2	0xbefb8e20	-0.4913187
3	0xbee4206c	-0.44555986
4	0x3ee1ebb4	0.4412514
5	0xbb0ed63e	-0.0021795179
6	0x3c2dde92	0.010612147
7	0xbe80a3d8	-0.25125003
8	0xbe52e5d9	-0.20595492
9	0xbeabee41	-0.3358021
10	0x3f993167	1.1968201
11	0xbe966f0c	-0.29381597
12	0xbe22c2ef	-0.15894674
13	0x3d01fdd2	0.031736203
14	0xbe01e213	-0.12683897
15	0xbe484948	-0.19559205
16	0xbe053493	-0.13008337
17	0xbba8c69c	-0.005150629
18	0xbee6b1bc	-0.45057476
19	0xbd84f6e2	-0.06492402
20	0xbf221a01	-0.6332093
21	0xbdf9f2ef	-0.12204539
22	0x3f30b77f	0.6902999
23	0xbe70508d	-0.23468228
24	0xbedaf89b	-0.42767796
25	0x3e3e3507	0.18574916
26	0xbf32a1d7	-0.697782
27	0xbeb3a416	-0.35086125
28	0xbe8cd8ac	-0.27509058
29	0x3b87afa9	0.0041408134
30	0x3ed34e22	0.41270548
31	0xbe2d317d	-0.1691341
32	0x3f847c45	1.0350424
33	0xbf29f606	-0.66391027
34	0xbef3cdaf	-0.47617862
35	0xbe567392	-0.20942524
36	0xbe8df1db	-0.27723584
37	0xbdce255a	-0.10065718
38	0xbecf92a0	-0.40541553
39	0x3f2bb8f4	0.6707909
40	0xbdc7f6bd	-0.097638585
41	0xbee40ed7	-0.44542572
42	0xbe92556b	-0.28580794
43	0x3b11ff0b	0.0022277262
44	0xbc4872e2	-0.012234421
45	0x3e0620cd	0.1309845
46	0x3e2603e4	0.16212422
47	0xbea31670	-0.31853056

dense2.0.conv1.weight f4 [12, 48, 3, 3]
0	0x3d7ab8d2	0.061211415
1	0xbe04d64d	-0.12972374
2	0xbe9db077	-0.30798694
3	0xbd29c1f3	-0.04144473
4	0x3d9e07e1	0.077163465
5	0xbd21cb4e	-0.039500527
6	0xbe20bf4d	-0.15697975
7	0x3d9436bf	0.072370045
8	0xbe76a963	-0.24088053
9	0xbdb51d4d	-0.08843479
10	0xbdf676f1	-0.12034405
11	0xbdbaef09	-0.091276236
12	0xbb5db3c6	-0.0033829077
13	0xbca9e83b	-0.020740619
14	0x3c80a2e8	0.01570268
15	0x3e5dd9f0	0.21665168
16	0x3de29540	0.110636234
17	0x3e171359	0.14753474
18	0x3d655dd1	0.055997673
19	0xbdaaa506	-0.08332257
20	0x3e34f221	0.1767049
21	0xbeba0e9d	-0.36339274
22	0xbedb6bb1	-0.428556
23	0xbc17a6bd	-0.009256062
24	0x3c5ceab4	0.013483692
25	0xbe70ff27	-0.23534833
26	0xbc8553da	-0.016275335
27	0x3ef30c7f	0.4747047
28	0x3e7f99c1	0.24960996
29	0xbe1edbb7	-0.15513502
30	0x3e7880d7	0.24267898
31	0x3becb826	0.0072241006
32	0xbed238e2	-0.41059023
33	0x3e803c5d	0.25046054
34	0x3d202409	0.039096866
35	0xbeaad733	-0.3336731
36	0xbf07b7ba	-0.5301472
37	0xbead02bc	-0.3379115
38	0x3e8c7cdf	0.2743902
39	0xbedae3f6	-0.42752045
40	0xbe0eb844	-0.1393748
41	0x3eeed45b	0.4664639
42	0xbee8363c	-0.45353878
43	0xbeba2f38	-0.3636415
44	0x3eb3bc60	0.35104656
45	0x3e1006fc	0.14065164
46	0xbdfb615e	-0.12274431
47	0xbdbe8525	-0.09302739
48	0x3d9c9a60	0.07646632
49	0xbd975b2d	-0.07390437
50	0xba778762	-0.0009442476
51	0x3dafa27c	0.08575913
52	0x3b947c8a	0.004531448
53	0x3b69dc17	0.0035684162
54	0xbe742cdb	-0.23845236
55	0x3e29e319	0.16590537
56	0x3e31372c	0.17306203
57	0xbecb4185	-0.39698425
58	0x3d0bd0f3	0.034134816
59	0x3e57d0df	0.21075772
60	0xbe5dc3b8	-0.21656692
61	0xbd67e5d4	-0.056615666
62	0x3df955b4	0.1217455
63	0xbe7fd79c	-0.24984592
64	0xbdfe9428	-0.12430602
65	0xbe4a22f9	-0.19739904
66	0x3dc217dd	0.09477208
67	0xbda96e16	-0.0827295
68	0xbd95bf03	-0.07311823
69	0xbe25ddec	-0.16197938
70	0xbdc97a81	-0.09837819
71	0xbe05a56d	-0.13051386
72	0xbe342526	-0.17592296
73	0xbca90d5f	-0.020636259
74	0xbe766689	-0.24062552
75	0x3e3f5a53	0.186868
76	0xbd0ac0c6	-0.03387525
77	0xbe23c2e0	-0.15992308
78	0x3ea2aa1c	0.31770408
79	0xbcf93ddd	-0.030425007
80	0xbea39f3a	-0.31957418
81	0x3e5081ee	0.20362064
82	0x3df3a670	0.1189698
83	0xbea5d835	-0.32391515
84	0x3e907c47	0.28219816
85	0x3ea4e241	0.32203868
86	0xbf0cef94	-0.5505307
87	0x3e715dc8	0.23570931
88	0x3d93d78f	0.07218849
89	0xbf0cbebf	-0.54978555
90	0xbe81f0bc	-0.25378978
91	0xbcfd67d7	-0.030933304
92	0x3ebe8b59	0.3721569
93	0xbee45a73	-0.44600257
94	0xbe01fae1	-0.12693359
95	0x3efd91be	0.49525255
96	0xbeb2c6f1	-0.34917405
97	0xbd8e13f9	-0.06937403
98	0x3f37d056	0.7180227
99	0x3e21052e	0.15724632
100	0xbdc41cd2	-0.095758095
101	0xbe6741f8	-0.22583759
102	0x3e88e712	0.26738793
103	0xbcc5745f	-0.024103342
104	0xbe600542	-0.21877006
105	0x3e36d841	0.17855932
106	0xbdee2cd2	-0.116296425
107	0xbe85f1fe	-0.26161188
108	0x3e82bbef	0.25534007
109	0x3c880ac8	0.016606703
110	0xbe7aad55	-0.24480183
111	0x3e5ef17a	0.21771803
112	0x3c1eab44	0.009684388
113	0xbe4b05f3	-0.19826488
114	0x3e5c8162	0.2153373
115	0x3d7fe78c	0.06247668
116	0xbe07b529	-0.13252701
117	0x3e2368cb	0.15957944
118	0xbd607753	-0.054801296
119	0xbdab9aae	-0.08379112
120	0x3e158573	0.14601688
121	0xbe3c261d	-0.18373914
122	0xbe46fd23	-0.19432501
123	0x3ec4cc7a	0.38437253
124	0xbd12c338	-0.035830706
125	0xbcf433e5	-0.029809901
126	0x3e4e9b05	0.20176323
127	0xbd1f5278	-0.038897008
128	0xbed28c33	-0.4112259
129	0x3e95a9f6	0.29231232
130	0x3de7b83b	0.11314436
131	0xbed24b13	-0.41072902
132	0x3e318e27	0.17339383
133	0x3d0c7a87	0.03429654
134	0xbea2feb0	-0.31834936
135	0x3f1b807e	0.6074294
136	0xbdbee54d	-0.093210794
137	0xbec5c92a	-0.38630038
138	0x3f0adaa0	0.54239845
139	0xbeb98672	-0.36235386
140	0xbf089266	-0.53348386
141	0x3efe7023	0.4969493
142	0xbe23f777	-0.16012369
143	0xbeaa90df	-0.33313653
144	0xbdf93420	-0.12168145
145	0xbcd459a2	-0.025921647
146	0x3e44e163	0.19226603
147	0xbd98c462	-0.07459332
148	0x3d5f7226	0.05455222
149	0x3e9c5594	0.3053404
150	0xbe7ee3fc	-0.24891657
151	0xbdae8e2d	-0.08523212
152	0x3e2aff9d	0.16699071
153	0x3e4a319a	0.19745484
154	0xbd640785	-0.055671234
155	0xbe57bd0c	-0.2106821
156	0x3e2169b7	0.15762983
157	0xbc259354	-0.010105927
158	0xbe30a35f	-0.17249821
159	0x3e3cf07b	0.18451111
160	0x3e08fc59	0.13377513
161	0xbdd77e1e	-0.10522102
162	0x3e0259f5	0.12729628
163	0x3c8d0ed2	0.017218981
164	0x3d7d1776	0.061789952
165	0x3e415955	0.18881734
166	0xbd611861	-0.05495489
167	0xbd9b2a7d	-0.07576463
168	0x3dec501b	0.115387164
169	0xbd9893c8	-0.07450062
170	0xbda648a6	-0.08119325
171	0x3f17e2c3	0.59330386
172	0xbbfca0ef	-0.0077096145
173	0xbefcab86	-0.49349612
174	0x3e882ae1	0.26595214
175	0xbe57b004	-0.21063238
176	0xbf10267e	-0.56308734
177	0x3e80ca08	0.25154138
178	0xbdc9328c	-0.09824094
179	0xbee91191	-0.45521215
180	0x3cbdbed0	0.023162276
181	0x3ddd4398	0.10803908
182	0x3e00bb0c	0.12571353
183	0x3d84fb03	0.06493189
184	0x3dc39fb9	0.09551949
185	0x3dd5601e	0.104187235
186	0xbd491bb2	-0.049098678
187	0xbe520439	-0.20509423
188	0xbed9228f	-0.4240918
189	0xbebf3807	-0.37347433
190	0x3aa77d89	0.0012778501
191	0x3d094786	0.033515476
192	0xbe8cfc74	-0.27536356
193	0x3bc1602c	0.005901357
194	0x3e8d7db8	0.27634978
195	0xbe45f18f	-0.19330429
196	0x3d568856	0.052376114
197	0x3daf729c	0.08566782
198	0xbd565ef9	-0.052336667
199	0xbce65cd3	-0.028120434
200	0x3dba52ac	0.090978
201	0xbe201f63	-0.15636973
202	0xbcd847dc	-0.026401453
203	0x3e5994a7	0.21248113
204	0xbe078e3a	-0.13237849
205	0xbc388b23	-0.0112636415
206	0x3ea1fada	0.31636697
207	0xbcb0b8cd	-0.021572495
208	0xbe3ca809	-0.18423475
209	0x3d1d7815	0.038444597
210	0x3d8c4ac3	0.06850197
211	0xbe07e468	-0.13270724
212	0xbda34b0f	-0.07973301
213	0x3dc4767d	0.09592912
214	0xbcdeabe3	-0.027181571
215	0xbd8f4912	-0.06996359
216	0x3c63474e	0.013871981
217	0xbdd484d2	-0.10376896
218	0xbe28f853	-0.16500978
219	0x3dbadac7	0.0912376
220	0x3d920e25	0.07131604
221	0xbe9cb2ca	-0.30605155
222	0x3e977aa2	0.2958575
223	0x3e18be2e	0.14916298
224	0xbe9e483e	-0.3091449
225	0xbee13518	-0.4398582
226	0xbe748cf4	-0.23881894
227	0x3e685252	0.22687653
228	0xbee40fa2	-0.44543177
229	0xbe57a820	-0.21060228
230	0x3e893898	0.2680099
231	0xbee6b210	-0.45057726
232	0xbe63e3a9	-0.22254814
233	0x3d70ade1	0.058759574
234	0x3cfe2aab	0.031026205
235	0x3d146fcd	0.036239434
236	0x3ea633a4	0.32461274
237	0xbe8bc8c0	-0.27301598
238	0xbe0524f5	-0.13002379
239	0x3e664f5d	0.22491212
240	0xbe72de39	-0.23717584
241	0xbe079d0c	-0.13243502
242	0x3e4934be	0.19649026
243	0xbe2507a8	-0.16116202
244	0xbe3a9028	-0.18219054
245	0x3e02faed	0.12791033
246	0xbe3d41f7	-0.18482195
247	0xbe630438	-0.22169578
248	0x3e0660ab	0.13122813
249	0x3dfed683	0.124432586
250	0xbdf75a29	-0.120777436
251	0x3c06475b	0.008195723
252	0xbe2f5a18	-0.17124212
253	0xbc8997af	-0.016795961
254	0x3dd1b4d8	0.10239571
255	0xbd98c0ea	-0.074586704

dense2.1.bn1.weight f4 [60]
0	0x3f45ad55	0.7721761
1	0x3f65abcd	0.8971527
2	0x3f9028cd	1.1262451
3	0x3f7a627a	0.97806513
4	0x3f2591ec	0.64675784
5	0x3f177250	0.591588
6	0x3f5c5e94	0.86081815
7	0x3f4984ef	0.78718466
8	0x3f0fc495	0.56159335
9	0x3ee11ff4	0.4396969
10	0x3f70ed52	0.9411212
11	0x3f317973	0.6932594
12	0x3f65a245	0.8970073
13	0x3f647a9f	0.89249605
14	0x3f1156b0	0.567729
15	0x3f3abe3a	0.7294651
16	0x3f0dc08e	0.5537194
17	0x3f381628	0.7190881
18	0x3f26ce79	0.651588
19	0x3f2a5c60	0.66547203
20	0x3ee974ad	0.4559683
21	0x3f39f53a	0.7263981
22	0x3efa9631	0.48942712
23	0x3f777080	0.96656036
24	0x3f17d842	0.5931436
25	0x3f2c46a0	0.67295265
26	0x3f8043ac	1.0020652
27	0x3f9da4af	1.2315882
28	0x3f36d91a	0.7142502
29	0x3f2400e2	0.6406385
30	0x3f4ac054	0.7919972
31	0x3f49dd10	0.7885294
32	0x3f2ed289	0.6829
33	0x3f6e84bd	0.9317129
34	0x3f85621b	1.0420564
35	0x3f4e39ed	0.8055714
36	0x3f480200	0.7812805
37	0x3f4c3672	0.79770577
38	0x3f5cf5a3	0.8631231
39	0x3f4ac92b	0.7921321
40	0x3f8f8aa3	1.1214184
41	0x3f55ff16	0.83592355
42	0x3f4a29aa	0.78969824
43	0x3f6bc1e8	0.9209275
44	0x3f956929	1.1672717
45	0x3f49a2be	0.7876395
46	0x3ef29fc9	0.4738753
47	0x3f55aafc	0.83464026
48	0x3f98410e	1.1894853
49	0x3f472525	0.77791053
50	0x3f2181eb	0.63088864
51	0x3f67a9a6	0.9049324
52	0x3f81eb3f	1.0149916
53	0x3f6b2c52	0.918645
54	0x3f59ef8f	0.8513116
55	0x3f0355bf	0.51302713
56	0x3f8994cc	1.0748534
57	0x3f025b75	0.509208
58	0x3f87758a	1.0582745
59	0x3f2eabcd	0.682309

dense2.1.bn1.bias f4 [60]
0	0xbf22fad2	-0.6366397
1	0x3d0fc42c	0.035099193
2	0xbed2580d	-0.41082802
3	0xbf13a847	-0.57678646
4	0x3ef315e0	0.47477627
5	0xbdc47e7a	-0.09594436
6	0xbe455dd6	-0.19274077
7	0xbee7e20a	-0.45289642
8	0xbd3b2112	-0.045685835
9	0xbe62d45c	-0.22151321
10	0x3ed52e9b	0.4163712
11	0xbf21968e	-0.63120353
12	0xbf48d931	-0.7845641
13	0xbd8a16b0	-0.067426085
14	0xbc14ac52	-0.0090742875
15	0xbea5bb69	-0.32369545
16	0xbe2e8aed	-0.17045183
17	0xbd8deb28	-0.06929618
18	0xbec0cac5	-0.376547
19	0xbda89e05	-0.08233265
20	0xbf3a1f93	-0.7270443
21	0xbdcb4b95	-0.099265255
22	0x3f3e2f6c	0.7429111
23	0xbedbdbda	-0.4294117
24	0xbebc4d24	-0.36777604
25	0x3e594938	0.21219337
26	0xbec33724	-0.38128006
27	0xbef9367e	-0.48674387
28	0xbe07595a	-0.13217679
29	0x3eb8b5bf	0.3607616
30	0x3e6c7032	0.23089674
31	0xbed2fb69	-0.41207436
32	0x3f163c3f	0.5868568
33	0xbee62052	-0.44946533
34	0xbebf55a7	-0.37370035
35	0xbe73c4a0	-0.23805475
36	0xbecca2ab	-0.39967856
37	0xbe8c3e52	-0.27391297
38	0xbea25ca5	-0.31711307
39	0xbe90e388	-0.28298593
40	0xbf18146e	-0.59406173
41	0xbeefec94	-0.46860182
42	0xbe4cc85c	-0.19998306
43	0x3ec9ad5a	0.3939007
44	0xbf32e98a	-0.698876
45	0xbc2cc489	-0.0105449045
46	0x3c4cc8e8	0.012499072
47	0xbf01bf68	-0.5068269
48	0xbd99279f	-0.0747826
49	0xbe6d667e	-0.23183629
50	0x3db92dd7	0.090419464
51	0xbedce06c	-0.4313997
52	0xbe8689cb	-0.26277003
53	0x3de3c152	0.11120857
54	0xbe6f8d52	-0.23393753
55	0x3f2dceb6	0.6789354
56	0x3c967eda	0.018371034
57	0xbe3bd600	-0.18343353
58	0xbdcee9a7	-0.101031594
59	0xbe8defca	-0.27722007
