independent_train_0.0/client98/checkpoint_0.0.pth (torch, 420139 bytes, 98 tensors)

conv1.0.weight f4 [16, 3, 3, 3]
0	0x3d7d9b70	0.061915815
1	0xbd8bf3a8	-0.06833583
2	0x3ec6a891	0.3880048
3	0xbebea1f5	-0.37232938
4	0xbf534d08	-0.82539415
5	0xbe9b846e	-0.30374473
6	0xbe2f5c96	-0.17125162
7	0xbf2401ab	-0.64065045
8	0xbe42ce0e	-0.19023916
9	0x3cc4991d	0.023998791
10	0xbe8bd62e	-0.27311844
11	0x3d933159	0.07187147
12	0xbda17c92	-0.07885088
13	0xbf215653	-0.63022345
14	0xbe5c3331	-0.21503903
15	0x3eb4aa50	0.35286188
16	0xbe3a8845	-0.18216045
17	0x3e385c80	0.18004036
18	0xbcc80832	-0.02441797
19	0xbd718bf9	-0.05897138
20	0x3e765a80	0.2405796
21	0xbeaf431f	-0.34230897
22	0xbf1b8408	-0.6074834
23	0xbe516d1c	-0.20451778
24	0xbe85f23a	-0.26161367
25	0xbf071236	-0.5276216
26	0xbe1cb5f5	-0.15303786
27	0xbf352f08	-0.7077489
28	0xbf1f99cd	-0.62344056
29	0xbf201dde	-0.62545574
30	0xbf89b017	-1.0756863
31	0xbf828c50	-1.019907
32	0xbf696abd	-0.91178495
33	0xbf894bd2	-1.0726264
34	0xbf9da06f	-1.2314585
35	0xbf81bd36	-1.0135868
36	0x3f56f633	0.8396942
37	0x3f857ef9	1.0429374
38	0x3f4c0383	0.7969286
39	0x3f6a6c28	0.91571283
40	0x3f986fe7	1.190915
41	0x3f80fdaa	1.0077412
42	0x3f612078	0.8794017
43	0x3f6eccd0	0.9328127
44	0x3f4f5f37	0.8100466
45	0xbe639d3d	-0.2222795
46	0xbe097762	-0.13424447
47	0xbeac8268	-0.33693242
48	0x3d93456e	0.07190977
49	0x3e8744ad	0.26419583
50	0x3cfd01b9	0.03088461
51	0x3e96157f	0.29313275
52	0x3e9b1158	0.3028667
53	0x3dd11ee0	0.10210967
54	0xbeb875f4	-0.3602749
55	0x3e9059fa	0.28193647
56	0xbeb88894	-0.360417
57	0xbe47944f	-0.19490169
58	0x3f5b5560	0.85677147
59	0xbf13107b	-0.5744702
60	0x3eae6a72	0.34065586
61	0x3f8a0963	1.0784115
62	0xbf5bd958	-0.85878515
63	0xbed91038	-0.42395186
64	0x3f2ca938	0.6744571
65	0xbf4d2533	-0.80134887
66	0xbe72a7a3	-0.23696761
67	0x3f9ae945	1.2102438
68	0xbf96b95e	-1.177532
69	0x3e38b7ca	0.1803886
70	0x3fa3889d	1.2776066
71	0xbfc7918f	-1.5591296
72	0xbe563f41	-0.20922567
73	0x3ef8b110	0.48572588
74	0xbe655d73	-0.2239893
75	0xbc618bd1	-0.013766245
76	0x3f8aa426	1.0831344
77	0xbf24e4ed	-0.64411813
78	0x3ead5762	0.3385573
79	0x3f89bd73	1.076094
80	0xbf929c18	-1.1453886
81	0x3e0dbc0f	0.1384127
82	0xbcb103b0	-0.021608204
83	0x3dbe3de7	0.09289151
84	0x3d1394f9	0.036030743
85	0xbd3a808f	-0.04553276
86	0x3e1fb516	0.15596423
87	0x3ec5d8a5	0.3864185
88	0x3e5d69d7	0.21622406
89	0x3f00f7d7	0.50378174
90	0xbf36e3fd	-0.7144163
91	0xbf8018ea	-1.0007603
92	0xbf3e98c4	-0.7445185
93	0xbf88708e	-1.0659349
94	0xbfb06d1b	-1.3783296
95	0xbf8eeeba	-1.1166604
96	0xbf55a947	-0.8346142
97	0xbfa0a370	-1.2549877
98	0xbf75bdca	-0.9599272
99	0x3f52187f	0.8206863
100	0x3f6e93be	0.93194187
101	0x3f662a5b	0.8990838
102	0x3f6f2161	0.9341031
103	0x3f8fd360	1.1236382
104	0x3f7a7e92	0.9784938
105	0x3f665ce9	0.8998552
106	0x3f69f65a	0.9139153
107	0x3f42c0b1	0.76075274
108	0xbee9c6fa	-0.4565962
109	0x3e33a02f	0.17541574
110	0x3ead9afa	0.339073
111	0x3fb5d5f8	1.4205923
112	0x3c671f45	0.014106576
113	0xbf8b7797	-1.0895871
114	0x3ff1348e	1.8844163
115	0xbf30770f	-0.6893167
116	0xbfcd9313	-1.6060508
117	0xbeb1253f	-0.3459873
118	0x3c4ab3f4	0.012372006
119	0x3c3ac947	0.011400527
120	0x3fd300da	1.6484635
121	0xbd0d8a42	-0.03455568
122	0xbfa8b15f	-1.3179129
123	0x400c2ca9	2.1902258
124	0xbf19837e	-0.59966266
125	0xbfcff946	-1.6247947
126	0xbeb97830	-0.36224508
127	0xbccb0074	-0.02478049
128	0x3e93e4b7	0.28885433
129	0x3fc1bc5c	1.5135608
130	0xbe29c879	-0.1658038
131	0xbf911fc6	-1.1337821
132	0x4001603e	2.0214992
133	0xbf4ddfc8	-0.8041959
134	0xbfcf590f	-1.6199054
135	0x3d81d20d	0.06338892
136	0x3dbd8180	0.09253216
137	0x3d30ec77	0.04319426
138	0x3ed5d454	0.41763556
139	0x3f237a38	0.63858366
140	0x3ee493f1	0.4464412
141	0x3e002d5a	0.125173
142	0x3ebff951	0.374949
143	0x3e8fa7c3	0.2805768
144	0xbdca4cc3	-0.098779224
145	0xbdc67b02	-0.09691431
146	0xbdf26313	-0.11835303
147	0x3e919215	0.28431764
148	0x3ef4c39e	0.47805494
149	0x3e9a884f	0.3018212
150	0xbce47ec0	-0.02789247
151	0x3e385518	0.1800121
152	0x3dcd8032	0.10034217
153	0x3d919d38	0.07110065
154	0x3c8d57da	0.017253805
155	0x3c9582c5	0.018250832
156	0x3ec954d0	0.3932252
157	0x3f0a0587	0.53914684
158	0x3ed43eed	0.4145426
159	0xbe040881	-0.12893869
160	0x3cf405c6	0.02978791
161	0x3c224887	0.009904987
162	0x3f0e6297	0.55619186
163	0x3f083c6f	0.53217214
164	0x3e218e0b	0.15776841
165	0x3f66ae40	0.90109634
166	0x3f8d94a7	1.106099
167	0x3f33a260	0.7016964
168	0x3f0bc987	0.5460438
169	0x3f71eb45	0.9449962
170	0x3f150a3f	0.5821876
171	0x3db2ef2d	0.087370254
172	0xbdc12c14	-0.09432235
173	0xbc466ab9	-0.012110406
174	0xbdcadf22	-0.099058405
175	0xbe8ad9b1	-0.2711921
176	0xbe1bade7	-0.15203057
177	0xbeb1d557	-0.34733078
178	0xbeb9cf5f	-0.36291024
179	0xbe33287e	-0.17495915
180	0xbee55475	-0.44790998
181	0xbf17d584	-0.59310174
182	0xbea6ce44	-0.32579243
183	0xbf346481	-0.70465857
184	0xbf7e1d6d	-0.9926365
185	0xbf1c0801	-0.60949713
186	0xbf42c831	-0.7608672
187	0xbf788625	-0.9707969
188	0xbf055345	-0.52080184
189	0xbf8ff198	-1.1245604
190	0x3f5698db	0.8382699
191	0x3f902049	1.1259853
192	0x3f8d5911	1.1042806
193	0x3fbbbb7f	1.4666594
194	0x3f13cc2d	0.5773342
195	0xbc64e0c1	-0.013969601
196	0xbfe03013	-1.7514671
197	0xc023c617	-2.5589654
198	0xbf768888	-0.9630208
199	0x3f58e203	0.84719867
200	0x3fa28b45	1.2698752
201	0x3f9335cd	1.1500794
202	0x3fbae4b2	1.4601042
203	0x3f4a769c	0.79087234
204	0xbde71ea2	-0.112851396
205	0xbfed1f45	-1.8525168
206	0xc0184996	-2.3794913
207	0xbfbe640b	-1.4874281
208	0x3c156e1f	0.009120493
209	0x3f02e375	0.5112832
210	0x3f85af90	1.0444202
211	0x3faef9db	1.367
212	0x3f5dff16	0.86717355
213	0x3edaa1ab	0.42701468
214	0xbf80e1b6	-1.0068882
215	0xbfb06fa9	-1.3784076
216	0x3f1d8160	0.61525536
217	0x3f511f91	0.8168879
218	0x3ef22a83	0.4729806
219	0x3f61e43a	0.8823887
220	0x3fa6a189	1.3018047
221	0x3f513fc0	0.817379
222	0x3f03abd7	0.5143408
223	0x3f71a2ee	0.94389236
224	0x3ed0fb4b	0.4081672
225	0xbf810e22	-1.0082438
226	0xbf9cdbe6	-1.2254608
227	0xbf8a2a78	-1.079421
228	0xbfaf1a55	-1.3679911
229	0xbfc0777b	-1.5036463
230	0xbfaad6ea	-1.3346837
231	0xbf9ee529	-1.2413684
232	0xbfa5d9e8	-1.2957125
233	0xbf8c4f93	-1.0961784
234	0x3efd43a3	0.49465665
235	0x3f0851fb	0.5325009
236	0x3ee154aa	0.44009906
237	0x3efa3db9	0.48875216
238	0x3f347f58	0.7050681
239	0x3f1533a0	0.582819
240	0x3e9b0780	0.3027916
241	0x3f061d9d	0.52388936
242	0x3ec7f218	0.3905189
243	0xbf016ab3	-0.50553435
244	0xbfa6ea38	-1.3040228
245	0xbf3139eb	-0.69229
246	0xbf1d58fe	-0.61463916
247	0xbf1a7a0f	-0.60342497
248	0xbefb3339	-0.49062517
249	0x3f9d405b	1.2285265
250	0x4002ddf1	2.0447962
251	0x3fa0ef7e	1.2573087
252	0xbee1636d	-0.44021168
253	0xbfa70c4a	-1.3050625
254	0xbf215ac1	-0.63029104
255	0xbf0a970c	-0.5413673

conv1.1.weight f4 [16]
0	0x3fd0b3e6	1.6304901
1	0x3fd47c52	1.660044
2	0x3fe84254	1.8145242
3	0x3fdb64b8	1.7140112
4	0x400a418d	2.160251
5	0x3fb036a1	1.3766671
6	0x3fcdb687	1.6071328
7	0x400bdce6	2.1853576
8	0x3fbfb421	1.4976846
9	0x3fd4cda5	1.6625258
10	0x3fdeef89	1.741685
11	0x3fd72c83	1.6810459
12	0x3fc06cc8	1.5033197
13	0x3fbf23a0	1.4932747
14	0x3fbf6303	1.4952091
15	0x3fd4270a	1.6574414

conv1.1.bias f4 [16]
0	0xbe469e93	-0.19396429
1	0x3f0f55da	0.55990374
2	0x3f82494b	1.0178617
3	0x3eff0484	0.49808133
4	0xbdfd262e	-0.12360798
5	0x3ead32a0	0.33827686
6	0x3f2d0c40	0.67596817
7	0xbeee8873	-0.46588477
8	0x3f28d284	0.6594622
9	0xbe77d583	-0.24202542
10	0x3f052acd	0.52018434
11	0xbd6e935d	-0.058246005
12	0x3e53022d	0.20606299
13	0x3f657cae	0.8964337
14	0xbd1172a0	-0.035509706
15	0x3e62237f	0.22083853

stage2.0.branch1.0.weight f4 [16, 1, 3, 3]
0	0xbd5b7a98	-0.05358371
1	0xbdd6dd32	-0.104914084
2	0x3f0f93a2	0.56084645
3	0x3ecdd94a	0.4020484
4	0xbebb74e4	-0.36612618
5	0x3ed85136	0.4224946
6	0x3e4e2b96	0.20133814
7	0xbf25973f	-0.6468391
8	0xbd793b2b	-0.060847443
9	0x3ea0138c	0.31264913
10	0xbe71f993	-0.23630361
11	0xbf2b33ba	-0.66875803
12	0xbf067091	-0.5251551
13	0x3e0f5c58	0.1400007
14	0x3f4ce31e	0.80034053
15	0xbf2a4dc2	-0.665249
16	0x3f6606a6	0.89853895
17	0x3fe837f6	1.8142078
18	0x3c582574	0.013192523
19	0xbae2fbe7	-0.0017317504
20	0xbd8897c1	-0.0666957
21	0x3e6f3d3e	0.23363206
22	0xbfa491e5	-1.2857023
23	0x3f5fcdec	0.87423587
24	0x3f848ac6	1.035485
25	0xc031a5f1	-2.7757533
26	0x3ff702ec	1.9297767
27	0x3e90e409	0.28298977
28	0xbeefa1fd	-0.46803275
29	0xbec533fb	-0.3851622
30	0xbf0a454c	-0.5401199
31	0xbe1f25e1	-0.15541793
32	0x3f038c24	0.5138571
33	0xbf066995	-0.52504855
34	0x3f1d769e	0.6150912
35	0x3fb9f2bd	1.4527203
36	0xbcb94fff	-0.022621153
37	0x3d8fed93	0.070277356
38	0xbcffbf72	-0.031219218
39	0x3f0e1e81	0.55515295
40	0x3f266a20	0.65005684
41	0x3ef7684e	0.48321766
42	0x3e4342af	0.19068407
43	0x3eea94f4	0.45816767
44	0x3f8e3b64	1.1111875
45	0xbd14a8d7	-0.03629383
46	0xbe5533da	-0.20820561
47	0xbf14a64a	-0.58066237
48	0xbd1efd62	-0.038815863
49	0x3ebc7d04	0.3681413
50	0x3e1bf20c	0.15229052
51	0xbe7b6e88	-0.24553883
52	0x3f0ba80a	0.5455328
53	0x3f77bee8	0.96775675
54	0xbf0a8dcc	-0.54122615
55	0x3f00d578	0.5032573
56	0x3f571f19	0.84031826
57	0x3e2f8a1b	0.17142527
58	0xbf0b0485	-0.5430377
59	0xbf8700b3	-1.0547088
60	0x3f7f1c1c	0.99652267
61	0xbf0e234e	-0.5552262
62	0xbfa37f5b	-1.2773241
63	0xbe0a1426	-0.13484249
64	0x3d1dcfc1	0.038528208
65	0x3ed8a5e9	0.4231408
66	0x3ebb67fe	0.36602777
67	0x3f8e582c	1.1120658
68	0x3f3c0a46	0.73453176
69	0x3ed5c006	0.41748065
70	0x3f9c1b9c	1.2195926
71	0x3f3a34c9	0.72736794
72	0xbeb5c492	-0.35501534
73	0x3e9f7ee5	0.311515
74	0x3f38b9b7	0.7215838
75	0x3f0a1e80	0.5395279
76	0x3d175c1d	0.03695308
77	0xbf0c927b	-0.5491101
78	0x3f6a8ee8	0.9162431
79	0xbf4a65cb	-0.79061574
80	0xbffe1b51	-1.9852086
81	0x3e659e0c	0.22423571
82	0xbe68fbf5	-0.22752364
83	0xbf3f60c8	-0.7475705
84	0x3edfea51	0.43733457
85	0xbf47793f	-0.7791938
86	0xbf946b63	-1.1595272
87	0x3bfc173d	0.0076932
88	0xbfacca93	-1.3499321
89	0xbf96c598	-1.1779051
90	0x3d3ae71d	0.045630563
91	0x3f983677	1.1891621
92	0xbfbe422c	-1.4863944
93	0xbfea7b91	-1.831896
94	0x3f13225d	0.5747431
95	0x3fa6d5d6	1.3034008
96	0x3fc58235	1.5430361
97	0xbfeb4cec	-1.838285
98	0x3e476478	0.1947192
99	0xbde4de12	-0.11175169
100	0x3e0200c4	0.12695605
101	0x3e2180dd	0.15771814
102	0xbf1d3637	-0.6141085
103	0xbf1940d6	-0.59864557
104	0xbe506edd	-0.20354791
105	0xbefc7180	-0.49305344
106	0xbf0d7d5c	-0.5526941
107	0xbf4edd87	-0.80806774
108	0xbcba16ed	-0.02271601
109	0xbd80b4c8	-0.06284481
110	0xbc33916b	-0.010959963
111	0x3df5e05a	0.12005682
112	0x3de53f29	0.111936875
113	0x3e05b543	0.13057427
114	0xbd423045	-0.047409315
115	0xbcca26c8	-0.024676695
116	0x3b0f19e3	0.0021835498
117	0x3f44c5c0	0.7686424
118	0x3db06335	0.08612672
119	0xbf088a67	-0.53336185
120	0x3f8daff4	1.1069322
121	0x3da75410	0.081703305
122	0xbf50a323	-0.81498927
123	0x3f05d7a8	0.5228219
124	0xbe9caaad	-0.30598965
125	0xbf5afa07	-0.8553776
126	0xbeafe8ea	-0.34357387
127	0x3f2cb722	0.6746694
128	0x3f72387c	0.9461744
129	0x3f0b8eff	0.5451507
130	0x3c371ae7	0.011175848
131	0xbedcd623	-0.43132123
132	0x3f334b6a	0.7003695
133	0xbf7fb428	-0.9988427
134	0xbfbf72e7	-1.495694
135	0xbcf66802	-0.030078892
136	0x3e349e0f	0.1763842
137	0x3e3cb981	0.18430139
138	0x3e3db7dd	0.1852717
139	0xbf02409e	-0.5087985
140	0xbf58e73e	-0.8472785
141	0x3f266d92	0.6501094
142	0xbed8dcab	-0.42355856
143	0xbf5a38a7	-0.85242695

stage2.0.branch1.1.weight f4 [16]
0	0x3f94dd27	1.162999
1	0x3fdfa0b0	1.7470913
2	0x4000200d	2.0019562
3	0x3fd62306	1.6729438
4	0x3fba91bf	1.4575728
5	0x3fa1ee0f	1.2650775
6	0x3fd48f6b	1.6606268
7	0x3fae943d	1.3638989
8	0x3fe84fff	1.8149413
9	0x3f97b21b	1.1851228
10	0x40126fc9	2.2880728
11	0x3fbbb77d	1.4665371
12	0x3ebc1c86	0.36740512
13	0x3f8273b7	1.0191563
14	0x3fbdee93	1.4838432
15	0x3fbdead5	1.483729

stage2.0.branch1.1.bias f4 [16]
0	0x3ddbdff4	0.10736075
1	0xbeb91a4f	-0.36152884
2	0x3f6d3603	0.9266054
3	0x3d0ed67f	0.03487253
4	0xbebd353b	-0.36954674
5	0xbe3437ce	-0.17599413
6	0x3fb00aaf	1.375326
7	0xbeddb50d	-0.43302193
8	0xbdb638db	-0.08897563
9	0x3f3d0519	0.73835903
10	0xbf871525	-1.0553328
11	0x3ea3ea0c	0.320145
12	0xbe355a56	-0.17710242
13	0xbea36ec6	-0.3192045
14	0xbeacc64d	-0.3374504
15	0x3dba3465	0.09092025

stage2.0.branch1.2.weight f4 [16, 16, 1, 1]
0	0x3e5c8275	0.2153414
1	0x3f2a534f	0.6653337
2	0x3bef833b	0.007309345
3	0x3f834132	1.0254271
4	0xbe2406fa	-0.16018286
5	0x3ee7fad3	0.4530855
6	0x3f37dc28	0.71820307
7	0x3eee3f35	0.46532598
8	0x3ec486e7	0.38384172
9	0xbf5e87c1	-0.86925894
10	0x3dba9f04	0.09112361
11	0xbdcf3af2	-0.10118665
12	0xbe096df8	-0.13420856
13	0xbf00b468	-0.5027528
14	0xbfacd55a	-1.350261
15	0x3fa7be16	1.3104885
16	0xbf1ba7f8	-0.60803175
17	0xbde0df5a	-0.10980101
18	0x3da62b6f	0.08113753
19	0x3e1211b9	0.14264573
20	0xbe147371	-0.14497162
21	0xbdd0cc3a	-0.10195203
22	0x3d957df8	0.07299417
23	0x400b528d	2.1769135
24	0xbe056032	-0.13024977
25	0xbf582f02	-0.8444673
26	0xbe13bf7e	-0.14428517
27	0x3b23fa9b	0.0025021199
28	0x3d64a4a7	0.055821087
29	0x3d991f79	0.07476706
30	0x3edcf371	0.4315448
31	0xbe4f158a	-0.2022306
32	0xbc3734bf	-0.011182009
33	0x3f1b2798	0.6060729
34	0x3d5ffd24	0.054684773
35	0xbf9a846b	-1.2071661
36	0x3d11da19	0.035608385
37	0xbec21511	-0.37906697
38	0xbf014c90	-0.5050745
39	0x3e573be6	0.21018943
40	0x40050759	2.0785735
41	0x3d8d7a9f	0.06908154
42	0x3dc4f369	0.09616739
43	0x3d56249e	0.052281015
44	0x3e0623ee	0.13099644
45	0xbcfbbf69	-0.03073092
46	0x3e42dfbd	0.19030662
47	0xbf6d4dcf	-0.9269685
48	0xbe9437aa	-0.28948718
49	0xbf94ae93	-1.1615776
50	0x3b02dab1	0.0019966776
51	0xbf661b1b	-0.8988511
52	0xbd3bc5cc	-0.04584293
53	0xbf9b7a5d	-1.2146717
54	0xbf86bd16	-1.0526454
55	0xbd9462a2	-0.07245375
56	0x3ea2d04d	0.31799546
57	0x3f18a519	0.5962692
58	0x3de25186	0.110507056
59	0x3e8fa24e	0.28053516
60	0xbd173033	-0.0369112
61	0x3e1f2424	0.1554113
62	0x3cd75c68	0.02628918
63	0x3f6506bb	0.89463395
64	0x3eb88ddd	0.36045733
65	0x3e3b79fe	0.18308255
66	0xbe43b5e0	-0.19112349
67	0x3e84d387	0.25942633
68	0x3f43ec95	0.7653287
69	0x3e8d9d78	0.27659202
70	0x3e840812	0.25787407
71	0x3d521f80	0.051299572
72	0xbb9ddda6	-0.0048176823
73	0x400e8ecb	2.2274654
74	0x3ec2cebf	0.3804836
75	0xbec8e385	-0.39236084
76	0xbdd46a47	-0.10371833
77	0x3ebd8efd	0.37023154
78	0xbd987175	-0.07443515
79	0xbe055991	-0.13022448
80	0xbe8a318b	-0.26990923
81	0xbe44513e	-0.19171616
82	0x4002dde5	2.0447934
83	0xbd78a71c	-0.060706243
84	0xbdbe1b3c	-0.09282538
85	0xbe3f4dbe	-0.18682
86	0x3e5a2aa9	0.21305336
87	0xbe281def	-0.16417669
88	0x3dc6f879	0.09715361
89	0x3d18996b	0.037255686
90	0xbe486c37	-0.1957253
91	0xbde9a450	-0.11408293
92	0x3d5b678e	0.053565554
93	0xbfadcd69	-1.3578311
94	0xbe6171ba	-0.2201604
95	0x3d91b720	0.071150064
96	0x3e6a8825	0.22903498
97	0x3c275086	0.010212069
98	0x3e4e1cad	0.20128126
99	0x3e5a0e4b	0.21294515
100	0x3dabfb6d	0.08397565
101	0x3ed6c456	0.41946667
102	0xbdd9e121	-0.10638643
103	0xbe246889	-0.16055502
104	0x3d0c31b3	0.034227084
105	0x3d3f7bb8	0.046748847
106	0x402ce772	2.7016263
107	0x3e1f846e	0.15577862
108	0x3db21e1e	0.08697151
109	0x3bcea9d0	0.0063068643
110	0xbb6a6752	-0.003576715
111	0x3da101bd	0.0786166
112	0x3daa1d0b	0.08306321
113	0xbfdf665d	-1.7453114
114	0xbc0213b3	-0.007939267
115	0x3cb44bae	0.022008743
116	0xbd5d8eb7	-0.05409118
117	0x3ecd1ccf	0.40061042
118	0xbfb226b0	-1.3918056
119	0x3e4c5cb3	0.19957237
120	0xbf4e7ba4	-0.8065741
121	0xbdafdbb4	-0.08586827
122	0x3dac846e	0.084236965
123	0xbde32d70	-0.11092651
124	0x3cc62560	0.024187744
125	0xbc908f1c	-0.017646365
126	0x3f41f26c	0.7576053
127	0xbe47132d	-0.19440909
128	0xbed5bf15	-0.41747347
129	0x3ded3f38	0.11584324
130	0xbe832aa7	-0.2561848
131	0xbd4fa3d9	-0.050693367
132	0x3e6cd1f8	0.23126972
133	0xbf5154d7	-0.8177008
134	0xbe5026d9	-0.20327319
135	0x3dcc9875	0.09990016
136	0x3f307cd0	0.6894045
137	0x3f883ca2	1.0643504
138	0xbd07d20c	-0.0331593
139	0x3df0a939	0.11751027
140	0xbc4780b0	-0.012176678
141	0x3e10177b	0.14071457
142	0x3dfd6a28	0.12373763
143	0xbe13b07e	-0.14422795
144	0xbe316703	-0.17324452
145	0xbccf73be	-0.025323745
146	0xbf1f45e8	-0.62216043
147	0xbdf103c1	-0.11768294
148	0xbef76fab	-0.48327383
149	0xbdb86401	-0.09003449
150	0x3ded5fda	0.11590548
151	0x3db79a0d	0.0896493
152	0xbbcf16ef	-0.0063198726
153	0xbe6ca687	-0.231104
154	0x3cb3f7c9	0.02196874
155	0x4021b9a8	2.5269566
156	0xbdf53a3b	-0.11973997
157	0xbe9fdd24	-0.31223404
158	0xbec7973e	-0.38982576
159	0xbdc7fadc	-0.097646445
160	0xbe186808	-0.14883435
161	0xbe91fbaa	-0.28512317
162	0xbeb96077	-0.3620641
163	0x3dfc59fc	0.12321851
164	0x3f46c302	0.7764131
165	0xbe2f80b0	-0.17138934
166	0x3e3e77c1	0.1860037
167	0xbf76e692	-0.9644557
168	0x3e9d7a12	0.30757195
169	0xbe6b27f7	-0.22964464
170	0xbea3993d	-0.3195285
171	0x3d472d4f	0.048627194
172	0xbd06ad16	-0.03287991
173	0xbf3f2279	-0.74661976
174	0x3e046629	0.12929596
175	0x3f0602b4	0.52347875
176	0xbebe45c4	-0.37162602
177	0xbf430c5b	-0.7619073
178	0x3e01fb05	0.12693413
179	0xbe1d0fa0	-0.15337992
180	0xbddb49cc	-0.10707435
181	0xbf16f6d3	-0.58970374
182	0xbf82b20a	-1.0210583
183	0xbecf9fd8	-0.4055164
184	0xbee36fcc	-0.44421232
185	0x3e65ebcc	0.2245323
186	0x3d23a3d1	0.03995115
187	0xba84bb1c	-0.0010126564
188	0x3c0ea7e9	0.008707025
189	0x3e4430da	0.1915926
190	0x3f1f1399	0.6213928
191	0xbec74acd	-0.38924256
192	0xbe2278df	-0.15866421
193	0x3f3286db	0.69737023
194	0x3ee2f638	0.44328475
195	0x3ede3c39	0.4340532
196	0x3e5b7806	0.21432504
197	0x3ec735f1	0.38908342
198	0x3f213152	0.6296588
199	0xbed08aab	-0.40730795
200	0x3f006468	0.5015321
201	0x3e9bdec7	0.30443403
202	0xbc9d4e23	-0.019202298
203	0xbf10335b	-0.5632836
204	0x3d4c9deb	0.04995529
205	0x3de46033	0.11151161
206	0xbf653da0	-0.8954716
207	0x3d91cdd2	0.07119335
208	0x3f0262ba	0.50931895
209	0x3dbc29b1	0.091876395
210	0xc00d6ffe	-2.2099605
211	0x3e095030	0.13409495
212	0xbec151b7	-0.37757656
213	0x3ea3ed80	0.32017136
214	0xbc956795	-0.018237868
215	0xbd91a746	-0.07111983
216	0x3d13d0c7	0.036087777
217	0x3e1034aa	0.1408259
218	0xbd6b8f04	-0.057509437
219	0xbd8abf2c	-0.067747444
220	0x3dc5b04d	0.09652767
221	0xbd8e20a4	-0.069398195
222	0xbdc51bc2	-0.09624435
223	0xbde77e43	-0.113033794
224	0x3ebf689a	0.37384492
225	0x3d3fffe1	0.046874885
226	0xbee03d51	-0.4379678
227	0x3ee7246e	0.4514498
228	0xc02a0dd2	-2.6570935
229	0x3e3ce50f	0.18446754
230	0xbd2f2f3a	-0.042769648
231	0x3e4a734c	0.19770545
232	0xbe95a818	-0.29229808
233	0x3d556a05	0.05210306
234	0x3d8ee3ad	0.069770195
235	0x3db0a49b	0.08625146
236	0x3c45d743	0.012075248
237	0x3e0c342b	0.13691776
238	0x3e1a482e	0.15066597
239	0xbe83d5e5	-0.25749126
240	0x3ec8cd54	0.39219153
241	0x3f66f065	0.9021056
242	0x3d40b67f	0.04704904
243	0xbf187cd5	-0.5956548
244	0xbe1924ee	-0.14955494
245	0x3d041046	0.032242082
246	0x3f5f4071	0.87207705
247	0xbe866317	-0.26247475
248	0x3eec015c	0.46094787
249	0xbeab0c59	-0.33407858
250	0xbb062583	-0.0020469136
251	0x3dac78c6	0.08421473
252	0xbcb9f505	-0.022699842
253	0xbe38eb39	-0.1805848
254	0xbef7eb75	-0.48421827
255	0xbf3831c6	-0.7195095

stage2.0.branch1.3.weight f4 [16]
0	0x3fd1b1ed	1.6382424
1	0x3fb6a02a	1.4267628
2	0x4000ac05	2.0104992
3	0x4006325c	2.0968237
4	0x3fd03335	1.6265627
5	0x3ff78c90	1.9339771
6	0x3ff7fda4	1.937428
7	0x3fdb4f2a	1.7133534
8	0x3f86e9ca	1.0540097
9	0x3fa4e8d5	1.2883555
10	0x3f6f0950	0.93373585
11	0x3f8aaa36	1.0833194
12	0x3f6cd079	0.92505604
13	0x3fcb7667	1.5895509
14	0x3fab3013	1.3374046
15	0x3f8e51d5	1.1118723

stage2.0.branch1.3.bias f4 [16]
0	0xbd3ccb7b	-0.04609249
1	0x3f6e9c4c	0.9320724
2	0x3d615ecd	0.05502205
3	0x3f140a44	0.57828164
4	0x3e6c718f	0.23090194
5	0xbed430dc	-0.41443527
6	0xbe164ff4	-0.14678937
7	0x3d923586	0.07139115
8	0x3eff4f50	0.49865198
9	0x3e99db8d	0.30050316
10	0x3f1432ae	0.5788983
11	0x3e926bc5	0.28597847
12	0x3ea3e2b5	0.320089
13	0xbcc211fd	-0.023690218
14	0x3de17517	0.11008661
15	0x3ef68462	0.48147875

stage2.0.branch2.0.weight f4 [16, 16, 1, 1]
0	0x3d5eca75	0.054392297
1	0xbe92fd17	-0.28708717
2	0x3e0368c3	0.12832932
3	0x3e781fad	0.24230833
4	0xbcae26bc	-0.021258704
5	0x3fc1f012	1.5151389
6	0x3efe7e83	0.49705896
7	0xbeed0276	-0.4629094
8	0xbed1f622	-0.41008097
9	0x3d2b542a	0.041828312
10	0xbcec907e	-0.028877493
11	0xbd4c8802	-0.049934395
12	0x3f6ca5bb	0.92440385
13	0x3f0f58d4	0.55994916
14	0x3f2e8013	0.68164176
15	0xbe96a305	-0.2942125
16	0x3ef23745	0.47307792
17	0x3de6035e	0.11231111
18	0xbf858c2d	-1.0433403
19	0xbdde8d8d	-0.108668424
20	0xbf45c22f	-0.77249426
21	0x3cb01ba0	0.021497548
22	0x3edb551f	0.4283838
23	0x3f5d277b	0.8638837
24	0x3ebc3b5d	0.3676404
25	0x3ed24981	0.41071704
26	0x3ec853e0	0.39126492
27	0xbebe2617	-0.37138435
28	0x3efbfcb6	0.4921624
29	0x3efa9ec8	0.48949265
30	0x3eb63c57	0.3559291
31	0xbdc4baac	-0.09605917
32	0x3fad86a5	1.3556715
33	0xbe50dd36	-0.20396885
34	0x3e557fbc	0.20849508
35	0x3dd97c56	0.10619418
36	0x3d8e4cb1	0.069482215
37	0xbd9154bc	-0.0709624
38	0xbf3e8ebd	-0.7443655
39	0x3ef5b54c	0.4798988
40	0x3db55cad	0.08855567
41	0x3f23a7f7	0.6392817
42	0xbe700b3d	-0.23441787
43	0x3c41fe75	0.011840452
44	0x3d71ed4c	0.059064195
45	0xbe11d4fc	-0.14241403
46	0xbd9ab720	-0.075544596
47	0x3ea3f852	0.3202539
48	0x3f8a07d6	1.0783641
49	0x3dc5b11b	0.09652921
50	0xbbc3769e	-0.005965068
51	0x3eb66575	0.3562428
52	0x3e6cf90d	0.2314188
53	0xbcf424ec	-0.029802762
54	0xbf384ff5	-0.71997005
55	0xbf0e224a	-0.5552107
56	0xbee278be	-0.44232744
57	0xbec1ff17	-0.3788993
58	0x3e2cdd83	0.16881375
59	0x3f1a9b44	0.60393167
60	0xbe454405	-0.19264229
61	0xbc84c26a	-0.016205985
62	0x3f21c16c	0.63185763
63	0xbe60ffd9	-0.21972598
64	0x3fb2b1b0	1.3960476
65	0xbed8daa4	-0.4235431
66	0xbf3a9c43	-0.72894686
67	0xbd800b7f	-0.06252193
68	0x3f76f2e7	0.9646439
69	0x3dc8a840	0.09797716
70	0x3f20b1d6	0.62771356
71	0x3d8f4379	0.06995291
72	0x3e907321	0.28212836
73	0x3e3e305b	0.18573134
74	0xbd9f2d59	-0.07772321
75	0x3f765066	0.9621643
76	0x3d919913	0.07109275
77	0xbeacc739	-0.33745745
78	0xbdfcff37	-0.12353366
79	0x3ecfbcda	0.4057377
80	0x3d244c56	0.040111862
81	0x3eaeb4e0	0.34122372
82	0x3f02d02a	0.51098883
83	0xbdd06bef	-0.10176837
84	0x3f7126be	0.9419974
85	0x3f1c088b	0.60950536
86	0x3e43dd96	0.19127497
87	0x3db17c1b	0.08666249
88	0x3f2bfd9e	0.67183864
89	0x3bd9472e	0.0066307997
90	0xbe5ffa46	-0.21872815
91	0x3f53a0b0	0.82667065
92	0x3f3aae47	0.72922176
93	0x3e8b4eb3	0.2720848
94	0xbe5f8d8c	-0.2183134
95	0x3e6dd6b3	0.23226433
96	0x3e54eb70	0.20792937
97	0x3ea793dc	0.32729995
98	0x3e69a5b7	0.22817121
99	0xbef3bb66	-0.4760391
100	0x3e616a2c	0.22013158
101	0x3f88c6ef	1.068571
102	0x3f8e2675	1.1105486
103	0x3c0db793	0.008649725
104	0x3ef3ccf1	0.47617295
105	0x3e3f9306	0.18708429
106	0x3e5e0336	0.21680912
107	0x3da5fe38	0.08105129
108	0x3f7a4e67	0.9777588
109	0xbcca47d2	-0.02469245
110	0xbf05e357	-0.5230002
111	0x3f58b8bf	0.846569
112	0x3f5210a1	0.82056624
113	0xbf3378a3	-0.7010595
114	0x3e6c1112	0.23053387
115	0xbd1e1892	-0.03859765
116	0x3ebf7572	0.3739429
117	0xbf8f2939	-1.1184455
118	0x3f1053d3	0.56377906
119	0x3f39f904	0.7264559
120	0xbddfabc0	-0.109214306
121	0x3cdeeff5	0.02721403
122	0x3e41a822	0.18911794
123	0xbd4cb610	-0.049978316
124	0xbf4201d7	-0.7578406
125	0xbf513e69	-0.81735855
126	0x3e442022	0.19152883
127	0xbf6029d9	-0.87563854
128	0xbe286919	-0.16446342
129	0xbe2e70ab	-0.17035167
130	0xbf35d92e	-0.71034515
131	0xbea5e9a3	-0.32404813
132	0xbff674e3	-1.9254421
133	0xbe779084	-0.24176222
134	0x3ee6d0b1	0.45081094
135	0x3fae3024	1.3608441
136	0xbe10a6d8	-0.14126146
137	0xbe27e2a8	-0.16395056
138	0xbebd2cf3	-0.36948356
139	0xbfb6ea43	-1.4290241
140	0x3ed1e6b0	0.40996313
141	0xbecc1ceb	-0.39865813
142	0xbdda56c8	-0.106610835
143	0x3ea53529	0.3226712
144	0x3f6e7f23	0.93162745
145	0x3dd76e3f	0.10519075
146	0x3df3c134	0.11902085
147	0xbec8ce1c	-0.3921975
148	0xbeac5387	-0.33657476
149	0xbf12ca8f	-0.5734033
150	0x3dd7a486	0.10529427
151	0xbd1cbeb9	-0.038267825
152	0xbf42f4c9	-0.7615476
153	0x3f14a948	0.580708
154	0x3e756b1b	0.23966639
155	0xbee0bfee	-0.4389643
156	0xbdb402e5	-0.087896146
157	0x3cbbec4f	0.02293983
158	0x3e7349a1	0.23758556
159	0x3f789102	0.97096264
160	0x3ed41e56	0.41429394
161	0xbbc6ae04	-0.0060632247
162	0xbb862353	-0.0040935664
163	0x3e392b49	0.18082918
164	0xbdf0a66e	-0.11750494
165	0x3f000bfb	0.5001828
166	0x3dd13e78	0.10216993
167	0xbe8878ab	-0.26654562
168	0x3dc38b2a	0.09548028
169	0xbe1b9e30	-0.15197062
170	0x3ef24d22	0.47324473
171	0xbd8af150	-0.06784308
172	0x3e886a2a	0.26643497
173	0xbd0b0e4d	-0.033949185
174	0xbef3fc74	-0.47653544
175	0xbe58e32e	-0.21180412
176	0x3dc49a74	0.09599772
177	0xbe08307a	-0.13299742
178	0xbe0d2692	-0.13784245
179	0xbfbc202a	-1.4697316
180	0x3d88b655	0.06675402
181	0x3e814f45	0.2525579
182	0x3f644b75	0.8917764
183	0xbd3f3f5e	-0.04669129
184	0xbf578130	-0.841815
185	0x3e93b45a	0.28848535
186	0xbe0b7f83	-0.1362286
187	0xbdb66a6e	-0.089070186
188	0x3ebe53fd	0.37173453
189	0x3dfa8c3d	0.122337796
190	0xbf928ec6	-1.1449821
191	0x3f97fb41	1.1873552
192	0xbe37021e	-0.17871901
193	0x3fb511a5	1.414601
194	0xbd86f541	-0.06589747
195	0x3e686aff	0.22697066
196	0xbe51e550	-0.20497632
197	0x3ce6cd70	0.028174132
198	0xbe0e2566	-0.13881454
199	0xbe6acfe1	-0.22930862
200	0xbf64e586	-0.89412725
201	0xbe1b0b46	-0.15141019
202	0x3db6aa18	0.089191616
203	0xbcf9ac78	-0.030477747
204	0xbe942726	-0.28936118
205	0xbe648528	-0.2231642
206	0x3f8fd8b4	1.1238008
207	0x3eb01599	0.34391478
208	0x3ebda83c	0.37042415
209	0x3ee4e766	0.44707793
210	0x3f37d628	0.7181115
211	0x3adb72ac	0.0016742549
212	0xbd34fbfc	-0.044185624
213	0x3b10aa14	0.002207403
214	0x3f032fdb	0.51244897
215	0x3d5cff3d	0.05395435
216	0x3ec0fe54	0.37694037
217	0x3ef18e8b	0.47179064
218	0x3e0efdda	0.13964024
219	0xbec49901	-0.38397983
220	0x3eb3e320	0.3513422
221	0xbfdf8581	-1.7462617
222	0xbdbd2c33	-0.09236946
223	0x3e8a47ef	0.27008006
224	0x3e1cf359	0.15327205
225	0xbee7b1d1	-0.4525285
226	0xbbbf8890	-0.005845137
227	0x3fe958f2	1.8230269
228	0x3ddadc5a	0.1068656
229	0xbe6a9f87	-0.22912417
230	0x3f81c78d	1.0139023
231	0xbd1e5ca1	-0.038662557
232	0x3fa205b5	1.2657992
233	0x3dd73ea4	0.105099946
234	0xbd91a5aa	-0.07111676
235	0xbe72c223	-0.2370687
236	0xbf2c4389	-0.6729055
237	0x3d8a9dbf	0.06768369
238	0x3eee12f1	0.46498826
239	0xbf314560	-0.6924648
240	0xbd7e43af	-0.062076267
241	0x3e8ee996	0.27912587
242	0xbcb655e5	-0.022257755
243	0xbf351aa7	-0.70743793
244	0x3f1c7459	0.6111503
245	0xbedf02c5	-0.435568
246	0x3f343c35	0.7040437
247	0xbedacaff	-0.42733
248	0xbf867e24	-1.0507245
249	0xbeee3998	-0.46528316
250	0xbef3db06	-0.4762804
251	0x3f1eac28	0.6198144
252	0xbe43ce89	-0.19121756
253	0xbdc99a48	-0.0984388
254	0xbe6c1d7d	-0.23058124
255	0xbeb09de5	-0.34495464

stage2.0.branch2.1.weight f4 [16]
0	0x3f887e23	1.0663494
1	0x3f827db4	1.0194612
2	0x3f8a618f	1.0811023
3	0x3f7ddd5d	0.991659
4	0x3fe3611f	1.7764014
5	0x3f926b8d	1.1439072
6	0x3f5a2ff6	0.8522943
7	0x3f937180	1.1519012
8	0x3fd6df7d	1.6786953
9	0x3f8fadf3	1.122496
10	0x3eb6e9af	0.3572516
11	0x3fa67f28	1.3007555
12	0x3fb14ec3	1.3852161
13	0x3f83ad29	1.0287219
14	0x3fb45aa8	1.4090166
15	0x3f927c92	1.1444266

stage2.0.branch2.1.bias f4 [16]
0	0xbf936f01	-1.1518251
1	0x3f0dc9ab	0.55385846
2	0x3ede6e69	0.4344361
3	0x3e9b1a4f	0.3029351
4	0x3e444070	0.19165206
5	0xbe673a98	-0.22580945
6	0xbd923db3	-0.071406744
7	0x3f96d64b	1.1784147
8	0x3e9193b3	0.28432998
9	0x3ea70eee	0.32628578
10	0x3f82a8e3	1.020779
11	0x3f7368f7	0.9508204
12	0xbf21ba0c	-0.6317451
13	0x3e0bf031	0.13665845
14	0xbf94d100	-1.1626282
15	0x3f9c7064	1.2221799

stage2.0.branch2.3.weight f4 [16, 1, 3, 3]
0	0xbd928e4f	-0.071560495
1	0x3eb7b560	0.35880566
2	0x3ecce68f	0.40019652
3	0x3e1e9c75	0.15489371
4	0xbebf490e	-0.37360424
5	0xbf122187	-0.5708241
6	0x3df3915d	0.1189296
7	0xbf72d955	-0.9486287
8	0xbf56e0c0	-0.8393669
9	0x3ed8d83f	0.42352483
10	0x3f1de501	0.6167756
11	0x3e9b4a94	0.30330336
12	0xbee4afa0	-0.4466524
13	0xbe3c8f2a	-0.18413988
14	0x3e2a15c1	0.16609861
15	0xbf24144f	-0.6409349
16	0xbf67caf6	-0.9054407
17	0xbeee08a1	-0.46490958
18	0x3d269f63	0.040679347
19	0xbe873dd5	-0.26414362
20	0xbef22b43	-0.4729863
21	0xbe2c2ff7	-0.16815172
22	0x3ec92ad2	0.39290482
23	0x3ee961f6	0.4558255
24	0xbec49432	-0.38394314
25	0x3f5eae6e	0.8698491
26	0x3f66f19e	0.9021243
27	0xbe0ae658	-0.13564432
28	0xbe0178ef	-0.12643789
29	0xbe37876f	-0.17922758
30	0x3c6eb02f	0.014568373
31	0x3eb6b8f3	0.3568798
32	0x3f1b9e25	0.60788184
33	0xbd1c79df	-0.038202163
34	0x3ef82ebb	0.48473153
35	0x3f558b5c	0.8341577
36	0xbd05a2a0	-0.032625794
37	0x3ea677fe	0.32513422
38	0x3eb63fcc	0.35595548
39	0x3dab6da9	0.083705254
40	0xbed3a57b	-0.4133719
41	0xbf5266fe	-0.82188404
42	0xbe7e2bfc	-0.24821466
43	0xbf30853c	-0.689533
44	0xbfbad01b	-1.4594759
45	0xbe04c0fc	-0.12964243
46	0x3d855468	0.0651024
47	0xbf0ff74c	-0.5623672
48	0xbe06de16	-0.13170657
49	0xbf2d2b06	-0.67643774
50	0xbf78b81f	-0.97155946
51	0x3e3a2c2d	0.18180914
52	0x3d749db6	0.059720717
53	0xbe02d903	-0.12778096
54	0xbea5c1e3	-0.32374486
55	0x3de294ba	0.110635236
56	0x3f29b6c8	0.6629453
57	0x3eb76bc2	0.358244
58	0xbd955ca2	-0.07293059
59	0xbf000ef2	-0.50022805
60	0x3f428ec6	0.75999105
61	0xbea89ef9	-0.32933787
62	0xbfce5dc0	-1.612236
63	0xbd43a1da	-0.047761776
64	0x3e4d3bbc	0.20042318
65	0xbeb41e71	-0.35179475
66	0xbe5d37a7	-0.21603261
67	0xbefec8c4	-0.49762547
68	0xbee52d94	-0.44761336
69	0xbf07e7bd	-0.5308798
70	0xbf4fd216	-0.8117994
71	0xbf0f105f	-0.55884355
72	0xbe5b465b	-0.21413557
73	0x3e5496b5	0.20760615
74	0x3ed59714	0.41716826
75	0xbe29993a	-0.16562358
76	0x3f199897	0.5999846
77	0x3f7c2a07	0.9850163
78	0x3e28ca5c	0.16483444
79	0x3f191555	0.59798175
80	0x3f65d4dd	0.8977793
81	0xbe390c71	-0.18071152
82	0x3da86980	0.082232475
83	0xbe0ad7d9	-0.13558902
84	0xbe69f2d3	-0.22846536
85	0x3f0655b8	0.52474546
86	0x3f125c27	0.57171863
87	0xbd33c6c5	-0.043890733
88	0x3f22322f	0.63357824
89	0x3f836fea	1.0268528
90	0x3f4513cf	0.7698335
91	0x3e1cc34e	0.15308878
92	0x3e6b98ac	0.23007458
93	0x3f3185be	0.693447
94	0xbea93178	-0.33045554
95	0xbe608b0b	-0.2192804
96	0x3f35b46f	0.70978445
97	0xbed4848a	-0.4150737
98	0xbe49495f	-0.19656895
99	0xbdc21836	-0.09477274
100	0xbe672ee5	-0.22576483
101	0xbf345a58	-0.70450354
102	0xbed35064	-0.4127227
103	0x3e709f88	0.23498356
104	0x3ea0bfcd	0.31396332
105	0xbeb29cb3	-0.34885177
106	0x3f94efbc	1.1635661
107	0x3fe3e1e1	1.7803308
108	0x3d2a16f9	0.041525815
109	0xbe3c8d83	-0.18413357
110	0xbf7b0e6c	-0.9806888
111	0xbe9527fe	-0.29132074
112	0x3e859a2c	0.26094186
113	0x3edd190e	0.43183178
114	0xbee3baf4	-0.4447857
115	0x3f11e804	0.5699465
116	0x3fcb6754	1.5890908
117	0x3e8bb65c	0.27287567
118	0x3f10cc41	0.56561667
119	0x3ecfe26a	0.40602428
120	0xbec3e105	-0.38257614
121	0xbe78302f	-0.2423713
122	0xbb39b340	-0.00283356
123	0xbeb4ec4d	-0.35336533
124	0xbf7fa94d	-0.9986771
125	0xbf7ac1bf	-0.97951883
126	0xbe337452	-0.17524841
127	0x3e5adb3e	0.21372697
128	0x3f5591da	0.83425677
129	0x3e93397e	0.287548
130	0xbecd392b	-0.40082678
131	0xbf14901f	-0.5803241
132	0x3f47df28	0.78074884
133	0xbf1bc0a9	-0.6084085
134	0xbfbabf26	-1.4589584
135	0xbdf81861	-0.12114025
136	0xbe3e293a	-0.18570414
137	0xbf0d1b30	-0.5511961
138	0xbe37ebd0	-0.17961049
139	0x3e7926b2	0.24331167
140	0x3f2556cc	0.64585567
141	0xbcb5afb6	-0.022178512
142	0x3f1f450d	0.6221474
143	0x3fb5b3a8	1.4195452

stage2.0.branch2.4.weight f4 [16]
0	0x3facea2e	1.3508966
1	0x3f9e0ec7	1.234826
2	0x3fa4d73d	1.2878186
3	0x3fbd8b63	1.4808162
4	0x3f494e8f	0.78635496
5	0x3f8eada6	1.1146743
6	0x3fbc24c5	1.4698721
7	0x3f8eb00f	1.1147479
8	0x3fb71c83	1.4305576
9	0x3f94726a	1.1597416
10	0x3f881ded	1.0634133
11	0x3fb0246e	1.3761117
12	0x3fba6361	1.4561578
13	0x3fa0ff5e	1.2577932
14	0x3fab8e49	1.3402797
15	0x3f972433	1.1807922

stage2.0.branch2.4.bias f4 [16]
0	0xbdbb39bf	-0.091418736
1	0x3d5a2adc	0.05326353
2	0xbf89f933	-1.0779175
3	0xbfbad7b2	-1.4597075
4	0x3f430b1f	0.76188844
5	0x3edb7396	0.42861623
6	0xbdc300fa	-0.09521671
7	0x3f48d1c2	0.78445065
8	0xbe8f98eb	-0.28046355
9	0xbf48b91a	-0.7840744
10	0xbf0d9473	-0.5530464
11	0xbed1c048	-0.4096701
12	0xbcda0605	-0.026614198
13	0x3f84d1a5	1.0376478
14	0x3f664a27	0.899569
15	0xbe82e00f	-0.25561568

stage2.0.branch2.5.weight f4 [16, 16, 1, 1]
0	0x3ea24592	0.31693703
1	0x3ef954da	0.4869755
2	0x3f4a8202	0.79104626
3	0x3f503dba	0.8134419
4	0xbeb7cde9	-0.35899284
5	0xbd2d9f40	-0.0423882
6	0x3fa0fdc3	1.2577442
7	0xbf57505a	-0.8410698
8	0x3d98a059	0.07452459
9	0xbd59b69c	-0.053152665
10	0xbef43304	-0.47695172
11	0xbf428e29	-0.7599817
12	0xbf470276	-0.7773813
13	0x3e5fcc27	0.21855222
14	0x3f061e25	0.52389747
15	0xbe47e6ea	-0.1952168
16	0x3f38a7d6	0.721311
17	0xbd32e81c	-0.043678388
18	0xbe95cf03	-0.292595
19	0xbedf12bc	-0.4356898
20	0x3e9fa969	0.31183937
21	0x3e880f24	0.2657405
22	0x3f186d8d	0.5954216
23	0xbe435fab	-0.19079463
24	0xbedac4ec	-0.42728364
25	0xbf4fc51f	-0.8116016
26	0xbf50ee0d	-0.81613237
27	0xbf1b025d	-0.6055048
28	0xbe2dec89	-0.16984762
29	0x3eb7ad61	0.35874465
30	0x3e6748c4	0.22586352
31	0x3e9fe1cd	0.3122696
32	0x3d93a191	0.07208551
33	0x3e82c335	0.25539556
34	0x3f3dc990	0.74135685
35	0xbe0e0aea	-0.13871351
36	0xbf273852	-0.6532031
37	0x3f385d68	0.72017527
38	0x3e624419	0.2209629
39	0xbf66fba7	-0.9022774
40	0xbe54cb89	-0.20780768
41	0x3e5158b5	0.20443995
42	0xbe9105b0	-0.28324652
43	0x3efa12af	0.4884238
44	0x3e195c98	0.14976728
45	0xbeee9b70	-0.46602964
46	0x3e19e2be	0.15027902
47	0x3ddc9bc1	0.10771895
48	0xbf8f4cf0	-1.1195354
49	0x3e00a687	0.12563525
50	0x3cada2d4	0.021195807
51	0xbf1c3572	-0.6101905
52	0x3e95cee3	0.29259405
53	0xbe9be81a	-0.30450517
54	0xbe3d000b	-0.18457048
55	0x3f2f52fd	0.68486005
56	0xbe965eeb	-0.29369292
57	0xbf7dfa3b	-0.99209946
58	0xbec24037	-0.37939617
59	0xbdca7cbc	-0.098870724
60	0x3db614de	0.08890699
61	0x3dd35c9f	0.103204004
62	0x3e56fb79	0.20994367
63	0xbf09d8eb	-0.53846616
64	0x3f031852	0.51208985
65	0x3e7b60ab	0.24548595
66	0xbf528bdf	-0.82244676
67	0xbf7eb3d7	-0.99493164
68	0x3dc80bd4	0.09767881
69	0x3e381276	0.17975792
70	0x3c95b417	0.01827435
71	0xbe96078e	-0.2930264
72	0x3d994b10	0.0748502
73	0x3eeeed07	0.46665213
74	0xbebf475e	-0.37359136
75	0x3f792b84	0.97332025
76	0xbf35cc72	-0.71015084
77	0xbd9bc344	-0.07605603
78	0x3f07e1e3	0.5307905
79	0x3f0d4b01	0.5519257
80	0x3d2b2dbf	0.041791674
81	0x3e005bb3	0.1253498
82	0x3ecd68ca	0.4011901
83	0xbf08e390	-0.5347223
84	0x3f8afd49	1.0858546
85	0x3fa48402	1.2852786
86	0x3ef1dfbb	0.47241005
87	0x3f12b6db	0.57310265
88	0x3e8cb639	0.27482775
89	0x3f6eb5d6	0.9324621
90	0xbea4ff2a	-0.32225925
91	0x3e5824cd	0.21107788
92	0xbe35ee1d	-0.17766614
93	0xbd2d09a7	-0.042245533
94	0x3eb6fb13	0.3573843
95	0xbeda7044	-0.42663777
96	0x3f0dcb7a	0.55388606
97	0x3d3b53cc	0.04573421
98	0xbc21da7f	-0.009878754
99	0x3eaebde7	0.3412926
100	0x3f0123b3	0.504451
101	0x3e7e6830	0.24844432
102	0x3f2aa8b6	0.6666368
103	0xbeb512a9	-0.353658
104	0xbf10536f	-0.5637731
105	0xbe8d6ac3	-0.27620515
106	0xbe9950d4	-0.2994448
107	0xbf3a0864	-0.72669053
108	0x3f5287c8	0.82238436
109	0xbed1389f	-0.4086351
110	0xbfa940c5	-1.3222891
111	0xbef05579	-0.4694021
112	0x3e9a1027	0.30090448
113	0xbf8ac19c	-1.0840335
114	0xbde058d6	-0.10954444
115	0xbee438dd	-0.44574633
116	0x3e4c05bd	0.19924064
117	0x3e4f38ef	0.20236562
118	0xbc3afc32	-0.011412667
119	0xbf06eb66	-0.5270294
120	0x3fb47a28	1.4099779
121	0xbe505a44	-0.20346934
122	0xbef79de8	-0.4836266
123	0xbf51c7d6	-0.8194555
124	0xbce0f3c4	-0.027459987
125	0xbe78b96d	-0.24289484
126	0x3eb6a818	0.3567512
127	0xbecba781	-0.39776233
128	0xbe624317	-0.22095905
129	0x3df9bfc7	0.12194782
130	0x3bcfbeaa	0.0063398676
131	0xbf478d22	-0.77949727
132	0xba9dc965	-0.001203817
133	0xbf01f74c	-0.5076797
134	0xbf13f48e	-0.57795036
135	0xbefff455	-0.49991098
136	0xbf08d7d1	-0.5345431
137	0xbe5c9810	-0.21542382
138	0x3d8dba71	0.069203265
139	0xbe9c225a	-0.30494958
140	0xbf6f9a75	-0.9359506
141	0xbf85e418	-1.0460234
142	0xbed6122b	-0.41810736
143	0x3ef77057	0.48327896
144	0x3ed2586f	0.41083094
145	0xbe084233	-0.13306503
146	0x3f69a69a	0.9126984
147	0x3f14df4c	0.58153224
148	0xbe9b8d4c	-0.30381238
149	0xbec20581	-0.37894824
150	0x3e076c68	0.13224947
151	0xbee479f4	-0.44624293
152	0xbec14b89	-0.3775294
153	0x3f01d5b5	0.50716716
154	0x3e65cb61	0.22440864
155	0xbd041020	-0.03224194
156	0xbd730d13	-0.05933864
157	0xbe9bebc5	-0.30453315
158	0xbecbb6a0	-0.3978777
159	0xbf117540	-0.56819534
160	0xbf1711f4	-0.5901177
161	0xbe1abef7	-0.1511191
162	0xbebb1420	-0.36538792
163	0x3d93fa83	0.07225516
164	0xbe2aee5d	-0.16692491
165	0xbe1c63be	-0.15272424
166	0xbe42dc67	-0.1902939
167	0x3e89fcfa	0.26950818
168	0x3e59dddd	0.2127604
169	0x3eb46867	0.35235903
170	0x3eb1c61a	0.34721452
171	0x3f2bdec0	0.67136765
172	0x3f26e4eb	0.6519305
173	0x3ea95797	0.33074638
174	0x3e7b9924	0.24570137
175	0x3d179d81	0.03701544
176	0xbf256c5b	-0.6461846
177	0xbdeea574	-0.116526514
178	0x3e0a0355	0.13477834
179	0x3c9c06c9	0.019046204
180	0xbe0dfb39	-0.13865365
181	0x3d2d3d15	0.04229458
182	0xbf40cd94	-0.7531369
183	0xbe832d1e	-0.2562036
184	0x3e97f61c	0.29679954
185	0xbe5d1246	-0.21589002
186	0xbde49f1d	-0.11163161
187	0xbf3a9ab2	-0.72892296
188	0x3cf570df	0.029961048
189	0xbdeaae2a	-0.114590004
190	0xbf5b174d	-0.8558243
191	0xbf16d327	-0.5891594
192	0x3ccd26b7	0.025042875
193	0xbf67075b	-0.902456
194	0x3eb61607	0.3556368
195	0xbef4b6c2	-0.47795683
196	0x3ebe5a0d	0.37178078
197	0xbec2ad12	-0.38022667
198	0xbe2f9cf2	-0.17149714
199	0xbdf43d18	-0.11925715
200	0xbecb9e91	-0.39769414
201	0x3e3f2f78	0.18670452
202	0x3ed9f838	0.42572188
203	0x3e56cbb0	0.20976138
204	0x3f02beaf	0.5107221
205	0x3f717b7e	0.9432906
206	0xbdfd58d8	-0.12370461
207	0xbedf3b48	-0.43599916
208	0x3eebfae3	0.4608985
209	0x3ed32674	0.41240275
210	0x3d951d0f	0.07280933
211	0xbdbe6f93	-0.09298625
212	0x3e64c5b5	0.22341044
213	0xbec72ab7	-0.38899776
214	0x3e916558	0.28397632
215	0xbe801e70	-0.25023222
216	0xbf3e31e7	-0.74294895
217	0x3f01b2cb	0.5066344
218	0xbd0f662c	-0.035009548
219	0xbd8e1f5d	-0.06939576
220	0x3f353081	0.70777136
221	0xbebc8d44	-0.36826527
222	0x3f0e4d0b	0.5558631
223	0x3f27f4ef	0.65608114
224	0x3e759a2c	0.23984593
225	0xbd44e2d2	-0.048067875
226	0xbd678785	-0.056525726
227	0xbb5d9d4d	-0.0033815682
228	0x3e6a8e45	0.22905834
229	0x3c4abafc	0.012373682
230	0x3f383b26	0.71965253
231	0x3e5feb11	0.21867014
232	0x3e403217	0.18769108
233	0x3e87ab2c	0.2649778
234	0x3d7077dd	0.05870806
235	0xbf0ab9f1	-0.54189974
236	0x3e22e48e	0.15907499
237	0xbf44e6f6	-0.7691492
238	0x3e97e872	0.2966953
239	0xbd757024	-0.0599214
240	0x3e35b552	0.1774495
241	0x3edd2b93	0.43197307
242	0x3e0ebbfc	0.13938898
243	0xbede05c2	-0.43363768
244	0x3ee9f812	0.45697075
245	0x3c738f1a	0.014865661
246	0xbe833d26	-0.2563259
247	0x3d67dbaa	0.056605972
248	0x3eab12b7	0.33412716
249	0x3ecdfc27	0.4023144
250	0x3f522971	0.82094485
251	0x3f0bbba5	0.545832
252	0x3f040ced	0.51582223
253	0xbf516e62	-0.81809056
254	0xbe7d9972	-0.24765566
255	0xbf0e609d	-0.5561617

stage2.0.branch2.6.weight f4 [16]
0	0x3fd1c88e	1.638933
1	0x3fc54ef8	1.5414724
2	0x3fdc4a14	1.7210107
3	0x3faa4aac	1.3304038
4	0x3fca0453	1.578257
5	0x3f981306	1.1880805
6	0x3fc72f65	1.5561339
7	0x3fab3eac	1.3378501
8	0x3f26f418	0.6521621
9	0x3f7a1a2d	0.9769619
10	0x3f851618	1.0397367
11	0x3f7ad519	0.9798141
12	0x3f515b95	0.8178037
13	0x3f382289	0.71927696
14	0x3f41481a	0.75500643
15	0x3f505978	0.8138652

stage2.0.branch2.6.bias f4 [16]
0	0xbe41cfea	-0.18926969
1	0x3f0da59e	0.55330837
2	0x3d7a7e56	0.06115564
3	0x3ebf71cf	0.37391517
4	0xbcae1840	-0.021251798
5	0x3f927f9f	1.1445197
6	0x3f1fe0c0	0.62452316
7	0x3cf7fa07	0.03027059
8	0x3f2d6415	0.6773084
9	0xbdbf78cd	-0.09349213
10	0xbf2bf32a	-0.67167914
11	0xbddca435	-0.107735075
12	0x3f413baa	0.75481665
13	0x3eec8e7a	0.4620245
14	0x3ef2a1a0	0.47388935
15	0x3f1810b0	0.59400463

stage2.1.branch2.0.weight f4 [16, 16, 1, 1]
0	0xbd496ba6	-0.049174927
1	0xbe879106	-0.26477832
2	0x3fb2f5db	1.3981279
3	0x3ee3d4ca	0.44498283
4	0xbde8d622	-0.113689676
5	0xbca4973a	-0.020091642
6	0xbe6c345a	-0.23066846
7	0x3e2d0e10	0.16899896
8	0xbecfefa9	-0.40612534
9	0x3d5032eb	0.05082981
10	0xbfeba475	-1.8409563
11	0xbe64797d	-0.22311969
12	0x3fafa5ee	1.3722513
13	0x3d3abec2	0.045592077
14	0x3ea7d0af	0.327764
15	0x3d46d48a	0.048542537
16	0xbf720581	-0.9453965
17	0x3f1bd602	0.60873425
18	0xbef2095e	-0.47272772
19	0xbed2a605	-0.41142288
20	0xbe05f611	-0.13082148
21	0x3f2bbee2	0.6708814
22	0x3e2348ab	0.1594569
23	0x3f22bf21	0.6357289
24	0x3ec4952e	0.38395065
25	0x3d19a761	0.03751314
26	0xbb96a6d1	-0.004597523
27	0xbebc1874	-0.36737406
28	0xbe7ea5b0	-0.24867892
29	0xbe565b05	-0.20933159
30	0x3d4ba925	0.049721856
31	0x3dcc88b5	0.09987012
32	0xbe88639a	-0.2663849
33	0x3eecb816	0.46234196
34	0x3cf413b2	0.029794548
35	0x3e9befd7	0.3045642
36	0xbe5a345e	-0.21309039
37	0x3f119c8c	0.56879497
38	0x3f8e7489	1.1129314
39	0x3e3e4aed	0.1858327
40	0xbee8d68e	-0.45476192
41	0xbbefd3df	-0.007318958
42	0x3e4c276d	0.19936915
43	0xbf0210e7	-0.5080704
44	0xbdedb551	-0.11606849
45	0xbdc236c9	-0.09483106
46	0xbefd6fc3	-0.4949933
47	0xbed84ee9	-0.42247704
48	0xbe9f81fd	-0.3115386
49	0xbeb838ba	-0.3598078
50	0xbf23a599	-0.63924557
51	0xbddcb18b	-0.10776051
52	0x3e209b0f	0.1568415
53	0x3e9193c9	0.28433064
54	0x3e994fa6	0.2994358
55	0x3eedb9e5	0.4643089
56	0x3f0b1a9d	0.54337484
57	0x3f8ff7da	1.1247513
58	0xbe9acd4f	-0.30234763
59	0x3db9ef80	0.09078884
60	0x3f02475e	0.5089015
61	0xbef71635	-0.4825913
62	0x3f104acc	0.5636413
63	0x3e770c95	0.24125893
64	0xbe406fed	-0.18792696
65	0xbe5b0a3b	-0.21390621
66	0xbe080b15	-0.13285477
67	0xbd696f2a	-0.05699078
68	0xbd1899e7	-0.037256148
69	0xbd9ca28c	-0.07648191
70	0xbddbd896	-0.1073467
71	0x3d3e2f2b	0.0464317
72	0xbd0078b5	-0.031365115
73	0xbc518692	-0.012788432
74	0x3dfead88	0.12435442
75	0xbd8f8cbe	-0.07009266
76	0xbd96809a	-0.073487476
77	0xbda60ee7	-0.08108311
78	0x3d5c2c19	0.053752992
79	0xbd3f1cb2	-0.046658225
80	0xbe41c5bb	-0.18923084
81	0xbe5b2d68	-0.2140404
82	0xbe08a12d	-0.13342734
83	0xbd6c1402	-0.05763627
84	0xbd19c4fe	-0.037541382
85	0xbd9bf510	-0.07615101
86	0xbddc0330	-0.107427955
87	0x3d3a6cd2	0.045513935
88	0xbd00be8a	-0.031431712
89	0xbc54fdf3	-0.012999999
90	0x3dff9156	0.124788925
91	0xbd904585	-0.0704451
92	0xbd95dba5	-0.073172845
93	0xbda69c22	-0.08135249
94	0x3d5c3f59	0.05377135
95	0xbd3a9ce4	-0.04555978
96	0xbd69096a	-0.056893744
97	0xbd8da459	-0.069161125
98	0xbe21ac4c	-0.15788382
99	0xbea2a89d	-0.31769267
100	0x3d2283ca	0.039676465
101	0x3ed41fb3	0.41430435
102	0x3e7dfa8a	0.24802604
103	0x3ef12ad7	0.47102997
104	0x3f476c65	0.7789977
105	0x3f4918aa	0.7855326
106	0xbf58b63a	-0.84653056
107	0x3e3a1a32	0.18174055
108	0x3f36f22b	0.7146327
109	0xbf18ae33	-0.59640807
110	0x3ed1759a	0.40910035
111	0xbe9df3fe	-0.30850214
112	0xbe42dc9e	-0.19029471
113	0xbe5c942f	-0.21540903
114	0xbe0ab47f	-0.13545416
115	0xbd6ffbea	-0.058589853
116	0xbd1f730c	-0.038928077
117	0xbd9c7ac0	-0.076406
118	0xbddee57c	-0.108836144
119	0x3d3d2f71	0.04618782
120	0xbcf6abbc	-0.030111186
121	0xbc40c83f	-0.011766492
122	0x3e006c61	0.12541343
123	0xbd91e68a	-0.0712405
124	0xbd913c5d	-0.070915915
125	0xbda5530d	-0.08072481
126	0x3d59999e	0.053125016
127	0xbd40517a	-0.046952702
128	0xbd8d7313	-0.06906714
129	0xbebdd59b	-0.3707703
130	0xbde16402	-0.11005403
131	0xbe70e2e8	-0.23524058
132	0xbe4b02f1	-0.19825341
133	0x3e2e2018	0.1700443
134	0xbd932bf9	-0.071861215
135	0xbe422647	-0.18959914
136	0xbe64b5e3	-0.2233501
137	0xbe4ec8a8	-0.20193732
138	0xbf3abc95	-0.72944003
139	0xbdbd9864	-0.09257582
140	0xbc764922	-0.015032085
141	0xbcfdd4f1	-0.030985327
142	0x3d4d1f24	0.050078526
143	0xbe4b42ad	-0.19849654
144	0x3d7ed3ba	0.062213637
145	0x3ed6a5ac	0.41923273
146	0x3f14bdb9	0.58101994
147	0x3ee52664	0.44755852
148	0x3f8d9e70	1.1063976
149	0xbe39f910	-0.18161416
150	0x3e8f1a7a	0.27949888
151	0xbd04bd20	-0.032406926
152	0xbd31a9eb	-0.043374937
153	0xbf367d87	-0.7128529
154	0xbe09aa99	-0.13443984
155	0x3ee9600c	0.4558109
156	0xbe4b7215	-0.19867738
157	0x3ee06800	0.43829346
158	0xbe3efd50	-0.18651319
159	0x3f12a5ba	0.5728413
160	0x3f34877d	0.7051924
161	0x3f6b9648	0.92026186
162	0x3c88da89	0.016705768
163	0x3f23358c	0.6375358
164	0xbf6fa4e2	-0.93610966
165	0xbe98a488	-0.29813027
166	0x3e5d5e93	0.21618108
167	0xbe95f0c7	-0.2928526
168	0xbdc58891	-0.096451886
169	0x3eb08d1f	0.34482667
170	0xbd9f2807	-0.077713065
171	0x3f3f343e	0.7468909
172	0xbe20a8f0	-0.15689445
173	0xbdb1e4f4	-0.086862475
174	0xbf2f620b	-0.68508977
175	0x3e925c51	0.28586057
176	0x3f92867d	1.1447293
177	0xbed1c98f	-0.4097409
178	0xbe4e9f31	-0.20177914
179	0x3f6cda8e	0.9252099
180	0xbe520908	-0.20511258
181	0xbe9ca34e	-0.30593342
182	0x3ea7ed9f	0.32798478
183	0xbe8165ea	-0.25273067
184	0x3d191da8	0.037381798
185	0xbf1d01a6	-0.6133064
186	0x3cc68622	0.024233881
187	0x3e70d81a	0.23519936
188	0xbdab6e00	-0.0837059
189	0xbe144468	-0.1447922
190	0xbe365988	-0.17807591
191	0xbeab1480	-0.33414078
192	0xbe8a264e	-0.2698235
193	0xbe1cf3d7	-0.15327393
194	0xbe3efb56	-0.18650565
195	0xbe850255	-0.25978342
196	0x3df09ec2	0.11749031
197	0xbe1dcfa7	-0.15411244
198	0x3ce9d0d8	0.028541967
199	0x3ca1da16	0.019757312
200	0xbe9910d2	-0.29895645
201	0xbe6dc76a	-0.23220602
202	0x3fc1788a	1.5114911
203	0xbf01eb0d	-0.50749284
204	0xbe53dc0e	-0.20689413
205	0xbdb1f166	-0.08688621
206	0x3e0661e4	0.1312328
207	0xbe8812d3	-0.26576862
208	0x3d937f37	0.07201999
209	0xbf2608b3	-0.64857024
210	0xbe05ba5c	-0.13059372
211	0x3ecd75ea	0.40129024
212	0xbd0e8bf1	-0.034801427
213	0xbe9772af	-0.29579684
214	0xbf3c6180	-0.73586273
215	0x3e904044	0.2817403
216	0x3f1ba9d4	0.6080601
217	0x3cfafdc5	0.030638585
218	0xbd7f8ec0	-0.062391996
219	0x3e9b48bb	0.30328926
220	0x3e008eae	0.12554428
221	0x3f045d31	0.517047
222	0x3f92feb2	1.1483977
223	0x3f2be432	0.67145073
224	0xbc9e51f6	-0.019326191
225	0xbf6be392	-0.9214412
226	0xbe873ea0	-0.26414967
227	0xbf24a331	-0.6431151
228	0xbee02ff9	-0.437866
229	0xbe9526a9	-0.29131058
230	0xbe08aa34	-0.13346177
231	0xbe14f8ba	-0.14548007
232	0x3f482c0d	0.78192216
233	0xbd8ee5bb	-0.06977411
234	0x3ec2fb9f	0.38082597
235	0x3f7605c8	0.9610257
236	0xbe89c79a	-0.26910096
237	0x3e955f2f	0.29174182
238	0x3e697deb	0.2280194
239	0xbee555cc	-0.4479202
240	0x3ecabb4c	0.3959602
241	0x3e0dcbf8	0.13847339
242	0xbe8b93ce	-0.27261204
243	0x3dfc3c5a	0.12316199
244	0xbe411cb2	-0.18858603
245	0x3f351e98	0.7074981
246	0x3f5d8e74	0.8654549
247	0x3f66af8b	0.9011161
248	0x3c6e1641	0.014531673
249	0xbe992d43	-0.29917344
250	0xbd15eb39	-0.03660128
251	0xbe02ab0c	-0.12760562
252	0x3e88bb29	0.26705292
253	0xbf5105b7	-0.81649345
254	0x3ef47d94	0.47752059
255	0x3fa71493	1.3053154

stage2.1.branch2.1.weight f4 [16]
0	0x3f69f20b	0.91384953
1	0x3f8a2ca0	1.0794868
2	0x3f947f1e	1.1601293
3	0x3fb26cbf	1.3939437
4	0x3b60e86f	0.0034318229
5	0x3b5abb1a	0.0033375681
6	0x3fa43688	1.2829142
7	0x3baaec46	0.0052161543
8	0x3c4b4345	0.012406175
9	0x3f934bed	1.1507546
10	0x3fa1a4e1	1.2628442
11	0x3f8c6f4f	1.0971469
12	0x3f5a38fc	0.852432
13	0x3f92e5f1	1.1476423
14	0x3f8b3b82	1.0877535
15	0x3fa2c3ad	1.2715966

stage2.1.branch2.1.bias f4 [16]
0	0x3ea0c801	0.3140259
1	0x3f479b70	0.77971554
2	0x3f3296d9	0.69761425
3	0x3f0bae02	0.5456239
4	0xb9a715b9	-0.00031868907
5	0xb9b337bc	-0.00034183066
6	0x3eba77f5	0.36419645
7	0xba6a5824	-0.00089395256
8	0x3bb77486	0.0055986075
9	0x3ee5a5f1	0.44853166
10	0x3ea463c5	0.32107368
11	0x3f83224b	1.024484
12	0x3ef3d873	0.47626075
13	0x3f2c0f81	0.6721116
14	0x3f923906	1.1423652
15	0x3da9cb73	0.08290758

stage2.1.branch2.3.weight f4 [16, 1, 3, 3]
0	0x3ecc8075	0.39941755
1	0xbec09231	-0.37611535
2	0x3e9abd2f	0.3022246
3	0x3e1b1f2e	0.15148613
4	0xbfc928af	-1.5715541
5	0xbf4bedeb	-0.7965991
6	0x3f15cc58	0.5851493
7	0xbf138ec1	-0.576397
8	0x3d34f756	0.04418119
9	0xbc628a27	-0.013826883
10	0xbd6955f8	-0.05696675
11	0xbea2a3a4	-0.31765473
12	0x3bd8d339	0.0066169766
13	0xbfb13e7f	-1.3847197
14	0x3ec7aa6c	0.3899721
15	0x3e7c3ed3	0.2463334
16	0x3fba5f80	1.4560394
17	0xbe29a569	-0.16567005
18	0xbe5b679c	-0.21426243
19	0xbe65d894	-0.22445899
20	0xbe05970a	-0.13045898
21	0xbe9c656b	-0.30546126
22	0xbfb61666	-1.4225585
23	0xbce8e5ba	-0.028429855
24	0x3f017da0	0.50582314
25	0x3fb7b42d	1.435186
26	0x3c5979b2	0.013273643
27	0x3e0c5b73	0.1370676
28	0xbf09b5b4	-0.5379288
29	0x3e8e6f27	0.27819178
30	0x3f40731b	0.75175637
31	0xbf96b059	-1.1772567
32	0xbe553923	-0.20822577
33	0xbec47abc	-0.3837489
34	0xbf62d20f	-0.88601774
35	0x3fb7dd92	1.4364493
36	0x3a9033c0	0.0011001751
37	0xb96db3c8	-0.00022669055
38	0x39a6ab11	0.00031789442
39	0xba4b0963	-0.0007745234
40	0xba6d0f50	-0.0009043114
41	0x3a84c572	0.0010129644
42	0x39df7877	0.00042623628
43	0x39977379	0.00028886998
44	0x3a87c28c	0.0010357662
45	0xba871c9a	-0.0010308207
46	0x3a093bb1	0.000523503
47	0xba24000b	-0.000625611
48	0x3a547a6c	0.00081054005
49	0x3a8c3169	0.0010695878
50	0x3a9a890e	0.0011790113
51	0x39578bdf	0.00020556104
52	0xb9e7129a	-0.00044073613
53	0xba6699da	-0.00087967294
54	0xbea7bfb7	-0.32763454
55	0x3e18dc1d	0.14927717
56	0x3e64f4a0	0.22358942
57	0x3cda4c67	0.02664776
58	0xbf9b79b0	-1.2146511
59	0x3fcffae9	1.6248447
60	0x3e61ea5e	0.2206206
61	0x3e513de2	0.20433763
62	0xbf714a7c	-0.9425428
63	0x3b1ba0e8	0.002374703
64	0x3a22e37b	0.0006213707
65	0x3aa744a2	0.0012761543
66	0x3b022a54	0.0019861655
67	0xb91423f8	-0.0001412778
68	0x3b0e6072	0.0021724966
69	0xb93f9ac5	-0.00018272836
70	0x3a8d6cab	0.0010789832
71	0x3ab4a538	0.0013782149
72	0x398fd529	0.00027433902
73	0x3b47ef3f	0.0030507592
74	0x3b425530	0.0029652826
75	0x3b4086c6	0.0029377206
76	0x3b9bb8de	0.0047522625
77	0x3b9ab7e6	0.0047216294
78	0x3b28f903	0.0025783188
79	0x3bb57250	0.0055373088
80	0x3b340ecc	0.002747464
81	0x3e708f0f	0.23492073
82	0xbed70ec6	-0.4200346
83	0xbe674134	-0.22583467
84	0x3e8aa81b	0.2708138
85	0x3f9d9f69	1.2314273
86	0xc0011550	-2.0169258
87	0xbec9d777	-0.394222
88	0xbdf3bd78	-0.11901373
89	0x3f8ec60c	1.1154189
90	0xbb84552c	-0.0040384736
91	0x3ee59dee	0.44847053
92	0xbe849171	-0.25892213
93	0x3f0ff89f	0.5623874
94	0xbb1371ed	-0.0022498325
95	0xbf8b0aae	-1.0862634
96	0xbea60145	-0.32422844
97	0xbf9d2339	-1.2276374
98	0x3fcd19ab	1.6023458
99	0x3cf650f5	0.0300679
100	0xbe72430e	-0.23658392
101	0xbe259f56	-0.16174063
102	0x3f46a153	0.7758991
103	0x3f648b97	0.892755
104	0x3f673406	0.90313756
105	0xbf8502c4	-1.0391469
106	0xbf75db6c	-0.96037936
107	0xbf2e3c52	-0.6806079
108	0xbdc0570a	-0.093916014
109	0xbc1c800a	-0.009552011
110	0xbe6fc9b3	-0.23416786
111	0xbe2d4639	-0.16921319
112	0xbf62dc58	-0.8861747
113	0xbf14bbb7	-0.5809893
114	0xbe4fb7db	-0.20284979
115	0xbdb95fc7	-0.09051471
116	0xbe90c0ec	-0.28272188
117	0xbe327caa	-0.17430368
118	0x3ef4e00b	0.4782718
119	0xbe860d6e	-0.2618212
120	0xbf285bd7	-0.65765136
121	0x400cde3c	2.201064
122	0xbfaeb08c	-1.3647628
123	0xbb8e4686	-0.004341903
124	0x3e7f766c	0.24947518
125	0xbd95f5a8	-0.07322246
126	0x3e2514ac	0.16121167
127	0xbde5bbe4	-0.11217478
128	0xbd82402f	-0.06359898
129	0x3e88d61c	0.26725852
130	0x3fcc4816	1.5959499
131	0x3e7bce53	0.24590425
132	0xbf18b48b	-0.59650487
133	0xbfaa3dff	-1.330017
134	0xbeef90ad	-0.46790066
135	0xbcadbc12	-0.021207843
136	0xbea774ce	-0.32706302
137	0x3e932a8b	0.28743395
138	0x3f084ccd	0.5324219
139	0xbfeb6ac8	-1.8391962
140	0x3f9a1ad2	1.2039435
141	0x3e6663ed	0.22499056
142	0xbf158bfc	-0.58416724
143	0x3e36675c	0.17812866

stage2.1.branch2.4.weight f4 [16]
0	0x3fb1eff8	1.3901358
1	0x3fa43fa3	1.283192
2	0x3f9b7ce4	1.2147489
3	0x3f8b2b50	1.0872593
4	0x3c5438e0	0.012953013
5	0x3c897fd4	0.016784586
6	0x3faab560	1.3336601
7	0x3cbac1f2	0.022797558
8	0x3d1e5988	0.038659602
9	0x3fb18249	1.3867885
10	0x3fbf12a7	1.4927567
11	0x3fae87ba	1.363517
12	0x3fa83f98	1.3144407
13	0x3fb76dcd	1.4330384
14	0x3fb39bb8	1.4031897
15	0x3fb405b8	1.4064245
