independent_train_1000.0/client14/checkpoint_1000.0.pth (torch, 930411 bytes, 56 tensors)

conv1.weight f4 [24, 3, 3, 3]
0.25627056 -0.3482401 0.3737056 -1.0375584 -1.6857227 -0.8026723 -0.8036003 -1.4943444
-0.59498864 0.2725555 0.39696187 0.2825397 0.43223464 0.66663224 0.5194851 0.2303502
0.3937514 0.3440566 -0.5844735 -0.11077338 -0.7775106 0.5064552 1.1926602 0.36896053
0.31220272 0.932247 0.20961325 0.07907341 0.39951605 0.16456483 -0.9608195 0.24805827
0.28397253 -0.8961626 -0.036687158 0.2580975 -0.26034582 0.38339296 -0.18378372 -0.8488486
0.751757 0.42796698 -0.85276026 0.4391733 0.4061362 -0.30922022 0.0936074 -0.50005376
-0.5017948 0.7415726 0.21948572 -0.46408662 0.64436674 0.34236225 0.0921991 -0.19563425
0.051881928 -0.39339206 -0.6878948 -0.4081706 -0.22649102 -0.5204687 -0.26740673 0.25573838
0.34166738 0.27378488 0.20839402 0.33683354 0.2666199 0.18207422 0.27747995 0.22442305
-0.021029672 0.24657483 -0.027977925 0.26374987 0.623811 0.27356035 0.11221731 0.42287216
0.09239327 -0.18154418 -1.1218877 -0.52793616 0.11799498 0.031799857 0.29640767 0.029019395
0.65812945 0.5268896 -0.2596036 -1.203607 -0.7938158 0.2783358 0.2006609 0.26405695
0.18578999 0.8608102 0.51252985 -0.24870375 -1.1431409 -0.790513 0.24599771 0.0692636
0.13444138 0.3638536 0.85443544 0.586861 -0.8578409 -0.712753 -0.9773617 0.020606497
0.60514814 -0.16121453 0.58886 1.1099172 0.38015768 0.10203134 0.41379747 0.01488081
0.36317754 1.013396 0.22391029 0.15114422 0.64202046 0.02731924 0.5881845 0.22214967
0.8636019 -0.7454838 -0.9923246 -0.3588301 -0.98931503 -1.4100279 -0.61076283 -0.013304366
-0.4709551 -0.021975154 -0.041359615 0.19215791 0.24261591 -0.23952839 -0.33676624 -0.24586588
-0.19732958 -0.36993963 -0.25254768 0.24969034 0.88716775 0.55838394 -0.07393264 0.24248311
-0.047740337 -0.52693915 -0.6920438 -0.6948389 0.17539208 0.75610125 0.34117436 0.12782347
0.47922233 0.14127724 0.665072 0.11569312 -0.30909923 1.2271104 -0.2200899 -1.5097861
0.15748847 -0.062639385 -0.14774755 1.0475571 0.059565816 -0.8681684 1.8031155 -0.07780467
-1.9374044 0.6456266 0.095997825 -0.4163495 0.4484452 0.015785657 -0.46782327 1.1529676
-0.07419042 -1.4388809 0.30961978 0.10556935 -0.19109625 -0.60270435 -0.095774226 -0.4241033
-0.23466146 0.19452085 0.14306691 -0.19288301 -0.27861342 0.41467264 0.26843324 0.8836251
0.09086944 0.29637465 0.83304244 0.3747329 -0.62140906 -0.6179503 -0.1502293 0.27776042
0.7284404 -0.051985946 0.42512038 0.78113747 0.1685201 -0.71339524 -0.8229072 -0.64047545
0.90174305 1.813475 1.1931779 0.014646139 -0.22409049 -0.052053556 -0.8416646 -1.8945385
-0.928348 0.5865787 1.3696101 0.58184433 0.15048635 -0.13540053 -0.18906716 -0.4807772
-1.5193653 -0.72166926 -0.17953563 0.6605872 -0.00011407496 0.15544508 0.21015197 0.11130104
-0.0010471111 -0.5712414 0.0016696329 -0.38414684 -0.08266685 0.7331957 0.4323538 0.2041261
-1.8826687 -0.17234048 0.7734199 -0.43287256 -0.6144593 0.17427002 0.8013801 0.4853682
00000000: e535 833e 874c b2be 5756 bf3e b7ce 84bf
00000010: c3c5 d7bf ef7b 4dbf c0b8 4dbf ad46 bfbf
00000020: 2d51 18bf 658c 8b3e 963e cb3e 0ba9 903e
00000030: dc4d dd3e 69a8 2a3f fafc 043f ece0 6b3e
00000040: c999 c93e 3028 b03e 0ea0 15bf 27dd e2bd
00000050: ef0a 47bf 0ca7 013f 17a9 983f 65e8 bc3e
00000060: 09d9 9f3e bda7 6e3f dba4 563e 3df1 a13d
00000070: 5e8d cc3e af83 283e 44f8 75bf fd02 7e3e
00000080: d964 913e ea6a 65bf 4645 16bd 5b25 843e
00000090: 0c4c 85be 154c c43e cd31 3cbe 244e 59bf
000000a0: 2673 403f 7d1e db3e 7f4e 5abf 53db e03e
000000b0: 16f1 cf3e 1d52 9ebe 3db5 bf3d 8603 00bf
000000c0: a075 00bf b4d7 3d3f ddc0 603e c39c edbe
000000d0: 38f5 243f 1b4a af3e e2d2 bc3d 5854 48be
000000e0: 2582 543d af6a c9be e019 30bf bdfb d0be
000000f0: 43ed 67be 703d 05bf 89e9 88be 24f0 823e
00000100: 07ef ae3e 882d 8c3e 3e65 553e 7275 ac3e
00000110: 6782 883e aa71 3a3e da11 8e3e 28cf 653e
00000120: 6b46 acbc 1d7e 7c3e f631 e5bc 390a 873e
00000130: 14b2 1f3f 1a10 8c3e 30d2 e53d b382 d83e
00000140: af38 bd3d b8e6 39be 049a 8fbf d326 07bf
00000150: 5aa7 f13d 9140 023d bfc2 973e 15ba ed3c
00000160: 2c7b 283f 3de2 063f c3ea 84be cb0f 9abf
00000170: 8337 4bbf 0882 8e3e 0d7a 4d3e 7932 873e
00000180: bb3f 3e3e 0f5e 5c3f 2835 033f 32ac 7ebe
00000190: 7152 92bf 0f5f 4abf d3e6 7b3e 13da 8d3d
000001a0: 00ab 093e 054b ba3e 48bc 5a3f 863c 163f
000001b0: 769b 5bbf fb76 36bf 6034 7abf f5ce a83c
000001c0: fdea 1a3f 6c15 25be 87bf 163f c411 8e3f
000001d0: 07a4 c23e cff5 d03d 43dd d33e a4ce 733c
000001e0: 68f2 b93e f6b6 813f bd48 653e 8dc5 1a3e
000001f0: 745b 243f 99cc df3c 4293 163f 347b 633e
00000200: 0415 5d3f 07d8 3ebf fc08 7ebf 94b8 b7be
00000210: c043 7dbf cb7b b4bf f45a 1cbf 8efa 59bc
00000220: 0721 f1be 3d05 b4bc b368 29bd 0bc5 443e
00000230: 4e70 783e ee46 75be a06c acbe 44c4 7bbe
00000240: c410 4abe ba68 bdbe ee4d 81be d3ae 7f3e
00000250: 6d1d 633f 40f2 0e3f ff69 97bd 7e4d 783e
00000260: 5f8b 43bd 7ce5 06bf c829 31bf f6e0 31bf
00000270: fb99 333e da8f 413f 68ae ae3e 28e4 023e
00000280: a15c f53e fbaa 103e 2942 2a3f 84f0 ec3d
00000290: 4142 9ebe f411 9d3f 3f5f 61be ac40 c1bf
000002a0: a844 213e 1449 80bd 224b 17be 5a16 863f
000002b0: 49fb 733d 4940 5ebf 7dcc e63f 0e58 9fbd
000002c0: defc f7bf c947 253f 829a c43d c32b d5be
000002d0: 9c9a e53e ec50 813c 8886 efbe 7194 933f
000002e0: 26f1 97bd 402d b8bf 7c86 9e3e be34 d83d
000002f0: bcae 43be d54a 1abf 4725 c4bd 1124 d9be
00000300: 184b 70be 7930 473e 2280 123e 2083 45be
00000310: 6ba6 8ebe f94f d43e 1570 893e 4135 623f
00000320: c219 ba3d 6bbe 973e 4542 553f fedc bf3e
00000330: aa14 1fbf fe31 1ebf b6d5 19be 9d36 8e3e
00000340: 127b 3a3f 37ef 54bd 61a9 d93e a0f8 473f
00000350: 8890 2c3e 12a1 36bf 0caa 52bf 33f6 23bf
00000360: a2d8 663f f31f e83f 0eba 983f 5cf6 6f3c
00000370: fa77 65be 1c36 55bd 5577 57bf 3d80 f2bf
00000380: 37a8 6dbf 062a 163f 624f af3f c0f3 143f
00000390: 1819 1a3e 70a6 0abe d29a 41be 6e28 f6be
000003a0: 907a c2bf 51bf 38bf 30d8 37be 3e1c 293f
000003b0: 873b efb8 ff2c 1f3e 1432 573e cdf1 e33d
000003c0: 383f 89ba e03c 12bf 95d7 da3a e5ae c4be
000003d0: 3d4d a9bd b7b2 3b3f 7a5d dd3e 6f06 513e
000003e0: 4afb f0bf 067a 30be d9fe 453f 79a1 ddbe
000003f0: 344d 1dbf d773 323e 3f27 4d3f 2e82 f83e

dense1.0.bn1.weight f4 [24]
0.48364598 0.98569643 0.6833109 0.81146383 0.6627391 1.0363873 0.7112383 1.0201644
0.81227446 1.6784014 1.9147987 0.6011866 0.9611015 0.5056041 0.65877044 0.55373913
0.43894196 0.38146016 0.6332911 0.44176707 0.7882159 0.7046632 0.3945265 0.46469128
00000000: 72a0 f73e 9a56 7c3f 77ed 2e3f 18bc 4f3f
00000010: 45a9 293f 57a8 843f b713 363f bf94 823f
00000020: 38f1 4f3f dbd5 d63f 2018 f53f 5de7 193f
00000030: bf0a 763f 456f 013f 2ea5 283f d9c1 0d3f
00000040: 00bd e03e bf4e c33e 5e1f 223f 4b2f e23e
00000050: 84c8 493f cf64 343f 61ff c93e 04ec ed3e

dense1.0.bn1.bias f4 [24]
-0.17753248 0.682929 -0.35938916 0.38871202 0.23836595 0.40602154 0.5373068 0.456245
0.6136057 0.9817463 1.0671998 0.18311064 0.2593966 0.17073835 0.20602657 -0.5764069
-0.22719394 -0.19366029 -0.47325286 -0.24964535 -0.6748434 -0.5584051 0.35521516 -0.0415646
00000000: 13cb 35be 6fd4 2e3f db01 b8be 4305 c73e
00000010: 3416 743e 0ee2 cf3e f08c 093f f298 e93e
00000020: 4315 1d3f ba53 7b3f 019a 883f 5b81 3b3e
00000030: a2cf 843e 09d6 2e3e a1f8 523e 678f 13bf
00000040: 87a5 68be e24e 46be 334e f2be 08a3 7fbe
00000050: 89c2 2cbf a3f3 0ebf c3de b53e a43f 2abd

dense1.0.conv1.weight f4 [12, 24, 3, 3]
0.009966953 0.13586009 -0.0076551274 0.032216314 0.16605487 0.034374177 -0.060238946 0.04675675
-0.0678454 0.23068288 0.35659534 0.3281631 0.0877837 0.29036966 0.31680954 -0.29222485
-0.079154365 -0.079233624 0.033381764 0.12538986 0.003229787 0.1225527 0.19111025 0.07055013
0.11831751 0.18547902 0.10271678 0.0023900876 0.110476404 0.15519671 -0.01959319 0.15714113
0.19900587 0.09248311 0.23834573 0.22081536 -0.066350825 -0.2650653 -0.26153663 0.26568797
0.08135434 0.0045766328 0.5828643 0.46799192 0.32773268 0.30323207 0.48446953 0.24601498
0.13854681 0.35871497 0.14018998 -0.22062851 0.016943485 -0.119329646 0.115775526 0.125262
0.23812339 0.2222585 0.21726607 0.18113098 0.038808163 -0.16846806 -0.14337508 -0.5375036
-0.23030676 -0.20033026 0.055491753 0.4317502 0.3702307 0.122573115 0.526146 0.39112884
0.06866028 0.24552488 0.11076874 0.062699154 0.20564432 0.0933336 -0.2727185 -0.20377016
-0.1777389 0.11214388 0.078194425 -0.35986596 0.49541253 0.46592423 -0.14964738 0.12885918
0.08507666 -0.20757507 -0.08106822 0.09938898 -0.07058581 0.023235764 0.320125 0.09050267
-0.21621518 0.27822798 0.09440307 -0.41221255 -0.24438204 0.03587954 -0.1936149 0.005758802
0.24185818 0.21176004 0.4483679 0.5550594 -0.28636357 -0.31629017 -0.0423353 -0.36849025
-0.40978768 -0.12069265 -0.18196252 -0.21718132 0.007214827 -0.18921542 -0.265411 -0.04385396
-0.29435813 -0.40445712 -0.15701039 -0.12597746 -0.21238412 -0.02175827 -0.14206423 -0.20225857
-0.24783598 -0.12788233 -0.1391617 -0.19749513 -0.069880396 -0.09801305 -0.20360386 0.0025726992
0.004167257 0.023600139 -0.10612811 -0.09632064 -0.059198 -0.12994902 -0.1043479 -0.07843062
0.021673355 -0.08452509 0.017439192 -0.062517464 -0.21935347 -0.14089568 0.044840988 -0.12859744
-0.07536894 -0.07440019 -0.036774844 -0.14000615 -0.01682842 -4.2618583e-05 -0.1042876 -0.06752067
-0.048837837 -0.14938661 -0.023324357 -0.13067406 -0.100535884 -0.17769416 -0.28253287 -0.25526258
-0.04524686 -0.12406039 -0.09012292 -0.11052301 -0.080233485 -0.023447752 -0.15323657 -0.120806605
-0.05692048 -0.065470204 -0.050193716 0.016500853 -0.04325683 -0.0015019584 -0.13905834 -0.082396135
-0.015128474 -0.06984179 -0.10735323 -0.00023886465 -0.089770086 -0.1089889 -0.055857632 -0.18963951
-0.020079823 0.036648065 -0.12676035 -0.03347368 0.022424119 -0.10972804 -0.09510674 -0.14613552
-0.24003276 -0.11181981 -0.17271274 -0.29256487 -0.21919644 -0.27473503 -0.410677 -0.074593484
-0.074152604 0.038456943 -0.1394095 -0.14249305 -0.008285194 0.002825896 0.018680971 0.11456457
-0.037951212 -0.07412659 -0.04394755 -0.035178307 -0.11815865 -0.06813274 0.117145345 0.07068889
0.07146765 0.04989333 0.11779535 0.20092513 -0.14002371 -0.005773998 0.106298655 0.047677085
0.023607858 -0.13351297 -0.0526445 -0.04867928 -0.010533938 -0.067677975 -0.08763663 -0.044388004
0.008118711 -0.012338279 0.021296207 -0.50907344 -0.66241777 -0.374962 -0.17291029 -0.009412055
-0.08028528 0.43777707 0.6713867 0.15900394 -0.17810297 -0.27187017 -0.14466175 0.047755517
00000000: 6e4c 233c e81e 0b3e ddd7 fabb 41f5 033d
00000010: 4a0a 2a3e f0cb 0c3d 1dbd 76bd 0284 3f3d
00000020: 87f2 8abd 2238 6c3e aa93 b63e fe04 a83e
00000030: f1c7 b33d 55ab 943e dc34 a23e 7f9e 95be
00000040: af1b a2bd 3d45 a2bd 51bb 083d 3366 003e
00000050: d6aa 533b e9fc fa3d 68b2 433e 967c 903d
00000060: 7350 f23d 36ee 3d3e 2d5d d23d 04a3 1c3b
00000070: 7441 e23d e3eb 1e3e e681 a0bc 9be9 203e
00000080: 32c8 4b3e c967 bd3d e710 743e 6c1d 623e
00000090: f1e2 87bd a4b6 87be 21e8 85be 4108 883e
000000a0: 1b9d a63d 94f7 953b 9836 153f a39c ef3e
000000b0: 94cc a73e 3c41 9b3e 640c f83e 5aeb 7b3e
000000c0: 37df 0d3e 7da9 b73e f68d 0f3e 71ec 61be
000000d0: 10cd 8a3c 1a63 f4bd b81b ed3d af44 003e
000000e0: 9ed6 733e bb97 633e ff7a 5e3e 667a 393e
000000f0: 4ff5 1e3d e482 2cbe ebd0 12be d699 09bf
00000100: 89d5 6bbe 6023 4dbe 524b 633d 5d0e dd3e
00000110: e18e bd3e 9d07 fb3d 81b1 063f 0a42 c83e
00000120: c39d 8c3d e06a 7b3e b9da e23d 6a68 803d
00000130: 6d94 523e b025 bf3d c2a1 8bbe 20a9 50be
00000140: 3001 36be b1ab e53d 6624 a03d 5a40 b8be
00000150: b6a6 fd3e 9f8d ee3e 2a3d 19be a9f3 033e
00000160: ac3c ae3d 8f8e 54be 1807 a6bd 738c cb3d
00000170: 4b8f 90bd ee58 be3c 6de7 a33e 7759 b93d
00000180: 8367 5dbe e673 8e3e 6656 c13d 860d d3be
00000190: 493f 7abe 6df6 123d fc42 46be 55b4 bc3b
000001a0: aca9 773e a0d7 583e 7a90 e53e 5f18 0e3f
000001b0: 3f9e 92be c9f0 a1be c867 2dbd c1aa bcbe
000001c0: b1cf d1be b52d f7bd 6254 3abe c864 5ebe
000001d0: 5b6a ec3b b0c1 41be f3e3 87be 36a0 33bd
000001e0: 1cb6 96be 0115 cfbe 55c7 20be 3c00 01be
000001f0: 397b 59be 663e b2bc 4979 11be df1c 4fbe
00000200: b7c8 7dbe 96f3 02be 6880 0ebe 2a3c 4abe
00000210: 741d 8fbd 11bb c8bd 887d 50be bb9a 283b
00000220: 7c8d 883b 1455 c13c b259 d9bd c143 c5bd
00000230: 9a79 72bd 5b11 05be 5ab4 d5bd 3ca0 a0bd
00000240: 528c b13c 7e1b adbd a3dc 8e3c 2809 80bd
00000250: 329e 60be f546 10be 2fab 373d 0caf 03be
00000260: 085b 9abd 205f 98bd 38a1 16bd c65d 0fbe
00000270: c1db 89bc 5bc1 32b8 bd94 d5bd 4748 8abd
00000280: 2f0a 48bd cef8 18be b912 bfbc 6ccf 05be
00000290: c2e5 cdbd 75f5 35be 26a8 90be c7b1 82be
000002a0: c554 39bd 6013 febd 5e92 b8bd e359 e2bd
000002b0: 7451 a4bd 8015 c0bc 0cea 1cbe 7469 f7bd
000002c0: 7325 69bd 3e15 86bd ed97 4dbd cc2c 873c
000002d0: 132e 31bd 5cdd c4ba 4f65 0ebe 4ebf a8bd
000002e0: 6bdd 77bc 3609 8fbd 03dc dbbd be77 7ab9
000002f0: 61d9 b7bd 9335 dfbd f9ca 64bd dc30 42be
00000300: 717e a4bc 481c 163d 77cd 01be b31b 09bd
00000310: c9b2 b73c 18b9 e0bd 53c7 c2bd 8da4 15be
00000320: 26cb 75be c901 e5bd 9cdb 30be 10cb 95be
00000330: 0875 60be 12aa 8cbe 4144 d2be 78c4 98bd
00000340: 52dd 97bd 0785 1d3d 5dc1 0ebe b3e9 11be
00000350: 9fbe 07bc ab32 393b d608 993c d4a0 ea3d
00000360: bb72 1bbd aecf 97bd 5902 34bd 2117 10bd
00000370: 2afd f1bd 2e89 8bbd e6e9 ef3d 56c5 903d
00000380: a25d 923d f35c 4c3d b03e f13d 51bf 4d3e
00000390: 6062 0fbe ce33 bdbb 1cb3 d93d 0c49 433d
000003a0: 4465 c13c a0b7 08be c2a1 57bd ed63 47bd
000003b0: 8a96 2cbc c09a 8abd d57a b3bd 32d0 35bd
000003c0: 5804 053c 7e26 4abc 6275 ae3c a352 02bf
000003d0: 3694 29bf 05fb bfbe 650f 31be 0535 1abc
000003e0: 9c6c a4bd 5124 e03e 00e0 2b3f eed1 223e
000003f0: a060 36be 9132 8bbe 3622 14be 4a9b 433d

dense1.1.bn1.weight f4 [36]
0.5253673 0.38198373 0.28878847 0.3732904 0.71844834 0.40419057 0.4362371 0.2806909
0.44098365 0.4964528 0.37400982 1.2490308 0.12747167 0.16324 0.3433538 0.21050498
1.1827484 1.1016387 0.5387356 0.63225967 0.6698678 0.8941522 0.3206746 0.3519674
0.46808794 0.68611914 0.88805133 1.1474671 0.6101352 0.18860592 0.9473263 1.2208778
0.73968345 0.53600454 0.3539303 0.7152433
00000000: 797e 063f 5f93 c33e 15dc 933e eb1f bf3e
00000010: 3bec 373f 11f2 ce3e 785a df3e b8b6 8f3e
00000020: 9cc8 e13e 102f fe3e 377e bf3e 3ee0 9f3f
00000030: ef87 023e 6328 273e 12cc af3e 9e8e 573e
00000040: 4d64 973f 7f02 8d3f 94ea 093f c5db 213f
00000050: 757c 2b3f 29e7 643f 762f a43e 1235 b43e
00000060: 39a9 ef3e 81a5 2f3f 5557 633f 34e0 923f
00000070: d231 1c3f e921 413e fa83 723f b945 9c3f
00000080: e55b 3d3f 9837 093f 5a36 b53e 2f1a 373f

dense1.1.bn1.bias f4 [36]
0.15521881 -0.17673908 -0.18305148 -0.34682196 0.38766944 -0.17788863 0.06992031 -0.1099718
0.17262484 0.069889165 0.0700789 -0.23004092 -0.014071647 -0.16861601 -0.17238902 -0.16226304
-0.1397897 0.2197716 -0.288249 -0.41011634 -0.40851414 -0.5260975 0.09481094 -0.22468072
-0.28795567 0.81565005 0.32401386 0.049185418 -0.2060671 -0.157921 -0.13311782 0.6720199
-0.060361598 -0.19511329 -0.13172796 0.15176667
00000000: aef1 1e3e 17fb 34be d971 3bbe a692 b1be
00000010: 9c7c c63e 7028 36be 6132 8f3d e538 e1bd
00000020: 91c4 303e 0d22 8f3d 8785 8f3d d98f 6bbe
00000030: c48c 66bc ada9 2cbe bf86 30be 4828 26be
00000040: 0825 0fbe ce0b 613e 5f95 93be c5fa d1be
00000050: c428 d1be 53ae 06bf 3d2c c23d b412 66be
00000060: ed6e 93be 71ce 503f 25e5 a53e a676 493d
00000070: 4103 53be 0bb6 21be 0a50 08be 7f09 2c3f
00000080: b93d 77bd c7cb 47be b2e3 06be b968 1b3e

dense1.1.conv1.weight f4 [12, 36, 3, 3]
-0.14142625 0.13349843 0.39897108 -0.30552036 -0.03547208 0.26444495 -0.36119255 -0.22180764
0.05688619 -0.025665063 -0.029615771 -0.19937609 -0.08058953 -0.014373997 -0.13668764 -0.034685127
-0.031487413 -0.01306524 -0.07839632 0.031817276 0.13422814 -0.09260103 0.033822034 0.118478045
-0.06577479 0.021611523 0.10781002 -0.060582712 -0.0068786903 0.0627233 0.036232743 -0.014294757
0.079384066 0.11141306 0.037932098 0.12141214 -0.13701858 0.44354495 0.24490742 -0.19658391
0.2778418 0.088026725 -0.19290851 -0.06422081 -0.1973741 -0.030528942 -0.011063413 0.0042172107
-0.03282939 -0.039448243 -0.0019880752 -0.005110945 -0.024546275 0.0331871 -0.16821326 -0.20441607
-0.42856392 -0.18236889 -0.08643995 -0.14462999 -0.0032507791 0.09941476 -0.3904127 0.03186461
0.055232633 -0.017582558 -0.025244286 0.029503703 -0.062245563 -0.028881015 -0.011383494 -0.02755765
0.011893512 -0.16470292 0.04610599 -0.20738202 -0.007196536 0.06461817 -0.072630115 0.11121054
-0.011430643 -0.118291445 0.0039351364 -0.11302412 -0.16062891 -0.030645754 -0.10230847 -0.06545564
-0.069293596 -0.23748884 -0.2375497 0.11350101 -0.03609 -0.21285957 0.05455914 -0.13649313
-0.0077874437 -0.15593636 0.016436711 -0.04753884 0.039330002 0.14575155 -0.1410295 -0.07089066
0.092953436 -0.05518702 -0.11459543 0.030732477 -0.0387516 0.00088925974 -0.05100582 -0.04529598
0.025174875 -0.027147004 -0.00972948 0.001708292 -0.0146265365 -0.0014859074 0.039499193 -0.001483088
-0.006822708 0.045152966 -0.0063982843 -0.017878773 -0.004955403 -0.026390783 -0.06436531 -0.012719338
0.035877794 0.03614165 -0.0077807806 0.03605502 0.12110027 0.018923039 0.08343923 0.06283027
0.03036379 0.0032885459 0.04662637 0.017755829 -0.0012562015 0.03217835 0.018821744 0.032567687
-0.17114569 -0.037202198 -0.1865054 -0.088990435 0.23167084 0.06268906 0.013152187 0.187396
-0.0028064372 0.05390427 0.37328538 0.33342296 -0.17216222 0.17352858 0.20743881 -0.3722445
-0.18475857 -0.17625302 0.1393666 0.1370986 0.031095665 0.011740801 0.097927324 0.0670711
-0.08380534 0.024392134 0.08808248 -0.14376865 0.047564372 0.15687458 -0.03936055 0.10616114
0.15703763 0.0077105844 0.08770456 0.07855899 -0.13274781 -0.3291668 -0.17838714 -0.12169439
-0.27937663 -0.08715878 -0.026011366 -0.22540131 0.13583341 -0.13307677 0.095237866 0.21093269
-0.14118579 0.08816039 0.24139526 -0.084556185 0.08736731 0.22156502 0.019673344 0.06573949
0.014795266 0.057882402 0.06680082 0.014156677 0.051534377 0.06485659 0.023155546 -0.105824456
0.019207012 0.056046654 -0.025665006 0.08097501 0.101706095 0.0015274403 0.061155587 0.043357424
0.10523919 0.013349866 0.09323231 -0.01482422 -0.06383789 0.14068775 0.017195832 -0.033774663
0.030381488 0.021417549 0.10502042 -0.2680849 0.38001838 -0.34401146 -0.11303814 -0.06436003
0.08016196 0.3155886 0.027691053 -0.35458696 0.053507593 -0.47817245 0.15740348 0.37458658
0.020467348 0.36745685 -0.038808133 -0.29072785 -0.34263524 0.06797133 -1.011906 1.0351101
0.30840275 0.37999892 -0.26833197 -0.36777622 0.016405648 0.041274477 0.08170579 0.059124995
00000000: 0bd2 10be d0b3 083e f045 cc3e 2a6d 9cbe
00000010: 2c4b 11bd 5465 873e 3bee b8be 8b21 63be
00000020: 7e01 693d 8a3f d2bc c69c f2bc 3f29 4cbe
00000030: 200c a5bd ea80 6bbc d8f7 0bbe fe11 0ebd
00000040: f2f8 00bd 970f 56bc 408e a0bd d552 023d
00000050: 1a73 093e 9ca5 bdbd f988 0a3d 9ea4 f23d
00000060: efb4 86bd a60a b13c 80cb dc3d 9425 78bd
00000070: a366 e1bb 1375 803d c968 143d 8e34 6abc
00000080: 1d94 a23d 882c e43d b05e 1b3d eea6 f83d
00000090: 994e 0cbe 5318 e33e 03c9 7a3e 4b4d 49be
000000a0: 4841 8e3e 5b47 b43d cf89 45be 3386 83bd
000000b0: 701c 4abe d517 fabc 5143 35bc 8730 8a3b
000000c0: 1c78 06bd 7b94 21bd 5e4a 02bb b779 a7bb
000000d0: 4515 c9bc 32ef 073d 1940 2cbe 7252 51be
000000e0: bb6c dbbe e9be 3abe 6e07 b1bd e219 14be
000000f0: 060b 55bb f799 cb3d 2ce4 c7be 7784 023d
00000100: 9d3b 623d 4c09 90bc 1bcd cebc c0b1 f13c
00000110: 34f5 7ebd e197 ecbc d681 3abc 95c0 e1bc
00000120: 01dd 423c e2a7 28be a2d9 3c3d f45b 54be
00000130: ebd0 ebbb 8856 843d 19bf 94bd 5ac2 e33d
00000140: 9747 3bbc c942 f2bd 51f2 803b 3179 e7bd
00000150: e87b 24be ce0c fbbc 1a87 d1bd 9b0d 86bd
00000160: cde9 8dbd 4630 73be 3b40 73be 3873 e83d
00000170: 1cd3 13bd dcf7 59be 6879 5f3d dbc4 0bbe
00000180: d02d ffbb c8ad 1fbe 48a6 863c 16b8 42bd
00000190: 7f18 213d e53f 153e 0a6a 10be 1f2f 91bd
000001a0: 5f5e be3d c90b 62bd 02b1 eabd adc2 fb3c
000001b0: ffb9 1ebd 361d 693a 7beb 50bd 4788 39bd
000001c0: 8a3b ce3c 6563 debc 6668 1fbc c5e8 df3a
000001d0: 24a4 6fbc c7c2 c2ba e8c9 213d 2d64 c2ba
000001e0: 0691 dfbb 51f2 383d b3a8 d1bb 8176 92bc
000001f0: ef60 a2bb 7c31 d8bc f6d1 83bd c564 50bc
00000200: 98f4 123d 4409 143d ebf5 febb 6eae 133d
00000210: 6b03 f83d 7d04 9b3c 30e2 aa3d 28ad 803d
00000220: 7cbd f83c a584 573b 4bfb 3e3d ac74 913c
00000230: 21a7 a4ba 72cd 033d 0f30 9a3c b265 053d
00000240: d140 2fbe 5561 18bd 46fb 3ebe 9e40 b6bd
00000250: 1f3b 6d3e 1f63 803d 457c 573c bde4 3f3e
00000260: 34ec 37bb b9ca 5c3d 431f bf3e 6ab6 aa3e
00000270: 4b4b 30be 7ab1 313e d76a 543e d596 bebe
00000280: 5a31 3dbe ac7b 34be 1eb6 0e3e 9363 0c3e
00000290: 56bc fe3c 7d5c 403c 1f8e c83d 935c 893d
000002a0: 22a2 abbd 03d2 c73c 9664 b43d 1738 13be
000002b0: dcd2 423d bba3 203e 8738 21bd 036b d93d
000002c0: 79ce 203e 12a9 fc3b 739e b33d 89e3 a03d
000002d0: 0bef 07be 8d88 a8be 1eab 36be e93a f9bd
000002e0: 740a 8fbe 4d80 b2bd ca15 d5bc 9acf 66be
000002f0: ea17 0b3e 4745 08be 120c c33d bdfe 573e
00000300: 0293 10be 6f8d b43d 5230 773e cb2b adbd
00000310: a2ed b23d f1e1 623e fe29 a13c 6da2 863d
00000320: d867 723c 1916 6d3d dece 883d 68f1 673c
00000330: b615 533d 88d3 843d b3b0 bd3c 7eba d8bd
00000340: 0658 9d3c 2d91 653d 6b3f d2bc 3ad6 a53d
00000350: 494b d03d 6434 c83a 487e 7a3d 8e97 313d
00000360: a587 d73d 65b9 5a3c 95f0 be3d 49e1 72bc
00000370: 71bd 82bd 7310 103e 46de 8c3c 4d57 0abd
00000380: 99e2 f83c db73 af3c f214 d73d 6d42 89be
00000390: c591 c23e 4522 b0be 8a80 e7bd 31cf 83bd
000003a0: f42b a43d d494 a13e 59d8 e23c 6c8c b5be
000003b0: c72a 5b3d 05d3 f4be 612e 213e d0c9 bf3e
000003c0: 24ab a73c 4e23 bc3e 47f5 1ebd 48da 94be
000003d0: e36d afbe 8d34 8b3d 2386 81bf 7d7e 843f
000003e0: f7e6 9d3e 388f c23e cf62 89be 2a4d bcbe
000003f0: 2365 863c 6d0f 293d 5d55 a73d 0d2d 723d

dense1.2.bn1.weight f4 [48]
0.36789048 0.17569563 0.34794638 0.56762815 1.0280508 0.15024689 0.4252418 0.3410452
0.28850666 0.3494821 0.23410475 0.7243326 0.093779735 0.3995997 0.13569802 0.49971795
0.42108747 0.51603484 0.6037021 0.29981208 0.7758509 0.06781908 0.30967417 0.20818324
0.66521704 0.41425484 0.24919386 0.9232244 0.054317635 0.13819164 0.6481424 0.87213624
0.2972367 0.25781456 0.2949894 0.6490656 1.4014633 0.9677671 0.28273273 0.6113717
0.8477019 0.49352664 0.36363038 1.0214081 1.2684144 0.47759256 0.20704973 0.6753728
00000000: 245c bc3e 8ee9 333e 0726 b23e 1450 113f
00000010: 2b97 833f 52da 193e 4bb9 d93e 7a9d ae3e
00000020: 25b7 933e 51ef b23e 28b9 6f3e dc6d 393f
00000030: 970f c03d 5598 cc3e 6cf4 0a3e 08db ff3e
00000040: c798 d73e dc1a 043f 398c 1a3f f880 993e
00000050: 2a9e 463f bbe4 8a3d 9d8d 9e3e fd2d 553e
00000060: aa4b 2a3f 3619 d43e ad2c 7f3e 6f58 6c3f
00000070: 2b7c 5e3d 1c82 0d3e a9ec 253f 5244 5f3f
00000080: 692f 983e 4500 843e da08 973e 2a29 263f
00000090: 2663 b33f 96bf 773f 58c2 903e db82 1c3f
000000a0: fe02 593f 86af fc3e c32d ba3e 80bd 823f
000000b0: 675b a23f 0387 f43e d804 543e 3be5 2c3f

dense1.2.bn1.bias f4 [48]
-0.15043646 -0.05264078 -0.38686883 -0.37950888 0.35644737 -0.041927107 0.097784325 -0.18121421
0.06264605 0.032364424 -0.00919293 0.32869986 -0.063903496 -0.01901265 0.03822152 -0.52280116
0.25233594 -0.4607665 -0.2436931 -0.20843527 0.42053473 -0.06162995 -0.12738642 -0.16975205
-0.5857244 0.25752586 0.050608568 -0.02161881 -0.066106856 -0.14154367 0.06933148 0.33543146
-0.06362939 0.097233385 -0.18988948 -0.23197863 0.551664 -0.039407406 -0.27728665 -0.19550578
-0.51138175 -0.30749032 -0.08624403 -0.34064215 0.35240537 -0.048009224 -0.038274188 0.32201508
00000000: 040c 1abe dc9d 57bd ac13 c6be fd4e c2be
00000010: 4580 b63e c2bb 2bbd 2643 c83d 3890 39be
00000020: 924c 803d 8f90 043d f19d 16bc 594b a83e
00000030: d6df 82bd 6bc0 9bbc 2b8e 1c3d 4cd6 05bf
00000040: 2d32 813e 96e9 ebbe af8a 79be 0e70 55be
00000050: 5450 d73e b06f 7cbd 9671 02be 7bd3 2dbe
00000060: 09f2 15bf 6eda 833e ee4a 4f3d ee19 b1bc
00000070: 0863 87bd d3f0 10be aafd 8d3d acbd ab3e
00000080: 2050 82bd 4c22 c73d 6372 42be ce8b 6dbe
00000090: da39 0d3f a969 21bd 84f8 8dbe ab32 48be
000000a0: eae9 02bf 5f6f 9dbe b6a0 b0bd a668 aebe
000000b0: 7a6e b43e 52a5 44bd 65c5 1cbd 29df a43e

dense1.2.conv1.weight f4 [12, 48, 3, 3]
0.10133724 -0.05152325 -0.08948428 0.09123805 -0.064157344 -0.10112848 0.09744464 -0.04440109
-0.037436794 0.0031998684 0.026918897 0.018373327 0.009738293 0.02938727 0.030316964 0.019519953
0.015695365 0.004954342 0.02167089 -0.014639001 -0.025088228 0.014262461 -0.041298617 -0.049572222
0.012067464 -0.03058279 -0.05323479 -0.06759756 -0.08626324 -0.09493354 0.05818462 0.047287058
0.011117279 0.03154495 0.05987849 0.05588553 -0.012542372 0.10405724 0.122877695 -0.020744842
0.11263419 0.13143075 -0.058109235 0.04457332 0.048845142 -0.0092657115 -0.03333059 -0.03966766
0.0015286829 -0.015136083 -0.030935816 0.00059328804 -0.025768328 -0.012325388 0.078288764 -0.2088212
0.005023837 0.27030855 0.058380123 0.38206637 0.20082237 0.040153828 0.32977062 -0.018523071
-0.015605096 0.0024039925 0.0071107624 -0.02211726 -0.018397376 -0.0006033899 -0.019426964 -0.04171716
-0.096753635 0.0119639225 0.18662067 0.004581207 0.08521895 0.15231474 0.1505937 0.12130183
0.07329865 0.048860513 0.002231102 0.060646754 0.12145172 0.09238184 0.13321482 0.08605199
0.035490144 0.031236773 0.036303274 0.017287781 0.005333333 0.023229796 -0.024282405 -0.04721196
0.02305988 -0.011717927 -0.032618143 0.051279526 -0.008753357 0.057501957 0.028434418 -0.050996553
0.0083785085 0.016804341 -0.079906866 -0.068616495 0.0076630036 0.0057198587 0.0060430956 -0.0028818198
-0.0026025919 0.0009783558 -0.012856429 -0.011989049 -0.005050019 0.006959984 0.08060175 0.13692625
-0.021247445 0.04364899 0.102022626 -0.0666273 -0.015415884 0.043549262 -0.0057611065 -0.0036340174
-0.015998853 0.023346242 0.024326188 0.024105199 0.001298044 0.02802627 0.02311574 -0.015990566
0.010461856 0.0780037 -0.035700113 -0.01629247 0.089586996 -0.041057814 0.008269748 0.0905548
-0.003066678 0.08869277 0.19267875 -0.044441346 0.0744003 0.18894163 -0.09213178 0.037018992
0.14560416 0.1146679 0.00268904 -0.124119386 0.0824282 -0.016507015 -0.12400655 0.022118358
-0.058277033 -0.111279875 -0.11710122 0.06511291 0.26301897 -0.15143271 0.03407992 0.24279308
-0.12994932 0.031487163 0.1841265 0.050531592 0.046476856 0.029073667 0.050824195 0.05411055
0.020306135 0.024502251 0.018656865 0.0100303525 -0.42928985 -0.27969286 -0.36718395 -0.6644949
-0.5239097 -0.6795294 -0.46203774 -0.3639455 -0.5008159 -0.005949409 -0.004628034 0.0011734505
-0.0025000523 -0.0074069304 -0.010662989 -0.0043291133 -0.0018932933 -0.018041894 0.023790639 0.045784093
0.06327876 -0.0033967537 0.047595978 0.084568545 -0.0061088647 0.019063089 0.092583954 0.020506075
0.028375335 0.013688048 0.026804596 0.013996444 0.0057789152 0.025273234 0.019611731 -0.0019247291
0.17353818 0.010732358 -0.048356958 0.20844232 0.016083159 -0.073369905 0.17537645 -0.026480021
-0.11941975 -0.028650105 0.0070599457 0.06777983 -0.11476735 -0.008168292 0.21965437 -0.063740216
0.017872438 0.2558687 -0.016749412 -0.008970034 0.074310556 0.117759325 0.06501858 0.012265237
0.13914515 0.061792888 0.004613733 0.057989508 -0.055993404 -0.11692646 0.5453141 0.33571622
0.083878756 0.16399112 0.1166186 -0.080150686 0.0054260995 0.0015012602 0.008582342 -0.0115589835
00000000: e689 cf3d 0b0a 53bd 8943 b7bd 04db ba3d
00000010: ed64 83bd 731c cfbd 0e91 c73d ebdd 35bd
00000020: 5357 19bd e2b4 513b 0585 dc3c a983 963c
00000030: 5c8d 1f3c 92bd f03c 485b f83c 4fe8 9f3c
00000040: 9193 803c 0858 a23b 2687 b13c 6cd8 6fbc
00000050: d485 cdbc 19ad 693c bd28 29bd 3e0c 4bbd
00000060: 9db6 453c c288 fabc b90c 5abd 9770 8abd
00000070: c8aa b0bd 846c c2bd ff52 6e3d 13b0 413d
00000080: 3f25 363c 4735 013d 2643 753d 3ae8 643d
00000090: 857e 4dbc f61b d53d 4da7 fb3d 16f1 a9bc
000000a0: c1ac e63d c895 063e f303 6ebd 8392 363d
000000b0: d811 483d 36cf 17bc a885 08bd 8e7a 22bd
000000c0: 165e c83a 55fd 77bc 1c6d fdbc e386 1b3a
000000d0: 1a18 d3bc 6df0 49bc dc55 a03d 3ad5 55be
000000e0: 009f a43b e265 8a3e ff1f 6f3d 349e c33e
000000f0: 61a4 4d3e 5778 243d b2d7 a83e b2bd 97bc
00000100: 84ac 7fbc 4d8c 1d3b 6601 e93b 422f b5bc
00000110: 18b6 96bc d02c 1eba 4c25 9fbc 9ddf 2abd
00000120: c526 c6bd 5404 443c 7d19 3f3e f31d 963b
00000130: 4687 ae3d 65f8 1b3e 3c35 1a3e 186d f83d
00000140: 9a1d 963d f621 483d ae37 123b bb68 783d
00000150: aebb f83d b132 bd3d 7769 083e 073c b03d
00000160: 1d5e 113d 43e4 ff3c beb2 143d 1b9f 8d3c
00000170: 3dc3 ae3b 6a4c be3c e5eb c6bc 5461 41bd
00000180: 13e8 bc3c 8cfc 3fbc 9a9a 05bd 7b0a 523d
00000190: 3e6a 0fbc 2c87 6b3d 4cef e83c c3e1 50bd
000001a0: 0346 093c 42a9 893c 36a6 a3bd ce86 8cbd
000001b0: ef19 fb3b a76d bb3b 2905 c63b eadc 3cbb
000001c0: 3f90 2abb 2c3c 803a c6a3 52bc b76d 44bc
000001d0: a17a a5bb 9410 e43b 8812 a53d 6536 0c3e
000001e0: 1f0f aebc 49c9 323d 3df1 d03d e573 88bd
000001f0: e792 7cbc b660 323d aac7 bcbb b228 6ebb
00000200: 0710 83bc 9e40 bf3c b747 c73c 4478 c53c
00000210: 2123 aa3a 5997 e53c 385d bd3c a6fe 82bc
00000220: 3468 2b3c 67c0 9f3d 483a 12bd c977 85bc
00000230: 6379 b73d 3d2c 28bd d67d 073c cc74 b93d
00000240: 52fa 48bb 8ea4 b53d 944d 453e 2108 36bd
00000250: 2f5f 983d ea79 413e 96af bcbd 3aa1 173d
00000260: 4219 153e 01d7 ea3d 9b3a 303b 4e32 febd
00000270: 1ed0 a83d b839 87bc 25f7 fdbd 8f31 b53c
00000280: e6b3 6ebd b4e6 e3bd c4d2 efbd eb59 853d
00000290: 6caa 863e 2d11 1bbe 6397 0b3d c09e 783e
000002a0: 6f11 05be aff8 003d a88b 3c3e 37fa 4e3d
000002b0: 845e 3e3d e62b ee3c 082d 503d 06a3 5d3d
000002c0: 0d59 a63c f2b8 c83c 48d6 983c 5956 243c
000002d0: e1cb dbbe e733 8fbe 89ff bbbe 561c 2abf
000002e0: f21e 06bf a4f5 2dbf 3690 ecbe 1157 babe
000002f0: 7935 00bf 43f3 c2bb c3a6 97bb 77ce 993a
00000300: ebd7 23bb d6b5 f2bb d1b3 2ebc 3cdb 8dbb
00000310: 6228 f8ba 98cc 93bc 96e4 c23c 1a88 3b3d
00000320: 4b98 813d 129c 5ebb 00f4 423d 4632 ad3d
00000330: df2c c8bb 322a 9c3c a89c bd3d 5bfc a73c
00000340: 6473 e83c d643 603c 5095 db3c 5751 653c
00000350: 0e5d bd3b d009 cf3c c8a8 a03c 3147 fcba
00000360: feb3 313e c6d6 2f3c f211 46bd e771 553e
00000370: d4c0 833c f642 96bd e295 333e a1ec d8bc
00000380: 5892 f4bd a0b3 eabc 1e57 e73b 27d0 8a3d
00000390: 250b ebbd 4dd4 05bc 13ed 603e 3b8a 82bd
000003a0: 3869 923c 3901 833e 1036 89bc 0df7 12bc
000003b0: 2230 983d cd2b f13d 7628 853d 22f4 483c
000003c0: 117c 0e3e 8a1a 7d3d cc2e 973b 6886 6d3d
000003d0: 5759 65bd 2477 efbd b499 0b3f ffe2 ab3e
000003e0: a0c8 ab3d 4aed 273e bcd5 ee3d 0b26 a4bd
000003f0: 6ccd b13b efc5 c43a f49c 0c3c e461 3dbc

dense1.3.bn1.weight f4 [60]
0.23077394 0.2479627 0.21079609 0.5048075 0.5447896 0.20494415 1.2569942 0.3136438
0.4180414 0.2801594 0.110189915 0.24322073 0.18020374 0.15808731 0.725324 0.12972805
0.24069992 0.0901871 0.2336463 0.16953312 1.3058767 0.21859296 0.13483757 0.10627367
0.22202177 0.76424706 0.4488989 0.8083787 0.23327896 0.25379798 0.752146 0.9865658
0.38615647 0.47889334 0.11296082 0.76357144 0.8909884 0.91919875 0.14234464 1.060676
0.5201622 0.21537672 0.15297846 0.5259788 0.4592197 0.43568987 1.2413132 0.387562
0.941868 0.3503934 0.1578209 0.53678596 0.2908593 0.14533816 1.6051549 0.7293631
1.2287472 0.20661657 0.05107716 0.44795585
00000000: 0150 6c3e efe9 7d3e eeda 573e 103b 013f
00000010: 5577 0b3f e1dc 513e 30e5 a03f ec95 a03e
00000020: 8609 d63e 0e71 8f3e 40ab e13d db0e 793e
00000030: 5487 383e a4e1 213e d5ae 393f 6ed7 043e
00000040: 0a7a 763e 04b4 b83d fa40 6f3e 179a 2d3e
00000050: f826 a73f d5d6 5f3e dc12 0a3e 03a6 d93d
00000060: ad59 633e b2a5 433f 14d6 e53e e8f1 4e3f
00000070: aee0 6e3e cff1 813e a48c 403f 948f 7c3f
00000080: 4db6 c53e 8231 f53e 0158 e73d 6b79 433f
00000090: d117 643f 9c50 6b3f cbc2 113e 3bc4 873f
000000a0: 5a29 053f b78b 5c3e 63a6 1c3e 8ca6 063f
000000b0: d81e eb3e be12 df3e 5ae3 9e3f 876e c63e
000000c0: 431e 713f c466 b33e cd9b 213e ce6a 093f
000000d0: 83eb 943e 87d3 143e b775 cd3f 8ab7 3a3f
000000e0: 9747 9d3f 4b93 533e 4936 513d 785a e53e

dense1.3.bn1.bias f4 [60]
-0.1252006 -0.0015500728 -0.12777825 0.11074692 0.14376344 0.021411102 -0.038662933 0.0073034614
-0.14566772 0.0044889757 -0.021214202 -0.043911174 -0.038352095 -0.010571136 0.2217567 -0.20714813
-0.1924916 -0.11129601 -0.026076222 -0.06642116 0.014206621 0.009366063 -0.077819034 -0.04971831
-0.16483752 -0.17551376 -0.298095 -0.28436765 -0.18297239 -0.26217932 -0.12308765 -0.5484363
-0.25049326 0.035432942 -0.11517456 -0.15126714 -0.27893725 0.373625 -0.18029071 -0.20922253
-0.3828587 -0.15425873 -0.059730668 0.018718746 -0.16805919 0.04642589 0.1994893 -0.11644396
0.050810974 0.035513267 0.00023607875 -0.007974255 0.11897443 -0.05133634 0.02330805 0.07637651
0.075311534 0.003791754 -0.002412966 0.08649935
00000000: 9634 00be d02b cbba 4dd8 02be 48cf e23d
00000010: b936 133e 5666 af3c 065d 1ebd e051 ef3b
00000020: eb29 15be 4218 933b 68c9 adbc 34dc 33bd
00000030: 1617 1dbd 8f32 2dbc 3014 633e a41e 54be
00000040: 851c 45be 2aef e3bd cd9d d5bc d107 88bd
00000050: e3c2 683c 1e74 193c 965f 9fbd 6da5 4bbd
00000060: 2bcb 28be e1b9 33be e89f 98be a398 91be
00000070: 1d5d 3bbe 5e3c 86be 6115 fcbd 5266 0cbf
00000080: a740 80be 2222 113d a4e0 ebbd c6e5 1abe
00000090: ddd0 8ebe c74b bf3e 219e 38be 6e3e 56be
000000a0: 0e06 c4be 00f6 1dbe 25a8 74bd 0e58 993c
000000b0: b517 2cbe 1329 3e3d ec46 4c3e 2c7a eebd
000000c0: 2b1f 503d 5c76 113d e88b 7739 73a6 02bc
000000d0: dea8 f33d 0e46 52bd 86f0 be3c 4a6b 9c3d
000000e0: ef3c 9a3d 137f 783b da22 1ebb 9226 b13d

dense1.3.conv1.weight f4 [12, 60, 3, 3]
0.046240494 -0.017091438 0.008823972 0.038151905 -0.046111926 -0.05164674 0.042156626 -0.021099785
-0.009800263 0.003439744 -0.0040948302 -0.017685132 -0.013157744 -0.021289285 -0.013966871 -0.017387222
-0.011321459 -0.0044827466 0.004512155 0.0118276 0.014573691 -0.005915636 -0.015731422 -0.007378422
0.0040120417 -0.01820325 -0.0039868457 0.016817719 0.002041158 0.038800135 0.09075436 0.05064857
0.111327074 -0.0042035207 -0.03664099 0.047433667 0.18967259 0.15856898 0.035382763 0.15075618
0.11855233 -0.0044056126 0.08462835 0.06053193 -0.041290235 -0.015208153 -0.009158789 -0.003765852
-0.010868274 -0.0062590055 -0.01543788 -0.0071285227 -0.0061670314 0.0028838653 -0.1174508 -0.18207704
0.12141812 -0.046145532 -0.13297278 0.110349335 0.007289554 -0.14727265 0.016975658 0.081085525
0.048059545 0.041009538 0.018813608 0.0010168024 0.011938961 -0.015117784 -0.02394618 -0.012472915
0.08317097 0.117538676 0.19389331 0.020165667 0.04327562 0.084449604 -0.028717447 7.009373e-05
0.029517012 0.0017272242 -0.023245713 -0.018652799 0.016089404 -0.023250904 -0.043874204 -0.005916962
-0.028494876 -0.024961838 0.021432897 -0.0013826479 0.009098242 -0.010326771 -0.02757473 -0.0031737566
-0.012085085 -0.028992418 -0.022221439 -0.002278939 -0.00092569314 0.014664348 -0.009858702 -0.019419698
-0.012214985 0.0015737179 -0.030429592 0.005442179 0.011967517 0.0057231453 -0.0012864068 0.0062097493
-0.0075590075 0.0035272245 0.0060147634 0.0017007113 -0.0006496934 0.03187458 0.036789104 0.035477016
0.032617055 0.023802336 0.02007344 0.022677293 0.009654275 -0.0014336292 -0.069800235 -0.050151937
0.0446012 0.03341249 0.019725246 0.12224762 -0.041019175 -0.047763433 0.017328562 0.0010248165
0.013139688 0.043233965 -0.002680465 0.006794718 0.044116896 -0.020840447 -0.008721396 0.040373065
0.029233426 0.03400095 0.054130774 0.031946678 0.024816053 0.05238827 0.054717526 0.04127228
0.031541053 0.034337044 0.022999693 0.0006796281 0.035048783 0.039989267 -0.006059463 0.025187302
0.0138039505 0.0009289044 0.07931989 0.08055002 0.083313085 0.076236635 0.06683767 0.05806055
0.05352974 0.041071534 0.034407295 0.027936019 0.018073415 0.03772631 0.031665217 0.031186577
0.024576737 0.028560426 0.022569928 0.027510282 0.14886284 -0.14987358 -0.30055934 0.054907594
-0.169797 -0.23516712 -0.04967808 -0.19248238 -0.19809818 0.019915877 0.018549116 0.066222794
-0.022483373 -0.016258193 0.037717354 -0.0010633105 -0.008181553 0.04754414 0.015571845 0.01402124
0.002838695 0.012850973 0.0066902298 -0.0012183428 -0.011294033 0.0056098728 0.011896449 0.0020341154
0.015223284 0.01809183 -0.005541107 0.0035660001 0.023892257 0.014487517 0.015992764 0.01585066
0.0156549 -0.01028766 0.049330715 -0.0003929062 -0.008293158 0.028671198 -0.010915023 -0.008313819
0.038673516 -0.0426281 -0.1468298 -0.06412618 -0.051942028 -0.06785917 0.023433559 -0.05637958
-0.050320677 0.0056875995 -0.008604477 -0.0058363248 0.0063776462 -0.04074845 -0.056685608 -0.032256287
-0.04032852 -0.04046945 -0.01046207 0.09458391 -0.012148596 -0.11485484 0.08095915 -0.043824326
-0.13078585 0.09505404 -0.08324193 -0.15306708 0.0036567573 0.009741583 0.032958835 -0.003833775
00000000: ac66 3d3d 5803 8cbc 6c92 103c 2c45 1c3d
00000010: dcdf 3cbd 888b 53bd 6dac 2c3d 75d9 acbc
00000020: 4891 20bc 546d 613b ed2d 86bb 69e0 90bc
00000030: 9493 57bc de66 aebc 4ed5 64bc a66f 8ebc
00000040: a47d 39bc 01e4 92bb b3da 933b 8dc8 413c
00000050: 7ec6 6e3c f4d7 c1bb 2fdf 80bc b1c6 f1bb
00000060: 7277 833b fb1e 95bc 16a4 82bb 50c5 893c
00000070: f3c4 053b e4ec 1e3d 6cdd b93d e074 4f3d
00000080: 73ff e33d b0bd 89bb dd14 16bd ce49 423d
00000090: 8839 423e e85f 223e 84ed 103d d45f 1a3e
000000a0: 90cb f23d f55c 90bb a151 ad3d 54f0 773d
000000b0: f31f 29bd 9e2b 79bc bf0e 16bc 83cc 76bb
000000c0: d810 32bc 5818 cdbb 29ef 7cbc 6296 e9bb
000000d0: cf14 cabb 3bff 3c3b 0c8a f0bd 6772 3abe
000000e0: 10aa f83d 1903 3dbd 042a 08be d5fe e13d
000000f0: 36dd ee3b a4ce 16be 8910 8b3c 2b10 a63d
00000100: 16da 443d 9ef9 273d ff1e 9a3c 3a46 853a
00000110: a29b 433c 95b0 77bc c72a c4bc 335b 4cbc
00000120: 8b55 aa3d 1eb8 f03d f88b 463e 7832 a53c
00000130: c741 313d eaf3 ac3d da40 ebbc 49ff 9238
00000140: a9cd f13c 0764 e23a cb6d bebc c1cd 98bc
00000150: edcd 833c ae78 bebc 70b5 33bd 13e3 c1bb
00000160: 166e e9bc c57c ccbc 0b94 af3c f739 b5ba
00000170: cb10 153c 9e31 29bc 66e4 e1bc cdfe 4fbb
00000180: 8500 46bc 8281 edbc bc09 b6bc 405a 15bb
00000190: 37aa 72ba bc42 703c 6586 21bc 0f16 9fbc
000001a0: 5c21 48bc 3645 ce3a 7b47 f9bc 4e54 b23b
000001b0: 6813 443c 3989 bb3b a69c a8ba 277b cb3b
000001c0: 8db1 f7bb 0229 673b 7e17 c53b 67ea de3a
000001d0: 3050 2aba eb8e 023d 2cb0 163d 5950 113d
000001e0: 7699 053d 1efd c23c 0e71 a43c bbc5 b93c
000001f0: f72c 1e3c 9de8 bbba 6df3 8ebd 1e6c 4dbd
00000200: bfaf 363d 89db 083d d796 a13c f65c fa3d
00000210: b903 28bd 97a3 43bd a1f4 8d3c 2353 863a
00000220: d947 573c 1916 313d beaa 2fbb 3aa6 de3b
00000230: ebb3 343d 96b9 aabc 30e4 0ebc 3a5e 253d
00000240: f07a ef3c 9544 0b3d 3bb8 5d3d 85da 023d
00000250: 094b cb3c 1595 563d 7c1f 603d 1f0d 293d
00000260: 3131 013d 00a5 0c3d da69 bc3c 1229 323a
00000270: 508f 0f3d c9cb 233d 768e c6bb 9a55 ce3c
00000280: f729 623c b881 733a 7772 a23d 69f7 a43d
00000290: 0da0 aa3d f421 9c3d 30e2 883d e6d0 6d3d
000002a0: 0042 5b3d a03a 283d aaee 0c3d 14da e43c
000002b0: b30e 943c e786 1a3d 63b3 013d fe7a ff3c
000002c0: 2755 c93c 8ef7 e93c 92e4 b83c 3e5d e13c
000002d0: 806f 183e 7678 19be eae2 99be c9e6 603d
000002e0: 44df 2dbe a6cf 70be 3e7b 4bbd 1a1a 45be
000002f0: 40da 4abe 9f26 a33c 51f4 973c d19f 873d
00000300: 0d2f b8bc e72f 85bc 837d 1a3d c85e 8bba
00000310: ec0b 06bc a5bd 423d 0d21 7f3c 58b9 653c
00000320: 6609 3a3b e38c 523c b739 db3b cdb0 9fba
00000330: 9c0a 39bc 06d3 b73b 53e9 423c cb4e 053b
00000340: 156b 793c 5135 943c 2d92 b5bb 8eb3 693b
00000350: b2b9 c33c 0d5d 6d3c 4203 833c 3ed9 813c
00000360: b43e 803c 938d 28bc 010f 4a3d fafe cdb9
00000370: 07e0 07bc dcdf ea3c edd4 32bc af36 08bc
00000380: 1f68 1e3d cd9a 2ebd 8d5a 16be 9654 83bd
00000390: 2ac1 54bd c0f9 8abd bcf7 bf3c 46ee 66bd
000003a0: 0e1d 4ebd 0b5f ba3b cbf9 0cbc a43e bfbb
000003b0: 93fb d03b d9e7 26bd 2b2f 68bd 2b1f 04bd
000003c0: 852f 25bd 4bc3 25bd 1a69 2bbc 36b5 c13d
000003d0: e80a 47bc 0439 ebbd e9cd a53d 2381 33bd
000003e0: baec 05be b1ab c23d bf7a aabd 9ebd 1cbe
000003f0: 35a6 6f3b 299b 1f3c d8ff 063d 1240 7bbb

dense1.4.bn1.weight f4 [72]
0.5774823 0.32317263 0.5579043 0.95636296 0.99776495 0.1645887 0.46877658 0.5276916
1.2103599 0.21746899 0.18705651 0.089814074 0.115121886 0.29280198 0.7590935 0.45729908
0.5157622 0.4765353 0.30828622 0.39797112 0.53641844 0.1556979 0.062236167 0.05227837
0.36199778 0.9858151 0.5423482 0.18162271 0.29788765 0.14810634 0.39432904 0.34244698
0.4199408 0.47586206 0.45541468 0.5247572 0.59604305 1.0593209 0.28777272 0.19605875
0.35496494 0.10210377 0.3356489 0.5372679 0.30951267 0.6320025 0.9262225 0.4545836
0.34018156 0.1581534 0.33807695 0.42916024 0.3139231 0.23761256 0.37248078 0.30307478
1.2137653 0.2918393 0.20892762 0.6586564 0.20890647 0.16093501 1.5179038 0.2325611
0.14014366 0.08064491 0.096221074 0.8681089 0.07228703 0.66379744 0.3103134 0.16940945
00000000: e1d5 133f e276 a53e d1d2 0e3f 34d4 743f
00000010: 866d 7f3f f189 283e 7c03 f03e cc16 073f
00000020: 13ed 9a3f 31b0 5e3e be8b 3f3e 71f0 b73d
00000030: 06c5 eb3d 24ea 953e f453 423f 1b23 ea3e
00000040: fe08 043f 6ffc f33e b1d7 9d3e dfc2 cb3e
00000050: b852 093f 456f 1f3e 5aeb 7e3d d821 563d
00000060: c657 b93e 615e 7c3f 55d7 0a3f 4efb 393e
00000070: bb84 983e 30a9 173e 7fe5 c93e 3655 af3e
00000080: 7b02 d73e 31a4 f33e 1d2c e93e 7d56 063f
00000090: 4796 183f d497 873f f256 933e a0c3 483e
000000a0: f7bd b53e c81b d13d 2cda ab3e 648a 093f
000000b0: 7278 9e3e eaca 213f eb1c 6d3f 2ebf e83e
000000c0: 472c ae3e f7f2 213e 6c18 ad3e e4ba db3e
000000d0: 87ba a03e b550 733e cdb5 be3e 9e2c 9b3e
000000e0: a95c 9b3f f66b 953e 1ff1 553e b59d 283f
000000f0: 94eb 553e 26cc 243e ac4a c23f 7f24 6e3e
00000100: d281 0f3e 2929 a53d 8e0f c53d 633c 5e3f
00000110: 390b 943d a1ee 293f 66e1 9e3e ac79 2d3e

dense1.4.bn1.bias f4 [72]
-0.5759665 -0.034149177 -0.3665017 -0.032978702 -0.3576913 -0.01098544 -0.08777873 0.013992166
0.07546242 0.013591067 -0.029844375 -0.08572899 -0.051774897 -0.14326933 0.04832339 -0.2956575
-0.5336286 -0.37243134 -0.22971812 -0.3245047 -0.30055243 0.015380495 0.0046632546 0.0064910254
0.0036630933 0.07806105 -0.19182758 -0.17402518 -0.01034838 -0.08563812 -0.038465716 -0.030848134
-0.12555072 -0.08461427 -0.081740804 0.015033691 -0.16307692 -0.1511793 -0.44643262 -0.039754134
-0.17602947 -0.06849435 -0.060776893 -0.14420065 -0.014472207 0.017000556 -0.09555564 0.4455248
0.04634721 0.048330605 -0.019053742 -0.0595369 0.06804509 -0.085236095 0.014745284 -0.08757528
-0.18447194 0.0014514226 0.020005815 0.11022425 -0.04049135 -0.047201227 -0.27225798 0.045396257
-0.008736661 0.021025082 -0.038790684 -0.015265022 -0.082794696 0.12782471 0.017319446 0.034499984
00000000: 8a72 13bf 02e0 0bbd 1ca6 bbbe ad14 07bd
00000010: 5023 b7be 46fc 33bc 56c5 b3bd 663f 653c
00000020: 0b8c 9a3d 11ad 5e3c 317c f4bc ae92 afbd
00000030: ea11 54bd 32b5 12be bfee 453d 6b60 97be
00000040: e29b 08bf 52af bebe 3a3b 6bbe 7b25 a6be
00000050: 02e2 99be 79fe 7b3c 37ce 983b abb2 d43b
00000060: 8210 703b 79de 9f3d 736e 44be a833 32be
00000070: 408c 29bc 0a63 afbd 3a8e 1dbd 3ab5 fcbc
00000080: 5e90 00be 3f4a adbd b967 a7bd df4f 763c
00000090: a3fd 26be bfce 1abe d192 e4be 3bd5 22bd
000000a0: 1241 34be c446 8cbd 31f1 78bd 56a9 13be
000000b0: d61c 6dbc c044 8b3c adb2 c3bd d41b e43e
000000c0: 92d6 3d3d 50f6 453d 9816 9cbc f7dc 73bd
000000d0: 395b 8b3d 4390 aebd 3496 713c ab5a b3bd
000000e0: 36e6 3cbe a93d be3a 3ce3 a33c 40bd e13d
000000f0: 42da 25bd 1356 41bd 6665 8bbe 6df1 393d
00000100: 3624 0fbc cb3c ac3c fbe2 1ebd 251a 7abc
00000110: 4490 a9bd 7be4 023e 83e1 8d3c db4f 0d3d

dense1.4.conv1.weight f4 [12, 72, 3, 3]
-0.09610594 -0.14966911 -0.10955091 -0.13441983 -0.18204837 -0.15554962 -0.08065348 -0.12173131
-0.112544216 -0.012839643 -0.016510941 -0.026960019 0.016549597 -0.013211007 -0.00494871 0.021170458
0.026038244 0.010051995 -0.05431847 -0.08417521 -0.09056986 -0.08394072 -0.10711751 -0.102789626
-0.06726173 -0.11172138 -0.11014484 -0.08091225 -0.05051126 -0.04519793 -0.0488844 -0.050077934
-0.019434925 -0.084466316 -0.09643644 -0.051269066 -0.24081995 -0.20506835 -0.21862097 -0.220859
-0.21370374 -0.22570457 -0.23227143 -0.25182426 -0.26642358 -0.020743493 -0.027164327 -0.02205722
-0.02125133 -0.03173088 -0.028370788 -0.02725956 -0.029880332 -0.011616779 -0.009766058 -0.015632985
0.016491719 -0.002358921 -0.015618099 0.034429345 -0.0030421296 -0.00058595045 0.02358836 0.03773758
0.0063037537 0.0014022377 0.012753673 -0.028683767 -0.028500155 -0.0058445036 -0.028078515 -0.04563737
0.11537281 0.056095757 0.024579903 0.07975616 -0.014645592 -0.09955727 -0.08710968 -0.121914566
-0.2000192 -0.034392476 -0.030756693 -0.0154041555 -0.0459035 -0.022433076 -0.007889839 -0.03835868
-0.022322657 -0.02175596 -0.009401802 -0.011814538 -0.009794237 -0.024263686 -0.029653471 -0.018461311
-0.02093223 -0.023513706 -0.0126818195 0.004178007 0.007240426 0.005941716 -0.0118380925 -0.009540532
-0.007854002 -0.011987197 -0.022500727 -0.011685898 -0.0048412853 -0.007900802 0.0010622962 -0.003090846
-0.0013137826 -0.00037613668 -0.012425526 -0.012030412 -0.0049808514 -0.0566683 -0.029362421 -0.034158487
-0.0689547 -0.03967749 -0.030219562 -0.056621954 -0.049460452 -0.03903877 -0.08312909 -0.059940554
-0.029329194 -0.053316608 -0.061600175 -0.021324197 -0.08658012 -0.07533674 -0.04487972 -0.05362278
-0.097507656 -0.037017614 -0.016658435 -0.0719674 -0.039185632 0.009628806 -0.0585106 -0.04588016
-0.059086 -0.05095961 -0.0045612687 -0.06221291 -0.042315032 0.007318325 -0.049706835 -0.038806826
-0.005764384 -0.0352652 -0.028071078 -0.034030505 -0.019908512 -0.02674326 -0.02775157 -0.030847536
-0.047726206 -0.06477973 -0.051808443 -0.06400424 -0.046869855 -0.02703336 -0.03436543 -0.031397857
-0.03150287 -0.030366674 -0.04862299 -0.010290227 -0.016295515 -0.011941356 0.0059894463 0.01491741
-0.004000673 0.021763662 0.018124223 0.007849853 -0.017142883 -0.06971378 -0.09140338 0.04001819
-0.03493565 -0.05283831 0.07265735 0.028035173 -0.023926778 -0.09201217 -0.10030326 -0.09023678
-0.08261132 -0.114616275 -0.0964934 -0.063839994 -0.07916378 -0.065076426 -0.0023554987 0.010539792
0.0034719086 0.029572478 0.016247224 0.03021109 0.029205643 0.0376609 0.032537725 -0.05261077
-0.06891331 -0.054891467 -0.020961527 -0.016369123 -0.016044332 -0.0025180324 -0.0016005 -0.003271529
-0.009658947 -0.02771058 -0.020180596 -0.02875561 -0.05114203 -0.04408819 -0.016190454 -0.052601162
-0.035960075 -0.16888951 -0.054687407 0.013993574 -0.09813837 -0.08858901 -0.033340164 -0.00044741502
-0.12386373 -0.1877152 -0.0964846 -0.13891181 -0.1383135 -0.010537445 -0.046595756 -0.062282838
0.010919665 0.004256488 0.0011605412 -0.030854184 -0.0332566 -0.009064761 -0.05687518 -0.047554698
-0.026308794 -0.04369561 -0.0279949 0.010959363 0.0019124397 -0.043164443 -0.062100045 0.0364529
00000000: 31d3 c4bd dc42 19be 3a5c e0bd 5aa5 09be
00000010: e36a 3abe 6648 1fbe a72d a5bd 444e f9bd
00000020: 957d e6bd 5e5d 52bc f441 87bc 42db dcbc
00000030: 0593 873c fb72 58bc ca28 a2bb ab6d ad3c
00000040: 284e d53c 1fb1 243c 0b7d 5ebd 0d64 acbd
00000050: b17c b9bd 1de9 abbd 6d60 dbbd 5e83 d2bd
00000060: 85c0 89bd 2ece e4bd 9e93 e1bd 52b5 a5bd
00000070: e5e4 4ebd 7721 39bd 023b 48bd 851e 4dbd
00000080: fe35 9fbc adfc acbd 7880 c5bd 83ff 51bd
00000090: 8199 76be 70fd 51be 2dde 5fbe dd28 62be
000000a0: 27d5 5abe 191f 67be 90d8 6dbe 1cef 80be
000000b0: ac68 88be 42ee a9bc b987 debc 58b1 b4bc
000000c0: 4517 aebc 3df8 01bd db69 e8bc 714f dfbc
000000d0: 99c7 f4bc 4d54 3ebc d101 20bc bf10 80bc
000000e0: a419 873c 2198 1abb 0ee3 7fbc c905 0d3d
000000f0: 775e 47bb 789a 19ba 603c c13c b892 1a3d
00000100: b88f ce3b 4acb b73a c8f4 503c 38fa eabc
00000110: 2879 e9bc 4083 bfbb ea04 e6bc 40ee 3abd
00000120: 9448 ec3d aac4 653d cb5b c93c 3357 a33d
00000130: 11f4 6fbc afe4 cbbd 8f66 b2bd 58ae f9bd
00000140: d5d1 4cbe 20df 0cbd 76f5 fbbc b661 7cbc
00000150: 4f05 3cbd 92c5 b7bc 6244 01bc fe1d 1dbd
00000160: 01de b6bc 8e39 b2bc 040a 1abc c491 41bc
00000170: 0278 20bc a3c4 c6bc d6eb f2bc 2d3c 97bc
00000180: 117a abbc d19f c0bc 68c7 4fbc aae7 883b
00000190: 1841 ed3b bab2 c23b 8ff4 41bc e44f 1cbc
000001a0: 12ae 00bc f365 44bc 7253 b8bc 3576 3fbc
000001b0: a5a3 9ebb 5e72 01bc bf3c 8b3a ca8f 4abb
000001c0: 3b33 acba 3634 c5b9 6f94 4bbc 351b 45bc
000001d0: 6936 a3bb 051d 68bd 7689 f0bc c5e9 0bbd
000001e0: 1f38 8dbd dd84 22bd 048f f7bc 6cec 67bd
000001f0: 0b97 4abd 1ee7 1fbd 963f aabd 3a84 75bd
00000200: c743 f0bc 8462 5abd 7750 7cbd 15b0 aebc
00000210: eb50 b1bd 264a 9abd ccd3 37bd 8fa3 5bbd
00000220: 18b2 c7bd c89f 17bd 4577 88bc a563 93bd
00000230: 1d81 20bd 24c2 1d3c d0a8 6fbd d6ec 3bbd
00000240: 2904 72bd 06bb 50bd b276 95bb f7d2 7ebd
00000250: 8752 2dbd 8fce ef3b 6599 4bbd e8f3 1ebd
00000260: 28e3 bcbb 3e72 10bd 51f5 e5bc 9263 0bbd
00000270: 2d17 a3bc ae14 dbbc 4357 e3bc f9b3 fcbc
00000280: 8e7c 43bd 3cab 84bd 1735 54bd a814 83bd
00000290: 9bfa 3fbd 1175 ddbc c4c2 0cbd 0a9b 00bd
000002a0: 2709 01bd 88c3 f8bc e628 47bd 5798 28bc
000002b0: 2c7e 85bc ada5 43bc 1e43 c43b 2768 743c
000002c0: 1418 83bb b549 b23c 4079 943c ab9c 003c
000002d0: 3b6f 8cbc 19c6 8ebd b231 bbbd 1dea 233d
000002e0: af18 0fbd fc6c 58bd 60cd 943d 05aa e53c
000002f0: 1702 c4bc e070 bcbd cc6b cdbd 10ce b8bd
00000300: 2030 a9bd f0bb eabd 559e c5bd 8bbe 82bd
00000310: 9f20 a2bd ca46 85bd b65e 1abb 17af 2c3c
00000320: f688 633b fb41 f23c e618 853c 3f7d f73c
00000330: ac40 ef3c 5142 1a3d 4746 053d 647e 57bd
00000340: 6c22 8dbd e0d5 60bd 82b7 abbc 8a18 86bc
00000350: 676f 83bc 9305 25bb dec7 d1ba 2667 56bb
00000360: 8f40 1ebc 4c01 e3bc c751 a5bc e390 ebbc
00000370: 4e7a 51bd d195 34bd d8a1 84bc 5174 57bd
00000380: df4a 13bd 5ff1 2cbe e7ff 5fbd 4e45 653c
00000390: c5fc c8bd 286e b5bd b28f 08bd 0793 eab9
000003a0: 44ac fdbd 6a38 40be b899 c5bd e63e 0ebe
000003b0: 0ea2 0dbe 3fa5 2cbc 31db 3ebd 4a1c 7fbd
000003c0: 65e8 323c 027a 8b3b 4d1d 983a eac1 fcbc
000003d0: 1338 08bd 5d84 14bc f3f5 68bd b7c8 42bd
000003e0: 8a85 d7bc 2bfa 32bd 8f55 e5bc e68e 333c
000003f0: d4aa fa3a 33cd 30bd 9e5c 7ebd a34f 153d
